problem1/models/underway/success_whole_model_1766856967.pth (torch, 146613 bytes, 9 tensors)

weight f4 [128, 8]
0	0x3ec61f52	0.3869577
1	0x3d7522c5	0.059847612
2	0xbc73fe40	-0.014892161
3	0xbe8d4dc8	-0.27598405
4	0xbe6ce739	-0.2313508
5	0xbf10c40a	-0.5654913
6	0x3e9db9d0	0.30805826
7	0x3e6cfd0c	0.23143405
8	0xbd17bce1	-0.037045363
9	0x3ccb61e6	0.024826955
10	0x3d4c4b23	0.049876343
11	0xbe5fa7d9	-0.21841373
12	0x3d513165	0.051072497
13	0x3eee48e4	0.46539986
14	0xbe85dd64	-0.2614547
15	0xbf075bee	-0.5287465
16	0xbe77b4b2	-0.24190024
17	0x3e81aab5	0.25325552
18	0x3e873aab	0.26411948
19	0x3e425112	0.18976238
20	0xbe338003	-0.17529301
21	0xbdf48b73	-0.1194066
22	0xbe9408da	-0.28913003
23	0x3eb40593	0.35160503
24	0xbeaf596a	-0.34247905
25	0x3ea48334	0.3213135
26	0x3df914c2	0.12162162
27	0x3e3260a1	0.17419674
28	0x3eb83f96	0.35986012
29	0x3f17aaeb	0.59245175
30	0xbf37d142	-0.7180368
31	0x3ea2a22a	0.31764346
32	0xbda7bfb6	-0.08190863
33	0x3f18c831	0.5968047
34	0xbe5d6f04	-0.2162438
35	0x3f355ba8	0.7084298
36	0x3e7bc6c7	0.24587546
37	0x3de96823	0.11396816
38	0x3e5a733d	0.21333022
39	0xbdac2a78	-0.08406538
40	0xbc4ae2c6	-0.012383169
41	0x3e746eea	0.23870435
42	0x3f09d0db	0.53834313
43	0x3ef456c8	0.4772246
44	0xbea92343	-0.33034715
45	0x3f0db108	0.55348253
46	0xbeb8d9a4	-0.36103547
47	0xbd5a4c85	-0.05329563
48	0xbecde449	-0.4021323
49	0x3e5a221d	0.21302076
50	0xbe7da90a	-0.24771515
51	0xbd3c6fe5	-0.04600515
52	0x3f0444b6	0.51667345
53	0xbe775ee0	-0.24157286
54	0x3eb6c798	0.35699153
55	0xbe01bab5	-0.1266888
56	0xbf19a5e8	-0.6001878
57	0xbe1ae8c4	-0.15127856
58	0x3d360d14	0.044446066
59	0xbec8f86e	-0.39252037
60	0xbfaeb76d	-1.3649727
61	0x3e76fa41	0.24118902
62	0x3ce0db5a	0.027448345
63	0xbebfc1a6	-0.3745243
64	0x3ee48760	0.44634533
65	0xbf29c592	-0.66317093
66	0x3d3020ab	0.042999905
67	0xbf151691	-0.5823756
68	0x3d8d5bdd	0.06902287
69	0xbec26c17	-0.3797309
70	0xbef17600	-0.4716034
71	0xbdc47d90	-0.09594262
72	0x3e454e48	0.19268143
73	0x3d094fbb	0.033523303
74	0x3de62b4e	0.112387285
75	0xbc14e60c	-0.009088051
76	0x3edd1027	0.43176386
77	0x3f3fa209	0.7485662
78	0x3dfa9e89	0.122372694
79	0xbc452f6e	-0.012035234
80	0x3dc05082	0.09390356
81	0xc005b0fb	-2.088927
82	0xbec72237	-0.3889329
83	0xbf0c0128	-0.54689264
84	0xbf024793	-0.50890464
85	0x3e2a543d	0.16633697
86	0x3ca03269	0.019555287
87	0xbf1aff71	-0.6054602
88	0x3e023551	0.12715651
89	0xbe317dcd	-0.17333145
90	0x3e1fa6da	0.15590993
91	0xbe37793d	-0.17917342
92	0xbf091e26	-0.5356163
93	0xbec21bbf	-0.37911794
94	0x3e82b74d	0.25530472
95	0x3e8cf638	0.275316
96	0x3ea635d8	0.32462955
97	0xbe2cca14	-0.16873962
98	0xbe7ff3b4	-0.24995309
99	0xbc8fc1e5	-0.01754851
100	0x3ea07cd0	0.31345224
101	0xbede86e7	-0.43462297
102	0x3ee17380	0.44033432
103	0x3e665dda	0.22496739
104	0x3e2a571c	0.16634792
105	0x3e62239a	0.22083893
106	0x3e79d198	0.2439636
107	0x3e967242	0.29384047
108	0xbebf53b7	-0.37368557
109	0xbef906ff	-0.4863815
110	0xbd2b4684	-0.041815296
111	0x3ede9743	0.4347478
112	0xbe044d51	-0.12920119
113	0xbd84110c	-0.06448564
114	0x3ebf8cf8	0.37412238
115	0x3dee610c	0.11639604
116	0xbef9b7d9	-0.48773077
117	0xbf5edcf6	-0.8705591
118	0x3e850f3e	0.2598819
119	0x3ea3f88e	0.3202557
120	0x3e2166fd	0.15761943
121	0xbe0c25b9	-0.13686265
122	0x3ed18b0b	0.40926394
123	0xbe993821	-0.29925635
124	0xbeff3879	-0.49847773
125	0xbe0650a7	-0.13116704
126	0x3ee9f002	0.45690924
127	0x3ec0f926	0.37690085
128	0x3ea8e175	0.3298451
129	0xbeb9501a	-0.36193925
130	0xbd097c83	-0.03356601
131	0xbf352109	-0.7075353
132	0xbd246016	-0.040130697
133	0xbe95a0a1	-0.29224113
134	0x3ea7fad2	0.32808548
135	0x3dea6b72	0.11446275
136	0xbe20210b	-0.15637605
137	0xbc99bb59	-0.018766092
138	0x3f3fd338	0.7493167
139	0xbf0d3407	-0.5515751
140	0x3f2d600d	0.67724687
141	0xbde30f09	-0.11086852
142	0xbf1734b1	-0.59064776
143	0xbe2b084f	-0.16702388
144	0xbf22aa68	-0.6354127
145	0xbd9e9836	-0.07743876
146	0xbf0f3510	-0.5594034
147	0xbf0d7ab4	-0.55265355
148	0x3ea3a032	0.31958157
149	0x3bcc7b3e	0.0062402776
150	0x3d5ea20a	0.05435375
151	0x3e31948c	0.17341822
152	0x3da915f1	0.08256138
153	0xbdd4a07b	-0.10382172
154	0xbe141a48	-0.1446315
155	0xbe3e717c	-0.18597978
156	0x3f90ced5	1.131312
157	0x3d48bc97	0.04900798
158	0xbd1b85da	-0.037969448
159	0x3e832b49	0.2561896
160	0x3db99e84	0.090634376
161	0x3ea5c554	0.32377112
162	0xbe13f9a2	-0.14450696
163	0xbea492c8	-0.32143235
164	0xbf093ef2	-0.5361167
165	0x3f042287	0.51615185
166	0xbec9b667	-0.39396974
167	0xbee6b7d8	-0.45062137
168	0xbe5bb0a8	-0.21454108
169	0x3e97d9e3	0.29658422
170	0xbe82cdbc	-0.25547588
171	0xbe87bb88	-0.26510262
172	0x3f770e91	0.965066
173	0x3e9e81a9	0.30958298
174	0xbecbd8fb	-0.3981398
175	0xbdd98823	-0.10621669
176	0xbd329479	-0.043598626
177	0x3ede75e9	0.43449333
178	0xbe365783	-0.1780682
179	0x3e60e958	0.21964014
180	0x3ec33c8d	0.38132134
181	0x3eabc47b	0.3354834
182	0x3eb2b969	0.34907082
183	0xbf07266d	-0.5279301
184	0x3e8017d9	0.25018194
185	0xbd99eb8e	-0.075156316
186	0xbe1575c5	-0.14595707
187	0xbe25bdba	-0.16185656
188	0xbe06d920	-0.13168764
189	0xbe9d4124	-0.3071376
190	0xbf53ef10	-0.82786655
191	0xbcd0befd	-0.025481695
192	0xbeb131a2	-0.3460818
193	0x3c6e3798	0.014539622
194	0xbe18a561	-0.14906837
195	0x3d9b5baa	0.07585843
196	0x3f171644	0.5901835
197	0x3e07e1b2	0.1326969
198	0x3e422ba7	0.18961965
199	0x3e43d4e2	0.19124177
200	0xbec43790	-0.3832364
201	0xbe0d4988	-0.13797581
202	0xbf1558fd	-0.5833891
203	0x3dd24c6c	0.102684826
204	0x3e0072d7	0.12543808
205	0x3cbb3622	0.022852961
206	0x3ebff280	0.374897
207	0x3db03218	0.086033046
208	0xbe536caf	-0.20646928
209	0x3eb634a4	0.35587037
210	0xbe95afd9	-0.29235724
211	0x3e38c4b2	0.18043783
212	0xbeae381a	-0.34027177
213	0x3eadbf53	0.3393503
214	0x3dbdcb09	0.092672415
215	0x3e4b0a10	0.19828057
216	0x3ea125d7	0.31474182
217	0x3eda4ac8	0.4263518
218	0xbf36de27	-0.7143273
219	0xbe081fda	-0.132934
220	0x3e70663c	0.234765
221	0xbef1b26b	-0.47206435
222	0x3defdf58	0.11712521
223	0xbf027bd5	-0.509702
224	0x3e631e52	0.22179535
225	0xbdcf3733	-0.1011795
226	0x3e02a4d6	0.12758192
227	0xbe87261d	-0.26396266
228	0xbf0aadea	-0.5417162
229	0x3edb6ab2	0.4285484
230	0x3e29aab7	0.16569029
231	0xbdd76110	-0.1051656
232	0x3e37c268	0.17945254
233	0xbe88fbf9	-0.2675474
234	0x3e66be17	0.22533451
235	0xbd2edab2	-0.042689033
236	0xbf119d72	-0.5688087
237	0xbeb3d727	-0.35125086
238	0x3d9eadf2	0.07748021
239	0x3e5b095a	0.21390286
240	0x3ed4ec78	0.4158666
241	0xbe8fbf8e	-0.28075832
242	0x3e80bc15	0.25143495
243	0xbe8a2105	-0.26978317
244	0xbec93dbc	-0.39304912
245	0xbed482a6	-0.41505927
246	0xbf22756f	-0.6346044
247	0xbedb712c	-0.4285978
248	0xbd844749	-0.06458909
249	0x3f158ed6	0.58421075
250	0xbe36ec25	-0.1786352
251	0x3e77ffb7	0.24218641
252	0x3ef2747f	0.47354504
253	0x3ead1bea	0.3381036
254	0xbf048da5	-0.5177863
255	0xbe9d264d	-0.30693284

bias f4 [128]
0	0xbed00988	-0.40632272
1	0x3e5fca7c	0.21854585
2	0x3e191e56	0.14952978
3	0x3de02fd6	0.10946624
4	0x3e5c86f4	0.21535856
5	0xbf11faf7	-0.57023567
6	0x3f037530	0.5135069
7	0x3ee26f8d	0.44225731
8	0xbec22db9	-0.3792551
9	0xbd0f6623	-0.035009515
10	0x3e23e7ba	0.16006365
11	0xbcd56f9d	-0.026054198
12	0x3e9f7af1	0.31148484
13	0x3e070e1b	0.13188975
14	0xbe4c6af4	-0.19962674
15	0x3edf4f3b	0.43615136
16	0x3e62ddd6	0.22154936
17	0xbc29b3bc	-0.010357793
18	0xbe019c5e	-0.12657306
19	0x3e8a4f9c	0.27013862
20	0x3ec263bd	0.3796672
21	0x3f000b06	0.5001682
22	0x3dd83155	0.10556284
23	0x3e1af367	0.15131913
24	0x3e57e52e	0.21083519
25	0xbe75c636	-0.24001393
26	0x3f1516e8	0.5823808
27	0xbe0feef4	-0.14055997
28	0x3f00382c	0.5008571
29	0x3e86431d	0.26223078
30	0xbe60215d	-0.21887727
31	0x3d99d8b0	0.07512033
32	0x3d9549d4	0.07289472
33	0xbd9ac45e	-0.07556985
34	0x3f00c8b3	0.5030624
35	0xbd804046	-0.06262259
36	0x3dd69ff3	0.10479727
37	0xbe887c1e	-0.26657194
38	0x3f08e9b7	0.5348162
39	0xbda9f2b0	-0.08298242
40	0x3d8bc236	0.06824152
41	0x3e38055c	0.17970794
42	0xbefaf674	-0.49016154
43	0xbe619375	-0.22028907
44	0x3d5be601	0.053686146
45	0xbeaefbab	-0.34176382
46	0xbda37a9e	-0.07982372
47	0x3ee94a85	0.45564666
48	0x3e926bed	0.28597966
49	0x3de54ad3	0.11195912
50	0x3e23f4c7	0.16011344
51	0x3e033630	0.1281364
52	0x3ebaa87c	0.36456668
53	0x3f0bebc6	0.54656637
54	0xbef2a5dd	-0.4739217
55	0x3e565742	0.20931724
56	0xbedb5f57	-0.42846176
57	0x3ba1f77e	0.0049428334
58	0x3e4eb33b	0.20185558
59	0x3ec045c7	0.37553236
60	0x3e55aa7a	0.20865813
61	0x3e1ee10b	0.15515535
62	0x3ee024ce	0.4377808
63	0x3dc9ce28	0.09853774
64	0x3e507014	0.20355254
65	0x3db0961d	0.08622382
66	0xbef55183	-0.4791375
67	0x3eb9b87c	0.36273563
68	0x3d146519	0.036229227
69	0x3d5e88cf	0.05432969
70	0x3e21f627	0.15816556
71	0xbe881648	-0.265795
72	0x3e94ea5d	0.29085055
73	0xbee649fa	-0.44978315
74	0x3e91479c	0.28374946
75	0x3e584293	0.21119146
76	0xbc991756	-0.018687885
77	0x3e1abe92	0.1511176
78	0x3eec5b33	0.4616333
79	0xbe0a3998	-0.13498533
80	0xbdd6ee67	-0.104946904
81	0x3f0acc13	0.5421764
82	0x3e4b054f	0.19826244
83	0x3e84e74a	0.2595771
84	0xbe713769	-0.23556294
85	0xbe2efe45	-0.17089184
86	0xbce28740	-0.027652383
87	0x3d9d545b	0.07682105
88	0x3e1a394f	0.15060924
89	0x3e76e49b	0.24110644
90	0x3cb3ccaf	0.021948187
91	0x3e8ef603	0.27922067
92	0x3e1866b2	0.14882925
93	0xbe37a423	-0.17933707
94	0xbe95f9e1	-0.29292205
95	0x3ebe0c8a	0.37118942
96	0x3eb23bd3	0.34811267
97	0xbdaf8834	-0.085709006
98	0x3ec11b82	0.377163
99	0xbecb40e6	-0.3969795
100	0x3eda6028	0.42651486
101	0x3f0fc865	0.5616515
102	0x3b062d2a	0.0020473697
103	0xbd941881	-0.07231236
104	0x3f035b30	0.51311016
105	0xbe1e9235	-0.15485461
106	0x3ed9160b	0.4239963
107	0xbe629853	-0.2212842
108	0xbe592dcd	-0.21208878
109	0x3ebf47ba	0.3735941
110	0xbcdc069f	-0.026858626
111	0xbebbb44f	-0.36661002
112	0x3dab89f9	0.083759256
113	0x3e95c03e	0.29248232
114	0x3ea6b074	0.32556498
115	0x3ee7fadd	0.4530858
116	0x3e261fd7	0.16223083
117	0xbc18a83c	-0.009317454
118	0x3cbabc50	0.022794873
119	0xbecd770c	-0.40129888
120	0xbcc32e3c	-0.023825757
121	0xbc0d3b34	-0.008620072
122	0xbe741877	-0.23837458
123	0x3e8957bd	0.26824751
124	0xbe426723	-0.18984656
125	0xbefaacde	-0.48960012
126	0xbd98024a	-0.074223116
127	0xbdbd297f	-0.092364304

weight f4 [128, 128]
0	0x3df76ace	0.12080918
1	0x3eac0497	0.33597252
2	0x3ecb1c04	0.39669812
3	0x3e082581	0.13295557
4	0x3ebcfd94	0.36912215
5	0x3ecd80df	0.40137383
6	0x3d2ff12f	0.04295462
7	0x3e01124a	0.12604633
8	0x3ee4df89	0.44701794
9	0x3e1210c7	0.14264213
10	0xbefcd442	-0.4938069
11	0x3de7bdcf	0.113155
12	0x3dc3caaa	0.095601395
13	0x3e36c47c	0.1784839
14	0x3d760ed6	0.060072742
15	0xbd2355dd	-0.039876807
16	0x3dc4fbec	0.09618363
17	0xbedec9e1	-0.43513396
18	0x3edfa25e	0.43678564
19	0xbd2cf42d	-0.04222505
20	0xbd79b6c0	-0.0609653
21	0x3da5fe64	0.08105162
22	0x3eadf416	0.33975285
23	0x3e64c0fb	0.22339241
24	0x3dea04f1	0.11426724
25	0x3ed1c60a	0.40971404
26	0x3b0dc1fa	0.0021630512
27	0xbdde38c2	-0.108506694
28	0xbe15588a	-0.14584556
29	0x3e76f3a4	0.24116379
30	0x3f454b58	0.7706809
31	0x3e8288d2	0.2549501
32	0x3e856c47	0.26059172
33	0x3e817b67	0.2528946
34	0xbc52b492	-0.012860434
35	0xbe1a140c	-0.1504671
36	0x3e853003	0.26013193
37	0x3f0770b8	0.5290637
38	0x3e011d0b	0.12608735
39	0x3e933f7c	0.28759372
40	0x3e14f83b	0.14547817
41	0x3e249ab5	0.16074641
42	0xbf393588	-0.7234731
43	0xbe3abef2	-0.18236902
44	0x3e816ee3	0.25279912
45	0x3ea1ed7e	0.31626505
46	0x3f28ae0a	0.6589056
47	0xbe18b5a7	-0.14913045
48	0xbdc25c18	-0.09490222
49	0x3ea72185	0.3264276
50	0x3f07c7c2	0.5303918
51	0x3e8ce9e8	0.27522206
52	0x3e46ef0d	0.19427128
53	0xbd1ea95e	-0.03873574
54	0x3f1a1443	0.60187167
55	0x3e2f93aa	0.17146173
56	0x3ebf472b	0.37358984
57	0x3e955b48	0.29171205
58	0x3e347d72	0.17625979
59	0x3db13a07	0.08653646
60	0xbf4df0d8	-0.80445623
61	0x3b32dfeb	0.002729411
62	0x3ce51069	0.027961927
63	0x3e07438e	0.13209364
64	0x3e81d802	0.25360113
65	0x3e2b4779	0.16726483
66	0xbd8f934a	-0.07010515
67	0xbd60fc60	-0.054928184
68	0xbccb72dd	-0.024835045
69	0x3e145df9	0.14488973
70	0x3e4d460d	0.20046254
71	0x3e34ec7e	0.1766834
72	0xbcb4162b	-0.021983227
73	0x3f1efff7	0.6210932
74	0x3dfcd641	0.12345553
75	0x3e76bead	0.24096175
76	0x3f19e057	0.6010794
77	0xbe9ef468	-0.31045842
78	0xbdb51950	-0.088427186
79	0xbdf86d51	-0.121302254
80	0x3e48c411	0.19606043
81	0x3dc0f18b	0.09421071
82	0x3e2b264d	0.1671383
83	0xbe8521c9	-0.2600234
84	0x3de8ced1	0.11367572
85	0x3e9a8abe	0.30183977
86	0x3e630f76	0.22173867
87	0x3e14e550	0.14540601
88	0xbeb9a540	-0.36258888
89	0x3be6027e	0.00701934
90	0x3e23a819	0.15982093
91	0xbe24e458	-0.16102731
92	0xbd3c0c79	-0.045910332
93	0x3e879e35	0.2648789
94	0x3db51d62	0.08843495
95	0x3d01170d	0.031516124
96	0x3d35bfef	0.044372495
97	0x3e088881	0.13333322
98	0x3b8b128f	0.0042441557
99	0x3f53b3fe	0.8269652
100	0x3eab8351	0.33498624
101	0xbc8070d9	-0.01567881
102	0xbddec453	-0.108772896
103	0xbda22544	-0.07917264
104	0xbdc47810	-0.095932126
105	0xbf5debdc	-0.8668802
106	0xbdc8d22c	-0.09805712
107	0x3ec5be01	0.38621524
108	0x3e56430e	0.20924017
109	0x3dfdccc3	0.12392571
110	0x3e19b7bd	0.15011497
111	0xbe8ef8ca	-0.27924186
112	0x3e1e5741	0.15462972
113	0x3e06b1b7	0.1315373
114	0x3d9a6ce3	0.075403
115	0xbda18998	-0.07887572
116	0xbe3a265f	-0.181787
117	0xbe4ad02a	-0.19805971
118	0xbd737f81	-0.05944777
119	0x3f288f18	0.65843344
120	0xbef16610	-0.4714818
121	0xbd236738	-0.03989336
122	0x3ea76462	0.32693774
123	0x3d8972a3	0.06711318
124	0x3e901279	0.28139094
125	0x3f08f461	0.5349789
126	0x3f3e1cb0	0.74262524
127	0x3e88b222	0.26698405
128	0x3de88a24	0.11354473
129	0xbe1910c3	-0.149478
130	0x3df402ad	0.11914573
131	0xbe25f4dd	-0.16206689
132	0xbdbecbee	-0.0931624
133	0x3e94757e	0.2899589
134	0x3e1da081	0.15393259
135	0x3d5b6645	0.05356433
136	0xbcc44f9e	-0.023963746
137	0xbdfede42	-0.12444736
138	0x3f41fbdd	0.7577494
139	0x3e53e402	0.20692447
140	0x3e8c0b4a	0.27352363
141	0x3e1fb027	0.1559454
142	0x3e009484	0.12556654
143	0x3e812b4c	0.25228345
144	0x3e990689	0.29887798
145	0x3d292d6e	0.04130309
146	0xbe2aa7d1	-0.1666558
147	0xbe924811	-0.28570607
148	0xbd0ebb39	-0.03484652
149	0xbebff85b	-0.37494168
150	0x3d4cf509	0.05003837
151	0xbd3ec120	-0.046570897
152	0xbe562a33	-0.20914535
153	0xbd7d7559	-0.06187949
154	0x3ddfb8c7	0.10923915
155	0x3e648b34	0.22318727
156	0x3e60717d	0.21918292
157	0x3db17204	0.08664325
158	0xbf0562aa	-0.52103674
159	0x3db2265c	0.08698723
160	0x3c960e8e	0.018317487
161	0xbde1e0e3	-0.11029222
162	0x3e0e17f5	0.13876326
163	0x3e858d67	0.26084444
164	0x3e39bfba	0.18139544
165	0xbe956702	-0.2918015
166	0xbeddbdaa	-0.43308765
167	0xbde104f9	-0.109872766
168	0xbd49c0fd	-0.049256314
169	0x3cd40091	0.025879176
170	0x3f72d458	0.9485526
171	0x3e3aad67	0.1823021
172	0xbd88f7eb	-0.066879116
173	0xbc436eb9	-0.011928254
174	0xbf2689ed	-0.6505421
175	0xbc106c1a	-0.008814836
176	0xbd7f5262	-0.062334426
177	0x3d993f75	0.074828066
178	0xbcc1e469	-0.023668485
179	0x3d43efd8	0.047836155
180	0x3df4569a	0.119305804
181	0x3e2ad2a8	0.16681921
182	0xbef0a024	-0.46997178
183	0x3da2ba95	0.07945744
184	0xbbc8aad2	-0.006123879
185	0x3d079072	0.03309674
186	0x3d2b3ba2	0.041804917
187	0xbef3b0d9	-0.47595862
188	0x3f8a256c	1.079267
189	0x3e916228	0.283952
190	0x3e1f9af7	0.15586458
191	0xbe178ef4	-0.14800626
192	0x3e783141	0.24237539
193	0xbe80b583	-0.25138482
194	0x3db65e98	0.08904761
195	0x3e875c65	0.2643768
196	0x3eddf14b	0.43348154
197	0xbeb14cc2	-0.34628874
198	0x3e54bac0	0.20774364
199	0x3e5e9b1f	0.21738862
200	0x3eabab5f	0.33529183
201	0xbe3d266a	-0.18471685
202	0xbeab2223	-0.33424482
203	0xbf03c56c	-0.51473117
204	0xbec23ed9	-0.37938574
205	0x3e8e739a	0.27822572
206	0x3df4212a	0.11920388
207	0x3ef6dfa8	0.4821751
208	0xbe23bb90	-0.15989518
209	0xbea37d80	-0.31931686
210	0x3e5c499b	0.21512453
211	0x3e601e29	0.21886505
212	0xbd3c69c0	-0.04599929
213	0x3db928e6	0.09041004
214	0xbe3eedb9	-0.18645371
215	0x3e758637	0.2397698
216	0x3ec87e08	0.39158654
217	0x3df19c73	0.117974184
218	0x3e2ac7ae	0.16677734
219	0x3e0178b3	0.126437
220	0x3e8e4cef	0.2779307
221	0xbde80a18	-0.1133005
222	0x3e5390c2	0.2066069
223	0x3d5bfa01	0.05370522
224	0x3dd501cf	0.104007356
225	0x3ea576c4	0.32317173
226	0x3e3e5729	0.18587936
227	0xbf569cda	-0.83833086
228	0xbe3b2581	-0.18276025
229	0x3e15711d	0.1459393
230	0x3e357b37	0.17722784
231	0x3e792bb5	0.24333079
232	0x3e07139a	0.13191071
233	0x3f20f5b6	0.62874925
234	0x3e680f18	0.22662008
235	0x3e0208fa	0.12698737
236	0x3d6d15de	0.057882182
237	0x3d8efbf8	0.06981653
238	0x3e35277a	0.1769084
239	0x3f56d3cf	0.83916944
240	0x3e5ee0a4	0.21765381
241	0x3de464aa	0.11152013
242	0x3daa9ac5	0.08330301
243	0x3e5fe68a	0.21865287
244	0x3e9457d6	0.28973264
245	0x3e721007	0.23638926
246	0x3e5c0429	0.21485962
247	0xbf2052de	-0.62626445
248	0x3f36b545	0.71370345
249	0x3f4db507	0.8035435
250	0x3eb3baf1	0.35103562
251	0x3e260402	0.16212466
252	0xbe794e9e	-0.24346396
253	0xbec1333e	-0.37734407
254	0xbec5c393	-0.38625774
255	0xbe8eba96	-0.2787673

bias f4 [128]
0	0xbdeadd43	-0.114679836
1	0x3e06bf9d	0.13159032
2	0xbe5b9f3d	-0.21447463
3	0x3e4590ea	0.19293562
4	0x3e8c580a	0.27410918
5	0x3e3b2285	0.18274887
6	0xbd11e6ec	-0.035620615
7	0xbd4966d5	-0.049170334
8	0x39a97338	0.00032320037
9	0x3e531ad8	0.20615709
10	0xbe0950e1	-0.13409759
11	0x3da90c17	0.08254259
12	0x3e1e0db6	0.15434918
13	0xbda77f88	-0.081786215
14	0x3cc03286	0.023461591
15	0xbe411b40	-0.18858051
16	0xbcb9a5d0	-0.022662073
17	0xbe4a781a	-0.19772378
18	0xbdee0e47	-0.11623817
19	0x3d8fc636	0.070202276
20	0x3e8ecbc5	0.2788984
21	0xbda80fc5	-0.08206133
22	0xbd8dc381	-0.06922055
23	0xbdfeb6c3	-0.12437203
24	0x3d11efe4	0.03562917
25	0xbdaed1cf	-0.085361116
26	0xbe4926e6	-0.19643745
27	0xbd1ae3f8	-0.037815064
28	0x3d1659d7	0.03670677
29	0xbc092929	-0.00837163
30	0xbdb7d311	-0.089758046
31	0x3e3f0462	0.18654016
32	0xbe8e43b9	-0.27786043
33	0xbda1d39c	-0.079016894
34	0x3e096047	0.13415633
35	0xbe064000	-0.13110352
36	0xbe5656a8	-0.20931494
37	0xbd9e4ee6	-0.077298924
38	0xbdb4f8f2	-0.08836545
39	0xbe5c62c2	-0.21522048
40	0x3e0a2a08	0.13492596
41	0xbe0cea16	-0.13761172
42	0xbd6aa44c	-0.057285592
43	0xbd31d2af	-0.043413814
44	0x3d9b99da	0.07597704
45	0xbe3b618a	-0.18298927
46	0xbe3fa5bd	-0.18715568
47	0x3e0b7bdd	0.13621469
48	0xbdc5fd3f	-0.096674435
49	0x3e2159dc	0.15756935
50	0xbe643c9d	-0.22288747
51	0x3e05de0c	0.13072985
52	0xbe5a16c4	-0.21297747
53	0x3e7037c2	0.2345877
54	0xbdc6a545	-0.096994914
55	0xbe1d7066	-0.15374908
56	0x3dbf64a6	0.09345369
57	0x3dc85fa0	0.09783864
58	0x3e09e26f	0.13465284
59	0x3be31129	0.006929536
60	0xbe85e4ba	-0.26151067
61	0x3e3e6ee2	0.18596986
62	0xbd6120cc	-0.05496292
63	0x3d595218	0.053056806
64	0x3d29c680	0.04144907
65	0x3e3c1cda	0.18370381
66	0xbdfaf833	-0.122543715
67	0x3dfd95bd	0.12382076
68	0xbdb81960	-0.08989215
69	0xbd4e3ee8	-0.05035296
70	0xbd366f63	-0.04453982
71	0xbe374bc8	-0.17900002
72	0xbe31831b	-0.17335169
73	0x3df9ea92	0.12202944
74	0xbdfb8297	-0.122807674
75	0x3d7f757f	0.062367912
76	0x3d6f92f7	0.058489766
77	0x3e1e3bb9	0.1545247
78	0x3d69fa05	0.057123203
79	0x3df7b1a5	0.1209443
80	0xbdd21bfe	-0.10259245
81	0x3e48e4c2	0.19618514
82	0x3e0f99dd	0.14023538
83	0xbdc42d69	-0.09578974
84	0xbd7b963e	-0.06142258
85	0x3db17f37	0.086668424
86	0xbcbb9e42	-0.022902612
87	0x3ca3cdc2	0.019995574
88	0xbd081d5f	-0.033231135
89	0xbe69c413	-0.22828703
90	0x3aa3010e	0.0012436227
91	0xbe4eacff	-0.2018318
92	0xbe262895	-0.16226418
93	0xbe52c0f7	-0.20581423
94	0x3e229546	0.15877256
95	0xbd6c4152	-0.05767948
96	0xbe01396c	-0.12619561
97	0xbcffd2b4	-0.0312284
98	0x3e55c3ab	0.20875423
99	0x3dcd1496	0.10013692
100	0xbddef3b8	-0.108863294
101	0x3da7a050	0.08184874
102	0x3e1474c2	0.14497665
103	0xbe649a4f	-0.22324489
104	0xbdb687ee	-0.08912645
105	0xbe83aa64	-0.25715935
106	0xbe564b04	-0.20927054
107	0xbe141b6a	-0.14463583
108	0x3e0c964a	0.13729206
109	0x3e8bb6a3	0.27287778
110	0xbc048a96	-0.008089682
111	0xbd9f1f3a	-0.07769628
112	0x3cb39ec8	0.021926299
113	0xbe2cfc43	-0.16893105
114	0x3e9c8e20	0.30577183
115	0x3def8f44	0.116972476
116	0xbd5103af	-0.051028904
117	0xbde59cd0	-0.1121155
118	0x3eb2b1ad	0.3490118
119	0x3d381bce	0.04494839
120	0xbe237142	-0.15961173
121	0xbe0ca871	-0.1373613
122	0xbd84be44	-0.06481603
123	0xbe028e9d	-0.12749715
124	0xbdb7c492	-0.0897304
125	0xbe44a21e	-0.19202468
126	0xbd928580	-0.07154369
127	0xbd89d234	-0.06729546

weight f4 [1, 128]
0	0xbf03aa63	-0.51431865
1	0x3f4c79a3	0.798731
2	0xbedcfcdb	-0.43161663
3	0x3f8565b6	1.0421665
4	0x3f3cc533	0.737384
5	0x3f488bd6	0.7833837
6	0xbb768e13	-0.0037621304
7	0xbf103488	-0.56330156
8	0xbf0ceac6	-0.55045736
9	0x3f1056b9	0.5638233
10	0xbf0d690a	-0.552384
11	0x3f62b631	0.8855925
12	0x3f6538bd	0.895397
13	0xbf002aaa	-0.500651
14	0xbedf88ab	-0.43658957
15	0xbf64dbfe	-0.8939818
16	0xba984357	-0.0011616749
17	0xbf0550cf	-0.5207643
18	0xbedd7c87	-0.4325907
19	0x3f384157	0.719747
20	0x3f3723d5	0.7153905
21	0xbefd954b	-0.49527964
22	0xbefe173d	-0.49627104
23	0xbefdefc7	-0.49596998
24	0x3f801a40	1.0008011
25	0xbf005c7b	-0.50141114
26	0xbf3c1162	-0.73464024
27	0x3f4ee478	0.80817366
28	0x3d5fb116	0.05461224
29	0x3aa873d7	0.0012851906
30	0xbeea6a6d	-0.4578432
31	0x3f934fdf	1.150875
32	0xbf3a77c6	-0.7283901
33	0xbccf1c8c	-0.025282167
34	0x3f564736	0.8370241
35	0xbf088345	-0.533253
36	0xbef790d1	-0.48352674
37	0xbed91ee5	-0.42406383
38	0x3ce7cd43	0.028296119
39	0xbf0077b6	-0.50182664
40	0x3f3955e1	0.72396666
41	0xbf074cad	-0.5285137
42	0xbf029b9b	-0.51018685
43	0xbda846ca	-0.08216627
44	0xbd37be5d	-0.04485928
45	0xbeea01de	-0.4570455
46	0xbee2fe7f	-0.4433479
47	0x3f116e01	0.5680848
48	0xbf08c8c4	-0.53431344
49	0x3ef004e7	0.4687874
50	0xbf50f8b0	-0.81629467
51	0x3fa29e5f	1.2704581
52	0xbefe9e13	-0.49729976
53	0x3f3af515	0.73030216
54	0xbefcd747	-0.49382994
55	0xbf2a703f	-0.66577524
56	0x3fde82ff	1.7383727
57	0x3f5f5cce	0.87250984
58	0x3f8583f6	1.0430896
59	0xbecc6a4b	-0.39924845
60	0xbf557483	-0.8338091
61	0x3f861141	1.0474015
62	0xbf0c5992	-0.54824173
63	0x3f5071e9	0.81423813
64	0x3f91713b	1.136268
65	0x3f08d901	0.5345612
66	0xbf0c6278	-0.5483775
67	0x3f906bcd	1.1282898
68	0xbf074df0	-0.528533
69	0xbedaabeb	-0.42709288
70	0xbed10b36	-0.40828866
71	0xbf4136b2	-0.75474083
72	0xbf007322	-0.5017568
73	0x3f5f93e2	0.87335026
74	0xbf15562c	-0.5833461
75	0x3fa52f16	1.2904994
76	0x3f5d6e3e	0.8649634
77	0x3f55b8fe	0.834854
78	0x3dac5ac7	0.08415752
79	0x3f76fd99	0.9648071
80	0xbeee7b8f	-0.46578643
81	0x3f6e690d	0.93129045
82	0x3f696a36	0.9117769
83	0xbf061a8b	-0.5238425
84	0xbf0df724	-0.5545523
85	0x3f5a4b51	0.85271174
86	0x3da57fc8	0.08081013
87	0x3f5994f9	0.8499294
88	0xbc2d7d3b	-0.010588939
89	0xbeedd5c2	-0.46452147
90	0x3f9970c8	1.1987543
91	0xbf2dfbbe	-0.67962253
92	0xbf074184	-0.52834344
93	0xbf5bb56d	-0.8582371
94	0x3f67efff	0.9060058
95	0xbf0edd01	-0.55805975
96	0xbf09b2d6	-0.53788507
97	0xbee69d93	-0.45042095
98	0x3f4650ba	0.7746693
99	0x3f8d463a	1.1037056
100	0xbf02377d	-0.5086592
101	0x3fb0e29c	1.3819156
102	0x3f5c107f	0.8596267
103	0xbf285809	-0.6575933
104	0x3d111344	0.035418764
105	0xbf58a002	-0.8461915
106	0xbf11b435	-0.569156
107	0xbf35dfc0	-0.7104454
108	0x3f541f37	0.8286013
109	0x3f6b2635	0.91855174
110	0xbefd5ad0	-0.49483347
111	0xbf03e64e	-0.5152329
112	0x3f814712	1.0099814
113	0xbf0407ab	-0.515742
114	0x3f339eed	0.70164376
115	0x3f913a60	1.134594
116	0x3d0bc830	0.03412646
117	0xbef151c9	-0.4713271
118	0x3f3972f7	0.7244105
119	0x3f565798	0.8372741
120	0xbee3be37	-0.4448106
121	0xbf166c70	-0.5875921
122	0xbf1fd88d	-0.62439805
123	0xbede657d	-0.43436804
124	0xbecd1ec9	-0.4006255
125	0xbefa89dc	-0.48933303
126	0x38c3185e	9.302863e-05
127	0xbf09264b	-0.53574055

weight f4 [128, 128]
0	0x3e987a31	0.29780725
1	0x3e06f057	0.1317762
2	0x3df365c0	0.11884642
3	0xbc0d2e20	-0.008616954
4	0xbc845165	-0.016152093
5	0xbe506129	-0.20349564
6	0xbc33a9b6	-0.010965755
7	0x3d8b7cfa	0.06810947
8	0x3da3d02c	0.0799869
9	0xbe4589aa	-0.19290796
10	0x3e9cadc3	0.3060132
11	0x3e57b4a2	0.21065
12	0x3e58c5dc	0.21169227
13	0x3d384da6	0.044995926
14	0x3d80a0d1	0.06280673
15	0x3d739ed5	0.059477646
16	0x3e1df5bb	0.1542577
17	0xbe9f4f72	-0.311153
18	0x3d5f8566	0.054570578
19	0x3c90274d	0.017596865
20	0xbbee3357	-0.007269304
21	0xba2e3239	-0.0006645057
22	0x3cc4a892	0.024006162
23	0x3dd7687c	0.10517976
24	0x3daa8a0f	0.08327114
25	0x3e8acc5c	0.2710904
26	0xbd30f23c	-0.043199763
27	0xbfaacce0	-1.3343773
28	0x3be70f3d	0.007051377
29	0xbbe34316	-0.0069354875
30	0x3da3369b	0.079693995
31	0x3ea48df7	0.3213956
32	0xbdc68a45	-0.096943416
33	0x3e13d988	0.1443845
34	0x3d998186	0.07495408
35	0xbf2c399c	-0.67275405
36	0xbe04ef85	-0.12981994
37	0x3e336cc3	0.17521958
38	0x3d2b4e75	0.04182287
39	0x3d1347f8	0.035957307
40	0x3dcd4173	0.10022249
41	0x3cce15f7	0.025156958
42	0xbd932cfe	-0.07186316
43	0xc00c933f	-2.1964872
44	0x3e0a126f	0.13483594
45	0x3e59e27d	0.21277805
46	0xbba1dc07	-0.0049395594
47	0xbe404fee	-0.18780491
48	0xbd98e777	-0.074660234
49	0x3db5c441	0.08875323
50	0x3cedc6c0	0.029025435
51	0x3ec657f1	0.3873897
52	0x3bcec27d	0.006309806
53	0xbdb97bd0	-0.090568185
54	0xbeac0d3c	-0.33603847
55	0x3e3e12f4	0.18561918
56	0xbe1563dd	-0.14588876
57	0x3dbf6077	0.09344571
58	0x3d9d1cb1	0.07671488
59	0xbe8eb2c4	-0.27870762
60	0xbf784bf5	-0.969909
61	0x3da28dab	0.07937177
62	0x3d79762b	0.06090371
63	0xbe0e75bc	-0.139121
64	0xbdef129e	-0.11673473
65	0xbd50a360	-0.050937057
66	0x3da1fc48	0.07909447
67	0xbc9a3820	-0.01882559
68	0x3db70a41	0.08937503
69	0xbf4f2bdf	-0.80926317
70	0x3e38fcb7	0.18065153
71	0xbe44aaf0	-0.19205832
72	0xbd8b6cb0	-0.0680784
73	0x3e612482	0.21986583
74	0xbdf78bd3	-0.12087216
75	0xbe06b321	-0.1315427
76	0x3d878138	0.066164434
77	0xbd24b3f7	-0.04021069
78	0x3d37ec72	0.044903226
79	0xbd90e477	-0.07074826
80	0xbe5695d1	-0.20955588
81	0x3d0191a4	0.031633034
82	0x3e4dd4c5	0.20100696
83	0x3de6b31e	0.11264633
84	0xbccc8f67	-0.024970723
85	0x3dd67276	0.104710504
86	0xbe320b3a	-0.17387095
87	0x3e361c79	0.17784299
88	0x3ebd4e0c	0.36973608
89	0xbdf02630	-0.11726034
90	0x3dbdfacf	0.092763536
91	0xbd39d67b	-0.04537056
92	0x3e0c34e2	0.13692048
93	0x3cd266b2	0.025683735
94	0xbcc3f2e2	-0.023919526
95	0x3e8a9ac1	0.27071193
96	0xbdbe21c7	-0.09283786
97	0x3efec01a	0.49755937
98	0x3cc2616f	0.0237281
99	0x3dbbf8ca	0.09178312
100	0x3d0bd2ef	0.03413671
101	0x3d32ef48	0.043685228
102	0x3cbf3fd6	0.023345869
103	0xbedc2afe	-0.4300155
104	0xbce84ba1	-0.028356375
105	0xbcd0bef7	-0.025481684
106	0x3de395c8	0.11112553
107	0x3db56d75	0.08858768
108	0x3e318323	0.17335181
109	0x3d84428f	0.064580075
110	0x3e07b553	0.13252763
111	0xbe0612de	-0.13093135
112	0x3dea8398	0.11450881
113	0x3e4a28df	0.19742154
114	0x3dbabe5e	0.09118341
115	0x3dbf4385	0.0933905
116	0x3e456537	0.19276892
117	0x3d67a3fc	0.056552872
118	0x3dc52d1c	0.096277446
119	0x39773854	0.0002357674
120	0xbc1bfdf3	-0.009520995
121	0xbe3595e8	-0.17732966
122	0x3ebe159c	0.37125862
123	0xbd521073	-0.05128522
124	0x3e623f01	0.22094347
125	0x3dc49e25	0.09600476
126	0x3d52bbd8	0.051448673
127	0x3aa61a16	0.0012672569
128	0x3c617a25	0.013762032
129	0x3d92a628	0.07160598
130	0xbef11b1b	-0.47090992
131	0x3dd11536	0.10209124
132	0xbe4d39ea	-0.20041624
133	0xbdf11ea8	-0.11773425
134	0xbc9f7770	-0.019466132
135	0x3aa7ceaf	0.0012802685
136	0xbee334c7	-0.44376203
137	0x3d5676cf	0.0523594
138	0x3d94d6ce	0.07267533
139	0xbc8364c3	-0.016039258
140	0x3cf7963d	0.030223006
141	0xbe71c13e	-0.23608872
142	0xbd74861f	-0.05969822
143	0x3dc4926f	0.095982425
144	0x3e336c61	0.17521812
145	0x3ef9a73f	0.4876041
146	0x3db2c0a1	0.08728147
147	0x3e08ecb8	0.13371551
148	0xbb67310c	-0.0035277037
149	0x3dad5046	0.084625766
150	0xbdf066ac	-0.11738333
151	0xbe45d545	-0.19319637
152	0x3cabc184	0.020966299
153	0xbe589bd5	-0.21153195
154	0xbcf703e7	-0.030153228
155	0x3dd1145b	0.102089606
156	0x3d8b76cc	0.06809768
157	0x3cdc6b0e	0.026906516
158	0xbf1c919b	-0.61159676
159	0xbd52fadb	-0.051508766
160	0xbd48957a	-0.048970677
161	0xbee2f687	-0.4432871
162	0x3d0a19fd	0.03371619
163	0x3d2be756	0.041968666
164	0xbec96e8a	-0.39342147
165	0xbf186bb6	-0.59539354
166	0x3e4dee0c	0.20110339
167	0xbe06fce7	-0.13182412
168	0x3dafcdf5	0.08584205
169	0x3d9f5c4c	0.07781276
170	0xbead73a2	-0.33877283
171	0x3d5ca542	0.05386854
172	0xbef0d3b2	-0.4703651
173	0x3dd0aaf3	0.10188856
174	0xbdbb076c	-0.09132275
175	0xbd8e0f9f	-0.06936573
176	0x3ce56a77	0.028004868
177	0xbed2b9b5	-0.41157308
178	0xbf745262	-0.95438206
179	0xbe194b88	-0.14970219
180	0x3de34e72	0.11098947
181	0xbc606ceb	-0.013697843
182	0xbe2c022d	-0.16797705
183	0xbe2119b6	-0.15732464
184	0x3e0f017f	0.13965414
185	0xbec547fb	-0.3853148
186	0x3d91cd76	0.07119267
187	0x3da68983	0.08131697
188	0xbdf454e3	-0.11930253
189	0xbe6c9c29	-0.23106445
190	0x3e29eb26	0.16593608
191	0x3de24ad3	0.11049428
192	0x3deeac35	0.1165394
193	0x3e023706	0.12716302
194	0xbd0798cc	-0.033104703
195	0x3d1be379	0.03805873
196	0x3c23f322	0.010006698
197	0xbdc7c836	-0.09754984
198	0x3e0c230a	0.13685241
199	0xbe41958f	-0.18904708
200	0xbbc893c6	-0.0061211316
201	0xbe74d915	-0.23910935
202	0x3e3d6ce5	0.18498571
203	0x3e63513a	0.22198954
204	0xbe86c885	-0.2632486
205	0x3e0c9389	0.13728155
206	0x3dc34bd4	0.095359474
207	0xbe87a1ef	-0.26490733
208	0x3d818dfc	0.063259095
209	0x3d16cce2	0.036816485
210	0x3d4a9f1a	0.049468137
211	0x3d720ac0	0.059092283
212	0x3b9639d2	0.0045845294
213	0xbf616469	-0.8804384
214	0x3d9edd51	0.077570565
215	0xbe899f8e	-0.26879543
216	0x3eafb96b	0.3432115
217	0x3d83b52d	0.06431041
218	0xbe5c1263	-0.21491389
219	0x3e4072e3	0.18793826
220	0x3e7c62cd	0.24647065
221	0x3e70ed62	0.23528054
222	0xbe5a123a	-0.21296015
223	0x3dc75514	0.09733024
224	0x3e01070d	0.12600346
225	0x3e22fd6a	0.15916982
226	0x3dacd5f7	0.08439248
227	0x3d25f1e3	0.040513884
228	0x3d8337d3	0.06407132
229	0xbddc4d78	-0.107569635
230	0xbd406476	-0.046970807
231	0x3da59ef8	0.080869615
232	0x3e2dd649	0.16976275
233	0xbece283d	-0.40265074
234	0x3dcaa4dc	0.09894726
235	0x3e1da75d	0.15395875
236	0x3df7ac82	0.1209345
237	0xbcb5025b	-0.02209585
238	0xbf2f2021	-0.684084
239	0xbe4110ec	-0.18854111
240	0x3ca87071	0.020561429
241	0x3d57e031	0.05270404
242	0x3e1ed946	0.1551257
243	0x3e589a66	0.21152648
244	0x3e281e22	0.16417745
245	0x3c3d9e68	0.0115734115
246	0xbceeb3e8	-0.02913852
247	0xbef1ee48	-0.47252107
248	0xbeba909f	-0.36438462
249	0xbea80331	-0.32814935
250	0x3d9bf1ab	0.07614454
251	0x3dd0c285	0.10193352
252	0xbb21394d	-0.0024600804
253	0xbecc290b	-0.39875063
254	0x3e63bd12	0.22240093
255	0x3c0bd96d	0.008535725

bias f4 [128]
0	0x3d5e5c65	0.054287333
1	0x3e4c64c5	0.19960316
2	0x3e1b957d	0.15193744
3	0x3df3ca26	0.11903791
4	0xbd0b1e0a	-0.033964194
5	0x3cc065d7	0.023486061
6	0xbbf83c96	-0.007575582
7	0x3e112849	0.14175524
8	0xbd716326	-0.058932446
9	0xbd622fbf	-0.055221315
10	0x3e10f767	0.14156877
11	0x3ddf97f0	0.10917652
12	0x3cefb8b3	0.029262876
13	0x3e019f9a	0.1265854
14	0xbde26d9d	-0.11056063
15	0x3d403b0b	0.046931308
16	0xbd54ec23	-0.05198301
17	0x3df2f71f	0.11863541
18	0x3db12fbf	0.08651685
19	0xbc0a9be6	-0.008460021
20	0xbd107105	-0.035264034
21	0x3e037850	0.12838864
22	0x3d075d20	0.033047795
23	0x3dbbdc51	0.091728814
24	0xbdb7d3cc	-0.08975944
25	0xbc9cca13	-0.019139325
26	0x3ce23cad	0.027616823
27	0x3d6d9b83	0.058009636
28	0xbd1a7592	-0.03770978
29	0xbdfc23af	-0.123114936
30	0xbc18ac47	-0.009318418
31	0x3e0576f9	0.13033666
32	0xbcbb9574	-0.022898413
33	0xbd50ebb9	-0.051006053
34	0xbde1dec0	-0.11028814
35	0xbd9b6686	-0.07587914
36	0x3dae8d43	0.08523037
37	0xbd5b6943	-0.053567182
38	0x3e201664	0.15633541
39	0x3ddb84e0	0.10718703
40	0xbd16151a	-0.036641218
41	0x3d3b7a3a	0.04577086
42	0x3ca76ce7	0.02043767
43	0xbd2c8353	-0.042117428
44	0x3e06016d	0.13086481
45	0x3d59620b	0.053072017
46	0xbd9550aa	-0.07290776
47	0x3ca2ecd4	0.01988832
48	0x3d3432d8	0.0439938
49	0x3e38ef8d	0.18060131
50	0x3dc67f43	0.09692242
51	0xbc197da7	-0.009368337
52	0x3d20f918	0.039300054
53	0xbd58cde0	-0.052930713
54	0x3e60a26f	0.21936963
55	0x3d4fb6b7	0.05071136
56	0xbd15cc85	-0.036572
57	0x3db0470a	0.086072996
58	0xbdd11669	-0.102093525
59	0x3d428de6	0.047498606
60	0x3df454b8	0.11930221
61	0xbc2138ff	-0.009840249
62	0xbcfbfa1f	-0.030758915
63	0x3da3176a	0.0796345
64	0x3d040169	0.032227907
65	0x3d796af7	0.060893025
66	0xbc60ebee	-0.013728125
67	0x3dc3318d	0.095309354
68	0xbe11fe4a	-0.1425716
69	0x3e04419f	0.12915657
70	0x3d150098	0.03637752
71	0xbca47097	-0.020073218
72	0xbce79f16	-0.0282741
73	0xbdc6c22c	-0.09705004
74	0x3d81ee61	0.06344295
75	0x3e308f64	0.17242199
76	0x3de3ce19	0.111232944
77	0x3ba685fc	0.00508189
78	0x3d7a92ff	0.061175343
79	0x3e8cc865	0.2749664
80	0xbd95bb3a	-0.07311101
81	0x3c956bdb	0.018239906
82	0xbcc94ec9	-0.0245737
83	0x3cc04934	0.023472406
84	0x3de0cf7f	0.10977077
85	0x3cc50eca	0.024054904
86	0x3e2798ea	0.16366926
87	0x3e38039e	0.1797013
88	0xbb985c2e	-0.0046496606
89	0x3e26e2a6	0.16297397
90	0xbbb9cee8	-0.005670417
91	0xbd01c5b6	-0.031682692
92	0xbd854b92	-0.065085545
93	0x3c68fd0c	0.014220487
94	0xbc4ff39a	-0.0126923565
95	0x3d3fbec4	0.046812788
96	0x3d792f50	0.060836136
97	0x3bf13065	0.0073605054
98	0xbca9151b	-0.020639947
99	0xbe2e9780	-0.1704998
100	0x3e162335	0.14661868
101	0x3ddc79e2	0.10765435
102	0xbd07e0bf	-0.03317332
103	0x3e243e2b	0.1603934
104	0x3e5a15c9	0.21297373
105	0xbd9f29d5	-0.07771651
106	0x3c6c1e9d	0.014411596
107	0x3d37e9e4	0.04490079
108	0x3dd28bf4	0.102806
109	0xbcb61a2d	-0.022229278
110	0x3e16f374	0.14741307
111	0xbd63a5c3	-0.055578005
112	0x3dc43ff6	0.09582512
113	0xbe11bfb3	-0.14233284
114	0x3c438065	0.011932467
115	0x3d520ea3	0.05128349
116	0xbae67f4d	-0.0017585546
117	0xbd8c9b42	-0.068655506
118	0xbd576b60	-0.052592635
119	0xbdb3bb49	-0.08775956
120	0xbd2c5aa8	-0.042078644
121	0x3d3c2a80	0.04593897
122	0xbd81d344	-0.06339124
123	0x3dbd976a	0.092573956
124	0x3d083c74	0.033260778
125	0xbc4a847f	-0.012360691
126	0xbce489ee	-0.027897801
127	0xbd7b45ce	-0.061345868

weight f4 [4, 128]
0	0x3bc213d5	0.0059227743
1	0xbda030c6	-0.07821803
2	0xbbc18861	-0.00590615
3	0xbd912262	-0.07086636
4	0xbcbbaed1	-0.022910507
5	0xbe9c1f96	-0.30492848
6	0xbef6e450	-0.48221064
7	0xbe037788	-0.12838566
8	0xbbc4a82e	-0.006001494
9	0xbd52f588	-0.051503688
10	0xbe5db2cb	-0.21650235
11	0xbeafb40d	-0.34317055
12	0x3cd3bc80	0.02584672
13	0xbe739f16	-0.23791155
14	0xbec9fda1	-0.39451316
15	0xbcc3dc4e	-0.02390876
16	0x3dbd8afb	0.09255024
17	0x3e090acb	0.13383023
18	0xbe378705	-0.179226
19	0xbdc46738	-0.0959
20	0x3e36d31e	0.17853972
21	0xbeffebf6	-0.4998471
22	0xbecb8fd7	-0.3975818
23	0x3daf38f8	0.08555788
24	0xbf14642b	-0.57965344
25	0xbe10792d	-0.14108725
26	0xbdc73859	-0.09727544
27	0xbe6d230f	-0.23157905
28	0x3d920c7b	0.07131287
29	0xbc66fca0	-0.014098316
30	0x3d97f215	0.0741922
31	0xbdb0a90c	-0.08625993
32	0x3cedfbc4	0.029050715
33	0x3e082a39	0.13297357
34	0xbe8c41e0	-0.2739401
35	0xbe1c2dbc	-0.15251821
36	0xbda4e83c	-0.08052108
37	0xbf3f1764	-0.74645066
38	0xbe62b36d	-0.22138758
39	0x3cdc6f27	0.02690847
40	0x3e856c3c	0.2605914
41	0xbcf8b680	-0.03036046
42	0xbb9e118e	-0.00482387
43	0x3ef453ce	0.47720188
44	0xbd0dca6b	-0.03461687
45	0xbe5b20e1	-0.21399261
46	0xbe1bf2f5	-0.152294
47	0x3e1c8bd9	0.15287723
48	0xbc3a25c8	-0.011361547
49	0x3d6bd47a	0.05757568
50	0x3d2497bd	0.04018377
51	0x3e796199	0.24353637
52	0xbdedc5f7	-0.116100244
53	0xb998c23c	-0.00029136415
54	0x3dec794e	0.115465745
55	0x3e1f8039	0.15576257
56	0x3e81f17f	0.2537956
57	0xbd93ec06	-0.07222752
58	0xbe061dbe	-0.13097283
59	0x3e917a3f	0.2841358
60	0xbe51ec63	-0.2050033
61	0xbdf1aa9b	-0.118001185
62	0x3e3babfb	0.18327324
63	0x3e90524b	0.28187785
64	0xbe28c5a0	-0.16481638
65	0xbe97d72d	-0.29656354
66	0xbd6d0f95	-0.05787619
67	0x3e175aef	0.14780782
68	0xbe7128d9	-0.23550738
69	0xbf2fb335	-0.68632823
70	0x3d92980c	0.07157907
71	0xbe1a460a	-0.1506578
72	0xbdd1cdf4	-0.102443606
73	0x3e3e1d0e	0.18565771
74	0xbe0d2eff	-0.13787459
75	0x3e3a6003	0.18200688
76	0xbe9d9656	-0.3077876
77	0xbe0a1fa4	-0.13488632
78	0x3e0ec9cd	0.13944168
79	0x3e4a8f37	0.19781195
80	0x3e346edb	0.17620413
81	0xbe5d8e4d	-0.21636315
82	0x3ed61a27	0.41816828
83	0x3eee8bbe	0.4659099
84	0xbe413a5a	-0.18869916
85	0x3e6f5f94	0.23376304
86	0xbe207539	-0.15669717
87	0x3e4a13df	0.19734143
88	0x3c8037a3	0.01565153
89	0xbeb1604d	-0.34643784
90	0xbd61eba3	-0.05515636
91	0xbcf9db11	-0.030499967
92	0x3da274df	0.07932448
93	0xbef5ef33	-0.48034057
94	0x3dccd0e3	0.100007795
95	0xbe08a7f7	-0.13345324
96	0x3b4343a3	0.0029794953
97	0x3e2da535	0.16957553
98	0xbf274336	-0.6533693
99	0xbe90788a	-0.28216964
100	0x3ea48d12	0.32138878
101	0xbe5279d2	-0.20554283
102	0x3dadda70	0.08488929
103	0x3d411b3f	0.047145125
104	0x3d244491	0.040104453
105	0xbd507a32	-0.050897785
106	0x3d01021d	0.031496156
107	0xbe94297b	-0.28937897
108	0xbaf0b3bb	-0.0018364111
109	0xbe47c98e	-0.19510481
110	0xbdff3954	-0.12462106
111	0xbe50609d	-0.20349355
112	0x3eb7bae5	0.35884777
113	0xbe05cf1b	-0.13067286
114	0xbf0ba754	-0.545522
115	0xbdb09f96	-0.086241886
116	0x3e2a169f	0.16610192
117	0xbe2a7aeb	-0.16648452
118	0x3e12754b	0.14302556
119	0x3f2802fa	0.6562954
120	0xbdd7bd9e	-0.105342135
121	0xbe1336a0	-0.14376307
122	0xbe8dadb3	-0.27671584
123	0xbcdede69	-0.027205663
124	0x3e275c7f	0.16343878
125	0xbf3eb126	-0.7448906
126	0x3e9e2f01	0.30895236
127	0xbc56cd58	-0.013110481
128	0xbeb6d6ad	-0.3571066
129	0xbf047d96	-0.5175413
130	0x3e96fd23	0.29490003
131	0x3dd4556c	0.103678554
132	0x3efb07c1	0.49029353
133	0xbee2807d	-0.44238654
134	0x3eebe7a1	0.46075156
135	0xbd87ea07	-0.06636434
136	0x3e28325d	0.16425462
137	0x3ec90990	0.39265108
138	0x3a715904	0.0009206685
139	0x3ee23419	0.44180372
140	0x3d56bd60	0.052426696
141	0xbe560fc9	-0.20904459
142	0xbf56dc52	-0.8392993
143	0xbea4aee4	-0.3216468
144	0x3f05d735	0.52281505
145	0x3f16090c	0.58607554
146	0xbe3a6eb3	-0.18206291
147	0xbecf11f2	-0.4044338
148	0x3ef08399	0.469754
149	0x3e9e8b67	0.3096573
150	0xbed6d032	-0.41955715
151	0x3e5287f3	0.20559673
152	0xbd17f604	-0.037099853
153	0xbecd6bdf	-0.40121362
154	0xbe849b54	-0.25899756
155	0xbe73d924	-0.23813301
156	0xbe6bcf0e	-0.23028204
157	0xbe0c8384	-0.13722044
158	0xbda6208f	-0.08111679
159	0xbe27b750	-0.16378522
160	0xbd9cd3ab	-0.0765756
161	0xbea86c0f	-0.32894942
162	0x3ec5db6f	0.38643977
163	0x3d890c53	0.06691804
164	0xbe4deabe	-0.20109078
165	0xbf3f6934	-0.747699
166	0xbd13625e	-0.035982482
167	0xbd69ef99	-0.057113264
168	0xbd87aa79	-0.06624312
169	0x3d65a435	0.056064803
170	0xbe97a264	-0.29616082
171	0xbf019020	-0.5061054
172	0xbdf5413a	-0.119753316
173	0xbf1b1e9a	-0.6059357
174	0xbe6a2470	-0.22865462
175	0x3e0a8a1d	0.13529249
176	0xbea4c96c	-0.32184923
177	0xbec14869	-0.37750557
178	0xbd93ca0d	-0.072162725
179	0x3eaf20fb	0.3420485
180	0xbf05ce3a	-0.522678
181	0x3d8cf1d6	0.06882064
182	0x3e9ff1ca	0.31239158
183	0xbdb3e1b1	-0.087832816
184	0xba677c9b	-0.00088305183
185	0x3d5dd5eb	0.054159086
186	0xbf0e2410	-0.55523777
187	0x3e047970	0.1293695
188	0xbec97cad	-0.39352933
189	0xbe9418cf	-0.28925177
190	0x3daff89b	0.085923396
191	0x3f00996c	0.50234103
192	0x3f4c18ec	0.7972553
193	0xbe40ea5b	-0.188394
194	0xbdaa1998	-0.08305663
195	0xbdfac914	-0.12245384
196	0x3f2f44e7	0.6846451
197	0x3f0fa894	0.56116605
198	0x3d47db3c	0.048793063
199	0x3dcb4316	0.09924905
200	0x3f001925	0.5003837
201	0x3ee9ea11	0.4568639
202	0xbe170564	-0.1474815
203	0x3eb1c386	0.34719485
204	0xbf34e32e	-0.7065915
205	0xbebc8837	-0.36822674
206	0x3e6ae402	0.2293854
207	0xbeb5d580	-0.3551445
208	0xbe05bc9a	-0.13060227
209	0xbec8394f	-0.39106223
210	0x3f0a112c	0.5393245
211	0x3f0a95d6	0.5413488
212	0xbf6269df	-0.88442796
213	0x3eadb27e	0.3392524
214	0xbd0724b5	-0.03299399
215	0x3f300050	0.68750477
216	0x3eefb0b9	0.46814516
217	0xbf17bab8	-0.59269285
218	0x3cbe20d6	0.023209017
219	0xba7dff6b	-0.00096892443
220	0xbd9f449c	-0.07776758
221	0xbf256d43	-0.64619845
222	0x3f393f48	0.72362185
223	0xbe7a1e69	-0.24425663
224	0xbc8c3293	-0.01711396
225	0x3ef51a68	0.4787171
226	0xbef27468	-0.47354436
227	0xbf0e6a12	-0.556306
228	0x3da37ed1	0.07983173
229	0xbdd20556	-0.10254924
230	0xbd2ab76d	-0.041678835
231	0x3e95aa0a	0.29231292
232	0x3eeb82c7	0.45998213
233	0xbb8f6674	-0.004376227
234	0xbdb372e6	-0.087621495
235	0x3ec10c7e	0.37704843
236	0xbe0b3db0	-0.1359775
237	0xbeae6e28	-0.34068418
238	0xbe5c24c3	-0.21498398
239	0xbe59f68c	-0.21285456
240	0x3eb46e92	0.35240608
241	0xbe8937c5	-0.2680036
242	0x3f0f7b73	0.56047744
243	0xbe012862	-0.12613061
244	0x3ec099bc	0.3761729
245	0xbdf55546	-0.11979155
246	0x3eb02955	0.34406534
247	0x3f2214e0	0.633131
248	0xbe1c9db9	-0.15294541
249	0xbe3d8230	-0.18506694
250	0x3eae7294	0.3407179
251	0x3ea5bac6	0.3236906
252	0x3d8c7395	0.06857983
253	0xbf2f72cb	-0.68534535
254	0xbec53f00	-0.38524628
255	0x3cce1aeb	0.02515932

bias f4 [4]
0	0x3d5363f4	0.051608995
1	0x3ca75f7e	0.020431276
2	0x3c5b002a	0.013366738
3	0xbd433314	-0.047656134
