problem1/models/underway/success_whole_model_1766856875.pth (torch, 146613 bytes, 9 tensors)

weight f4 [128, 8]
000000 83 1b d0 3e f9 42 8b bd f2 4d 4b 3e a6 7c 9b be
       0.4064599 -0.067998834 0.19853953 -0.30368537
000010 a5 6c 71 be 88 b2 24 bf d5 b4 a6 3e dc b2 80 3e
       -0.23576601 -0.6433492 0.3255984 0.2513646
000020 05 fc 8a bd a6 76 a8 3c 16 ce e2 3c fb b6 4c be
       -0.0678635 0.020564388 0.02768616 -0.19991677
000030 04 5e 4e 3e 1d 5c 08 3f 0b b9 89 be ab 5d c6 be
       0.20153052 0.53265554 -0.2689899 -0.38743338
000040 51 6c 80 be 2e 99 6f 3e 12 23 86 3e d2 4b 4a 3e
       -0.2508264 0.23398277 0.26198632 0.19755486
000050 c5 a2 6d be 5d 9b a6 be bb 14 8a be 2d bc c0 3e
       -0.23206623 -0.32540408 -0.2696894 0.37643567
000060 13 1a 89 be 9b 42 a2 3e e5 dc 92 3c 6d c0 1c 3e
       -0.26777706 0.3169144 0.017927596 0.1530778
000070 57 db ea 3e 17 54 23 3f 10 d2 4f bf 64 96 39 3e
       0.45870468 0.63800186 -0.81179905 0.18123776
000080 26 12 d1 bd bf 2f 10 3f e1 a9 60 be 83 26 29 3f
       -0.1020854 0.56322855 -0.21939804 0.6607439
000090 63 3d 96 3e 2e c0 35 3e c6 ba 4d 3e 22 6c 97 bd
       0.2934371 0.17749092 0.2009078 -0.073936716
0000a0 a1 75 9b 3d 79 a4 e7 3e f4 4e b7 3e f7 b5 cb 3e
       0.07590795 0.4524267 0.35802424 0.39787266
0000b0 cf 10 3a be 21 ed ae 3e a4 d9 b8 be 85 4c 5a bd
       -0.18170474 0.3416529 -0.36103547 -0.05329563
0000c0 12 55 cc be 15 e8 6c 3e 3f 39 88 be b6 52 7b bd
       -0.39908653 0.23135407 -0.26606175 -0.061358176
0000d0 36 45 df 3e fb f8 4d be a7 8f be 3e 2c f1 07 be
       0.4360749 -0.2011451 0.37218973 -0.13275594
0000e0 5e cc bf be 91 d6 be bd 0a 04 d3 3d 63 43 91 be
       -0.37460607 -0.09318269 0.10303505 -0.28371724
0000f0 2d 0d 6b bf ba e8 37 3e 74 71 5b bd c3 f5 e5 be
       -0.9181698 0.17959872 -0.053574994 -0.44914064
000100 6f ec 8e 3e 4f b3 19 bf 17 4c 27 3e 39 41 21 bf
       0.2791476 -0.6003923 0.1633762 -0.62990147
000110 ba 4d 27 3c 5a 35 08 bf c8 f7 c3 be 66 10 31 3d
       0.010211403 -0.5320641 -0.3827498 0.04322853
000120 dd f4 52 3e 74 2c c5 bb ef 0a cc 3d 14 b2 50 bd
       0.2060122 -0.006017262 0.09963023 -0.05095108
000130 f7 a9 c5 3e 5a 58 31 3f ff 90 0f 3e 91 35 10 3d
       0.38606235 0.6927544 0.14020155 0.035207335
000140 87 f2 a9 be d7 2e c4 bf 70 2b 38 be 3a 89 e9 be
       -0.33192846 -1.5326794 -0.1798532 -0.45612508
000150 2f a3 1d bf 3e 87 a4 3b d4 02 a7 3a 71 ff 1a bf
       -0.61577123 0.005021005 0.0012741932 -0.6054602
000160 4e 6d dc 3d da f5 2e be 0e 33 28 3e 3b 33 26 be
       0.10763036 -0.17085972 0.16425726 -0.1623048
000170 2e ae 00 bf 4f e1 0c bf ad a9 88 3e b8 9d 84 3e
       -0.5026578 -0.55031294 0.26691952 0.2590158
000180 ad 72 13 3e 20 d1 79 be 19 98 8f be ec ef 71 3d
       0.14399214 -0.24396181 -0.2804573 0.059066698
000190 c3 7a 0b bc 44 b2 29 bf af 4d fe 3e d6 2a 8f 3e
       -0.008513155 -0.66287637 0.49668643 0.2796237
0001a0 e0 5d 88 3d 5d 27 50 3e 78 29 99 3e 50 3c 89 3e
       0.0665853 0.20327516 0.2991445 0.26803827
0001b0 c9 6e a8 be 2d 0c 0e bf ea bb 31 3d eb cd e2 3e
       -0.32897022 -0.5548733 0.0433921 0.44297728
0001c0 87 d0 7a bc 80 01 13 be 9c a2 88 3e b8 73 34 be
       -0.015308506 -0.14356041 0.2668656 -0.17622268
0001d0 54 aa e3 be be a9 fb be 6d d8 ae 3e 81 de ba 3e
       -0.44465888 -0.4915294 0.34149495 0.36497882
0001e0 0c 1c fe 3d fc 4d aa be f5 b3 09 3f 7b 67 61 be
       0.12407693 -0.33262622 0.5379022 -0.22012131
0001f0 5d 45 08 bf 22 8a 30 be f4 14 f0 3e b4 a6 b9 3e
       -0.5323084 -0.17240193 0.46890986 0.36259997
000200 b9 c2 2c 3e 76 a3 e2 be 96 66 36 be 10 3f 04 bf
       0.16871156 -0.44265336 -0.17812571 -0.51658726
000210 26 e0 53 be cd de be be 0b 05 b6 3e 63 14 dc 3d
       -0.20690975 -0.37279359 0.35550722 0.10746076
000220 7f be e0 bc bd 1b 37 bd 51 d3 2b 3f 62 9c 01 bf
       -0.027434586 -0.044704188 0.6711932 -0.50629246
000230 55 0e 30 3f 7b 12 0c be a4 eb 06 bf 8f 89 8a be
       0.6877187 -0.13678925 -0.5270331 -0.27058074
000240 ca c9 bd be bd 99 19 be 16 2e 1b bf 89 d6 06 bf
       -0.37068015 -0.15000053 -0.60617197 -0.52671105
000250 c9 f7 84 3e e0 a8 8b 3d 99 8e 51 bd 0e 3f f5 3d
       0.25970295 0.0681932 -0.051161382 0.11974917
000260 17 d9 6c bd 3e aa 2c bd f5 c0 76 be 8b ce 5d be
       -0.05782422 -0.042154543 -0.24097045 -0.21660821
000270 e8 5e 59 3f fd e7 41 3e 49 e2 ef 3c c8 f6 61 3e
       0.8491044 0.18936153 0.029282706 0.22066796
000280 b6 2f 00 3e e0 ce a3 3e 42 93 04 be 0f 44 92 be
       0.125182 0.3199377 -0.129468 -0.2856755
000290 94 e1 bb be d2 db f5 3e 51 27 b2 be 4b 57 ba be
       -0.3669554 0.48019272 -0.3479562 -0.36394724
0002a0 be ab 49 be c5 fe 9a 3e fe b7 c5 be 0a 7c 93 be
       -0.1969442 0.302725 -0.38616937 -0.28805572
0002b0 34 e4 56 3f fb 70 ee 3e fc 1d c8 be a9 25 62 be
       0.8394196 0.46570572 -0.39085376 -0.22084679
0002c0 cb fe b3 3b c7 11 d9 3e 4f 18 52 be f0 f2 3c 3e
       0.00549302 0.42396376 -0.20517085 0.18452048
0002d0 a9 75 a8 3e fb ec b3 3e 45 de b5 3e 17 86 f8 be
       0.32902268 0.3514174 0.3552114 -0.48539802
0002e0 12 fa 9f 3e 01 54 43 bd 21 34 16 be 90 80 1c be
       0.31245476 -0.047687534 -0.14668323 -0.15283418
0002f0 b2 a0 e2 bd 68 51 88 be 10 ef 53 bf db ff 59 bd
       -0.110658064 -0.26624608 -0.82786655 -0.05322252
000300 56 f2 ad be e6 d2 a6 ba 50 56 2b be f7 8e 91 3d
       -0.3397395 -0.0012727648 -0.16732144 0.071073465
000310 4a ed 0b 3f 96 90 56 3e 5c d1 3c 3e 5b 86 4e 3e
       0.5465895 0.20953593 0.1843924 0.2016844
000320 7a b3 e0 be 38 d4 1d be fd 89 d7 be a7 1a 14 3e
       -0.4388693 -0.15412986 -0.42097464 0.14463292
000330 c7 86 8c 3d 76 49 8a 3d b1 ea ab 3e 14 cf b0 3d
       0.06861644 0.06752293 0.33577493 0.08633247
000340 45 ac 45 be 09 e0 be 3e 2b e7 96 be 64 a1 33 3e
       -0.19303997 0.372803 -0.29473242 0.17542034
000350 25 3d 9c be 60 c2 9f 3e e5 cd d7 3d 70 2b 42 3e
       -0.305154 0.31202984 0.10537318 0.18961883
000360 db 72 89 3e d0 2a df 3e 6b 08 2b bf 9a 73 7b be
       0.2684544 0.4358735 -0.6680972 -0.24555817
000370 cb 03 77 3e 54 72 ae be 94 b7 14 3e 45 d0 dd be
       0.2412254 -0.340716 0.14523154 -0.4332296
000380 62 17 62 3e ac f6 8b bd be e1 f5 3d 9e 09 7b be
       0.22079232 -0.06834158 0.120059475 -0.24515387
000390 21 34 d4 be 6a 47 c0 3e de 3a 34 3e 53 9a dc bd
       -0.4144602 0.37554485 0.17600581 -0.107716225
0003a0 a7 e8 ef 3d 45 d5 8b be 77 e4 80 3e 4c ec b4 3c
       0.11714297 -0.2731115 0.25174305 0.022085331
0003b0 82 e1 06 bf 42 54 bb be 84 7d 13 3d 00 8b 5f 3e
       -0.5268785 -0.3658772 0.036008373 0.21830368
0003c0 17 9d bc 3e 88 4d fc bd 64 ba 18 3e ac c4 a0 be
       0.368386 -0.123194754 0.14914852 -0.3140005
0003d0 a3 a1 c2 be 82 40 f0 be 6f 75 22 bf 23 78 a6 be
       -0.38013944 -0.46924216 -0.6346044 -0.32513532
0003e0 99 c4 6d bd 15 1a 14 3f fe 9b 3e be 4e 57 54 3e
       -0.05804882 0.578523 -0.18614194 0.20736429
0003f0 cc aa e8 3e ed 92 e5 3e 53 90 0d bf 61 55 80 be
       0.45442808 0.44838658 -0.55298346 -0.2506514

bias f4 [128]
000000 aa 68 bb be 92 3a 53 3e 76 ea de 3d 5e dc 69 3b
       -0.3660329 0.20627812 0.108845636 0.0035684328
000010 a1 f7 6a 3e 48 db b2 be 86 86 03 3f 30 a8 d7 3e
       0.22946025 -0.34932923 0.5137714 0.42120504
000020 3a 21 7b be 7a d3 87 3c 53 97 cd 3d 0c fd a4 bc
       -0.24524394 0.016580332 0.100386284 -0.020140193
000030 c0 44 65 3e 06 b7 31 3e 8e 7c 13 be 79 06 bb 3e
       0.22389507 0.17354974 -0.14402983 0.36528376
000040 85 9b 46 3e 00 d0 55 3c e3 49 7f be 94 b2 84 3e
       0.19395263 0.013050079 -0.2493053 0.25917494
000050 d4 9f c2 3e e0 22 eb 3e 52 0e 11 3e a9 74 33 3e
       0.38012564 0.45925045 0.14165619 0.17524971
000060 06 c8 69 3e 35 c8 88 be f2 c8 14 3f 6f 88 c3 bd
       0.22830209 -0.26715246 0.5811912 -0.09547507
000070 a6 b2 00 3f c7 bb 84 3e 65 14 87 be 2d 54 b5 3d
       0.50272596 0.25924513 -0.26382747 0.08853946
000080 65 b4 33 3d 92 84 18 bd 40 1a 01 3f a3 47 94 bd
       0.04387321 -0.037235804 0.5043068 -0.07240226
000090 08 03 d0 3d 1b d1 8a be 07 50 02 3f 5a d2 c5 bd
       0.10156828 -0.2711266 0.5090336 -0.09659262
0000a0 6b b7 a4 3c f9 6f 53 3e 7e fb 06 bf d1 a8 8f bd
       0.020106992 0.20648183 -0.52727497 -0.07014621
0000b0 39 98 d6 3b 1f fa a4 be c7 0f b4 bd ce 50 ec 3e
       0.006548908 -0.32222077 -0.08792072 0.461554
0000c0 5b 2c 9a 3e 7c a0 05 3e c1 8b f8 3d 19 4d 19 3e
       0.30111966 0.13049501 0.12136031 0.14970817
0000d0 20 74 bc 3e 00 b5 08 3f 74 65 e0 be 32 1d 26 3e
       0.36807346 0.53401184 -0.43827403 0.16222075
0000e0 b0 50 f7 be 8a 08 d2 3d 02 7d 6f 3e 1c b8 c5 3e
       -0.48303747 0.10255535 0.2338753 0.38617027
0000f0 d4 e4 8f 3d fe da b1 bb 96 69 99 3e 41 d4 b2 3d
       0.070260674 -0.005427717 0.29963368 0.087318905
000100 2a 69 13 3e 5a 15 9c 3d cb 05 f2 be 45 2d b9 3e
       0.14395586 0.0762126 -0.47270045 0.3616735
000110 6e 74 5d 3b d9 55 32 3d 15 6a 30 3e 77 49 88 be
       0.0033791321 0.043538902 0.17227967 -0.2661855
000120 51 10 91 3e e9 c0 a0 be 29 6f 92 3e 60 e3 43 3e
       0.2833276 -0.3139718 0.28600433 0.19129705
000130 0f 4a 80 bd ca 5c 16 3e 2c 82 ec 3e 34 4d 06 be
       -0.062641256 0.14683834 0.46193063 -0.13115388
000140 bf 30 1a be 8c 35 02 3f c5 63 73 3e 31 7f 26 3e
       -0.15057658 0.50862956 0.23768528 0.16259457
000150 c1 ec 4f be 47 96 d1 bd 13 92 fe bc e6 97 44 3d
       -0.20305158 -0.10233741 -0.031075513 0.047996424
000160 98 fa 06 3e fd ea 85 3e 9a 6f e9 3c 47 dd 84 3e
       0.13181531 0.26155844 0.028495599 0.2595007
000170 7e 80 da 3d 01 00 02 be 8d c8 53 be c5 87 bf 3e
       0.10669039 -0.12695314 -0.20681973 0.3740827
000180 64 a6 b0 3e 91 9d 04 be eb 15 bd 3e 65 11 9b be
       0.34501946 -0.12950732 0.36930785 -0.30286708
000190 8d ed ce 3e e0 78 0c 3f 5e 55 e5 ba 00 78 26 bd
       0.40415612 0.5487194 -0.0017496755 -0.040641785
0001a0 e0 8d 03 3f df db e3 bd 66 88 dc 3e 5a 16 d6 bd
       0.5138836 -0.111259215 0.43072814 -0.10453482
0001b0 ee f6 68 be 66 81 cd 3e be 8f 54 3b 4c 2a 9a be
       -0.22750446 0.40137786 0.003243431 -0.30110395
0001c0 2d 51 14 3e 86 a3 9c 3e 92 b6 ce 3e 3f 12 df 3e
       0.14484091 0.30593508 0.40373665 0.43568608
0001d0 90 79 df 3d e8 d7 3d b9 5f 64 1f 3d b6 3c a0 be
       0.10911858 -0.00018104876 0.03891408 -0.3129632
0001e0 e5 be ba bd 1b f9 4d bd 4f d2 68 be 4f d9 5d 3e
       -0.091184415 -0.050286394 -0.22736476 0.21664928
0001f0 cf f4 6b be 03 49 b2 be 5b 3d d7 bd ea 18 ad bd
       -0.23042606 -0.3482133 -0.105097495 -0.084520176

weight f4 [128, 128]
000000 37 81 0a 3e b6 87 b1 3e 4b 74 c9 3e 46 8e da 3d
       0.13525854 0.34673852 0.39346537 0.10671668
000010 a0 47 b4 3e 56 ed 9c 3d 0c 5c 68 3c 60 ec ad 3d
       0.35210896 0.07662456 0.014182102 0.084923506
000020 14 09 fa 3e e4 f9 23 3e b4 12 63 be 4d ab 14 3e
       0.4883505 0.16013294 -0.22175103 0.14518471
000030 e0 b3 a0 3d 92 29 45 3e d9 47 94 3d 1c d2 5e bd
       0.078468084 0.19254139 0.07240266 -0.054399595
000040 76 ba a4 3d ea 91 cc be f2 fe ba 3e a7 f6 84 bd
       0.08043377 -0.39955074 0.36522633 -0.06492358
000050 00 f3 6d bd ef 48 99 3d af 15 a4 3e 92 6e 77 3e
       -0.05809307 0.07484614 0.32047793 0.24163273
000060 10 a5 d7 3d 6d 6b d0 3e 3c c9 57 bc 95 15 c6 bd
       0.1052953 0.4070696 -0.013170537 -0.09672085
000070 b0 55 21 be 35 5d 73 3e 3d 80 23 3f c9 73 8a 3e
       -0.15755343 0.23766024 0.6386755 0.27041462
000080 8a f9 7b 3e af f8 96 3e 0c 4f aa bc d0 0c bf bd
       0.2460691 0.29486606 -0.020789646 -0.09328616
000090 bd 6f 63 3e 02 8f 0c 3f 89 4e f6 3d e4 9f 8b 3e
       0.22210594 0.5490571 0.12026698 0.27270424
0000a0 de a9 21 3e 73 33 1a 3e bc 1e ee be df c5 48 be
       0.15787455 0.15058689 -0.46507823 -0.19606732
0000b0 52 67 8d 3e 22 4b 9b 3e da b0 e8 3e ce 4a 25 be
       0.2761789 0.3033076 0.45447427 -0.16141817
0000c0 d4 a1 cb bd 35 64 a3 3e c8 07 02 3f 21 a8 8f 3e
       -0.09942976 0.3191239 0.50793123 0.2805796
0000d0 9d 4c 35 3e eb 0e 55 bd 46 1a 17 3f bc 34 30 3e
       0.17705007 -0.05201618 0.59024465 0.17207617
0000e0 60 8a bc 3e 3b 52 95 3e 7e 51 3c 3e 75 e6 7a 3d
       0.36824322 0.291643 0.18390462 0.061254937
0000f0 6b 2f 2a bf 21 ba e5 bb 4b f6 8a 3c d2 23 0c 3e
       -0.66478604 -0.0070107137 0.016963145 0.1368554
000100 16 a4 6e 3e 81 9e 29 3e d9 4f 5e bd ba 7b 88 bd
       0.23304781 0.1656437 -0.054275367 -0.06664224
000110 50 9c 1b 3e d7 9a 05 3e 69 07 40 3e 34 75 82 3e
       0.15196347 0.13047348 0.18752827 0.25480044
000120 a4 f9 f3 bc 8f e2 25 3f 13 54 df 3d e4 09 5d 3e
       -0.029782124 0.64798826 0.10904708 0.21585804
000130 64 c3 e6 3e 16 34 9e be 97 a6 dd bd 55 68 e8 bd
       0.45070946 -0.30899113 -0.1082279 -0.11348025
000140 cd 3a f5 3d 8e 87 91 3d b2 83 28 3e a2 c3 63 be
       0.11974106 0.07105933 0.16456488 -0.22242597
000150 7c d4 f2 3d 8e 7c 96 3e b5 af 5f 3e 93 84 2d 3e
       0.118569344 0.29391903 0.2184437 0.16945104
000160 2e 07 c3 be 4d 26 a1 3b 80 20 31 3e 72 60 31 be
       -0.38091415 0.004917896 0.17297554 -0.17321947
000170 f1 ee 44 bd 92 82 72 3e 45 0b 9f 3d bc 88 eb 3c
       -0.048079435 0.23682621 0.07765821 0.028751723
000180 18 2d b5 3c 03 fd 25 3e 51 70 e8 3a c8 41 48 3f
       0.022116229 0.16209798 0.0017733668 0.78225374
000190 20 b0 a5 3e 52 57 29 bd 37 96 af bd 27 6d c9 bc
       0.32360935 -0.04134304 -0.08573573 -0.02458818
0001a0 1c da e7 bd f5 64 64 bf 8a 5d e0 bd fd a3 a6 3e
       -0.11320898 -0.8921655 -0.10955341 0.32546988
0001b0 e5 83 03 3e 87 77 e4 3d c5 9b 8f 3e aa 85 00 be
       0.12843283 0.111556105 0.2804853 -0.12550989
0001c0 99 5e df 3d 4c 5a f1 3d 37 a0 7e 3d 05 5e bb bd
       0.10906715 0.11784801 0.06216451 -0.09148792
0001d0 e2 be 22 bd 90 a1 2c be 29 62 78 bd f2 88 fc 3e
       -0.03973282 -0.16858506 -0.060640488 0.4932323
0001e0 59 c8 c9 be 5c a2 ed 3d 43 68 c0 3e a3 20 5c 3d
       -0.39410666 0.11603233 0.37579545 0.053742062
0001f0 4d 72 85 3e 87 97 0f 3f a8 91 28 3f cd bb 60 3e
       0.26063767 0.5609059 0.65847254 0.2194664
000200 8d 02 cb 3d 48 ee 18 be bf 3a e6 3d 38 5a ff bd
       0.09912596 -0.14934647 0.11241674 -0.1246838
000210 40 b0 f2 bd f4 c5 09 3f 2c 20 2a 3e c0 ce 97 3d
       -0.11850023 0.5381768 0.16613835 0.07412481
000220 28 c3 95 bd 78 5e ed bd 3a a9 f4 3e bd e3 33 3e
       -0.07312614 -0.11590284 0.4778536 0.17567344
000230 8c 74 8d 3e 81 f0 0a 3e 41 59 e9 3d 27 f5 8c 3e
       0.2762798 0.13568307 0.11393977 0.27530786
000240 b3 d4 9f 3e 2d 9b d6 3d 6e c4 dd bd 75 e9 83 be
       0.31216964 0.10478816 -0.108284816 -0.2576405
000250 87 d5 75 bd af d6 c5 be ee 7e 0e 3d 83 bd c1 bd
       -0.06001809 -0.38640353 0.03478902 -0.094599746
000260 00 55 4d be 9d e9 70 bd 0a 1e d4 3d 29 fd b6 3d
       -0.20051956 -0.05881654 0.10357292 0.08935005
000270 7a ff 6c 3e 78 cb ba 3d 8d 57 c6 be f6 ae 9e 3c
       0.23144332 0.0912084 -0.3873867 0.019370537
000280 eb 4d 29 3d 68 d6 1a be 03 be 07 3e 36 97 32 3e
       0.041334074 -0.15120852 0.13256077 0.17440495
000290 69 ac 3a 3e aa dd a0 be 4b c0 e5 be 30 b4 c3 bd
       0.18229832 -0.31419116 -0.4487327 -0.095558524
0002a0 84 29 04 bd cb 22 ff 3c 90 88 30 3f f1 01 d3 3d
       -0.032266155 0.03114452 0.6895838 0.10303105
0002b0 02 77 9c bd fe ae 26 3d dc a4 81 be ec 9a 85 bc
       -0.076398864 0.04069423 -0.2532109 -0.016309224
0002c0 cd 99 af bd 6d d5 9b 3d 71 14 70 bd c5 cd 15 3c
       -0.08574257 0.07609067 -0.058613244 0.009143298
0002d0 4e c3 ed 3d cb a7 32 3e 32 35 e8 be 44 ec 97 3d
       0.11609517 0.1744682 -0.45353085 0.07418111
0002e0 05 bc 48 bc 07 24 29 3d 99 d0 82 3c 4e 21 ed be
       -0.012251859 0.041294124 0.015968608 -0.46314472
0002f0 5a 6f 62 3f ae 14 81 3e 47 22 19 3e f8 ea 1f be
       0.8845116 0.2521109 0.14954482 -0.15616977
000300 0c ef 80 3e 11 d8 81 be fc d7 ca 3d bc 20 88 3e
       0.25182378 -0.25360158 0.09904477 0.26587474
000310 3f 90 1d 3e f1 a8 b7 be 44 96 56 3e 9e 76 0f 3e
       0.15387057 -0.3587108 0.2095576 0.14010093
000320 28 9c b2 3e 3b b8 5d be 5a aa a7 be 1f 77 fb be
       0.34884763 -0.2165231 -0.32747155 -0.4911432
000330 4b 47 66 be bc 64 99 3e c7 42 ef 3d 58 d0 f6 3e
       -0.22488134 0.29959667 0.11682659 0.4820583
000340 a5 86 5c 3c 6d 01 9e be 0d 5f 49 3e d7 5b 4c 3e
       0.013459836 -0.30860463 0.19665165 0.19956909
000350 5d fd 16 bd b6 cc 99 3d 3d 71 32 be 6e 11 5d 3e
       -0.03686272 0.07509749 -0.1742601 0.2158868
000360 ac 1c b6 3e c0 4b a2 3d f1 f8 13 3e e9 a2 0c 3e
       0.3556875 0.079246044 0.14450432 0.1373402
000370 8a b6 89 3e 86 2f 73 bd 15 1f 5f 3e 7f 06 62 3d
       0.2689708 -0.059371494 0.217892 0.055181976
000380 16 d1 ec 3d 69 44 7d 3e c4 f1 41 3e 4f 36 4b bf
       0.115633175 0.24733128 0.18939883 -0.79379743
000390 f7 63 31 be a7 a5 03 3e 29 f0 37 3e 08 d3 c4 3d
       -0.1732329 0.1285616 0.17962708 0.096105635
0003a0 84 9a 0c 3e bd 72 26 3f 5d ae 69 3e 76 58 4c 3e
       0.13730818 0.65018827 0.2282042 0.1995562
0003b0 fb 62 10 3e 81 74 87 3d 7b 31 ca 3c ca ea 4f 3f
       0.14100258 0.06614018 0.024681797 0.81217635
0003c0 d0 b3 6e 3e 33 6a f9 3d 64 ea 98 3d f3 b9 61 3e
       0.2331078 0.12178459 0.074665815 0.2204359
0003d0 d8 ff 29 3e 95 02 71 3e 63 a4 63 3e 69 ac db be
       0.16601503 0.23536141 0.22230677 -0.42904976
0003e0 26 bd 12 3f 3e 3c 22 3f b4 ae a1 3e 73 cc 44 3e
       0.5731987 0.6337317 0.315786 0.19218616
0003f0 d6 06 3d be 73 ff cf be d6 54 b0 be b9 d9 50 be
       -0.18459639 -0.4062458 -0.34439725 -0.20395555

bias f4 [128]
000000 f5 fa 02 be a8 5f 0c 3e 8e 04 2d be af 2f 48 3e
       -0.12791045 0.13708365 -0.16896269 0.1954944
000010 83 e8 8e 3e 6a d1 3c 3e ec e6 11 bd 84 f2 74 bd
       0.27911767 0.1843926 -0.035620615 -0.059801593
000020 5e 52 4b bc 0c 2e 6d 3e be e3 b5 bd 48 31 aa 3d
       -0.012409775 0.23162097 -0.08881329 0.08310181
000030 cd 59 28 3e 84 a5 ae bd de 31 13 3c 02 a5 14 be
       0.16440506 -0.08527663 0.008984057 -0.1451607
000040 d0 a5 b9 bc 15 0d 55 be 6c 3f 03 be ec 70 9d 3d
       -0.022662073 -0.20805772 -0.12817162 0.07687554
000050 f9 8a 91 3e 3e 89 9c bd ba 12 7f bd 6b 78 f5 bd
       0.2842634 -0.07643364 -0.06227372 -0.119858585
000060 01 4b 61 3d 30 68 69 bd 13 e7 5a be 86 a9 21 bc
       0.05500317 -0.056984127 -0.2137721 -0.009867078
000070 d7 59 16 3d 29 29 09 bc 8a e8 d2 bd 80 7c 21 3e
       0.03670677 -0.00837163 -0.102982596 0.15770149
000080 41 9a 8d be 9c d3 a1 bd 7a 6b 2a 3e 5c 24 fa bd
       -0.2765675 -0.079016894 0.16642562 -0.12213966
000090 a8 56 56 be 49 51 0d bd f2 f8 b4 bd e7 d8 2b be
       -0.20931494 -0.034501348 -0.08836545 -0.1678196
0000a0 00 e7 10 3e 51 68 1a be f4 3a 8e bd af d2 31 bd
       0.1415062 -0.15078856 -0.06944838 -0.043413814
0000b0 da 99 9b 3d aa 47 10 be f8 eb 0d be ba 3c 1a 3e
       0.07597704 -0.14089838 -0.13859546 0.15062228
0000c0 69 f8 67 bd 43 3f 2c 3e b2 b3 30 be f7 56 ec 3d
       -0.056633387 0.16821007 -0.17256048 0.11540025
0000d0 4e f7 2c be 7e 57 74 3e f2 90 e1 bd c9 8c 2c be
       -0.16891214 0.238615 -0.11013974 -0.1685058
0000e0 2b e5 6a 3d 08 f6 06 3e 7d ca fc 3d 28 9a ee bb
       0.057347458 0.13179791 0.12343309 -0.0072815605
0000f0 87 40 6d be 42 75 2f 3e 3d 5c 8b bd 0c 31 53 3d
       -0.23169146 0.17134574 -0.068047024 0.051560447
000100 0a ff 4c 3c b8 69 4a 3e b5 47 a0 bd 67 30 0a 3e
       0.012511978 0.19766891 -0.07826177 0.13495027
000110 cf 9c b5 bd 13 4e 83 bd 36 66 6d bd 3b a8 50 be
       -0.088677995 -0.06411376 -0.057958804 -0.20376675
000120 a4 c1 33 be 12 62 02 3e 94 db b8 bd bf ff 72 3d
       -0.17554337 0.12732723 -0.09026256 0.05932593
000130 df 55 a1 3d fd 86 2d 3e 05 fa 69 3d 64 1e 04 3e
       0.07877707 0.16946025 0.057123203 0.12902218
000140 79 2f ed bd 4c 6b 3c 3e cb 75 02 3e f3 38 5f bd
       -0.1158132 0.18400306 0.12740247 -0.05449767
000150 8f a6 bb bc e3 21 a1 3d 42 9e bb bc 95 bc b5 3d
       -0.02290657 0.078677915 -0.022902612 0.0887386
000160 5f 1d 08 bd a3 a5 3a be 32 97 e6 3c a2 f2 47 be
       -0.033231135 -0.18227248 0.028148267 -0.19526151
000170 78 46 32 be 60 25 3b be c3 50 26 3e cc 07 17 bd
       -0.17409694 -0.18275976 0.16241746 -0.03687267
000180 81 df aa bd 6d 5e 0a bd 2d 3d 5e 3e 6a c9 bb 3c
       -0.08343411 -0.033781458 0.21703024 0.02292319
000190 f5 1e a6 bd 52 53 bc 3d e3 00 0a 3e 94 c5 37 be
       -0.08111373 0.091955796 0.13476901 -0.17946464
0001a0 ee 87 b6 bd f8 33 31 be 17 63 38 be 2a 4b 2a be
       -0.08912645 -0.17304981 -0.1800655 -0.16630235
0001b0 64 37 fc 3d f5 9a 82 3e dd 67 ac bc 2e bd b7 bd
       0.123152524 0.25508848 -0.02104562 -0.0897163
0001c0 f8 3f 47 3d a6 9f 34 be f2 23 a0 3e ff 1c f3 3d
       0.04864499 -0.17639026 0.31277424 0.11870765
0001d0 af 03 51 bd ab f4 00 be b5 23 b6 3e cb 7b 8d 3d
       -0.051028904 -0.12593333 0.35574117 0.06908377
0001e0 63 a7 ed bd a0 f9 02 be bc 7a a1 bd ec 47 ad bd
       -0.11604192 -0.12790537 -0.07884738 -0.08460984
0001f0 5a 3f 4f bd 41 ca 18 be 80 85 92 bd c1 d0 21 bd
       -0.050597526 -0.14920904 -0.07154369 -0.039505724

weight f4 [1, 128]
000000 2b d6 f7 be 86 5a 43 3f 20 46 c7 be d7 3c 7d 3f
       -0.48405585 0.7631 -0.3892069 0.9892096
000010 dd 67 3b 3f 2f 83 47 3f 13 8e 76 bb 36 cf 07 bf
       0.7320536 0.77934545 -0.0037621304 -0.53050554
000020 ab 1a 04 bf b0 cb 08 3f 77 d7 04 bf b8 b4 5a 3f
       -0.5160319 0.534358 -0.51891273 0.85432005
000030 19 9d 55 3f 07 92 f3 be 7f 36 d3 be 93 40 4d bf
       0.83442837 -0.47572348 -0.41252515 -0.8017666
000040 57 43 98 ba 78 a8 e9 be 3c 29 cf be 66 c0 32 3f
       -0.0011616749 -0.45636344 -0.40461147 0.69824827
000050 e8 9c 36 3f 8d 85 ee be 6c 60 f2 be 78 a7 ef be
       0.7133317 -0.46586266 -0.4733919 -0.46807456
000060 d2 8b 62 3f ef d0 f2 be fe fb 20 bf b4 11 49 3f
       0.884946 -0.4742503 -0.6288451 0.7854264
000070 16 b1 5f 3d d7 73 a8 3a a1 af dc be 3a ba 57 3f
       0.05461224 0.0012851906 -0.43102744 0.84268534
000080 08 5e 27 bf 8c 1c cf bc 12 59 4b 3f 6c 71 02 bf
       -0.65377855 -0.025282167 0.79432786 -0.5095432
000090 d1 90 f7 be 55 e8 c9 be 43 cd e7 3c 5d 40 f3 be
       -0.48352674 -0.39435068 0.028296119 -0.47510043
0000a0 20 69 31 3f 9d 8e fc be 97 5f f6 be ca 46 a8 bd
       0.69301033 -0.49327555 -0.48119804 -0.08216627
0000b0 5d be 37 bd 5d 4d d8 be f5 3d ce be d3 df 0a 3f
       -0.04485928 -0.42246523 -0.40281644 0.5424778
0000c0 f4 d5 fe be ff 55 e3 3e c4 ce 3e bf 77 bd 84 3f
       -0.49772608 0.44401547 -0.7453425 1.037032
0000d0 ec ee ef be f0 98 39 3f 19 43 eb be 4b ad 0e bf
       -0.4686197 0.7249899 -0.4594963 -0.55733174
0000e0 67 a5 d4 3f 4e df 42 3f 11 65 71 3f 50 de be be
       1.6612977 0.76121986 0.9429484 -0.37278986
0000f0 e1 3b 49 bf ac cb 7d 3f 1b 99 02 bf dd 5e 3f 3f
       -0.7860699 0.99138904 -0.5101487 0.74754125
000100 b8 8c 83 3f c4 70 05 3f ce a2 02 bf ef da 82 3f
       1.0277319 0.5212519 -0.5102967 1.0223063
000110 5f 5c fc be 92 f2 cb be dc 43 c5 be 68 14 42 bf
       -0.49289224 -0.39833504 -0.38528335 -0.7581239
000120 a3 71 f2 be 87 3d 5a 3f 9b 4a 04 bf fd a2 8a 3f
       -0.47352323 0.85250133 -0.5167634 1.083099
000130 2f aa 4f 3f 75 ee 4b 3f c7 5a ac 3d ad 26 67 3f
       0.81119055 0.7966073 0.08415752 0.9029339
000140 06 4d de be 1e 23 66 3f ad 86 63 3f b9 07 f3 be
       -0.4341814 0.89897335 0.88877374 -0.4746683
000150 3a f1 00 bf 2b 2d 33 3f c8 7f a5 3d e4 4c 44 3f
       -0.5036808 0.69990796 0.08081013 0.76679826
000160 3b 7d 2d bc 0b 1e d9 be 01 4d 37 3f 7f b0 1b bf
       -0.010588939 -0.42405733 0.71601874 -0.60816187
000170 85 d5 fd be 49 3f 09 bf 63 f6 60 3f 20 c3 f7 be
       -0.49576965 -0.5361219 0.87875956 -0.48391056
000180 56 00 fd be 11 ca d8 be dd 62 42 3f b6 ae 80 3f
       -0.4941432 -0.42341664 0.75932103 1.0053318
000190 61 70 f5 be a2 26 92 3f e5 59 57 3f 66 de 18 bf
       -0.479373 1.141804 0.84121543 -0.59714353
0001a0 44 13 11 3d 5e d8 48 bf 65 3a f9 be 99 76 1e bf
       0.035418764 -0.7845515 -0.48677364 -0.61899716
0001b0 6a ce 4e 3f 75 4c 61 3f 86 0c ee be b6 ac fa be
       0.8078371 0.8800729 -0.4649393 -0.48959893
0001c0 cf b1 67 3f 5e ee f6 be 5c d2 32 3f f3 b2 83 3f
       0.9050569 -0.48228735 0.6985223 1.0288986
0001d0 30 c8 0b 3d 77 5a e2 be fa 58 38 3f 20 85 4a 3f
       0.03412646 -0.44209644 0.7201077 0.7910938
0001e0 ce c2 d0 be cd 3d 10 bf 32 e4 18 bf d4 60 cf be
       -0.40773624 -0.563443 -0.597232 -0.40503561
0001f0 0c 43 c0 be ae f9 e9 be 5e 18 c3 38 f5 b3 ec be
       -0.37551153 -0.45698303 9.302863e-05 -0.46231046

weight f4 [128, 128]
000000 d0 4c 6c 3e 42 33 d8 3d f5 8a c9 3d 99 38 30 3c
       0.23076177 0.10556652 0.09840957 0.010755681
000010 85 f3 5e bc 3c f0 3a be 09 c6 94 bc c3 39 83 bc
       -0.013607864 -0.18255705 -0.018160837 -0.016018754
000020 31 79 2a bd 69 b1 4b be 49 9f 46 3c e4 c8 33 3e
       -0.041619483 -0.19891895 0.0121229375 0.17557102
000030 71 c2 5f 3e c2 a0 80 3d bc aa aa 3d a1 69 63 3d
       0.21851517 0.06280662 0.08333346 0.055520657
000040 dd c9 17 3e 81 a2 cf bd da d1 49 bd a2 d8 5d 3d
       0.14823098 -0.10138417 -0.049272396 0.054161675
000050 98 7d 80 bd 81 c4 e9 3c e6 83 ab 3c 30 d1 19 3e
       -0.06273955 0.028536083 0.020936918 0.15021205
000060 b6 d8 a4 3d 8d 74 1b 3e 4f 7d 91 bd c7 c0 1d be
       0.08049147 0.1518118 -0.07103979 -0.1540557
000070 dc 6a a1 bc ff 19 92 bc fb 56 01 3e 80 2b 0c 3e
       -0.019704275 -0.017834662 0.12630837 0.13688469
000080 ce d1 98 bd 7f 55 40 3e d1 ea 86 3d 1b 49 7c 3c
       -0.07461892 0.18782614 0.065877564 0.015398289
000090 09 78 b9 bd fc 2b 8f 3e 81 f5 a0 3d 90 2a e7 3d
       -0.09056098 0.27963245 0.07859326 0.11287415
0000a0 52 d0 fb 3d 94 b0 9c bb cb af 50 3d b9 70 e9 be
       0.12295593 -0.004781792 0.0509489 -0.45593813
0000b0 18 8c 1e 3e 4d 00 84 3c 05 30 b0 bb 58 aa 6a be
       0.15483129 0.016113425 -0.005376818 -0.22916543
0000c0 b1 52 9b bd 79 e5 4b bd 8e a2 c8 3c b5 98 98 3e
       -0.075841315 -0.04977939 0.024491575 0.29804006
0000d0 fe 43 20 3c f4 8e 05 be 66 60 35 bd f9 a0 3e 3e
       0.009781836 -0.13042814 -0.044281386 0.18616094
0000e0 fb ba 18 be 03 cc 11 3e cf 91 ae 3c 22 4e 64 be
       -0.14915077 0.1423798 0.021309761 -0.2229543
0000f0 b4 1c 6b bf 5b 18 e8 3d 13 c3 20 3d fa 98 07 be
       -0.9184067 0.113327704 0.039248537 -0.1324195
000100 03 94 56 b9 9e d5 ca bb 44 bd 48 3d 70 62 a7 bc
       -0.00020463769 -0.006190016 0.049008623 -0.02043268
000110 06 f6 2a 3e 02 03 cd be 5a de 22 3e a0 a1 a8 bb
       0.16695413 -0.40041357 0.15905133 -0.0051462203
000120 97 b4 c2 bd 22 c4 14 3e e4 b8 ab bd 4f b1 a5 bd
       -0.09507101 0.14527944 -0.083848745 -0.080904596
000130 d2 32 d1 3d 32 10 f3 3c 5d 22 89 3c e1 e9 28 3d
       0.10214771 0.029670808 0.016740019 0.04123867
000140 01 28 21 be 7d 06 56 3d f6 70 46 3e 5c 67 bb 3d
       -0.15737917 0.05225228 0.19379029 0.091505736
000150 60 b9 1b bd e6 48 75 3d a8 b8 1b be b5 2f 32 3e
       -0.038018584 0.059883974 -0.1520716 0.17401011
000160 b4 d7 97 3e 6f 08 91 bd b7 f3 c2 3d e8 59 8a bd
       0.29656756 -0.07081687 0.09519141 -0.067554295
000170 87 e6 cf 3d 9a 6a 59 bc 8e 71 af 3d 45 29 71 3e
       0.101513915 -0.013270045 0.08566581 0.235509
000180 1d 7c d4 bd 5e 2a c2 3e 99 49 67 3c 52 b5 0e bd
       -0.10375235 0.3792295 0.014116668 -0.03484089
000190 f4 b1 4c 3c 5d 4d ee 3b d0 49 81 3d ae 20 aa 3d
       0.012493599 0.007272406 0.06312907 0.083070144
0001a0 a2 4d a9 bc 7b 1b 13 3e 76 33 db 3d bc c8 df 3c
       -0.020666901 0.14365952 0.10703175 0.027317397
0001b0 db 49 b9 3d 26 4a b7 3d 32 ec 06 3e a9 56 3f be
       0.0904729 0.089496896 0.13176039 -0.18685402
0001c0 56 81 0a 3e c9 7f 47 3e 4d 8d ce 3d d2 ef 85 3d
       0.135259 0.1948234 0.10085545 0.06539883
0001d0 38 b5 95 3d 7b b5 9b 3d 44 2b 14 be f9 d1 3f bd
       0.07309955 0.07602974 -0.1446963 -0.046831105
0001e0 07 4c 29 be 1f 98 81 3d 94 cc 9f 3e fe 76 05 bd
       -0.16532908 0.06327843 0.31210768 -0.032584183
0001f0 8a 1a 2e 3e eb 4f c7 bc 56 ad 5c 3d 3a a8 b2 3d
       0.17002311 -0.0243301 0.053876244 0.08723493
000200 54 da 0d bd 4f 18 fa 3c 54 dd 08 bf 5d e9 a4 3d
       -0.034632042 0.03052917 -0.5346272 0.08052323
000210 9c 1b 45 be 77 c9 83 3c af 7a 59 bd d7 6b be bc
       -0.19248813 0.016087277 -0.053095516 -0.023244781
000220 6f cd a0 be ee 6b 1b 3e 38 71 25 3d d6 0d 8a bb
       -0.31406733 0.1517789 0.040391177 -0.004213075
000230 69 ae f0 3c 97 a5 84 be 71 6a 89 bd 44 be 9a 3d
       0.02938004 -0.25907585 -0.06709755 0.075558215
000240 f5 db 1f 3e 89 90 b2 3e 80 7a c0 bc f0 11 97 3d
       0.1561125 0.34875897 -0.023495913 0.07376468
000250 bd 16 8e bd 4e f8 cc 3c 1e a8 df bd 2c 5f 7b be
       -0.06937931 0.025020745 -0.10920738 -0.24548024
000260 8e d1 19 3c 88 34 6d be 72 1b 3c bd 66 07 08 be
       0.009388341 -0.2316457 -0.04592461 -0.13284072
000270 32 3e 19 3d 3a 16 94 3b 9f 10 16 bf 31 f0 0d be
       0.03741283 0.004519251 -0.5861911 -0.13861157
000280 da 2f 25 bc 29 d0 9d be 47 71 0f 3c 64 1d d8 3d
       -0.0100822095 -0.30822876 0.008755035 0.10552481
000290 05 7f e2 be c0 e6 f8 be 52 31 1d 3e d9 93 a2 bd
       -0.44237533 -0.48613548 0.15350845 -0.07938356
0002a0 18 07 04 3e d0 7a 08 3d 2b db ab bd 53 f6 38 bd
       0.12893331 0.033320248 -0.08391412 -0.045156788
0002b0 fe 65 a0 be f7 25 4f bd c0 22 28 bd 98 52 dd bd
       -0.31327814 -0.050573315 -0.041048765 -0.10806769
0002c0 ce e7 aa bc 84 23 f3 be de b3 7b bf ff 9d 46 be
       -0.020862486 -0.47488034 -0.9832133 -0.19396208
0002d0 50 9c a2 3c e0 0c 88 bd 70 5c 0f be d7 83 2f be
       0.019849926 -0.06643081 -0.14000106 -0.17140137
0002e0 f5 b5 61 bd 56 3e 00 be d8 95 93 3d c6 5c a6 bb
       -0.05510517 -0.1252378 0.07206315 -0.0050769774
0002f0 73 72 ca be 44 1f 55 be d3 0a 3b 3e 50 89 b0 3d
       -0.39540443 -0.20812708 0.18265848 0.0861994
000300 4e 0c 6d 3d 0c 44 f4 3d 34 86 ae be f5 ab 39 3d
       0.057873063 0.119270414 -0.34086764 0.045330007
000310 02 17 4c 3c bd bd 1f be 33 88 be 3d b2 b4 08 be
       0.012456657 -0.15599723 0.09303322 -0.1335018
000320 6a 8f 15 3b d5 3d 6e be b5 ec 0c 3e 0d 86 d2 3d
       0.0022821077 -0.23265775 0.13762172 0.102794744
000330 22 78 99 bd 70 71 ea 3d e3 0b 5e 3d 48 33 8e bd
       -0.07493617 0.11447418 0.054210555 -0.06943375
000340 ef 2f e2 3d 48 7e b3 bc 0a 8f ed 3c 59 26 fa 3d
       0.11044299 -0.021910802 0.02899887 0.122143455
000350 31 9e 26 3c bf 47 37 bf 9a d6 a6 3d 91 42 a5 be
       0.010169552 -0.7159385 0.08146401 -0.3227735
000360 91 b8 60 3e 39 4d fd 39 52 83 64 be 6f 9e 18 3e
       0.21945406 0.00048313456 -0.2231572 0.14904188
000370 e2 94 4d 3e f6 5a 1a 3e 4a ad d8 bd 1a 36 c3 3d
       0.20076326 0.15073761 -0.10579927 0.095318034
000380 09 1c 7a 3d c0 7e ad 3d c8 8e 06 3d 7c 2b 5a 3d
       0.061061893 0.08471441 0.03285101 0.053264126
000390 b9 e0 9d 3d 4a 42 10 be f8 32 d9 bd 77 29 99 3d
       0.07708878 -0.14087787 -0.10605425 0.07478612
0003a0 58 11 09 3e 3a 77 b0 be d7 3e a9 3d 1a 28 6d bc
       0.13385522 -0.34465963 0.08263939 -0.014474893
0003b0 76 e5 08 3c 68 46 ba bd 10 7d 4d bf 4e f2 52 be
       0.008355489 -0.0909546 -0.80268955 -0.20600244
0003c0 90 5f 87 bc a8 bb 9c 3c 18 c6 80 3d 30 0f 48 3e
       -0.01652506 0.01913245 0.062877834 0.19537044
0003d0 d6 6d 33 3e 18 0d 85 bd 04 4c e4 bd e7 18 1f bf
       0.17522368 -0.06496638 -0.11147311 -0.6214737
0003e0 f2 35 8b be ab 91 d8 bd 5a bb 91 3d ae 03 32 3d
       -0.27189595 -0.10574659 0.071158126 0.04346054
0003f0 2e 15 22 3d e3 b9 b8 be 5f 72 7a bd 47 41 a7 3d
       0.03957098 -0.3607932 -0.06114423 0.081667475

bias f4 [128]
000000 15 ba 33 3d 85 ad 22 3e a7 8f 09 3e 06 0a fc 3d
       0.043878634 0.15886505 0.13433705 0.12306599
000010 32 d1 36 bd fc 97 02 bb 02 9f 51 3d cf 8c 19 3e
       -0.044633098 -0.0019927016 0.051177032 0.1499512
000020 f0 b5 3d bd 7f 95 14 bd 68 27 1d 3e a0 67 e8 3d
       -0.046316087 -0.036275383 0.15347064 0.1134789
000030 b3 b8 ef 3c 82 d2 f8 3d d0 41 4b bd 84 8b 28 3d
       0.029262876 0.12149526 -0.04962331 0.041148677
000040 26 fc 97 bd 1f f7 f2 3d 87 5e 95 3d 42 cc c1 bc
       -0.074211404 0.11863541 0.0729342 -0.023656968
000050 ea e1 27 bc b9 b5 01 3e 71 10 5d 3d 83 a4 b5 3d
       -0.010246733 0.12666978 0.053970758 0.08869269
000060 94 a4 fb bd d5 82 e8 bc 84 ca b3 3c ac b5 73 3d
       -0.1228725 -0.028382698 0.021947153 0.059499428
000070 04 65 79 bd fb b2 19 be 47 ac 18 bc ae a4 da 3d
       -0.06088735 -0.15009682 -0.009318418 0.106759414
000080 74 95 bb bc 66 18 30 bc 33 87 0c be de 72 63 bd
       -0.022898413 -0.010748005 -0.1372345 -0.055529468
000090 1b 8d ba 3d 0a 8a a8 bd 41 d6 15 3e 50 52 d0 3d
       0.09108945 -0.08229454 0.14632513 0.1017195
0000a0 83 53 0d bd f2 93 09 3d 31 b3 04 bc b8 85 6b bd
       -0.03450347 0.033588357 -0.008099363 -0.05750057
0000b0 09 c2 07 3e 3c 19 1c 3d 3d 2b 86 bd 38 bc 90 3c
       0.13257612 0.038110003 -0.06551216 0.017667875
0000c0 d3 0a 30 3d 4e 17 29 3e 8f f2 c2 3d 0a fe 02 bd
       0.042979073 0.16512796 0.09518921 -0.03198055
0000d0 58 13 b9 3c e0 cd 58 bd d6 ac 49 3e 80 22 25 3d
       0.022592232 -0.052930713 0.19694838 0.040316105
0000e0 0d 7a a8 bd 99 37 ba 3d 75 98 56 bd 33 01 59 3d
       -0.08226404 0.09092636 -0.052391488 0.05297966
0000f0 08 f4 c1 3d 54 72 27 bd 1e aa 19 bd 75 47 a6 3d
       0.094703734 -0.040880516 -0.037515752 0.08119098
000100 6b 0f 25 3c b9 8e 89 3d 11 b3 70 3c c6 21 c8 3d
       0.010074477 0.06716675 0.01469113 0.09772067
000110 2d 09 e4 bd 80 1b 34 3e 98 00 15 3d 38 d8 85 bc
       -0.11134563 0.17588615 0.03637752 -0.016338453
000120 ca 39 87 3b 80 9d 6f bd b2 c7 80 3d 90 e3 23 3e
       0.004126762 -0.058499813 0.06288089 0.16004777
000130 27 c7 e9 3d 81 c7 cf 3c 19 e6 49 3d 63 1c 79 3e
       0.114149384 0.025363686 0.049291704 0.24327235
000140 a6 c0 e3 bd 12 76 63 3d 1e 8b 14 bd 2a 30 a3 3c
       -0.11120729 0.055532522 -0.036265485 0.019920427
000150 67 2b be 3d f5 b0 5e 3d 95 9e 23 3e bc 2e 36 3e
       0.09285622 0.054367978 0.15978463 0.17791265
000160 73 0c bd 3c f6 74 16 3e 25 41 6e 3b b6 c5 01 bd
       0.023077225 0.14693055 0.0036354747 -0.031682692
000170 92 4b 85 bd ad 95 3f bd f7 fe ba bb 53 34 a0 3d
       -0.065085545 -0.0467736 -0.0057066637 0.0782248
000180 5a df 8c 3d 90 51 79 bb 62 d9 5b bb 6e 70 f2 bd
       0.068785384 -0.0038043 -0.0033546318 -0.118378505
000190 77 83 0c 3e 92 9d dc 3d bf e0 07 bd 30 fa 2f 3e
       0.13722025 0.10772242 -0.03317332 0.17185283
0001a0 d4 90 37 3e d5 29 9f bd 70 14 9e 3c 1c 34 4f 3d
       0.17926341 -0.07771651 0.019296855 0.050586805
0001b0 cd 1d ee 3d db 4b d2 3a 55 39 0d 3e dd af dd bc
       0.11626778 0.0016044335 0.13791402 -0.027061397
0001c0 79 4a f7 3d bb e5 06 be 07 27 8b 3c 82 aa ae 3d
       0.120747514 -0.13173573 0.016986383 0.085286155
0001d0 fe 49 02 bd 66 0d 4c bd d6 b6 21 bd d0 19 f8 bd
       -0.031808846 -0.049817465 -0.039481007 -0.12114298
0001e0 9f 4d 29 3b ec 0a b4 3d 54 ea ca bd 99 aa a2 3d
       0.002583362 0.08791146 -0.09907976 0.07942695
0001f0 3a 08 62 3d 4f eb ab bb fe 87 56 bd ce 45 7b bd
       0.055183627 -0.005246557 -0.052375786 -0.061345868

weight f4 [4, 128]
000000 ff e3 51 3c bc d1 7b bd e1 e0 e5 bc 4a e6 bd bd
       0.012810706 -0.061479315 -0.028061332 -0.0927244
000010 91 ae dd bc c8 a0 71 be b9 3a 90 be 51 a1 13 be
       -0.027060779 -0.2359649 -0.28169802 -0.14417006
000020 7b aa 2e bc fe 49 ad 3b bb 96 6c be 3e 23 49 be
       -0.010660763 0.0052883616 -0.23104374 -0.1964235
000030 80 bc d3 3c cf 4f 42 be 92 c4 d1 bd 32 14 d5 bc
       0.02584672 -0.18975757 -0.10242571 -0.026010606
000040 ea 7b a8 3d cb 0a 09 3e 81 c3 1a be f8 8b 86 bd
       0.0822676 0.13383023 -0.15113641 -0.06569666
000050 e2 67 22 3e d7 a4 54 be 22 1b 98 be e0 59 de 3d
       0.1585994 -0.20766006 -0.297082 0.10856986
000060 30 f2 11 bf 11 12 e8 bd 64 9e ce bd 41 4c 4c be
       -0.57010174 -0.11331571 -0.10088804 -0.19950964
000070 92 1d af 3d 4c 98 e0 bc 15 f2 97 3d 49 a1 28 be
       0.08550562 -0.02741637 0.0741922 -0.16467775
000080 c4 fb ed 3c 31 0d 15 3e 92 da 5f 3d cd b4 bb bd
       0.029050715 0.14555813 0.054651804 -0.091653444
000090 e7 21 8f bd f1 be e6 be 9a f5 80 be 54 31 a0 bc
       -0.06988888 -0.45067552 -0.2518738 -0.019554771
0000a0 4f 47 41 3e 1b 21 f6 bc 93 e6 d1 bb 55 6d dd 3e
       0.18874858 -0.030045083 -0.0064056604 0.43247476
0000b0 b2 ba 70 bd 81 ed 32 be e5 2a 40 be 8d b1 2d 3e
       -0.058771797 -0.17473413 -0.18766363 0.16962261
0000c0 05 c5 59 bd 6b 4f ae 3d 53 81 f1 3a c3 35 9e 3e
       -0.053166408 0.085112415 0.0018425382 0.30900392
0000d0 c2 b7 af bd 3c c2 98 b9 ac 86 b2 3d a2 4c cd 3d
       -0.08579971 -0.00029136415 0.08717093 0.10024382
0000e0 47 ac 4e 3e 69 91 e6 bd cd 8f 4d be 6d 33 a7 3e
       0.20182906 -0.112582035 -0.20074387 0.32656422
0000f0 19 4c 35 be 41 e0 8c bd 51 17 51 3e ac 14 9f 3e
       -0.1770481 -0.068787105 0.20419051 0.3107046
000100 70 77 16 bd ec 86 4a be 93 3b 92 bd 89 9b 28 3e
       -0.036735 -0.19778031 -0.07140269 0.16465582
000110 00 53 5d 3d 14 e8 ad be 0c 98 92 3d c9 44 06 be
       0.054034233 -0.33966124 0.07157907 -0.13112177
000120 72 cf 2c be 27 da 2d 3e be 72 0b be 36 3f 12 3e
       -0.16876009 0.1697775 -0.1361799 0.14281926
000130 63 15 d6 bd 75 dd e0 bd 60 03 16 3e ce 35 5a 3e
       -0.10453298 -0.109797396 0.14649725 0.21309587
000140 05 0d c8 3d ef e1 6f bb a4 2c b1 3e 6c 50 bf 3e
       0.09768108 -0.0036603173 0.3460437 0.37366045
000150 c3 87 d4 be e3 90 27 3e 09 ac 36 be c1 c7 3c 3e
       -0.41509828 0.16363864 -0.17839064 0.18435575
000160 ad 58 8b bd 1b f2 bd be 46 87 e1 bd 11 db f9 bc
       -0.06804023 -0.37098774 -0.110121295 -0.030499967
000170 df 74 a2 3d 8d 77 ae be 5a f9 af 3d cb 56 20 be
       0.07932448 -0.34075585 0.08592482 -0.15658109
000180 6f 10 5e bd ad f4 16 3e 4e 19 7f be 4a 02 87 be
       -0.05421489 0.14741774 -0.24911997 -0.26368934
000190 fe 65 a5 3e 2f 59 4e be 70 da ad 3d 04 42 48 3c
       0.32304376 -0.20151208 0.08488929 0.012222771
0001a0 8d b1 61 3d 32 7a 50 bd 95 37 13 3c 7a a1 84 be
       0.055100966 -0.050897785 0.00898542 -0.25904447
0001b0 49 a4 8e 3c 54 5c 12 be 38 0d c0 bd 56 d8 a3 bd
       0.017412322 -0.14293033 -0.09377521 -0.08000247
0001c0 9e 5b a5 3e 6a 37 d3 bd 6b ca 86 be bb 85 eb bd
       0.3229646 -0.10313304 -0.26326308 -0.115001164
0001d0 dd 3b 43 3e 63 f5 27 be a7 97 32 3e bd d6 ec 3e
       0.19065805 -0.16402201 0.17440663 0.46257582
0001e0 f5 44 19 be 1f 93 ea bd 9d 2b ab be fa 63 01 bd
       -0.14967711 -0.11453842 -0.33431712 -0.031589486
0001f0 b4 b0 2f 3e 6e d1 e2 be 2b fb e6 3d 58 cd 56 bc
       0.1715725 -0.44300407 0.11278375 -0.013110481
000200 2d d2 90 be 98 fb be be a2 51 9b 3e ac 7e ba 3d
       -0.2828535 -0.37301326 0.30335718 0.09106192
000210 10 45 be 3e 62 df a7 be 61 fb b1 3e c8 ed 46 bd
       0.37162066 -0.32787615 0.347621 -0.04856661
000220 37 6d da 3d 17 62 b2 3e 91 8b 23 bb f2 9f b0 3e
       0.10665362 0.34840462 -0.0024955014 0.3449703
000230 60 bd 56 3d 9b 73 84 be cd 03 17 bf e1 6f a7 be
       0.052426696 -0.2586945 -0.58990175 -0.32702544
000240 84 00 98 3e 0c 09 16 3f 17 e7 bf bd 6d 3b b1 be
       0.29687893 0.58607554 -0.09370249 -0.3461565
000250 09 74 ab 3e 64 b6 31 3e d6 1d ae be 2a 15 55 3e
       0.33486965 0.17354733 -0.34007138 0.20808855
000260 3b d4 04 3e ad a8 96 be dc 36 87 be b1 89 fc bd
       0.12971584 -0.29425564 -0.26409042 -0.1233095
000270 93 d4 42 be 46 35 95 bd 8f 20 a6 bd bc e7 09 be
       -0.19026403 -0.07285552 -0.08111679 -0.13467306
000280 ab d3 9c bd 4e 87 6e be dd 68 80 3d 61 63 80 3d
       -0.0765756 -0.23293802 0.06270001 0.06268955
000290 f7 ad 76 be 68 81 f1 be 63 2b 66 bd 4d c8 b9 3c
       -0.240898 -0.47169042 -0.05619372 0.022678519
0002a0 45 13 c1 bc be 9c 89 bd 23 cc 58 be 56 30 89 be
       -0.023568759 -0.06719349 -0.21171622 -0.2679469
0002b0 35 a7 c6 bd e9 87 9e be cb e0 84 be 7a 59 07 3e
       -0.09699861 -0.30963066 -0.25952753 0.13217726
0002c0 6d 97 b4 be c4 17 bf be a9 33 bb bd 41 41 91 3e
       -0.3527178 -0.3732282 -0.09140713 0.28370097
0002d0 9c 94 ad be d6 f1 8c 3d d1 f6 a2 3e f7 20 67 bd
       -0.33902442 0.06882064 0.3182893 -0.056427922
0002e0 31 5a 2b 3b cd 69 c5 3c bc 59 b0 be e6 95 5c 3d
       0.0026146288 0.024098301 -0.34443462 0.05385389
0002f0 71 2b 35 be 75 6d 54 be d9 2a 86 3d a2 27 d3 3e
       -0.17692353 -0.2074488 0.06551141 0.41241175
000300 e4 29 ae 3e 08 13 59 bd 5c 0a bd bd 4f d3 ee bd
       0.34016335 -0.052996665 -0.092304915 -0.11661398
000310 14 f5 1a 3f 3b 56 ab 3e 3c db 47 3d 99 43 ee 3d
       0.6053021 0.33464226 0.048793063 0.11633987
000320 00 a2 9b 3e 26 c6 ac 3e 98 9a 23 be 00 97 a8 3e
       0.30397034 0.33744925 -0.15976942 0.32927704
000330 09 18 bd be 8f 0d 8d be f1 e9 4c 3e 7e 8e ba be
       -0.369324 -0.27549407 0.20011117 -0.36436838
000340 2d 0f 78 bd 7d ce 10 be b7 ff c3 3e b2 b3 bb 3e
       -0.060561348 -0.14141269 0.38281032 0.36660534
000350 94 c4 13 bf 62 b3 a9 3e ee 42 a2 bd 35 00 42 3f
       -0.5772183 0.3314467 -0.07922922 0.75781566
000360 30 c9 b8 3e ca 55 d9 be 45 24 21 bd 6b ff 7d ba
       0.36090994 -0.42448264 -0.03934123 -0.00096892443
000370 9c 44 9f bd ac 22 10 bf 21 17 0d 3f b6 21 26 be
       -0.07776758 -0.56302905 0.55113417 -0.16223797
000380 cf 40 7d bd 9f 87 83 3e b7 95 a9 be 1b f8 c8 be
       -0.061829384 0.25689408 -0.33122036 -0.3925179
000390 7e d1 7e 3d d6 e6 a7 bd 6d b7 2a bd 00 e8 b2 3e
       0.062211506 -0.08198325 -0.041678835 0.34942627
0003a0 47 b8 d6 3e 74 66 8f bb 56 ed aa bd d3 23 ac 3e
       0.41937467 -0.004376227 -0.083460495 0.33621082
0003b0 3b 27 17 be 7d 26 2c be f2 28 00 be f4 25 88 bd
       -0.14761059 -0.16811557 -0.1251562 -0.06647864
0003c0 eb 89 47 3e a9 0d 42 bd 7e 8c a8 3e 3d 7b df bd
       0.19486205 -0.04737631 0.32919687 -0.10912178
0003d0 aa 6b 40 3e 49 d0 cd bd 44 06 80 3e 9d 15 d2 3e
       0.1879107 -0.10049493 0.2500478 0.41032115
0003e0 a7 8d 11 be 7d 57 be bd 88 b2 59 3e e7 2d 95 3e
       -0.14214192 -0.09294031 0.2125951 0.29136583
0003f0 35 d4 31 3d f9 46 fd be 3c 54 43 be eb 1a ce 3c
       0.043415267 -0.4946821 -0.19075102 0.02515932

bias f4 [4]
000000 0c 57 36 3d bb 43 ca 3b ce fe a9 3c 58 54 1c bd
       0.044516608 0.006172625 0.020751383 -0.038166374
