problem1/models/underway/success_whole_model_1766857957.pth (torch, 146613 bytes, 9 tensors)

weight f4 [128, 8]
0	0x3eed7cf5	0.46384397
1	0xbec8be8b	-0.39207873
2	0x3e11ae30	0.14226604
3	0xbea157f7	-0.31512424
4	0xbe6bc525	-0.23024423
5	0xbea80730	-0.32817984
6	0x3eabaa19	0.33528212
7	0x3e265a00	0.1624527
8	0x3d8d5c83	0.06902411
9	0x3e32f0bb	0.17474644
10	0xbd450bc9	-0.048106942
11	0x3dcaa639	0.09894986
12	0x3e4d4583	0.20046048
13	0xbe54cb04	-0.2078057
14	0x3edb5d58	0.42844653
15	0x3ebe1868	0.37127995
16	0x3e8430bf	0.2581844
17	0xbec58cdf	-0.3858404
18	0xbe2322bc	-0.15931219
19	0xbf07e636	-0.5308565
20	0x3e259875	0.16171439
21	0x3e9d4c22	0.30722147
22	0xbce24162	-0.027619068
23	0x3ed579db	0.4169453
24	0x3a62a5d4	0.0008645926
25	0x3d4f1e13	0.05056579
26	0xbee6fa71	-0.45112947
27	0x3ece1e5d	0.4025754
28	0x3f0364e9	0.5132585
29	0x3ecf6359	0.40505484
30	0x3e994d93	0.29941997
31	0x3e2cb77d	0.1686687
32	0xbf3db8f0	-0.7411032
33	0x3e972b6c	0.29525316
34	0xbe7ea9f6	-0.24869522
35	0x3e2a29c1	0.1661749
36	0x3e6eb91a	0.23312798
37	0x3df3742a	0.11887391
38	0x3e22bc1b	0.15892069
39	0x3e076af2	0.1322439
40	0x3e78791e	0.24264953
41	0x3e1c2ce1	0.15251495
42	0xbe92ba1b	-0.28657612
43	0x3f38f8e9	0.72254807
44	0xbe843cdd	-0.25827685
45	0xbf0d49d2	-0.55190766
46	0x3e44990d	0.19199009
47	0xbe60dec5	-0.2195998
48	0xbee13b18	-0.43990397
49	0x3ee718c0	0.4513607
50	0xbe9433fb	-0.28945908
51	0xbf16e522	-0.5894338
52	0x3ee40e85	0.44542328
53	0x3e654999	0.22391357
54	0xbdb4634a	-0.088080004
55	0xbd5623fc	-0.05228041
56	0xbd57860d	-0.052618075
57	0xbec9ecc1	-0.3943844
58	0xbe02da9a	-0.12778702
59	0xbeb04bc6	-0.3443281
60	0x3d2df38e	0.0424686
61	0xbeaa92d5	-0.3331515
62	0x3d89dcd1	0.067315705
63	0x3e9bd8ba	0.30438787
64	0xbea0cf5f	-0.31408212
65	0x3d5e7283	0.054308426
66	0xbf20a558	-0.62752295
67	0x3e2ad123	0.16681342
68	0x3d68aa65	0.056803126
69	0xbde7483b	-0.11293074
70	0x3eb9fd66	0.3632614
71	0xbe471b35	-0.19443972
72	0x3f2cf661	0.67563444
73	0xbf423999	-0.7586914
74	0x3f2b1778	0.66832685
75	0xbf13cea5	-0.5773719
76	0xbe854cc1	-0.2603512
77	0x3d2decf8	0.04246232
78	0x3daab569	0.083353825
79	0xbdf5a002	-0.1199341
80	0xbe1461be	-0.1449041
81	0x3f6ae12e	0.91749847
82	0xbee3cd28	-0.4449246
83	0xbf79f68e	-0.9764184
84	0xbec7efe7	-0.39050218
85	0xbe0e3f4e	-0.13891336
86	0x3cf1b4e9	0.02950521
87	0xbe61dee0	-0.22057676
88	0x3e9d7b7f	0.30758283
89	0x3eb0af76	0.34508866
90	0xbec706d1	-0.38872388
91	0xbc542aab	-0.012949626
92	0xbe411c18	-0.18858373
93	0xbe2fe8c7	-0.17178641
94	0x3e886519	0.2663963
95	0xbcbad90a	-0.02280857
96	0xbd9d11c7	-0.076694064
97	0xbeb31286	-0.3497507
98	0x3e40c081	0.18823434
99	0xbee8abd4	-0.45443594
100	0xbe719255	-0.23590977
101	0xbefb942d	-0.49136487
102	0xbf225ab2	-0.6341964
103	0xbd0a7e83	-0.033812057
104	0xbdcf46e7	-0.101209454
105	0x3ea9ad33	0.33139953
106	0x3e8a8a8e	0.27058834
107	0x3d04784f	0.032341298
108	0xbf223a06	-0.63369787
109	0xbd53bf0f	-0.05169588
110	0x3ed4859c	0.41508186
111	0x3e5cce12	0.21562985
112	0xbe21a2b8	-0.15784729
113	0x3ee0e9b0	0.4392829
114	0x3ebeb890	0.37250185
115	0xbdf87102	-0.121309295
116	0x3e81320a	0.2523349
117	0xbe935849	-0.28778294
118	0xbea1bfab	-0.31591544
119	0xbc4a45c7	-0.012345738
120	0xbe2857f2	-0.16439798
121	0xbda55633	-0.08073082
122	0xbf4ec045	-0.8076213
123	0xbec5c71d	-0.38628474
124	0x3e934245	0.28761497
125	0xbda7f3c0	-0.082007885
126	0xbe000659	-0.12502421
127	0x3b35877a	0.0027699159
128	0x3e26f32b	0.16303699
129	0xbeb0d3a2	-0.34536463
130	0xbe91a892	-0.2844892
131	0xbf02089e	-0.507944
132	0x3d35afc2	0.04435707
133	0x3e0f5d7f	0.1400051
134	0xbe8cd39d	-0.27505198
135	0xbe680900	-0.22659683
136	0xba0a0a13	-0.00052657834
137	0xbfb46859	-1.4094344
138	0x3f62c370	0.88579464
139	0xbf0ee3fa	-0.55816615
140	0xbea36273	-0.31911048
141	0xbe24a208	-0.16077435
142	0x3dc835e7	0.09775906
143	0x3e392823	0.18081717
144	0x3bf8212e	0.0075723147
145	0x3f3d7d3e	0.7401923
146	0x3f52ce79	0.823463
147	0x3ecaf030	0.39636374
148	0xbf01d63a	-0.5071751
149	0xbe5e5e3d	-0.21715637
150	0x3c2b755f	0.010464995
151	0x3d35c5fa	0.04437826
152	0xbee1490a	-0.44001037
153	0xbde1ad67	-0.11019402
154	0xbed3cf48	-0.4136908
155	0x3d278879	0.040901635
156	0x3ea6fb9a	0.32613832
157	0x3e5b749f	0.21431206
158	0x3e918681	0.2842293
159	0x3d01c892	0.03168542
160	0xbd80bc6e	-0.0628594
161	0x3e1e6ee6	0.15471992
162	0x3d2e7118	0.042588323
163	0xbd18fe06	-0.03735163
164	0xbdfe1412	-0.12406172
165	0x3ed71357	0.42006943
166	0xbf3d1eb2	-0.7387496
167	0xbdb6f791	-0.08933938
168	0xbdbb287a	-0.0913858
169	0xbfa35265	-1.275952
170	0x3e8eadc2	0.27866942
171	0xbf3996b6	-0.7249559
172	0x3e5300d4	0.20605785
173	0x3ea76e6f	0.32701442
174	0xbb97ab9e	-0.0046286127
175	0xbeee74df	-0.4657354
176	0x3e824f2c	0.25451028
177	0xbe8808fe	-0.2656936
178	0x3e7c5e31	0.24645306
179	0x3d4d393f	0.050103422
180	0xbe878d7d	-0.26475134
181	0xbe9cb99d	-0.30610362
182	0x3e06bfcb	0.131591
183	0x3e0afb5a	0.13572446
184	0xbdb62fa1	-0.08895803
185	0x3ee314bd	0.4435176
186	0xbe1b552a	-0.15169206
187	0x3ef35765	0.47527614
188	0x3d32b86d	0.043632913
189	0xbee5787a	-0.4481848
190	0xbee883e1	-0.45413116
191	0xbeae95be	-0.3409862
192	0xbdc9c627	-0.09852248
193	0xbd2e6c59	-0.042583797
194	0x3f552bea	0.8327013
195	0xbf0fe1ab	-0.56203717
196	0x3f35abfb	0.70965546
197	0x3dc14278	0.09436506
198	0xbcbbdffb	-0.02293395
199	0xbe905021	-0.28186134
200	0x3c58fc8f	0.013243808
201	0x3e94e9bb	0.29084572
202	0xbec6a5bb	-0.38798317
203	0xbec6009a	-0.38672334
204	0x3de789be	0.11305569
205	0xbde6e272	-0.1127366
206	0x3b102e6d	0.0022000328
207	0xbe5144fc	-0.20436472
208	0x3e80c053	0.25146732
209	0x3ed7e4fc	0.4216689
210	0x3e922764	0.28545678
211	0x3d4e8cea	0.050427355
212	0xbe47ec5c	-0.19523758
213	0xbf0eaf9b	-0.557367
214	0xbf1ac529	-0.6045709
215	0xbda99bd4	-0.08281675
216	0xbe54eae5	-0.2079273
217	0x3e1b2b6b	0.15153281
218	0x3d10ddbc	0.035367712
219	0xbf2f70e7	-0.6853165
220	0x3ea95269	0.33070686
221	0x3eda3dd9	0.4262531
222	0x3e7d21a1	0.2471986
223	0x3ec3c119	0.3823326
224	0x3d925015	0.07144181
225	0x3cfedb3d	0.0311104
226	0x3d040188	0.032228023
227	0xbeb84bf5	-0.3599545
228	0x3f876568	1.0577822
229	0xbd743633	-0.059622
230	0xbdb7b787	-0.08970552
231	0xbe6fb478	-0.23408687
232	0xbe3d9b6f	-0.18516324
233	0xbd86ff8e	-0.06591712
234	0x3e99b0f6	0.30017823
235	0x3e7ae0b2	0.24499777
236	0xbec5bb1d	-0.3861932
237	0xbf0dcdf2	-0.5539237
238	0x3db3e807	0.0878449
239	0x3ec0f94f	0.37690207
240	0xbe423849	-0.18966784
241	0x3eda2c0d	0.42611733
242	0xbe26fef9	-0.16308202
243	0xbe75ab5c	-0.2399115
244	0xbd8ce7b1	-0.06880129
245	0xbe60ae4f	-0.21941493
246	0xbe088914	-0.13333541
247	0x3eb05d0a	0.34445983
248	0xbee0c2b9	-0.43898562
249	0x3dc68787	0.096938185
250	0xbe90cec1	-0.2828274
251	0x3ebe85ac	0.3721136
252	0x3eb5a79c	0.35479438
253	0x3ef4b1e1	0.4779196
254	0xbf16508f	-0.5871667
255	0x3e265391	0.16242816

bias f4 [128]
0	0xbe39e387	-0.18153201
1	0x3e9e7a01	0.30952457
2	0xbdcc1aed	-0.09966073
3	0x3ea131f9	0.3148344
4	0xbd8c46ff	-0.06849479
5	0x3e4fb3c9	0.20283426
6	0x3dbca37d	0.092108704
7	0x3f2cfa38	0.67569304
8	0x3f0d6323	0.55229396
9	0xbdf7bb6a	-0.12096293
10	0x3dd3f2de	0.103490576
11	0x3f15c767	0.5850739
12	0xbd49a597	-0.049230184
13	0xbc37ca77	-0.011217705
14	0x3ed0b249	0.4076102
15	0xbeab6ca0	-0.33481312
16	0x3e90d313	0.28286037
17	0x3d77afea	0.0604705
18	0x3ecdf8d3	0.402289
19	0x3d3824b5	0.04495688
20	0xbe471a9f	-0.19443749
21	0x3d902f8d	0.070403196
22	0x3eda12a6	0.42592353
23	0x3cd0b224	0.02547557
24	0x3d937c8f	0.07201492
25	0x3e9b8e82	0.30382162
26	0x3d8e80e8	0.06958181
27	0x3e488c39	0.1958474
28	0xbd57d185	-0.052690048
29	0xbd26cef2	-0.040724702
30	0x3eede7ee	0.4646601
31	0xbed5069f	-0.41606614
32	0x3e312f4a	0.17303196
33	0x3f0a38ec	0.53993106
34	0xbe9979c3	-0.2997571
35	0xbe16f8b1	-0.14743306
36	0xbdae8a6f	-0.08522498
37	0xbce98d8f	-0.028509883
38	0x3e5e092e	0.2168319
39	0x3e61941a	0.22029153
40	0xbe4d4b41	-0.20048238
41	0xbea2cfca	-0.31799155
42	0x3ed6b75a	0.4193676
43	0x3e2c8171	0.16846253
44	0x3e156b6f	0.14591764
45	0x3e855148	0.26038575
46	0x3e00dd78	0.12584484
47	0xbd655af5	-0.055994947
48	0xbeb41dea	-0.35179073
49	0xbd3916a0	-0.045187593
50	0x3ec2e41e	0.38064665
51	0x3d03d18e	0.03218227
52	0x3f2a79f9	0.66592366
53	0x3d17874a	0.036994256
54	0x3eb9837d	0.3623313
55	0x3d377654	0.04479058
56	0xbc244949	-0.010027238
57	0x3ef4151f	0.47672364
58	0xbecb477c	-0.39702976
59	0x3ee1726b	0.44032606
60	0xbe459aa0	-0.19297266
61	0x3ea2e8ee	0.31818336
62	0xbcbbe8fb	-0.022938242
63	0x3e0a90d1	0.13531806
64	0xbe519d2d	-0.20470114
65	0x3e54c1a2	0.2077699
66	0x3db8ad11	0.09017385
67	0x3efd5379	0.49477747
68	0x3e926544	0.28592885
69	0xbe383155	-0.17987569
70	0xbca982d2	-0.020692263
71	0x3dac8b73	0.08425035
72	0x3be5b73c	0.0070103686
73	0x3c1d9c6c	0.009619813
74	0x3d1e320e	0.038621955
75	0x3e664ff2	0.22491434
76	0xbdd4215d	-0.10357926
77	0x3eb0d40c	0.3453678
78	0x3c2d469a	0.010575915
79	0x3de92eac	0.11385855
80	0x3e37e453	0.17958193
81	0x3e129ba4	0.14317185
82	0xbcfa6a38	-0.030568227
83	0xbcbe11f5	-0.023201922
84	0xbd847fa4	-0.06469658
85	0x3e4690ed	0.19391222
86	0x3eaec7e9	0.34136894
87	0xbe1e22ed	-0.1544301
88	0x3dfe68b2	0.12422313
89	0x3f01431c	0.50493026
90	0x3da0ef03	0.07858088
91	0x3f0f1cf7	0.5590357
92	0xbe1ac5cd	-0.15114518
93	0xbef19f01	-0.47191623
94	0x3e74d336	0.23908696
95	0x3e45beca	0.19311062
96	0x3e7cf83d	0.2470407
97	0x3e9b9d86	0.30393618
98	0x3dd5b235	0.10434381
99	0x3e1a8222	0.15088704
100	0x3ea86a14	0.3289343
101	0x3db82859	0.08992071
102	0xbe42a473	-0.19008045
103	0x3e554df3	0.20830517
104	0x3f0be1e8	0.5464158
105	0xbe186d60	-0.14885473
106	0x3dd380eb	0.103273235
107	0x3e7860ff	0.24255751
108	0x3ed50225	0.416032
109	0xbd61038c	-0.054935023
110	0x3d9544c8	0.072885096
111	0x3eb9f48e	0.36319393
112	0xbdb59202	-0.088657394
113	0xbd6bf1c4	-0.057603613
114	0x3e50b1be	0.20380303
115	0x3eb4dbe1	0.35324004
116	0x3c25d0e9	0.010120609
117	0x3ea0dd12	0.31418663
118	0xbbd1ae15	-0.006398926
119	0xbe731bfc	-0.23741144
120	0xbc972d65	-0.018454263
121	0x3e4dfdaa	0.20116296
122	0x3ec39e47	0.38206694
123	0x3e025ee5	0.12731512
124	0x3e0e7425	0.13911493
125	0x3df5a773	0.11994829
126	0xbcada5ac	-0.021197163
127	0xbcbb52ad	-0.022866571

weight f4 [128, 128]
0	0x3e92e99b	0.28693852
1	0xbe39ac89	-0.18132223
2	0xbb5034dc	-0.0031769788
3	0x3e2231b4	0.15839273
4	0x3e2c9abb	0.168559
5	0xbd5e503b	-0.054275732
6	0x3e3d3cc7	0.18480216
7	0x3deec369	0.11658365
8	0x3d5ad5b2	0.053426452
9	0x3f38bca5	0.7216285
10	0x3e18e482	0.14930919
11	0xbbcaf0b6	-0.0061932458
12	0x3ea17f99	0.31542662
13	0x3de2cf0a	0.11074646
14	0xbe52beb2	-0.20580557
15	0x3e6c9738	0.2310456
16	0x3de618b9	0.11235184
17	0x3d6a75a6	0.057241105
18	0x3d6dec4d	0.058086682
19	0x3e12f04a	0.14349476
20	0x3e90c52a	0.28275424
21	0xbc34484b	-0.011003564
22	0x3e2a910d	0.16656895
23	0x3de26173	0.11053743
24	0xbec39256	-0.38197583
25	0xbd88b657	-0.066754036
26	0x3dc006ff	0.093763344
27	0x3d3b8ba3	0.045787465
28	0xbf2ae0b5	-0.66749126
29	0x3eb5870b	0.35454592
30	0xbbb02b92	-0.0053762877
31	0x3edab7f1	0.4271846
32	0x3eaec4a4	0.341344
33	0xbe34bf70	-0.17651153
34	0x3efb4230	0.49073935
35	0x3e186b9f	0.14884804
36	0xbeaecdd6	-0.34141415
37	0x3eb87e43	0.3603383
38	0x3dcabc36	0.0989918
39	0x3deea2c6	0.1165214
40	0x3e8ed572	0.2789722
41	0x3eb5c962	0.35505205
42	0xbe3c9188	-0.18414891
43	0x3cebed72	0.028799746
44	0x3e84f58f	0.25968596
45	0x3e4c3a44	0.19944102
46	0x3e49a2e6	0.19691047
47	0x3f1023d7	0.5630469
48	0x3eaa79b0	0.33295965
49	0x3dde3942	0.10850765
50	0x3d99294d	0.074785806
51	0x3ebe55f4	0.37174952
52	0x3d9ad975	0.07561008
53	0x3e5ee6ac	0.21767682
54	0x3ded33c9	0.11582143
55	0xbeb5aa57	-0.3548152
56	0x3d33f0ff	0.043931004
57	0xbbfa63cb	-0.007641291
58	0x3e6912ac	0.22761029
59	0xbddbf95f	-0.10740923
60	0xbeae7cb6	-0.34079522
61	0xbb3560a6	-0.0027676015
62	0x3e4ca7fd	0.19985957
63	0xbe540f4e	-0.20708963
64	0x3e57610a	0.21033111
65	0x3d446c02	0.047954567
66	0xbeea3895	-0.45746294
67	0x3dc4bf01	0.096067436
68	0xbeac68e1	-0.33673766
69	0x3e28d989	0.16489233
70	0x3e2a5593	0.16634206
71	0x3e8e8f50	0.27843714
72	0x3e81cb81	0.25350574
73	0x3e1e6ab0	0.15470386
74	0xbf1e610a	-0.6186682
75	0x3e2b59a8	0.1673342
76	0x3ea3bda2	0.31980616
77	0x3db2e872	0.08735742
78	0x3e5e8eb7	0.21734129
79	0xbdb13af2	-0.08653821
80	0x3daaa9a3	0.08333137
81	0x3e93adac	0.2884344
82	0xbef6ee26	-0.48228568
83	0x3cbbd1ed	0.022927249
84	0x3e042fe2	0.12908891
85	0x3e54519d	0.20734258
86	0x3da386ac	0.07984671
87	0x3e6579de	0.2240977
88	0x3e57557b	0.21028702
89	0x3cad4447	0.021150721
90	0xbb3a360b	-0.002841356
91	0xbdb764fb	-0.08954807
92	0x3ea0d30b	0.31411013
93	0x3e7fb157	0.24969994
94	0xbe60c13a	-0.2194871
95	0x3dbd4c14	0.092430264
96	0x3e60025c	0.218759
97	0x3e430feb	0.19049041
98	0xbe265d06	-0.16246423
99	0xbe7274cd	-0.23677368
100	0x3d2f9c98	0.04287395
101	0xbe2d47d8	-0.16921937
102	0x3ed13af4	0.4086529
103	0x3db92c18	0.09041613
104	0x3dc5ce07	0.09658437
105	0x3d63f66a	0.05565492
106	0x3e294f6c	0.16534203
107	0x3e2d911e	0.16949889
108	0x3e34c3f4	0.17652875
109	0xbd9b990c	-0.07597551
110	0x3dffc24b	0.1248823
111	0x3e68d6e5	0.22738226
112	0x3e3b08ea	0.18265119
113	0x3e4e5def	0.2015302
114	0x3e6ea33b	0.23304455
115	0xbdf778cb	-0.12083586
116	0xbf3aea44	-0.7301371
117	0xbc50a746	-0.012735194
118	0xbe7efc21	-0.24900867
119	0x3d2fa1e1	0.04287899
120	0x3d97b359	0.07407255
121	0x3d128f35	0.035781104
122	0x3dabd808	0.08390814
123	0xbede048e	-0.4336285
124	0xbe62cf93	-0.22149496
125	0xbe4a2cc0	-0.19743633
126	0x3e921661	0.285327
127	0x3d41a84d	0.047279645
128	0x3e597aca	0.21238247
129	0xbcde4faa	-0.027137596
130	0xbdb8aa6e	-0.09016882
131	0x3d661fa7	0.05618253
132	0x3e8f600d	0.28002968
133	0x3dd95218	0.10611361
134	0x3e1c3fa1	0.15258648
135	0x3e1666bf	0.14687632
136	0x3cafd6d2	0.021464739
137	0x3f2c86e8	0.6739335
138	0x3e48bed4	0.19604045
139	0xbcc16c0a	-0.023611087
140	0x3edd0180	0.43165207
141	0x3ca47459	0.02007501
142	0xbe273a88	-0.16330922
143	0x3e077ab4	0.13230401
144	0x3da649bd	0.08119533
145	0xbd1da490	-0.038487017
146	0x3e1ebb9f	0.1550126
147	0x3de1e9d0	0.11030924
148	0x3e9af411	0.30264333
149	0xbd00438a	-0.03131441
150	0x3e5eaee1	0.21746399
151	0x3e619ce5	0.22032507
152	0xbedbdae2	-0.42940432
153	0xbc1e0e2c	-0.0096469335
154	0x3e752cf8	0.23942935
155	0x3dd29f13	0.10284247
156	0xbf036047	-0.5131878
157	0x3e83f708	0.25774407
158	0xbdadaf60	-0.08480716
159	0x3ec1ac6d	0.37826863
160	0x3eb85ef7	0.36009952
161	0xbe0ffd86	-0.14061555
162	0x3f063646	0.52426565
163	0x3e3465dd	0.17616983
164	0xbe79d3d5	-0.24397214
165	0x3e3882a3	0.18018584
166	0x3d2e8b4f	0.042613324
167	0x3e1a1605	0.15047462
168	0x3ec6d497	0.38834068
169	0x3ed6c1b5	0.41944662
170	0x3c679b3c	0.014136132
171	0xbbf3abc6	-0.0074362485
172	0x3e40309d	0.18768544
173	0x3e51db39	0.20493783
174	0x3e711209	0.23542036
175	0x3efbf30b	0.49208865
176	0x3e8ad857	0.2711818
177	0x3e89caff	0.26912686
178	0x3d0b9b90	0.034083903
179	0x3ee93fdf	0.45556542
180	0x3ac35625	0.0014902992
181	0x3e1a557d	0.15071674
182	0x3d982d24	0.07430485
183	0xbe86d9ec	-0.26338136
184	0x3e3bfa1a	0.18357125
185	0xbdaecd1d	-0.08535216
186	0x3ea3a094	0.3195845
187	0x3c417aa4	0.011809025
188	0xbee12618	-0.43974376
189	0xbd1985be	-0.037481062
190	0x3dbc4f5e	0.091948256
191	0xbe741838	-0.23837364
192	0x3e956b55	0.2918345
193	0x3dc10aba	0.09425874
194	0xbea1d834	-0.31610262
195	0x3e610a87	0.21976672
196	0xbe4320a3	-0.19055419
197	0x3d8a50dd	0.06753705
198	0x3e956772	0.29180485
199	0x3e703745	0.23458584
200	0x3e5d31cc	0.21601027
201	0x3e4d7d6e	0.20067379
202	0xbf1fc90f	-0.62416166
203	0x3e62d370	0.2215097
204	0x3eaff919	0.34369734
205	0x3c48d128	0.012256898
206	0x3ea04260	0.3130064
207	0xbe7f4cbb	-0.24931614
208	0x3dea7ac8	0.114492
209	0x3eb57d98	0.35447383
210	0xbeb999c4	-0.36250126
211	0x3cbf00ce	0.023315813
212	0x3e1f32bb	0.15546696
213	0x3dd77b04	0.1052151
214	0x3d49a24a	0.049227037
215	0x3e771047	0.24127303
216	0x3e57a804	0.21060187
217	0x3db9f9aa	0.09080823
218	0xbd5fbad2	-0.054621525
219	0x3b248fac	0.002511005
220	0x3e6d478c	0.23171824
221	0x3e933edc	0.28758895
222	0xbe6e0ecc	-0.23247832
223	0x3e897844	0.26849568
224	0x3e94b449	0.29043797
225	0x3e1d952f	0.1538894
226	0xbe6f76fb	-0.23385231
227	0xbe2a0b50	-0.16605878
228	0x3e27ef27	0.16399823
229	0xbe8e4208	-0.27784753
230	0x3e87375d	0.26409426
231	0x3e02012d	0.12695761
232	0x3d11abc7	0.03556421
233	0x3e32a556	0.17445883
234	0x3d1a7367	0.037707713
235	0x3d0d5fdc	0.034515247
236	0x3e326f15	0.17425187
237	0x3c328c18	0.010897659
238	0x3e5bf029	0.21478333
239	0x3e91da9d	0.284871
240	0x3eaebb43	0.34127244
241	0x3d8d271c	0.06892225
242	0x3e6d03d8	0.23145998
243	0xbdeaa88c	-0.11457929
244	0xbf1a7946	-0.603413
245	0x3df5905e	0.119904265
246	0xbe323dc9	-0.17406382
247	0x3d856285	0.06512932
248	0x3e969f6a	0.29418498
249	0xbdb471bf	-0.08810758
250	0x3e86b9d9	0.26313666
251	0xbee43586	-0.44572085
252	0xbe6ad7fd	-0.22933955
253	0xbe1bc1f5	-0.15210707
254	0x3e841892	0.25799996
255	0x3dc8c201	0.09802628

bias f4 [128]
0	0xbe3ea420	-0.18617296
1	0xbca84398	-0.020540044
2	0xbd60e988	-0.054910213
3	0xbdfde78d	-0.123976804
4	0xbd8e82ca	-0.0695854
5	0xbd7b8059	-0.0614017
6	0x3d171edb	0.03689466
7	0xbe2b0c3d	-0.16703887
8	0xbe236930	-0.15958095
9	0xbdc8356f	-0.09775817
10	0x3da0b234	0.078464895
11	0xbe254665	-0.16140135
12	0x3db22733	0.08698883
13	0xbe0b5840	-0.13607883
14	0xbe0652c4	-0.1311751
15	0xbdee62d9	-0.116399474
16	0x3dd97791	0.106185086
17	0x3ddabf11	0.10680974
18	0xbbc9a8e8	-0.0061541684
19	0x3c8cd3e6	0.017190885
20	0xbdfd87df	-0.12379431
21	0x3c28d017	0.010303519
22	0x3e24dd38	0.16100013
23	0x3e7f39cf	0.24924396
24	0x3e2d6270	0.16932082
25	0x3d8a5a0e	0.06755458
26	0xbceabbe9	-0.028654056
27	0xbbdfcabe	-0.0068295887
28	0x3e25e466	0.16200408
29	0xbd98a38b	-0.07453068
30	0x3dd47073	0.103730105
31	0xbe8649e7	-0.26228258
32	0xbda7ef2e	-0.08199917
33	0x3e73d62b	0.23812167
34	0xbe3fc89d	-0.18728872
35	0xbd50211f	-0.050812837
36	0x3c4dd80a	0.012563715
37	0x3d2fd1b6	0.042924605
38	0xbdfd899e	-0.12379764
39	0x3e3a7248	0.18207657
40	0xbe00bfe8	-0.12573206
41	0x3e30c91e	0.1726422
42	0x3d45cc1b	0.048290353
43	0x3cecb56f	0.028895108
44	0xbe55216f	-0.20813535
45	0xbd47ce68	-0.04878083
46	0x3e2d9093	0.16949682
47	0x3e2c3059	0.16815318
48	0xbdc45f25	-0.0958846
49	0xbce4a36d	-0.027909959
50	0xbd7af98b	-0.06127314
51	0xbd379ad1	-0.04482538
52	0x3da172ca	0.078832224
53	0xbe030032	-0.12793043
54	0xbce4a6b6	-0.027911525
55	0xbd9647e2	-0.07337929
56	0xbd296392	-0.041354723
57	0xbc8ba4af	-0.0170463
58	0x3b01a031	0.001977932
59	0xbdbcae52	-0.092129365
60	0xbde65476	-0.112465784
61	0x3dab2e29	0.08358414
62	0x3d93c2ee	0.07214914
63	0x3e3e20ed	0.18567248
64	0xbd6849c9	-0.056710992
65	0xbe303b44	-0.17210108
66	0xbdb4327b	-0.08798691
67	0x3bb04852	0.005379715
68	0xbda5a97c	-0.08088967
69	0x3e333a35	0.17502673
70	0x3d4ef2e4	0.050524607
71	0xbd934a3c	-0.071918935
72	0x3bdbf069	0.0067120087
73	0xbe4564b0	-0.1927669
74	0xbe02b38d	-0.12763806
75	0xbe2bd081	-0.16778757
76	0x3cfc3448	0.030786648
77	0xbe1b624b	-0.15174215
78	0xbd86c39e	-0.0658028
79	0x3eaa767c	0.3329352
80	0xbdb19998	-0.08671874
81	0xbd3397ac	-0.043845817
82	0x3d5583e6	0.05212774
83	0x3d4a09e0	0.049325824
84	0x3d1ce366	0.0383028
85	0xbdc02e80	-0.09383869
86	0x3e09c602	0.1345444
87	0xbdb16e23	-0.08663585
88	0xbd914532	-0.07093276
89	0x3e2b97d5	0.16757138
90	0xbd8cca20	-0.0687449
91	0xbd74d5a5	-0.05977406
92	0xbda5743b	-0.0807881
93	0xbd9d84d4	-0.076913506
94	0xbd8b4c87	-0.06801706
95	0xbe56bb75	-0.20969947
96	0x3e4dbfdb	0.20092718
97	0xbe045235	-0.12921984
98	0x3e418b43	0.1890078
99	0xbd8efd37	-0.06981891
100	0x3d1dc967	0.03852215
101	0x3da70c19	0.08156604
102	0x3d8f5baa	0.069999054
103	0xbd2f071a	-0.042731382
104	0x3e47d404	0.19514471
105	0xbe709c70	-0.23497176
106	0xbdc4735b	-0.09592315
107	0xbe050095	-0.12988503
108	0xbdfea20e	-0.12433253
109	0xbe36d34f	-0.17854045
110	0xbdd8378c	-0.1055747
111	0x3de7bddf	0.11315512
112	0xbdba26d4	-0.09089437
113	0x3e2cbfb5	0.16870005
114	0xbddaf969	-0.106921025
115	0xbd88bd75	-0.06676761
116	0x3e764e2a	0.24053255
117	0xbe0d4b07	-0.13798152
118	0xbdd0be29	-0.1019252
119	0x3df389e1	0.11891533
120	0x3e5af968	0.21384203
121	0x3d80ffaa	0.06298764
122	0x3dda328c	0.10654172
123	0x3e14e471	0.14540268
124	0x3dfdfc76	0.12401669
125	0xbdff3242	-0.12460758
126	0x3dc67c35	0.09691659
127	0x3e761462	0.24031213

weight f4 [1, 128]
0	0xbf0cd483	-0.5501177
1	0xbefeb587	-0.4974787
2	0xbf15514c	-0.58327174
3	0x3fa0ba84	1.255692
4	0xbf0d5838	-0.55212736
5	0xbf104597	-0.56356186
6	0xbd97bcb3	-0.074090384
7	0xbf157ead	-0.58396417
8	0xbf0568be	-0.5211295
9	0xbefe6fbe	-0.49694628
10	0x3f4334c5	0.76252395
11	0xbf1545dd	-0.5830973
12	0x3fd057c5	1.6276785
13	0xbf0b9205	-0.54519683
14	0xbf356b42	-0.7086679
15	0xbf46cf1a	-0.7765976
16	0x3f43114e	0.7619828
17	0x3f2ea1e9	0.68215805
18	0x3fa72a06	1.30597
19	0x3d99c8ee	0.075090274
20	0xbf07c301	-0.5303193
21	0xbf0b0c82	-0.5431596
22	0x3ef42310	0.47683
23	0x3f2ca283	0.67435473
24	0x3f452a73	0.770179
25	0x3f582fa3	0.8444769
26	0xbf079751	-0.52965266
27	0x3f9adfdb	1.2099565
28	0x3f181736	0.5941042
29	0xbee83873	-0.45355567
30	0x3f00681f	0.50158876
31	0xbf4baa65	-0.79556876
32	0xbf1c7b61	-0.6112576
33	0x3f153eee	0.5829915
34	0xbf064e6e	-0.52463424
35	0x3eb16d57	0.34653732
36	0xbf1176aa	-0.5682169
37	0x3f66336a	0.899222
38	0xbedf9937	-0.4367158
39	0x3f3b3619	0.7312942
40	0xbf3f7c79	-0.74799305
41	0x3f04c101	0.51857
42	0xbecd2c0d	-0.4007267
43	0x3f999e3e	1.2001417
44	0xbf40f9c8	-0.75381136
45	0xbf13ef42	-0.57786953
46	0x3f1e7edb	0.61912316
47	0x3f566a0e	0.83755577
48	0xbf17cfa0	-0.59301186
49	0x3d5e109a	0.05421505
50	0x3d87d358	0.066321075
51	0xbf0bc7da	-0.54601824
52	0x3f4d6e00	0.8024597
53	0xbf1e7612	-0.6189891
54	0xbf0a17a7	-0.5394234
55	0xbf10c6c2	-0.5655328
56	0xbf22ab51	-0.6354266
57	0xbefe2a4e	-0.4964165
58	0xbef0f60e	-0.47062725
59	0xbf0e1aeb	-0.55509824
60	0xbf136f4f	-0.5759172
61	0x3f4e4a07	0.80581707
62	0x3aa7d6da	0.001280512
63	0x3ec3a97f	0.38215253
64	0xbf0a9501	-0.5413361
65	0xbefbcfc8	-0.49181962
66	0xbef1fc88	-0.4726298
67	0xbf0862f5	-0.53275996
68	0xbf0ff9e6	-0.5624069
69	0x3f2d0a83	0.67594165
70	0x3f4bdd28	0.7963433
71	0xbef65608	-0.48112512
72	0x3d63540b	0.05550007
73	0xbf3d412a	-0.7392756
74	0xbf16a317	-0.58842605
75	0xbef90576	-0.4863698
76	0x3f5041f9	0.81350666
77	0xbf161ef9	-0.5864101
78	0xbf130bed	-0.5744007
79	0x3f14132f	0.5784177
80	0xbf08caa7	-0.5343422
81	0xbf1e5b87	-0.6185841
82	0x3f531692	0.82456315
83	0x3f373b4e	0.71574867
84	0x3f8d7e95	1.1054255
85	0x3ae688a9	0.0017588335
86	0x3fd01b37	1.6258305
87	0xbc534409	-0.012894639
88	0xbf117f89	-0.5683523
89	0x3f6f9340	0.9358406
90	0xbf15a782	-0.5845872
91	0x3fa2edc8	1.2728815
92	0xbf0d70bd	-0.5525015
93	0xbf1860be	-0.59522617
94	0xbf123174	-0.5710671
95	0xbeee9242	-0.4659596
96	0x3f61bc0b	0.88177556
97	0xbf16f1e4	-0.58962846
98	0x3f87d340	1.0611343
99	0xbf0ff4c8	-0.5623288
100	0x3f52fca9	0.8241678
101	0x3f823005	1.0170904
102	0xbd994411	-0.07483686
103	0xbef7e759	-0.48418692
104	0x3f3c5598	0.73568106
105	0xbf2c3c76	-0.67279756
106	0xbedcc4ea	-0.43118984
107	0xbf1cfbd5	-0.61321765
108	0xbf206c61	-0.62665373
109	0xbf13d196	-0.5774168
110	0xbee97f0e	-0.45604748
111	0x3f1faccb	0.62373036
112	0xbd550b3e	-0.052012675
113	0x3f29d128	0.6633477
114	0xbf085147	-0.5324902
115	0x3d91098b	0.07081898
116	0x3f08e884	0.5347979
117	0xbef4708b	-0.47742113
118	0xbf1cf8f6	-0.61317384
119	0x3f3b115f	0.7307338
120	0x3f458d15	0.771684
121	0x3f0423a6	0.51616895
122	0x3ef29509	0.4737933
123	0x3f5ef7bf	0.8709678
124	0x3f460423	0.7735006
125	0xbf21b9d0	-0.6317415
126	0x3ec16733	0.37774047
127	0x3f2a6890	0.665658

weight f4 [128, 128]
0	0xbd9a0a69	-0.07521517
1	0xbe09bc23	-0.13450675
2	0x3e7a82e6	0.24463996
3	0x3bbb4186	0.005714598
4	0x3dc666a4	0.09687546
5	0xbf0ed87f	-0.55799097
6	0x3d69ac12	0.057048865
7	0xbd29b86a	-0.041435637
8	0xbdb55c0d	-0.08855448
9	0x3d037655	0.032095272
10	0xbdafb602	-0.08579637
11	0xbc3fcffb	-0.011707301
12	0x3e35c696	0.17751536
13	0xbea998b7	-0.33124325
14	0xbdfb2cc4	-0.12264398
15	0x3ddc7ec1	0.10766364
16	0x3d3bcd46	0.04585006
17	0xbcae7f29	-0.021300869
18	0xbe2d9e67	-0.16954957
19	0x3d9928f6	0.07478516
20	0xbd92d667	-0.071698
21	0xbbbc616d	-0.0057489187
22	0xbe5f8a27	-0.21830045
23	0xbf2aeb59	-0.6676536
24	0x3e8b3284	0.27186978
25	0x3d859c77	0.06523984
26	0xbe588ab5	-0.21146663
27	0x3df5327f	0.11972522
28	0x3e457764	0.19283825
29	0x3dd4aa86	0.10384087
30	0xbd901557	-0.0703532
31	0xbe3d904b	-0.18512075
32	0xbef8d542	-0.48600203
33	0xbe0849d2	-0.1330941
34	0xbd30dba1	-0.043178204
35	0x3de26f36	0.11056368
36	0x3dc362f7	0.095403604
37	0x3d08b6fb	0.03337763
38	0xbedc3df8	-0.43016028
39	0x3b9e77b3	0.0048360466
40	0xbee1255d	-0.43973818
41	0xbf118743	-0.5684702
42	0x3c287cac	0.01028363
43	0xbd891698	-0.066937625
44	0x3d8f2d21	0.069910295
45	0xbe6e65b4	-0.23280984
46	0x3e483009	0.19549574
47	0x3e9ed92c	0.31025064
48	0x3e317a75	0.1733187
49	0xbf437f07	-0.76365703
50	0x3d527672	0.05138249
51	0xbe1ed969	-0.15512623
52	0x3d21e30c	0.03952317
53	0xbc9ddfee	-0.019271817
54	0xbe071094	-0.13189918
55	0x3e58f00b	0.21185319
56	0xbdcfed8e	-0.10152732
57	0xbdcfca6d	-0.101460315
58	0xbf51bdfc	-0.8193052
59	0xbd9fc308	-0.07800871
60	0x3d78826e	0.060671262
61	0x3aa24671	0.0012380612
62	0x3e818538	0.2529695
63	0x3d6a2d0c	0.057171866
64	0x3e911119	0.28333357
65	0x3d96296e	0.07332121
66	0xbd3665ac	-0.044530556
67	0xbdc42815	-0.095779575
68	0xbdc1980d	-0.094528295
69	0x3d6fdadf	0.05855834
70	0xbf148a81	-0.5802384
71	0x3d97815b	0.073977195
72	0x39a03193	0.00030554514
73	0xbe8f1e18	-0.27952647
74	0x3dd640ca	0.10461576
75	0x3e3d750b	0.1850168
76	0xbda5cd69	-0.080958195
77	0x3db7f72f	0.089826934
78	0xbef2c705	-0.47417465
79	0xbda1be30	-0.078976035
80	0x3dee9fc0	0.11651564
81	0xbf2e7abb	-0.6815602
82	0xbd88e5d1	-0.06684459
83	0x3db86492	0.09003557
84	0x3e14bd67	0.14525376
85	0xbf0a6bc0	-0.54070663
86	0x3d077d3e	0.033078425
87	0x3ddea514	0.1087133
88	0xbc845947	-0.016155852
89	0x3db54324	0.08850697
90	0xbdb3b8de	-0.08775495
91	0x3d8c8494	0.06861225
92	0x3d803fc9	0.06262166
93	0x3e057570	0.1303308
94	0x3ce1a51d	0.027544552
95	0xbf571299	-0.8401275
96	0x3d860046	0.06543021
97	0xbd03b80d	-0.032157946
98	0x3e692fee	0.2277219
99	0xbcd79c6f	-0.02631971
100	0xbcd0117a	-0.025398958
101	0x3de0759c	0.10959932
102	0xbd95d3c0	-0.07315779
103	0x3dbb2c09	0.091392584
104	0x3cf832dc	0.03029769
105	0xbed1fe26	-0.41014212
106	0xbb666987	-0.0035158114
107	0x3e6bc6a6	0.23024997
108	0xbedc6706	-0.4304735
109	0xbd87d568	-0.06632501
110	0xbd988823	-0.07447841
111	0xbf18794f	-0.595601
112	0xbf32d6cd	-0.6985901
113	0x3e021ae7	0.12705575
114	0x3d8ede28	0.06975967
115	0x3d54bbd5	0.051936943
116	0x3e863b00	0.26216888
117	0xbd83a9fb	-0.064289056
118	0x3e9a5299	0.30141142
119	0x3d9874cc	0.07444152
120	0xbf70de1b	-0.94088906
121	0x3d66c954	0.056344345
122	0xbe1cb2aa	-0.1530253
123	0x3da007c2	0.0781398
124	0xbd4bd950	-0.049767792
125	0xbe1f4227	-0.15552579
126	0x3dc0c076	0.09411709
127	0x3e4fe75f	0.20303105
128	0xbdc79c6b	-0.09746631
129	0x3c45518e	0.01204337
130	0xbdd18759	-0.10230894
131	0x3d381274	0.044939473
132	0xbe2cf435	-0.16890033
133	0x3de041a9	0.10950024
134	0xbc35726e	-0.011074645
135	0xbdd53966	-0.104113385
136	0xbe4010d2	-0.18756416
137	0xbd19fa8d	-0.03759246
138	0xbe7771b5	-0.2416447
139	0xbde90124	-0.11377171
140	0x3da72112	0.081606045
141	0xbe93688b	-0.28790697
142	0x3e19cfb5	0.1502064
143	0xbe3bad06	-0.18327722
144	0xbcfe8eb3	-0.031073904
145	0x3d4db2d8	0.050219387
146	0x3dcf725c	0.10129234
147	0xbe2cad57	-0.16862999
148	0x3d75ad67	0.059979822
149	0xbbb38d74	-0.005479509
150	0x3da7935b	0.08182403
151	0xbeb44782	-0.35210806
152	0x3e9468c3	0.28986177
153	0x3b86001d	0.004089369
154	0x3da67c6a	0.08129199
155	0x3d7281c7	0.059205797
156	0xbe9a3e61	-0.30125716
157	0x3da6e55e	0.08149217
158	0xbbe5e9ac	-0.0070163812
159	0xbda54529	-0.08069832
160	0xbd9dac90	-0.07698929
161	0xbcf6b8be	-0.030117389
162	0x3d11ab41	0.03556371
163	0xbd9bfcdf	-0.07616591
164	0xbedb8a8a	-0.42879134
165	0x3c6da622	0.014504941
166	0x3e01f7f7	0.12692247
167	0xbb12f6b6	-0.0022424883
168	0xbc6d3f0a	-0.014480362
169	0xbeab7074	-0.33484232
170	0xbde615b9	-0.11234612
171	0x3db78dbd	0.08962581
172	0xbdb29122	-0.08719088
173	0x3da21a38	0.07915157
174	0xbd0542a5	-0.03253426
175	0xbe85e561	-0.26151565
176	0x3d23484e	0.039863877
177	0xbd3e549b	-0.046467405
178	0x3c57c557	0.013169608
179	0xbe774662	-0.24147943
180	0xbd2c7cda	-0.042111255
181	0xbe03515f	-0.1282401
182	0xbcc26964	-0.023731895
183	0x3e26fa8b	0.16306512
184	0xbe28904e	-0.16461298
185	0x3e0a9be9	0.13536038
186	0xbe0832f4	-0.13300687
187	0x3ce9a58d	0.028521324
188	0xbe57c371	-0.21070649
189	0x3d95e016	0.073181316
190	0x3cefc9f5	0.029271105
191	0x3eab5931	0.33466485
192	0xbe2f0e6d	-0.17095347
193	0x3c9f373c	0.019435517
194	0xbf4a4772	-0.79015267
195	0x3e93c0d5	0.28858057
196	0xbd8dfab4	-0.069325835
197	0xbc4dbd0c	-0.012557279
198	0xbdcc1471	-0.099648364
199	0xbb0b91d9	-0.0021296649
200	0xbe338035	-0.17529376
201	0xbdfceec8	-0.123502314
202	0x3e6ae2d7	0.22938095
203	0xbde0c4c4	-0.1097503
204	0xbde09ed6	-0.109677956
205	0x3d841a68	0.06450349
206	0x3a9e24ff	0.0012065469
207	0x3e689919	0.22714652
208	0xbdda3d22	-0.106561914
209	0x3de66f4d	0.11251698
210	0x3dd14e52	0.102200165
211	0xbe07f29f	-0.13276146
212	0x3db8b5c4	0.09019044
213	0x3ea9264c	0.3303703
214	0x3c54328c	0.012951504
215	0x3d2bcc9a	0.04194317
216	0x3e686f37	0.22698675
217	0x3e1874af	0.14888261
218	0x3c923f51	0.017852457
219	0xbdb90093	-0.09033313
220	0xbe3e2c18	-0.18571508
221	0x3d4b0baa	0.04957167
222	0xbd5d0fbf	-0.053970095
223	0x3e01c757	0.12673698
224	0x3d580a4a	0.052744187
225	0xbd154400	-0.036441803
226	0xbc1bcb8d	-0.0095089795
227	0x3ce684f0	0.028139561
228	0x3e485d41	0.19566824
229	0xbee6b610	-0.45060778
230	0xbdbd0e41	-0.09231234
231	0xbe3be14b	-0.18347661
232	0xbd2f7347	-0.042834546
233	0xbf121814	-0.5706799
234	0xbd70b694	-0.05876787
235	0x3e35cb65	0.1775337
236	0x3dd23844	0.10264638
237	0xbf202d00	-0.62568665
238	0xbddd93b2	-0.10819186
239	0x3e4ced0b	0.200123
240	0xbd68b0e7	-0.056809332
241	0xbdc06516	-0.093942806
242	0x3dd45244	0.103672534
243	0x3d30c04a	0.04315213
244	0x3eebf070	0.46081877
245	0xbcb90284	-0.022584207
246	0x3dc3dbaa	0.09563382
247	0xbd1dca6a	-0.038523115
248	0xbeba0852	-0.36334473
249	0x3d5b4ee2	0.053542025
250	0x3de95f83	0.113951705
251	0xbdba82f4	-0.091070086
252	0x3e108b39	0.14115609
253	0x3e3a34bc	0.18184179
254	0xbddebda5	-0.108760156
255	0xbf28dcf0	-0.65962124

bias f4 [128]
0	0x3c461545	0.012090032
1	0x3e2d6ec6	0.16936788
2	0x3e000fd8	0.12506044
3	0xbd301048	-0.042984277
4	0xbd09be8b	-0.03362898
5	0x3dd791c1	0.10525847
6	0xbb2240ee	-0.002475794
7	0x3b526a15	0.0032106687
8	0x3c0ad6c2	0.008474054
9	0x3d4ff862	0.050773986
10	0x3d7113f8	0.058856934
11	0xbda54a21	-0.080707796
12	0xbd0184d3	-0.03162081
13	0xbc7a8fd0	-0.015293077
14	0xbd49d26e	-0.049272947
15	0x3de76154	0.11297861
16	0x3d468249	0.048464093
17	0xbc525ddf	-0.012839763
18	0xba1236f3	-0.0005577646
19	0x3c16dbac	0.009207647
20	0x3d81b891	0.063340314
21	0xbc547fe8	-0.012969948
22	0x3ce335bc	0.027735583
23	0x3d316c9e	0.043316476
24	0xbd66d80d	-0.056358386
25	0x3dce2195	0.10064999
26	0xbd675975	-0.056481797
27	0x3de8e786	0.113722846
28	0x3be29255	0.006914417
29	0x3de137d0	0.109969735
30	0xbe04a114	-0.12952071
31	0x3ddd9ee9	0.10821325
32	0x3a26b0fd	0.0006358771
33	0x3c577ae7	0.013151861
34	0xbd42edb9	-0.04758999
35	0xbd3a44a2	-0.04547561
36	0x3d1e06e9	0.03858081
37	0x3debf860	0.11521983
38	0x3d947019	0.072479434
39	0x3e153a38	0.1457299
40	0x3d366953	0.04453404
41	0xbde31e2d	-0.1108974
42	0xbc4c9610	-0.01248695
43	0x3d39efb0	0.0453946
44	0x3e0676e8	0.13131297
45	0x3d1621ca	0.036653318
46	0xbae61e4a	-0.0017556634
47	0xbbdc7557	-0.006727855
48	0xbc941b83	-0.018079525
49	0xbc935c6f	-0.017988412
50	0xbd2779f2	-0.04088778
51	0xbe376c8c	-0.17912501
52	0x3d492297	0.049105253
53	0x3dfb73a4	0.12277916
54	0x3c17363d	0.00922924
55	0x3dccabe0	0.0999372
56	0xbc294280	-0.010330796
57	0x3e1f23fb	0.15541069
58	0x3c6847f7	0.014177314
59	0x3bc8e013	0.0061302274
60	0x3e1df450	0.15425229
61	0x3ce59a2d	0.028027618
62	0x3d9d3005	0.076751746
63	0x3e091eae	0.1339061
64	0x3c942ca1	0.018087687
65	0xbd6b2348	-0.057406694
66	0x3c62b6a3	0.013837489
67	0xbd769cb2	-0.06020803
68	0x3c6abaae	0.0143267345
69	0x3da0c49b	0.078499995
70	0xbca1ffe5	-0.01977534
71	0x3e325008	0.17413342
72	0xbe2a1171	-0.16608216
73	0x3d3ba60a	0.045812644
74	0x3c19f9b8	0.0093979165
75	0xbe39f3d4	-0.1815942
76	0x3d3c6e23	0.046003472
77	0x3de486ee	0.11158548
78	0xbb9a07ba	-0.004700628
79	0x3d54537f	0.05183744
80	0x3cd79585	0.026316414
81	0x3d04d37d	0.032428253
82	0x3c4e8b08	0.01260639
83	0xbd0d0c46	-0.034435533
84	0x3e2fd97a	0.17172804
85	0xbda95385	-0.08267883
86	0x3dd64926	0.10463171
87	0x3d85e322	0.06537463
88	0x3d922d62	0.07137562
89	0xbdd8a34c	-0.105780214
90	0x3d8d3b8d	0.06896124
91	0x3de8a404	0.113594085
92	0x3d72d4ca	0.059284963
93	0x3d5df38d	0.054187346
94	0x3da9800a	0.08276375
95	0x3dd98c54	0.106224686
96	0x3d192a08	0.0373936
97	0xbdea4b42	-0.114401355
98	0x3dd8a99c	0.105792254
99	0xbc33cab2	-0.010973619
100	0x3c28d23f	0.010304033
101	0x3dd527ee	0.104080066
102	0x3daeb80a	0.085311964
103	0xbbcbb7a5	-0.0062169605
104	0x3dfd980e	0.12382518
105	0xbdb6c5a6	-0.08924417
106	0x3dbb4413	0.091438435
107	0x3db676be	0.08909367
108	0x3bf5a52e	0.0074964976
109	0x3dd60491	0.1045009
110	0x3d1dd864	0.038536444
111	0x3e230d5c	0.15923065
112	0xbd520395	-0.051272947
113	0xbc4676a6	-0.012113249
114	0xbd8d41aa	-0.0689729
115	0x3e039d59	0.12852992
116	0x3d33c0b8	0.043884963
117	0xbd6d082e	-0.05786913
118	0x3d2e3fb7	0.042541232
119	0x3d560055	0.05224641
120	0xbc1875f1	-0.009305463
121	0x3d2146fd	0.03937434
122	0x3e06d968	0.13168871
123	0x3c7bb3a9	0.015362659
124	0x3d7e4472	0.062076993
125	0xbd659545	-0.056050558
126	0x3e20669e	0.15664145
127	0xbd72fee5	-0.059325118

weight f4 [4, 128]
0	0xbf0193de	-0.5061625
1	0x3e66e682	0.22548869
2	0xbcca6185	-0.024704704
3	0x3ec06495	0.37576738
4	0xbd1392dd	-0.03602873
5	0xbe2a5f3f	-0.16637896
6	0xbd732c3a	-0.05936835
7	0x3db095b2	0.08622302
8	0xbd5d6ec4	-0.054060712
9	0x3e463646	0.19356641
10	0xbd623c9b	-0.05523358
11	0x3dc17fdd	0.09448216
12	0xbecabe2b	-0.39598212
13	0x3cfcac2b	0.030843815
14	0x3e2d3d82	0.16917995
15	0xbdf1e071	-0.11810387
16	0xbe4e5197	-0.20148312
17	0x3e2a69fd	0.16641994
18	0xbeff19a0	-0.49824238
19	0xbeeb7bcb	-0.45992884
20	0x3e588745	0.21145351
21	0xbe40c2fa	-0.18824378
22	0x3e573418	0.21015966
23	0xbd8a8528	-0.06763679
24	0x3e432bb7	0.19059645
25	0x3e3ab5fc	0.18233484
26	0xbe87fecc	-0.26561582
27	0xbef07097	-0.469609
28	0xbedc0b07	-0.42977163
29	0xbedaff28	-0.42772794
30	0xbbfe582e	-0.0077619767
31	0x3e6d92d2	0.23200539
32	0x3e503a8a	0.20334831
33	0x3e369ef3	0.17834072
34	0x3d1bef81	0.038070206
35	0xbd8d4869	-0.06898577
36	0xbe85c5a1	-0.2612734
37	0xbd150d31	-0.036389533
38	0x3e6ce1b8	0.2313298
39	0x3e37fab0	0.17966723
40	0x3da16bb1	0.07881869
41	0x3e51ae8b	0.20476739
42	0x3d14e5e8	0.03635207
43	0xbed2507d	-0.41077033
44	0x3c8e324e	0.017357972
45	0x3d3819db	0.044946533
46	0x3db0ae39	0.0862698
47	0x3ccbca68	0.024876788
48	0x3dcf758a	0.10129841
49	0xbe54cca7	-0.20781194
50	0xbcb15a2b	-0.02164944
51	0x3d86653f	0.0656228
52	0xbd9f9018	-0.077911556
53	0x3dd0be64	0.10192564
54	0xbeb6148c	-0.3556255
55	0x3e8ea199	0.27857664
56	0xbd5ebe4e	-0.054380707
57	0xbcc6c3cd	-0.024263287
58	0x3e4b9975	0.19882758
59	0xbed1b2de	-0.40956777
60	0xbe627ab1	-0.22117116
61	0x3eb16dad	0.34653988
62	0xbdf31e7a	-0.11871047
63	0x3df6aa48	0.12044197
64	0x3d14f3cd	0.03636532
65	0x3d784fb6	0.060622893
66	0xbdd5e136	-0.10443346
67	0x3e45cebd	0.19317146
68	0x3e06e899	0.13174666
69	0xbd325deb	-0.0435466
70	0xbe4512c0	-0.19245434
71	0x3c69275f	0.014230578
72	0xbd8047d9	-0.06263704
73	0x3e96726f	0.2938418
74	0xbd60c78d	-0.054877806
75	0x3d2096bb	0.039206248
76	0x3df9727a	0.12180038
77	0x3dc6c949	0.09706361
78	0x3e98badd	0.29830065
79	0xbd8e4402	-0.06946565
80	0xbd90808f	-0.070557706
81	0x3e3b2a13	0.18277769
82	0x3e30ecd4	0.17277843
83	0x3d8dd1bf	0.069247715
84	0x3e0cf8c4	0.13766772
85	0xbe1267d3	-0.14297418
86	0xbdd5d3d0	-0.10440791
87	0xbc816944	-0.015797265
88	0xbd809b56	-0.06279628
89	0xbe50b8e2	-0.20383027
90	0xbed47931	-0.41498712
91	0xbe30e69f	-0.17275475
92	0xbd6512e7	-0.05592623
93	0xbc574f64	-0.013141487
94	0xbee30b60	-0.44344616
95	0xbde3193c	-0.110887975
96	0x3e665b94	0.22495872
97	0x3d9f2280	0.07770252
98	0xbe03d4ee	-0.12874195
99	0x3dfc644d	0.12323818
100	0x3d1ce463	0.038303744
101	0xbe388c10	-0.1802218
102	0xbc60bb69	-0.013716557
103	0x3d8481d2	0.06470074
104	0xbdf29358	-0.1184451
105	0xbcc5ef14	-0.024161853
106	0x3e096222	0.13416341
107	0xbbb9e175	-0.0056726285
108	0xbeee9063	-0.46594533
109	0xbb8595cc	-0.004076695
110	0x3e5c9a61	0.21543266
111	0xbc779bdc	-0.015112843
112	0xbe534e12	-0.2063525
113	0xbd328918	-0.043587774
114	0x3c823e31	0.015898796
115	0xbd8cd7ca	-0.06877096
116	0xbd3d3fee	-0.046203546
117	0xbe3bf53e	-0.18355271
118	0x3f11946b	0.5686709
119	0xbdaf320f	-0.0855447
120	0xbd881f9c	-0.06646654
121	0x3e01a15e	0.12659213
122	0x3e98c7c5	0.29839912
123	0xbd460ae9	-0.04835025
124	0x3e0058fc	0.12533945
125	0x3ead7bcb	0.3388351
126	0xbd3ef957	-0.046624508
127	0x3cec5323	0.028848236
128	0xbf3964d3	-0.7241947
129	0x3ece4acb	0.40291438
130	0x3eacbf4d	0.337397
131	0x3f138eca	0.57639754
132	0xbe110f91	-0.14166094
133	0x3e774c0b	0.24150102
134	0xbe12b74a	-0.14327732
135	0xbeb1e469	-0.34744576
136	0x3ecc00b9	0.398443
137	0xbe584012	-0.21118191
138	0xbd4322c8	-0.04764059
139	0x3dae04a8	0.08496982
140	0x3e9d1091	0.30676702
141	0x3e77e9f5	0.24210341
142	0x3ee2461f	0.44194123
143	0xbe10fdea	-0.1415936
144	0x3ea288ef	0.31745097
145	0xbecf020a	-0.40431243
146	0x3e225c2c	0.15855473
147	0xbeea1370	-0.45717955
148	0x3e3fa657	0.18715797
149	0xbebb4d35	-0.36582342
150	0xbee2de1b	-0.44310078
151	0x3eeb6a18	0.4597938
152	0xbd6b789d	-0.057488073
153	0x3e6f131e	0.23347136
154	0xbef38096	-0.4755904
155	0x3d11ef58	0.035628647
156	0xbed14c1c	-0.4087838
157	0xbf08186f	-0.5316228
158	0xbeb08332	-0.34475094
159	0x3f1d1c50	0.61371326
160	0x3ee1945a	0.44058496
161	0x3ea41a3e	0.3205127
162	0x3ea94ff8	0.33068824
163	0xbe293a9e	-0.16526267
164	0xbf1be23b	-0.60892075
165	0xbec922cc	-0.3928436
166	0x3eebcd5b	0.4605511
167	0xbe466fcd	-0.19378586
168	0x3deb89a0	0.11500859
169	0xbdb957f8	-0.09049982
170	0xbe11e179	-0.14246167
171	0xbf155642	-0.58334744
172	0xbcfff249	-0.03124346
173	0xbb6004b7	-0.0034182498
174	0xbe36d9b1	-0.1785648
175	0x3e730823	0.23733573
176	0x3e861132	0.26184994
177	0x3bd44a57	0.0064785886
178	0xbf0859f7	-0.53262275
179	0xbe5fa34e	-0.2183964
180	0x3ed8f076	0.42370957
181	0xbdd186aa	-0.10230763
182	0xbf26e088	-0.6518636
183	0x3ec4faa0	0.38472462
184	0xbd8cf6ec	-0.06883034
185	0xbe87023c	-0.26368892
186	0x3e69702d	0.22796698
187	0x3e750ce5	0.239307
188	0xbf38de29	-0.7221399
189	0x3f39413b	0.7236516
190	0x3c966306	0.018357765
191	0x3ea9c9ef	0.33161876
192	0xbd874ff5	-0.066070475
193	0xbccad488	-0.024759546
194	0x3eb68df7	0.35655186
195	0xbec1a16f	-0.37818477
196	0x3eadef96	0.33971852
197	0xbda663f2	-0.08124532
198	0xbea1c360	-0.31594372
199	0x3e91fda5	0.28513828
200	0xbf0ac016	-0.5419935
201	0x3e9fcbc9	0.31210163
202	0xbea27c77	-0.31735584
203	0xbe055bfc	-0.1302337
204	0x3db82460	0.08991313
205	0x3c1b6405	0.009484296
206	0x3cb06c3d	0.021535987
207	0xbde4752b	-0.111551605
208	0xbd1d287c	-0.038368687
209	0x3df6cbe4	0.12050608
210	0xbede63ca	-0.43435508
211	0x3ea0f8e0	0.31439877
212	0x3eaddebd	0.33958998
213	0xbeb91eac	-0.36156213
214	0xbe011e0c	-0.12609118
215	0x3e6838ef	0.22677968
216	0xbe058489	-0.1303884
217	0xbef22652	-0.4729486
218	0xbebef6a3	-0.37297544
219	0xbef943af	-0.4868445
220	0x3da795b9	0.08182854
221	0xbd0ec85c	-0.034859046
222	0xbd1aaee3	-0.03776444
223	0xbdb15bba	-0.086600736
224	0xbe9a842e	-0.3017897
225	0x3d128552	0.035771675
226	0x3db64b64	0.08901098
227	0x3e7da48d	0.24769802
228	0xbe0c82b3	-0.13721733
229	0xbf11fe67	-0.5702881
230	0xbdc0018d	-0.09375296
231	0xbde6f575	-0.11277286
232	0x3e00bb7f	0.12571524
233	0x3d62bd85	0.05535652
234	0xbebf232c	-0.37331522
235	0x3e686711	0.22695567
236	0x3f39b0e9	0.7253557
237	0xbce3dd41	-0.027815463
238	0x3e9013bd	0.2814006
239	0x3dbd4a59	0.09242696
240	0x3e60ce51	0.21953703
241	0x3e82afb2	0.2552467
242	0xbd5947c1	-0.053046945
243	0xbd710521	-0.058842782
244	0x3e9fe8c4	0.31232274
245	0xbeb46c77	-0.35239002
246	0x3ea164a3	0.31522092
247	0xbd8901fd	-0.06689832
248	0xbd0621a3	-0.032746922
249	0xbd994b21	-0.07485033
250	0xbd81f8e8	-0.06346303
251	0x3ee34f0c	0.44396245
252	0x3eaa56d4	0.3326937
253	0xbc8fb99c	-0.01754456
254	0xbca1d548	-0.01975502
255	0xbe4679af	-0.19382356

bias f4 [4]
0	0xbcc5ffe7	-0.024169875
1	0x3d8d93a9	0.069129296
2	0x3db7e37b	0.08978935
3	0xbb4818aa	-0.003053228
