problem1/models/underway/success_whole_model_1766679874.pth (torch, 146613 bytes, 9 tensors)

weight f4 [128, 8]
00000000: fada 26bd d5c4 febe 0db7 ce3e 6210 b6be
00000010: c934 92be fd79 cbbe 2a00 283e 4020 9b3d
00000020: 0819 08bd 593a c53e 5c07 b13e 07a9 b43e
00000030: 4ef6 1cbe 5850 1fbe 95ed 8f3d f766 b0be
00000040: 69f0 2a3d 4b2c a53e f0f3 9e3c 3098 223f
00000050: a1b7 413f b7fd e4bd 65d5 2cbd 5ea6 a8bd
00000060: 8109 5dbf f7b5 c9be c823 b8be cc1d 7cbe
00000070: 704e d23e de35 1a3e 05f7 813c 69d8 9cbe
00000080: 3185 35be f0ec f9bd 80ff a63d 521e c6be
00000090: 9777 83be df5d 66be f07f b53c ea09 74bd
000000a0: 6825 37be 9b8f cb3e e724 dcbe 3991 dcbe
000000b0: 280c 873e 9d47 efbe 6079 073c dd28 b6bc
000000c0: 3fa1 873d 9c53 8c3e 725e b83e 3cec 3bbe
000000d0: 176b 89be ae15 d03e 5162 babd 1ba2 bebe
000000e0: 7e8b 2bbe e142 06bf 9a32 c8be d741 0fbf
000000f0: 0fb4 313d c890 58bc 89bc c83d f00e 5fbe
00000100: ffac dfbd 6af1 cbbe ab60 e03e 0f78 2abf
00000110: ec42 16be cdeb 833e fe6c a6be 690b b3bd
00000120: 9868 44bd d83e ef3a 703a 1c3f 22fc db3e
00000130: 413f 563f d133 e6bd 4ac7 e4bd 9b63 33be
00000140: fc44 d4bd ee20 94be 913b 0f3e a4a1 d83f
00000150: acf7 413e 0d70 663d da51 b43e 46cd cb3e
00000160: e6c0 133e d80a a0bd 36a7 2a3d ceed dbbe
00000170: 14e2 053d cae6 afbe 1051 fc3e 54f0 3a3e
00000180: ff12 a73c 24fa 963e 3147 aa3e 17dc 3cbf
00000190: e65f af3d 88cc 01bd 46dc b7be 9cab 19bf
000001a0: bd9a 4e3e 8ed7 ed3d 45de fa3e cf47 18be
000001b0: 02e2 223f 3dfe 5b3e 1ffe a0be ca60 6d3c
000001c0: c7ba c9bd e4d7 4bbd daec 4d3d 4649 17be
000001d0: be33 ddbf 4b34 373d 0a3c 883d f46e d93d
000001e0: 4348 4c3e fefd 693e 085a 04be e7e1 833e
000001f0: 3a2e da3d 3847 ad3e bbaf b73e 6741 b33d
00000200: 7af2 c63d b32e 0f3e 4223 c1bd 8324 ffbe
00000210: f82a a4be a50b 41bd f25f 9b3e 3cdf 9abe
00000220: 2956 1fbe 7165 21be 5259 4fbf db18 0cbf
00000230: 716e a5bd b7dc 193e fdaf d23e 80ba 153e
00000240: e169 03bf 77f8 7dbe c9dc 0abf d2c3 f33a
00000250: bcb3 eb3e 4488 773e b028 8dbe ec25 09bd
00000260: 9641 e13e 7d68 55bc 98ba d73e 7471 323f
00000270: 764b 51be 1060 13be 7db3 47be be60 b5be
00000280: 8afb b93d aeec 813e 16b7 633e 6b1c 3ebc
00000290: 21f5 debe 093d 90be 250b 8ebe cf07 c83e
000002a0: 9ef6 5b3d d164 ea3e 6b30 1ebc 2429 153f
000002b0: ca63 a03e dfe0 e9be 79fb 553b 15c5 88be
000002c0: e1d5 27be fa69 633e f6d1 a23e 3317 5e3f
000002d0: 449e dfbe f4d7 4a3e c74f 033c 8a1e 183e
000002e0: 1875 56bd 89c3 8dbd 8dc3 84bd 2992 1bbd
000002f0: c051 35bf bca2 24bf b7fa c9be 810e a43e
00000300: f17b 393e a218 20be e36b 613d 74ff d1be
00000310: f52b 463d baf4 88be d29e 973e fa0a 803d
00000320: ac71 c2bd 821a 70be 0641 4a3d f1d3 28bf
00000330: c942 6b3d 4b5e 86be 541e 90be 2378 933d
00000340: 9b84 41bf 6010 3c3e 5d27 dfbe 9500 80be
00000350: 0719 afbd 9834 7fbe eafb 383d 2b9b d8bc
00000360: 83e2 043e bb06 a53e f677 693e 6a62 ab3c
00000370: 0ebc 3ebd 657c 36bf 0229 15bf 2e82 88be
00000380: d456 203e 339a ddbc ed8c 09bd 8090 abbe
00000390: b9b8 a63e c517 bbbe d994 963e f878 16be
000003a0: ebfb b4be bedb 073e 1583 4ebe 91e0 643e
000003b0: 8297 e5bc d8b0 08bf 7b7e b8be dbc5 a5b8
000003c0: 0da7 893d 5a2c 81bd 54be 113f 5ff1 55bf
000003d0: 02c3 f13d 8766 9a3e 9800 283c bea0 b1bd
000003e0: 641c eabb 5f94 91be c816 e7bd 9660 4cbd
000003f0: 2095 4bbe 4c7c 1e3f 4518 7d3d 4a40 9d3e
-0.040736176 -0.49759546 0.40374032 -0.35559374 -0.28555897 -0.39741507 0.16406313 0.075745106
-0.033226997 0.38521078 0.34575927 0.35285208 -0.15328333 -0.15557992 0.07027737 -0.34453556
0.04173318 0.32260355 0.019403428 0.6351347 0.7567082 -0.11181205 -0.042195696 -0.08234857
-0.86342627 -0.3939664 -0.359648 -0.24620742 0.41075468 0.15059611 0.015864858 -0.30633858
-0.1772659 -0.12203395 0.081542015 -0.38695008 -0.25677177 -0.22496746 0.022155732 -0.059579767
-0.17885363 0.39758 -0.42996904 -0.43079546 0.26376462 -0.46734324 0.008268684 -0.022236282
0.06622552 0.2740754 0.36009556 -0.18351835 -0.26839516 0.4064154 -0.091007836 -0.37233052
-0.16752431 -0.524458 -0.39101106 -0.5595984 0.043384608 -0.013218112 0.09801585 -0.21783042
-0.10921668 -0.39832622 0.43823752 -0.66589445 -0.14673966 0.2576584 -0.3250503 -0.08742411
-0.04795131 0.0018252982 0.6102667 0.429658 0.8369027 -0.11240352 -0.11170824 -0.17518465
-0.1036472 -0.28931373 0.13987567 1.6924329 0.18942136 0.056259204 0.35218698 0.3980505
0.14429054 -0.07814568 0.04166337 -0.42954868 0.032686308 -0.34355766 0.49280596 0.1825574
0.0203948 0.29487717 0.3325744 -0.7377333 0.08563213 -0.031689197 -0.35910243 -0.6002748
0.20176215 0.116133794 0.48997703 -0.14871143 0.6362611 0.21483703 -0.3144388 0.014488408
-0.09850078 -0.049766436 0.050274707 -0.14774045 -1.7281415 0.044727605 0.066520765 0.10616866
0.1994944 0.22850797 -0.12924969 0.25758287 0.10653348 0.33843398 0.3587626 0.08752709
0.097142175 0.13982658 -0.09430553 -0.49832544 -0.32064033 -0.047130246 0.30346638 -0.3024844
-0.15560211 -0.15761353 -0.80995667 -0.54725426 -0.08077706 0.15025602 0.41149893 0.14621925
-0.51333433 -0.24801813 -0.5424314 0.0018597788 0.46035564 0.24173075 -0.27570105 -0.03348343
0.4399535 -0.0130254 0.42134547 0.69704366 -0.20438942 -0.14392114 -0.19502063 -0.3542537
0.090811804 0.25375885 0.2223781 -0.011603455 -0.43546394 -0.28171566 -0.27742878 0.39068457
0.05370199 0.45780042 -0.009655098 0.582659 0.31326133 -0.45679376 0.003265111 -0.26712862
-0.16390182 0.22208396 0.31800812 0.8675415 -0.43675435 0.19808942 0.008014626 0.148554
-0.052357763 -0.06922061 -0.06482611 -0.037981186 -0.70827866 -0.6431081 -0.39449093 0.32042316
0.18113686 -0.15634397 0.05503453 -0.41015208 0.048381764 -0.26749212 0.29613358 0.062520936
-0.094943374 -0.23447612 0.049378417 -0.65948397 0.05743674 -0.26243815 -0.2814814 0.07200649
-0.75592965 0.18365622 -0.4358472 -0.25000444 -0.085496955 -0.24922407 0.04516212 -0.026441177
0.12977032 0.32231697 0.22799668 0.02092095 -0.04656606 -0.7128356 -0.582657 -0.2666182
0.15658122 -0.027051067 -0.033581663 -0.33508682 0.32562807 -0.36541572 0.29410437 -0.14694583
-0.35348448 0.13267419 -0.20167191 0.2235129 -0.028026346 -0.5339484 -0.36033997 -7.9046666e-05
0.067213155 -0.063072875 0.5693104 -0.8357143 0.11804773 0.30156347 0.010254048 -0.08673237
-0.0071444977 -0.2843351 -0.11283642 -0.0498968 -0.19881105 0.6190841 0.061790723 0.3071311

bias f4 [128]
00000000: 2382 ba3e 24f5 2e3e f097 c03e fd1c 54bd
00000010: c7f9 963e f32b 903e 26cb 983e c611 30be
00000020: 89ea ce3e c7de d53b 58dc 81be fff3 84be
00000030: 7021 95bc a70e 8d3e 65b4 303d 21bf e03d
00000040: ee17 043f 31c3 953d 41f1 943e bd9f 903e
00000050: fb37 ccbd f8d0 d73d 57c6 97be 518f c13c
00000060: 1a05 6d3e cd33 64be 3620 b9bc 30c7 ee3d
00000070: 17a9 813d 13c6 33bd 6a41 04be 8dc5 813e
00000080: fb3c 64be 935f 8a3e 2ace b2be 397e bd3e
00000090: a180 8a3e 21ab 113e e51c 64be 7e94 273e
000000a0: a0ac 743e 81c7 df3e 38ca 603e 49dd 473e
000000b0: 0eba d73e cf86 543d 17f4 053b 3479 a43e
000000c0: e1d3 0abd d5fe 09be 1251 983e e827 6ebd
000000d0: 9b8a 423d 6b1e ac3e bd52 8d3e 3665 173e
000000e0: 1cc5 9dbe 3816 8a3c a768 ab3d 478c ab3e
000000f0: ec56 be3d 88e1 923e 584a 453c 06ed 463e
00000100: 8293 2ebe 4c4a ac3e 64f0 b53e 00b7 07be
00000110: 4679 b7be 697e f73e bdaa 2a3e f63f 8f3e
00000120: e2b5 ea3e 7738 463e e579 b33e 52f3 903e
00000130: d302 8b3d 63c8 a13c 6346 c73e bdcb 263d
00000140: c8c9 853e e1a6 433e 342f cb3e a4cf 7c3e
00000150: 021a 513e 374b aa3e b107 fc3c fab8 ccb9
00000160: 4ed9 8fbd ae7e 223e 35dd f23d 2e3e 063f
00000170: 205d 43bd 17d4 ca3e de91 933e a260 f13e
00000180: 9628 c5be 6699 f73e d528 7ebe 2192 b63e
00000190: 5b8d b43e 48d7 84bc 2d5b 943d 4fdd 87be
000001a0: 80c9 f5bb 6ea9 f23b 7999 f03e 1a75 14be
000001b0: a618 aebe 9cf2 3f3e 38f5 253e 9493 663d
000001c0: 2205 5c3e cf42 dbbd 707c 02bf 0d15 75bd
000001d0: 7a01 443e 5485 983e cd61 713d 6d03 dabd
000001e0: bbc1 833e db96 fc3d a95c e73e 3c1d bdbe
000001f0: 494c af3e 3c83 2c3d 5270 cd3e 212a a93e
0.3642741 0.17085701 0.3761592 -0.051785458 0.2948744 0.2815853 0.2984249 -0.1719428
0.4041331 0.0065268013 -0.2536342 -0.25967404 -0.01820442 0.2755024 0.043140788 0.10973955
0.51599014 0.073126204 0.29090312 0.2824687 -0.09971615 0.105379045 -0.2964351 0.023627909
0.23146477 -0.22285385 -0.022598367 0.11659086 0.063310795 -0.04389007 -0.12915578 0.25346032
-0.22288887 0.27026042 -0.34922916 0.37010363 0.2705126 0.14225437 -0.22276647 0.16365239
0.23893976 0.43706897 0.2195214 0.19518007 0.42134136 0.051886376 0.0020439678 0.3212372
-0.03389347 -0.13476117 0.29749352 -0.058143526 0.047495466 0.33616957 0.27602187 0.14784703
-0.30814445 0.016856298 0.0836957 0.3350546 0.09293923 0.28687692 0.012041651 0.19426355
-0.17048457 0.33650434 0.35534966 -0.13253403 -0.35834712 0.4833863 0.16666694 0.27978486
0.4584189 0.19357477 0.35053936 0.2831064 0.06787648 0.019748872 0.38920888 0.040721644
0.2613051 0.19106628 0.3968445 0.24688584 0.20420077 0.3326051 0.030765386 -0.0003904773
-0.070238695 0.15868637 0.11858598 0.5243863 -0.047696233 0.39614937 0.28822225 0.47144037
-0.38507527 0.4835922 -0.24820264 0.35658363 0.35264096 -0.016215935 0.07243953 -0.26536033
-0.0075008273 0.0074054515 0.4699209 -0.14497796 -0.3400318 0.18744892 0.16206825 0.056293085
0.21486333 -0.10706102 -0.50971127 -0.05983453 0.19141188 0.2978922 0.05893116 -0.10645185
0.25733742 0.12333461 0.45187882 -0.36936367 0.34237888 0.042117342 0.40124756 0.33039954

weight f4 [128, 128]
00000000: f098 82be 0014 253e 473c 323d 17b3 38be
00000010: dcc8 f1be c84e 323e 56d1 923e de14 8cbe
00000020: f289 153d dc15 203f 14c4 773e cf12 eebe
00000030: 4063 903e b48e 0c3e a833 133f 9cc0 a83d
00000040: 419b 1f3c 52e8 d73c 18dc 94be 7616 033e
00000050: cfad 3c3c a43a b53d 1374 163f d2b3 b9be
00000060: 1044 d3be d61f e2be b6f4 1ebd 6e3e 9ebd
00000070: 95d8 bebe eeb8 ca3d 3503 ddbe af9f 033a
00000080: 46e5 80be edfc 003e 114a fe3a a2e6 69be
00000090: ea79 493e a112 bcbe 257b 66be 27e6 1c3c
000000a0: c70d 70bf 8c8b bfbd 03f6 50bf cd44 12be
000000b0: b0fa 96be 7201 44bd 4e5a 243f e7c2 363d
000000c0: 36d9 aebd 803f 81be 4f1f 2dbe 6cd7 d2be
000000d0: 352b a3be b982 f2bd 5f58 b03d a201 8d3d
000000e0: ffaf 6ebd f9ed 19bf 2074 903c 2582 06be
000000f0: d6bf 26bf 9887 edbe 46f9 063f 92c8 ec3c
00000100: 3207 c4be 2cce e03d 4e09 8cbe 8bd9 1abe
00000110: f69f 93be adf9 6c3e 9c0a 873f 8483 903e
00000120: b797 193d 92b2 ad3e 42de f43d 88d0 593e
00000130: 7a8c e23d 5b0b 96be ae36 323c 54e0 53bd
00000140: 901e 353e 64e4 e63d fb62 fe3d 462c 3ebe
00000150: bd65 4ebf c955 7cbe 07ef 50be 4aec 043e
00000160: 1de9 a73e 2020 5abe c9d2 bcbe efe2 5b3e
00000170: ab9d 573e c960 de3d 9c7d 0bbe de97 7c3e
00000180: fbc1 bfbe dc64 3e3d 45d7 073e 5c7f a33d
00000190: 31ec 423d 8eb2 3b3e fcff 6ebe c219 08ba
000001a0: cc30 c03e b02b 0a3f c5a1 703d ac50 0cbc
000001b0: 5a30 efbe eb15 483e d03d 1abc 073b c03e
000001c0: 343b a3be f86f 353e 34cd 3c3e 502e 283e
000001d0: 61c6 7dbe fe55 0bbe dad9 603e bc07 88be
000001e0: c1c6 843e 79a4 753e 4e19 263e 1459 00bf
000001f0: a7b8 693d 5d51 103f 0d02 6cbe 9699 4bbd
00000200: 6ed9 a43d a2d2 953d ac29 04be 2c67 98bd
00000210: 1f05 b03d 465f 61bd 8315 1cbe a685 5d3e
00000220: aaf5 213d 1e21 cebd 6785 80bd 14e7 313e
00000230: 04cb b7bd bb5c d43d 56fa 84be 749a 973d
00000240: 8acc 6abe cf36 b8bd 5def a2bc 53b4 eebd
00000250: 4cd5 b23d c669 763e ffcb 29bf 3f1f 073e
00000260: 8718 3abd 4431 4d3e 2b25 6b3e 946b 383e
00000270: f086 8bbd ba14 9e3d 98b3 8c3e 0aa8 3cbc
00000280: a241 d73d e767 8a3e add0 e13e bc84 18be
00000290: 35b6 57be f6da a23e ad0e b73d 8543 1abb
000002a0: 9efc c13c e84d 4cbd 1c19 64b9 ddba 02bf
000002b0: 969e 5c3d e01b d1bc a9eb 0cbf e773 d8bd
000002c0: 3ba1 973d a563 423e 3764 01be 6063 733d
000002d0: 6b26 a03e 7144 ee3d 4c22 36bb ff92 6dbd
000002e0: 3575 8e3b 439f b63d a335 4ebe 04dc 07bd
000002f0: 07bb ea3c e160 50bb 9786 55bf 1155 ed3d
00000300: f6ba aa3e 4723 4cbe 834b 39be 2b8f a03d
00000310: 5f70 873e 30d8 10bd 7b14 b9be 49f2 18be
00000320: 8f6f 21be 253b c0bd 2c8c ab3c 4204 c53d
00000330: 7a61 d9bd 14ca a23d c9cc 8ebd ed0f 10be
00000340: af99 22be 11ff 1abc d789 2dbb 3bab f2bd
00000350: 13de 253e 1f85 00bd a127 283e 67f0 31be
00000360: ef9e b2bd 4838 b73d d8ce 693e f678 5b3d
00000370: e15b d73c 3867 73bd 93d9 52be e5b3 84be
00000380: 55fc 203e cbd9 f0bd f806 b23e 39de e7bd
00000390: 55fd 38be b856 de3c 8ace 13be 0092 173e
000003a0: f6da 073d bc7b e0bd cf8a 35be d292 34be
000003b0: 0667 4c3e 46e1 843e 5c0b 94bd 343c 59bd
000003c0: f9e3 933d 60a9 30bd eb15 0c3d e435 683c
000003d0: f7c1 0b3e 6d17 443e f4b9 e43d e296 0d3e
000003e0: c945 04bf 89fb e4bd 520f 1fbc c039 8e3e
000003f0: 26f3 d8bd 86c1 02bf 6bc8 cabd 422a 77be
-0.25507307 0.1612091 0.043514516 -0.18037067 -0.47223556 0.17412865 0.28675336 -0.2735967
0.036508508 0.62533355 0.24195892 -0.46498725 0.28200722 0.13726312 0.57500696 0.08239862
0.009741605 0.026355896 -0.29074168 0.12801537 0.011516049 0.088490754 0.58770865 -0.36270005
-0.41262865 -0.44164914 -0.038807593 -0.07726751 -0.37274614 0.09898554 -0.4316651 0.0005021048
-0.25174922 0.12596484 0.0019400736 -0.22841886 0.19675413 -0.36732963 -0.22507913 0.009576357
-0.9377102 -0.09352788 -0.81625384 -0.14284058 -0.29488134 -0.04785294 0.64200294 0.044619467
-0.085375234 -0.2524376 -0.16906475 -0.4117998 -0.31868902 -0.118413396 0.086106054 0.06885077
-0.05827331 -0.6012874 0.017633498 -0.13135584 -0.6513647 -0.46392512 0.5272411 0.028904233
-0.3828674 0.10976824 -0.2735085 -0.15122049 -0.28832978 0.23142119 1.0550113 0.28225338
0.037498202 0.339253 0.11956455 0.21270955 0.1106195 -0.2930554 0.0108772945 -0.051727608
0.1768744 0.11274031 0.12421223 -0.18571576 -0.8062399 -0.246421 -0.20403682 0.12980762
0.3279504 -0.21301317 -0.36879566 0.21473287 0.2105624 0.10858304 -0.13622135 0.24667308
-0.37452683 0.046482906 0.13265713 0.07983276 0.04758853 0.18329832 -0.23339838 -0.00051918265
0.3753723 0.5397291 0.058748025 -0.008564156 -0.46716577 0.19539611 -0.009414151 0.37545034
-0.31881106 0.17718494 0.18437654 0.16423917 -0.24782707 -0.13607022 0.21958104 -0.265684
0.25932887 0.23988523 0.1622059 -0.5013592 0.057060864 0.5637415 -0.23047657 -0.049707018
0.08049284 0.07315566 -0.12906522 -0.074415535 0.08594727 -0.0550225 -0.15242581 0.21633014
0.039540924 -0.1006491 -0.062754445 0.17373306 -0.08974269 0.103692494 -0.2597224 0.074025065
-0.22929588 -0.08994829 -0.019889528 -0.11655488 0.087320894 0.24063787 -0.663269 0.13195513
-0.045433547 0.20038325 0.22963397 0.18009788 -0.06812847 0.07718797 0.2748077 -0.011514673
0.10510565 0.27032396 0.4410452 -0.14894384 -0.210656 0.3180768 0.08938346 -0.002353878
0.023680028 -0.049878985 -0.00021753128 -0.5106638 0.053862177 -0.025525987 -0.5504709 -0.105689816
0.07403799 0.18983324 -0.12635885 0.059420943 0.3127931 0.11634148 -0.0027791439 -0.058001515
0.0043474683 0.089170955 -0.20137648 -0.033168808 0.028653635 -0.0031796026 -0.8340849 0.11588491
0.33345765 -0.19935332 -0.18095212 0.07839807 0.2645292 -0.035362422 -0.36148438 -0.14936174
-0.15765212 -0.09386281 0.020940863 0.09619953 -0.10614295 0.079486996 -0.069726534 -0.14068575
-0.15878938 -0.009460227 -0.0026479864 -0.11849066 0.16197996 -0.031376954 0.16421367 -0.17376862
-0.087217204 0.08946282 0.22832811 0.053582154 0.026288928 -0.05942461 -0.2059081 -0.259185
0.15721257 -0.11760291 0.34770942 -0.113216825 -0.18065389 0.02714096 -0.14434257 0.14801788
0.0331678 -0.109611005 -0.17728733 -0.17634133 0.19961175 0.2595312 -0.07228729 -0.05303593
0.07221217 -0.04313028 0.03420059 0.014173005 0.1364821 0.19149561 0.1116828 0.13827088
-0.51668984 -0.11180789 -0.0097082425 0.27778435 -0.10593252 -0.51076543 -0.09901508 -0.24137214

bias f4 [128]
00000000: 3693 ecbb 5162 29be 6a57 743c 7190 04be
00000010: 0391 aabd 53bb edbb 7cbc 32bb bdff 4c3d
00000020: 3887 093e ef4c 303e 9019 26bd 7892 96bd
00000030: 31a5 4cbd 8a88 0b3e 7841 683e a2b3 c63d
00000040: 0966 363e e8af c7bc 5075 833d 43dc 9fbd
00000050: 062e b63d b952 febc 7d18 11bc 5599 24bc
00000060: 7bbe 90bd e310 c8bd a0cd 193e dbdc 1d3e
00000070: e244 abbc 5e48 d13d 9e14 643d 60fd 9a3d
00000080: d627 023e 6062 203d 63df 113d 70ab 193b
00000090: 39f3 633e 457a e03d 57c0 ce3c 2d50 acbd
000000a0: 8126 8d3d d3ad 5a3d 9e8c f7bd 54d1 a33d
000000b0: f135 743e f3d6 bfbd b178 2dbe 89e2 cfbc
000000c0: 49ec 613e 9d16 08bb 63e2 893c d628 183e
000000d0: dd20 883e f3ca f83d b1f2 48bd 39e3 35bd
000000e0: 3ca2 833e 60b8 833e 54bb ddbd b42c c53d
000000f0: f6c9 2e3e f711 b1bd 59ff 5e3e 8453 c8bc
00000100: 5bfe 683e 3f5b ba3d 0aaa 2fbe f7df 4b3d
00000110: 250f 3f3c 4b53 c8bd ac2f 24bc 98d2 2d3e
00000120: 45eb a8bd 6806 b2bd 2546 e8bd 8101 7c3e
00000130: 2331 24bc b68c b0bd fa0e 14bd de28 603e
00000140: 1c0c 8fbc d5b6 8e3d 7fa7 4e3d e917 65bd
00000150: 32fd 04be 728b 3ebd 1da1 1c3e 81a4 233e
00000160: ed73 f1bc 7026 2dbc 4527 c2bc d521 153e
00000170: 52b5 15bd 8910 01be 60aa b83c 8121 96bc
00000180: 7c6b cbbc 330f f93d f0d6 abbc 93ae ed3c
00000190: 0e54 423d b534 8abc 3472 6f3e d352 c1bc
000001a0: a871 cebd a7ed 7ebe 2aaa aebd 0184 823e
000001b0: b9cb a4bd 88c6 4cbd db87 623e 65b4 5bbd
000001c0: a2e9 e4bb 0d5e 173d 144d 143e 1944 dcbb
000001d0: 82be bbbd 2d16 4bbd 3aee 97bb 1a05 83bb
000001e0: 3150 943d a05d ff3d 8a14 963b aaa9 b43d
000001f0: 40d6 4a3e 6825 013d a683 92be 7a5d 9fbd
-0.0072196973 -0.16541411 0.014913419 -0.12945725 -0.0832844 -0.007254997 -0.002727299 0.05004858
0.13430488 0.17216848 -0.040551722 -0.073521554 -0.049962226 0.13626304 0.22681224 0.09702231
0.17812361 -0.02437587 0.0641886 -0.078056835 0.08895497 -0.031045305 -0.008855936 -0.010046323
-0.07067581 -0.09768846 0.15019846 0.15416281 -0.02090687 0.10218881 0.055683725 0.07567859
0.12710509 0.039156318 0.03561343 0.0023448132 0.22260751 0.10960821 0.0252382 -0.0841373
0.0689211 0.053388428 -0.120873675 0.079989105 0.23848702 -0.0936717 -0.16940571 -0.025376575
0.22062792 -0.0020765432 0.016831582 0.14859328 0.26587573 0.121480845 -0.049059574 -0.04440615
0.25709713 0.25726604 -0.10826746 0.09627667 0.1706923 -0.08646005 0.21777095 -0.024453886
0.22753279 0.09099435 -0.17154709 0.049774136 0.011661326 -0.09781512 -0.0100211315 0.16974866
-0.08247999 -0.08692628 -0.11341504 0.24609949 -0.010021481 -0.086205885 -0.036147095 0.2189059
-0.017461829 0.06968466 0.050452705 -0.055931006 -0.12987211 -0.046519704 0.15295835 0.15980722
-0.029474223 -0.010568246 -0.023700366 0.14563687 -0.036549874 -0.12603964 0.022542179 -0.018326523
-0.024831526 0.12161102 -0.020976514 0.029013908 0.047443442 -0.016870836 0.23383409 -0.023599064
-0.10080272 -0.24895345 -0.0852855 0.25491336 -0.080466695 -0.04999402 0.22122137 -0.053638835
-0.006985859 0.03695493 0.14482528 -0.006721985 -0.09167196 -0.049581695 -0.004636553 -0.003998411
0.07241858 0.124690294 0.004580085 0.08821423 0.19808292 0.031529814 -0.28616065 -0.07781501

weight f4 [1, 128]
00000000: 5419 863f 7553 ddbe 518a 813f 3a12 0ebf
00000010: eb4e 06bf be6d 463d 6c49 e8be 52e3 e9be
00000020: 7ea3 583f f160 923f f3f4 b73f 654c e4be
00000030: 2535 fcbe f259 5f3f 88d6 723f 29c3 de3f
00000040: fabd 953f c427 88bf 1824 863f abf7 3bbf
00000050: ab2a 833f 658f e4be ef09 21bf 5315 a23d
00000060: e2d4 643f 4df0 f2be 5fd1 8c3f 16c2 af3f
00000070: 054d f3be f7e3 b53f db2f 2c3f fffe 823f
00000080: e882 8b3f 9184 e4be b998 a53f b46e e0be
00000090: 1f59 5a3f eae5 763f 96bd 423f 9a28 003d
000000a0: 8026 433f 4bd5 c3be 5b30 f2be 19f9 36bf
000000b0: f03d 533f 8dab 16bf c8ba 3fbf 6378 07bf
000000c0: d5d7 243f 6e4d 0abf 9959 efbe 4012 7a3f
000000d0: db1f 373f 0bc6 993f 3020 10bf e3e7 36bf
000000e0: 741d 283f d9a5 353f 0ee0 febe 8c41 ecbe
000000f0: a76f 273f 9a96 5e3d b662 853f 6288 16bf
00000100: 6ea0 353f 0ac8 853f c1cd 77bf 7e29 893f
00000110: 2cca f6be 0b8f f4be a92d ffbe c8c1 363f
00000120: 95f2 0ebf 9c30 0fbb b563 00bf 035b 2c3f
00000130: 0b88 06bf d592 f6be 2254 fcbe d9f5 3b3f
00000140: 675c f4be 449b cabe 4f69 2fbf 1e4a 523d
00000150: 9604 f0be e6e4 0bbf 621b 503f 3ff7 693f
00000160: 3478 883f 1414 eabe d343 fdbe c977 303f
00000170: e55b 01bf 3a2b 1bbf 8a30 0fbf b739 e6be
00000180: 16fa 483f 40f5 0a3f cef8 adbe 2222 713f
00000190: 91fd 00bf fa49 05bf 5a2b 2e3f 48da 06bf
000001a0: 7fe7 26bf 507a 79bf d2cc 19bf c204 2a3f
000001b0: bdbc 04bf ca99 c73b 8323 563f 97df 0abf
000001c0: cb17 e3be 00a7 bfbe 1f15 903f dcf9 11bf
000001d0: 4efe e8be 5a82 753b 5574 cdbe b7bc 00bf
000001e0: ffdd c33f 4250 d93f 73f0 febe 53ed 453f
000001f0: 8ee7 2b3f 9619 1cbf 15b4 74bf ed4d 05bf
1.047648 -0.43227735 1.0120336 -0.5549656 -0.5246417 0.048444502 -0.45368516 -0.45681244
0.8462447 1.1435834 1.4371628 -0.44589534 -0.49259296 0.8724662 0.948586 1.7403308
1.1698601 -1.0637136 1.0479765 -0.73424786 1.0247396 -0.4464065 -0.6290578 0.079142235
0.89387333 -0.4744896 1.1001395 1.3731105 -0.475197 1.4210194 0.6726052 1.0234069
1.0899324 -0.4463239 1.2937232 -0.4383446 0.8529224 0.9644457 0.76070535 0.03128872
0.7623062 -0.38248667 -0.47302517 -0.7147384 0.82516384 -0.58855516 -0.7489438 -0.5291807
0.64391834 -0.540244 -0.46748045 0.976841 0.7153298 1.2013563 -0.56299114 -0.7144758
0.6566994 0.7095619 -0.49780315 -0.46143758 0.6540474 0.054342844 1.0420749 -0.58801854
0.7094792 1.0451672 -0.9679833 1.0715787 -0.4820112 -0.47765383 -0.49839523 0.71389437
-0.558389 -0.0021849042 -0.5015214 0.6732637 -0.52551335 -0.481589 -0.49282938 0.7342201
-0.47726747 -0.39571583 -0.68520063 0.051340215 -0.468785 -0.54646146 0.8129178 0.9139289
1.0661683 -0.45718443 -0.49465808 0.6893278 -0.50530845 -0.60612833 -0.5593344 -0.44965908
0.785066 0.5428047 -0.33978885 0.9419271 -0.5038691 -0.52066004 0.680349 -0.5267682
-0.65196985 -0.9745226 -0.60078156 0.6641351 -0.5185049 0.006091331 0.83647937 -0.5424742
-0.4435409 -0.37432098 1.1256446 -0.5702188 -0.4550652 0.0037461729 -0.40127817 -0.50287956
1.5302123 1.6977618 -0.49792823 0.77315253 0.671502 -0.6097654 -0.95587283 -0.5207203

weight f4 [128, 128]
00000000: fa7c 0ebc 5b88 53bc 1733 01bd d180 7fbd
00000010: e99a 213d b5fe 87bd 85a4 5f3d 582c 863b
00000020: 0487 783d 11cb 00bd 8775 0f3d fc8d b6bd
00000030: 89d8 b3bd 2acd 97bc f48d 373d 3e3a 9abd
00000040: cc09 4d3d abf5 82bd 0a38 a13d 1d2d 2e3d
00000050: fde5 3d3d 5221 88bb f10a 4b3d 1a8c bbbd
00000060: 7dd2 dbbc c817 dc3c ef28 1eb9 b834 c8bd
00000070: c40a c2bd b63e 9fbd bbf2 e7bc e530 b9bc
00000080: a353 35bc 2f67 963c 6926 9fbd 45ec 0dbd
00000090: 06b0 f0bc 551c b1bd 31bb 8f3d a905 603d
000000a0: bb7f d93b 54ab 3cbc 8bdf bebd db3f 4a3d
000000b0: 3726 38bd 6824 66bd dea9 c83c 0e1b 67bd
000000c0: 5612 10bb a143 2c3d a84f a1bd ae67 893d
000000d0: efef 89bd 9b4d d6bc 7803 c0bd b210 473d
000000e0: 9320 9bbd a2e2 853d 4eef cfbd f28e 6f3d
000000f0: 1ef4 873c 08dc 6b3d 7a6b 0fbd 15ef 9abd
00000100: 89b1 2bbd 80d4 17bd 70e3 98bd 72c0 373d
00000110: f45d 303d 4e0d 39bd 0e8f 733d 345e 1ebc
00000120: 0fde 8f3d 223a 42bd 7d89 1f3d ebde 98bd
00000130: 0b58 863c 73e9 143d f55c 7cbc 97fc 4d3c
00000140: 613a cebd b320 73bc a543 b2bd de77 93bd
00000150: 1c8b b6bd 2080 293d 1ae3 67bd ebab 61bd
00000160: 8558 bbbd 5f58 813c ac09 8fbc 9747 89bd
00000170: a78b 223d 787a 55bc 3d0c 333d 9c80 5b3d
00000180: 9fbc 47bd ad46 cabd 9c91 20bd 2939 d1bd
00000190: ba33 993b 3eea d7bc a859 793d 8f39 283d
000001a0: 297f b4bd cfa5 7e3d 4f82 58bd 70e2 8fbd
000001b0: fb43 833d a0cd a2ba 04d2 7cb9 9cfe 72bd
000001c0: 50a1 65bd fd44 1f3b eaaa 1bbd 6867 343d
000001d0: d61e 7f3d 53b0 c6bd a9fb bfbb cd3b 953d
000001e0: 6a14 193d 37e5 90bc bab6 273d efd3 3bbc
000001f0: 6274 273d f972 82bd a861 773d f2ad 3cbd
00000200: bdf1 923c 9283 a23c bcf0 713e 188b 253e
00000210: efe8 b6bc 19c3 1dbe 5daf 163e 992b bb3e
00000220: 443f 353e fac3 0d3d a1d5 d1be 921c 473c
00000230: b093 db3e c623 1a3e 610a a3bd 243b e2bd
00000240: 46fa 4b3d 57ee 32bf 9497 963c d078 bc3e
00000250: 5440 9dbd 180a 9dbd 9f08 16bf fb42 0b3d
00000260: 8a8c e5bd b2bd bb3d 1052 59be 3dfb e83d
00000270: dc3d eebc f84c 0c3e 7ca9 48bd 43ed aa3d
00000280: b62e 42be d740 89bd 7c2e 6b3d 7f82 fabc
00000290: 688c 21be 34e9 91bc c4be 213e bbd5 f5bd
000002a0: ccf5 f2be 634a dabd 962e a7be 9365 963e
000002b0: 8e09 fe3d a2c5 413e 29dc 29bb 2c09 3a3d
000002c0: a50f f63d a3ea 61be 22a7 17bd b6a7 c23c
000002d0: b344 c13d b2c1 70bc fb96 19be a5e6 09be
000002e0: 9a8c 52be f3c3 e8bc cba4 9bbd 7a21 1e3e
000002f0: eca8 d43a 6377 bcbd a7e7 063e 21ac b5be
00000300: 7df6 bfbd 4444 b0bc fb02 11bc 8290 153e
00000310: 8dff 863e b0e0 a33c 3a9a 003e b3e6 523d
00000320: 5eb1 2bbe d7f0 1a3e 01bd f8bc 78c5 3fbe
00000330: 1eb8 14bd da24 16bf e4e8 ff3c 3fc0 fc3d
00000340: bd58 f8bc a040 7bbd 9b33 29be c739 1e3b
00000350: 3b23 c5bd 2c16 403d c18e f6bc c19f c4be
00000360: bb4b d6be 6ef1 a7be 201c 043e 4346 71bc
00000370: a70e a8bd 8ae6 bc3c 0fcf d83d afb9 4f3d
00000380: d90c b73c b41f 33be 406d 3c3d 33df 7bbc
00000390: 8ce6 27bd 9d4b 28be 74f5 bdbd d8df 273d
000003a0: 6ba4 d73d 0c9e 6a3c c314 bd3d da0a abbe
000003b0: 07ba 003d e34a c33d 979a a0be ab56 693e
000003c0: 4385 5bbc cf95 c2bd 6d12 673d 373e 1b3e
000003d0: 098d 053e ad67 343e bb42 0bbe 3175 70bd
000003e0: 4ce0 f93e 7529 07bd 187e bd3d dfaf 05be
000003f0: 8fdf 8abb ec86 46bd 78ea 9c3b 311a b03c
-0.008696789 -0.012910928 -0.031542864 -0.06237871 0.039454374 -0.066403784 0.054600257 0.0040946417
0.060675636 -0.03144366 0.035024192 -0.089138 -0.08781535 -0.018530447 0.04481311 -0.0753064
0.05005817 -0.06394514 0.07872017 0.042523492 0.046361912 -0.0041543627 0.04957098 -0.091575816
-0.026833767 0.026866809 -0.00015083303 -0.0977568 -0.0947471 -0.07775633 -0.028313985 -0.022606323
-0.011067304 0.018359749 -0.07770998 -0.034649152 -0.02938081 -0.08647982 0.07018126 0.054692898
0.006637541 -0.011515457 -0.09319981 0.049377304 -0.04495832 -0.056187063 0.024495061 -0.056422286
-0.0021983585 0.042056683 -0.07876521 0.067092285 -0.06735217 -0.026160052 -0.093756616 0.048599906
-0.075745724 0.065373674 -0.101530656 0.058485933 0.016595896 0.057582885 -0.035014607 -0.075651325
-0.041917358 -0.03706789 -0.07465255 0.044861265 0.04305835 -0.045178704 0.0594626 -0.009666014
0.07024776 -0.04741872 0.03894948 -0.07464393 0.016399404 0.036355447 -0.015403022 0.012572429
-0.10069729 -0.014839339 -0.087043084 -0.07200597 -0.08913252 0.041381955 -0.056613065 -0.055095594
-0.09147743 0.015789209 -0.017460667 -0.06703108 0.039683964 -0.013029687 0.043712843 0.05358945
-0.048763867 -0.098767616 -0.039201364 -0.102159806 0.0046753557 -0.026356813 0.06087652 0.041070517
-0.088133164 0.062169846 -0.052858647 -0.070256114 0.064094506 -0.00124209 -0.0002411083 -0.059324846
-0.056062043 0.0024302595 -0.038004793 0.04404393 0.062285267 -0.097016 -0.0058588577 0.07286797
0.037372984 -0.017687423 0.040945746 -0.011464103 0.040882476 -0.063695855 0.060395867 -0.046064325
0.017937535 0.019838128 0.23626989 0.16166341 -0.022327868 -0.15406455 0.14715333 0.365567
0.17699915 0.034610726 -0.40983298 0.012152808 0.42886114 0.15052709 -0.07960964 -0.110464364
0.049799226 -0.6989493 0.018382825 0.36810923 -0.07678285 -0.07667941 -0.58606905 0.033999424
-0.11208446 0.09167041 -0.2122271 0.11376045 -0.029082231 0.13701236 -0.048989758 0.08346035
-0.18963131 -0.0670182 0.057417378 -0.030579804 -0.15776217 -0.017811395 0.15795428 -0.120036565
-0.47453153 -0.106587194 -0.3265273 0.2937437 0.12404166 0.18923047 -0.002591858 0.045418903
0.12014703 -0.22062163 -0.037024625 0.023761611 0.094369315 -0.014694618 -0.14999 -0.1346689
-0.20561448 -0.028413748 -0.07599791 0.15442458 0.0016224659 -0.09202459 0.13174306 -0.35482886
-0.09373186 -0.021516927 -0.008850808 0.14605907 0.26366845 0.0200046 0.12558833 0.051489543
-0.16766879 0.15130936 -0.030363562 -0.18727672 -0.0363084 -0.5864998 0.03123898 0.123413555
-0.030315751 -0.061340928 -0.16523592 0.0024143325 -0.0962586 0.046896145 -0.030097367 -0.38403133
-0.41854653 -0.32801384 0.12901354 -0.014726224 -0.0820592 0.023059148 0.10586368 0.05071419
0.022344993 -0.17492563 0.046002626 -0.015373039 -0.04099135 -0.16435094 -0.09275332 0.04098496
0.10529407 0.014319908 0.092324756 -0.33406717 0.03142741 0.09535768 -0.31367943 0.22786967
-0.013398471 -0.0950123 0.056414057 0.15160452 0.13042082 0.17617674 -0.13599674 -0.058705512
0.48803937 -0.03299852 0.09252566 -0.13055371 -0.004238076 -0.048468515 0.004788693 0.021496864

bias f4 [128]
00000000: a944 1a3d 2c77 a63d 20e5 5a3d 04ed 733c
00000010: b335 113e e6a7 ca3d c4cb d13d 6104 9f3d
00000020: 62b8 3abb 035c 81bd 0301 c83d 013d 893b
00000030: fb2d 243d 85c7 0c3e 62cd 27bc 67fa 1e3e
00000040: 6422 5d3d 2b29 a53d e710 0a3c 551f eeba
00000050: 9496 0d3e 4413 b83a 2a6a 8abd 3e7c e83c
00000060: bc4a b4bd 3288 d73d 8c97 31bd 3447 9fbd
00000070: d6a6 bfbd 240b 983d 4e5f 91bd ce3e b23d
00000080: e8b2 ebbb 95ed e23d e43d 823c 43c8 353d
00000090: 8db4 af3d 7229 173d d612 15bd cf55 25bc
000000a0: 981b 413c fcae 0e3e 800b 33bc 1ab6 ab3d
000000b0: c673 f53b 858e 633d cdfe bf3d 21ee 43bd
000000c0: ca4d d13d ba04 613d 773d af3d 4616 123d
000000d0: 548a 4abb 93b4 14bd da62 973d 762e 773d
000000e0: 89a3 703d 50a0 1c3d 534b 8dbd 26fb db3d
000000f0: 412a 633c b9be 9bbd 0213 de3c fbe0 323c
00000100: e063 3cba 3a73 06be 4606 a93d ea27 c33c
00000110: c322 ec3a 4b08 9b3d 776e 073e deda d43d
00000120: 75d4 563c c034 ce3d 30fb ba3d e7d8 0a3e
00000130: 765e 6f3d 8da0 c83d 8d1c 5bbb 122d 873d
00000140: 4343 c53d 343a 423c 108d db3d eb6a 1ebc
00000150: ab20 a2bd b135 273c 2b98 a8bb 7224 c9bc
00000160: 4608 743d 37f5 d2bc b6a8 133d a5e8 813d
00000170: b3c1 433d 0cc9 ec3d c803 8bbd 8ead 85bd
00000180: cf9c 1cbd f1dc e8bd 62b0 adbd 7642 2c3b
00000190: c9e6 593d 1ce2 4b3d 8704 d23d 1a3a 1cbd
000001a0: 48ff f93d 5821 853d 476d 3d3d 92df 133e
000001b0: 8c42 ce3d 8e9f f33c b50e 133e cc0f 333e
000001c0: b2ab bbbd 7564 6f3d 94dd ff3d 90ef 46bc
000001d0: cfad c43d be15 153e 009d d93a a2be b8bd
000001e0: 4755 803d a920 883d 4df6 60bd 5c37 27be
000001f0: 3265 0c3c 4e93 e93d d41a bbbd 2ec7 b63d
0.037663136 0.08128199 0.053441167 0.014888052 0.14180641 0.09895305 0.10243943 0.07764507
-0.0028491248 -0.06316378 0.09765818 0.0041881804 0.040082913 0.13747986 -0.010241838 0.15525208
0.053987876 0.08064493 0.008426881 -0.0018167297 0.13826972 0.0014043828 -0.067585304 0.028379556
-0.08803317 0.10524024 -0.043357417 -0.07777253 -0.09357993 0.07424 -0.07098256 0.08703385
-0.007192958 0.110804714 0.015898652 0.044380438 0.08579359 0.03690476 -0.036394916 -0.010091259
0.011786364 0.13933939 -0.010928035 0.083843425 0.007490608 0.05555584 0.09374771 -0.04783452
0.10219915 0.05493615 0.08556645 0.035665773 -0.0030905204 -0.03630502 0.07391901 0.060347043
0.05874971 0.038238823 -0.068991326 0.10741262 0.013865055 -0.07604737 0.027108673 0.010917897
-0.00071865134 -0.13129893 0.0825315 0.023822743 0.0018015731 0.07569941 0.13225733 0.10393308
0.013112177 0.10068655 0.091299415 0.13559304 0.058439694 0.09796248 -0.0033433766 0.06600393
0.0963197 0.011854697 0.10720265 -0.009669046 -0.07916387 0.010205672 -0.005145093 -0.024553511
0.059578203 -0.025751693 0.036049567 0.063432015 0.047792148 0.11561784 -0.067878306 -0.065272436
-0.03823548 -0.11370266 -0.08480908 0.002628473 0.05319861 0.04977618 0.1025477 -0.038141347
0.12206894 0.065005004 0.046246793 0.14440754 0.100712866 0.029739168 0.14361079 0.17486495
-0.09163608 0.058445413 0.124934345 -0.012142077 0.09603464 0.14559075 0.0016602576 -0.09020735
0.06266265 0.066468544 -0.05492239 -0.16329712 0.008569049 0.11405049 -0.091359764 0.08924709

weight f4 [4, 128]
00000000: 8f9f 913d 88fd 2a3e afc8 053e 6d14 2cbe
00000010: b4a6 7f3e bba5 593d b700 e53d 9c97 3dbd
00000020: ce16 55b9 5c30 213e ba3f e1bc 757b 473d
00000030: 78cb c3be 2c45 bcbd e600 23be 4bef 6b3e
00000040: 3808 a6bd 5f01 23be 5d19 00be 4a98 89be
00000050: 89a7 6e3e 7ea7 27be ece8 493e 8dc8 b93e
00000060: 4de6 563c a9af e33c f26b bd3d 22aa 71be
00000070: 2a0c 813e 172d 9f3e 5206 4fbd bd02 56be
00000080: 7547 a8be d1d8 09be 54b7 37be 64ef 2c3e
00000090: ae05 7abe c4c8 b33e bc40 bfbd d257 3f3e
000000a0: 79c6 7a3d f9ca 8fbd 6f25 fa3d 7100 9d3e
000000b0: b02c 0e3e e0f7 1a3d ffb5 353d a29d 123e
000000c0: fc1e a93d 44e5 99bc af81 03bc 6fc8 ee3e
000000d0: c7bc e6be b9d1 a93e 42fc f03d 7e56 653e
000000e0: f714 813e fa53 48be c369 873d 0a47 c2bd
000000f0: 92e0 3dbe 2d87 163e 0589 0cbe 07d6 71bd
00000100: 92f3 113e 4c6f 4c3e bb70 14be f9e0 723d
00000110: 2112 123e d7bc 6cbe ed96 583e 2e3a a5bd
00000120: 7cd5 0cbf b03b 70be 62fe a4be cb51 033e
00000130: f2ac fdbd 4343 d8bd ce36 5dbe 5a5c 773b
00000140: 70af a93b 3851 cabd 4181 aa3d fbf6 643e
00000150: 0b13 9ebe 75dd 2e3d e46d d1be a06b 94bc
00000160: 928b 473e da03 fb3d f0ce b2be 021d 03bf
00000170: b5dc adbd 2461 aa3d 1f0f 10be b00b b03c
00000180: 1514 2e3e 0517 483d 191f 32bb f1c6 8c3e
00000190: 9b2e 7fbd 9750 37bd bc86 1abd 5147 8b3d
000001a0: 8d1d 23bd 215e 35be 1f34 9cbc 6687 fdbe
000001b0: a6f1 1bbd 7b94 4b3e 8d2e 3dbe 81bf e83d
000001c0: dc63 8abe 9e7d 33bd 0773 813b 4944 81bc
000001d0: 9dbd 1b3e 918c ffbc 3aae 0dbc 57c3 f2bc
000001e0: f225 d53d 79f5 1fbd d1ad bcbc f530 913e
000001f0: 7c04 6bbe 94c4 4abe 8aed aa3e cc43 823e
00000200: 6331 85bd 36f6 213f 0ef5 7bbe a663 313d
00000210: 603e a53e 8211 903e d82f 763e 440f a2be
00000220: 27d3 ea3e 6f4d 9cbb 7b6c 5e3e 14b9 93bd
00000230: 2ba6 afbe 3d0a 10bf 6c1f dbbe a8b6 953e
00000240: 6aca 463e 9216 4e3e 3dcf 41be 41dc 2ebe
00000250: f182 fc3e 0308 953e 8d16 72be 8d5f 903d
00000260: d0c0 5e3d 5a35 dbbe fd3c 3fbe d482 20bf
00000270: a321 653e 6b53 3ebd eefa fbba c94a 51bd
00000280: 36fc 0c3e 3520 36bf b4cb 58bd 59ad bb3e
00000290: 4f56 7abe 1977 423f 7247 36bd 8833 523e
000002a0: a233 913d d716 a8be ea3b a0be 6c5c 393f
000002b0: 8f9c d6be 9ecc 49be ef5f c43e 56e2 aebd
000002c0: e2e8 81be 0ea1 9dbe f4ae a93e 62a7 75bd
000002d0: e3c7 09be 389e 86be 74bd 96be 6258 4b3e
000002e0: 0e5c 983e bdc5 243e 607f d03c b4b5 02bf
000002f0: b046 be3e 77a2 a2bd ae79 aebe ee81 36be
00000300: 66d2 45bf 7f8d ae3e 988b 043d b566 6abd
00000310: 6470 8cbd cb91 fcbe 46cb a63d 249f 2dbe
00000320: 26d0 f63e d07b d4bd 0c5d d83d da5f e9bd
00000330: f584 573e 62ff 5f3e 87a3 9bbd 2427 0cbf
00000340: 67a3 34bf c94f 6dbf 3605 afbd 7656 3b3e
00000350: e63b b83d 82cb 20be 76cb cc3e 6827 98be
00000360: 9c0d 58bd 51ef b83e e753 9fbf 6ab0 73bd
00000370: b12b c0bb b0ed 893d 789c 95bc 12f8 01bd
00000380: e7a4 d0be 72b1 033f b74a 99bd 8660 44be
00000390: 9ace bcbe 8f33 9dbe 616d 7d3d c58f d6bd
000003a0: 3952 1abf 1413 7c3e d714 6ebd e682 cf3e
000003b0: 343e 233d 0b30 dc3e 5c4f 7cbd 468e e83e
000003c0: 472f 8cbe 6347 85be d04d a53c 901b 843e
000003d0: 1a56 e3bc 5104 d9be af8d 003e e260 5bbd
000003e0: e9bd 8b3f 757a 0fbe 13d4 c4bc e1c4 843e
000003f0: 9894 2bbf 59b4 15bf 3ebb 9a3e 8dcd c3be
0.071105115 0.16698277 0.13064836 -0.16804667 0.24965936 0.05313657 0.11181777 -0.046287164
-0.00020321758 0.15741104 -0.027496208 0.048701722 -0.38241172 -0.09192881 -0.15918311 0.23040502
-0.08107036 -0.15918492 -0.12509675 -0.26874 0.23306097 -0.16372487 0.19717759 0.3628582
0.013116431 0.027793722 0.092491046 -0.23600057 0.25204593 0.31089088 -0.050543137 -0.20899482
-0.32867017 -0.13461615 -0.17941028 0.16888195 -0.24416229 0.3511411 -0.09338519 0.18685845
0.061224435 -0.07021136 0.12214171 0.306644 0.13884234 0.03783405 0.044363018 0.14317945
0.08257863 -0.01878608 -0.008026524 0.46637294 -0.450659 0.33167818 0.11766864 0.22396275
0.25211307 -0.19563285 0.06611969 -0.09486206 -0.18542698 0.14700003 -0.13724144 -0.059042003
0.14253071 0.19964331 -0.14496128 0.059296582 0.14264728 -0.23118912 0.21151324 -0.080677375
-0.5501325 -0.23460269 -0.3222533 0.1282417 -0.12386502 -0.10559704 -0.21602938 0.0037744255
0.0051783845 -0.098787725 0.083254345 0.2235984 -0.30873904 0.042691667 -0.40904152 -0.018117726
0.19486836 0.12256594 -0.34923506 -0.5121614 -0.08489362 0.08319309 -0.14068268 0.021489948
0.16999848 0.048850078 -0.002717918 0.2749553 -0.062300306 -0.04475459 -0.03772615 0.06800712
-0.039823104 -0.17711689 -0.019067822 -0.49517363 -0.03807225 0.1988086 -0.18474789 0.113646515
-0.27029312 -0.04382097 0.00395048 -0.015779631 0.1520905 -0.031194957 -0.008647496 -0.02963416
0.10407628 -0.03905246 -0.0230321 0.28357664 -0.2295093 -0.19801551 0.33384353 0.2544235
-0.065035604 0.63266313 -0.246052 0.043307923 0.3227415 0.28138357 0.24041688 -0.31652272
0.4586422 -0.004769973 0.2172107 -0.07213035 -0.34306464 -0.5626562 -0.4279741 0.29240918
0.19413152 0.20125797 -0.18926711 -0.17076208 0.4931865 0.29107675 -0.23641415 0.07049475
0.0543831 -0.42814142 -0.18675609 -0.6269963 0.22376113 -0.046466272 -0.0019224563 -0.05109671
0.13768086 -0.71142894 -0.05292864 0.3665569 -0.24446987 0.7596298 -0.04450173 0.2052747
0.07089926 -0.32829925 -0.3129571 0.7240665 -0.4191632 -0.19706962 0.38354442 -0.08539264
-0.25372988 -0.30786937 0.3314129 -0.05997408 -0.13455157 -0.26292586 -0.29441416 0.19857934
0.29757732 0.16091056 0.025451362 -0.51058507 0.37163305 -0.07941144 -0.3407721 -0.17823002
-0.7727417 0.34092328 0.03235969 -0.057226855 -0.06857374 -0.4932998 0.0814424 -0.16955239
0.4820568 -0.10375178 0.10564622 -0.11395235 0.21046813 0.21874765 -0.0759955 -0.54747224
-0.7056183 -0.9269987 -0.08545916 0.18294701 0.089958 -0.15702632 0.39998978 -0.29717565
-0.052747354 0.36120084 -1.244748 -0.059494413 -0.0058645834 0.067347884 -0.018263087 -0.03173072
-0.4075081 0.51442635 -0.07484954 -0.19177446 -0.36876374 -0.307034 0.06187189 -0.104766406
-0.6028171 0.24616653 -0.058125343 0.40529555 0.039854243 0.43005404 -0.06159912 0.45421046
-0.2737982 -0.26031026 0.020178705 0.2580228 -0.027751017 -0.42386106 0.12554048 -0.05355919
1.0917331 -0.14011557 -0.024026906 0.25931457 -0.6702361 -0.58478314 0.3022098 -0.3824276

bias f4 [4]
00000000: 4d0b 42ba 5fe8 733c 020a 71bd 86ee 803d
-0.00074021966 0.014886945 -0.058847435 0.06295495
