problem1/models/underway/success_whole_model_1766857970.pth (torch, 146613 bytes, 9 tensors)

weight f4 [128, 8]
000000 4c 97 fd 3e bf 0a ae be 94 27 e9 3d b1 8c 9f be
       0.49529493 -0.33992574 0.11384502 -0.31162027
000010 fc b9 6c be a5 f8 aa be ed 14 a7 3e 08 a4 24 3e
       -0.23117822 -0.33392826 0.32633153 0.16078198
000020 4e a6 87 3d b2 a5 2f 3e 94 17 30 bd 4f 9d c1 3d
       0.06623517 0.17153051 -0.042991236 0.09453832
000030 b2 fb 4e 3e 53 ba 5f be 39 93 db 3e 23 07 bd 3e
       0.20213202 -0.21848421 0.4288576 0.36919507
000040 67 68 7e 3e 3a 64 c4 be aa 31 22 be b6 3a 0f bf
       0.24844514 -0.38357717 -0.15839258 -0.5594896
000050 de 6e 29 3e 38 d6 b9 3e d2 e5 09 bd 15 8e d1 3e
       0.16546199 0.36296248 -0.03366644 0.40928712
000060 07 df 4a 3c bc 4c 51 3d 82 8c e2 be 94 b9 d1 3e
       0.012382275 0.05109857 -0.44247824 0.40961897
000070 eb cd 09 3f 02 b9 d3 3e 04 9f 98 3e 5c 3a 37 3e
       0.5382983 0.41352087 0.2980882 0.17893356
000080 c9 d1 40 bf 8e 03 9f 3e a6 d2 73 be 94 61 13 3e
       -0.75320107 0.310574 -0.23810825 0.14392692
000090 29 05 67 3e 7f c6 e4 3d 33 cd 29 3e 66 e0 01 3e
       0.22560562 0.111706726 0.16582184 0.12683257
0000a0 5a 9b 89 3e 8e a9 08 3e fe cf 7d be 4f 5f 50 3f
       0.26876336 0.1334593 -0.24786374 0.8139543
0000b0 8f e9 78 be f3 1f 09 bf f0 b2 3e 3e ec f1 65 be
       -0.24307846 -0.53564376 0.18622947 -0.22455567
0000c0 ce 41 e7 be b4 8a e7 3e 21 96 91 be 1e eb 17 bf
       -0.45167392 0.4522301 -0.28434852 -0.59343135
0000d0 b6 40 e8 3e 32 a0 67 3e 66 43 e1 bd 17 37 86 bd
       0.4536187 0.22619703 -0.10999183 -0.06553476
0000e0 f2 8d 66 bd b4 80 c9 be 37 e4 0f be 27 fc b2 be
       -0.056287713 -0.39356005 -0.14051901 -0.34958002
0000f0 50 16 33 3d 99 00 a7 be d0 15 9b 3d 09 74 9a 3e
       0.04372245 -0.32617643 0.0757252 0.30166653
000100 72 d9 99 be 69 be 4b 3d 8f 36 1b bf a1 20 27 3e
       -0.3004871 0.049742136 -0.60630125 0.1632104
000110 36 53 7d 3d c0 79 cd bd 5b 2c ba 3e 92 bf 3e be
       0.061846934 -0.100329876 0.36361966 -0.18627766
000120 a7 6a 33 3f 9f 04 33 bf 9e ea 25 3f ce f4 0e bf
       0.70084614 -0.69928926 0.6481112 -0.5584229
000130 94 be 96 be 83 ae 41 3b 03 34 70 3d 98 ca c4 bd
       -0.29442275 0.002955348 0.058643352 -0.09608954
000140 5d 12 0b be 31 cf 6d 3f 49 39 d7 be f3 eb 79 bf
       -0.13581224 0.92894274 -0.42035893 -0.97625655
000150 f1 1b be be 9b 37 dc bd 56 de 16 3d 41 83 6d be
       -0.37130693 -0.107527934 0.03683313 -0.231946
000160 f2 33 9e 3e ab 52 b0 3e e3 3c c5 be e9 ce 5d bc
       0.30899006 0.3443807 -0.38523015 -0.013538101
000170 06 8d 41 be 83 06 35 be 30 87 87 3e c7 ea cb bc
       -0.18901452 -0.17678265 0.26470327 -0.024892224
000180 93 ce cd bd 53 37 ad be 7b 71 0b 3e 82 bb da be
       -0.100491665 -0.33831272 0.13617508 -0.42721182
000190 07 c3 6c be e7 0e 03 bf b2 5a 22 bf c4 36 ef bc
       -0.23121272 -0.51194614 -0.6341964 -0.029200919
0001a0 af ac bc bd 18 79 ae 3e d1 74 84 3e e4 be f5 3c
       -0.09212624 0.34076762 0.25870374 0.02999825
0001b0 97 a1 21 bf c9 6d 2a bd ec c7 d2 3e ef 56 5d 3e
       -0.6313719 -0.041608606 0.41168153 0.21615194
0001c0 66 c0 23 be fc 8f df 3e 0b 9e bf 3e 5f e7 f4 bd
       -0.15991363 0.4366454 0.37425265 -0.11958193
0001d0 ae ec 83 3e 4d e3 9d be ab 07 a4 be e8 25 83 bc
       0.2576651 -0.3083748 -0.320371 -0.016009286
0001e0 df f1 11 be c2 d3 94 bd eb b6 4e bf 09 b2 c4 be
       -0.14252423 -0.07266952 -0.8074786 -0.3841708
0001f0 75 25 9a 3e 4a 5b 82 bd 59 06 00 be 49 82 08 bd
       0.30106702 -0.06365068 -0.12502421 -0.033327375
000200 73 54 14 3e 89 a7 a7 be 23 ad 9b be 3b 14 05 bf
       0.1448534 -0.32745007 -0.3040553 -0.51983994
000210 c7 3a 1e 3d cb c3 e8 3d 50 4b 93 be 53 0e 55 be
       0.038630273 0.113654695 -0.28768396 -0.20806246
000220 15 d0 e6 bb ff 24 ca bf 48 6a 63 3f 91 95 0e bf
       -0.0070438483 -1.579254 0.8883405 -0.5569697
000230 8f 61 aa be 45 08 47 be 9b c1 c7 3d 30 5f 34 3e
       -0.33277556 -0.19436748 0.09753724 0.17614436
000240 82 99 47 bb 0a fb 45 3f b8 42 50 3f b7 d0 d6 3e
       -0.0030456488 0.7733618 0.81351805 0.41956112
000250 00 cb f9 be be 3d 38 be 5b b3 14 3c 66 39 3e 3d
       -0.4878769 -0.17992303 0.009075965 0.04644146
000260 f1 0b ef be bc 48 ca bd af 18 d2 be 25 de 69 3d
       -0.46688798 -0.09877154 -0.41034457 0.05709662
000270 8a c9 aa 3e a6 6a 4a 3e 4b a5 90 3e ef ae 0f 3d
       0.33356887 0.19767246 0.2825111 0.03507894
000280 a2 ff b7 bd 5a e9 14 3e f5 ee 13 3d a6 66 27 bc
       -0.08984305 0.14542142 0.03611656 -0.010217344
000290 20 1f 18 be 75 4d d3 3e b2 1e 3d bf 35 eb be bd
       -0.14855623 0.41270033 -0.7387496 -0.09322206
0002a0 eb 2e ae bd 9e 2d b0 bf f2 f4 77 3e f1 86 3f bf
       -0.08505043 -1.3763921 0.24214533 -0.7481528
0002b0 08 c4 53 3e 02 47 91 3e fe 8d 27 bc d1 08 0b bf
       0.20680249 0.28374487 -0.010226725 -0.5431033
0002c0 20 70 83 3e 15 ae 87 be 23 db 80 3e 02 40 60 3d
       0.25671482 -0.26500002 0.25167188 0.054748543
0002d0 e8 a1 85 be d2 b6 99 be 00 49 05 3e 81 0d 0d 3e
       -0.26100087 -0.30022293 0.13016129 0.13774683
0002e0 00 dc cd bd 62 d1 e6 3e a4 9a 16 be 0b f8 ea 3e
       -0.10051727 0.4508162 -0.14707428 0.45892367
0002f0 bb e0 a5 3d 17 ce eb be e1 83 e8 be be 95 ae be
       0.080995046 -0.46055672 -0.45413116 -0.3409862
000300 1a cd 88 bd 66 e8 0e bd 84 f4 54 3f 1d 31 12 bf
       -0.06679745 -0.0348896 0.831856 -0.5710619
000310 aa e9 32 3f 33 2b ee 3d 5a d6 38 bc 0e bb 9b be
       0.69887793 0.11629333 -0.011281574 -0.3041615
000320 7d bf ce 3c ac 2f 95 3e 35 66 c5 be 51 5f c8 be
       0.025237793 0.29137933 -0.3855454 -0.3913522
000330 7a bd dd 3d 0b 54 c9 bd 0b 77 5e 3b d8 0b 4c be
       0.108271554 -0.09830483 0.0033945467 -0.19926393
000340 e1 b4 7d 3e ec a0 d9 3e ad 59 80 3e 21 5c 4b 3d
       0.24776031 0.42505586 0.25068417 0.049648408
000350 62 24 36 be 98 42 12 bf 29 c5 1a bf 72 55 a5 bd
       -0.17787316 -0.57132864 -0.6045709 -0.08072938
000360 01 2b 57 be 52 8f 1c 3e 58 85 d5 3c 94 60 32 bf
       -0.21012498 0.15289047 0.02606456 -0.69678617
000370 f1 74 a6 3e 74 fe e0 3e 74 a9 7f 3e 3a d7 c2 3e
       0.32511094 0.43944132 0.24966985 0.3805483
000380 83 c1 e5 3d da 97 08 3d 57 da 51 3d 4d 97 b5 be
       0.1121855 0.033347942 0.051233616 -0.35466996
000390 a6 27 86 3f ff aa b1 bd d9 36 ce bd b3 0e 5e be
       1.048085 -0.08675193 -0.10069055 -0.21685295
0003a0 59 09 2d be 70 44 a7 bd b3 1d 95 3e cf b9 70 3e
       -0.16898097 -0.0816735 0.2912422 0.2350838
0003b0 25 e1 c7 be 53 89 0b bf 00 86 ce 3d df b8 c1 3e
       -0.3903896 -0.54506415 0.10084152 0.37836358
0003c0 84 83 44 be 6d 05 da 3e 2c 23 25 be e0 ec 77 be
       -0.19190794 0.42582265 -0.16126698 -0.24211454
0003d0 36 48 94 bd e2 e2 66 be 1f 39 0a be 27 37 af 3e
       -0.07240336 -0.22547486 -0.13498352 0.34221765
0003e0 70 b8 e0 be 52 77 ad 3d 3b b5 8a be 60 93 b8 3e
       -0.43890715 0.08470024 -0.27091393 0.36049938
0003f0 07 ba b6 3e ba b4 f1 3e 8f 50 16 bf a3 0c 27 3e
       0.35688803 0.47208196 -0.5871667 0.16313414

bias f4 [128]
000000 e3 a6 3b be fe ce 9d 3e 72 2a d8 bd 72 80 9d 3e
       -0.18325381 0.30821985 -0.10554971 0.30762058
000010 4c 2f 41 bd 11 32 49 3e 1f 27 ba 3d 0a f6 2c 3f
       -0.047164246 0.19648005 0.09089493 0.67562926
000020 2a 54 0e 3f 83 17 ba bd bd 6f e9 3d b0 79 15 3f
       0.55597174 -0.09086516 0.113982655 0.58388805
000030 c5 67 61 bd a4 b2 02 bc ec 45 cf 3e 1c 2d ad be
       -0.055030603 -0.007977162 0.40483034 -0.33823478
000040 62 7b 99 3e 5b 04 8c 3d 68 a0 d1 3e ff 29 e1 3c
       0.29976946 0.06836768 0.40942693 0.027485846
000050 1d 85 52 be 34 46 9f 3d 9e 1a da 3e 6b 2b d3 3c
       -0.20558591 0.07777062 0.42598432 0.02577754
000060 92 dd 79 3d 69 b2 9b 3e c7 c3 96 3d c5 9d 4a 3e
       0.06100232 0.30409554 0.0736156 0.19786747
000070 40 94 64 bd 72 02 2b bd 51 f4 ec 3e de c7 da be
       -0.055805445 -0.04175038 0.4628015 -0.42730612
000080 5b 47 30 3e af dc 09 3f cf 85 a0 be e3 6c 16 be
       0.1721472 0.5385236 -0.31352088 -0.14689974
000090 37 2c b8 bd 7d 17 bb bc 63 1a 60 3e 5f 4d 56 3e
       -0.08992808 -0.022838349 0.21885066 0.20927952
0000a0 f8 1b 5c be 2e 76 a5 be fb 20 d6 3e cd b0 33 3e
       -0.21495044 -0.32316726 0.41822037 0.17547913
0000b0 74 cb 08 3e 12 74 87 3e a4 fe 03 3e 88 00 07 bd
       0.13358861 0.26455742 0.12890106 -0.03295949
0000c0 d3 9f b0 be 82 b4 67 bd 90 21 c2 3e a6 c8 1a 3d
       -0.34496936 -0.05656863 0.3791623 0.03778901
0000d0 b2 9f 2a 3f ac 08 2d 3d a6 dd b9 3e dc c1 6a 3d
       0.66649926 0.0422446 0.36301917 0.057313785
0000e0 a0 04 41 bb f2 67 f3 3e 4e a6 bf be 47 d1 e2 3e
       -0.002945222 0.4754024 -0.37431568 0.4430029
0000f0 2f 49 4d be a8 ce a2 3e a9 04 77 bc 96 fc 08 3e
       -0.20047449 0.3179829 -0.015076795 0.13377604
000100 7a fc 59 be 5f 36 50 3e 72 0d a5 3d 7c 0c fa 3e
       -0.21287718 0.20333241 0.08059205 0.4883765
000110 7b 0b 91 3e 27 28 36 be 44 84 c4 bc 61 24 c3 3d
       0.2832907 -0.17788754 -0.02398885 0.09528423
000120 00 5e 2e 3b 51 b9 8b 3c 1e 22 2f 3d 53 9b 69 3e
       0.0026606321 0.01705614 0.042757146 0.22813158
000130 8d 1d d8 bd c2 a6 b6 3e 24 4e 4a 3c 16 e2 0a 3e
       -0.10552511 0.356741 0.012347732 0.13562807
000140 7d 24 37 3e a7 6c 0c 3e 5c d2 c3 bc 53 1a f5 bc
       0.17885013 0.13713323 -0.023904018 -0.029919779
000150 3c eb 3a bd 69 b1 4c 3e a6 1c ae 3e ba 02 1f be
       -0.045634493 0.19989552 0.34006232 -0.15528384
000160 f7 d5 fa 3d 13 f3 00 3f 7f 93 b6 3d 05 d6 0e 3f
       0.12247842 0.503709 0.089148514 0.5579532
000170 a7 e0 1d be 01 9f f1 be 5e 04 71 3e 4d 91 4c 3e
       -0.1541773 -0.47191623 0.23536822 0.19977303
000180 bd ab 7c 3e 41 e3 9c 3e 5e a7 c6 3d 2e d8 1b 3e
       0.24674888 0.3064213 0.096998915 0.15219185
000190 85 65 a9 3e 8e 08 ac 3d 9c 31 3d be 89 aa 5c 3e
       0.33085266 0.08400069 -0.18475956 0.21549429
0001a0 a0 4c 0d 3f 2f 26 12 be 62 64 d7 3d 76 61 6a 3e
       0.55195045 -0.14272378 0.105171934 0.22888741
0001b0 52 c0 d1 3e b3 17 18 bd 17 5c ac 3d 0c 15 bb 3e
       0.4096704 -0.037131976 0.08416002 0.36539495
0001c0 c7 8e c1 bd 6f 8b 27 bd e4 36 51 3e 5a a8 b3 3e
       -0.09451061 -0.04090446 0.20431095 0.3508938
0001d0 ed 49 81 3c 82 f3 a4 3e ba 9e 05 bc e2 6c 7a be
       0.01578232 0.32217032 -0.008155519 -0.24455598
0001e0 0a 8d b6 bc 0d 4d 51 3e cf 86 c5 3e ce a9 09 3e
       -0.02228405 0.20439549 0.38579413 0.13443682
0001f0 ce 06 15 3e d7 f5 e6 3d 09 11 e9 bc 39 7d 6a bc
       0.14553377 0.11277359 -0.028450506 -0.014312082

weight f4 [128, 128]
000000 a9 74 91 3e e4 92 37 be 53 8c 4c 3b 20 5b 24 3e
       0.28409317 -0.17927128 0.003121157 0.16050386
000010 1e 00 33 3e c1 3b 4e bd 38 8e 44 3e 3b a8 ed 3d
       0.17480513 -0.050349955 0.19194877 0.11604353
000020 6d 7c 62 3d e8 0c 33 3f 5f bf 17 3e 94 fc 8f bb
       0.055294443 0.6994157 0.14819096 -0.0043941233
000030 ac 5b 9f 3e 09 ac e4 3d 8f 0e 50 be 87 b2 65 3e
       0.31124628 0.111656256 -0.20318054 0.22431384
000040 8c 04 dd 3d f7 ec e3 3c 46 72 77 3d 44 39 15 3e
       0.10791883 0.027822955 0.060411714 0.14572626
000050 c4 63 8e 3e 4f c2 90 bd eb 15 2a 3e ff f0 e9 3d
       0.2781049 -0.070683114 0.16609924 0.114229195
000060 34 cd be be ba f6 81 bd c3 40 c0 3d 6f ae 42 3d
       -0.37265933 -0.063458875 0.09387352 0.047529634
000070 dc ee 28 bf f8 83 b5 3e 16 3a 49 bb 8f 9e db 3e
       -0.6598947 0.35452247 -0.0030704788 0.42894408
000080 ca b6 af 3e 3a 8f 32 be 37 7d ed 3e 40 e9 1f 3e
       0.34319144 -0.17437449 0.46384594 0.15616322
000090 dc 3c ae be 31 ee b6 3e ae 2c c8 3d 3b 0b e3 3d
       -0.34030807 0.357286 0.09774147 0.110861264
0000a0 8e 0d 95 3e 45 c6 bf 3e 01 36 3c be d8 bf c4 3c
       0.29111904 0.37455955 -0.18379976 0.02401726
0000b0 ec 49 86 3e b3 57 4a 3e 76 36 4f 3e 30 bc 0a 3f
       0.26228273 0.19760017 0.20235619 0.541934
0000c0 c9 19 b2 3e 66 15 d0 3d 49 7d 9f 3d 10 ff be 3e
       0.34785298 0.101603314 0.07787568 0.37303972
0000d0 8f 9b 9a 3d 15 c4 63 3e 52 f3 e9 3d 43 61 b4 be
       0.07549202 0.22242768 0.11423363 -0.35230455
0000e0 f0 70 2c 3d 5d 9d ea bb 5c 57 71 3e 3d f8 db bd
       0.042099893 -0.0071598724 0.23568481 -0.10740707
0000f0 9e b3 a3 be fc ae 1a 3b a6 f8 55 3e 1d 6c 5a be
       -0.31972975 0.0023602834 0.20895633 -0.21330304
000100 ae c0 6a 3e 51 90 53 3d 61 d5 e9 be 54 b6 d3 3d
       0.22925064 0.051651303 -0.45670608 0.10337511
000110 68 06 b6 be fa 88 2b 3e 7d b2 2a 3e 1c 23 92 3e
       -0.35551763 0.16751471 0.1666965 0.2854241
000120 8e 1b 7f 3e 2b cf 1d 3e 94 13 20 bf c5 ef 2e 3e
       0.24912855 0.1541106 -0.62529874 0.17083652
000130 88 53 a7 3e cb 5f b3 3d 9e 50 63 3e f4 e4 bb bd
       0.32680917 0.087585054 0.22198722 -0.09174529
000140 ae ae ae 3d 44 71 96 3e f8 b3 fc be 1d 73 bd 3c
       0.08529411 0.2938329 -0.49356055 0.02312618
000150 97 8f e2 3d 24 b0 4a 3e ab 64 a9 3d 5d 04 76 3e
       0.11062544 0.19793755 0.08271154 0.24025102
000160 95 ba 5a 3e 63 ea bf 3c ce ea 0c bc 2e 83 b9 bd
       0.21360238 0.023427194 -0.008600904 -0.09058224
000170 08 a0 a9 3e 57 b1 7f 3e 3c 9e 54 be ce 61 b8 3d
       0.33129907 0.24969994 -0.20763487 0.0900303
000180 8a 7c 63 3e 24 0f 42 3e 14 f0 2a be 5d f9 72 be
       0.22215477 0.18951088 -0.16693145 -0.23727937
000190 8d 87 30 3d 3f 55 34 be 2c a7 c3 3e d2 4e b2 3d
       0.04309802 -0.17610644 0.3821348 0.0870644
0001a0 43 a8 c2 3d ab 95 7d 3d 98 d3 27 3e d4 9b 33 3e
       0.095047496 0.061910313 0.1638931 0.17539912
0001b0 e0 fa 35 3e c4 16 ba bd 1c 9d f1 3d c3 9c 68 3e
       0.17771482 -0.090863734 0.11797544 0.2271605
0001c0 b6 e1 3b 3e bc a4 4a 3e 10 35 6e 3e 3d 42 ef bd
       0.1834782 0.19789404 0.23262429 -0.11682556
0001d0 5e 3e 3d bf 6c 36 48 bc c1 f0 83 be 35 e7 29 3d
       -0.7392329 -0.012220006 -0.25769618 0.04148026
0001e0 45 2e b9 3d 2e 82 26 3d 08 f3 a9 3d 4a 54 df be
       0.09042028 0.040651493 0.08298308 -0.43618995
0001f0 26 d9 7e be d4 a2 4b be 83 ab 94 3e 2b fa 21 3d
       -0.24887523 -0.19886333 0.29037103 0.03954522
000200 88 93 56 3e a1 db d3 bc 40 ba ab bd 14 5f 69 3d
       0.20954716 -0.025861563 -0.08385134 0.05697544
000210 40 bb 91 3e 0e 32 e1 3d 82 9c 21 3e 0e 70 14 3e
       0.28463173 0.10995875 0.15782359 0.1449587
000220 48 00 b2 3c d5 d7 26 3f 46 86 47 3e 9e 9b b9 bc
       0.02172865 0.65173084 0.19484815 -0.022657212
000230 4a e4 da 3e eb f2 ab 3c 73 7f 26 be 80 96 00 3e
       0.42752296 0.020989856 -0.16259556 0.12557411
000240 bc 13 99 3d 03 a5 8b bd 04 a5 20 3e 0b c8 e2 3d
       0.07474467 -0.06818583 0.15687948 0.110733114
000250 ae 92 98 3e 74 f5 c1 bd 5e 6f 5d 3e 45 81 64 3e
       0.29799408 -0.094706446 0.21624514 0.22314937
000260 d8 e3 d8 be 24 a5 00 bc a3 4f 75 3e fd 17 d4 3d
       -0.4236133 -0.007851873 0.2395616 0.10356138
000270 e6 eb 02 bf 28 f5 83 3e 42 5b ab bd 57 91 c2 3e
       -0.511412 0.25772977 -0.083670154 0.3800151
000280 86 39 b9 3e a5 8d 0e be b6 a8 fe 3e 84 e5 3b 3e
       0.361767 -0.1392122 0.4973809 0.18349272
000290 cd bc 7a be 8d a7 34 3e 73 37 29 3d 41 99 10 3e
       -0.24486084 0.1764204 0.041312646 0.14120962
0002a0 f1 0a cd 3e 41 be e0 3e 50 28 54 3c d5 38 47 bc
       0.4004741 0.43895152 0.012949064 -0.012159546
0002b0 ca 5d 42 3e c8 33 4f 3e 8b 95 76 3e 88 24 f1 3e
       0.1898109 0.20234597 0.24080484 0.47098184
0002c0 e0 80 92 3e fe 48 86 3e 03 d2 15 3d 70 f3 e9 3e
       0.2861395 0.26227564 0.036577236 0.4569354
0002d0 5f 35 66 b9 93 3a 1f 3e 82 66 93 3d a9 a6 87 be
       -0.00021954392 0.15549688 0.07197286 -0.2649434
0002e0 f6 1c 3a 3e 52 63 b0 bd 73 c2 a7 3e 45 8b 26 3c
       0.1817511 -0.08612694 0.3276554 0.01016504
0002f0 14 5e d6 be 9c a7 07 bd 45 f4 ce 3d 49 33 7b be
       -0.4186865 -0.03311883 0.101051845 -0.24531282
000300 85 19 9f 3e 1e 07 c8 3d 69 87 a2 be f6 43 65 3e
       0.31074157 0.097669825 -0.31743935 0.22389206
000310 14 6c 58 be 81 b4 8f 3d f7 96 95 3e 6a c8 74 3e
       -0.21134979 0.0701685 0.2921674 0.23904577
000320 c7 81 58 3e 85 de 4c 3e b3 7b 21 bf 6d d1 64 3e
       0.21143256 0.2000676 -0.63079375 0.22345515
000330 14 b0 af 3e 4f 32 31 3c 45 27 a2 3e 00 8c 83 be
       0.34314024 0.010815217 0.31670585 -0.2569275
000340 e7 cd ec 3d 06 41 b8 3e f0 5f bf be ae 2f b4 3c
       0.1156271 0.3598711 -0.37377882 0.021995392
000350 15 4f 0c 3e b0 42 c4 3d e0 2d 4f 3d 9f cd 83 3e
       0.13702042 0.09583032 0.05058086 0.25742814
000360 28 70 5a 3e 6b c2 bb 3d 47 81 76 bd 40 cf 8b 39
       0.21331847 0.09167942 -0.060181882 0.0002666656
000370 82 d4 7e 3e dc 3e 93 3e eb 93 63 be a9 e6 87 3e
       0.24885753 0.28758895 -0.22224395 0.26543167
000380 06 59 96 3e 45 37 1c 3e 39 e6 73 be 8e b6 2c be
       0.29364794 0.15255459 -0.23818292 -0.16866514
000390 57 0f 27 3e ad 31 92 be a9 3f 6f 3e e4 5f fb 3d
       0.16314445 -0.28553525 0.23364128 0.12274149
0003a0 39 e2 05 3d 3f 09 39 3e 6d 30 0f 3d 46 51 1c 3d
       0.032686446 0.18069933 0.03495829 0.038163446
0003b0 01 97 32 3e 34 11 80 bb 9d 09 54 3e df 76 91 3e
       0.17440416 -0.003908301 0.20706792 0.28411004
0003c0 35 27 af 3e 63 ba 85 3d 23 06 6a 3e 2e e2 e4 bd
       0.342096 0.06529691 0.22853903 -0.11175953
0003d0 6a ce 1c bf c0 4e f5 3d 71 52 3b be 17 8b 82 3d
       -0.6125246 0.11977911 -0.18293168 0.063741855
0003e0 21 f7 9e 3e 8d 08 ac bd ea 20 86 3e 93 bd e6 be
       0.3104792 -0.084000684 0.26196986 -0.4506651
0003f0 fa 9d 83 be d4 34 1d be ec 13 86 3e d2 35 b7 3d
       -0.25706464 -0.15352184 0.26187074 0.08945812

bias f4 [128]
000000 7e 8a 3d be 3b ce ab bc c6 52 55 bd 54 19 fb bd
       -0.18509862 -0.020972362 -0.052080892 -0.1226069
000010 2d b8 8d bd e1 31 56 bd db 1e 17 3d 49 19 2b be
       -0.06919894 -0.052293662 0.03689466 -0.16708864
000020 c4 e5 23 be 19 f7 c9 bd 68 23 a7 3d 6c 99 1f be
       -0.16005617 -0.09861583 0.0816105 -0.1558587
000030 2e 35 c3 3d 43 63 0e be 18 bc 0a be a2 ef d1 bd
       0.095316276 -0.13905053 -0.13548315 -0.102507845
000040 38 82 c4 3d 98 94 de 3d 1a aa f5 39 e6 d3 8c 3c
       0.0959515 0.10868186 0.00046856777 0.017190885
000050 eb 58 02 be 28 c4 21 3c 8d d5 24 3e bd 93 7f 3e
       -0.12729232 0.009873427 0.16097088 0.24958701
000060 3d f4 28 3e 68 1d 8c 3d 20 3f ee bc 7c 0c 99 bc
       0.1649942 0.06841546 -0.029082835 -0.01868271
000070 6f e1 25 3e c2 8a 99 bd 5b 5e d4 3d 6a 29 83 be
       0.16199277 -0.07497169 0.103695594 -0.25617534
000080 c6 08 9f bd 48 6b 74 3e 6b ba 3a be 00 07 48 bd
       -0.07765345 0.2386905 -0.18235175 -0.0488348
000090 41 51 4f 3c cf 7d 26 3d f7 70 fe bd 0f 34 38 3e
       0.01265365 0.040647324 -0.1242389 0.17988609
0000a0 7e 3f e7 bd 0b 96 33 3e c1 ed 48 3d 4b 02 49 3d
       -0.11291407 0.17537706 0.049054865 0.049074452
0000b0 26 27 5f be 75 61 46 bd d2 b5 2d 3e 6f fb 2e 3e
       -0.21792278 -0.048432786 0.1696389 0.17088102
0000c0 3c 2b c1 bd 6d a3 e4 bc 8b f9 7a bd e1 cc 39 bd
       -0.094320744 -0.027909959 -0.06127314 -0.045361403
0000d0 fc ce a6 3d 76 08 01 be d1 25 e8 bc 85 e3 98 bd
       0.08144948 -0.12600884 -0.028338345 -0.07465271
0000e0 da 13 25 bd cf 14 80 bc a4 21 ca 3a 32 8e bd bd
       -0.040302135 -0.015634922 0.0015421403 -0.09255637
0000f0 ea a9 e7 bd 74 33 a8 3d ee c2 93 3d 21 18 3c 3e
       -0.113117054 0.08212939 0.07214914 0.1836858
000100 db 75 66 bd ea dc 32 be 00 2e b4 bd 14 43 a2 3b
       -0.05626474 -0.17467085 -0.08797836 0.004951844
000110 d8 f4 a7 bd 1e 17 33 3e 27 ac 4b 3d 03 4c 8b bd
       -0.08200997 0.17489287 0.049724724 -0.068016075
000120 69 f0 db 3b c0 44 3a be 3a 65 01 be 50 fd 2a be
       0.0067120087 -0.18190289 -0.12636271 -0.16698194
000130 a4 8c 0b 3d c1 94 1d be f2 a3 87 bd 82 a3 aa 3e
       0.034069672 -0.15388776 -0.06623067 0.33327872
000140 76 79 b2 bd ac 70 2d bd 17 c3 70 3d 3b 34 49 3d
       -0.08714573 -0.04234378 0.058779802 0.049122076
000150 a8 32 0c 3d 80 2e c0 bd 83 6b 06 3e 23 6e b1 bd
       0.034227997 -0.09383869 0.1312695 -0.08663585
000160 2f a2 91 bd dc f0 2a 3e e6 92 88 bd 25 7f 54 bd
       -0.07111012 0.16693443 -0.06668644 -0.051879067
000170 5d a1 a2 bd df dd 9c bd 1f 29 90 bd 8e 02 59 be
       -0.07940934 -0.07659506 -0.07039093 -0.21192381
000180 fc 82 50 3e 42 48 05 be 55 e7 3e 3e c4 0b 8c bd
       0.20362467 -0.13015845 0.18642934 -0.068381816
000190 97 fe 23 3d b2 8d a7 3d aa 5b 8f 3d 35 25 29 bd
       0.040037718 0.08181323 0.069999054 -0.04129525
0001a0 e4 f3 47 3e 8a 77 77 be 3c c2 c5 bd a4 b0 06 be
       0.1952663 -0.24166694 -0.09656188 -0.1315332
0001b0 95 ba fb bd 46 ef 39 be 8d c6 da bd ae f6 eb 3d
       -0.12291447 -0.18157682 -0.10682402 0.1152166
0001c0 d4 26 ba bd 33 92 2c 3e 51 ca da bd 75 bd 88 bd
       -0.09089437 0.16852646 -0.1068312 -0.06676761
0001d0 0d 8b 76 3e 8e da 0d be 68 f3 d3 bd 81 fe 02 3e
       0.24076481 -0.13852903 -0.103491604 0.12792398
0001e0 31 7f 5d 3e f7 47 82 3d 9c 92 db 3d 0b eb 15 3e
       0.21630551 0.063613825 0.10721323 0.14640443
0001f0 ac 0d 01 3e 56 9e ff bd 23 2f c4 3d df 79 73 3e
       0.12602872 -0.12481372 0.09579303 0.23776959

weight f4 [1, 128]
000000 0f 7c 0e bf 96 61 00 bf 06 9c 17 bf b6 79 a6 3f
       -0.5565805 -0.50148904 -0.5922245 1.3005893
000010 a6 29 11 bf cd b3 12 bf b3 bc 97 bd e6 65 18 bf
       -0.56704175 -0.57305604 -0.074090384 -0.59530485
000020 a5 78 07 bf 44 9a 01 bf 24 17 45 3f a6 84 17 bf
       -0.52918464 -0.50626016 0.76988435 -0.5918678
000030 d0 59 d0 3f 36 3b 0d bf f8 43 32 bf bd 29 47 bf
       1.6277409 -0.55168474 -0.6963496 -0.7779806
000040 bf fd 43 3f 47 b0 30 3f ee f9 ac 3f ee c8 99 3d
       0.7655906 0.6901898 1.3513772 0.075090274
000050 3b e4 09 bf ca 7f 0c bf 7d 31 f8 3e 2e 1f 2d 3f
       -0.5386388 -0.5488249 0.48475257 0.676257
000060 47 48 48 3f 40 8b 59 3f 9a 26 09 bf ef a2 9e 3f
       0.78235286 0.84978104 -0.53574526 1.2393473
000070 ad 77 19 3f 8d 12 eb be 49 44 02 3f 4b 96 48 bf
       0.59948236 -0.4591259 0.50885445 -0.7835433
000080 70 7d 20 bf 4c ad 16 3f 50 87 08 bf 4c ab bd 3e
       -0.626914 0.5885818 -0.5333147 0.37044752
000090 30 0a 13 bf c9 c0 67 3f 0d c1 e1 be 34 1b 3d 3f
       -0.5743742 0.9052854 -0.440926 0.73869634
0000a0 28 13 3f bf d4 64 06 3f 1c 7b de be b1 fa 9d 3f
       -0.74638605 0.524976 -0.434533 1.234213
0000b0 9d e0 38 bf 1a 94 15 bf 32 c2 1f 3f 23 ac 57 3f
       -0.7221773 -0.5842911 0.62405694 0.84247035
0000c0 1b f5 19 bf 9a 10 5e 3d 58 d3 87 3d 5a 7d 0e bf
       -0.60139626 0.05421505 0.066321075 -0.5566002
0000d0 1b 25 52 3f 81 9a 23 bf 75 69 0b bf fd c8 12 bf
       0.8208787 -0.6390763 -0.5445779 -0.57337934
0000e0 c0 c5 27 bf d6 eb 00 bf f7 ac f3 be d6 f5 0f bf
       -0.6553612 -0.5035986 -0.475929 -0.5623449
0000f0 2d 86 16 bf 1b 2b 50 3f da d6 a7 3a 0c 60 c6 3e
       -0.58798486 0.81315774 0.001280512 0.38745153
000100 98 8d 0d bf 2a 07 00 bf 27 71 f4 be 33 b0 09 bf
       -0.5529418 -0.5001093 -0.47742578 -0.53784484
000110 f9 73 12 bf 40 d1 2e 3f 1b 3c 4e 3f 16 c9 fa be
       -0.5720821 0.6828804 0.80560464 -0.4898154
000120 0b 54 63 3d bd 97 3b bf d5 02 18 bf b7 21 fc be
       0.05550007 -0.7327841 -0.5937932 -0.49244472
000130 f6 81 51 3f 8e 73 18 bf 61 90 15 bf 5a 60 14 3f
       0.8183893 -0.5955132 -0.5842343 0.5795952
000140 37 10 0a bf 96 67 20 bf 70 34 5f 3f 65 4a 38 3f
       -0.5393099 -0.6265806 0.8718939 0.7198852
000150 c9 58 8e 3f a9 88 e6 3a ae 91 d1 3f 09 44 53 bc
       1.1120845 0.0017588335 1.6372583 -0.012894639
000160 10 66 14 bf 88 3b 73 3f 52 0d 19 bf 0e 16 a8 3f
       -0.57968235 0.9501271 -0.5978595 1.313173
000170 48 81 0f bf 14 1f 1a bf 23 16 15 bf ab b8 f3 be
       -0.5605664 -0.6020367 -0.582369 -0.47601828
000180 e3 9a 65 3f 3e 22 19 bf 2c 6d 89 3f 00 c2 11 bf
       0.89689463 -0.59817874 1.0736442 -0.56936646
000190 da 32 55 3f cf 05 83 3f 11 44 99 bd 2d 08 fc be
       0.8328072 1.0236148 -0.07483686 -0.49224988
0001a0 02 19 3f 3f 86 20 26 bf a7 7c e0 be 23 af 1f bf
       0.74647534 -0.64893377 -0.43845102 -0.6237661
0001b0 c7 f5 22 bf 75 7f 17 bf dd cb ee be 82 70 21 3f
       -0.63656276 -0.5917886 -0.4663991 0.630623
0001c0 3e 0b 55 bd 38 48 2b 3f 76 63 0b bf 8b 09 91 3d
       -0.052012675 0.6690707 -0.5444864 0.07081898
0001d0 c2 33 0a 3f 8a f1 f8 be 23 8a 1f bf d8 80 3b 3f
       0.53985226 -0.4862178 -0.62320155 0.73243475
0001e0 8c 75 47 3f a4 4f 05 3f 04 1f f5 3e 45 30 62 3f
       0.7791374 0.52074647 0.47875226 0.88354903
0001f0 49 c9 46 3f df 71 24 bf 49 84 c4 3e 4d df 2b 3f
       0.77650887 -0.64236253 0.38382176 0.67137605

weight f4 [128, 128]
000000 46 e0 8c bd 7e 1e 12 be a5 64 89 3e 41 35 60 bb
       -0.06878714 -0.14269444 0.26834598 -0.003421143
000010 d0 50 92 3d 0a 28 0b bf d7 b2 66 3d da e1 64 bd
       0.0714432 -0.5435797 0.0563229 -0.05587945
000020 23 02 cd bd b2 a1 1c 3d 04 16 9d bd bd 91 26 bc
       -0.10010173 0.038240142 -0.07670215 -0.010166583
000030 7e 26 30 3e fd 78 ab be fc 1a 03 be e0 7d 2a 3e
       0.17202184 -0.33490744 -0.12803262 0.1664958
000040 ae 44 5a 3d d3 1a a2 bd a4 11 34 be 16 50 74 3d
       0.053288154 -0.079152726 -0.17584854 0.05964669
000050 9f fd 90 bd be 6d bf bc 14 5f 79 be ea ab 28 bf
       -0.070796244 -0.023367759 -0.24352676 -0.6588732
000060 61 48 85 3e c9 e2 8e 3d 9a 5b 51 be aa 3a eb 3d
       0.26031783 0.069768496 -0.204451 0.11485799
000070 82 46 4b 3e 86 aa d4 3d 20 06 96 bd 6f 69 48 be
       0.19851115 0.10384087 -0.07325387 -0.1957147
000080 14 23 f7 be 9c 37 14 be 5b 64 22 bd 33 66 ea 3d
       -0.4826895 -0.14474338 -0.039646488 0.11445274
000090 16 31 cc 3d 4d b4 e2 3c 03 57 e0 be 75 8b 83 bb
       0.099703 0.027673865 -0.43816385 -0.0040144273
0000a0 7a c8 e2 be 43 87 11 bf 7e ba 76 3c 2e bf 9e bd
       -0.44293576 -0.5684702 0.015059112 -0.077513084
0000b0 0a eb a0 3d 01 60 84 be d9 fc 51 3e 9e 01 8f 3e
       0.0785733 -0.25854495 0.2050661 0.2793092
0000c0 bc 92 21 3e a9 60 41 bf b8 ab 75 3d 58 2d 07 be
       0.15778631 -0.75538117 0.059978217 -0.13200891
0000d0 b7 e1 af 3c 92 2d b8 bc 62 38 14 be 98 3c 44 3e
       0.021469934 -0.022482667 -0.14474633 0.1916374
0000e0 20 c9 eb bd 7e 49 ff bd fc bd 51 bf d4 87 b6 bd
       -0.11512971 -0.124651894 -0.8193052 -0.08912626
0000f0 6e 82 78 3d bd 40 b7 3b fe 4c 80 3e 0f 6b 45 3d
       0.060671262 0.005592434 0.2505874 0.048197802
000100 4c 3f 82 3e 0d 38 a3 3d 91 93 4e bc 13 0b f1 bd
       0.25438917 0.07969675 -0.012608425 -0.1176969
000110 00 f4 de bd 76 10 83 3d 1c e5 15 bf 6b a0 87 3d
       -0.10886383 0.06399624 -0.5855272 0.06622394
000120 7a 28 3d bd 22 74 99 be be 80 07 3e 5c 25 3e 3e
       -0.04618118 -0.29971415 0.13232705 0.18568939
000130 5f 86 e4 bd a3 c0 94 3d 02 dd e0 be 33 d1 bb bd
       -0.11158442 0.07263305 -0.43918616 -0.09170761
000140 49 4f f6 3d e1 84 33 bf 85 e0 6e bd fc 4f 9b 3d
       0.12026841 -0.7012463 -0.058319587 0.07583615
000150 4e 48 14 3e 83 9d 0c bf 05 bc 08 3d 82 8c cb 3d
       0.14480707 -0.54927844 0.033382434 0.09938909
000160 1a f5 19 bd 38 b2 ab 3d 27 ee b1 bd 58 88 71 3d
       -0.037587263 0.08383602 -0.08688002 0.05896792
000170 30 b2 35 3d 70 75 05 3e cb 31 31 3d 5d dd 57 bf
       0.044359386 0.1303308 0.043260377 -0.8432215
000180 4c 5b 8d 3d 5c e6 2c bd 46 ef 60 3e af 29 0a bd
       0.06902179 -0.042211875 0.21966276 -0.03373116
000190 e9 03 00 bd 84 50 06 3e 94 76 89 bd 98 06 b8 3d
       -0.03125373 0.13116652 -0.0671207 0.08985633
0001a0 50 08 d8 3c 23 15 cc be bb 36 95 bc 5d 0b 60 3e
       0.026371151 -0.39859876 -0.018214574 0.21879335
0001b0 6d 4d f0 be 4e db 86 bd 05 dc b3 bd f0 40 23 bf
       -0.4693407 -0.06584798 -0.087822 -0.6377096
0001c0 45 2a 2f bf e7 1a 02 3e e8 48 6f 3d 6d 92 69 3d
       -0.68423873 0.12705575 0.05841914 0.057024408
0001d0 a7 47 8a 3e 8a 6f 8e bd 86 71 97 3e cc 74 98 3d
       0.2700779 -0.06954868 0.295788 0.07444152
0001e0 83 2a 6c bf 29 fb 92 3d 06 7f 1d be 49 61 79 3d
       -0.9225237 0.07176811 -0.15380487 0.060883794
0001f0 fc d8 ea bd 95 25 49 be d5 6c aa 3d fe bc 4d 3e
       -0.11467168 -0.19643243 0.08321539 0.20091626
000200 ca 93 e4 bd 6f 87 4b 3c 08 5a cb bd cb 79 55 3d
       -0.11161001 0.012422427 -0.099292815 0.052118104
000210 f6 bc 2d be 21 7b d4 3d 24 5b a9 bb 14 a5 cd bd
       -0.16966614 0.103750475 -0.0051683355 -0.10041252
000220 34 9e 38 be 32 58 b8 bc 55 bc 72 be a0 48 e7 bd
       -0.180291 -0.022502992 -0.23704655 -0.11293149
000230 32 ff a1 3d 95 50 96 be 06 cc 1b 3e 06 ad 3b be
       0.07910003 -0.29358354 0.15214548 -0.18327722
000240 b2 2c ed bc c7 45 2e 3d a4 5e cc 3d a8 d6 1f be
       -0.028951976 0.042547014 0.09978989 -0.15609229
000250 df 74 c0 3d 3a 21 0d 3b 58 6c aa 3d ad 9c b5 be
       0.093972914 0.0021534697 0.08321446 -0.35471097
000260 97 6d 8d 3e 54 35 02 3c 7b c1 84 3d 68 f1 79 3d
       0.27622673 0.007947285 0.06482216 0.06102124
000270 41 3d b5 be 5f 24 9d 3d 7a 5b b9 bb 29 45 a5 bd
       -0.35398296 0.07672953 -0.005656657 -0.08069832
000280 30 1c a6 bd 4f 52 e9 bc 43 c3 5b 3d ac 59 a1 bd
       -0.08110845 -0.02848163 0.053653013 -0.07878432
000290 36 f2 ec be 8e f5 d5 ba 54 bb f1 3d 28 2f 63 3c
       -0.46278542 -0.0016323791 0.11803308 0.013866223
0002a0 38 4f 45 bd 9b ba b1 be e8 fc e6 bd fd 54 b6 3d
       -0.048171252 -0.3471268 -0.11278707 0.08902929
0002b0 d6 ee c0 bd f2 7e a8 3d 8b d7 25 bd 6c a6 5e be
       -0.09420554 0.08227338 -0.04048876 -0.21743172
0002c0 c8 3a aa 3d c3 a4 65 bd 8e 9b 3f 3c 4d e4 7d be
       0.08311993 -0.056065332 0.011694802 -0.24794121
0002d0 c9 bb 15 bd f8 ee 0e be d5 87 b2 bc 15 68 21 3e
       -0.03655604 -0.13958347 -0.021793285 0.1576236
0002e0 c6 0e 32 be 97 bc 10 3e 5e e9 14 be 71 76 0d 3d
       -0.17388448 0.14134441 -0.14542148 0.034536783
0002f0 08 b0 23 be 3b 2b 96 3d 77 0e b1 3c 3d be a8 3e
       -0.1598512 0.07332464 0.021613343 0.3295764
000300 59 d4 28 be 98 c9 75 3c 1d 51 48 bf ca fa 97 3e
       -0.16487254 0.015001677 -0.7824877 0.29683524
000310 02 42 94 bd 41 6b 0a 3c 48 1d da bd 99 4b 30 bc
       -0.072391525 0.008448423 -0.10650116 -0.010760211
000320 0b c4 37 be 0d 01 02 be d8 e7 5e 3e a5 b6 d4 bd
       -0.17945878 -0.12695713 0.21768129 -0.10386399
000330 e6 13 08 be 67 32 8d 3d 8e 31 d0 39 eb 3b 73 3e
       -0.1328884 0.06894379 0.00039709773 0.23753326
000340 fc 25 dd bd d7 cc bd 3d 7d 6b d4 3d 99 fd 0b be
       -0.107982606 0.09267586 0.10372064 -0.13670959
000350 16 f1 b3 3d 5e b4 aa 3e 00 b0 72 3c 8d 4d 0a 3d
       0.08786218 0.33340734 0.0148124695 0.033765364
000360 f6 05 66 3e 06 a7 1a 3e 49 7c 88 3c 15 13 b3 bd
       0.22463211 0.15102777 0.016660826 -0.08743874
000370 54 56 24 be aa 0b 4b 3d e1 b4 6b bd 5f 4a fd 3d
       -0.16048557 0.04957167 -0.057545546 0.12367701
000380 3a 3f 43 3d 81 ee 13 bd 18 c0 d3 bc f3 bd f7 3c
       0.04766772 -0.036116127 -0.025848433 0.030241942
000390 7a bf 4b 3e 26 4f ed be 9e 46 0a be 8b 4f 3b be
       0.19897261 -0.46349448 -0.13503501 -0.18292062
0003a0 89 c1 21 bd af c1 13 bf d7 34 3d bd 5c 56 30 3e
       -0.03949121 -0.5771741 -0.04619297 0.17220443
0003b0 2b ac d7 3d fa 17 16 bf a5 1d d4 bd a4 e0 4d 3e
       0.10530885 -0.58630335 -0.10357217 0.20105225
0003c0 16 7c 87 bd 4c 8f df bd 62 00 d3 3d 25 c7 2a 3d
       -0.066154644 -0.109160036 0.103028074 0.041693825
0003d0 81 89 f8 3e 01 25 bb bc df 6a cd 3d e9 20 42 bd
       0.48542407 -0.022844793 0.1003015 -0.047394667
0003e0 a9 eb c0 be 4f 75 40 3d ed 1c e8 3d f3 cb aa bd
       -0.37679794 0.046986874 0.11333642 -0.083396815
0003f0 06 27 1a 3e c4 75 36 3e c6 fd 01 be ca 8b 2a bf
       0.15053949 0.17818362 -0.12694463 -0.6661955

bias f4 [128]
000000 3a d6 e3 3a ad 22 31 3e a9 9d ef 3d 85 cd 3e bd
       0.001738257 0.17298384 0.11699993 -0.046582717
000010 1f 05 12 bd 1c f4 dc 3d fd 60 c3 bb f0 0b 1d 3b
       -0.035649415 0.10788748 -0.0059624896 0.0023963414
000020 af 7e 26 3c f7 a8 34 3d 08 5c 5f 3d b3 70 9e bd
       0.01016204 0.04410645 0.054531127 -0.077363394
000030 7e 7b d3 bc d4 72 61 bc 86 18 3e bd 20 88 de 3d
       -0.025815722 -0.013760287 -0.046410106 0.108658075
000040 cb 26 3d 3d a1 5c 61 bc 74 df 43 bc 66 10 88 3c
       0.046179574 -0.013754995 -0.011955131 0.016609382
000050 07 f1 80 3d e0 40 9e bc eb ae f8 3c ac 77 3d 3d
       0.06295972 -0.019318044 0.030356845 0.046256706
000060 71 50 5f bd 51 c3 be 3d 75 59 67 bd 25 f6 ec 3d
       -0.054520074 0.093145974 -0.056481797 0.11570386
000070 f0 1c 3d bb 90 ac df 3d dd 29 05 be 5c 09 e1 3d
       -0.002885636 0.109215856 -0.13004251 0.10988113
000080 aa 89 da 3a 44 07 9e 3c d5 cf 50 bd 4d c5 48 bd
       0.0016673107 0.019290574 -0.050979454 -0.049016286
000090 88 fc 2c 3d 01 5a ee 3d df 82 8d 3d 29 ba 0f 3e
       0.04223302 0.11638261 0.06909727 0.14035858
0000a0 ab 79 31 3d d4 fc da bd 76 33 82 bc 8a 17 04 3d
       0.043328922 -0.106927544 -0.01589368 0.03224901
0000b0 a3 fb 02 3e 1b 16 07 3d 3e 12 49 bb 8b 57 4c bb
       0.12791304 0.032980066 -0.003068104 -0.003118011
0000c0 c2 dc 6c bc 46 a5 9d bc 72 a6 18 bd 8c 6c 37 be
       -0.01445693 -0.019243848 -0.03726811 -0.17912501
0000d0 db 2c 4f 3d ae f2 f7 3d 45 2f 1a 3a 8c 23 ba 3d
       0.050579887 0.12106834 0.00058816775 0.09088811
0000e0 80 42 29 bc c1 ec 23 3e f1 01 8d 3c 08 df 9d 3b
       -0.010330796 0.16008283 0.01721284 0.004817847
0000f0 ea b5 1f 3e dc 60 dc 3c 63 97 a0 3d 90 5f ed 3d
       0.15596738 0.026901655 0.07841375 0.11590493
000100 91 fd 79 3c 48 23 6b bd fa 6d 7d 3c 0a cd 72 bd
       0.015258209 -0.057406694 0.015468115 -0.05927757
000110 74 76 94 3c 58 ec 9a 3d 1f b7 89 bc 3d ab 28 3e
       0.01812289 0.0756461 -0.016810952 0.16471572
000120 32 db 2b be 43 41 4d 3d ce 23 38 3c d4 f3 39 be
       -0.16782835 0.050111067 0.011239005 -0.1815942
000130 96 37 3b 3d f9 d6 e0 3d 97 b5 cb bb 0e ad 2b 3d
       0.045707308 0.10978503 -0.0062167156 0.041913085
000140 85 95 d7 3c db de 07 3d 93 ae 8b 3c 3d fc 1a bd
       0.026316414 0.033171516 0.017051017 -0.03783821
000150 ea 46 32 3e 68 f6 a7 bd 83 30 ca 3d f1 ec 7a 3d
       0.17409864 -0.08201295 0.09872534 0.06126112
000160 78 0d 8a 3d 93 46 e3 bd a7 a8 90 3d 74 7f e5 3d
       0.0674085 -0.11097445 0.07063418 0.112059504
000170 4f 4a 61 3d 8d f3 5d 3d a2 5b b6 3d 82 c6 cf 3d
       0.055002507 0.054187346 0.08904196 0.10145284
000180 7b 82 2e 3d 42 4b ea bd 8e 51 d0 3d 82 d3 56 bc
       0.042604905 -0.114401355 0.10171805 -0.013111951
000190 2a 48 f4 3b 0d 12 d4 3d ea a1 a9 3d bf 8a 0a bc
       0.0074548917 0.103550054 0.08282836 -0.008455931
0001a0 ca 00 f4 3d a6 c5 b6 bd 3f ef af 3d 48 b4 b1 3d
       0.11914213 -0.08924417 0.085905544 0.08676964
0001b0 a8 04 1e 3c dd 28 ce 3d e8 83 0c 3d 41 4e 1f 3e
       0.009644665 0.10066388 0.034305483 0.15557195
0001c0 64 29 32 bd df ae 57 bc aa 41 8d bd fd d1 f9 3d
       -0.043496504 -0.013164251 -0.0689729 0.12198255
0001d0 09 5b 40 3d 5f c5 57 bd 92 d2 33 3d 7d b1 50 3d
       0.046961818 -0.052678462 0.043901987 0.050950516
0001e0 25 a4 66 bc 4c 76 1d 3d 6f a0 02 3e 33 45 8f 3c
       -0.014077221 0.038442895 0.12756513 0.017489051
0001f0 00 7e 80 3d 1b dd 69 bd 72 a3 1e 3e 68 0b 68 bd
       0.062740326 -0.05709563 0.15492037 -0.056651503

weight f4 [4, 128]
000000 aa fb 04 bf 24 a3 5e 3e 1c 97 f4 bc 86 d6 d2 3e
       -0.5194651 0.2174192 -0.02985721 0.41179293
000010 23 dd 5c bd c7 7f 28 be 82 d1 64 bd bd 3f 05 3e
       -0.05392183 -0.16454993 -0.055863865 0.13012595
000020 20 dd 50 bd 7e 74 43 3e 9f cc 4e bd 35 0b 61 bd
       -0.05099213 0.19087407 -0.05048811 -0.05494233
000030 56 7c ca be 17 ce da 3c 83 c5 2a 3e 4a e0 e4 bd
       -0.39547986 0.0267096 0.16676907 -0.11175592
000040 22 78 55 be 96 1e 30 3e 48 c3 f8 be bc df c4 be
       -0.20846608 0.17199168 -0.48586488 -0.38451946
000050 0f 36 49 3e a7 45 45 be de 2e 59 3e 17 6c 79 bd
       0.19649528 -0.19264852 0.21209285 -0.060894098
000060 ca 38 44 3e 8b b5 39 3e cc fe 87 be ca 8b f1 be
       0.19162288 0.1813566 -0.26561582 -0.47176963
000070 52 5d db be 31 29 d7 be 8a 5e b5 bb 0d 27 5b 3e
       -0.42844635 -0.42023614 -0.0055349516 0.21401615
000080 58 30 53 3e 9d df 2a 3e 85 6e 1f 3d f3 28 7f bd
       0.2062391 0.16686864 0.03892376 -0.06229491
000090 7d 40 86 be 8c 18 1a bd 93 ef 78 3e 88 08 3c 3e
       -0.26221076 -0.037621066 0.2431014 0.1836263
0000a0 17 3b 9d 3d 03 eb 45 3e 7b b6 25 3d ff a0 c9 be
       0.07677286 0.19327931 0.04045723 -0.39380643
0000b0 0a 7e a6 3c d6 61 4a 3d 76 ed b4 3d f6 1c 84 3c
       0.020323772 0.04940971 0.088343546 0.01612709
0000c0 cd 08 ce 3d 1e 41 50 be 05 98 24 bc 3f 65 86 3d
       0.10060272 -0.2033734 -0.01004601 0.0656228
0000d0 93 98 ce bd 47 15 d2 3d a4 ae a9 be ea 73 90 3e
       -0.10087695 0.102579646 -0.33141053 0.28213435
0000e0 4e be 5e bd fe 3f 80 bc c4 ea 45 3e d6 56 d5 be
       -0.054380707 -0.015655514 0.19327837 -0.41667813
0000f0 3e cf 67 be fa fc b1 3e 4a 25 f1 bd 06 76 db 3d
       -0.2263765 0.34763318 -0.117746904 0.107158706
000100 c2 74 21 3d b6 4f 78 3d f4 68 d9 bd 95 0e 39 3e
       0.03941799 0.060622893 -0.10615721 0.18071969
000110 81 43 08 3e 50 c5 2e bd d2 26 6f be 1e 94 08 3c
       0.13307 -0.04266864 -0.23354653 0.008336095
000120 d0 0d 80 bd c9 cb 94 3e a5 b6 7d bd bb 96 20 3d
       -0.062526345 0.29061726 -0.06194176 0.039206248
000130 5a 1b f7 3d da 96 cb 3d 29 05 98 3e 93 cd 8c bd
       0.12065764 0.09940882 0.29691437 -0.06875148
000140 8f 80 90 bd 35 17 38 3e 92 7a 37 3e fe c2 55 3d
       -0.070557706 0.17977603 0.1791785 0.052187912
000150 d4 a3 0d 3e 5a 83 0d be dc 4b ca bd d6 1a 0b bd
       0.13832027 -0.13819638 -0.0987775 -0.03396114
000160 fb a8 62 bd e1 f3 33 be 30 3b cd be 2c 68 2f be
       -0.055336934 -0.17573501 -0.4008422 -0.17129582
000170 44 88 52 bd 64 4f 57 bc 3e 2d e7 be f5 a7 d5 bd
       -0.051399484 -0.013141487 -0.45151705 -0.10432426
000180 3a b0 7e 3e 80 22 9f 3d de 16 fd bd 19 90 f7 3d
       0.24871913 0.07770252 -0.12357877 0.12088031
000190 fb 6a 2e 3d f7 3b 39 be 08 57 35 bc 8c d2 8a 3d
       0.042582493 -0.18089281 -0.011068113 0.0677844
0001a0 a7 89 e8 bd 14 ef c5 bc 37 51 14 3e 54 8e 95 bc
       -0.1135438 -0.024161853 0.14484106 -0.018256344
0001b0 72 98 fa be 93 7c 3a ba 71 0f 4e 3e 66 70 35 bc
       -0.48944432 -0.00071139 0.20123078 -0.011074161
0001c0 15 cf 50 be 5f 64 21 bd 31 3e 82 3c 8e 56 8e bd
       -0.20391496 -0.039402362 0.015898796 -0.06950103
0001d0 97 3b 16 bd de 97 35 be 82 2b 11 3f 0e f9 97 bd
       -0.036677923 -0.17733714 0.5670701 -0.0742055
0001e0 d5 12 74 bd 76 c7 02 3e 83 53 98 3e ab 8c 4b bd
       -0.059588272 0.12771401 0.29751214 -0.0496947
0001f0 4a b8 fb 3d 54 c2 b0 3e bb 29 32 bd e9 0f 18 3d
       0.1229101 0.3452326 -0.04349683 0.037124548
000200 2d d2 46 bf a9 ee cc 3e 79 58 b2 3e c3 66 0f 3f
       -0.7766445 0.40025833 0.34833124 0.56016177
000210 a2 bd 05 be ae 5b 7f 3e 50 00 12 be cd 6c c7 be
       -0.1306062 0.24937317 -0.14257932 -0.38950196
000220 de db c9 3e 19 47 59 be d6 90 41 bd 77 13 42 3e
       0.39425558 -0.21218528 -0.047257267 0.18952738
000230 fc 3f bb 3e 7e 7a 76 3e 75 01 e1 3e 15 a6 11 be
       0.36572254 0.24070165 0.43946424 -0.14223512
000240 1c 52 a9 3e 7a d8 d2 be 88 96 11 3e c3 01 0a bf
       0.33070457 -0.41180784 0.1421758 -0.5390894
000250 fb 83 4d 3e 6a 66 bf be b3 7e e4 be 2d d5 ee 3e
       0.20069878 -0.37382823 -0.44627914 0.46647015
000260 9e aa 6f bd 24 16 77 3e 96 80 f3 be 8a 81 11 3d
       -0.058512323 0.2412954 -0.4755904 0.03552393
000270 2d fc cf be b5 fa 0d bf 06 ad ae be 18 67 1e 3f
       -0.40622082 -0.55460674 -0.3411638 0.6187606
000280 d0 52 dc 3e 60 3a a2 3e 2e 95 ab 3e 74 f1 2a be
       0.4303193 0.31685162 0.33512253 -0.1669367
000290 2c e9 26 bf ae d2 cc be 38 88 f0 3e d3 4d 39 be
       -0.6519954 -0.40004486 0.46978927 -0.18096094
0002a0 89 c4 f5 3d 5a 36 bb bd 93 bf 12 be cf e4 1a bf
       0.12000377 -0.09141226 -0.14330892 -0.60505384
0002b0 ac 64 f6 bc a0 6e 1c bb 11 0d 36 be 13 cc 68 3e
       -0.030077301 -0.0023869649 -0.17778422 0.22734098
0002c0 ed 99 85 3e 40 9e 2e bb 2f 85 05 bf 4e a3 5f be
       0.26094 -0.0026644617 -0.5215635 -0.2183964
0002d0 13 6a d9 3e 76 c9 cb bd 03 7b 30 bf 0b 67 c6 3e
       0.4246374 -0.09950535 -0.689377 0.3875049
0002e0 ec f6 8c bd fc 8d 8a be da 34 7b 3e 8a 0b 78 3e
       -0.06883034 -0.2706145 0.2453188 0.24223152
0002f0 14 0f 39 bf af a8 37 3f 03 38 ad 3c ed 54 a9 3e
       -0.7228863 0.71741766 0.021144873 0.33072606
000300 50 14 85 bd 88 d4 ca bc 4d 48 bb 3e e9 4d ca be
       -0.06498015 -0.024759546 0.365786 -0.39512566
000310 f7 9b b1 3e f9 1b 9a bd 31 27 b6 be 25 26 97 3e
       0.34689304 -0.075248666 -0.35576776 0.2952129
000320 01 b9 0a bf eb 72 a2 3e b6 4c a5 be fc 5b 05 be
       -0.54188544 0.317283 -0.32285088 -0.1302337
000330 87 15 b8 3d 0b e0 45 3c 97 6a b2 3c 87 aa e9 bd
       0.08988481 0.012077342 0.021779342 -0.11409479
000340 7c 28 1d bd bd a5 00 3e 83 86 dc be 89 d3 9f 3e
       -0.038368687 0.12563224 -0.43071374 0.31216076
000350 75 3d ac 3e 88 34 b7 be be b6 00 be c1 d0 6e 3e
       0.33640638 -0.35782266 -0.1256971 0.23321821
000360 9c e9 04 be 8b 51 fd be 26 16 ba be de 69 01 bf
       -0.1297974 -0.49476275 -0.36345023 -0.50552166
000370 d4 b5 a6 3d 5c c8 0e bd c3 e0 4b bd c4 8f af bd
       0.0814015 -0.034859046 -0.049774896 -0.08572343
000380 45 e4 9d be 52 85 12 3d d5 3c b4 3d c0 58 85 3e
       -0.30838218 0.035771675 0.08800665 0.26044273
000390 5f 03 0c be 34 9d 1f bf 99 92 bb bd 27 9f e4 bd
       -0.13673161 -0.6234925 -0.09158821 -0.111631684
0003a0 3e b6 fd 3d 85 bd 62 3d 32 e4 ae be c0 b4 68 3e
       0.123882756 0.05535652 -0.34158474 0.227252
0003b0 b9 c5 39 3f 8e 3f d7 bc 36 13 99 3e ed f7 d9 3d
       0.72567326 -0.026275422 0.2989747 0.10642991
0003c0 53 21 69 3e 6a 01 82 3e c1 47 59 bd 3d 60 51 bd
       0.22766618 0.25391704 -0.053046945 -0.05111717
0003d0 4b b0 9e 3e 92 03 b5 be 75 74 a2 3e 7f a0 89 bd
       0.30993876 -0.35354286 0.31729475 -0.06720065
0003e0 b0 47 0d bd c7 95 95 bd 69 87 eb bc de b8 e4 3e
       -0.034492195 -0.073039584 -0.028751092 0.44672292
0003f0 21 e3 ab 3e f0 8c ad bc 54 0c 80 bc 1c 5c 49 be
       0.33571723 -0.021185368 -0.015630879 -0.19664043

bias f4 [4]
000000 71 b4 9c bc c2 60 8e 3d af 76 b0 3d cc a3 3f bb
       -0.01912901 0.06952049 0.08616387 -0.0029241918
