problem1/models/underway/success_whole_model_1766858955.pth (torch, 146613 bytes, 9 tensors)

weight f4 [128, 8]
0.008954165 0.6219535 -0.76519674 -0.12305189 -0.45951352 -0.11938358 -0.40057918 -0.10013581
-0.24900009 -0.45465076 0.23621713 -0.3137195 0.3761552 0.0047774846 0.16122086 0.15229505
0.5994513 -0.18968984 0.36411726 -0.10116359 -0.331332 -0.043331042 -0.4266085 0.17216663
0.5725242 -0.43557328 0.09446943 -0.34967083 0.05755239 0.08316234 0.078547284 -0.06840418
-0.33715138 0.03185318 0.1009839 -0.5079446 -0.11241323 0.12082801 0.29718012 -0.6667665
0.02161212 0.3643838 0.100976035 0.052637227 0.0375602 -0.6659647 -0.38360032 -0.012712428
-0.086975165 0.15728362 -0.33673087 0.4454359 0.18952087 0.49006468 -0.35450894 -0.12030197
0.320826 0.097859144 0.093943335 -0.12461156 -0.33833966 0.059379514 -0.38255575 0.31502622
0.31489754 0.2523451 0.05307848 0.78824085 -0.16554692 -0.37239784 -0.23922747 -0.3371491
-0.37643397 -0.424116 -0.41834778 -0.5981839 -0.42358136 0.26572612 0.04754527 0.18176033
-0.28593272 -0.34114525 -0.6546594 -0.17265801 0.47484538 0.03581081 0.008627146 0.21451022
0.35738963 0.32127276 0.24727371 0.153633 -0.2710272 -0.7193131 -0.43771347 -0.32347673
0.42586294 -0.6771765 -0.2827221 -0.26973802 0.08473807 0.084907435 0.2376474 0.25132883
0.43112832 -0.1952288 0.3587448 -0.085869044 -0.34450012 -0.36020625 -0.73879206 -0.041356426
0.27202928 0.05583109 -0.344177 -0.3309057 0.9166931 -0.2782182 -0.18324812 0.00321346
0.43744045 0.39037904 0.2931392 0.03413371 -0.1909021 -0.05457386 -0.57169193 0.30147707
0.30674934 0.8857787 -0.37233505 -0.38584828 -0.3108951 -0.14734766 0.0874498 -0.7257416
0.03643844 0.25503016 0.45500326 0.32260755 -0.016666846 0.3508412 -0.14205442 -0.5281572
0.19104023 0.63196045 -0.12010502 -0.29556578 0.27786335 -0.14366645 0.070389636 0.18416236
-0.033451594 0.19193847 0.5931818 -0.32646713 0.086373664 0.47058263 0.36723793 0.29878303
0.01366836 0.017708518 0.21338388 0.31732842 -1.3723217 0.12464504 0.17679916 -0.2216414
-0.24685182 0.69711286 -0.15360115 -0.44595033 -0.089997195 0.19322991 -0.03650204 -0.21801665
-0.314483 -0.4540689 0.29918873 -0.28944936 0.43232372 -0.040404543 0.26847872 0.15377696
-0.18584353 0.07121695 0.10315212 -0.3366415 -0.08231337 0.6567195 0.23675397 0.12321137
-0.010988212 -0.015498745 0.66747516 -0.8125196 0.002068139 -0.11900967 -0.31897822 0.33098492
-0.47967413 0.35536236 -0.51059806 0.21519461 -0.037750676 0.1669749 0.3049772 0.2068042
-0.39373958 0.44439936 0.48955947 0.0585606 0.11920862 0.1366549 -0.27316722 -0.1825308
-0.028683232 -0.2525707 -0.26372987 -0.094235204 0.45032427 0.31286713 0.34250206 0.27154925
0.24437208 0.30350497 -0.12366802 0.08005786 -0.024759391 0.43112266 -0.20369689 -0.284223
0.2566343 -0.12078015 0.93206954 -0.67470753 0.32321435 -0.38039282 -0.21272087 0.21476871
-0.2820622 0.030220585 -0.39894608 -0.26828128 0.26200473 0.0937278 -0.061706714 -0.09332024
-0.13880895 0.4432802 0.49168882 -0.13553369 0.002876428 -0.81411874 0.08286985 -0.14887024
00000000: 7db4 123c 5838 1f3f efe3 43bf a102 fcbd
00000010: 5b45 ebbe 617f f4bd b718 cdbe 0114 cdbd
00000020: e1f9 7ebe fcc7 e8be e7e2 713e d89f a0be
00000030: 6a97 c03e 728c 9c3b 1517 253e 3cf3 1b3e
00000040: a475 193f 0e3e 42be 946d ba3e db2e cfbd
00000050: 59a4 a9be e47b 31bd 6e6c dabe 734c 303e
00000060: f290 123f 7603 dfbe 3079 c13d 0e08 b3be
00000070: 0ebc 6b3d 0451 aa3d 66dd a03d 7e17 8cbd
00000080: 1b9f acbe 7b78 023d a6d0 ce3d a808 02bf
00000090: e838 e6bd ad74 f73d fe27 983e 36b1 2abf
000000a0: e70b b13c 8390 ba3e 86cc ce3d 229a 573d
000000b0: b9d8 193d aa7c 2abf 4367 c4be ca47 50bc
000000c0: 0920 b2bd f50e 213e fd67 acbe 2d10 e43e
000000d0: c211 423e c2e9 fa3e 3282 b5be e160 f6bd
000000e0: 4e43 a43e 606a c83d 5d65 c03d 5834 ffbd
000000f0: db3a adbe ef37 733d 59de c3be 1e4b a13e
00000100: 403a a13e 6033 813e d268 593d 27ca 493f
00000110: 2285 29be eeaa bebe 0cf8 74be cf9e acbe
00000120: f4bb c0be bb25 d9be ae31 d6be 9422 19bf
00000130: a8df d8be 410d 883e d4be 423d 611f 3a3e
00000140: c665 92be 97aa aebe c297 27bf 43cd 30be
00000150: ef1e f33e 5bae 123d df58 0d3c 91a8 5b3e
00000160: c6fb b63e dd7d a43e 5235 7d3e f851 1d3e
00000170: 14c4 8abe e724 38bf fb1b e0be be9e a5be
00000180: b50a da3e 705b 2dbf f3c0 90be 1a1b 8abe
00000190: 278b ad3d f3e3 ad3d d759 733e 2cae 803e
000001a0: dabc dc3e 0fea 47be 66ad b73e 1cdc afbd
000001b0: 5262 b0be f46c b8be 7a21 3dbf 5b65 29bd
000001c0: 6c47 8b3e 24af 643d f837 b0be 796c a9be
000001d0: 66ac 6a3f 9e72 8ebe 65a5 3bbe ea98 523b
000001e0: 32f8 df3e c3df c73e 5716 963e cacf 0b3d
000001f0: d77b 43be d788 5fbd 675a 12bf 345b 9a3e
00000200: 400e 9d3e 65c2 623f b3a2 bebe e88d c5be
00000210: a42d 9fbe 4ee2 16be e118 b33d 34ca 39bf
00000220: 7940 153d 5093 823e 30f6 e83e d12c a53e
00000230: e988 88bc 75a1 b33e b776 11be 4f35 07bf
00000240: 0da0 433e 29c8 213f 9ff9 f5bd 6654 97be
00000250: 1b44 8e3e 4c1d 13be 7128 903d 0f95 3c3e
00000260: 8a04 09bd 858b 443e c3da 173f b326 a7be
00000270: ade4 b03d 35f0 f03e 9c06 bc3e 17fa 983e
00000280: 42f1 5f3c 7411 913c 4e81 5a3e df78 a23e
00000290: 3da8 afbf e645 ff3d d70a 353e f7f5 62be
000002a0: b9c6 7cbe fd75 323f 9f49 1dbe 9a53 e4be
000002b0: 7350 b8bd 10de 453e 2a83 15bd c23f 5fbe
000002c0: ea03 a1be b87b e8be 442f 993e b532 94be
000002d0: 8959 dd3e 3c7f 25bd 0b76 893e b577 1d3e
000002e0: c44d 3ebe 31da 913d 6b41 d33d 465c acbe
000002f0: ea93 a8bd c51e 283f a26f 723e 3e56 fc3d
00000300: e707 34bc 73ee 7dbc a7df 2a3f 4901 50bf
00000310: 9d89 073b 58bb f3bd 1d51 a3be db76 a93e
00000320: d997 f5be 0ef2 b53e 8eb6 02bf fa5b 5c3e
00000330: 74a0 1abd 78fb 2a3e f925 9c3e 7bc4 533e
00000340: 3c98 c9be 5088 e33e 8aa7 fa3e 3ddd 6f3d
00000350: a623 f43d 43ef 0b3e 93dc 8bbe 5be9 3abe
00000360: 19f9 eabc f250 81be 9a07 87be 63fe c0bd
00000370: e790 e63e 1f30 a03e 6e5c af3e 8108 8b3e
00000380: ad3c 7a3e 0165 9b3e a945 fdbd 60f5 a33d
00000390: 35d4 cabc 1cbc dc3e eb95 50be ad85 91be
000003a0: 9265 833e 955b f7bd 1c9c 6e3f a2b9 2cbf
000003b0: 5a7c a53e d9c2 c2be 80d3 59be 54ec 5b3e
000003c0: 756a 90be 2991 f73c a942 ccbe 2a5c 89be
000003d0: 7c25 863e 5cf4 bf3d 2ec0 7cbd af1e bfbd
000003e0: ef23 0ebe 9ff5 e23e a3be fb3e 58c9 0abe
000003f0: 7482 3c3b 166a 50bf abb7 a93d 7171 18be

bias f4 [128]
-0.09152562 0.45286232 0.1353746 -0.15189607 -0.09406974 -0.020515133 0.32297048 0.42351308
-0.1676437 0.23023707 0.25352827 0.052059717 -0.0070263655 0.37326 0.08848703 -0.03583883
0.17162475 -0.19171022 -0.13813335 -0.2497404 0.0037150576 0.29868877 0.3471571 -0.42213556
-0.0037141673 0.09170135 0.36815414 0.03255293 0.49583894 0.07144024 -0.27793893 0.40948492
0.12251101 0.096291386 0.26273185 0.16434589 0.19871317 -0.39700127 -0.009319691 -0.14622055
0.14331307 0.052975275 0.4657521 0.33909222 0.35558182 0.5060667 -0.35192272 0.18211633
0.3168423 0.0942627 0.120915234 -0.14557557 0.00012826003 0.4777305 0.035011318 -0.07123884
-0.0979365 -0.22493064 0.050750878 -0.042460795 -0.10660966 0.019106455 0.260267 0.33961362
-0.13610755 0.17933631 0.16580635 0.2534648 0.17354028 0.09481002 0.52523094 -0.13065755
0.27981964 -0.24568126 0.38180193 -0.02228733 0.37102944 0.06387972 0.26039457 0.39302492
0.1407377 0.18893702 0.30745742 0.40966797 -0.16718377 0.22991803 0.12538867 0.18262209
0.3935338 0.39258963 0.26084322 0.19880363 0.02261379 0.0021363264 0.2445472 0.20841344
0.2043638 -0.0038023582 -0.26084435 -0.088071875 -0.20841148 -0.3620667 -0.31714648 0.037272103
-0.21604933 -0.16155565 0.028317906 -0.26384813 0.1739567 0.23783183 -0.2339749 -0.38611698
0.044171173 0.013047055 0.052710857 0.29214504 0.21926962 0.20499775 -0.0894937 -0.38689688
-0.0102561535 0.21581458 0.18891923 0.067525804 0.35366136 0.04578968 0.24272963 -0.021200461
00000000: c971 bbbd 92dd e73e a49f 0a3e a58a 1bbe
00000010: a3a7 c0bd 5a0f a8bc 635c a53e b5d6 d83e
00000020: caaa 2bbe 44c3 6b3e 75ce 813e 923c 553d
00000030: 6d3d e6bb ef1b bf3e b038 b53d bdcb 12bd
00000040: 66be 2f3e af4f 44be d472 0dbe f3bb 7fbe
00000050: 5378 733b bced 983e 93be b13e 2722 d8be
00000060: 6369 73bb ebcd bb3d b37e bc3e 3956 053d
00000070: 9ade fd3e 434f 923d 034e 8ebe 02a8 d13e
00000080: 0de7 fa3d 6b34 c53d ca84 863e 4a4a 283e
00000090: 777b 4b3e c043 cbbe 9eb1 18bc d7ba 15be
000000a0: a9c0 123e 9afc 583d 0f77 ee3e 7f9d ad3e
000000b0: d20e b63e 968d 013f 372f b4be b47c 3a3e
000000c0: 2739 a23e cd0c c13d 68a2 f73d c311 15be
000000d0: 8a7d 0639 1899 f43e 0768 0f3d abe5 91bd
000000e0: ef92 c8bd 3854 66be 27e0 4f3d 5feb 2dbd
000000f0: 2a56 dabd 2485 9c3c b741 853e d6e1 ad3e
00000100: c75f 0bbe f0a3 373e 24c9 293e 23c6 813e
00000110: 8bb4 313e c12b c23d 8975 063f 18cb 05be
00000120: 8544 8f3e de93 7bbe 8b7b c33e eb93 b6bc
00000130: 92f7 bd3e 5fd3 823d 7052 853e 903a c93e
00000140: 8b1d 103e b578 413e 0f6b 9d3e 00c0 d13e
00000150: 3932 2bbe a26f 6b3e e365 003e 4901 3b3e
00000160: 437d c93e 8201 c93e 3e8d 853e 2e93 4b3e
00000170: 8e40 b93c 9c01 0c3b 956a 7a3e 556a 553e
00000180: be44 513e fc30 79bb 648d 85be 075f b4bd
00000190: d269 55be ce60 b9be 0661 a2be a2aa 183d
000001a0: 093c 5dbe d86e 25be f4fa e73c 1a17 87be
000001b0: b521 323e 308a 733e 1e97 6fbe 20b1 c5be
000001c0: d5ec 343d 51c3 553c 57e7 573d 0994 953e
000001d0: 3788 603e eeea 513e 7948 b7bd 5917 c6be
000001e0: 6d09 28bc 7ffe 5c3e 0b74 413e f84a 8a3d
000001f0: 1a13 b53e f68d 3b3d 1e8e 783e 97ac adbc

weight f4 [128, 128]
0.34430933 -0.18145552 -0.104441 -0.06209491 -0.39606008 -0.29536492 0.00032120946 0.1810313
0.8143349 0.116628125 -0.21806672 0.1493536 -0.17624329 -0.3564308 -0.062739715 0.015252675
0.1146154 0.03975516 0.2281038 -0.12856854 0.6878958 0.008001669 -0.30345455 -0.39521158
0.367339 -0.008796534 0.2609805 -0.7103429 -0.101817474 0.45248497 -0.12641285 0.113833964
-0.18540776 0.54211336 0.0069811298 0.16666897 -0.064716995 -0.3886612 -0.2802631 -0.4874201
-0.15238056 -0.021301119 0.00975459 -0.33971933 0.1120985 0.04638341 -0.06309181 0.24060117
0.074261315 -0.38421646 0.118953876 -0.3710483 -0.23505844 -0.015124123 0.295831 0.17065758
0.17301074 -0.54610515 0.43850943 0.17567848 0.32008106 0.043804403 -0.11195535 0.14824192
-0.23674315 0.040378664 -0.2575351 0.21173698 -0.064836726 -0.15501556 -0.016886821 0.20624079
-0.13005716 -0.21958321 0.1785072 -0.3006073 0.10447141 -0.013625798 -0.24316487 -0.016187076
-0.18327005 0.087874345 0.03917455 -0.17967191 0.3211152 -0.26113772 -0.07879422 -0.04013412
0.06801441 -0.136666 -0.0001229407 -0.07721099 -0.41249272 0.26048875 0.2247678 0.19500129
0.003219156 0.13137795 0.6709704 -0.14645119 0.42420518 0.2930798 -0.037202217 0.0701297
0.5973804 -0.0660988 1.5376711 -0.8132145 -0.07878874 -0.26139617 0.27977058 -0.07602453
0.38052654 0.036801744 0.21544334 0.0354999 -0.06621597 -0.075285204 0.10957122 -0.5488496
0.07053107 -0.026811007 0.16289647 0.5083325 0.103592254 -0.10688668 0.16157936 -0.14353564
0.41242248 -0.33200714 -0.5147121 -0.17896496 -0.47211868 -0.31905463 0.0157924 0.12304553
0.7389312 0.21254303 -0.14366965 0.18422653 -0.08096714 -0.5093505 0.193123 -0.016397271
0.24488239 -0.08645545 0.19661129 -0.05767481 0.58794105 0.11575076 -0.48293787 -0.28309
0.23222595 0.10587391 0.15859604 -0.6013788 -0.0632409 0.28628844 -0.23466994 0.11697595
-0.08068177 -0.050331317 -0.124849625 0.24655421 0.002108604 -0.657792 -0.22318497 -0.8403195
-0.12390759 -0.123214476 -0.024539009 -0.5029467 0.05477882 0.28805283 -0.2378418 0.018551765
0.07469642 -0.3203342 0.2507483 -0.6862836 -0.4918685 0.013822731 0.21845755 0.13956164
-0.15174711 -0.35401484 0.2952943 0.07012284 0.06738583 -0.63665694 0.042111717 0.023614869
-0.48311216 0.10770872 -0.14559792 0.17104478 0.093028754 -0.28683466 0.02588748 -0.14489749
-0.037054826 -0.30917394 0.12186917 -0.45009103 0.07464161 0.13824964 0.02123905 -0.0681761
-0.29305637 0.04343212 0.12498858 -0.32992926 0.27091026 -0.27833927 -0.44921213 0.045016523
0.031946152 -0.3378087 0.3754884 -0.1259881 -0.5423332 0.436131 -0.1393323 0.11543486
-0.14103119 -0.06460862 0.61181504 -0.23922561 0.17617147 0.2145423 -0.24136247 0.00048300088
0.4357619 -0.6144191 1.22913 -0.84451073 -0.07911557 -0.3070132 0.06946005 -0.1553429
0.39075416 -0.7576614 0.15269278 0.1927762 -0.062647395 -0.0962818 0.06729671 -0.5446144
0.10381016 0.09142922 -0.27887082 0.27397734 0.13925597 -0.121993676 0.2490285 -0.7790196
00000000: 5049 b03e 7acf 39be 2ae5 d5bd 3b57 7ebd
00000010: 63c8 cabe 123a 97be 0168 a839 4560 393e
00000020: 4178 503f bada ee3d e24c 5fbe 26f0 183e
00000030: 1f79 34be 197e b6be ae7d 80bd 5be6 793c
00000040: 7bbb ea3d 4fd6 223d 0b94 693e 79a7 03be
00000050: f019 303f 6f19 033c 655e 9bbe 2c59 cabe
00000060: db13 bc3e 561f 10bc 3c9f 853e 08d9 35bf
00000070: ae85 d0bd 1cac e73e 5f72 01be c821 e93d
00000080: 88db 3dbe f1c7 0a3f f6c1 e43b 45ab 2a3e
00000090: 588a 84bd 9afe c6be a57e 8fbe 218f f9be
000000a0: a609 1cbe af7f aebc b7d1 1f3c b1ef adbe
000000b0: e693 e53d 88fc 3d3d 4736 81bd 2760 763e
000000c0: 5116 983d 05b8 c4be 179e f33d 0bfa bdbe
000000d0: 29b3 70be 2bcb 77bc 2977 973e dcc0 2e3e
000000e0: ba29 313e 8ccd 0bbf 4f84 e03e 0fe5 333e
000000f0: aae1 a33e 3f6c 333d d948 e5bd bbcc 173e
00000100: cc6c 72be 1964 253d a4db 83be 94d1 583e
00000110: 1ec9 84bd 66bc 1ebe 3b56 8abc c930 533e
00000120: b42d 05be 6cda 60be 97ca 363e 33e9 99be
00000130: 1bf5 d53d bd3e 5fbc 3600 79be c29a 84bc
00000140: 25ab 3bbe 77f7 b33d 7e75 203d eafb 37be
00000150: 3669 a43e d8b3 85be dd5e a1bd ad63 24bd
00000160: 244b 8b3d 2cf2 0bbe a5e9 00b9 cc20 9ebd
00000170: 3f32 d3be c85e 853e 8829 663e 6bae 473e
00000180: 7af8 523b f187 063e b7c4 2b3f 4df7 15be
00000190: 6c31 d93e 8e0e 963e 5a61 18bd 29a0 8f3d
000001a0: eced 183f cf5e 87bd 68d2 c43f d32e 50bf
000001b0: fe5b a1bd b8d5 85be 173e 8f3e c0b2 9bbd
000001c0: 60d4 c23e 6dbd 163d 2e9d 5c3e 5868 113d
000001d0: 3d9c 87bd 212f 9abd e066 e03d 6881 0cbf
000001e0: 9872 903d c2a2 dbbc 55ce 263e 1422 023f
000001f0: 2d28 d43d 67e7 dabd 0f75 253e 02fb 12be
00000200: 0a29 d33e d7fc a9be 2cc4 03bf 9742 37be
00000210: 8ab9 f1be 215b a3be 105f 813c 4bff fb3d
00000220: 982a 3d3f e1a4 593e 231e 13be e1a5 3c3e
00000230: 1ad2 a5bd cb64 02bf 09c2 453e 9253 86bc
00000240: 73c2 7a3e 8e0f b1bd 7854 493e 6c3c 6cbd
00000250: 4e83 163f bc0e ed3d a243 f7be 2cf1 90be
00000260: a4cc 6d3e 6cd4 d83d 0067 223e f6f3 19bf
00000270: 7284 81bd 6694 923e 514d 70be 1691 ef3d
00000280: 7c3c a5bd 3628 4ebd 29b1 ffbd b578 7c3e
00000290: 8130 0a3b 0e65 28bf 9a8a 64be 2e1f 57bf
000002a0: 43c3 fdbd df57 fcbd 0806 c9bc 1dc1 00bf
000002b0: c25f 603d a97b 933e cd8c 73be dff9 973c
000002c0: 70fa 983d d802 a4be 1562 803e 48b0 2fbf
000002d0: 30d6 fbbe bc78 623c 56b3 5f3e 3fe9 0e3e
000002e0: 9863 1bbe 6f41 b5be d130 973e 909c 8f3d
000002f0: 9501 8a3d f3fb 22bf 567d 2c3d f873 c13c
00000300: 7a5a f7be 6496 dc3d 9f17 15be 5d26 2f3e
00000310: dc85 be3d fedb 92be fb11 d43c 0260 14be
00000320: cdc6 17bd 0c4c 9ebe 8b96 f93d 5572 e6be
00000330: b3dd 983d 5091 0d3e 84fd ad3c e99f 8bbd
00000340: 7c0b 96be e1e5 313d 03fa ff3d 7dec a8be
00000350: c0b4 8a3e 7c82 8ebe 22ff e5be 3f63 383d
00000360: f8d9 023d 43f5 acbe 0440 c03e 0603 01be
00000370: 59d6 0abf 904c df3e 20ad 0ebe 1d69 ec3d
00000380: 7b6a 10be 8651 84bd e99f 1c3f 8ff7 74be
00000390: 4b66 343e fab0 5b3e b927 77be 483b fd39
000003a0: 2f1c df3e 924a 1dbf 2254 9d3f db31 58bf
000003b0: 5807 a2bd d630 9dbe 1241 8e3d 3612 1fbe
000003c0: ee10 c83e 19f6 41bf 7f5b 1c3e 2067 453e
000003d0: 474d 80bd 642f c5bd dcd2 893d d96b 0bbf
000003e0: 6c9a d43d 3e3f bb3d 28c8 8ebe c246 8c3e
000003f0: 1e99 0e3e d2d7 f9bd 5401 7f3e d46d 47bf

bias f4 [128]
0.08984893 -0.00059915124 -0.072082445 -0.059710685 -0.10076003 0.06414477 -0.055073068 -0.20248353
-0.092281014 -0.07860978 -0.19918454 -0.008476635 -0.08873879 0.085465744 0.08836925 -0.010458595
-0.092002004 -0.08013991 -0.03116344 0.06759523 0.15408663 -0.055899385 0.07621 0.069952376
-0.13585226 -0.21056455 -0.12835242 0.04585577 -0.2110847 0.07395892 0.12682667 0.01758894
-0.11181745 -0.03501323 -0.07714607 -0.06677835 0.03291611 0.05236704 0.053311717 -0.13036963
-0.034769 -0.16045325 0.014145331 -0.101201735 -0.07434473 -0.087210305 -0.019615652 -0.11986141
-0.046851333 -0.10440544 0.0073533286 0.0095195 -0.13327405 0.10910159 -0.09107619 -0.03556716
-0.09742671 -0.029133063 -0.020390032 -0.09265405 -0.10062052 0.31954828 -0.0062702554 -0.056612846
0.043764316 0.13264126 -0.111314185 -0.08458663 0.08287189 0.06275109 -0.1337445 -0.050625365
-0.10917323 -0.10798885 -0.059349064 -0.0066703996 -0.15586564 0.09631801 -0.053726017 -0.12671073
-0.1702312 -0.010545166 0.023964861 -0.18801376 0.016228676 0.15580969 0.11808883 0.0014266489
0.057217315 0.003823606 0.081624515 -0.013908806 -0.057366993 -0.107678756 -0.06540948 -0.073524825
0.1962179 -0.22669423 0.16474769 0.076733075 -0.006335047 0.08898971 -0.09712033 0.016880056
0.023016442 -0.17979589 0.15854634 0.20409535 -0.01817276 -0.09502985 -0.1182917 -0.043516275
0.16986229 0.22786276 0.0929394 0.16659145 -0.050765615 -0.00044864192 -0.012709461 -0.07572611
-0.019242909 0.29493988 0.19482598 -0.059622657 0.16493447 -0.22635458 0.2750366 -0.009295574
00000000: b702 b83d 5c10 1dba f69f 93bd 3193 74bd
00000010: 465b cebd 555e 833d 4c94 61bd d857 4fbe
00000020: d4fd bcbd 2afe a0bd 08f7 4bbe 96e1 0abc
00000030: afbc b5bd aa08 af3d f0fa b43d 875a 2bbc
00000040: 8c6b bcbd 6520 a4bd 784a ffbc 5e6f 8a3d
00000050: e3c8 1d3e c1f6 64bd fd13 9c3d 3143 8f3d
00000060: db1c 0bbe 3c9e 57be d16e 03be 43d3 3b3d
00000070: 9626 58be c677 973d dade 013e ae16 903c
00000080: 8c00 e5bd 086a 0fbd c2fe 9dbd 16c3 88bd
00000090: 0bd3 063d d27e 563d 635d 5a3d 9e7f 05be
000000a0: f069 0ebd db4d 24be d2c1 673c db42 cfbd
000000b0: 0d42 98bd 519b b2bd 01b1 a0bc e679 f5bd
000000c0: 2fe7 3fbd 85d2 d5bd 31f4 f03b adf7 1b3c
000000d0: fe78 08be a870 df3d 2786 babd dfae 11bd
000000e0: a887 c7bd 76a8 eebc ff08 a7bc 68c1 bdbd
000000f0: 2212 cebd d59b a33e b776 cdbb dfe2 67bd
00000100: 3642 333d 1cd3 073e b1f8 e3bd c13b adbd
00000110: bdb8 a93d a583 803d 51f4 08be 8b5c 4fbd
00000120: 3796 dfbd 4229 ddbd 0118 73bd 5e93 dabb
00000130: 3e9b 1fbe 6042 c53d d00f 5cbd 75c0 01be
00000140: 1651 2ebe a2c5 2cbc f551 c43c ae86 40be
00000150: 00f2 843c 938c 1f3e 8ed8 f13d 65fe ba3a
00000160: b45c 6a3d 7795 7a3b c12a a73d c3e1 63bc
00000170: a7f9 6abd ae86 dcbd 68f5 85bd 2f94 96bd
00000180: 58ed 483e 8822 68be 9eb3 283e 3b26 9d3d
00000190: 3a96 cfbb 3d40 b63d 06e7 c6bd 0b48 8a3c
000001a0: fa8c bc3c 6a1c 38be f959 223e 5ffe 503e
000001b0: 0adf 94bc 039f c2bd eb42 f2bd 1f3e 32bd
000001c0: 61f0 2d3e db54 693e 0357 be3d f396 2a3e
000001d0: 9bef 4fbd b337 ebb9 583b 50bc 4a16 9bbd
000001e0: 4ea3 9dbc 5c02 973e 7680 473e e336 74bd
000001f0: 95e4 283e 7fc9 67be 99d1 8c3e 774c 18bc

weight f4 [1, 128]
0.7832135 0.7523682 -0.03596791 -0.60435003 -0.6184993 0.0062314887 -0.52833754 -0.6300167
-0.49640054 -0.56552684 -0.56833595 -0.5983965 -0.5788275 0.7800829 0.75543785 0.6656302
0.65432805 -0.50332165 -0.52924347 -0.04797267 0.868467 0.7169651 0.80198956 0.6413507
-0.61710274 -0.70459 -0.6431929 -0.5146217 -0.6996822 0.8002557 0.66698295 -0.4890893
-0.61013806 -0.57486403 -0.6165383 -0.5303431 -0.596468 0.804681 0.7847208 -0.50674707
-0.61977106 -0.49986678 0.6510137 -0.5445281 0.6842149 -0.6091295 0.72935545 -0.72171897
0.05316048 -0.60039526 -0.58856577 -0.84233797 -0.62557554 0.6979094 -0.6688002 -0.5680587
-0.5259777 -0.503878 0.80253184 0.050158884 -0.6672227 0.772728 -0.46347576 0.6757937
-0.078732714 0.6615338 -0.49791664 0.009345296 0.8820316 0.73689306 -0.5970046 -0.6219641
-0.4839823 -0.588655 -0.08353165 -0.63642395 -0.5724856 0.6424886 -0.5471774 -0.70017236
-0.7619368 -0.5387491 0.6397173 -0.78439754 0.7572872 0.67685753 0.7567414 0.82237315
0.82773453 -0.7559245 0.83174914 0.050429825 -0.6000804 -0.7097087 -0.71566266 -0.47143197
0.7171583 -0.6894863 0.86582893 0.71544296 -0.035847787 0.70582765 -0.5623355 0.7874751
-0.5617565 -0.7968012 0.841947 0.71366507 -0.5860257 -0.4954171 -0.55825704 0.75979286
0.66169775 0.6233228 0.71565515 0.80142885 -0.5882065 0.7700766 -0.63756573 -0.033595797
-0.42775437 0.8684213 0.69299245 -0.57455635 0.7249201 -0.7988463 0.88584477 0.0614066
00000000: ae80 483f 349b 403f 1653 13bd afb6 1abf
00000010: f855 1ebf 8431 cc3b 2141 07bf c648 21bf
00000020: 3628 febe 5ec6 10bf 777e 11bf 8330 19bf
00000030: 0a2e 14bf 83b3 473f 6064 413f be66 2a3f
00000040: 0b82 273f b0d9 00bf 807c 07bf fe7e 44bd
00000050: da53 5e3f 068b 373f 304f 4d3f 8f2f 243f
00000060: 72fa 1dbf 0360 34bf 4aa8 24bf 3fbe 03bf
00000070: 5f1e 33bf 8fdd 4c3f 65bf 2a3f ea69 fabe
00000080: 0232 1cbf 4a2a 13bf 74d5 1dbf 91c4 07bf
00000090: 20b2 18bf 93ff 4d3f 76e3 483f 2dba 01bf
000000a0: 51a9 1ebf 8aee ffbe d5a8 263f 3266 0bbf
000000b0: b528 2f3f e9ef 1bbf 0ab7 3a3f 93c2 38bf
000000c0: cebe 593d 81b3 19bf 3fac 16bf 76a3 57bf
000000d0: b825 20bf 31aa 323f 7d36 2bbf 4c6c 11bf
000000e0: 79a6 06bf 26fe 00bf ba72 4d3f 6773 4d3d
000000f0: 1bcf 2abf 81d1 453f b24c edbe d100 2d3f
00000100: 9e3e a1bd 475a 293f eeee febe 031d 193c
00000110: d3cc 613f 06a5 3c3f 4bd5 18bf 0a39 1fbf
00000120: 87cc f7be 18b2 16bf a412 abbd aeec 22bf
00000130: 6b8e 12bf 227a 243f d113 0cbf 7f3e 33bf
00000140: 4a0e 43bf 76eb 09bf 83c4 233f 47ce 48bf
00000150: 93dd 413f 8946 2d3f ceb9 413f 0c87 523f
00000160: 69e6 533f 4584 41bf 83ed 543f 818f 4e3d
00000170: de9e 19bf 78af 35bf ab35 37bf 885f f1be
00000180: b097 373f 2d82 30bf f7a6 5d3f 4527 373f
00000190: 21d5 12bd 1fb1 343f 38f5 0fbf f897 493f
000001a0: 46cf 0fbf 2afb 4bbf d789 573f c1b2 363f
000001b0: c805 16bf 4fa7 fdbe efe9 0ebf c981 423f
000001c0: 0665 293f 1592 1f3f 2d35 373f 712a 4d3f
000001d0: b494 16bf bd23 453f 8237 23bf bf9b 09bd
000001e0: 9f02 dbbe dc50 5e3f f467 313f 2016 13bf
000001f0: 5d94 393f 3181 4cbf b9c6 623f 7d85 7b3d

weight f4 [128, 128]
-0.018534487 0.13418135 0.08130952 -0.048100524 -0.008174865 -0.108722955 0.22357081 0.055958662
-0.29007387 -0.038540807 -0.28843734 -0.030874722 0.0771849 0.018669702 -0.17311224 -0.11171567
-0.17586811 -0.46568593 -0.23794834 0.18971473 0.16799472 -0.06548691 0.10597872 0.15839946
-0.0065066656 -0.03173403 0.29644972 -0.14457887 0.05850124 -0.09903999 -0.020592593 0.152654
-0.005774384 0.06630642 0.2115912 -0.10479516 0.017516648 -0.82773703 -0.042622276 0.11696819
-0.1327216 0.39619282 0.045358676 0.05927874 0.15336974 -0.19118185 0.015930258 0.16656357
0.11058568 -0.26944244 -0.2370276 0.03387649 0.07218579 0.16451743 -0.1056766 -0.4469524
-0.14855626 -0.023442822 -0.02669109 0.19991116 -0.0024857982 0.22978717 -0.12109459 -0.031323604
-0.49680108 -0.03297293 -0.02081061 -0.01063419 0.106947534 -0.07956385 -0.08769464 -0.117089696
0.0435774 -0.11030654 -0.13117951 -0.091796376 -0.08491959 0.0157703 -0.061237503 0.115150854
-0.07813934 0.04875116 -0.13888904 0.19730817 0.0020443483 -0.15177812 -0.004869077 -0.16525464
-0.120194755 0.105262086 -0.35712752 -0.17444429 0.034030773 0.07015762 -0.0072393715 -0.09145388
0.023412993 -0.25782424 0.16729334 -0.23976554 0.09306784 -0.08090411 0.054277543 -0.047316145
0.2361473 -0.055034183 0.52079874 -0.0082895355 -0.19026148 -0.02736741 -0.28698447 -0.23161674
-0.07137982 -0.06899458 -0.070032656 -0.08941543 0.043797016 0.07039166 0.08885412 -0.20868605
0.1427564 0.033212926 0.1434195 -0.11402484 0.010165671 -0.18866648 0.054490253 -0.114831775
-0.032574806 0.013203149 0.0015423744 0.07525336 -0.019332575 -0.02952724 -0.042873174 0.008058573
0.009091655 0.013982797 0.0036833999 -0.06128317 -0.025059663 -0.070649154 0.043850675 -0.08825365
-0.030357903 0.0126402 0.057394117 0.061485182 -0.07803188 -0.025144164 0.071481876 -0.032843404
-0.08119166 -0.025791975 -0.033565614 -0.06714649 -0.04038662 -0.06825274 0.009501183 -0.03146123
0.058265004 -0.07776851 -0.005373973 0.02164227 0.07249114 -0.07185048 -0.05956712 -0.013866599
0.042714946 -0.07939633 0.06493776 -0.046439853 -0.07625224 -0.027874975 0.006087249 0.047674704
0.07039566 0.021831602 -0.014246879 -0.08498675 -0.033554267 -0.06981251 -0.010278273 -0.091305986
-0.086168006 0.018810509 -0.06429036 -0.03745812 -0.023461526 -0.011633478 -0.075339735 0.059367966
0.07228803 0.02501616 -0.04831811 0.029529024 0.049616706 0.024234911 -0.0024009044 0.08175104
-0.060257837 -0.070504025 0.007099269 -0.053959955 0.053069565 0.075866014 -0.046665978 -0.06566146
0.037314758 0.041729417 -0.06138787 -0.014117831 -0.058840442 0.0146459695 -0.092161804 0.034789447
-0.089490674 0.036567163 -0.042768013 -0.069415584 -0.07822265 -0.03464668 0.049156394 -0.02401431
-0.07193532 -0.028112147 -0.07971409 -0.07916095 -0.05449103 -0.07128046 -0.0804468 -0.08405829
0.08164968 0.070850424 0.08619745 -0.08298076 -0.01721117 0.034810778 0.06636655 0.045828458
-0.09626981 0.050358288 -0.029462446 -0.023836391 -0.08299354 0.060732555 -0.021369863 0.05779131
0.069870576 -0.040870916 0.04318681 0.0028315198 0.034630444 -0.06657577 -0.0041893143 -0.0081395
00000000: a3d5 97bc d666 093e 9b85 a63d 0e05 45bd
00000010: deef 05bc 24aa debd bfef 643e e934 653d
00000020: 9084 94be f7dc 1dbd 0fae 93be fcec fcbc
00000030: 1e13 9e3d 34f1 983c 5644 31be 2fcb e4bd
00000040: c516 34be 636e eebe bba8 73be 9444 423e
00000050: cf06 2c3e 001e 86bd 5f0b d93d 7833 223e
00000060: de35 d5bb 8bfb 01bd 42c8 973e 7c0c 14be
00000070: ff9e 6f3d 7ad5 cabd ccb1 a8bc 5551 1c3e
00000080: 0b37 bdbb a9cb 873d 5dab 583e d89e d6bd
00000090: 137f 8f3c 93e6 53bf b294 2ebd 058d ef3d
000000a0: 2ce8 07be c9d9 ca3e 05ca 393d 44ce 723d
000000b0: f50c 1d3e 2dc5 43be 2c80 823c a48f 2a3e
000000c0: bf7a e23d 5cf4 89be 5db7 72be 13c2 0a3d
000000d0: 25d6 933d 4277 283e f96c d8bd f2d6 e4be
000000e0: 221f 18be 290b c0bc 46a7 dabc 83b5 4c3e
000000f0: c6e8 22bb 544d 6b3e 7100 f8bd 2e4d 00bd
00000100: b65c febe a00e 07bd 037b aabc 073b 2ebc
00000110: 4f07 db3d 5ff2 a2bd 3f99 b3bd b9cc efbd
00000120: 377e 323d 65e8 e1bd ec53 06be bdff bbbd
00000130: 52ea adbd b730 813c 2dd4 7abd 36d4 eb3d
00000140: 8507 a0bd 4caf 473d ee38 0ebe 270b 4a3e
00000150: 79fa 053b b96b 1bbe c78c 9fbb 8338 29be
00000160: ab28 f6bd a693 d73d 6bd9 b6be 86a1 32be
00000170: da63 0b3d ccae 8f3d 4038 edbb 2c4c bbbd
00000180: 9bcc bf3c 8a01 84be f24e 2b3e 1985 75be
00000190: 5a9a be3d 0eb1 a5bd 2152 5e3d 93ce 41bd
000001a0: 99d0 713e 866b 61bd 1153 053f d5d0 07bc
000001b0: e8d3 42be 9e31 e0bc a1ef 92be f02c 6dbe
000001c0: 952f 92bd 084d 8dbd 486d 8fbd 701f b7bd
000001d0: 8064 333d 8129 903d 26f9 b53d ccb1 55be
000001e0: bc2e 123e 470a 083d 90dc 123e db85 e9bd
000001f0: ea8d 263c c931 41be 2c31 5f3d ec2c ebbd
00000200: 296d 05bd 0552 583c 7f29 ca3a 6f1e 9a3d
00000210: 595f 9ebc 1ce3 f1bc c89b 2fbd 1b08 043c
00000220: 2af5 143c 1a18 653c 3265 713b 1004 7bbd
00000230: ec49 cdbc 81b0 90bd c49c 333d 54be b4bd
00000240: 23b1 f8bc d718 4f3c 1816 6b3d e3d7 7b3d
00000250: 2ecf 9fbd 22fb cdbc 1765 923d ce86 06bd
00000260: d047 a6bd b149 d3bc 197c 09bd 1984 89bd
00000270: 716c 25bd 18c8 8bbd daaa 1b3c 7edd 00bd
00000280: 49a7 6e3d 1945 9fbd 2718 b0bb 214b b13c
00000290: 3c76 943d 5826 93bd a7fc 73bd bb30 63bc
000002a0: def5 2e3d 8b9a a2bd 17fe 843d b737 3ebd
000002b0: 222a 9cbd 0f5a e4bc 8c77 c73b 8d46 433d
000002c0: 9a2b 903d 30d8 b23c be6b 69bc 880d aebd
000002d0: 3370 09bd dcf9 8ebd 3466 28bc a2fe babd
000002e0: da78 b0bd 7f18 9a3c aaaa 83bd b06d 19bd
000002f0: 6332 c0bc 589a 3ebc b84b 9abd d32b 733d
00000300: bf0b 943d b1ee cc3c 36e9 45bd dae6 f13c
00000310: e33a 4b3d 4b88 c63c 7e58 1dbb 176d a73d
00000320: ecd0 76bd 6a64 90bd fca0 e83b 1d05 5dbd
00000330: 795f 593d a45f 9b3d d324 3fbd 8479 86bd
00000340: 5cd7 183d 77ec 2a3d d971 7bbd 7a4e 67bc
00000350: ad02 71bd a6f5 6f3c 54bf bcbd 617f 0e3d
00000360: e346 b7bd 73c7 153d 832d 2fbd c229 8ebd
00000370: 3233 a0bd ade9 0dbd 3758 493d a9b9 c4bc
00000380: d352 93bd 724b e6bc 2441 a3bd 231f a2bd
00000390: fc31 5fbd 7dfb 91bd 4bc1 a4bd c126 acbd
000003a0: f337 a73d 071a 913d 4a88 b03d d1f1 a9bd
000003b0: 71fe 8cbc bf95 0e3d 30eb 873d 9fb6 3b3d
000003c0: 1b29 c5bd 7e44 4e3d 3a5b f1bc 8944 c3bc
000003d0: 84f8 a9bd b3c2 783d da0f afbc 95b6 6c3d
000003e0: 4e18 8f3d 4368 27bd a7e4 303d 0591 393b
000003f0: a7d8 0d3d e158 88bd 8446 89bb 8a5b 05bc

bias f4 [128]
0.07483165 0.035764415 0.1299461 0.030755386 -0.032510657 0.09782402 0.06273402 0.04342034
0.097226895 -0.009843556 -0.025540205 0.024251863 0.053053387 -0.011921888 0.19443244 0.10251401
-0.039516166 0.0027666339 0.057805445 0.013642061 0.015424708 -0.009093005 0.024446918 0.07792028
-0.095782414 -0.029918864 0.08822851 0.12027883 -0.00067230524 0.014950273 0.13413645 0.01902774
0.12288592 -0.036023073 0.046938412 0.02215596 0.1065061 -0.0009911743 0.08191593 0.13010873
0.06209434 0.09069567 0.021628829 -0.0047836844 -0.063188575 -0.14063136 0.032769833 -0.011181246
0.05213829 0.03128262 0.13293502 0.050390467 0.039401557 0.12970828 0.027496789 0.046346534
0.069929264 0.0066648084 0.01287009 0.09878302 -0.048752327 0.07121279 0.029252078 0.077826984
0.015541817 -0.024873618 -0.035968784 -0.018794648 0.14141856 -0.007989715 -0.009319229 -0.04078816
0.0560778 -0.0054632016 0.106913455 0.13247626 0.1462617 0.12221051 -0.024772096 0.099085264
-0.020518687 -0.010897897 0.048146117 -0.04500514 0.2255425 0.09005137 0.051031828 0.07694381
-0.09879934 -0.03514419 -0.027572772 0.05792731 0.0880133 0.052518923 0.02858089 -0.008696751
-0.025948929 0.1477361 0.00874028 0.09356956 -0.003955104 -0.06882338 -0.021948706 0.024095057
0.09165844 0.0639683 -0.06915166 0.039388373 0.09221286 -0.038532585 0.18042107 -0.052813917
-0.051109083 0.14522034 0.035026524 -0.005466094 -0.063408926 -0.011065834 -0.044596262 -0.03346917
-0.08072358 0.052242447 0.15647087 -0.054125264 0.054923974 0.10603858 0.14350311 -0.009095929
00000000: 5641 993d b57d 123d 9710 053e b8f2 fb3c
00000010: e529 05bd f657 c83d b27a 803d 87d9 313d
00000020: e51e c73d de46 21bc b139 d1bc d8ab c63c
00000030: 824e 593d 0654 43bc 4c19 473e def2 d13d
00000040: b4db 21bd 6a50 353b 67c5 6c3d f382 5f3c
00000050: eab7 7c3c d4fa 14bc e744 c83c ab94 9f3d
00000060: 9229 c4bd 6818 f5bc 26b1 b43d bf54 f63d
00000070: a43d 30ba fdf1 743c 115b 093e 10e0 9b3c
00000080: 9dab fb3d ee8c 13bd 7e42 403d 6a80 b53c
00000090: df1f da3d 4aea 81ba 8ac3 a73d 393b 053e
000000a0: a256 7e3d a7be b93d f12e b13c 74c0 9cbb
000000b0: 0369 81bd ab01 10be a939 063d 8b31 37bc
000000c0: f68e 553d 3422 003d 1e20 083e 3c66 4e3d
000000d0: 8763 213d 3fd2 043e f240 e13c ddd5 3d3d
000000e0: 1337 8f3d 7764 da3b 12dd 523c c14e ca3d
000000f0: 85b0 47bd 03d8 913d 0ea2 ef3c c163 9f3d
00000100: 1ba3 7e3c c2c3 cbbc 0154 13bd 3cf7 99bc
00000110: 07d0 103e 4be7 02bc aeaf 18bc 7c11 27bd
00000120: d6b1 653d a804 b3bb 71f5 da3d dba7 073e
00000130: a1c5 153e 8149 fa3d daee cabc 37ed ca3d
00000140: ce16 a8bc 188d 32bc dd34 453d 4f57 38bd
00000150: 9df4 663e da6c b83d c006 513d b794 9d3d
00000160: 4f57 cabd 5bf3 0fbd 4be0 e1bc 3045 6d3d
00000170: 5140 b43d 151e 573d 7822 ea3c d17c 0ebc
00000180: d992 d4bc 2248 173e 6433 0f3c 66a1 bf3d
00000190: d199 81bb 46f3 8cbd c6cd b3bc ff62 c53c
000001a0: 6cb7 bb3d d001 833d 639f 8dbd b455 213d
000001b0: 19da bc3d 58d4 1dbd 4dc0 383e 6853 58bd
000001c0: c257 51bd a4b4 143e f977 0f3d eb1c b3bb
000001d0: 8adc 81bd 794d 35bc 92aa 36bd f816 09bd
000001e0: 6852 a5bd 2dfc 553d e639 203e 74b2 5dbd
000001f0: f6f7 603d c12a d93d 7bf2 123e 1707 15bc

weight f4 [4, 128]
-0.02427706 0.084736735 0.22108033 -0.06694847 0.08036792 0.11031979 0.17336743 -0.04585622
0.01819037 -0.14961097 -0.18876879 0.20545304 -0.0023668022 0.14248724 -0.30800053 0.23822357
0.052407585 0.062863246 0.09389848 -0.14497152 -0.10764033 0.12494669 -0.076572984 -0.44892207
-0.031677946 0.20241371 0.046124794 0.03561424 0.07108608 0.0076152203 0.019424843 -0.031012652
-0.0038014045 -0.0782823 -0.53630084 -0.16464318 0.10877809 -0.06398113 -0.0005255807 0.28867367
-0.10095857 -0.051446117 0.27976078 -0.09751077 0.04586622 -0.058394462 -0.11958042 0.022205578
-0.06319515 -0.1741227 0.07120455 0.039927322 0.1376789 0.23123868 0.05021664 0.14347602
-0.009137332 0.16768268 -0.024996327 -0.03193605 -0.10973949 0.16189204 -0.04650951 0.022566674
-0.1095279 -0.12611862 -0.08367727 0.12396571 0.16340204 -0.0056971507 0.030310903 -0.04236845
-0.023140581 -0.2048223 0.012287762 -0.037199702 0.1997055 0.0013268454 0.09848419 0.058480084
0.04675078 -0.04472033 0.06101933 -0.05182492 -0.076124884 0.012754257 0.028730694 -0.016041957
0.08823653 -0.12803514 0.028523967 0.10666358 -0.1001341 0.1755631 0.2648686 0.010593045
-0.1644626 0.0025060154 0.24565743 0.21359771 0.055360615 -0.009139099 -0.047190767 0.017812908
-0.096279085 0.2520973 -0.049634106 -0.10031822 0.04066593 -0.0401344 0.13359894 -0.38416734
-0.06938512 0.095773235 -0.058622357 0.03426974 -0.061130628 -0.035836447 -0.11128565 -0.167217
0.22946484 0.16432413 0.108384594 0.04985826 -0.034212925 -0.19533736 -0.33255762 0.1600468
0.5259132 0.06361225 0.16125228 -0.47490388 -0.1643045 -0.30788916 0.4593746 0.280826
0.26576912 -0.10768252 -0.1210031 -0.026005097 -0.23511511 -0.16955632 -0.67068297 0.3685751
0.28516078 -0.08097487 0.18092524 -0.41745615 0.27153927 -0.2740181 -0.047843818 -0.27832955
-0.021061717 0.23996899 0.33265406 0.39079657 0.30251288 -0.22094458 -0.32927126 -0.16826579
0.2580997 -0.0026316224 -0.14816016 -0.08275655 0.18800172 -0.3867455 -0.32901374 0.4785285
-0.092717454 0.023087857 -0.29189634 -0.058207612 0.35262838 -0.43588546 -0.27881363 0.119686134
-0.03418899 -0.94351804 -0.3238268 -0.020086292 0.34500098 0.14447239 -0.3933049 0.1678085
-0.84492123 -0.07943107 -0.05132246 0.013743481 -0.06149453 -0.23467642 0.21970154 -0.22802989
-0.14548025 0.23265967 0.046854693 -0.16271946 0.45162356 -0.049557526 -0.08283694 -0.07840363
0.43091643 -0.39250815 0.11953122 -0.1372375 0.16277823 -0.9047853 -0.2797371 -0.3190914
0.002872824 0.027708357 0.23227 -0.14876145 -0.66864246 0.25538853 0.54516524 0.37933078
0.4880786 -0.18878236 -0.058645975 0.43222025 0.23231529 0.3654649 0.20390071 -0.27234748
-0.16344038 0.30904192 0.39467388 -0.22500104 -0.03902485 0.01863063 -0.059920654 -0.074520536
-0.09325703 -0.12633836 -0.19627005 -0.06532629 -0.3187166 -0.099331714 -0.1675964 -0.21615444
0.047818776 -0.21140337 0.21833265 0.08831564 0.07128836 0.016301937 0.15985842 -0.0712096
0.27271327 0.19392505 0.27407858 0.45707256 -0.44945115 0.3963917 -0.24311316 -0.025070665
00000000: afe0 c6bc 748a ad3d e262 623e 481c 89bd
00000010: f097 a43d 58ef e13d 3b87 313e bbd3 3bbd
00000020: f903 953c 9e33 19be 9b4c 41be 4862 523e
00000030: 5a1c 1bbb 2de8 113e 3fb2 9dbe e1f0 733e
00000040: 56a9 563d 72be 803d d94d c03d 6a73 14be
00000050: 8972 dcbd 0de4 ff3d 4cd2 9cbd 1dd9 e5be
00000060: bcc0 01bd 8a45 4f3e 5aed 3c3d 3de0 113d
00000070: 9495 913d 1989 f93b d920 9f3c 3f0e febc
00000080: fc20 79bb 7852 a0bd 034b 09bf 3998 28be
00000090: 0cc7 de3d 8a08 83bd 20c7 09ba 09cd 933e
000000a0: 5ec3 cebd 2ab9 52bd ce3c 8f3e bab3 c7bd
000000b0: 38de 3b3d 082f 6fbd 94e6 f4bd 79e8 b53c
000000c0: 756c 81bd 394d 32be b1d3 913d d58a 233d
000000d0: b3fb 0c3e d5c9 6c3e f7af 4d3d 61eb 123e
000000e0: c0b4 15bc 02b5 2b3e 19c5 ccbc 60cf 02bd
000000f0: 19bf e0bd 07c7 253e c280 3ebd bfdd b83c
00000100: 2a50 e0bd 3d25 01be fd5e abbd bce1 fd3d
00000110: dd52 273e 2aaf babb 924e f83c 8a8a 2dbd
00000120: 5191 bdbc f0bc 51be 9c52 493c b75e 18bd
00000130: 997f 4c3e 8be9 ad3a 14b2 c93d d088 6f3d
00000140: bf7d 3f3d aa2c 37bd 68ef 793d 5e46 54bd
00000150: 5de7 9bbd 3bf7 503c a25c eb3c 6c6a 83bc
00000160: 5bb5 b43d a51b 03be 18ab e93c 6f72 da3d
00000170: 1b13 cdbd d0c6 333e db9c 873e 738e 2d3c
00000180: e268 28be f63b 243b 9f8d 7b3e 5cb9 5a3e
00000190: d0c1 623d 29bc 15bc 1b4b 41bd 60ec 913c
000001a0: f82d c5bd e612 813e 224d 4bbd a473 cdbd
000001b0: 5191 263d f863 24bd 29ce 083e 95b1 c4be
000001c0: c919 8ebd c224 c43d ff1d 70bd 6d5e 0c3d
000001d0: 1c64 7abd 3dc9 12bd bbe9 e3bd ef3a 2bbe
000001e0: d5f8 6a3e 9644 283e bef8 dd3d 2d38 4c3d
000001f0: da22 0cbd 8406 48be fe44 aabe 4fe3 233e
00000200: 3fa2 063f 2447 823d 511f 253e 9a26 f3be
00000210: 703f 28be a6a3 9dbe 2633 eb3e 6dc8 8f3e
00000220: e412 883e a788 dcbd 79d0 f7bd a408 d5bc
00000230: 04c2 70be 2ca0 2dbe e1b1 2bbf e0b5 bc3e
00000240: 9800 923e 27d6 a5bd 7744 393e d0bc d5be
00000250: 3207 8b3e 1a4c 8cbe e1f7 43bd 3681 8ebe
00000260: 9f89 acbc 6eba 753e a251 aa3e 7d16 c83e
00000270: f8e2 9a3e 4c3f 62be 3e96 a8be de4d 2cbe
00000280: a525 843e 4c77 2cbb 4cb7 17be 447c a9bd
00000290: 8683 403e 8203 c6be 7d74 a8be b001 f53e
000002a0: a6e2 bdbd bf22 bd3c 7073 95be 1b6b 6ebd
000002b0: b58b b43e 612c dfbe a9c0 8ebe 011e f53d
000002c0: c109 0cbd 668a 71bf a0cc a5be 028c a4bc
000002d0: f8a3 b03e 92f0 133e 435f c9be fed5 2b3e
000002e0: c24c 58bf c2ac a2bd 8037 52bd 562c 613c
000002f0: b0e1 7bbd 044f 70be 71f9 603e ab80 69be
00000300: c6f8 14be 563e 6e3e b5ea 3f3d ee9f 26be
00000310: 343b e73e d5fc 4abd 6aa6 a9bd 1592 a0bd
00000320: 14a1 dc3e d4f6 c8be c9cc f43d fd87 0cbe
00000330: 56af 263e 02a0 67bf b339 8fbe f35f a3be
00000340: fd45 3c3b a3fc e23c 30d8 6d3e ec54 18be
00000350: 272c 2bbf 49c2 823e f38f 0b3f a537 c23e
00000360: 70e5 f93e 2a50 41be c336 70bd f94b dd3e
00000370: 0fe4 6d3e 371e bb3e 59cb 503e 2171 8bbe
00000380: ea5c 27be be3a 9e3e b212 ca3e ac66 66be
00000390: 85d8 1fbd 439f 983c 5c6f 75bd 399e 98bd
000003a0: 8bfd bebd d85e 01be 04fb 48be cac9 85bd
000003b0: d22e a3be 6d6e cbbd 649e 2bbe 9757 5dbe
000003c0: 9fdd 433d 207a 58be 9892 5f3e d5de b43d
000003d0: a2ff 913d a48b 853c edb1 233e 57d6 91bd
000003e0: 13a1 8b3e 4a94 463e 0754 8c3e 6a05 ea3e
000003f0: 761e e6be daf3 ca3e a8f2 78be ff60 cdbc

bias f4 [4]
0.037290398 0.04824061 -0.074652575 -0.019865489
00000000: d1bd 183d f297 453d 73e3 98bd f3bc a2bc
