problem1/models/underway/success_whole_model_1767028694.pth (torch, 146613 bytes, 9 tensors)

weight f4 [128, 8]
0.15890838 -0.11148763 -0.51594937 -0.723515 0.35902864 -0.16205488 0.047593422 0.21747087
-0.27205402 0.17694424 -0.42209804 0.8262408 0.13335915 -0.25705922 0.0043212515 0.032509893
0.17887235 0.20471084 -0.3153119 0.4629869 0.1012733 0.49271706 0.5070173 0.33334678
-0.28156817 -0.3090976 -0.18238324 -0.637066 0.346543 -0.030313496 -0.07683621 -0.096665524
-0.06816467 -0.12771891 0.1092712 0.20760542 0.16426435 0.48428714 0.5210503 0.22204508
0.024585528 0.44821954 -0.5125219 0.068186045 0.5584071 -0.3588263 -0.21365789 -0.15753584
0.5266564 0.46644807 -0.39206567 0.04040469 0.2725285 0.120936796 -0.25493932 0.08107425
0.15208216 -0.07720533 -0.13317688 0.08989909 -0.094149016 -0.7317434 0.06154336 0.29511863
0.11516026 -0.14400235 -0.12263161 -0.05134596 -0.28311738 -0.6359177 -0.5849655 0.24856278
-0.17533827 -0.47019818 0.16782817 -0.5523235 -0.024901118 -0.2921351 -0.59922683 0.029317698
0.5166408 -0.0661745 -0.25992438 -0.22901733 0.1899955 -0.30543202 -0.19802217 -0.27810276
0.0023574568 0.4672113 0.26874065 0.7799583 -0.13413274 -0.15284261 -0.04436928 -0.39734948
-0.4518563 0.38015264 0.381932 -0.24892154 -0.32648528 0.5152728 -0.0005698432 -0.31341892
-0.04065508 -0.062163576 0.2968343 -0.30215886 0.051464412 0.35007572 0.28598067 -0.013391137
-0.01681439 -0.3157921 -0.039847262 -0.7089265 -0.020816168 -0.36118594 0.23451784 -0.14220853
-0.1308162 -0.08846126 0.0309276 1.1436155 0.30616167 -0.33477128 -0.24827908 0.5430918
0.23692034 0.36336347 0.37054807 1.4991815 0.32738656 -0.12775129 -0.12355065 -0.34538978
0.12542199 0.41172713 -0.42245883 -0.09968693 0.40483513 -0.17431396 -0.19387053 0.28802738
-0.3776242 0.30085227 -0.15996227 0.087142006 0.56734216 0.39958397 -0.50874466 -0.33033276
-0.040096328 -0.2617448 0.35112703 1.3743348 0.0702248 0.38617963 0.43630198 0.30001515
-0.3132842 -0.059889697 1.0056201 0.74595046 0.4721242 0.0075141992 -0.13967372 0.47651538
0.2161503 -0.05614158 -0.09641749 -0.17978276 0.061876837 -0.68729824 -0.46145406 0.12352328
0.21845575 -0.19218203 0.20342399 -0.15483989 -0.23205231 -0.3412585 0.16679734 -0.0819222
0.026503902 0.46595296 0.29037797 0.1507016 -0.24506104 -0.50941616 -0.016057689 0.39210325
-0.050564952 0.019636389 -0.26448148 0.45370132 0.28023973 0.42586327 -0.2707509 -0.2697068
0.45386875 -0.042425044 0.4086806 -0.4491439 -0.5999795 0.114241436 0.1372868 -0.2759234
0.13996151 -0.34525615 0.14788145 -0.070389055 0.22271694 0.22716445 -0.10486308 0.09264138
0.29104462 0.47053123 -0.25729895 1.089029 -0.17304844 -0.06692376 -0.33080143 -0.22927132
-0.15188308 -0.209779 -0.13547555 0.13023986 -0.03090156 0.56458664 -0.40504372 -0.10277719
-0.3112429 -0.14138131 -0.22236557 0.03873168 0.61344504 0.6999219 0.03527158 0.12608889
-0.37841 0.25312746 -0.1962651 -0.32755557 0.6902837 -0.21039602 0.14211461 -0.04101726
-0.25464967 -0.18178593 -0.24045186 -0.17445832 -0.009675968 0.535307 -0.13231964 -0.15467393
00000000: e1b8 223e a053 e4bd 4215 04bf 4738 39bf
00000010: 9ad2 b73e b7f1 25be 52f1 423d afb0 5e3e
00000020: aa4a 8bbe df30 353e 3c1d d8be 8484 533f
00000030: 4d8f 083e 449d 83be 4999 8d3b 1829 053d
00000040: 502a 373e b89f 513e 9070 a1be 9e0c ed3e
00000050: 6068 cf3d 6945 fc3e e3cb 013f 6eac aa3e
00000060: b429 90be 0a42 9ebe acc2 3abe c216 23bf
00000070: 166e b13e 0254 f8bc 4e5c 9dbd 93f8 c5bd
00000080: eb99 8bbd bfc8 02be 94c9 df3d 8496 543e
00000090: ea34 283e 7cf4 f73e 8d63 053f c95f 633e
000000a0: 9767 c93c 087d e53e a334 03bf 20a5 8b3d
000000b0: c5f3 0e3f 15b8 b7be 22c9 5abe 1351 21be
000000c0: f4d2 063f 48d2 ee3e d5bc c8be 637f 253d
000000d0: db88 8b3e b6ad f73d 6887 82be 420a a63d
000000e0: 6dbb 1b3e d41d 9ebd 855f 08be 041d b83d
000000f0: 33d1 c0bd 8953 3bbf e414 7c3d ca19 973e
00000100: 24d9 eb3d 5a75 13be 4826 fbbd 2450 52bd
00000110: c3f4 90be 81cb 22bf 4dc0 15bf 3e87 7e3e
00000120: e08b 33be d1bd f0be 26db 2b3e 1365 0dbf
00000130: 6efd cbbc bb92 95be ee66 19bf ab2b f03c
00000140: 9242 043f 7f86 87bd cf14 85be 8583 6abe
00000150: 2e8e 423e 9661 9cbe 53c6 4abe 7c63 8ebe
00000160: 907f 1a3b 5236 ef3e 6098 893e 59ab 473f
00000170: 185a 09be c682 1cbe 90bc 35bd 6471 cbbe
00000180: b559 e7be 5ea3 c23e 978c c33e 4ae5 7ebe
00000190: 1429 a7be ebe8 033f 8861 15ba 7278 a0be
000001a0: f185 26bd 3c9f 7ebd aafa 973e 91b4 9abe
000001b0: 59cc 523d 203d b33e 0f6c 923e 8066 5bbc
000001c0: 55be 89bc 81af a1be e236 23bd 357c 35bf
000001d0: ab86 aabc 5ded b8be 7225 703e 1d9f 11be
000001e0: aff4 05be 2d2b b5bd e15b fd3c fe61 923f
000001f0: 39c1 9c3e 2467 abbe df3c 7ebe 1008 0b3f
00000200: 3f9b 723e c70a ba3e 7ab8 bd3e 2ee5 bf3f
00000210: 369f a73e 3cd1 02be 2008 fdbd eed6 b0be
00000220: 9f6e 003e e6cd d23e 864c d8be a928 ccbd
00000230: 8d46 cf3e 5c7f 32be ff85 46be 5378 933e
00000240: f657 c1be 4f09 9a3e 26cd 23be 8277 b23d
00000250: 563d 113f 4596 cc3e 173d 02bf 6021 a9be
00000260: 0c3c 24bd 6a03 86be ecc6 b33e 34ea af3f
00000270: 05d2 8f3d 56b9 c53e f962 df3e 969b 993e
00000280: c966 a0be e64e 75bd 29b8 803f 9cf6 3e3f
00000290: 43ba f13e ac39 f63b a106 0fbe d3f9 f33e
000002a0: 8156 5d3e b7f4 65bd 8876 c5bd f918 38be
000002b0: 9172 7d3d c7f2 2fbf b543 ecbe c6f9 fc3d
000002c0: ddb2 5f3e 5ecb 44be 614e 503e 598e 1ebe
000002d0: 1f9f 6dbe 6fb9 aebe eccc 2a3e d4c6 a7bd
000002e0: b61e d93c 6391 ee3e 6cac 943e 8551 1a3e
000002f0: 48f1 7abe 1969 02bf 6a8b 83bc c2c1 c83e
00000300: 321d 4fbd 7edc a03c 1e6a 87be 8a4b e83e
00000310: 957b 8f3e c00a da3e dd9f 8abe 0217 8abe
00000320: 7c61 e83e e2c5 2dbd 953e d13e 30f6 e5be
00000330: 4298 19bf 6af7 e93d e994 0c3e d545 8dbe
00000340: 1252 0f3e 6ac5 b0be 3c6e 173e 2328 90bd
00000350: e90f 643e cc9d 683e 74c2 d6bd c4ba bd3d
00000360: cd03 953e 78e9 f03e b0bc 83be 4d65 8b3f
00000370: 9c33 31be 530f 89bd ce5e a9be 1ac6 6abe
00000380: 3d87 1bbe 4ed0 56be 1aba 0abe 995d 053e
00000390: 4525 fdbc c088 103f e461 cfbe d97c d2bd
000003a0: 3b5b 9fbe 43c6 10be cdb3 63be 1ca5 1e3d
000003b0: bc0a 1d3f 152e 333f ef78 103d 721d 013e
000003c0: f5be c1be ec99 813e b8f9 48be 5db5 a7be
000003d0: 6fb6 303f 0e72 57be 7e86 113e b701 28bd
000003e0: 7161 82be 1726 3abe 0339 76be 34a5 32be
000003f0: f487 1ebc e109 093f cd7e 07be d862 1ebe

bias f4 [128]
0.13321032 -0.26244935 0.2952484 0.4319994 0.01593784 0.26347953 0.16352105 0.10201657
0.27521405 -0.1466941 0.17337823 0.15643391 0.24332449 0.21422796 0.09582865 -0.2044614
-0.40690643 0.40217006 -0.1631082 -0.23828046 0.030510083 0.19920963 0.3897674 -0.2395779
-0.3399846 -0.2231674 0.508102 0.009202469 0.23544668 -0.2743341 0.37948927 0.17930593
-0.044048306 0.12791277 0.44800264 0.40320006 0.123795286 0.16189551 -0.21340819 0.2255794
0.052895978 -0.0461579 0.2084982 0.20831382 0.16384485 0.24810342 0.010571017 0.31177622
0.19533268 -0.26699877 -0.1608153 0.41405168 -0.20969528 0.3691625 0.02560093 0.41257602
0.065480545 0.18626738 0.2995364 0.2712471 0.14184411 0.2639026 0.39437804 0.16839013
0.35704464 0.3259335 0.3135155 0.45758596 0.053014744 -0.007552189 0.099001825 0.022292858
-0.007801602 0.26589355 0.51247567 0.2452586 0.09431793 0.3915556 -0.34935176 0.12563486
0.45249575 0.3829711 0.1041557 0.50234926 0.36716112 0.18405241 -0.24875873 0.5198093
-0.07068566 0.39994067 0.2639054 0.05334392 0.5344169 0.3173745 0.2079303 0.2197975
0.37987512 0.33055323 0.33307746 -0.153595 -0.42441335 0.14176013 0.21296038 0.2980556
0.06996203 0.059594955 -0.0163367 0.29959 0.32769018 0.11053525 -0.10201457 0.46989933
0.03418754 -0.41454777 0.39210233 -0.13095842 0.22034584 0.07722388 0.25871244 0.5140993
0.25810608 0.09680814 -0.03467831 0.13856071 0.38695157 0.15712674 0.35859987 0.03940058
00000000: 4968 083e c35f 86be cc2a 973e 062f dd3e
00000010: 1390 823c cae6 863e 1072 273e 10ee d03d
00000020: dbe8 8c3e fa36 16be 108a 313e 3630 203e
00000030: 0e2a 793e 935e 5b3e d041 c43d 545e 51be
00000040: 0a56 d0be 3ce9 cd3e d605 27be cbff 73be
00000050: 48f0 f93c 9cfd 4b3e 988f c73e e953 75be
00000060: 7612 aebe ff85 64be f912 023f f4c5 163c
00000070: ef18 713e 8575 8cbe 6b4c c23e f99b 373e
00000080: ff6b 34bd 91fb 023e 9a60 e53e 3d70 ce3e
00000090: 6288 fd3d f0c7 253e ad87 5abe 49fe 663e
000000a0: 74a9 583d 1110 3dbd 8d80 553e 3850 553e
000000b0: f2c6 273e d30e 7e3e 0f32 2d3c 22a1 9f3e
000000c0: 4a05 483e 10b4 88be c4ac 24be 95fe d33e
000000d0: 5cba 56be de02 bd3e 0bb9 d13c 2a3d d33e
000000e0: aa1a 863d e0bc 3e3e d65c 993e e6e0 8a3e
000000f0: 953f 113e 3e1e 873e ebeb c93e 766e 2c3e
00000100: 8ece b63e c1e0 a63e 1b85 a03e b548 ea3e
00000110: fd25 593d 5a78 f7bb 78c1 ca3d 839f b63c
00000120: 95a4 ffbb 3323 883e 9b31 033f 1225 7b3e
00000130: c229 c13d fa79 c83e 3cde b2be 6da6 003e
00000140: 86ad e73e ca14 c43e 954f d53d f699 003f
00000150: 8bfc bb3e 3c78 3c3e 9cba 7ebe 3912 053f
00000160: a5c3 90bd 06c5 cc3e 9c1e 873e 277f 5a3d
00000170: 8ccf 083f e97e a23e aeeb 543e 9912 613e
00000180: fe7e c23e 463e a93e 2189 aa3e 0248 1dbe
00000190: b54c d9be 9129 113e 4912 5a3e be9a 983e
000001a0: 4148 8f3d d719 743d 8bd4 85bc dc63 993e
000001b0: 02c7 a73e 4e60 e23d 04ed d0bd a596 f03e
000001c0: 3c08 0c3d 9b3f d4be a3c1 c83e f719 06be
000001d0: 57a2 613e 8e27 9e3d f575 843e 039c 033f
000001e0: 7b26 843e 5943 c63d d80a 0ebd dce2 0d3e
000001f0: 841e c63e d5e5 203e 679a b73e 8162 213d

weight f4 [128, 128]
0.39027378 0.82794684 -0.18457109 0.22551936 -1.161042 0.11972977 0.20155045 0.09939779
0.09992424 0.06656378 -0.07459206 0.18114015 -0.04685543 -1.6426988 -0.15255144 0.26409745
0.4644498 0.19134869 -0.16281441 -0.8703893 0.056822952 -0.033136617 -0.1438428 0.17330529
-0.21307573 -0.08717657 -0.62698597 0.20380552 -0.709448 -0.42169738 0.021055276 -0.83551925
-0.4509807 -0.41051334 -0.012172319 0.061884914 -0.070980415 0.11878785 -0.7131565 0.268625
1.207363 -0.007567522 0.450211 0.1606969 0.13626571 0.27366602 -0.3959502 0.15642244
-0.23414251 -0.3810592 0.010766003 -0.5842526 -0.13301863 -0.16502231 -0.6672584 -0.18404593
-0.7240696 -0.70158863 -0.0277437 0.09931893 -0.2434579 -0.17363311 -0.022105038 0.16909125
0.15923283 0.081519604 -0.4801811 0.5244002 -1.3423269 0.6140426 0.14627181 0.37382433
0.48098084 -0.34117764 0.01717589 -0.32753503 -0.16609006 -0.1800347 -0.034119837 -0.67005825
-0.15555069 -0.14536838 0.06455063 -0.71695286 -0.3865958 -0.09349655 -0.21748045 0.0907032
-0.080323756 -0.5934296 -0.016164495 -0.19523351 0.042796 -0.24849889 -0.817952 0.056090493
0.10383207 -0.048834965 -0.1589518 -0.5257931 0.2273747 0.37319335 -0.20852958 -0.4361501
1.1297477 0.03534127 -0.25422445 0.29462898 0.6775549 0.018719694 -0.60176224 -0.020071156
-0.4901082 0.49706903 0.038811684 0.21032235 0.61183244 0.28635356 -0.5446027 0.11057445
-0.14863712 0.12977152 0.23742783 0.27063382 0.016102336 0.3845553 -0.0074910657 -0.019813385
-0.2846236 -0.3420634 0.15145448 -0.280922 0.2023663 -0.085692935 -0.21082908 0.25660205
0.17494023 0.5145851 0.05820357 0.31283587 -0.13015625 0.21614312 0.06935944 0.4552576
-0.13618849 -0.20811045 0.263869 0.2597927 0.07537886 0.22488396 0.099496014 0.21235591
0.41551247 0.5287972 0.108611725 -0.06672282 -0.09673481 -0.024053346 -0.136834 0.042276632
0.042076584 0.04572096 -0.08265966 0.0881059 -0.07740155 -0.02843239 0.25794393 0.22594942
-0.52359223 0.18688315 0.115426645 0.19595233 0.014784823 0.14422286 0.24593788 0.18150142
-0.09346485 0.22515865 0.1775283 0.17217372 0.25038326 0.03405448 0.14372 0.12752666
-0.071065255 0.2648628 -0.0058800015 0.3263833 0.12911843 0.073107354 -0.04695425 -0.30203426
-0.10496233 0.05150783 0.11900322 -0.5474735 0.19831765 -0.3039963 0.43535557 0.29962862
-0.5992598 0.012096633 -0.10910827 0.11508633 0.16518196 -0.13007979 0.3847179 0.20705202
-0.10685099 -0.10717913 0.011975549 0.1830336 0.12342834 0.005850474 0.51579076 -0.09206357
0.27188218 0.11380813 0.22561967 -0.20260243 -0.0050454494 0.059957653 0.22818275 0.18992051
-0.007438226 0.092814356 0.03984595 0.17831887 0.5698444 -0.3348685 0.21092749 0.092059895
-0.3880224 0.41514823 -0.33137834 0.0011722938 -0.10065861 0.1369745 0.09695143 -0.17023261
0.08399871 -0.7346263 0.046516474 0.10996802 -0.28849614 0.7537979 0.07840152 -0.11449523
0.16838536 0.27921498 -0.2926738 -0.36822 0.09602101 -0.21330963 0.035107058 0.12822446
00000000: f7d1 c73e 53f4 533f 3400 3dbe 8cee 663e
00000010: 069d 94bf e234 f53d 3e63 4e3e 1291 cb3d
00000020: 14a5 cc3d 9752 883d b9c3 98bd ce7c 393e
00000030: 7beb 3fbd f443 d2bf 7236 1cbe c837 873e
00000040: 5dcc ed3e e9f0 433e d2b8 26be d5d1 5ebf
00000050: 2fbf 683d 43ba 07bd 874b 13be f176 313e
00000060: 8630 5abe a189 b2bd 2782 20bf 65b2 503e
00000070: 629e 35bf b8e8 d7be 1d7c ac3c 97e4 55bf
00000080: f1e6 e6be ce2e d2be 686e 47bc 097b 7d3d
00000090: 2e5e 91bd 0b47 f33d 6d91 36bf 3789 893e
000000a0: df8a 9a3f faf8 f7bb 0e82 e63e ba8d 243e
000000b0: 3d89 0b3e f41d 8c3e fcb9 cabe 342d 203e
000000c0: 0ec3 6fbe 311a c3be e463 303c 9491 15bf
000000d0: 0936 08be 9cfb 28be 72d1 2abf 8976 3cbe
000000e0: a05c 39bf 509b 33bf c246 e3bc b967 cb3d
000000f0: 074d 79be e1cc 31be a015 b5bc 4226 2d3e
00000100: ee0d 233e c0f3 a63d 4cda f5be 173f 063f
00000110: 5ed1 abbf e531 1d3f 47c8 153e e765 bf3e
00000120: 1f43 f63e d6ae aebe 74b4 8c3c acb2 a7be
00000130: 8313 2abe 045b 38be 3ec1 0bbd f088 2bbf
00000140: ae48 1fbe 73db 14be 1f33 843d 398a 37bf
00000150: e2ef c5be 1f7b bfbd 32b3 5ebe 99c2 b93d
00000160: c880 a4bd 01eb 17bf 676b 84bc 4beb 47be
00000170: dc4a 2f3d 7e76 7ebe 4d65 51bf 25bf 653d
00000180: e9a5 d43d 2c07 48bd 43c4 22be 609a 06bf
00000190: ead4 683e 3313 bf3e c788 55be 114f dfbe
000001a0: 939b 903f 02c2 103d b529 82be 9cd9 963e
000001b0: 3d74 2d3f 0b5a 993c 170d 1abf 446c a4bc
000001c0: 76ef fabe d57f fe3e 00f9 1e3d be5e 573e
000001d0: 0da1 1c3f ef9c 923e 156b 0bbf db74 e23d
000001e0: 5434 18be d3e2 043e 4820 733e 8490 8a3e
000001f0: 0ce9 833c 6fe4 c43e 9d77 f5bb ae4f a2bc
00000200: 2fba 91be ef22 afbe e216 1b3e 02d5 8fbe
00000210: 1d39 4f3e c77f afbd 94e3 57be 5861 833e
00000220: 8823 333e d9bb 033f de66 6e3d 062c a03e
00000230: ae47 05be 9f54 5d3e 520c 8e3d 8617 e93e
00000240: ff74 0bbe e81a 55be d619 873e 8c03 853e
00000250: 3b60 9a3d fb47 663e 91c4 cb3d d473 593e
00000260: 0dbe d43e 415f 073f d36f de3d f9a5 88bd
00000270: e61c c6bd 860b c5bc 361e 0cbe 432a 2d3d
00000280: 7f58 2c3d e745 3b3d 7849 a9bd de70 b43d
00000290: b484 9ebd 0beb e8bc 3a11 843e 495f 673e
000002a0: 240a 06bf 4c5e 3f3e ce64 ec3d baa7 483e
000002b0: 0b3c 723c 28af 133e 24d7 7b3e 82db 393e
000002c0: 806a bfbd fd8f 663e fbc9 353e 4f4e 303e
000002d0: 3c32 803e b67c 0b3d 562b 133e 5996 023e
000002e0: a98a 91bd 199c 873e 07ad c0bb b61b a73e
000002f0: 9f37 043e 4fb9 953d 1a53 40bd 3ca4 9abe
00000300: 7df6 d6bd e0f9 523d f6b7 f33d 3927 0cbf
00000310: c813 4b3e 67a5 9bbe ede6 de3e ec68 993e
00000320: 1769 19bf f530 463c 2874 dfbd 62b2 eb3d
00000330: 7625 293e a333 05be bff9 c43e 7205 543e
00000340: b1d4 dabd bb80 dbbd 1835 443c 296d 3b3e
00000350: ffc7 fc3d 55b5 bf3b dd0a 043f d38b bcbd
00000360: 2434 8b3e 3d14 e93d d808 673e 0377 4fbe
00000370: 4c54 a5bb 2896 753d bda8 693e 867a 423e
00000380: 5dbc f3bb 7415 be3d 8235 233d 3999 363e
00000390: 53e1 113f e273 abbe 60fd 573e e689 bc3d
000003a0: dfaa c6be 4f8e d43e 6caa a9be a7a7 993a
000003b0: 1a26 cebd 0b43 0c3e 798e c63d 7551 2ebe
000003c0: 8407 ac3d 7810 3cbf 0f88 3e3d ea36 e13d
000003d0: c4b5 93be e6f8 403f fa90 a03d 7a7c eabd
000003e0: 366d 2c3e 44f5 8e3e 57d9 95be 5587 bcbe
000003f0: aaa6 c43d d76d 5abe 6bcc 0f3d 464d 033e

bias f4 [128]
0.119092934 -0.06745621 0.12070463 0.27681684 0.14960986 -0.13952331 -0.05200249 -0.120630875
-0.1118019 -0.043236412 -0.09390051 0.11094281 -0.03328984 0.15856808 0.29487735 -0.05638187
-0.05965118 0.048111465 -0.118137635 -0.043422367 -0.014454763 0.10896891 0.0853324 -0.0006364784
-0.07280158 -0.10497756 -0.00010040745 0.12937169 -0.108334325 -0.0015812499 -0.11406507 -0.019284837
-0.06540161 0.25150567 -0.069377236 -0.021863645 0.034979973 -0.014522141 0.08545469 0.15620671
0.022213906 -0.08210128 -0.14926691 -0.0145037295 -0.15114982 -0.11224483 0.0696488 0.16023006
0.25235313 -0.077764064 0.05264252 -0.04893402 0.2181302 -0.00019790385 -0.13552332 -0.029368296
-0.099110454 -0.015517794 -0.026494404 -0.043271918 -0.074848115 0.05644885 0.06429671 -0.0039055354
0.05487916 -0.04167874 -0.112087116 -0.06878032 0.123094104 0.10237869 0.05842894 -0.00809398
0.008746508 -0.016814416 -0.03268714 -0.039014556 0.14746204 -0.113979466 0.038745362 -0.059190538
0.17413366 -0.00942374 -0.050931852 -0.10085884 0.07133413 0.19861059 -0.13299209 -0.1790347
-0.031986877 0.020778118 -0.01337856 -0.041145135 0.07331182 0.17344695 -0.024947962 -0.014069142
0.13977374 -0.078190595 0.04125752 0.101265214 -0.101467334 -0.084641986 0.13776258 0.020101994
0.03377127 0.033855475 -0.03692888 0.22154503 -0.06793263 -0.013650582 0.11655583 -0.010699644
-0.020526841 0.17007324 0.17885448 -0.08175806 0.19366178 -0.121129 -0.08433674 0.2371559
0.15101242 0.011442318 -0.0048711845 -0.07007978 0.16205858 -0.098106556 -0.13897608 -0.06418953
00000000: ffe6 f33d 7b26 8abd fd33 f73d f0ba 8d3e
00000010: 5433 193e 33df 0ebe 9000 55bd 520d f7bd
00000020: 65f8 e4bd aa18 31bd e94e c0bd fc35 e33d
00000030: ed5a 08bd ac5f 223e 2afa 963e adf0 66bd
00000040: cc54 74bd 8710 453d 25f2 f1bd a7db 31bd
00000050: acd3 6cbc 182b df3d c1c2 ae3d 58d9 26ba
00000060: ff18 95bd 7afe d6bd d791 d2b8 037a 043e
00000070: 63de ddbd f141 cfba f39a e9bd 3cfb 9dbc
00000080: 48f1 85bd 5ac5 803e a715 8ebd 631b b3bc
00000090: 2947 0f3d 46ee 6dbc de02 af3d a7f4 1f3e
000000a0: f0f9 b53c b724 a8bd 6dd9 18be 0da1 6dbc
000000b0: 05c7 1abe 9ee0 e5bd 08a4 8e3d 5913 243e
000000c0: 6e34 813e c442 9fbd af9f 573d 0a6f 48bd
000000d0: 865d 5f3e 6984 4fb9 a0c6 0abe c895 f0bc
000000e0: 6cfa cabd 583e 7ebc cb0a d9bc e53d 31bd
000000f0: f849 99bd e936 673d fead 833d 03f4 7fbb
00000100: f8c8 603d 54b7 2abd ee8d e5bd b2dc 8cbd
00000110: c318 fc3d ebab d13d 2f53 6f3d 9d9c 04bc
00000120: 834d 0f3c 63be 89bc f3e2 05bd bacd 1fbd
00000130: 4a00 173e 116e e9bd 75b3 1e3d c771 72bd
00000140: 1850 323e 0866 1abc eb9d 50bd 148f cebd
00000150: a117 923d 9360 4b3e 142f 08be df54 37be
00000160: ac04 03bd df36 aa3c bf31 5bbc cd87 28bd
00000170: 8224 963d 149c 313e ab5f ccbc 4282 66bc
00000180: d920 0f3e 6422 a0bd a5fd 283d 2364 cf3d
00000190: 1bce cfbd c758 adbd a211 0d3e f0ac a43c
000001a0: be53 0a3d 0aac 0a3d bd42 17bd b3dc 623e
000001b0: 4320 8bbd b1a6 5fbc d3b4 ee3d 8f4d 2fbc
000001c0: e827 a8bc ae27 2e3e a125 373e c570 a7bd
000001d0: 464f 463e 7b12 f8bd beb8 acbd ffd8 723e
000001e0: 00a3 1a3e 8f78 3b3c 759e 9fbb fd85 8fbd
000001f0: aff2 253e 17ec c8bd bf4f 0ebe cd75 83bd

weight f4 [1, 128]
1.4866372 -0.49401867 0.5192793 0.87886256 0.8215526 -0.47925928 -0.58182 -0.49956304
-0.55221623 -0.44604233 -0.690449 1.6708704 -0.4808846 0.79247946 0.7587154 -0.52207357
-0.44514608 0.75981903 -0.5494719 -0.5164801 -0.54080623 1.6192588 0.90502477 0.06159271
-0.77368456 -0.5827303 -0.80127496 0.84630823 -0.8826307 -0.5337402 -0.78422064 -0.5239151
-0.55406725 0.81106377 -0.5101941 -0.52501214 1.5685859 0.7378376 0.80446124 0.84294546
0.773411 -0.031999003 -0.5137374 0.9142918 -0.4385751 -0.5031112 0.5778581 1.0112249
0.76518077 -0.56186026 1.0399913 0.07749159 0.92076147 -0.554613 -0.5797807 -0.67771137
-0.540852 -0.53855646 -0.45809346 -0.7522501 -0.5819618 0.43699324 0.8043407 -0.418843
0.8211686 -0.5247403 -0.39195943 -0.5019547 0.401719 1.4182192 0.44272363 -0.7491585
-0.5069407 -0.6311361 -0.5165668 -0.45960113 0.7149507 -0.4605786 1.6992044 -0.51474196
0.4122502 -0.45012888 -0.8642224 -0.5918796 0.07981519 1.4953965 -0.5869737 -0.44135174
-0.5095821 0.072612874 -0.6740153 -0.87997293 0.8867315 1.4223138 -0.42533502 -0.6750211
0.6585679 -0.525566 1.3780214 0.8464419 -0.53872734 -0.08642193 0.920639 -0.5673878
0.8262921 0.92845225 -0.020743538 0.8971172 -0.52876645 -0.5153678 -0.45765075 -0.65599877
-0.4416388 0.7804852 0.90168285 -0.55024654 0.84904075 -0.6942924 -0.5021754 0.7310293
0.9813984 -0.5571678 -0.45968038 -0.53132874 1.3409395 -0.4545489 -0.5029965 -0.0021577082
00000000: 214a be3f 04f0 fcbe 7def 043f 23fd 603f
00000010: 4551 523f 7961 f5be 28f2 14bf bac6 ffbe
00000020: 0b5e 0dbf a95f e4be 44c1 30bf 15df d53f
00000030: 8236 f6be efdf 4a3f 2c3b 423f 9da6 05bf
00000040: 30ea e3be 8083 423f 31aa 0cbf 0a38 04bf
00000050: 4772 0abf df43 cf3f b4af 673f a348 7c3d
00000060: 3110 46bf d02d 15bf 5b20 4dbf a8a7 583f
00000070: 16f4 61bf 33a3 08bf afc2 48bf 4d1f 06bf
00000080: 5ad7 0dbf e0a1 4f3f 159c 02bf 3267 06bf
00000090: 6cc7 c83f ede2 3c3f 2cf1 4d3f 46cb 573f
000000a0: 43fe 453f 6311 03bd 4b84 03bf 070f 6a3f
000000b0: ea8c e0be e5cb 00bf 82ee 133f d16f 813f
000000c0: e3e2 433f 13d6 0fbf 6f1e 853f e9b3 9e3d
000000d0: 06b7 6b3f 1efb 0dbf 826c 14bf 7e7e 2dbf
000000e0: 4775 0abf d6de 09bf 3a8b eabe 7693 40bf
000000f0: 73fb 14bf 94bd df3e 46e9 4d3f 9772 d6be
00000100: 1b38 523f 6155 06bf e8ae c8be 1a80 00bf
00000110: 1dae cd3e 3588 b53f acac e23e dac8 3fbf
00000120: dec6 01bf 2392 21bf b93d 04bf d750 ebbe
00000130: 0207 373f f5d0 ebbe 887f d93f 21c6 03bf
00000140: 7512 d33e 4b77 e6be ae3d 5dbf 6c85 17bf
00000150: 2576 a33d 2769 bf3f e943 16bf dbf8 e1be
00000160: f973 02bf 0fb6 943d 448c 2cbf e845 61bf
00000170: d600 633f 610e b63f 83c5 d9be 2fce 2cbf
00000180: e897 283f 7e8b 06bf 0163 b03f 6bb0 583f
00000190: 09ea 09bf fbfd b0bd ffae 6b3f 5440 11bf
000001a0: e187 533f 0caf 6d3f 5aee a9bc 79a9 653f
000001b0: 3d5d 07bf 25ef 03bf 3351 eabe 89ef 27bf
000001c0: 7b1e e2be e1cd 473f b0d4 663f f5dc 0cbf
000001d0: bc5a 593f 26bd 31bf 918e 00bf bc24 3b3f
000001e0: ed3c 7b3f 8da2 0ebf 3a5b ebbe 2905 08bf
000001f0: e8a3 ab3f a2ba e8be 61c4 00bf 5668 0dbb

weight f4 [128, 128]
-0.04721069 0.29806805 0.039410263 0.03273358 -0.10201177 -0.031899765 -0.10551167 0.012237372
-0.10943518 0.1354926 -0.09537302 -0.06244617 0.07506235 0.077885 -0.031074006 0.16472565
0.44396192 -0.0063805045 0.039041128 0.1592312 0.0015711397 0.011021566 -0.0006858387 0.017553747
0.091099 -0.1636619 0.10617955 0.4196862 -0.10507924 -0.054938834 -0.037738718 0.01563497
0.020615451 0.09468088 -0.051531386 0.053655222 0.08940635 0.16414748 -0.1626236 -0.08303093
-0.15243004 0.10143879 -0.03349329 0.004805056 0.050784245 0.10357312 0.0027279253 0.03332408
0.05248726 -0.1978681 -0.040040728 0.09125166 0.15296152 -0.02959496 0.10137147 0.015837118
-0.057120197 0.19585754 0.018390147 0.25468236 -0.091392845 0.03016344 -0.084803835 0.062804155
0.11413063 0.053089716 -0.11282224 -0.03263638 -0.06588808 -0.07920083 0.08252174 -0.016083658
-0.0627597 0.01273001 -0.016969291 0.110053115 -0.02052918 0.08944073 0.090646446 -0.103117086
0.0729332 0.06364176 -0.055808656 0.11088358 0.011908619 -0.007066238 0.08372141 0.10710531
0.088374585 -0.004425513 -0.074054845 0.22853501 -0.06230153 0.025813585 0.02089665 0.054701805
-0.03131782 0.10753884 -0.06593649 -0.078849636 0.14569767 0.067684665 0.051479857 0.088674694
-0.15497096 0.090292275 0.1658043 0.10487638 0.036151476 0.02605702 0.0031104798 0.015349223
0.09419948 0.44854248 -0.016170658 0.072987795 0.03844183 -0.089328215 0.06857075 -0.04992854
-0.0038185818 0.1563629 0.15909857 0.008582002 0.05355186 0.15775932 0.007779671 -0.07736704
-0.23854968 0.1358811 -0.0038418544 -0.092222914 -0.092665605 -0.19219017 -0.076824285 0.006091481
-0.08380524 0.23074934 0.13068205 -0.24434955 0.09139965 -0.02471624 -0.14872076 0.087461345
-0.19036603 -0.12055727 -0.5020783 0.014602699 -0.17809656 -0.1048956 0.2010445 -0.030579505
-0.41508073 -0.258361 0.18292624 -0.12900977 -0.26916203 -0.66975445 -0.17745654 -0.1681114
-0.36612687 -0.22000402 0.10578131 0.06504976 -0.38701716 0.05687196 -0.37115046 -0.0726816
-0.629401 0.05365124 0.047447275 -0.0089473 0.019228756 0.08100391 -0.032871403 -0.10144452
-0.15212604 -0.5383865 -0.11901555 -0.0024666493 -0.2050739 -0.021189706 -0.062207945 -0.019684775
0.041115116 0.0948954 -0.033384472 0.1641941 0.28946972 0.015601189 -0.007482708 0.13974148
0.104502 0.034618933 0.093251035 0.31066698 -0.5242161 0.19215974 -0.18562277 -0.10697909
-0.25542706 0.0841677 0.15463473 -0.099967934 -0.3305175 0.045502458 -0.34137714 -0.20370057
0.16125934 0.054603007 -0.09976718 0.19567776 -0.0496921 0.0028974519 -0.19600672 -0.0042284783
-0.24500138 -0.065813914 -0.15709943 -0.3580508 0.08197419 -0.10268723 0.09475369 0.16211122
-0.02945615 0.027596923 0.015197614 -0.7503429 0.1123668 -0.035289068 -0.0889703 0.11735587
0.01719349 -0.21972768 -0.1632576 -0.0135539565 0.2921349 -0.5020412 -0.26382428 0.23694253
-0.08671711 -0.17670731 -0.024503835 0.124790594 0.2657659 -0.19917028 -0.10970942 0.14472198
0.052883837 -0.13660905 -0.08548927 0.25543872 0.13716824 0.3665671 0.051678162 -0.42335892
00000000: ff5f 41bd 609c 983e a86c 213d a513 063d
00000010: 8ceb d0bd 54a9 02bd 8116 d8bd 427f 483c
00000020: 8d1f e0bd 92be 0a3e ee52 c3bd 8ec7 7fbd
00000030: 4aba 993d 2c82 9f3d ea8e febc d7ad 283e
00000040: fa4e e33e 8d13 d1bb 97e9 1f3d 810d 233e
00000050: b3ee cd3a cc93 343c dbc9 33ba e0cc 8f3c
00000060: 1d92 ba3d fc96 27be aa74 d93d 1ce1 d63e
00000070: c933 d7bd 8b07 61bd ea93 1abd e914 803c
00000080: bce1 a83c 0de8 c13d 9312 53bd 94c5 5b3d
00000090: ad1a b73d 4716 283e cd86 26be 1f0c aabd
000000a0: 9f16 1cbe 24bf cf3d 4330 09bd bb73 9d3b
000000b0: 2403 503d 251e d43d fec6 323b d57e 083d
000000c0: e2fc 563d ef9d 4abe bf01 24bd 26e2 ba3d
000000d0: f2a1 1c3e 2171 f2bc d89b cf3d d8bc 813c
000000e0: def6 69bd e18e 483e efa6 963c ba65 823e
000000f0: 2c2c bbbd 5219 f73c a2ad adbd 779f 803d
00000100: 52bd e93d 9a74 593d 590f e7bd baad 05bd
00000110: 54f0 86bd 0b34 a2bd 2801 a93d e0c1 83bc
00000120: 2888 80bd 8891 503c 2f03 8bbc 8763 e13d
00000130: d02c a8bc b42c b73d d8a4 b93d 0d2f d3bd
00000140: 005e 953d 9c56 823d 9e97 64bd ee16 e33d
00000150: 5e1c 433c e78b e7bb 2176 ab3d 075a db3d
00000160: bcfd b43d e503 91bb 11aa 97bd 1505 6a3e
00000170: e42f 7fbd 0377 d33c 742f ab3c 000f 603d
00000180: 1d47 00bd 533d dc3d b609 87bd eb7b a1bd
00000190: c531 153e 429e 8a3d 8bdc 523d 149b b53d
000001a0: b5b0 1ebe 28eb b83d 9ac8 293e 6dc9 d63d
000001b0: 9213 143d 8875 d53c 31d9 4b3b 4f7b 7b3c
000001c0: a8eb c03d 5ca7 e53e 5478 84bc a07a 953d
000001d0: 2e75 1d3d b6f1 b6bd d26e 8c3d de81 4cbd
000001e0: 2c41 7abb 991d 203e bcea 223e 869b 0c3c
000001f0: 3259 5b3d a98b 213e 9cec fe3b 9c72 9ebd
00000200: 5e46 74be 6a24 0b3e 9fc7 7bbb 5edf bcbd
00000210: 77c7 bdbd 80cd 44be 0d56 9dbd 0c9b c73b
00000220: 15a2 abbd 8e49 6c3e 84d1 053e c536 7abe
00000230: bd2f bb3d b679 cabc 414a 18be ef1e b33d
00000240: 50ef 42be bbe6 f6bd 3488 00bf 2940 6f3c
00000250: f25e 36be 81d3 d6bd 9cde 4d3e df81 fabc
00000260: 7685 d4be e547 84be 0451 3b3e 231b 04be
00000270: 9bcf 89be 0775 2bbf 2bb7 35be 6525 2cbe
00000280: fb74 bbbe bc48 61be dfa3 d83d cf38 853d
00000290: 1d27 c6be 93f2 683d 6f07 bebe 17da 94bd
000002a0: 6d20 21bf 67c1 5b3d 1358 423d b297 12bc
000002b0: a085 9d3c 61e5 a53d 2aa4 06bd 25c2 cfbd
000002c0: eec6 1bbe b3d3 09bf 6dbe f3bd 82a7 21bb
000002d0: e4fe 51be 0996 adbc c2cd 7ebd f741 a1bc
000002e0: 5368 283d 8558 c23d 28be 08bd 8022 283e
000002f0: 6035 943e 219c 7f3c 8131 f5bb 6418 0f3e
00000300: 2505 d63d 95cc 0d3d 66fa be3d be0f 9f3e
00000310: 0733 06bf 86c5 443e e513 3ebe da17 dbbd
00000320: 56c7 82be 1d60 ac3d 9158 1e3e fdbb ccbd
00000330: 9739 a9be c960 3a3d fcc8 aebe e296 50be
00000340: 2b21 253e 67a7 5f3d bc52 ccbd c05f 483e
00000350: f289 4bbd 2de3 3d3b fcb5 48be 0c8f 8abb
00000360: a4e1 7abe 72c9 86bd acde 20be 6f52 b7be
00000370: 16e2 a73d af4d d2bd 390e c23d 7c00 263e
00000380: 064e f1bc f112 e23c 6aff 783c 7916 40bf
00000390: 9120 e63d 458b 10bd 1036 b6bd 4658 f03d
000003a0: 5dd9 8c3c 4b00 61be 002d 27be 6a11 5ebc
000003b0: b592 953e c685 00bf fa13 87be 10a1 723e
000003c0: bd98 b1bd c3f2 34be 44bc c8bc 3692 ff3d
000003d0: 7812 883e 4bf3 4bbe 55af e0bd 0032 143e
000003e0: b99c 583d 3ee3 0bbe 0015 afbd ddc8 823e
000003f0: d575 0c3e afae bb3e 7bac 533d 80c2 d8be

bias f4 [128]
0.028960984 0.09986218 -0.03509311 -0.18155867 0.1715031 0.16884117 -0.04134928 0.031975284
0.03419532 -0.039695255 -0.10168504 -0.003705003 0.058609135 0.03268197 -0.07343304 0.16051975
0.017902395 -0.08286755 -0.09973054 0.0713419 -0.040134385 -0.082539596 0.019748757 0.06248639
-0.07205325 0.21242432 -0.034064807 0.031471673 0.09469719 -0.015420736 -0.017495194 0.15268175
0.01564087 0.10972954 0.13125585 0.041195426 0.047620494 -0.09552912 0.06562856 -0.034721762
-0.05921126 0.033617146 -0.00398506 -0.08824792 0.075987525 0.14098267 -0.08436955 0.100364365
0.036631964 -0.01965059 0.07338465 -0.02578005 0.09896816 -0.007779203 0.116652876 0.034225658
0.033252776 -0.17043987 0.06674969 0.12908922 -0.08878051 -0.0038537083 0.015715772 0.12003118
-0.083047256 0.047182996 0.109214224 0.026535986 -0.003705686 0.03401241 -0.13202393 -0.04506667
0.13076632 -0.038447134 0.11829823 0.019115472 0.033926155 0.14765695 -0.04425916 0.11702006
-0.076564364 0.008935429 0.06697288 -0.020117383 -0.080101885 -0.06442339 -0.047970112 -0.04125614
0.11887977 -0.010960021 0.010858405 0.089862205 0.047980975 0.027696535 0.012984508 -0.01629784
0.08216156 -0.008253733 0.030334948 0.071670406 -0.0375393 -0.022535546 0.053611577 -0.036531508
-0.04070824 0.003587287 -0.06295057 0.18773904 -0.07491167 0.04823136 3.5948782e-05 0.035780795
0.0191062 -0.1547632 -0.08049547 0.11536187 0.008156102 -0.082865365 -0.10773109 -0.114095226
0.06391843 -0.07792895 0.08240744 0.12837487 0.087289914 0.085503064 0.09264105 -0.018672211
00000000: 963f ed3c 8b84 cc3d cbbd 0fbd 84ea 39be
00000010: 829e 2f3e b3e4 2c3e dd5d 29bd 84f8 023d
00000020: 6410 0c3d 7e97 22bd 3f40 d0bd a3cf 72bb
00000030: 2210 703d 88dd 053d 1064 96bd 4a5f 243e
00000040: 0ba8 923c 76b6 a9bd 863f ccbd b41b 923d
00000050: f463 24bd 850a a9bd 25c8 a13c bbf1 7f3d
00000060: a890 93bd c385 593e 8a87 0bbd 71e8 003d
00000070: 9af0 c13d 41a7 7cbc 1552 8fbc 9b58 1c3e
00000080: 4821 803c e2b9 e03d ef67 063e 89bc 283d
00000090: b50d 433d c5a4 c3bd 4468 863d 6838 0ebd
000000a0: 8287 72bd 22b2 093d 1b95 82bb 53bb b4bd
000000b0: 599f 9b3d c35d 103e f1c9 acbd d58b cd3d
000000c0: 660b 163d 46fa a0bc b14a 963d af30 d3bc
000000d0: d2af ca3d afe8 febb b4e7 ee3d 3430 0c3d
000000e0: 1034 083d ca87 2ebe 10b4 883d f72f 043e
000000f0: 8ed2 b5bd 7f8e 7cbb 5dbe 803c e8d2 f53d
00000100: ae14 aabd f542 413d b5ab df3d ff61 d93c
00000110: 18db 72bb 9950 0b3d 4831 07be d497 38bd
00000120: 9be7 053e be7a 1dbd 5846 f23d 0d98 9c3c
00000130: 27f6 0a3d 6233 173e 1849 35bd 37a8 ef3d
00000140: c7cd 9cbd e865 123c 1429 893d 36cd a4bc
00000150: 750c a4bd 69f0 83bd 4f7c 44bd 33fc 28bd
00000160: 3d77 f33d a991 33bc 74e7 313c ad09 b83d
00000170: b387 443d d8e3 e23c f9bc 543c 0c83 85bc
00000180: 5244 a83d aa3a 07bc ff80 f83c efc7 923d
00000190: cfc2 19bd 779c b8bc d097 5b3d 10a2 15bd
000001a0: afbd 26bd b018 6b3b 3aec 80bd aa3e 403e
000001b0: 4a6b 99bd 3f8e 453d b6c7 1638 e28e 123d
000001c0: 9b84 9c3c 3f7a 1ebe cfda a4bd d842 ec3d
000001d0: 2ca1 053c 51b5 a9bd 1ea2 dcbd c2aa e9bd
000001e0: aae7 823d 3799 9fbd 3bc5 a83d b474 033e
000001f0: 0ec5 b23d 3b1c af3d 97ba bd3d 77f6 98bc

weight f4 [4, 128]
-0.013352194 -0.15996785 -0.07613382 0.36422017 -0.077709496 0.021406697 -0.046988342 0.1300517
0.04027025 0.3032997 -0.26322457 -0.014647619 0.042446513 -0.11321555 -0.0030914398 -0.05578685
-0.4280587 0.13299097 -0.08017789 0.04440859 0.09793 -0.12771425 -0.23355652 -0.2365226
0.032497086 0.1185799 0.31184578 -0.13147135 -0.171845 -0.40202445 0.14393738 -0.107441716
0.3289166 -0.103980474 -0.49187514 0.05876872 0.107959315 0.35796097 -0.08719799 0.11046363
-0.074006885 0.07600738 -0.016512245 0.0043527097 0.070859715 0.13429253 0.20236124 -0.13214459
0.08700666 -0.090559185 0.16067746 0.058218107 -0.36410266 -0.5525691 -0.051608615 0.05427729
-0.055437963 0.24613129 -0.05293604 -0.1183061 0.48315406 -0.14928971 -0.094911724 -0.093014926
-0.6176464 -0.51602936 -0.15094693 0.04132212 0.02197315 -0.038837053 0.2714285 -0.61991686
-0.065040156 0.027771013 0.4291455 0.092699826 -0.1322835 -0.16560192 0.06899423 0.12036799
-0.22239344 -0.27756307 -0.2860336 0.020379737 -0.09804215 -0.018272534 -0.38425413 -0.36093268
0.084468335 0.30551106 0.09213169 0.1073156 -0.087993525 -0.06726338 -0.21842565 -0.03316726
0.24983165 0.028915467 -0.30224773 0.15437837 -0.20501934 -0.15200512 0.28887668 -0.0009388073
-0.022499418 0.16658625 0.185137 0.027448146 -0.17177242 0.2138718 -0.11595188 -0.06249075
0.05665323 -0.039067395 0.20283297 -0.13478659 0.0556687 -0.019436512 0.032951824 0.0101526305
-0.010379922 -0.10803039 0.09806327 0.16500902 -0.1689319 -0.13305785 -0.061749306 -0.002607232
-0.091456555 -0.21394613 -0.35288462 -0.08786522 0.19728608 0.18972795 -0.07044052 0.34060362
0.37236744 0.23621048 -0.6361648 -0.059806656 -0.026117163 -0.28428495 0.21883433 0.3230198
0.41050506 -0.12877432 0.5485892 -0.086132176 -0.15016966 -0.6548456 -0.29731268 -0.039032154
-0.08738464 0.039328866 -0.049155578 -0.11747292 -0.69865763 0.25087258 0.19694029 0.28223667
0.5141203 -0.005184324 0.21236247 -0.049353827 -0.051134367 0.0028599643 -0.32264003 0.3729131
0.07161247 0.7437554 -0.14171144 0.046083856 0.20341687 -0.35276413 0.10084659 0.1760884
-0.086267054 -0.33979988 -0.1338643 -0.4693309 -0.1192471 0.7082577 0.0804812 0.34740126
0.2917107 0.055245265 0.52140146 -0.84438413 0.024879588 0.2583265 -0.5353413 -0.3221464
0.72370225 -0.73615986 -0.8161129 -0.4293703 -0.1406865 -0.5820813 0.24238628 0.8304578
-0.32330382 0.051318996 -0.19824745 0.5708885 0.32689938 0.20632017 -0.019401573 0.23337792
-0.48812056 -0.82976943 -0.4755363 -0.15683264 -0.45244357 0.046366733 -0.78032696 -0.8392753
0.44896245 0.3346419 0.6540501 0.20566444 0.019452628 0.7629888 -0.5364921 -0.32436368
0.5138173 0.051802836 -0.40887687 0.2500222 0.779013 -0.59630984 -0.4283543 0.3362451
-0.20609011 0.49983352 0.19028509 0.2312835 0.72821814 0.25718713 0.25754905 0.004043667
0.08110749 0.029443162 0.17016451 -0.4907101 0.03632357 0.5624638 0.2544019 0.37058306
-0.06786953 0.24449353 0.6321311 0.023961496 0.06763542 -0.1254997 -0.13522495 0.053146083
00000000: 29c3 5abc 9dce 23be 0cec 9bbd 117b ba3e
00000010: 2826 9fbd 195d af3c d976 40bd 462c 053e
00000020: 6bf2 243d 194a 9b3e 5fc5 86be 91fc 6fbc
00000030: 65dc 2d3d 8edd e7bd c199 4abb c180 64bd
00000040: 832a dbbe c92e 083e 4e34 a4bd c8e5 353d
00000050: 868f c83d 86c7 02be 7129 6fbe fb32 72be
00000060: aa1b 053d 05da f23d 40aa 9f3e 6da0 06be
00000070: 23f8 2fbe 26d6 cdbe 5264 133e 670a dcbd
00000080: c267 a83e b7f3 d4bd 0fd7 fbbe 78b7 703d
00000090: c619 dd3d a946 b73e dc94 b2bd c13a e23d
000000a0: ec90 97bd c2a9 9b3d b044 87bc 2da1 8e3b
000000b0: e61e 913d fb83 093e c937 4f3e e950 07be
000000c0: 8c30 b23d 1877 b9bd a288 243e 1c76 6e3d
000000d0: aa6b babe 2b75 0dbf 8e63 53bd dd51 5e3d
000000e0: eb12 63bd d709 7c3e 76d3 58bd 784a f2bd
000000f0: f85f f73e 67df 18be 1461 c2bd 9c7e bebd
00000100: 131e 1ebf 801a 04bf d591 1abe 6241 293d
00000110: 0901 b43c 9a13 1fbd adf8 8a3e dfb2 1ebf
00000120: c633 85bd 0980 e33c f5b8 db3e 68d9 bd3d
00000130: 5375 07be 8d93 29be d94c 8d3d 7e83 f63d
00000140: 1bbb 63be bf1c 8ebe ff72 92be 68f3 a63c
00000150: 53ca c8bd 48b0 95bc f5bc c4be 2bcc b8be
00000160: bcfd ac3d f26b 9c3e 8aaf bc3d 48c8 db3d
00000170: f335 b4bd 62c1 89bd f9aa 5fbe 65da 07bd
00000180: ded3 7f3e 21e0 ec3c 37c0 9abe 5d15 1e3e
00000190: 97f0 51be 3ba7 1bbe a5e7 933e 4b1a 76ba
000001a0: b350 b8bc 9695 2a3e 8e94 3d3e efda e03c
000001b0: 1ce5 2fbe 3601 5b3e 2e78 edbd 4df6 7fbd
000001c0: 380d 683d 2205 20bd 72b3 4f3e 7f05 0abe
000001d0: dd04 643d 5239 9fbc 7ef8 063d 3857 263c
000001e0: 8c10 2abc 0a3f ddbd 65d5 c83d 20f8 283e
000001f0: 7cfc 2cbe 5140 08be d7ec 7cbd 18de 2abb
00000200: 934d bbbd b214 5bbe 4bad b4be aef2 b3bd
00000210: 5d05 4a3e 0b48 423e 1f43 90bd 9963 ae3e
00000220: f2a6 be3e 29e1 713e b2db 22bf d3f7 74bd
00000230: a9f3 d5bc cc8d 91be 1b16 603e da62 a53e
00000240: b82d d23e 6add 03be 5870 0c3f 1166 b0bd
00000250: 13c6 19be f6a3 27bf 5e39 98be 2ee0 1fbd
00000260: b8f6 b2bd 4e17 213d 5c57 49bd a495 f0bd
00000270: 3adb 32bf 5f72 803e b7aa 493e 5381 903e
00000280: 639d 033f 43e1 a9bb 8c75 593e 3d27 4abd
00000290: 4572 51bd 3d6e 3b3b 1331 a5be 77ee be3e
000002a0: 8fa9 923d c166 3e3f ce1c 11be 6dc2 3c3d
000002b0: 834c 503e 809d b4be a888 ce3d 8450 343e
000002c0: c8ac b0bd 40fa adbe b913 09be 244c f0be
000002d0: d337 f4bd 6050 353f 54d3 a43d 94de b13e
000002e0: 1b5b 953e dc48 623d 917a 053f 8f29 58bf
000002f0: 47d0 cb3c 5f43 843e 210c 09bf 5ff0 a4be
00000300: 8d44 393f f974 3cbf c6ec 50bf 6dd6 dbbe
00000310: 1f10 10be 4803 15bf 1c34 783e e298 543f
00000320: 1488 a5be de33 523d 6101 4bbe c025 123f
00000330: 5b5f a73e 9845 533e 0cf0 9ebc 9ffa 6e3e
00000340: f0ea f9be c56b 54bf 7e79 f3be bc98 20be
00000350: afa6 e7be 0beb 3d3d 82c3 47bf bfda 56bf
00000360: 68de e53e 2f56 ab3e d46f 273f b399 523e
00000370: 1e5b 9f3c 3c53 433f 8c57 09bf ff12 a6be
00000380: 8889 033f 362f 543d 4f58 d1be e902 803e
00000390: 656d 473f c3a7 18bf 4151 dbbe 5128 ac3e
000003a0: 4909 53be 2eea ff3e 18da 423e 95d5 6c3e
000003b0: 816c 3a3f 08ae 833e 78dd 833e bd80 843b
000003c0: af1b a63d c932 f13c 9b3f 2e3e 5b3e fbbe
000003d0: 06c8 143d a1fd 0f3f f740 823e 10bd bd3e
000003e0: 2eff 8abd 835c 7a3e 58d3 213f e64a c43c
000003f0: 7084 8a3d fe82 00be 6978 0abe b5af 593d

bias f4 [4]
-0.05039852 -0.06591734 0.044246558 -0.020260908
00000000: ae6e 4ebd acff 86bd e13b 353d 34fa a5bc
