problem1/models/underway/success_whole_model_1767028657.pth (torch, 146613 bytes, 9 tensors)

weight f4 [128, 8]
000000 9c a1 3e 3e 0b 34 61 bd 16 d8 f9 be 75 78 37 bf
       0.18616337 -0.054981273 -0.48797673 -0.7166818
000010 3e 24 b8 3e 6b 9c 32 be 20 73 58 3d 1d 91 69 3e
       0.3596515 -0.17442481 0.052844167 0.22809263
000020 40 3a 8e be c2 fa 4d 3e 7e 59 cf be 57 f5 28 3f
       -0.27778816 0.20115188 -0.40497965 0.6599936
000030 42 a5 03 3e 11 7f a2 be d6 32 80 bc 18 29 05 3d
       0.1285601 -0.3173757 -0.01564924 0.032509893
000040 34 09 10 3e 15 5b 52 3e e0 f2 a4 be df 89 fb 3e
       0.1406601 0.20542558 -0.3221655 0.49128625
000050 6e 2f 2b 3e e5 1e 0c 3f 54 c1 fc 3e 73 d8 9e 3e
       0.16717312 0.5473464 0.49366248 0.31024513
000060 3f 10 85 be 35 8f a7 be 94 96 47 be 77 34 1e bf
       -0.25988957 -0.32726446 -0.19491035 -0.61798805
000070 28 ab a6 3e 0e 0b dd bc 32 9d 9e bd 63 da aa bd
       0.32552457 -0.02698281 -0.077448264 -0.08342435
000080 75 0e 8d bd 01 bd c4 bd 10 e8 7f 3d 80 58 96 3e
       -0.06887523 -0.09606362 0.06247717 0.29364395
000090 6c cd 87 3e 37 ec 1d 3f 93 f5 01 3f 46 31 29 3e
       0.26523912 0.6168856 0.5076534 0.16522703
0000a0 33 b7 43 3d 44 02 ed 3e 69 ca f6 be a5 8c c1 3c
       0.047782134 0.4629079 -0.48201302 0.023626635
0000b0 32 7a fa 3e cb d2 91 be ab 8d 79 be 1e 41 0d be
       0.48921353 -0.28481135 -0.24370448 -0.13794371
0000c0 36 09 01 3f 39 c8 f4 3e b9 bf b6 be b8 b8 33 3b
       0.5040468 0.47809008 -0.35693148 0.0027423333
0000d0 d5 9d 25 3e 03 e0 18 3e 57 21 91 be f2 1c 8d 3d
       0.1617349 0.14929204 -0.2834575 0.068902865
0000e0 b9 1a 59 3d 59 fa 98 bd 7a 35 13 be 51 da a6 3d
       0.053004 -0.07469625 -0.14375868 0.08147109
0000f0 dd b2 1c be 33 01 48 bf 6c 56 1c 3d 8f cf 99 3e
       -0.15302606 -0.7812683 0.038168356 0.30041167
000100 f6 2c b1 3d b2 ba 0a be 2f dc 16 be f1 ad 15 bd
       0.08651154 -0.13547781 -0.14732431 -0.036542837
000110 29 31 3f be a9 86 1a bf 2b bb 3a bf 14 40 7b 3e
       -0.18671097 -0.60361725 -0.72941846 0.24536163
000120 db 42 24 be f6 f2 00 bf 8d 2d 77 3d 11 21 0d bf
       -0.16041128 -0.5037073 0.060346175 -0.5512858
000130 62 bb 56 be 1f 23 c5 be ba 5c 04 bf c3 6c 9b 3c
       -0.20969918 -0.38503358 -0.5170399 0.01897276
000140 40 6e e7 3e 8c e5 70 bd f7 0d 78 be d6 73 52 be
       0.45201302 -0.058812663 -0.24224077 -0.20552
000150 b9 2d 16 3e 78 48 c2 be 7e a6 84 be d5 be 60 be
       0.1466588 -0.37945914 -0.25908273 -0.21947797
000160 63 6f 66 3c 51 19 f9 3e 70 69 90 3e 33 c8 3c 3f
       0.014064643 0.48652127 0.28205442 0.7374298
000170 c0 24 0d be 50 a0 49 be 28 80 53 bd 64 71 cb be
       -0.1378355 -0.1969006 -0.05163589 -0.39734948
000180 38 93 eb be 2d c0 c5 3e f2 c9 bf 3e d9 d2 81 be
       -0.46010756 0.3862318 0.3745876 -0.25356176
000190 ae 65 81 be a0 7b eb 3e 96 e7 11 bd be d7 7b be
       -0.25272888 0.45992756 -0.03562125 -0.24594018
0001a0 b4 37 9d bd 84 ed 49 bd 85 76 84 3e 4e 27 87 be
       -0.0767664 -0.04929878 0.25871673 -0.26397175
0001b0 ba 90 05 3e db df ea 3e 75 5b 89 3e c3 64 5a bd
       0.1304349 0.45873913 0.2682759 -0.05331875
0001c0 3b 46 fa 3c d1 22 a0 be 20 44 bb bd b5 2f 37 bf
       0.030551067 -0.31276563 -0.09143853 -0.7155717
0001d0 f9 78 31 bd fb 68 97 be 94 97 77 3e b8 b8 35 be
       -0.04332826 -0.2957228 0.24178916 -0.17746246
0001e0 67 d8 4d bd 4d 0a 24 bd 2c 11 32 be c2 15 82 3f
       -0.050255205 -0.040048886 -0.17389363 1.016289
0001f0 a2 67 23 3e db 37 d9 be be c8 7c be db 9c 0d 3f
       0.15957502 -0.42425427 -0.24685952 0.5531747
000200 36 14 9b 3d bd 49 da 3e 5a 3c a9 3e d1 a8 a3 3f
       0.07572214 0.42634383 0.33053857 1.2785894
000210 ae c7 1b 3e 41 4b 9b be 20 08 fd bd ee d6 b0 be
       0.1521289 -0.30330852 -0.12355065 -0.34538978
000220 d8 73 03 3e d9 3c d4 3e 43 a4 cc be 36 8d d3 bd
       0.1283716 0.41452673 -0.39969072 -0.10329668
000230 ac b8 c5 3e 40 67 39 be 75 6b 47 be 75 02 99 3e
       0.38617456 -0.18105793 -0.19474585 0.29884687
000240 f9 a9 97 be ba ef a3 3e dd aa 16 be a5 dc 47 3d
       -0.29621866 0.32018834 -0.14713617 0.048794407
000250 72 97 20 3f e4 2e aa 3e c1 76 ee be 49 6a c2 be
       0.6273109 0.332389 -0.46574977 -0.37971714
000260 37 7d 0d 3c cb 9a 09 be 24 27 90 3e dd 8d 8b 3f
       0.008635811 -0.13437955 0.28154862 1.0902668
000270 19 05 fb 3d c3 b2 c8 3e 47 03 e9 3e 84 43 9f 3e
       0.12256832 0.39198884 0.45510313 0.31106198
000280 64 74 b3 be f2 9f a7 bc 0c 0f 7b 3f b0 e3 21 3f
       -0.35049736 -0.02046201 0.98069835 0.6323805
000290 e6 90 09 3f f1 fc 4f 3e 68 2c 15 be 91 93 da 3e
       0.5373672 0.20311333 -0.14567721 0.4269071
0002a0 82 b3 42 3e c9 41 3b bd d2 5c cf bd af 3b 1d be
       0.1901379 -0.045717034 -0.10125126 -0.15354799
0002b0 1a 4d bf 3d 83 62 30 bf 1e a7 17 bf fd 5e f3 3d
       0.09340878 -0.68900317 -0.59239376 0.11883352
0002c0 f5 d8 4d 3e 57 55 3f be 4c 63 48 3e d1 06 1d be
       0.20102294 -0.18684898 0.19569129 -0.15334632
0002d0 75 60 60 be e9 1f 99 be 08 dc 2d 3e 81 5e bc bd
       -0.21911795 -0.29907158 0.16978467 -0.09197713
0002e0 ad b4 14 3e ce fe fa 3e 47 50 90 3e e8 4a ed 3d
       0.14522047 0.49022526 0.28186247 0.11586553
0002f0 18 af 7f be 2d 11 14 bf 2b 6b 0b bd 8e 8a c2 3e
       -0.24969137 -0.5783871 -0.03403775 0.37996334
000300 8d 0a c9 bd 35 0f 8b 3d 54 4a 73 be 64 23 f6 3e
       -0.098164655 0.0679001 -0.23758823 0.48073876
000310 97 60 80 3e 33 c2 9c 3e f3 d0 5b be 02 17 8a be
       0.25073692 0.30616912 -0.21466427 -0.2697068
000320 53 57 bc 3e b0 c6 0a bd 72 ff dd 3e ed 0e e7 be
       0.36785373 -0.03388089 0.43358952 -0.45128575
000330 9f 32 d0 be e2 fb 87 3e 4d 1b df 3d 47 4b aa be
       -0.4066362 0.2655936 0.10893879 -0.33260557
000340 90 f2 d3 3d 2e 21 a0 be c2 56 06 3e 42 c1 83 bd
       0.103489995 -0.31275314 0.13119033 -0.064333454
000350 0b 5f 5d 3e 4f a5 5c 3e a0 d7 f4 bd c6 1c b3 3d
       0.21618287 0.21547435 -0.1195519 0.087457225
000360 65 8b d8 3e 9d eb e6 3e d1 c3 57 be 96 b9 80 3f
       0.4229385 0.45101634 -0.21070792 1.0056636
000370 ce 4b 8e be 0a 31 6d be ce 5e a9 be fb f3 5a be
       -0.2779221 -0.23163238 -0.33080143 -0.21382134
000380 4a 06 1e be b5 fe 6d be 21 58 8e be d1 3a 05 3e
       -0.15432087 -0.23241694 -0.27801612 0.13010718
000390 88 e5 67 3d e8 d9 18 3f 8d b9 c6 be 51 ee 7d bc
       0.056615382 0.597075 -0.3881344 -0.015498714
0003a0 5f 32 7f be 94 36 93 bc 1f 93 8c be 17 2c fd bc
       -0.24921559 -0.01797036 -0.27455994 -0.030904813
0003b0 f4 93 2c 3f 4d 7f 31 3f 44 54 4b bd ac 51 81 3e
       0.6741326 0.6933487 -0.04964091 0.25257623
0003c0 da 89 bf be db 2e 82 3e dd 69 33 be 03 63 aa be
       -0.3740986 0.25426373 -0.17520852 -0.33278665
0003d0 63 b2 2f 3f 31 9d 72 be dc b2 fc 3d 16 1d 87 bc
       0.6863157 -0.23692776 0.12338802 -0.016493361
0003e0 dc bd 81 be 38 1e 2e be 4b f3 5f be 18 a8 21 be
       -0.25340164 -0.17003715 -0.21870153 -0.15786779
0003f0 34 c0 f3 3c 3a be 19 3f 0e 70 26 be c3 b5 47 be
       0.029754736 0.6005589 -0.16253683 -0.1950293

bias f4 [128]
000000 13 c4 16 3e 46 25 81 be 62 a7 8b 3e 4a 34 d9 3e
       0.14723234 -0.2522375 0.2727614 0.42422706
000010 52 e2 06 3d 99 c1 86 3e d5 3b 19 3e 7d 89 d7 3d
       0.03293068 0.26319578 0.1496423 0.10524271
000020 ab 2e 8d 3e 2d f6 0b be d5 63 46 3e 27 42 08 3e
       0.27574667 -0.13668127 0.1937402 0.13306485
000030 bb c0 83 3e 17 93 3e 3e 65 a9 fd 3d ec 0d 3f be
       0.2573298 0.18610798 0.12385825 -0.18657655
000040 97 22 ba be d9 d6 ce 3e d4 53 22 be 23 37 46 be
       -0.36354515 0.4039829 -0.1585229 -0.1935697
000050 fd fe 1e 3d bd d8 50 3e c6 3e cd 3e fa d4 63 be
       0.038817395 0.20395179 0.40086955 -0.22249213
000060 0a 7a bb be 4e b9 70 be 62 b0 03 3f a1 bd ba 3b
       -0.36616546 -0.23508188 0.51441014 0.005698875
000070 a8 ae 4e 3e 73 05 7e be a1 47 c1 3e 5e d2 2f 3e
       0.20183814 -0.24806766 0.3774996 0.17170092
000080 fb 6c 79 bd bb b9 20 3e d4 fc e5 3e e1 54 d5 3e
       -0.060894947 0.1569585 0.44919455 0.4166632
000090 d2 95 ed 3d 02 7c 1d 3e e2 1f 21 be 8f d6 6d 3e
       0.116008416 0.15379336 -0.15734819 0.23226379
0000a0 36 6f ac 3c 93 50 26 bd 95 0f 4c 3e 3f 96 3f 3e
       0.021049123 -0.040604185 0.19927819 0.18709658
0000b0 52 b5 1f 3e 4c de 56 3e 8c 1c 11 bd 98 35 8d 3e
       0.15596512 0.20983237 -0.035427615 0.2757995
0000c0 42 c1 5a 3e d3 cf 50 be 36 c6 0c be 56 e3 d0 3e
       0.21362785 -0.20391779 -0.13747486 0.40798444
0000d0 c1 11 41 be d5 03 91 3e 3b a3 33 3d 97 35 c6 3e
       -0.18854429 0.28323236 0.04385684 0.3871276
0000e0 5f ea 4a 3d 34 7b 39 3e 47 eb 9a 3e 22 d7 99 3e
       0.04953992 0.18113405 0.30257627 0.30046946
0000f0 e6 57 f4 3d cf f8 8a 3e 3e a7 c9 3e 39 3c 16 3e
       0.11930828 0.2714295 0.39385408 0.1467141
000100 4c fa af 3e d7 84 a1 3e 89 a2 9a 3e ee ce da 3e
       0.3437065 0.3154666 0.3020213 0.42736
000110 5c ab 25 3d 02 95 d7 bb 37 40 af 3d 57 34 cf 3c
       0.040446624 -0.0065790424 0.0855717 0.025293512
000120 73 c3 e0 3b 95 5f 89 3e e1 19 03 3f a8 58 69 3e
       0.006859237 0.26830736 0.51211363 0.22787726
000130 20 de da 3d 47 b8 c1 3e f4 1f af be 09 21 ab 3d
       0.10686898 0.37835905 -0.34204066 0.0835591
000140 d1 d8 e9 3e 48 3b c3 3e b5 a8 c0 3d b3 4d 00 3f
       0.4567323 0.38131166 0.09407178 0.5011856
000150 66 19 c0 3e 1d fb 3a 3e 64 eb 85 be bd 10 05 3f
       0.37519377 0.18259855 -0.2615615 0.51978666
000160 b7 64 b5 bd e6 32 cd 3e 44 2d 6f 3e 7b ed aa 3c
       -0.088571005 0.40077895 0.23357111 0.020865193
000170 ce 2a 08 3f c2 ff b3 3e a4 15 5a 3e 22 43 61 3e
       0.53190315 0.35156065 0.21297318 0.21998265
000180 72 17 c5 3e 2c a3 ad 3e f3 fc ae 3e dc 49 44 be
       0.3849445 0.33913553 0.3417736 -0.191688
000190 69 6b c9 be b9 b4 f4 3d ea db 53 3e 1c ad 99 3e
       -0.3933976 0.119485326 0.2068936 0.30014884
0001a0 d0 e8 53 3d 90 9b 27 3d 90 1a 8b bc a7 c5 9d 3e
       0.0517357 0.04091984 -0.01698044 0.3081486
0001b0 33 6a 92 3e 3d 50 02 3e 5e 0b d0 bd 34 c9 f4 3e
       0.2859665 0.12725921 -0.10158418 0.47809756
0001c0 96 b9 e0 3b c2 e2 cc be 8b 8f cc 3e 72 e7 0b be
       0.006858061 -0.40016752 0.39953265 -0.13662508
0001d0 17 92 6a 3e ea 85 72 3d 72 40 75 3e d7 ab 06 3f
       0.22907291 0.05920974 0.23950365 0.52605957
0001e0 13 a5 8b 3e 59 34 d1 3d e8 92 2a bd 5e 23 d2 3d
       0.2727438 0.10215063 -0.041644007 0.10260652
0001f0 93 e0 c1 3e 57 74 17 3e dd 0b bb 3e 0b 93 85 3d
       0.3786665 0.14790474 0.36532488 0.06522187

weight f4 [128, 128]
000000 84 0a d0 3e fe 45 35 3f cc 80 e9 bd b8 6a 6b 3e
       0.40633023 0.70809925 -0.11401519 0.22989929
000010 21 06 72 bf 78 11 aa 3d bc d3 45 3e 91 5c ac 3d
       -0.945406 0.08304113 0.19319052 0.08416093
000020 45 7b 39 3d de a9 da bd 91 55 b5 bd d4 c0 19 3e
       0.045283575 -0.10676931 -0.08854211 0.15014964
000030 a8 1b df 3b 1d 39 b2 bf be e8 da bd 4f 40 2e 3e
       0.006808717 -1.392368 -0.10688923 0.1701672
000040 2b fe b3 3e 39 ca 2b 3e 56 94 80 be 7c ce 39 bf
       0.35154852 0.1677636 -0.2511317 -0.72580695
000050 0e 99 20 3b 01 ab cb bd 1b 52 c3 bd 6e bf fa 3d
       0.002450529 -0.09944726 -0.09537145 0.122435436
000060 90 94 29 bd ac 46 c2 3c 7c 73 17 bf ee 60 fd 3d
       -0.041401446 0.02371534 -0.5916059 0.123720035
000070 ed e7 0d bf 4b 44 da be c9 38 fd 3b 30 4e 45 bf
       -0.55432016 -0.42630228 0.0077277166 -0.7707243
000080 07 3e ef be ba 0c cb be c5 da f4 3c a0 de bc 3d
       -0.4672701 -0.39658147 0.029889474 0.0922215
000090 e5 ed df bd e6 a2 91 3d fd 6f 39 bf 49 f6 7b 3e
       -0.10934047 0.071111485 -0.72436506 0.24605669
0000a0 57 c9 8e 3f 9d d3 6d 3d 43 9c c8 3e 63 99 2b 3e
       1.1155194 0.05806314 0.39181718 0.16757731
0000b0 b3 ec ed 3d 2c 79 84 3e 0a 92 d3 be 18 41 23 3e
       0.116174124 0.25873697 -0.41322356 0.159428
0000c0 9e 5a 45 be 3b 9d ca be 64 e2 97 bc 43 d1 03 bf
       -0.19272849 -0.39573082 -0.018540569 -0.51491183
0000d0 3a 1f 4a be 1e 00 0b be 50 ae f8 be 18 f2 26 be
       -0.19738474 -0.13574263 -0.4857049 -0.16303289
0000e0 51 b6 13 bf 1a 52 00 bf 7f 19 1f bd cf 66 9f 3d
       -0.5770007 -0.5012528 -0.038842674 0.07783281
0000f0 eb 10 12 be 57 af d0 bd ba 08 c5 3b fb 83 74 3e
       -0.14264266 -0.101896934 0.006013003 0.23878472
000100 17 50 14 3e c6 e8 ef 3d 3b 78 c8 be e0 c6 15 3f
       0.14483677 0.1171432 -0.3915423 0.58506584
000110 b5 28 a0 bf 51 04 45 3f d7 6d 00 3e 6a a5 b9 3e
       -1.2512423 0.7695971 0.125419 0.36259013
000120 b5 bf 05 3f bd 10 8e be 04 8d 4e 3c fb 4b 9b be
       0.52245647 -0.27747145 0.012606863 -0.30331406
000130 b1 58 5b be 46 0d 61 be c9 ee bc bd 6e 4b 2d bf
       -0.21420552 -0.2197772 -0.09225232 -0.6769322
000140 9b 64 d4 bd 59 eb 00 be 74 4b ba 3d 5d ea 20 bf
       -0.103707515 -0.12589778 0.09096423 -0.6285761
000150 03 07 b1 be 09 95 47 bd 04 96 7f be 0b ca 9b 3d
       -0.34575662 -0.048726115 -0.2495957 0.07606896
000160 51 5e da bc ed 37 0d bf c0 85 ce 3b 6d 48 c0 bd
       -0.026656302 -0.5516346 0.0063025653 -0.09388814
000170 0a f9 08 3e be d8 60 be 9c 50 24 bf 6e 95 b9 3d
       0.13376251 -0.2195768 -0.641855 0.090617046
000180 64 f1 ba 3d 17 d7 3d bc ba 9e 0d be a3 d3 f6 be
       0.09128073 -0.011586926 -0.1383008 -0.4820834
000190 b8 8d fe 3d 1d c6 d5 3e 3d d0 7c be c9 6b ab be
       0.124293745 0.4175271 -0.24688812 -0.3348067
0001a0 f9 ec 99 3f 60 03 36 bd eb 34 94 be 08 11 91 3e
       1.2025443 -0.044436812 -0.28946623 0.28333306
0001b0 b7 e1 32 3f f8 1e 26 bd fe 54 04 bf 2b 13 1d 3d
       0.69875664 -0.040556878 -0.5169219 0.038348358
0001c0 67 45 dd be eb ff 0e 3f 0d 2e 74 3d 7b 49 3b 3e
       -0.43217012 0.5585925 0.05961423 0.1828975
0001d0 8e bb 22 3f c7 a1 40 3e b6 a2 df be b7 23 1f 3e
       0.63567436 0.18811713 -0.43678826 0.15540968
0001e0 b1 8e 96 bd bf 05 d4 3d 5f fc 9b 3e 49 2a bb 3e
       -0.07351435 0.103526585 0.3046598 0.365557
0001f0 65 b8 3c 3d c6 07 ed 3e 0c 17 24 3d 63 24 9f bd
       0.04607429 0.46294993 0.04006104 -0.07770612
000200 ef 35 96 be 2d 9a 6a be 96 a0 24 3e 33 c9 88 be
       -0.29338023 -0.22910376 0.16076884 -0.26716003
000210 4f 45 60 3e 41 7e a6 bd 58 25 5e be fa f5 8a 3e
       0.21901439 -0.0812955 -0.21693933 0.2714079
000220 5a bd 2c 3e b2 39 17 3f 22 14 2c 3d 13 4b 98 3e
       0.16869107 0.5907241 0.042011388 0.29744777
000230 a5 4b df bd 42 13 6d 3e 83 a4 92 3d 73 60 e0 3e
       -0.109031 0.23151878 0.07160284 0.43823585
000240 c8 d5 e8 bc 3d df 5d be 55 c7 78 3e c8 95 6f 3e
       -0.028422251 -0.2166719 0.24294789 0.23396981
000250 73 bf 9f 3d 15 25 60 3e 88 cf d1 3d 93 e3 74 3e
       0.07800188 0.21889146 0.102446616 0.23914938
000260 d2 81 87 3e 40 6c 03 3f e0 04 eb 3d 64 42 9a bd
       0.26466233 0.5133705 0.11475539 -0.07532194
000270 58 b2 8d bc 87 c9 3f bd f0 d7 07 be c6 ae b1 3d
       -0.017296955 -0.04682305 -0.13265967 0.086759135
000280 5f b8 13 3e aa b1 16 3d c1 89 91 bd da 58 a5 3d
       0.144258 0.036790527 -0.071063526 0.08073588
000290 4f c4 c7 bd c6 48 eb bb e2 96 a4 3e 64 f9 66 3e
       -0.0975424 -0.007180306 0.32146364 0.22556072
0002a0 f3 61 ff be eb ae 2e 3e 73 bb db 3d 15 d0 49 3e
       -0.49879417 0.17058913 0.107291125 0.19708283
0002b0 94 30 cb 3c 83 a1 19 3e ad d3 78 3e c1 e5 30 3e
       0.024803437 0.15003018 0.24299498 0.17275144
0002c0 bf 2a cc bd a4 87 9c 3e ff 7c 44 3e ba 2e 3a 3e
       -0.09969091 0.30572236 0.19188307 0.18181887
0002d0 6a 06 72 3e a3 71 47 3d 7e b7 25 3e 47 c3 09 3e
       0.2363526 0.048692357 0.16183278 0.13453399
0002e0 00 0b 58 bd 54 90 90 3e ef e9 03 bc ff 5e a9 3e
       -0.052744865 0.28235114 -0.00805138 0.3308029
0002f0 4b d4 e1 3d 1f d1 99 3d 97 6f 2c bd 64 f9 9f be
       0.1102682 0.0751059 -0.042098608 -0.31244957
000300 db 6a d8 bd f0 5d 34 3d 5d fa 17 3e fe 3f 09 bf
       -0.10567256 0.0440349 0.148416 -0.5361327
000310 11 d4 5a 3e b4 ba 8f be 80 aa d6 3e 06 18 9a 3e
       0.2136996 -0.2807213 0.41926956 0.30096453
000320 9d fb 23 bf 11 d4 a4 3b 8c 5e ed bd d8 6c f9 3d
       -0.64055806 0.005030163 -0.11590299 0.121789634
000330 ce 31 1d 3e b2 d4 e9 bd 84 c1 c8 3e e9 c2 71 3e
       0.1535103 -0.114175215 0.3921014 0.23609509
000340 0d 41 d6 bd f9 ff c3 bd a6 c3 20 3b 7f 64 3f 3e
       -0.10461626 -0.09570307 0.0024530678 0.1869068
000350 f5 1e f9 3d 71 59 da 3a b5 19 e3 3e 19 c1 bf bd
       0.12164108 0.0016658736 0.4435555 -0.09363002
000360 b6 43 61 3e d1 31 ef 3d 46 6a 54 3e 7a 70 63 be
       0.21998486 0.116794236 0.20743665 -0.22210875
000370 8e fc 2f ba 37 b9 63 3d 76 30 69 3e 06 35 43 3e
       -0.0006713354 0.055596557 0.22772393 0.19063196
000380 e1 b1 fc bb 74 15 b5 3d 45 d5 16 3d 02 58 75 3e
       -0.0077116345 0.088419825 0.036824483 0.23959354
000390 03 55 13 3f fb 61 88 be 87 ee 74 3e 9a 0d ba 3d
       0.5755159 -0.26637253 0.23919116 0.090846255
0003a0 4c 99 c3 be 7d 8c d2 3e c7 0f 9a be 04 da b7 3b
       -0.38202894 0.4112281 -0.30090162 0.0056107063
0003b0 b5 d3 e2 bd cb 9c ff 3d 1d 1d 00 3e 8e c2 2f be
       -0.11075536 0.12481078 0.12511106 -0.1716406
0003c0 19 db b3 3d c6 50 19 bf 00 4a 1d 3d be 2c f4 3d
       0.08782024 -0.59888875 0.03840065 0.119225964
0003d0 b0 23 8f be de 7a 2d 3f c7 03 c9 3d e6 8f e2 bd
       -0.27956915 0.67765605 0.098151736 -0.11062603
0003e0 f4 aa 27 3e 58 37 87 3e f5 b8 88 be 9c 95 af be
       0.16373807 0.2640941 -0.2670361 -0.3429383
0003f0 32 a3 c2 3d fb 65 37 be e7 2d ef 3c 74 d3 11 3e
       0.09503783 -0.17909996 0.029196693 0.14240819

bias f4 [128]
000000 23 5a 0f 3e 12 85 80 bd 7f dc e7 3d 85 ba 88 3e
       0.13999228 -0.06275381 0.11321353 0.26704803
000010 bd 48 2b 3e f3 47 11 be e8 18 63 bd e6 a1 00 be
       0.16726966 -0.14187603 -0.055443674 -0.1256176
000020 2d fa e9 bd c3 f5 35 bd 3c 3f d4 bd d0 6a d5 3d
       -0.1142467 -0.04442383 -0.103636235 0.104207635
000030 2c a3 f8 bc 21 d6 3c 3e cb a7 95 3e 36 2f 6f bd
       -0.030351244 0.18441059 0.29229578 -0.058394633
000040 46 fe 92 bd bd 1e 7c 3d c8 f2 03 be a4 8d 42 bd
       -0.07177405 0.06155275 -0.12885582 -0.04749836
000050 ec 54 0d bc f1 23 e1 3d d2 be ad 3d 58 d9 26 ba
       -0.008626204 0.109931834 0.08483662 -0.0006364784
000060 6f 0a a8 bd 35 b3 ca bd 24 ff 3d bc 67 f4 0c 3e
       -0.08205115 -0.09897462 -0.011596475 0.13765107
000070 e0 73 d4 bd 46 72 0b bb 0e 04 04 be fe e3 bd bc
       -0.10373664 -0.002127783 -0.12892172 -0.023180004
000080 52 3f 88 bd 00 e4 7e 3e 08 1f 84 bd a5 b8 f7 bc
       -0.066527024 0.24891663 -0.06451231 -0.030239413
000090 e3 4e 90 3d 59 13 a3 bb 16 9f a6 3d 21 55 0b 3e
       0.070462964 -0.0049766717 0.08135812 0.13606693
0000a0 3a a4 bf bb b7 24 a8 bd 56 61 1b be e3 26 0f bc
       -0.0058484348 -0.08210128 -0.1517385 -0.008737299
0000b0 63 2d 1c be 60 7c cf bd b0 93 91 3d c0 25 1b 3e
       -0.15251689 -0.101311445 0.07108247 0.15151119
0000c0 03 c4 7f 3e 1a 22 8a bd 6e 48 68 3d 0a 6f 48 bd
       0.24977116 -0.067447856 0.0567097 -0.04893402
0000d0 49 57 3c 3e 31 57 85 bb 57 af 08 be 46 1c 3c bd
       0.18392672 -0.004069232 -0.13348137 -0.0459254
0000e0 42 a2 c7 bd 8d 4e 3f bc f5 55 c0 bc a9 52 4a bd
       -0.09747745 -0.011676443 -0.023478488 -0.049395237
0000f0 b0 c0 a9 bd 8e 1d 49 3d cd 11 65 3d 1e eb e8 ba
       -0.08288705 0.04910045 0.05592518 -0.0017770266
000100 eb 7f 2d 3d 26 89 50 bd bb 47 f6 bd 73 7d 93 bd
       0.04235832 -0.050912045 -0.120254 -0.07201662
000110 44 b7 f4 3d a2 82 e3 3d a8 7c 64 3d 7c e3 4b bc
       0.11949018 0.111089006 0.055782944 -0.012444373
000120 5f 63 fc 3b a5 2c 05 bd 4f 7e ef bc 19 75 13 bd
       0.0077022756 -0.03251328 -0.029235033 -0.036000345
000130 31 98 20 3e 8b 06 ef bd 2d c7 f8 3c 2b ee 68 bd
       0.15683056 -0.1167117 0.030368412 -0.05686776
000140 ff 4a 2a 3e 5b 70 cd bc 0e 5b 7a bd f7 d5 ea bd
       0.16630171 -0.02507799 -0.061121993 -0.11466592
000150 a1 17 92 3d e6 bc 15 3e 93 91 0c be 82 75 2e be
       0.07133413 0.1462284 -0.13727407 -0.17037013
000160 16 db f1 bc df 36 aa 3c 19 1c 0d bd 69 be dd bc
       -0.029523414 0.020778118 -0.034450624 -0.027068334
000170 49 c9 8e 3d 98 c7 14 3e 31 5a c0 bc fd 2f 02 bd
       0.06971986 0.14529264 -0.023480507 -0.031784046
000180 b2 d2 03 3e de 29 a5 bd 8b 14 61 3d a1 05 94 3d
       0.12873343 -0.08064626 0.054951232 0.07227636
000190 4f 8f e1 bd c7 58 ad bd d3 9a d9 3d 22 6b 85 3c
       -0.11013662 -0.084641986 0.106252335 0.016286436
0001a0 df 70 14 3d 7e 67 2b 3d bd 42 17 bd 93 0d 5b 3e
       0.036240455 0.041846745 -0.03692888 0.21391897
0001b0 b7 08 85 bd cc ab 03 bd f1 5f f3 3d 72 31 1f bc
       -0.06495803 -0.03214626 0.11883534 -0.0097163785
0001c0 07 08 cf bc 22 62 42 3e b1 e5 54 3e 79 e7 a1 bd
       -0.025272382 0.18982747 0.20790745 -0.07905478
0001d0 bf a3 2f 3e 25 2b 11 be 2e e4 bc bd 0f 36 70 3e
       0.17152308 -0.14176615 -0.09223209 0.23458122
0001e0 f7 7f fa 3d 4f 8c fc 3b 55 79 d5 bb d1 d0 8d bd
       0.122314386 0.007707156 -0.006514708 -0.06924594
0001f0 ac 21 3f 3e b4 b8 d1 bd 2c 46 1c be cd 75 83 bd
       0.18665189 -0.102403075 -0.15261143 -0.06418953

weight f4 [1, 128]
000000 7f 15 a8 3f bc ce f2 be 8a f5 02 3f 51 d6 5a 3f
       1.313156 -0.4742335 0.5115591 0.8548327
000010 48 5a 4f 3f b9 1f ed be 4e 1e 09 bf f2 e1 f2 be
       0.80997133 -0.46313265 -0.53561866 -0.47438008
000020 5b 1b 08 bf fe a1 d8 be 81 19 19 bf f6 d1 d6 3f
       -0.5316674 -0.4231109 -0.5980454 1.6782825
000030 65 51 f0 be dc cd 3c 3f 0a c8 3e 3f 0f e1 00 bf
       -0.469371 0.73751616 0.74523985 -0.5034341
000040 3e 14 de be c5 7a 3a 3f 30 a8 f1 be f4 fa fe be
       -0.4337482 0.7284358 -0.4719863 -0.49800837
000050 0a 9a 05 bf 66 52 cd 3f 0f 80 59 3f a3 48 7c 3d
       -0.5218817 1.6040771 0.84961027 0.06159271
000060 b9 5d 19 bf a7 82 0f bf a2 3a 26 bf c8 8d 55 3f
       -0.59908634 -0.56058735 -0.64933217 0.83419466
000070 66 f0 3f bf 3b 1c 03 bf 42 b0 1d bf 43 f4 01 bf
       -0.74976194 -0.5121495 -0.61597073 -0.5076334
000080 f5 d2 05 bf 55 c1 4c 3f b7 70 f9 be 52 a0 fb be
       -0.5227502 0.799825 -0.48718807 -0.49145752
000090 b0 10 c7 3f b1 97 34 3f e3 2c 44 3f 45 a6 49 3f
       1.5551968 0.7054396 0.7663099 0.7876933
0000a0 26 8f 39 3f 63 11 03 bd 11 a1 fc be 59 aa 66 3f
       0.7248405 -0.031999003 -0.49341634 0.9010368
0000b0 0f b2 d7 be 83 86 f9 be 9a 5e 11 3f fa 8a 7c 3f
       -0.42128035 -0.48735437 0.56784976 0.9864956
0000c0 36 46 41 3f 3b f2 09 bf 0f c8 7f 3f e9 b3 9e 3d
       0.7549776 -0.5388524 0.9991464 0.07749159
0000d0 95 60 66 3f 74 29 05 bf 6d ba 0b bf 27 bd 23 bf
       0.8999112 -0.5201638 -0.5458134 -0.639605
0000e0 2a a6 02 bf fe 84 04 bf 3c 47 e5 be 96 4e 23 bf
       -0.51034796 -0.5176543 -0.4478091 -0.6379179
0000f0 1e 72 0f bf dc 2e db 3e 0c 87 45 3f 64 1f d5 be
       -0.56033504 0.42809188 0.7715919 -0.41625512
000100 df 39 48 3f 40 37 fc be 79 e3 bc be 5a 76 fb be
       0.78213304 -0.49260902 -0.36892298 -0.49113733
000110 4c 5a c8 3e 9b c8 b7 3f 73 85 de 3e 59 6f 22 bf
       0.3913139 1.4358095 0.4346119 -0.63451153
000120 67 08 fa be 1f 02 0a bf 00 c9 f6 be 8b cf e6 be
       -0.48834535 -0.53909487 -0.48200226 -0.45080218
000130 fa 8d 2e 3f 79 cf e4 be f1 44 e1 3f 9e fc fc be
       0.6818539 -0.4468954 1.7599164 -0.49411482
000140 fa 8a ce 3e 1b 86 db be e1 08 30 bf bf be 10 bf
       0.40340406 -0.42875752 -0.6876355 -0.56541055
000150 25 76 a3 3d 15 82 9a 3f 80 c0 10 bf a9 88 d6 be
       0.07981519 1.2070948 -0.5654373 -0.41901138
000160 d2 cb fa be 0f b6 94 3d d7 48 10 bf 0b e6 48 bf
       -0.48983628 0.072612874 -0.56361145 -0.7847602
000170 68 5c 6d 3f e1 ae b2 3f c5 c1 d1 be bf 6e 14 bf
       0.92719126 1.3959619 -0.40968147 -0.57981485
000180 a9 17 26 3f 69 75 01 bf 21 ae 97 3f 52 53 51 3f
       0.6487985 -0.5056978 1.1850015 0.8176776
000190 db c6 03 bf fb fd b0 bd 76 89 65 3f 4b 35 0d bf
       -0.51475304 -0.08642193 0.89662874 -0.55159444
0001a0 57 aa 46 3f 5f e8 69 3f 5a ee a9 bc 3f 6e 5d 3f
       0.7760367 0.91370195 -0.020743538 0.8649635
0001b0 60 ad 04 bf db 16 fc be ae 01 e6 be 1b 98 20 bf
       -0.5182705 -0.49236187 -0.44923156 -0.62732095
0001c0 14 03 d9 be 32 ac 43 3f dc 60 60 3f 04 f1 04 bf
       -0.4238516 0.76434624 0.87647796 -0.5193026
0001d0 c4 55 53 3f a1 04 19 bf 56 61 f9 be 15 30 38 3f
       0.8255274 -0.5977269 -0.48707074 0.7194837
0001e0 0f b5 6d 3f c9 a4 09 bf ec b5 df be 61 61 03 bf
       0.928544 -0.5376707 -0.43693483 -0.51320463
0001f0 a2 f2 ac 3f 11 25 e0 be 30 c5 e7 be 56 68 0d bb
       1.3511546 -0.4377828 -0.4526763 -0.0021577082

weight f4 [128, 128]
000000 de 5b 1d bd 11 49 17 3e 6e 61 64 3d c3 65 18 3d
       -0.03841769 0.14773966 0.05575698 0.037206423
000010 d0 bf a1 bd 93 14 2e bd 5e e7 f8 bd 17 2f c0 3c
       -0.078979135 -0.04250009 -0.12153505 0.023459954
000020 2a 50 e3 bd c3 82 4b 3e 69 00 c8 bd 0f 17 a7 bd
       -0.110992745 0.198741 -0.09765703 -0.08158695
000030 32 26 9d 3d d3 3d c9 3d e3 ee 1f bd 50 44 ef 3d
       0.07673301 0.09826245 -0.03904618 0.116829515
000040 ed 00 b1 3e 8f f4 22 3b 7c f2 7e 3d 6c 4f 2d 3e
       0.3457102 0.0024865007 0.06224297 0.16924828
000050 cb 13 8b 3c 53 8c 78 bb 31 5f 80 3b 4c 1e 3d 3d
       0.016977211 -0.0037925437 0.0039175977 0.04617147
000060 60 f6 7d 3d 8d 51 5d be 39 26 e6 3d 9e ed a2 3e
       0.06200254 -0.2161314 0.11237759 0.31821913
000070 58 08 be bd c2 63 0e bc fa 0a d0 bc e6 18 8d 3c
       -0.09278935 -0.008690776 -0.025395859 0.017223787
000080 c1 dd f1 3c a7 d8 d9 3d 95 c1 5c bd 9c cd 85 3d
       0.029524686 0.10637026 -0.05389555 0.065333575
000090 e0 85 c3 3d 6e d6 39 3e e2 d2 08 be 17 fe 93 bd
       0.09547019 0.18148205 -0.13361695 -0.07226198
0000a0 9a f2 29 be 1c 9c fa 3d ab 1e fd bc 38 0f 78 3c
       -0.16596451 0.12236807 -0.030898413 0.015140347
0000b0 cb 7b 62 3d b8 02 d6 3d fd 93 8e bb 2c e5 29 3d
       0.05529384 0.10449737 -0.0043511377 0.04147832
0000c0 8d c9 8c 3d ef e8 58 be d8 b8 06 bd 46 15 d9 3d
       0.0687438 -0.21182607 -0.032891124 0.10599761
0000d0 42 56 1f 3e 08 3f 16 bc d9 bd e8 3d cc 0a df 3c
       0.15560248 -0.009170301 0.113643356 0.027226828
0000e0 08 b7 61 bd d3 70 2a 3e 9d 34 e0 3c 6a 34 7f 3e
       -0.055106193 0.16644602 0.027368838 0.24922338
0000f0 21 6e b3 bd 3c 95 22 3d 44 0f 93 bd ce eb 7d 3d
       -0.0876124 0.039693102 -0.07180646 0.06199246
000100 e3 d3 e7 3d 0e 50 69 3d 1d 80 c7 bd ef 3c e1 bc
       0.11319711 0.05696111 -0.097412325 -0.027494876
000110 57 03 88 bd ae 35 aa bd e9 37 6d 3d 82 bb e3 3b
       -0.06641262 -0.0831102 0.05791465 0.006949843
000120 e8 5b 8b bd 77 77 b8 3c 9b 0e 4b bc aa 75 c6 3d
       -0.06804639 0.022517903 -0.012393619 0.096904114
000130 c2 02 13 3b a7 bf b9 3d cc c7 e7 3d 57 bc a1 bd
       0.0022432064 0.09069758 0.11317405 -0.07897251
000140 d8 0c a2 3d 02 13 96 3d d0 69 14 bd 7b 80 00 3e
       0.07912606 0.07327844 -0.036233723 0.12549011
000150 f6 46 c5 3c e4 af 84 3c f4 08 0b 3e 58 35 f6 3d
       0.024081688 0.016197152 0.13577634 0.12021893
000160 9a f6 a1 3d 60 b9 94 3b cd 5b 9c bd 8f e3 56 3e
       0.07908364 0.0045387 -0.07634697 0.20985244
000170 ff e0 4d bd 18 73 27 3d 1f 03 1a 3d cb 7b 87 3d
       -0.0502634 0.040881246 0.037600633 0.066154085
000180 67 12 c3 bc bc 9d fd 3d 82 ec 3e bd 14 56 9e bd
       -0.023812486 0.12383601 -0.04661227 -0.07731262
000190 a4 59 28 3e ca 02 5c 3d 7e 23 94 3d d2 ee cf 3d
       0.16440445 0.053713597 0.07233332 0.10152973
0001a0 eb 8f 26 be b2 e0 cf 3d 24 73 f6 3d 1f 28 f1 3d
       -0.16265838 0.10150279 0.1203368 0.117752306
0001b0 b6 5a cd 3c 16 50 48 3d 0c 82 8b bb 81 b8 7e 3c
       0.025067668 0.0489045 -0.004257446 0.015546919
0001c0 6e f0 e3 3d 0d f1 c8 3e 42 9b 07 bc 92 7f d6 3d
       0.11129843 0.39246407 -0.008276762 0.10473551
0001d0 23 e7 33 3d 80 c6 09 be 19 dd a3 3d 38 04 4b bd
       0.0439216 -0.13454628 0.080011554 -0.04956457
0001e0 b9 1b 94 3b 6d de 29 3e e0 5b 1a 3e 8b 66 6c bc
       0.0045199064 0.16588755 0.1507411 -0.014428745
0001f0 bf e5 75 3d f5 00 e8 3d ec 3a ca 3c c9 08 87 bd
       0.060033556 0.113283075 0.0246863 -0.065934725
000200 dd 8e 88 be 6a 24 0b 3e 7a c9 40 bc fe 38 c1 bd
       -0.26671496 0.1358811 -0.011766786 -0.094346985
000210 b3 6e d2 bd 5e 2f 40 be 27 a0 bb bd 36 f3 58 bd
       -0.102750205 -0.18768069 -0.09161406 -0.05296632
000220 c1 ed d1 bd bd 52 15 3e c6 d0 f1 3d 50 a4 42 be
       -0.10250426 0.14582343 0.118073985 -0.19007993
000230 5f ba da 3d 18 95 cf bc 1c c3 3b be a5 19 11 bd
       0.10680079 -0.025339648 -0.18336147 -0.035424847
000240 50 ef 42 be 6f 09 fd bd 7c 4e f4 be a9 92 68 bc
       -0.19036603 -0.12355315 -0.4771613 -0.014195123
000250 b5 6f 1d be c3 59 15 be e4 a6 34 3e 3b cb 01 be
       -0.15374644 -0.14585023 0.17641789 -0.12675183
000260 76 85 d4 be 0a 78 5f be bf 7a 38 3e 0d 7e ce bd
       -0.41508073 -0.21823135 0.18015574 -0.10082636
000270 8c f7 63 be f6 bc 31 bf b6 f8 3d be 37 65 09 be
       -0.222624 -0.69428957 -0.18551907 -0.13417517
000280 b5 55 92 be cc b6 85 be cc 7b db 3d ba a1 51 3d
       -0.28581014 -0.26116025 0.10716972 0.051179625
000290 d9 2a d1 be 40 2d 62 3c 36 bb a6 be 1f 8e b6 bd
       -0.40853003 0.013804734 -0.32564706 -0.08913826
0002a0 ad 67 42 bf 80 46 87 3c 3b a8 87 3d ef 21 37 bd
       -0.75939447 0.01651311 0.06623884 -0.044710096
0002b0 fb da 0e 3d 88 5a 4f 3d 16 7c 8b bd 55 95 dc bd
       0.034876805 0.050623447 -0.06810777 -0.1077067
0002c0 1a a0 33 be cf d6 e5 be d2 28 41 be 3f 27 05 bc
       -0.17541543 -0.44890448 -0.18863228 -0.008127033
0002d0 f1 2c 86 be 8b b3 41 bc b7 04 84 bd 6a d8 1f bd
       -0.26206163 -0.011822592 -0.06446212 -0.039024748
0002e0 68 99 76 3c 1c 2d a3 3d 20 99 5d bd 63 1e 3b 3e
       0.015051223 0.07967588 -0.05410111 0.1827331
0002f0 96 07 8e 3e d8 4c 2a bc d8 92 a1 bc f7 31 1c 3e
       0.27740163 -0.010394298 -0.01972334 0.15253435
000300 41 83 e0 3d 4c 5a fe 3c 6b 14 c0 3d d9 7b 95 3e
       0.10962535 0.031048916 0.093788944 0.2919605
000310 60 df 01 bf ca e1 2b 3e a7 09 fc bd 38 32 1e be
       -0.5073147 0.1678535 -0.123065285 -0.15448844
000320 ee bb 4e be 31 21 a4 3d b3 ca 24 3e 96 b4 8e bd
       -0.20188877 0.08014143 0.16092949 -0.06968038
000330 71 73 89 be 9a 9c 3c 3d fc c8 ae be e6 4e 5b be
       -0.26845887 0.046047784 -0.34137714 -0.21416816
000340 2b a3 43 3e 00 c1 56 3d 52 44 06 be 48 69 3c 3e
       0.19105212 0.052430153 -0.13112 0.18399537
000350 0b dc a1 bd 4b c8 19 bb 79 b3 8f be 71 8c 53 bc
       -0.07903298 -0.0023465331 -0.28066614 -0.012911902
000360 9f 2a 85 be 60 be 85 bd ca 75 15 be 68 e7 a5 be
       -0.2600908 -0.06530452 -0.14595714 -0.3240311
000370 0e 48 95 3d d7 79 e1 bd 03 f1 b0 3d bf 73 08 3e
       0.07289134 -0.11009567 0.08639719 0.13325404
000380 b0 b5 35 bd 0b 87 f9 3c 0b d7 1b bc 22 eb 2a bf
       -0.044362724 0.030459901 -0.009511719 -0.66765034
000390 01 f0 59 3e 8a ee e3 bd 95 e1 b7 bd 03 9d d2 3d
       0.2128296 -0.11129482 -0.08978573 0.10283854
0003a0 13 fe 76 bc e1 bd 66 be 1e 18 73 be a4 a9 55 bd
       -0.015075224 -0.2253337 -0.23739669 -0.052163735
0003b0 61 76 78 3e ff 74 ea be d1 a6 a1 be 17 5e 86 3e
       0.24263908 -0.45792386 -0.31572583 0.2624366
0003c0 43 b0 d2 bd 8b ac ac be 92 8b 3d bc 0c f5 97 3d
       -0.102875255 -0.3372539 -0.011568921 0.07419786
0003d0 23 da 92 3e 3f 57 51 be c8 e5 f4 bd db c7 2f 3e
       0.2868205 -0.20443438 -0.1195789 0.17166083
0003e0 dc 26 b5 3c bc df 86 bd e0 0b 8d bd 4b 86 53 3e
       0.022113256 -0.06585643 -0.068870306 0.20656697
0003f0 b0 8f e8 3d 1a 4b 99 3e b2 8e 4b 3d d3 bc ce be
       0.11355531 0.2994011 0.04969663 -0.40378436

bias f4 [128]
000000 95 38 10 3d 00 57 c3 3d 77 3e f0 bc 0f 8d 3f be
       0.03521021 0.09538078 -0.02932666 -0.18706153
000010 be 78 3d 3e db b6 2b 3e dd 5d 29 bd 0d 52 26 3d
       0.1850309 0.16768973 -0.04134928 0.040605593
000020 bf 19 95 3c 74 10 33 bd 54 ca c2 bd 69 58 1c 39
       0.018200753 -0.043716863 -0.09511247 0.00014910255
000030 e2 ac 4d 3d fd fd 06 3d 9b 94 a1 bd 38 ad 0a 3e
       0.050213702 0.032957066 -0.07889672 0.1354264
000040 d3 4b b9 3c 76 b6 a9 bd 38 b8 cd bd 77 b9 98 3d
       0.022619164 -0.08286755 -0.100449026 0.074572496
000050 af 14 34 bd c6 f8 90 bd 97 17 8b 3c 2e 54 7f 3d
       -0.043965038 -0.070787 0.016979022 0.06233614
000060 a8 90 93 bd d5 7f 57 3e 65 c4 16 bd a2 24 0a 3d
       -0.07205325 0.21044858 -0.03680839 0.033726342
000070 db 19 ed 3d fb b3 23 bb 77 20 87 bc 42 b5 f8 3d
       0.11577197 -0.0024979103 -0.016494973 0.12143947
000080 2e d4 db 3c e0 5e c2 3d 5b 73 0a 3e 34 6e 17 3d
       0.026834574 0.09490752 0.13520567 0.036970332
000090 f3 d7 48 3d 8a ff ac bd 2f 0c 9a 3d 3b b8 0e bd
       0.04903407 -0.08447178 0.07521855 -0.034843665
0000a0 82 87 72 bd fc 78 6c 3d 15 e2 9e 39 53 bb b4 bd
       -0.05921126 0.057732567 0.00030304553 -0.08824792
0000b0 a4 f5 9b 3d 63 03 10 3e 3f 54 b6 bd c5 38 c2 3d
       0.076152116 0.14063792 -0.089027874 0.09483484
0000c0 d1 9a 11 3d 5b 02 b8 bc 21 c9 97 3d c5 f4 b9 bc
       0.035548035 -0.02246206 0.07411409 -0.022699723
0000d0 e0 c7 c6 3d de 6a bb 3c d6 08 ae 3d 2a 1d 01 3d
       0.09706092 0.022878107 0.08497779 0.031521954
0000e0 9d 2c 01 3d aa a5 2a be f2 e6 a7 3d 78 c0 10 3e
       0.031536687 -0.16664758 0.08198346 0.14135921
0000f0 d4 c6 c4 bd 27 bd 40 bc ff da 28 3d b5 75 ef 3d
       -0.09608236 -0.011763847 0.041224476 0.11692373
000100 50 ce 20 bd 9f 5f 43 3d 63 f3 d1 3d 0d fd 15 bb
       -0.039259255 0.047698613 0.102515005 -0.0022886426
000110 72 94 a7 3c 00 a1 e6 3c 97 a2 02 be 21 78 96 bc
       0.020456526 0.028152943 -0.12757336 -0.018367829
000120 50 0d ff 3d be 7a 1d bd cb b7 d5 3d 81 a2 b9 3b
       0.12453711 -0.038447134 0.10435446 0.005665124
000130 34 89 ac 3c c1 a9 23 3e 18 49 35 bd 05 91 ea 3d
       0.021061517 0.15982725 -0.04425916 0.114534415
000140 ad 0f 9c bd bf 73 b6 3c b8 96 81 3d 39 37 6e bc
       -0.076201774 0.022271989 0.063275754 -0.014539533
000150 98 f8 c2 bd 69 f0 83 bd 43 11 23 bd 9b dd d2 bc
       -0.09520072 -0.06442339 -0.039811384 -0.025740435
000160 06 c8 f1 3d 11 b3 e5 3b 1e 16 40 3c b3 25 ac 3d
       0.118057296 0.007009872 0.011724023 0.08405628
000170 b3 87 44 3d 80 3e 03 3d 0d ac 14 bc 4a 10 e1 bc
       0.047980975 0.032042027 -0.009074223 -0.027473588
000180 bb ee bf 3d aa 3a 07 bc 40 61 ef 3c af 2e 9b 3d
       0.09371706 -0.008253733 0.029221177 0.075772636
000190 5a 95 08 bd 30 c6 8a bc 79 e2 4d 3d e7 ca cc bc
       -0.033345558 -0.016940206 0.05026481 -0.024999095
0001a0 a1 8f 24 bd b2 2f ad 3a 79 07 5e bd 5b 62 3f 3e
       -0.040176038 0.0013213067 -0.054206345 0.18689863
0001b0 6e 67 a0 bd f6 50 6a 3d 5c c4 28 3d 09 00 db 3c
       -0.07832228 0.057206117 0.041202888 0.026733415
0001c0 9b 84 9c 3c 0c 98 0e be ce 67 e5 bd 6a ba ee 3d
       0.0191062 -0.13925189 -0.1120144 0.116566494
0001d0 2c a1 05 3c 3b b2 8d bd f8 8a b0 bd d0 0f f4 bd
       0.008156102 -0.069187604 -0.08620256 -0.119170785
0001e0 04 ed 6a 3d b5 d3 56 bd 67 46 b7 3d 6c 82 f0 3d
       0.057354942 -0.052447993 0.08948975 0.11743626
0001f0 26 df ab 3d 37 0f b5 3d 2e 7d c4 3d 59 8c 58 ba
       0.083921716 0.088407926 0.09594189 -0.00082606595

weight f4 [4, 128]
000000 1a 6c bb bc e0 eb 4b be cf 29 c3 bd 30 2b a3 3e
       -0.022878695 -0.19914198 -0.09529459 0.31868887
000010 53 f0 10 bd d2 31 13 3c d9 76 40 bd a1 f3 f5 3d
       -0.03538544 0.008984046 -0.046988342 0.12009359
000020 6b c5 12 3d 48 5d ca 3e b8 df 87 be ff cd cb bc
       0.035832804 0.39524293 -0.2653787 -0.0248785
000030 a2 63 6b 3d aa 3d f4 bd 13 18 4c bd e2 d5 e1 bc
       0.057468064 -0.11925824 -0.049827646 -0.027567808
000040 e4 a4 b0 be c9 2e 08 3e 99 7f d1 bd 13 ee 14 3d
       -0.34500802 0.13299097 -0.102294154 0.036359858
000050 12 10 c4 3d ec c2 33 be bd 38 4b be 2b c2 5e be
       0.09573378 -0.17554826 -0.19845863 -0.21753757
000060 aa 1b 05 3d 97 92 02 3e 9c 48 9a 3e d1 72 0c be
       0.032497086 0.12751232 0.30133522 -0.13715674
000070 d9 0c 62 be 0f d2 b7 be f0 df 05 3e f2 14 e0 bd
       -0.22075213 -0.3590245 0.13073707 -0.10941495
000080 6d 21 95 3e 7f 28 cc bd 1a 16 dd be 28 9b 5d 3d
       0.29127064 -0.099686615 -0.43180925 0.054103047
000090 48 d2 00 3e 88 88 ba 3e dc e9 b1 bd f8 9c cc 3d
       0.12580216 0.3643229 -0.08687183 0.09990877
0000a0 ec 90 97 bd 5e 3b 85 3c 6b 73 97 bc 2d a1 8e 3b
       -0.074006885 0.01626366 -0.018487653 0.0043527097
0000b0 e2 95 a0 3d 4d 55 04 3e 54 03 2f 3e e5 32 af bd
       0.07841088 0.12923165 0.17091113 -0.08554629
0000c0 9a 27 ac 3d 2b 87 af bd 36 15 23 3e 55 80 56 3d
       0.08405991 -0.08570703 0.1592606 0.05236848
0000d0 a9 f9 a5 be 98 ca fd be 96 88 96 bd 9b 0a b4 3c
       -0.32417038 -0.4956863 -0.073502705 0.021977713
0000e0 a4 20 72 bd 4f 16 6c 3e 45 a8 03 bd 7f a8 9c bd
       -0.05911316 0.23055385 -0.032142896 -0.076493256
0000f0 fb ce 9c 3e 8f a9 1c be 8a d1 f0 bd 82 3c ac bd
       0.30626664 -0.15299056 -0.117587164 -0.084099784
000100 30 28 1d bf 65 27 d8 be 33 f7 de bd f7 f8 17 3c
       -0.61389446 -0.42217556 -0.10886993 0.009275666
000110 9c d0 c7 3c d1 0a 36 bc aa e3 80 3e 0e e7 11 bf
       0.024391465 -0.011110977 0.25173694 -0.56993186
000120 4a 94 5d bd 09 80 e3 3c 3b fd c6 3e 9e bc c5 3d
       -0.054096498 0.027771013 0.38865075 0.096551165
000130 da b3 c9 bd f9 21 0b be d9 4c 8d 3d 45 b9 e7 3d
       -0.09848757 -0.13587178 0.06899423 0.11314634
000140 99 a5 34 be 25 b4 50 be a7 0c 6f be 8e aa a6 3c
       -0.17641295 -0.2038122 -0.2334467 0.020344999
000150 d3 d8 d4 bd 48 b0 95 bc 23 fd bc be 76 d2 aa be
       -0.103929184 -0.018272534 -0.36911878 -0.33363694
000160 93 76 a2 3c 4a 84 a4 3e a3 80 9b 3d ef 08 d6 3d
       0.019831931 0.3213218 0.07592895 0.10450923
000170 f3 35 b4 bd ed 3d 40 bd 67 12 7f be 4d 24 50 bd
       -0.087993525 -0.046934057 -0.24909364 -0.05081587
000180 66 5c 85 3e 21 e0 ec 3c b6 60 68 be a8 7c 0c 3e
       0.26047057 0.028915467 -0.22693142 0.13719428
000190 15 74 54 be ca 21 19 be b8 0f 81 3e ab ca a3 bb
       -0.20747407 -0.14954296 0.25207305 -0.004998525
0001a0 77 82 c4 bc ac f6 32 3e c1 07 53 3e ce 21 77 3c
       -0.023987992 0.1747691 0.20608427 0.015083743
0001b0 4c 47 dc bd d0 40 53 3e 78 17 20 be 80 84 d4 bc
       -0.10755786 0.20630193 -0.15633953 -0.025942087
0001c0 38 0d 68 3d 68 c4 5c bd 80 4a 57 3e 02 cc 36 be
       0.05665323 -0.053898245 0.21024513 -0.1785126
0001d0 dd 04 64 3d 7a ff d3 bd 63 46 01 bd dd c9 05 bd
       0.0556687 -0.10351463 -0.031561267 -0.032663215
0001e0 87 e0 8e bb 82 75 1c be a6 39 d3 3d e1 c4 fa 3d
       -0.004360262 -0.152792 0.1031373 0.12244583
0001f0 c6 35 26 be 18 64 14 be 9a 1d 92 bd a3 d4 dd bc
       -0.1623145 -0.14491308 -0.07134552 -0.027078932
000200 ad ad bb bd ee 1c 2a be d4 7b a9 be 7f 1b 35 3d
       -0.091639854 -0.16612598 -0.33102286 0.044215675
000210 7b 1d 2b 3e 64 56 43 3e 1f 43 90 bd 27 7f b2 3e
       0.16710465 0.19075924 -0.07044052 0.34862635
000220 d4 5e b3 3e 81 d3 3a 3e 24 72 09 bf 3e 58 58 bd
       0.35033286 0.18244745 -0.5368979 -0.05281853
000230 1a 00 05 bd 72 78 84 be 95 0d 77 3e 64 67 a1 3e
       -0.0324708 -0.25873142 0.24126275 0.31524193
000240 59 e4 a7 3e 6a dd 03 be cc a7 09 3f b1 e8 a6 bd
       0.32791403 -0.12877432 0.5377166 -0.08149851
000250 7b 39 12 be e7 4e 1e bf 28 d0 83 be 7c f5 66 bc
       -0.1427974 -0.61839145 -0.25744748 -0.014096614
000260 b8 f6 b2 bd 07 5a f6 3c 1a 3e c5 3c d7 9a ec bd
       -0.08738464 0.030072225 0.024077464 -0.11552971
000270 ab dc 04 bf 3e f5 8e 3e 8a 3a 85 3e 12 48 9d 3e
       -0.5189921 0.2792148 0.26021224 0.30719048
000280 60 c4 f1 3e d3 13 53 bc bb 5a ce 3d 4b fc 40 bd
       0.47220135 -0.012883144 0.10075899 -0.047115605
000290 5b 55 4e bd 80 c6 65 bb f2 30 a3 be 3f 4d b0 3e
       -0.05037437 -0.0035060942 -0.3187328 0.34433934
0002a0 8f a9 92 3d f3 87 36 3f 46 63 14 be 6d c2 3c 3d
       0.07161247 0.7130119 -0.14490995 0.046083856
0002b0 70 82 4d 3e 7b 6e aa be 1b 9d 0a 3e e2 be 51 3e
       0.20069289 -0.33287415 0.13536493 0.20482972
0002c0 05 2e b3 bd 8d 05 9e be a6 7a 0a be 5f 41 ea be
       -0.08749012 -0.3086361 -0.13523349 -0.45753
0002d0 f0 9e a9 bd a1 a6 1d 3f e5 aa b3 3d 36 4a b5 3e
       -0.08282268 0.6158238 0.0877283 0.3540818
0002e0 9e 26 8d 3e d9 e5 8c 3d e3 0b fe 3e ed e3 47 bf
       0.27568525 0.068797775 0.49618444 -0.7808216
0002f0 cb c4 d8 3d 3c 85 6a 3e 63 78 02 bf 7b 2a 98 be
       0.1058441 0.22902387 -0.50964946 -0.2971991
000300 6e 58 27 3f 9b 90 14 bf b6 97 4f bf 0c b8 c3 be
       0.6536931 -0.5803315 -0.8109087 -0.38226354
000310 15 3d 02 be 14 91 06 bf 87 58 70 3e 02 85 3c 3f
       -0.12718613 -0.5256512 0.2347127 0.73640454
000320 91 a7 99 be de 33 52 3d 23 f7 46 bd 91 d5 96 3e
       -0.30010656 0.051318996 -0.04857553 0.29459813
000330 af 1b 5c 3e 89 02 7d 3e 0c f0 9e bc 1b 0c 6f 3e
       0.21494935 0.24707998 -0.019401573 0.23344462
000340 28 50 b4 be b9 c0 31 bf 38 19 c2 be fb ef 1b be
       -0.35217404 -0.69434696 -0.37909865 -0.15228264
000350 89 91 dd be 0b eb 3d 3d bd 39 2c bf 1b 01 3f bf
       -0.43275097 0.046366733 -0.672756 -0.7461106
000360 25 a7 da 3e e8 58 9f 3e 67 eb 0f 3f 6d 8d 49 3e
       0.42705646 0.31122518 0.5621857 0.19682856
000370 1e 5b 9f 3c 25 e4 1e 3f 71 8d 00 bf a9 2f 9d be
       0.019452628 0.6206687 -0.5021582 -0.30700424
000380 5e 82 f6 3e 36 2f 54 3d d6 fa d1 be a7 18 7c 3e
       0.48146337 0.051802836 -0.41011685 0.24618779
000390 5c ad 2c 3f cc a8 ff be cf de be be 0b 4d a3 3e
       0.67452025 -0.4993347 -0.37279364 0.31894717
0003a0 56 f8 50 be 1d d3 ef 3e 81 cd 27 3e ac 9e 6e 3e
       -0.20407233 0.46840754 0.16386987 0.23302716
0003b0 d6 70 18 3f a4 bd 8a 3e 73 62 58 3e ca 4b 46 bc
       0.59547174 0.2709781 0.21131305 -0.01210303
0003c0 af 1b a6 3d 81 a9 f1 3c 11 a7 05 3e 3f a2 fe be
       0.08110749 0.029499771 0.13052012 -0.4973316
0003d0 06 c8 14 3d b8 26 06 3f b1 28 4d 3e a8 2f 9f 3e
       0.03632357 0.5240283 0.20035054 0.31091046
0003e0 15 9e 6d bd f3 26 7e 3e ec 63 1f 3f b8 d5 eb 3d
       -0.058012087 0.24819545 0.62261844 0.11515373
0003f0 72 45 b2 3d 9b bd ec bd 74 f9 08 be 80 92 61 3d
       0.08704652 -0.11559602 -0.13376409 0.055071354

bias f4 [4]
000000 55 df 6a bd 64 b9 86 bd 44 5b 3e 3d 43 56 83 bc
       -0.057341892 -0.06578329 0.046473756 -0.016032344
