problem1/models/underway/success_whole_model_1766858959.pth (torch, 146613 bytes, 9 tensors)

weight f4 [128, 8]
000000 a9 e2 5a b9 79 21 1f 3f b1 8b 48 bf 77 c6 ed bd
       -0.00020874538 0.6216045 -0.7833815 -0.1161012
000010 e9 07 e8 be 9d 18 04 be b7 18 cd be 74 d2 ae bd
       -0.45318535 -0.12900014 -0.40057918 -0.085362345
000020 07 93 77 be 03 fc e7 be 4d c4 73 3e 50 83 a5 be
       -0.2417718 -0.45309457 0.23805352 -0.32326746
000030 2e cb bd 3e 46 5c 45 3c e9 43 26 3e 6b 9b 1b 3e
       0.37069076 0.0120459255 0.16236843 0.15196006
000040 50 39 19 3f d7 7b 3c be 8e 0e be 3e 15 41 c2 bd
       0.59853077 -0.18406616 0.3712048 -0.0948507
000050 7e d4 ae be b2 99 28 bd 0d 8c d8 be 30 4b 33 3e
       -0.34146494 -0.0411622 -0.4229435 0.1750915
000060 5a 5e 12 3f b5 79 dd be c7 2a cb 3d bc 9c ac be
       0.5717522 -0.43256918 0.099202685 -0.3371333
000070 8b ba 5b 3d 35 d3 bf 3d a2 a4 9f 3d a1 e7 87 bd
       0.053644698 0.093664564 0.07795073 -0.066359766
000080 96 6b ac be 66 6b 0c 3d b3 98 c8 3d 89 c9 01 bf
       -0.33675832 0.03428211 0.0979475 -0.50698143
000090 4f 19 f9 bd 7c ef e9 3d e3 11 97 3e 36 b1 2a bf
       -0.1216303 0.11422631 0.29505834 -0.6667665
0000a0 2e 1a e3 3c cc 5c b9 3e 30 9f cd 3d f2 55 5d 3d
       0.027722444 0.3620361 0.10040128 0.054037042
0000b0 fd 64 30 3d 8e 80 2b bf 43 67 c4 be 9f 4a 33 bc
       0.04306506 -0.66993034 -0.38360032 -0.010943084
0000c0 c6 00 b3 bd f1 94 20 3e 46 fb ab be 6e 6a e6 3e
       -0.08740382 0.15681817 -0.33590144 0.45003074
0000d0 b5 57 3b 3e 25 45 f9 3e e4 ce af be a7 19 e8 bd
       0.18295176 0.48685566 -0.34337533 -0.11333018
0000e0 57 4f a3 3e 0d 12 ca 3d 39 77 ca 3d 3d 31 fe bd
       0.3189647 0.09866724 0.09886021 -0.12411735
0000f0 ff 98 ae be 93 dc 7f 3d 48 a9 be be 4a 8b a0 3e
       -0.34101102 0.062466215 -0.37238526 0.3135627
000100 2a 8f a3 3e ba 7a 76 3e cb c0 48 3d e1 37 4e 3f
       0.31945163 0.24070254 0.049011987 0.80554014
000110 69 c9 2d be 06 7b be be 0c f8 74 be cf 9e ac be
       -0.16971363 -0.37203234 -0.23922747 -0.3371491
000120 e5 20 c1 be df ac d9 be 60 21 da be d9 39 18 bf
       -0.3772041 -0.42514703 -0.42603588 -0.5946327
000130 55 f3 db be d0 08 86 3e ca de 48 3d 5a ac 39 3e
       -0.42959085 0.26178598 0.049040593 0.18132153
000140 6d db 8d be df 6b ac be e4 cf 26 bf c2 5e 38 be
       -0.2770647 -0.3367605 -0.65160966 -0.18004897
000150 a8 6f f4 3e 5c 7c 1c 3d c8 f1 3b 3c 68 7e 5e 3e
       0.47741437 0.038204536 0.011471219 0.21727908
000160 9b 09 b5 3e 7f 0c a4 3e c6 f3 7a 3e f1 e9 20 3e
       0.3535889 0.32040784 0.24507055 0.15714242
000170 0d 86 8b be 51 e0 39 bf fb 1b e0 be 4e 25 a2 be
       -0.2725071 -0.72607905 -0.43771347 -0.31669086
000180 bf 72 dc 3e 91 1f 30 bf 49 fd 8b be 9d 6c 94 be
       0.43056294 -0.68798167 -0.2734168 -0.28989115
000190 8b 96 90 3d 8c e8 94 3d 59 86 73 3e 61 6f 80 3e
       0.07059964 0.07270917 0.23781718 0.25084975
0001a0 bc 1f df 3e c0 57 46 be 8e cc b8 3e 0b 7c b2 bd
       0.435789 -0.19369411 0.36093563 -0.087150656
0001b0 e3 87 b0 be 7b 8a b5 be 26 f5 39 bf 28 ab 36 bd
       -0.34478673 -0.35457215 -0.7263969 -0.04459682
0001c0 6b 4b 91 3e 82 db 66 3d 5f cf a4 be 24 c1 aa be
       0.28377852 0.056361683 -0.32189462 -0.3335048
0001d0 e4 19 68 3f 59 72 87 be 34 1f 3d be 5b f8 b6 3b
       0.90664506 -0.26454428 -0.18468934 0.0055838055
0001e0 f7 df e0 3e 31 3d cb 3e 44 00 99 3e 66 d9 15 3d
       0.43920872 0.39695123 0.29883015 0.03658428
0001f0 d4 cc 45 be 05 cb 24 bd 67 5a 12 bf 12 56 99 3e
       -0.19316417 -0.040232677 -0.57169193 0.2994848
000200 39 97 99 3e cb a1 62 3f b5 00 c2 be 31 7b c3 be
       0.29998186 0.88528126 -0.37891164 -0.38179925
000210 c6 5a 97 be 2b 22 19 be 33 1c b2 3d 34 ca 39 bf
       -0.29561442 -0.1495444 0.08696785 -0.7257416
000220 63 82 39 3d a8 84 82 3e 32 b3 e9 3e 65 ac a3 3e
       0.045290362 0.25491834 0.45644528 0.31967464
000230 b0 7c 02 bd 13 c7 ae 3e cd dd 1a be 4f 35 07 bf
       -0.031857193 0.34136257 -0.15123673 -0.5281572
000240 d8 2a 3a 3e c2 2d 21 3f 11 1d e8 bd 12 92 9b be
       0.18180406 0.62960446 -0.11333669 -0.3038488
000250 df 1d 90 3e 1c 47 1e be 0a db 99 3d f3 bc 3c 3e
       0.2814779 -0.15456814 0.075124815 0.18431453
000260 54 2b f3 bc d3 1c 3d 3e f8 3a 19 3f 31 43 aa be
       -0.029683746 0.18468027 0.59855604 -0.33254388
000270 71 a3 c3 3d 83 3b f0 3e 18 98 bb 3e 10 1b 99 3e
       0.09552658 0.46920404 0.36639476 0.2990346
000280 aa 8f 44 3c ec 91 8a 3c 3d f9 4c 3e ee a5 9d 3e
       0.011997143 0.016915284 0.20016952 0.30790657
000290 8d 0f b2 bf 7e e5 fe 3d 0f be 2d 3e 14 74 65 be
       -1.3910996 0.12446116 0.16967033 -0.22407562
0002a0 3f 6d 88 be 1b 2d 35 3f c8 7d 2f be f7 74 df be
       -0.26645848 0.7077195 -0.17137825 -0.43643925
0002b0 b4 95 ae bd ac 8c 40 3e 97 6b 32 bd 0c 06 6a be
       -0.08524647 0.18803662 -0.043559637 -0.22853869
0002c0 27 4b 9e be b7 ba e5 be ff c8 99 3e bd 4f 99 be
       -0.30916712 -0.44869015 0.3003616 -0.29943648
0002d0 95 3d dd 3e ad 9f ee bc 9b 83 88 3e 19 4e 1e 3e
       0.43211046 -0.029128874 0.26662907 0.1545948
0002e0 0a e5 3b be 54 a4 97 3d be 3f e1 3d 4d 2d b0 be
       -0.1834909 0.0740439 0.10998486 -0.34409562
0002f0 ad 60 bf bd fa 13 29 3f 3e 9d 6e 3e e7 aa 00 3e
       -0.09344611 0.66046107 0.2330217 0.12565194
000300 98 8c 03 bc 5b c8 98 bc 0e ed 2c 3f 9d b0 50 bf
       -0.008029126 -0.018650224 0.67549217 -0.8151949
000310 e0 0f 24 3c 3b ed de bd 11 17 9f be 96 f0 ac 3e
       0.0100135505 -0.10885092 -0.31072286 0.33777303
000320 60 a1 f3 be 4f cc b5 3e 14 af 05 bf 46 f7 63 3e
       -0.47584057 0.35507438 -0.52220273 0.22262296
000330 7d 69 cb bc 16 0b 25 3e 89 2e 9c 3e ef 58 56 3e
       -0.024830574 0.1611751 0.30504254 0.20932363
000340 fd d9 ca be da ef e3 3e 32 97 fd 3e a8 01 73 3d
       -0.39619437 0.4451893 0.49529415 0.05932775
000350 b0 ee ef 3d 9f 97 06 3e 9b 36 90 be f9 94 3d be
       0.11715448 0.13143776 -0.2816666 -0.1851386
000360 f7 aa 01 bd ad 9e 81 be 01 83 8b be dd 2f 9c bd
       -0.031657185 -0.25316373 -0.27248386 -0.07626317
000370 81 e8 ef 3e e5 31 9e 3e 86 34 af 3e c3 9c 8c 3e
       0.46857074 0.30897442 0.3421976 0.2746335
000380 d5 e1 75 3e 0e 02 a1 3e cd 80 eb bd 57 91 d0 3d
       0.2401193 0.3144688 -0.11499176 0.101839714
000390 1e 69 18 bd cf 51 d3 3e ee a6 4e be ed 81 8e be
       -0.037209623 0.41273353 -0.20180866 -0.278335
0003a0 e7 78 81 3e dd 75 fc bd f4 7b 70 3f 6f 9b 2c bf
       0.25287554 -0.12327168 0.9393914 -0.6742467
0003b0 29 50 ac 3e 93 af c2 be d6 25 5c be 01 2e 5a 3e
       0.33654907 -0.38024577 -0.21498808 0.21306612
0003c0 cf 17 92 be 8f 7d fe 3c af 74 ce be ed 5c 8a be
       -0.2853379 0.03106573 -0.40323398 -0.27024022
0003d0 3b b1 8d 3e 4b 35 a3 3d 30 0b 91 bd 3f 41 9f bd
       0.2767428 0.07969149 -0.07082212 -0.077761166
0003e0 12 0c 13 be 87 96 e3 3e af f8 fa 3e 5d 8e 0b be
       -0.14360073 0.4445078 0.49017856 -0.13628526
0003f0 a6 56 52 3c 5b 02 51 bf 04 88 ab 3d cf 7b 19 be
       0.012838041 -0.8164422 0.08375552 -0.14988635

bias f4 [128]
000000 4f 68 be bd e0 a8 e6 3e 06 da 10 3e 48 6c 21 be
       -0.09297239 0.45050716 0.1414567 -0.15763962
000010 12 02 cd bd d5 88 a0 bc 66 b6 a7 3e c1 2d da 3e
       -0.100101605 -0.019596497 0.32756346 0.42613032
000020 49 6b 2f be f8 12 6b 3e e9 06 81 3e f1 5f 40 3d
       -0.1713077 0.22956455 0.25200585 0.046966497
000030 98 d4 01 bb 19 5e bf 3e 41 c2 b3 3d 23 2d 0f bd
       -0.0019810554 0.37376478 0.08777285 -0.034955155
000040 03 82 33 3e 42 02 47 be 6f 4b 0e be 33 ef 7d be
       0.17530064 -0.19434455 -0.13895963 -0.24798279
000050 0d 06 fb 3b 8b f6 95 3e e7 86 b1 3e 38 d8 d8 be
       0.0076606334 0.2928966 0.34673235 -0.42352462
000060 99 13 2c 3a 1b 86 c9 3d 73 d1 ba 3e d3 a6 cc 3c
       0.00065641996 0.09840032 0.36487922 0.024981892
000070 20 d8 fe 3e 48 e5 85 3d 95 5a 8d be eb d9 d1 3e
       0.49774265 0.065378726 -0.2760817 0.4098657
000080 b7 d8 00 3e 4f dd c4 3d 20 ab 84 3e 8c d4 23 3e
       0.1258267 0.09612524 0.25911808 0.15999049
000090 92 eb 4d 3e 1c 69 cb be c8 81 a5 bb a3 72 1a be
       0.20109394 -0.3972863 -0.0050508715 -0.15082793
0000a0 36 bd 12 3e eb 8f 64 3d e5 a0 ed 3e 8d 43 ae 3e
       0.1432999 0.055801313 0.46411815 0.34035912
0000b0 1b a3 b6 3e a3 4e 01 3f 01 7c b3 be 8f 2b 3f 3e
       0.35671315 0.50510615 -0.35055545 0.1866896
0000c0 52 bc a3 3e 61 09 bf 3d f9 1a fe 3d d5 dd 16 be
       0.31979614 0.09327961 0.124074884 -0.1473306
0000d0 7b c0 66 3b c6 c1 f3 3e 74 5e 2d 3d a6 56 95 bd
       0.0035209942 0.47608775 0.042326406 -0.072919175
0000e0 37 5f cb bd 56 17 62 be a5 1e 51 3d 73 23 02 bd
       -0.0993027 -0.22079214 0.051054616 -0.03177209
0000f0 3b d4 dc bd 7f 59 90 3c f1 b8 85 3e db 3f ae 3e
       -0.10782667 0.0176208 0.26117662 0.34033093
000100 1b 53 02 be 2d 30 37 3e df 87 27 3e 35 a3 82 3e
       -0.12727015 0.17889471 0.16360424 0.25515142
000110 89 6b 35 3e 25 4e c6 3d f1 1c 06 3f ff ea 08 be
       0.17716803 0.09682874 0.5238791 -0.13370894
000120 cd e0 8f 3e 27 85 7d be e2 e2 c3 3e d5 f3 7f bc
       0.28101197 -0.24757825 0.38259035 -0.015622099
000130 d0 45 bf 3e 5f cf 82 3d f9 95 85 3e b3 9c c8 3e
       0.3735795 0.06387209 0.26090983 0.39182052
000140 47 de 10 3e 68 16 4d 3e 9f 95 9e 3e f7 65 d1 3e
       0.14147292 0.20028079 0.30973527 0.40898106
000150 18 43 20 be aa 31 6e 3e 8d 23 fd 3d 28 a2 3d 3e
       -0.15650594 0.23261133 0.123602964 0.18518889
000160 9e 94 c9 3e 5c 68 c8 3e 4f 94 85 3e 60 10 4c 3e
       0.39371198 0.3914212 0.26089713 0.19928122
000170 c0 11 ae 3c 82 cd 99 3b 01 bc 77 3e 9a 13 5a 3e
       0.021248698 0.004693688 0.24192812 0.2129654
000180 f3 04 51 3e 31 7c 87 bb 64 8d 85 be db 4a ae bd
       0.20412044 -0.004134678 -0.26084435 -0.08510371
000190 0a 0f 56 be ce 60 b9 be 19 e1 a2 be ee 3e 05 3d
       -0.20904174 -0.3620667 -0.3181236 0.032530718
0001a0 7e e3 52 be 3d b7 25 be 74 cc 04 3d 23 92 88 be
       -0.20594594 -0.16183181 0.032421544 -0.26673993
0001b0 34 51 32 3e a1 5b 75 3e 3b 5c 6f be 69 42 c5 be
       0.17413789 0.23960735 -0.23375027 -0.3852723
0001c0 f4 23 36 3d 7e 61 49 3c 67 e8 59 3d a4 63 95 3e
       0.04446788 0.01229131 0.05320015 0.29177582
0001d0 5b 52 5d 3e ec 5b 4c 3e a1 e8 ba bd b5 6b bf be
       0.21613447 0.1995694 -0.09126402 -0.3738686
0001e0 c3 0d 68 3b 34 1a 61 3e fc 44 48 3e 72 7c 88 3d
       0.0035408593 0.21982652 0.19557565 0.06664361
0001f0 fa b6 b5 3e e5 d6 41 3d 5e 62 7c 3e 9d c0 97 bc
       0.35491163 0.04732408 0.24646899 -0.018524462

weight f4 [128, 128]
000000 b4 dc b2 3e 7e a4 38 be ef bd cf bd 2e 5c 39 bd
       0.34934008 -0.18031499 -0.10143649 -0.045253925
000010 8b 31 cb be c6 df 96 be 1e 6c 90 3b 7e c2 3a 3e
       -0.39686236 -0.294676 0.00440742 0.18238255
000020 2c dd 50 3f 04 dc ee 3d e7 9e 62 be 20 e0 15 3e
       0.8158748 0.116630584 -0.22130929 0.14636278
000030 52 58 2b be 76 71 b6 be 23 6c 8f bd 32 36 6c 3c
       -0.1673291 -0.3563344 -0.07003047 0.014417218
000040 61 4b eb 3d cd 7f 2c 3d 00 a7 68 3e 59 4b 03 be
       0.11488987 0.042114068 0.22719955 -0.12821712
000050 f8 9b 33 3f 3c 85 1d 3c 03 b1 9a be 8f 98 cf be
       0.70159864 0.009614285 -0.30213174 -0.4054608
000060 4b ef bd 3e 39 42 ce bb 9a e2 86 3e d1 68 39 bf
       0.3709663 -0.0062945154 0.26344758 -0.7242556
000070 0d 0d cb bd 0e 1f e9 3e 19 49 01 be 9d a6 e8 3d
       -0.099145986 0.45531505 -0.12625541 0.11359904
000080 69 f7 3f be 26 75 07 3f 62 8f 5f 3c 6a 93 2b 3e
       -0.18746723 0.5291313 0.013645025 0.16755453
000090 9e 7c 84 bd 9a fe c6 be 0b e7 90 be f3 86 ed be
       -0.06469081 -0.3886612 -0.28301272 -0.4639202
0000a0 7d 84 19 be 69 e7 55 bc 9e 79 4d 3c ab 6f ae be
       -0.14991947 -0.013055661 0.012541203 -0.3406957
0000b0 28 6b e7 3d 44 72 37 3d 50 6f 94 bd 10 b4 77 3e
       0.11299735 0.044786707 -0.07247794 0.24189782
0000c0 7c 3f 9e 3d d6 23 c3 be a6 b0 f7 3d 84 29 c0 be
       0.077269524 -0.38113278 0.1209424 -0.37531674
0000d0 fa b1 79 be d8 0c 4d bc eb fd 98 3e 6c 2c 2c 3e
       -0.24384299 -0.012515269 0.29881224 0.1681382
0000e0 7a 52 36 3e a1 31 0c bf 45 8c dc 3e 19 20 34 3e
       0.178049 -0.5476323 0.43075767 0.1759037
0000f0 51 f2 a2 3e e0 9c 29 3d fe a1 df bd 41 8e 18 3e
       0.31825498 0.041409373 -0.109195694 0.14898016
000100 ed ee 74 be 19 56 2b 3d bb d6 84 be 5b 6e 5e 3e
       -0.23919268 0.041830156 -0.25945076 0.21721785
000110 fa 9c 8a bd d4 51 15 be e5 d1 88 bc da 98 4d 3e
       -0.06768222 -0.14581996 -0.016701648 0.2007784
000120 98 06 08 be a8 ad 65 be 87 ed 35 3e 4e 7f 9d be
       -0.13283765 -0.22429526 0.1776639 -0.30761188
000130 b7 56 d9 3d 99 62 61 bc 75 90 7a be 0c 6e 5f bc
       0.10612243 -0.013756418 -0.24469168 -0.013637077
000140 cc d2 35 be 2f 6f b3 3d 34 84 1f 3d c0 45 3d be
       -0.17756194 0.08761441 0.038944438 -0.18483639
000150 bf b5 a4 3e 1f 17 86 be 0e 3d ab bd 99 1f 29 bd
       0.3216991 -0.26189515 -0.08361255 -0.0412899
000160 ab b1 8b 3d f3 63 0b be 56 ae 11 ba 74 c6 a0 bd
       0.06820997 -0.13612346 -0.0005557289 -0.07850352
000170 8b 89 cf be bc 3c 86 3e 18 3b 5b 3e 2c 52 48 3e
       -0.40534624 0.26218212 0.21409261 0.19562596
000180 7a f3 07 3c 77 18 0c 3e b7 c4 2b 3f 80 46 14 be
       0.008297795 0.13681208 0.6709704 -0.14480019
000190 2c 10 da 3e 8e 0e 96 3e 32 4e d7 bc 99 39 8f 3d
       0.42590463 0.2930798 -0.026282404 0.06993408
0001a0 fb e9 16 3f 56 44 82 bd b5 71 c3 3f d3 2e 50 bf
       0.58950776 -0.0636069 1.5269076 -0.8132145
0001b0 c5 57 a3 bd 36 b9 86 be 70 dd 8d 3e 32 78 aa bd
       -0.07975725 -0.2631318 0.27708006 -0.08323707
0001c0 97 c6 c4 3e d2 4f 46 3d 7c 54 5b 3e 62 f2 0f 3d
       0.38432762 0.048415966 0.21418947 0.035143264
0001d0 14 7b 80 bd 44 bc 93 bd 4f ed ec 3d 68 81 0c bf
       -0.06273475 -0.07213643 0.115687005 -0.5488496
0001e0 6d c3 91 3d 18 a8 d9 bc c1 c5 27 3e f0 d7 01 3f
       0.07117353 -0.026569411 0.16384031 0.5072012
0001f0 1d a5 d5 3d 01 46 dd bd f6 bf 24 3e 51 2d 18 be
       0.104318835 -0.10804368 0.16088852 -0.14861037
000200 52 38 d5 3e 5e fd a5 be 59 a7 04 bf f5 33 2f be
       0.4164453 -0.32419866 -0.5181785 -0.17109664
000210 8a 2a f2 be 89 f4 a0 be 6c 48 ba 3c d3 cf 00 3e
       -0.4729808 -0.31436566 0.022739612 0.12579279
000220 72 32 3d 3f b2 ec 5e 3e d1 46 0a be 13 45 3e 3e
       0.739051 0.2176998 -0.13503577 0.18581037
000230 8d 15 b3 bd 66 ce 01 bf 2a 15 41 3e 3e e4 a8 bc
       -0.08744345 -0.50705564 0.1885573 -0.020616647
000240 d4 8d 7c 3e 71 e5 ad bd b3 e8 45 3e 59 5f 77 bd
       0.24663478 -0.08491028 0.19327049 -0.060393665
000250 9d a9 18 3f 47 54 f5 3d b9 74 f2 be 96 31 96 be
       0.5963381 0.11978965 -0.47354677 -0.29334706
000260 c9 21 6c 3e 25 ae e9 3d e4 9f 28 3e fe b7 1d bf
       0.23059763 0.114101686 0.16467243 -0.61608875
000270 23 10 74 bd ea 00 92 3e 48 24 70 be 14 66 fc 3d
       -0.0595857 0.28516322 -0.2345134 0.12324157
000280 9a 8c 9c bd 6e 91 7b bd cc 24 00 be 14 1b 7f 3e
       -0.07644005 -0.06141799 -0.12514037 0.24912673
000290 c8 c7 a2 3b 0e 65 28 bf 93 63 5c be 05 29 56 bf
       0.0049676634 -0.657792 -0.2152236 -0.8365634
0002a0 31 49 fb bd b5 03 f2 bd 41 b0 a9 bc 70 30 fe be
       -0.122698195 -0.11817113 -0.020713927 -0.4964633
0002b0 84 1c 7a 3d 9c c4 97 3e b6 2c 7d be 8b d1 ae 3c
       0.06106235 0.2964219 -0.24724087 0.021340152
0002c0 14 6b a0 3d 7c cd a5 be 3a 9f 80 3e de 42 31 bf
       0.078329235 -0.32383335 0.2512148 -0.69242656
0002d0 44 7d fd be c3 21 97 3c 18 96 63 3e b5 52 0a 3e
       -0.49509633 0.018448716 0.22225225 0.13508113
0002e0 8c e9 08 be f9 07 b6 be 9a 99 98 3e 83 94 97 3d
       -0.13370341 -0.35552958 0.2980469 0.07401373
0002f0 84 34 83 3d 07 8b 26 bf 8d 9b 3a 3d 22 5f d9 3c
       0.06406501 -0.6505589 0.0455585 0.02653462
000300 86 40 fa be 28 ff df 3d db 37 0a be 2d 5f 32 3e
       -0.48877352 0.10937339 -0.1349787 0.17419119
000310 62 96 d2 3d 74 3b 8a be ff cf 02 3d e7 7d 0d be
       0.102825895 -0.26998484 0.03193664 -0.13817559
000320 e5 74 d9 bc 35 ef a5 be 93 0e 03 3e 10 9a e7 be
       -0.026544997 -0.32409063 0.12798528 -0.45234728
000330 8b b1 a8 3d 4d 4a 17 3e 13 1b ff 3c 38 e7 82 bd
       0.08236989 0.14774437 0.03114084 -0.06391758
000340 8e 2b 98 be 15 33 47 3d e2 f0 02 3e bb f7 aa be
       -0.2972073 0.0486327 0.12787202 -0.33392128
000350 3c f2 8a 3e 60 43 8e be c0 3a e3 be 34 d0 42 3d
       0.27137935 -0.27785778 -0.4438076 0.04756184
000360 50 e3 15 3d e6 0a ac be 13 9e c4 3e c6 46 ed bd
       0.036593735 -0.33602065 0.3840185 -0.115857646
000370 54 1d 0c bf 36 38 e4 3e 90 21 20 be da 18 f4 3d
       -0.5473225 0.44574136 -0.15637803 0.119188026
000380 fd cd 0a be 8f 24 7a bd e9 9f 1c 3f 2b c1 78 be
       -0.13555141 -0.06107002 0.61181504 -0.24292438
000390 4b 66 34 3e fa b0 5b 3e e7 98 83 be 7f 15 ab 39
       0.17617147 0.2145423 -0.25702593 0.00032631677
0003a0 88 b3 da 3e 27 06 20 bf 16 f7 9b 3f db 31 58 bf
       0.42715096 -0.6250939 1.218478 -0.84451073
0003b0 cd ae 9f bd c3 61 9b be 7f bc 88 3d e1 77 26 be
       -0.077970125 -0.30348024 0.06676578 -0.16256668
0003c0 ba cb c5 3e b8 bc 42 bf 1d e0 1b 3e fd 20 4c 3e
       0.38631994 -0.7606921 0.15222211 0.19934459
0003d0 b6 cc 7a bd 55 f8 c6 bd 31 24 97 3d d9 6b 0b bf
       -0.061230384 -0.09715334 0.0737995 -0.5446144
0003e0 a1 57 e5 3d 18 38 c9 3d da a1 8f be 9d 2d 89 3e
       0.111983545 0.09825152 -0.2805317 0.26792613
0003f0 2f 9d 12 3e 78 d9 ee bd 28 8b 80 3e 50 7d 49 bf
       0.14317773 -0.116625726 0.25106168 -0.78706837

bias f4 [128]
000000 42 8d ba 3d 01 03 b7 3b f6 9f 93 bd a0 19 6b bd
       0.09108974 0.005585075 -0.072082445 -0.057397485
000010 02 c2 ce bd 55 5e 83 3d 32 f8 59 bd 7f 0f 56 be
       -0.10095598 0.06414477 -0.053215213 -0.20904349
000020 18 1c b8 bd 1a df 9d bd 9b 5e 54 be c7 33 e6 bb
       -0.089897335 -0.07708569 -0.20739214 -0.0070252153
000030 b2 60 b1 bd 2b 7f b6 3d fc 32 b7 3d 24 1d 5a bc
       -0.08661021 0.08910974 0.089452714 -0.013312612
000040 16 c1 b6 bd fb d1 a2 bd 81 d6 fc bc 5e 6f 8a 3d
       -0.08923547 -0.07950207 -0.030864002 0.06759523
000050 b8 eb 1d 3e d0 f9 72 bd 4e 08 9d 3d 5f e7 86 3d
       0.15421951 -0.05932027 0.076675996 0.06587099
000060 c7 d0 09 be f4 4a 59 be d1 77 fc bd 86 ee 35 3d
       -0.13458548 -0.21219999 -0.12327541 0.044416927
000070 c7 9d 53 be d4 79 9c 3d a1 90 03 3e d4 58 9c 3c
       -0.20665656 0.07640424 0.1284814 0.019085325
000080 91 aa de bd 08 92 10 bd 29 ee 9e bd 71 35 89 bd
       -0.10872377 -0.035295516 -0.07760269 -0.06699646
000090 34 80 0d 3d 21 c8 3c 3d 9a f4 68 3d db 28 03 be
       0.034546092 0.046089295 0.056873895 -0.12808554
0000a0 3e f8 10 bd c9 c7 23 be 80 07 f0 3b 6b be ce bd
       -0.035392992 -0.1599418 0.007325113 -0.10094913
0000b0 a0 e3 92 bd 34 19 b6 bd 0c 4e 9a bc 18 ca f4 bd
       -0.07172322 -0.08891526 -0.018836044 -0.11952609
0000c0 2f e7 3f bd 0c 86 d1 bd 3b d1 0d 3c 47 60 15 3c
       -0.046851333 -0.102306455 0.008655841 0.009117193
0000d0 ff 26 08 be 9a 11 e3 3d 74 34 c0 bd 93 2a 0a bd
       -0.13296126 0.110873416 -0.09385005 -0.03373201
0000e0 62 5c c5 bd 1e c8 f7 bc 97 42 93 bc 68 c1 bd bd
       -0.09636761 -0.03024679 -0.017976088 -0.09265405
0000f0 05 6e cc bd d4 ed a2 3e ab 10 a0 bb b6 c8 80 bd
       -0.09981922 0.31822073 -0.0048847995 -0.062882826
000100 36 42 33 3d 17 ab 04 3e 01 75 df bd c1 3b ad bd
       0.043764316 0.1295589 -0.109109886 -0.08458663
000110 d9 36 ab 3d 47 3b 84 3d e3 b6 07 be de a8 47 bd
       0.08360071 0.06456619 -0.1325336 -0.04874503
000120 ab db d9 bd 1d 23 d8 bd 01 18 73 bd 80 ab d9 bb
       -0.106376015 -0.10553572 -0.059349064 -0.006642759
000130 2a b2 28 be 07 bb be 3d 87 30 53 bd ab d1 03 be
       -0.16474214 0.093130164 -0.05155995 -0.1287295
000140 52 1c 34 be 38 3e 3a bc 17 2a ce 3c 69 75 3e be
       -0.17588928 -0.011367373 0.025166554 -0.18599476
000150 07 70 af 3c b5 50 1c 3e 9e c8 f6 3d 3c 1b 95 3b
       0.021415723 0.15265162 0.120499834 0.0045503657
000160 f5 47 5f 3d a1 58 36 3b 07 6e a5 3d c3 e1 63 bc
       0.054511983 0.0027823823 0.08077627 -0.013908806
000170 59 f8 65 bd 86 d0 d9 bd e4 d0 86 bd c0 5d 93 bd
       -0.056145046 -0.10635476 -0.065828115 -0.07195616
000180 30 df 45 3e da a7 6b be c3 21 23 3e 86 61 9f 3d
       0.1932342 -0.23013249 0.15930848 0.07782273
000190 3a 96 cf bb 6b 93 b8 3d ac 1b c5 bd 2b 61 b0 3c
       -0.006335047 0.09012493 -0.096244186 0.021530708
0001a0 50 f5 ce 3c 77 c3 34 be 0c 67 20 3e bd 5b 50 3e
       0.025263458 -0.17652689 0.1566431 0.20347495
0001b0 0f fc 8a bc 1d f4 c1 bd 2b 9d ed bd b1 d1 2e bd
       -0.016965894 -0.09470389 -0.11602243 -0.042680446
0001c0 c1 63 2c 3e 26 c8 67 3e fa 32 bc 3d 7e fb 29 3e
       0.16834928 0.22634944 0.091894105 0.16599843
0001d0 f6 da 4c bd 2b 83 d4 b9 00 2c 43 bc 4a 16 9b bd
       -0.050013505 -0.0004053352 -0.011912346 -0.07572611
0001e0 77 e9 79 bc 2f 42 96 3e e4 10 46 3e 2a 81 7b bd
       -0.015253416 0.2934737 0.19342381 -0.061402477
0001f0 0c 66 26 3e 71 5d 67 be bf fe 8b 3e 77 4c 18 bc
       0.16249865 -0.22594239 0.27342793 -0.009295574

weight f4 [1, 128]
000000 b9 aa 48 3f a5 8e 41 3f 16 53 13 bd 76 fb 1c bf
       0.783855 0.75608283 -0.03596791 -0.613212
000010 d0 94 1e bf 84 31 cc 3b f3 4a 08 bf 71 be 1f bf
       -0.6194582 0.0062314887 -0.53239363 -0.62399966
000020 62 00 00 bf d3 c0 11 bf c4 94 10 bf 16 08 1a bf
       -0.50000584 -0.5693485 -0.56477 -0.6016859
000030 60 79 14 bf d8 f0 47 3f d9 5f 42 3f b2 0a 2a 3f
       -0.57997704 0.78101873 0.759275 0.6642257
000040 1b 57 25 3f 82 1e 01 bf c5 a9 07 bf fe 7e 44 bd
       0.6458604 -0.50437176 -0.5299342 -0.04797267
000050 6a 74 5d 3f 41 3a 37 3f c7 0c 4e 3f bf 01 25 3f
       0.8650576 0.71573263 0.80488247 0.6445579
000060 9f 03 20 bf e8 77 37 bf be 88 24 bf 99 0e 04 bf
       -0.62505525 -0.7166734 -0.6427115 -0.51584774
000070 ca b4 35 bf ae 12 4d 3f b3 ba 2b 3f d8 29 fb be
       -0.7097899 0.8010663 0.67081755 -0.49055362
000080 89 d4 1c bf 2a 95 13 bf 3a 6a 1e bf 45 43 08 bf
       -0.612618 -0.5764948 -0.6188084 -0.53227645
000090 25 12 19 bf 4f c7 4d 3f d6 d4 49 3f e6 df 01 bf
       -0.5979331 0.80382246 0.78840387 -0.50732267
0000a0 da 3b 1f bf 68 29 00 bf 4f 3c 24 3f f4 8b 0c bf
       -0.622007 -0.5006318 0.64154524 -0.5490105
0000b0 57 91 2e 3f be 69 1a bf fa d7 3a 3f 23 82 3b bf
       0.6819052 -0.603176 0.72985804 -0.7324545
0000c0 ce be 59 3d 3f ee 1b bf e7 00 17 bf ca 37 58 bf
       0.05316048 -0.6091041 -0.5898575 -0.8446013
0000d0 52 9b 20 bf 80 c9 33 3f e0 ac 2c bf 0d ad 11 bf
       -0.62737 0.7022934 -0.67451286 -0.5690468
0000e0 80 f8 06 bf 4c 18 01 bf 97 69 4d 3f 67 73 4d 3d
       -0.5272293 -0.504277 0.8023924 0.050158884
0000f0 3c 85 2c bf a1 84 45 3f 6a e5 ed be 41 dc 2a 3f
       -0.673908 0.771555 -0.46464092 0.6674233
000100 9e 3e a1 bd 4d d7 28 3f 6a b3 ff be 03 1d 19 3c
       -0.078732714 0.6595352 -0.4994157 0.009345296
000110 8a db 61 3f 22 9f 3d 3f 81 40 19 bf 2b 8b 1f bf
       0.88225615 0.7407094 -0.5986405 -0.6232173
000120 ce 34 f9 be d6 6e 17 bf a4 12 ab bd 9c 3e 23 bf
       -0.486731 -0.591535 -0.08353165 -0.6376741
000130 bc dd 10 bf 4f 10 24 3f cf 56 0c bf d3 2c 35 bf
       -0.5658834 0.64087385 -0.5481996 -0.7077152
000140 46 83 41 bf ad 45 0a bf 62 a9 24 3f b1 1a 4a bf
       -0.7559093 -0.54012567 0.6432096 -0.7894698
000150 8f 93 42 3f 89 bc 2c 3f de 8e 42 3f 3b d5 52 3f
       0.76006407 0.6747518 0.7599925 0.82356614
000160 ac e7 53 3f 5f 1d 42 bf 75 a3 54 3f 81 8f 4e 3d
       0.8277538 -0.75826067 0.83061916 0.050429825
000170 70 9b 1a bf df 9d 34 bf c5 03 38 bf 4d d7 f2 be
       -0.6039343 -0.7055339 -0.7188075 -0.47429886
000180 36 0a 37 3f 79 68 31 bf 51 87 5d 3f 90 b2 36 3f
       0.71499956 -0.6930004 0.865346 0.71366215
000190 21 d5 12 bd 5c b2 35 3f 2e cc 10 bf 98 9e 49 3f
       -0.035847787 0.7097528 -0.56561553 0.7875762
0001a0 3d c2 10 bf 0d bd 4d bf 03 2a 57 3f 8d 51 36 3f
       -0.56546384 -0.80366594 0.8404848 0.71218187
0001b0 c9 48 16 bf 44 e4 fd be a4 26 0f bf 22 ba 41 3f
       -0.5870481 -0.49588215 -0.55918336 0.7567464
0001c0 ac f7 28 3f 6c 24 1f 3f 70 9b 36 3f ac d7 4c 3f
       0.6600292 0.6216495 0.7133093 0.8001659
0001d0 f9 fc 16 bf 24 cf 44 3f 96 7f 23 bf bf 9b 09 bd
       -0.58979756 0.7687857 -0.63866556 -0.033595797
0001e0 76 cf e1 be 5e d4 5d 3f dd d9 30 3f 47 fb 13 bf
       -0.44103593 0.8665217 0.69082433 -0.57805294
0001f0 2f 39 39 3f fa dc 4c bf 0f 68 62 3f 7d 85 7b 3d
       0.7235288 -0.80024683 0.8844003 0.0614066

weight f4 [128, 128]
000000 aa c9 4d bc 05 c7 07 3e 8a c5 ae 3d aa be 08 bd
       -0.0125602875 0.13259514 0.08533771 -0.033384956
000010 5d 51 14 bc 3e 4b eb bd ed 76 6a 3e 43 22 71 3d
       -0.009052602 -0.11488961 0.22896929 0.058870565
000020 64 ed 93 be 7b 7b 2d bd 39 b3 95 be 48 a8 e9 bc
       -0.28892052 -0.04235409 -0.292383 -0.028522626
000030 7e ee 9a 3d f8 98 96 3c 2a 1a 2b be 05 81 de bd
       0.0756502 0.018383488 -0.167092 -0.10864452
000040 0c 8b 35 be bc 1d f9 be 90 b8 75 be a9 77 3d 3e
       -0.17728823 -0.48655498 -0.23996186 0.18502678
000050 6e 73 36 3e ad 5c 88 bd 1a 1a d4 3d 83 64 28 3e
       0.1781747 -0.066583015 0.10356541 0.16444592
000060 45 2f dd ba 6f b5 e9 bc 29 39 99 3e d9 18 12 be
       -0.0016875049 -0.028528897 0.29926422 -0.14267291
000070 06 b9 77 3d bd 0f c2 bd d9 eb e8 bc 48 bf 1a 3e
       0.060479186 -0.09475658 -0.028432773 0.1511203
000080 d1 0e 31 bc 86 61 95 3d 5a 57 59 3e 9d 7e d3 bd
       -0.010806755 0.07293992 0.21224728 -0.10326884
000090 75 4a 6a 3c 56 df 53 bf 4b 21 5b bd 15 df e7 3d
       0.0142999785 -0.8276266 -0.053498548 0.113218464
0000a0 5d 3a 08 be 90 44 cf 3e 68 2e 36 3d cd 9d 7b 3d
       -0.13303514 0.40481997 0.04447785 0.061429787
0000b0 67 45 1e 3e 66 2a 46 be f0 2b 17 3c 35 53 2c 3e
       0.15456162 -0.19352111 0.009226784 0.16828616
0000c0 91 d9 eb 3d 84 d8 8b be 5d 6a 71 be 85 89 03 3d
       0.11516107 -0.27313626 -0.2357573 0.03211357
0000d0 eb 06 8b 3d 0a 75 29 3e c2 d2 cc bd 08 1e e3 be
       0.06788429 0.16548553 -0.10001136 -0.4435885
0000e0 0a f8 1e be 2d c3 00 bc 43 ec c5 bc 22 94 4a 3e
       -0.15524307 -0.0078590335 -0.02416051 0.1978307
0000f0 dc 91 c6 bb 6b c1 6f 3e a6 e4 f6 bd e4 f8 01 bd
       -0.0060598683 0.23413627 -0.1205533 -0.0317315
000100 73 a3 00 bf d1 ab 0b bd e7 10 b0 bc b0 dd 12 bc
       -0.50249404 -0.034099404 -0.021492435 -0.008963987
000110 ee 8b d5 3d d3 af ab bd 30 06 b6 bd 9a b8 f2 bd
       0.1042708 -0.08383145 -0.08887899 -0.11851616
000120 52 f5 2e 3d c3 c7 db bd c5 86 04 be f6 e1 ab bd
       0.042714424 -0.10731461 -0.12942035 -0.08392708
000130 db 89 ac bd da 75 d0 3c 35 79 6f bd 3d 50 f3 3d
       -0.08424731 0.025446821 -0.0584652 0.118805386
000140 1c a4 a5 bd fd 17 37 3d a8 15 13 be 53 e0 48 3e
       -0.08087942 0.04470061 -0.1436373 0.19616823
000150 04 bb 15 3c 9d 58 1f be 34 44 93 bb c5 0b 2e be
       0.009138826 -0.15561147 -0.0044942144 -0.16996677
000160 4b 09 fb bd c3 4b d5 3d 7a 63 b9 be ca 2b 30 be
       -0.12257632 0.10414841 -0.36208707 -0.17204204
000170 e9 02 1f 3d 70 57 99 3d 53 81 44 bc 0e b8 bd bd
       0.038821135 0.074873805 -0.011993724 -0.09263621
000180 09 a5 ec 3c 98 d6 81 be f2 4e 2b 3e 62 1f 73 be
       0.028887289 -0.25359035 0.16729334 -0.2374244
000190 29 78 c9 3d 0e b1 a5 bd 37 49 4f 3d 44 6f 2d bd
       0.09837372 -0.08090411 0.050606932 -0.04234244
0001a0 a6 cb 74 3e 88 f7 76 bd fc cc 0d 3f db 91 d5 bb
       0.2390581 -0.060294658 0.55390906 -0.0065176315
0001b0 7d 09 43 be 38 24 e2 bc 22 da 93 be 9c da 78 be
       -0.19046588 -0.027605161 -0.2887736 -0.24302143
0001c0 d4 f7 97 bd cb 1b 89 bd 65 d6 93 bd 61 9d b0 bd
       -0.07420316 -0.06694754 -0.07218627 -0.08623768
0001d0 13 c4 32 3d a4 ca 91 3d ce 88 ea 3d 6c 80 43 be
       0.043644022 0.07118729 0.11451875 -0.19091958
0001e0 1d 90 0e 3e 96 8e 10 3d ba 7d 15 3e 9c ee e7 bd
       0.13922162 0.03529223 0.14598742 -0.11324808
0001f0 6f f3 03 3c 87 a0 40 be 9f df 4a 3d 01 0b e9 bd
       0.008053645 -0.18811236 0.049529668 -0.11379052
000200 29 6d 05 bd 05 52 58 3c 7f 29 ca 3a 6f 1e 9a 3d
       -0.032574806 0.013203149 0.0015423744 0.07525336
000210 59 5f 9e bc 1c e3 f1 bc c8 9b 2f bd 1b 08 04 3c
       -0.019332575 -0.02952724 -0.042873174 0.008058573
000220 2a f5 14 3c 1a 18 65 3c 32 65 71 3b 10 04 7b bd
       0.009091655 0.013982797 0.0036833999 -0.06128317
000230 ec 49 cd bc 81 b0 90 bd c4 9c 33 3d 54 be b4 bd
       -0.025059663 -0.070649154 0.043850675 -0.08825365
000240 23 b1 f8 bc d7 18 4f 3c 18 16 6b 3d e3 d7 7b 3d
       -0.030357903 0.0126402 0.057394117 0.061485182
000250 2e cf 9f bd 22 fb cd bc 17 65 92 3d ce 86 06 bd
       -0.07803188 -0.025144164 0.071481876 -0.032843404
000260 d0 47 a6 bd b1 49 d3 bc 19 7c 09 bd 19 84 89 bd
       -0.08119166 -0.025791975 -0.033565614 -0.06714649
000270 71 6c 25 bd 18 c8 8b bd da aa 1b 3c 7e dd 00 bd
       -0.04038662 -0.06825274 0.009501183 -0.03146123
000280 49 a7 6e 3d 19 45 9f bd 27 18 b0 bb 21 4b b1 3c
       0.058265004 -0.07776851 -0.005373973 0.02164227
000290 3c 76 94 3d 58 26 93 bd a7 fc 73 bd bb 30 63 bc
       0.07249114 -0.07185048 -0.05956712 -0.013866599
0002a0 de f5 2e 3d 8b 9a a2 bd 17 fe 84 3d b7 37 3e bd
       0.042714946 -0.07939633 0.06493776 -0.046439853
0002b0 22 2a 9c bd 0f 5a e4 bc 8c 77 c7 3b 8d 46 43 3d
       -0.07625224 -0.027874975 0.006087249 0.047674704
0002c0 9a 2b 90 3d 30 d8 b2 3c be 6b 69 bc 88 0d ae bd
       0.07039566 0.021831602 -0.014246879 -0.08498675
0002d0 33 70 09 bd dc f9 8e bd 34 66 28 bc a2 fe ba bd
       -0.033554267 -0.06981251 -0.010278273 -0.091305986
0002e0 da 78 b0 bd 7f 18 9a 3c aa aa 83 bd b0 6d 19 bd
       -0.086168006 0.018810509 -0.06429036 -0.03745812
0002f0 63 32 c0 bc 58 9a 3e bc b8 4b 9a bd d3 2b 73 3d
       -0.023461526 -0.011633478 -0.075339735 0.059367966
000300 bf 0b 94 3d b1 ee cc 3c 36 e9 45 bd da e6 f1 3c
       0.07228803 0.02501616 -0.04831811 0.029529024
000310 e3 3a 4b 3d 4b 88 c6 3c 7e 58 1d bb 17 6d a7 3d
       0.049616706 0.024234911 -0.0024009044 0.08175104
000320 ec d0 76 bd 6a 64 90 bd fc a0 e8 3b 1d 05 5d bd
       -0.060257837 -0.070504025 0.007099269 -0.053959955
000330 79 5f 59 3d a4 5f 9b 3d d3 24 3f bd 84 79 86 bd
       0.053069565 0.075866014 -0.046665978 -0.06566146
000340 5c d7 18 3d 77 ec 2a 3d d9 71 7b bd 7a 4e 67 bc
       0.037314758 0.041729417 -0.06138787 -0.014117831
000350 ad 02 71 bd a6 f5 6f 3c 54 bf bc bd 61 7f 0e 3d
       -0.058840442 0.0146459695 -0.092161804 0.034789447
000360 e3 46 b7 bd 73 c7 15 3d 83 2d 2f bd c2 29 8e bd
       -0.089490674 0.036567163 -0.042768013 -0.069415584
000370 32 33 a0 bd ad e9 0d bd 37 58 49 3d a9 b9 c4 bc
       -0.07822265 -0.03464668 0.049156394 -0.02401431
000380 d3 52 93 bd 72 4b e6 bc 24 41 a3 bd 23 1f a2 bd
       -0.07193532 -0.028112147 -0.07971409 -0.07916095
000390 fc 31 5f bd 7d fb 91 bd 4b c1 a4 bd c1 26 ac bd
       -0.05449103 -0.07128046 -0.0804468 -0.08405829
0003a0 f3 37 a7 3d 07 1a 91 3d 4a 88 b0 3d d1 f1 a9 bd
       0.08164968 0.070850424 0.08619745 -0.08298076
0003b0 71 fe 8c bc bf 95 0e 3d 30 eb 87 3d 9f b6 3b 3d
       -0.01721117 0.034810778 0.06636655 0.045828458
0003c0 1b 29 c5 bd 7e 44 4e 3d 3a 5b f1 bc 89 44 c3 bc
       -0.09626981 0.050358288 -0.029462446 -0.023836391
0003d0 84 f8 a9 bd b3 c2 78 3d da 0f af bc 95 b6 6c 3d
       -0.08299354 0.060732555 -0.021369863 0.05779131
0003e0 4e 18 8f 3d 43 68 27 bd a7 e4 30 3d 05 91 39 3b
       0.069870576 -0.040870916 0.04318681 0.0028315198
0003f0 a7 d8 0d 3d e1 58 88 bd 84 46 89 bb 8a 5b 05 bc
       0.034630444 -0.06657577 -0.0041893143 -0.0081395

bias f4 [128]
000000 bb bd 99 3d b5 7d 12 3d 80 29 03 3e 1c ac e2 3c
       0.07506891 0.035764415 0.128088 0.027669959
000010 f3 3f fd bc 52 47 c3 3d 21 ec 80 3d 7f 29 31 3d
       -0.030914282 0.09535088 0.06295038 0.043252464
000020 fe 19 c6 3d f7 45 2d bc 3f 5c cd bc b8 be a9 3c
       0.09672926 -0.010575763 -0.0250684 0.020720825
000030 de ad 53 3d a3 32 3b bc 5b f6 36 3e 9b a8 d3 3d
       0.051679485 -0.011425647 0.17867415 0.10334893
000040 33 d1 30 bd f4 ef a7 3b e2 14 6f 3d f6 3e 0e 3c
       -0.043168258 0.00512504 0.058369525 0.008682003
000050 62 69 72 3c 86 31 3e bc 6e e6 c0 3c 15 ed 9b 3d
       0.014795633 -0.011608487 0.023547377 0.07613579
000060 9d cf d9 bd 4d 5c 01 bd 82 97 b1 3d e2 63 ee 3d
       -0.10635302 -0.031582166 0.08671476 0.11640145
000070 14 96 bd ba 70 5a 7f 3c e1 4f 0a 3e 39 7a 9d 3c
       -0.0014464282 0.015585527 0.13507034 0.01922332
000080 7f 0d ef 3d ee 8c 13 bd a5 c0 e7 3c 87 80 b0 3c
       0.11672496 -0.036023073 0.028290102 0.021545662
000090 e7 00 d8 3d 62 1b fb 37 b6 96 a5 3d da 0e 05 3e
       0.10547047 2.9934283e-05 0.080853865 0.12993947
0000a0 e8 4e 80 3d 00 c3 b7 3d b5 72 c9 3c 57 7f d2 bb
       0.0626505 0.0897274 0.02459083 -0.0064238715
0000b0 90 32 7e bd 20 4b 0e be 0b 46 cf 3c 8a 42 2f bc
       -0.06205994 -0.13895845 0.025301954 -0.0106970165
0000c0 7e db 3e 3d fa b2 b3 3c c0 69 0a 3e 3c 66 4e 3d
       0.046596043 0.021935929 0.13516903 0.050390467
0000d0 e1 e0 1f 3d e9 df 05 3e 37 fb eb 3c 14 f9 2d 3d
       0.03903282 0.13073696 0.028806312 0.042473868
0000e0 52 5f 84 3d 74 d5 0b 3c 12 dd 52 3c 4d e3 c7 3d
       0.064634934 0.008534778 0.01287009 0.09760151
0000f0 87 83 49 bd 28 27 a5 3d 52 99 c4 3c 37 3c 9c 3d
       -0.0491977 0.08064109 0.02399889 0.076286726
000100 2a 9f 6a 3c 84 a1 d2 bc 0f 3b 1b bd a6 78 7c bc
       0.014320174 -0.025711782 -0.03789812 -0.015409624
000110 77 eb 11 3e 67 a5 20 bc ae af 18 bc 7c 11 27 bd
       0.14249979 -0.00980506 -0.009319229 -0.04078816
000120 ef 88 73 3d 36 dc 28 bc ae 41 e0 3d a1 0b 0b 3e
       0.059456762 -0.010306409 0.109500274 0.13578655
000130 5b d7 19 3e 67 cc e3 3d 87 24 cc bc 56 ca cb 3d
       0.15023558 0.11122971 -0.024919761 0.09950702
000140 ce 16 a8 bc 18 8d 32 bc 24 fa 4a 3d c1 31 3f bd
       -0.020518687 -0.010897897 0.04955496 -0.04667831
000150 46 ee 66 3e 58 34 a7 3d 6d b7 53 3d ca dd 9c 3d
       0.22551832 0.08164281 0.0516886 0.076594904
000160 68 30 b2 bd 0c ad 10 bd 4b e0 e1 bc 4e 6c 65 3d
       -0.08700639 -0.03532128 -0.027572772 0.05601149
000170 18 5f b0 3d 23 4a 58 3d 10 5a f8 3c 3f 88 0e bc
       0.08611888 0.052805077 0.030316383 -0.008699476
000180 74 70 d3 bc cd d2 17 3e 2a 7e 0e 3c 15 94 b8 3d
       -0.025810458 0.14826508 0.008697072 0.090126194
000190 f0 7c 7f b7 46 f3 8c bd 5a e7 a6 bc 83 87 b6 3c
       -1.5228274e-05 -0.06882338 -0.020373989 0.022281414
0001a0 33 e5 b8 3d 10 2f 86 3d 44 90 8f bd be dd 19 3d
       0.09028091 0.06551945 -0.07009938 0.037564985
0001b0 53 1d b5 3d 36 71 19 bd db 23 39 3e 22 23 67 bd
       0.08843484 -0.037461482 0.18080084 -0.05642999
0001c0 ef 55 57 bd 8a 2d 19 3e 81 2a 1b 3d a8 b2 77 bb
       -0.052572187 0.14958778 0.03788233 -0.0037795696
0001d0 8a dc 81 bd 95 69 8a bc 72 1b 40 bd 21 21 09 bd
       -0.063408926 -0.016896049 -0.046901174 -0.03347886
0001e0 29 98 9f bd 5d 34 57 3d ad ad 22 3e 42 f9 39 bd
       -0.07792694 0.052540172 0.15886565 -0.045403726
0001f0 63 92 71 3d f9 e7 d0 3d 4f 7b 0f 3e a7 ad 3a bc
       0.058977496 0.10200495 0.14011882 -0.011393941

weight f4 [4, 128]
000000 ec 6c e1 bc 74 8a ad 3d 0a 7a 5f 3e f0 91 5c bd
       -0.027517758 0.084736735 0.21823898 -0.053850114
000010 21 ea 9f 3d 76 30 ed 3d 53 b7 29 3e cd e4 37 bd
       0.078083284 0.11581509 0.16573839 -0.044895936
000020 62 3b 5b 3c c3 2c 1b be 43 1b 47 be b0 0e 53 3e
       0.013380857 -0.15153794 -0.19443993 0.20611072
000030 3e f4 b8 3b fa a1 01 3e 78 62 9d be 5f f6 6d 3e
       0.0056443503 0.12659445 -0.30739188 0.23238514
000040 13 61 4f 3d 36 75 70 3d b8 d7 ca 3d 7b 3a 02 be
       0.050629687 0.05870553 0.09904426 -0.12717621
000050 b5 f3 e1 bd 2b 17 03 3e 10 ef 9f bd 80 0c e9 be
       -0.110328116 0.12801807 -0.078092694 -0.4551735
000060 a0 d1 00 bd 6a c6 5c 3e 97 9c 39 3d ec f2 ef 3c
       -0.031449914 0.21560064 0.04531535 0.029290639
000070 8b 1f a8 3d 45 bc 89 3a 90 25 cc 3c e1 9c 03 bd
       0.08209141 0.0010508379 0.024920255 -0.032132033
000080 a8 ce fc bb 78 52 a0 bd 71 ea 09 bf 1a 37 26 be
       -0.007715065 -0.0782823 -0.53873354 -0.16231957
000090 8d a6 da 3d 4a 3b 50 bd 3b be 57 3b e7 cd 92 3e
       0.10676298 -0.050837792 0.0032919783 0.28672716
0000a0 4b 0c d3 bd 27 8f 59 bd 68 cf 91 3e fa cf c0 bd
       -0.10305079 -0.053115036 0.2847855 -0.094146684
0000b0 17 9f 37 3d b4 c5 63 bd ff ff f9 bd 71 dd 96 3c
       0.044829454 -0.055608466 -0.122070305 0.018416138
0000c0 88 21 52 bd b4 91 34 be 60 90 85 3d d5 8a 23 3d
       -0.05130151 -0.17633706 0.06521678 0.039927322
0000d0 65 80 06 3e 20 47 6a 3e b9 57 1f 3d ed 80 12 3e
       0.13134916 0.22878695 0.03890202 0.14306994
0000e0 63 74 37 bc 80 18 2c 3e 19 c5 cc bc f1 4a 05 bd
       -0.011197182 0.16806221 -0.024996327 -0.032542173
0000f0 f6 f1 e6 bd 9d 08 52 3e a5 e9 54 bd e2 17 c2 3c
       -0.11276619 0.20511098 -0.051980633 0.023693029
000100 f0 ce e5 bd 69 7a 07 be 28 64 a8 bd 9d 1a 01 3e
       -0.11221111 -0.1323029 -0.08222228 0.12607808
000110 4d 51 22 3e 13 0d 4b bc 92 4e f8 3c 8a 8a 2d bd
       0.15851326 -0.012393254 0.030310903 -0.04236845
000120 d4 cc 09 bd 0a 29 54 be c9 95 90 3c 68 78 fc bc
       -0.033642605 -0.2071878 0.017649548 -0.030819133
000130 cd 4c 5d 3e 65 1c 2c ba de dd c9 3d c6 b0 70 3d
       0.21611328 -0.00065655104 0.09856771 0.058762334
000140 bf 7d 3f 3d aa 2c 37 bd a0 a0 a0 3d f5 ec 5e bd
       0.04675078 -0.04472033 0.07843137 -0.0544252
000150 a3 23 54 bd 7a 35 db 3b b1 23 08 3d 68 f6 ba bc
       -0.0517918 0.0066897245 0.033237163 -0.022822574
000160 6f 9a b7 3d 2b e5 07 be 18 ab e9 3c 48 40 d8 3d
       0.08965003 -0.13271014 0.028523967 0.10559136
000170 d3 79 c9 bd ec 6e 2d 3e 16 28 91 3e 9d 27 2e 3c
       -0.09837689 0.16936845 0.28350896 0.010629562
000180 fb 09 2c be 81 1b 2a bb 1e e8 77 3e b6 07 58 3e
       -0.16800682 -0.0025956335 0.2420964 0.21096691
000190 cf 2d 5b 3d 29 bc 15 bc bb 2c 50 bd 0d b4 78 3c
       0.053510483 -0.009139099 -0.05082391 0.015179646
0001a0 45 3b cc bd 28 09 81 3e be b8 56 bd 51 b1 c9 bd
       -0.09972242 0.25202298 -0.052422278 -0.098482735
0001b0 8c ef 1c 3d ed ef 0d bd 53 d0 06 3e d8 64 c8 be
       0.038314387 -0.03465264 0.13165407 -0.39139438
0001c0 f2 2d 8c bd 13 24 c6 3d a0 e9 5b bd e2 c4 08 3d
       -0.06844701 0.09674849 -0.0536896 0.033390887
0001d0 1c 64 7a bd 0c 27 07 bd fb 83 f5 bd d3 0f 2e be
       -0.061130628 -0.032996222 -0.11988064 -0.16998224
0001e0 53 93 78 3e 83 9d 25 3e 47 69 dd 3d 78 d6 5b 3d
       0.2427495 0.16173367 0.10811096 0.05367133
0001f0 8f 24 e3 bc 94 6e 4d be 71 88 9a be 6c e5 22 3e
       -0.027727393 -0.20061713 -0.30182222 0.1590783
000200 81 44 09 3f 24 47 82 3d df 06 28 3e 22 cd ec be
       0.53620154 0.06361225 0.16408871 -0.46250254
000210 cb f2 27 be ee 2e 9e be 15 e0 ef 3e 96 3a 8c 3e
       -0.16401212 -0.3089518 0.4685065 0.27388448
000220 5f 37 87 3e bb 93 d6 bd 40 89 f6 bd 23 41 f9 bc
       0.26409432 -0.10477396 -0.12037897 -0.030426567
000230 c8 44 74 be 25 9f 31 be e7 d5 2a bf 90 f9 c0 3e
       -0.23854363 -0.17345865 -0.6673264 0.376904
000240 be 6d 90 3e 77 58 a6 bd 40 5e 38 3e fd ec d2 be
       0.28208727 -0.08122342 0.18004704 -0.41196433
000250 f8 a5 89 3e 22 15 8c be 31 7b 3e bd 5a 6e 8c be
       0.26884437 -0.27359873 -0.046504203 -0.27427942
000260 50 ae e2 bc eb f1 7b 3e f2 f9 ad 3e 35 3d c6 3e
       -0.02767101 0.24604003 0.33979756 0.38718572
000270 8b 35 9c 3e 77 43 64 be 61 b4 ab be 56 41 30 be
       0.305096 -0.22291361 -0.33536056 -0.17212424
000280 1b 4d 83 3e 4c 77 2c bb 22 e4 19 be 06 59 a9 bd
       0.25644764 -0.0026316224 -0.15028432 -0.08268933
000290 2a 61 43 3e bb 2c c3 be 32 05 a6 be 3c e6 f5 3e
       0.19080034 -0.38120064 -0.3242584 0.48027217
0002a0 70 21 b9 bd b2 2c d1 3c 75 08 96 be 36 49 6e bd
       -0.09039581 0.025534008 -0.29303327 -0.05817529
0002b0 30 17 b5 3e 24 cb de be 55 c7 8e be 0e 01 01 3e
       0.35369253 -0.4351436 -0.27886453 0.12598059
0002c0 07 b0 13 bd b4 2d 73 bf 5f 42 a5 be 02 8c a4 bc
       -0.036056545 -0.9499161 -0.322772 -0.020086292
0002d0 c8 55 b6 3e 6a de 1b 3e ac 78 c9 be 1a 7d 29 3e
       0.3561232 0.15221563 -0.39349878 0.16551629
0002e0 48 af 58 bf 02 62 9e bd 80 37 52 bd 5b 39 7f 3c
       -0.8464246 -0.07733537 -0.05132246 0.015577639
0002f0 49 0a 73 bd b8 cd 49 be a1 cb 5f 3e 7e 71 69 be
       -0.05933598 -0.19707382 0.21855022 -0.227972
000300 66 4b 13 be 8e d1 6d 3e d8 af 44 3d ee 05 2b be
       -0.14384231 0.2322447 0.04801926 -0.16701481
000310 06 a3 eb 3e b8 11 40 bd 6a a6 a9 bd 15 92 a0 bd
       0.46022815 -0.046891898 -0.08283694 -0.07840363
000320 ad fd df 3e d3 ad c6 be 2f aa f7 3d 3d 3c 0c be
       0.43748227 -0.38804492 0.12093007 -0.13694854
000330 97 09 36 3e a5 f9 68 bf f1 a1 8f be 18 13 a2 be
       0.17777096 -0.9100593 -0.2805324 -0.31655192
000340 fd 45 3c 3b a3 fc e2 3c 6d ec 72 3e c3 bb 15 be
       0.002872824 0.027708357 0.23723002 -0.14622407
000350 93 ea 25 bf 04 17 82 3e 2c d6 0e 3f fc 3e c6 3e
       -0.64811057 0.25408185 0.5579555 0.38719928
000360 00 85 fc 3e a1 14 40 be c3 36 70 bd 7d 86 df 3e
       0.4932022 -0.1875787 -0.058645975 0.43657294
000370 3d ae 69 3e cc 60 bf 3e 84 40 4c 3e f4 28 8c be
       0.22820373 0.37378538 0.19946486 -0.27374995
000380 37 85 24 be 20 e1 9d 3e 75 a7 cd 3e cd a7 67 be
       -0.16066442 0.3083582 0.40166822 -0.22622605
000390 3b 57 1b bd 43 9f 98 3c 83 d8 67 bd c6 6a 9a bd
       -0.037924986 0.01863063 -0.056602966 -0.07539897
0003a0 a4 a2 b9 bd 93 44 00 be f9 ed 46 be 27 56 81 bd
       -0.09064224 -0.12526159 -0.19426717 -0.063152604
0003b0 48 c2 a3 be 26 6a c4 bd 14 76 29 be e7 f1 65 be
       -0.31984162 -0.09590559 -0.1654895 -0.2245556
0003c0 34 b2 4b 3d c9 7d 5d be aa 3c 5e 3e 43 f3 bd 3d
       0.049730495 -0.21630014 0.21702829 0.09274914
0003d0 a2 ff 91 3d c6 5b 96 3c c1 2d 24 3e 79 53 8e bd
       0.07128836 0.018354308 0.16033079 -0.06949515
0003e0 ee 87 93 3e a4 7d 4a 3e 63 dd 92 3e ef 99 ec 3e
       0.28814644 0.1977449 0.2868453 0.46211192
0003f0 ff f9 e7 be bd b7 ca 3e ad 25 59 be 46 d1 c3 bc
       -0.4530792 0.39593306 -0.21205778 -0.0239035

bias f4 [4]
000000 c5 b6 14 3d dd e4 46 3d 7c 05 9b bd bd 57 90 bc
       0.036307115 0.048558105 -0.075694054 -0.017619962
