problem1/models/underway/success_whole_model_1766679956.pth (torch, 146613 bytes, 9 tensors)

weight f4 [128, 8]
000000 b5 f3 ff bc de 8c fb be e6 71 d9 3e 1e c2 b8 be
       -0.031244138 -0.4913091 0.4246971 -0.360856
000010 52 29 87 be 1b 5c c7 be 22 f7 2d 3e 7e 37 98 3d
       -0.26398712 -0.38937458 0.16988805 0.07432459
000020 fc ce b0 bc df 20 cb 3e 52 e5 a1 3e 81 6e b5 3e
       -0.021583073 0.39673516 0.3162027 0.3543587
000030 d1 e3 03 be 77 62 16 be d0 7e 83 3d a1 52 c3 be
       -0.12879874 -0.14685999 0.06420672 -0.38148978
000040 07 af 1b 3d 2c de aa 3e f7 3f 4c 3c eb e5 22 3f
       0.038008716 0.3337263 0.012466422 0.63632077
000050 de 5d 3e 3f 5a 55 ac bd c9 db 63 bd 3c 4a b2 bd
       0.7436198 -0.08414717 -0.055629525 -0.08705565
000060 d6 bb 73 bf a8 0f bc be 09 81 b0 be f9 1a 7a be
       -0.9520849 -0.36730695 -0.34473446 -0.24424352
000070 0e 5e de 3e 6a 9a 80 3d 37 c2 80 3c 2c 7e bb be
       0.43431133 0.06279452 0.015717609 -0.366197
000080 79 fd 2d be e5 61 e6 bd 0d c3 8a 3d 31 ea cd be
       -0.16991223 -0.11249141 0.06775484 -0.40217736
000090 ac 3e 7f be c9 6f 5d be 39 38 df 3c aa 6f 68 bd
       -0.24926251 -0.21624674 0.027248489 -0.056747116
0000a0 66 f5 5a be ae c4 ce 3e 56 0f e4 be 03 30 da be
       -0.21382675 0.4038443 -0.4454295 -0.42614755
0000b0 66 bf 80 3e 83 0c f1 be c0 9a 87 3c d5 b2 d0 bb
       0.25146025 -0.47079858 0.016553283 -0.0063689747
0000c0 dd cf 6f 3d 28 01 8b 3e bd 74 c1 3e 1e 19 30 be
       0.058547843 0.2714932 0.37784377 -0.17197081
0000d0 40 03 93 be e9 28 cc 3e 7f 3d 12 be e6 ae e2 be
       -0.28713417 0.39874962 -0.14281271 -0.44274062
0000e0 4d b7 0c be e6 fa fd be 44 06 cc be dc 02 0e bf
       -0.13741799 -0.49605483 -0.3984853 -0.55473113
0000f0 be 62 06 3d 00 42 57 bd f7 70 a7 3d f0 0e 5f be
       0.03280901 -0.052553177 0.08175843 -0.21783042
000100 75 b8 10 be 71 62 c4 be 2c f1 da 3e 71 1e 2b bf
       -0.14132865 -0.38356355 0.42762125 -0.66843325
000110 aa 2a 05 be df a1 86 3e 5d d3 ab be fc b3 c3 bd
       -0.13004556 0.26295373 -0.33559695 -0.09555814
000120 dc 43 8d bd e6 be eb bb 86 46 26 3f 23 97 e5 3e
       -0.06897709 -0.0071943877 0.6495136 0.4484187
000130 de 53 45 3f 7e b6 9d bd e0 29 5c be 77 83 39 be
       0.77081096 -0.07700823 -0.21500349 -0.18116556
000140 ae 06 47 be b4 60 93 be e6 28 04 3e 85 88 d5 3f
       -0.19436142 -0.28784716 0.12906227 1.6682287
000150 df 45 2a 3e ac fb 27 3e 06 53 b3 3e 67 fa ba 3e
       0.16628216 0.16404599 0.3502428 0.36519167
000160 f6 98 30 3e 74 e6 a5 bd fb ac 26 3d 79 45 ca be
       0.1724585 -0.08100596 0.04069231 -0.39506128
000170 17 79 1f 3d 09 d5 91 be b7 18 ff 3e 14 cf 6b 3e
       0.03893384 -0.28482845 0.49823543 0.23028213
000180 68 73 2f 3c a9 83 9c 3e 78 78 ab 3e e1 b6 38 bf
       0.010708667 0.305692 0.33490348 -0.7215405
000190 ba 4d 94 3d 86 c6 44 3d 46 dc b7 be 9c ab 19 bf
       0.07241388 0.04804089 -0.35910243 -0.6002748
0001a0 d4 f5 7e 3e 6f a9 f1 3d 20 35 07 3f 22 90 35 be
       0.24898463 0.11799895 0.5281544 -0.17730764
0001b0 d2 c2 20 3f 07 5b 70 3e 78 40 aa be 15 9b 13 bc
       0.6279727 0.23472224 -0.3325231 -0.009009142
0001c0 62 3d bd bd ec 72 1f bd 13 99 b0 3c 30 2f b2 bd
       -0.092402235 -0.038927957 0.021557366 -0.087004066
0001d0 74 8e de bf f9 ea 67 3c 27 fd 67 3d 02 78 c3 3d
       -1.7387223 0.014155143 0.05663791 0.09544374
0001e0 d3 47 61 3e 7d 94 6b 3e 9b ef e4 bd f7 74 84 3e
       0.22000055 0.23005863 -0.111785136 0.25870487
0001f0 d5 93 55 3d 1f 12 9e 3e 6c 53 bd 3e 66 03 b4 3d
       0.052142937 0.308732 0.36977708 0.08789711
000200 6e 23 bb 3d 0a 09 0d 3e df 47 c4 bd 2d 76 f8 be
       0.09137617 0.1377298 -0.09584021 -0.4852766
000210 49 23 a4 be d8 04 60 bd d8 fc 96 3e 11 3a 9c be
       -0.3205817 -0.05469212 0.2948978 -0.3051305
000220 b0 7b 15 be a0 4f 0b be de 15 5f bf b0 69 12 bf
       -0.14597964 -0.13604593 -0.8714274 -0.57192516
000230 64 53 0a bd 19 2a d9 3d 8d 99 cf 3e 70 b1 0a 3e
       -0.033770934 0.106037326 0.40546837 0.1354425
000240 a4 9d 12 bf df 42 55 be 16 0d 08 bf c8 16 60 bc
       -0.5727179 -0.2082629 -0.5314497 -0.0136773065
000250 da 41 fc 3e 57 b7 54 3e cf f2 6f be 80 52 40 bd
       0.4926899 0.20773064 -0.23432468 -0.046953678
000260 3e ff fc 3e e9 74 6d 3c 2e e6 e9 3e 36 64 21 3f
       0.49413484 0.014493206 0.45683426 0.63043535
000270 58 69 7c be dd e4 3a be 32 f5 75 be 5e 3b 8d be
       -0.2464956 -0.18251367 -0.24019316 -0.27584356
000280 df 36 16 3e 6f ab 7d 3e f1 a0 6b 3e a9 e9 4e bd
       0.14669369 0.24772428 0.23010613 -0.050515804
000290 19 d1 f9 be da fa 84 be 92 b1 90 be 3d 70 c2 3e
       -0.4879234 -0.25972635 -0.28260475 0.37976256
0002a0 80 c7 8a 3d d5 11 ea 3e 07 69 ec bc 4c c3 15 3f
       0.06776333 0.4571673 -0.028858675 0.58501124
0002b0 c0 91 a9 3e 8c b5 d0 be b3 89 1c bd e2 56 98 be
       0.3311901 -0.4076351 -0.038217258 -0.29753786
0002c0 6d 25 29 be df 6f 1a 3e 05 b6 9c 3e 4b 97 5c 3f
       -0.16518183 0.15081738 0.3060762 0.86168355
0002d0 98 28 d3 be a3 09 cb 3d 97 0d 0f 3c a7 25 43 3e
       -0.41241908 0.099139474 0.008731267 0.19057332
0002e0 13 28 36 bd 44 f3 63 bd 01 00 e5 bd 9b 26 02 bd
       -0.04447181 -0.055651918 -0.11181641 -0.0317751
0002f0 5a f9 37 bf 37 f5 24 bf 58 f6 bb be 93 f2 a5 3e
       -0.71864855 -0.6443667 -0.36711383 0.32411632
000300 3b d7 46 3e cc a4 19 be 44 93 22 3d a2 03 dd be
       0.19418041 -0.15004271 0.039691225 -0.43166834
000310 b8 5d a7 3d 6e 3f 83 be 72 b6 99 3e 45 64 81 3d
       0.08172172 -0.2563433 0.30022007 0.06317953
000320 1f 9c 12 be ea f4 7c be 62 12 8d 3d d8 d3 28 bf
       -0.14317368 -0.24702802 0.06888272 -0.6594825
000330 6d 3a ea 3d 6c c5 71 be 03 76 95 be 26 12 a2 3d
       0.11436925 -0.23610467 -0.29191598 0.07913618
000340 85 ff 59 bf 37 ef 4a 3e e7 57 04 bf df 62 54 be
       -0.85155517 0.19817816 -0.5169663 -0.20740841
000350 3e f5 44 3d ad 41 56 be d4 ed 9d 3d 9f a8 b8 bc
       0.048085444 -0.20923491 0.07711378 -0.022541342
000360 76 af 22 3e da 28 a3 3e a8 f5 80 3e 64 c4 af 3b
       0.15887246 0.31867105 0.2518742 0.0053639878
000370 fe e5 9d bd 8a 1c 36 bf de d8 1f bf d7 7e 54 be
       -0.07709883 -0.711373 -0.6244029 -0.2075151
000380 f1 5c 1a 3e 47 2d 6d bc ac e2 10 bd 92 63 b5 be
       0.15074517 -0.014476127 -0.03537242 -0.3542753
000390 12 38 a7 3e 61 72 bb be 8c 94 93 3e 4a f1 c1 bd
       0.32659966 -0.36610702 0.2882427 -0.0946985
0003a0 21 62 c7 be 1c b5 0e 3e 33 66 7f be 7a 9c 44 3e
       -0.38942054 0.13936275 -0.2494133 0.19200316
0003b0 0b d3 d4 3c bb 71 0a bf 74 ed ce be 2c fd 0a bd
       0.02597954 -0.5407979 -0.40415537 -0.03393285
0003c0 df 84 bf 3d 14 b0 83 bd 35 b0 0f 3f ab 95 5a bf
       0.09351515 -0.064300686 0.56128246 -0.85384625
0003d0 5e e6 89 3d 74 bf 94 3e 9a 90 50 3d cf da 35 bc
       0.06733392 0.29052317 0.050919153 -0.011099531
0003e0 bd 0c d7 bc f4 dd 8e be 6f f8 04 be 99 bf 20 bd
       -0.026251191 -0.27903712 -0.12985395 -0.03924522
0003f0 19 26 46 be 17 f5 1c 3f 32 b4 60 3d 4b cf 9a 3e
       -0.1935047 0.6131148 0.054859348 0.30236277

bias f4 [128]
000000 50 1c bb 3e 94 9a 24 3e 26 94 bf 3e a8 a8 cf bc
       0.36545038 0.16074592 0.37417716 -0.025348976
000010 9b 5c 97 3e 88 06 8f 3e 4d 28 92 3e 05 b1 40 be
       0.2956284 0.2793467 0.28546372 -0.18817528
000020 16 35 d4 3e 4f c9 8b 3b 1d 1c 98 be a3 7f 74 be
       0.4144675 0.004265941 -0.2970895 -0.23876815
000030 e2 b4 0a bd 2b 54 84 3e 7d f8 0e 3d f8 f3 f2 3d
       -0.03386391 0.25845465 0.034904946 0.118629396
000040 55 05 04 3f 15 b1 ba 3d 6a 22 9a 3e 6f 4f 94 3e
       0.51570636 0.09115807 0.3010438 0.28966853
000050 c8 08 cc bd a6 d1 bb 3d 04 ed a7 be d8 f5 6c bc
       -0.099626124 0.09170847 -0.32798016 -0.014462911
000060 70 48 6b 3e 8b d7 6b be d8 f3 9a bc ad 4a 0d 3e
       0.22976851 -0.23031442 -0.018915102 0.13798018
000070 f9 8b b7 3d ed a0 2c bd d8 2f 00 be 2b d2 88 3e
       0.089622445 -0.04214566 -0.12518251 0.26722845
000080 e0 c6 5e be 18 f8 8c 3e 91 6f b3 be 8b ae bd 3e
       -0.21755552 0.2753303 -0.35046056 0.37047228
000090 30 af 8c 3e 0a 63 0a 3e 00 d4 71 be 35 6e 1d 3e
       0.27477407 0.13514343 -0.23616028 0.15374072
0000a0 ae 93 84 3e 8a c2 e6 3e 4c 39 6c 3e 61 82 68 3e
       0.2589392 0.45070297 0.23068732 0.22705986
0000b0 55 c7 dc 3e 54 e9 89 3d a8 bc d6 3b 9a 9c a6 3e
       0.43120828 0.06733957 0.0065532513 0.32541353
0000c0 eb 55 ac bc 9d cf fe bd dd 09 9e 3e a0 48 a3 bd
       -0.021037063 -0.12441943 0.308669 -0.079728365
0000d0 95 08 3a 3d ce 92 b7 3e 78 3a 96 3e 0a 57 22 3e
       0.04541834 0.3585419 0.29341483 0.15853515
0000e0 93 e3 93 be 9c db 23 bc 19 24 93 3d 79 db a8 3e
       -0.28884563 -0.010001089 0.071846195 0.32979944
0000f0 c1 1c aa 3d 7d f2 92 3e 00 65 13 3d 38 82 26 3e
       0.083062656 0.2870063 0.035984993 0.16260612
000100 aa 1a 27 be 5c d1 a6 3e 6c 53 b2 3e ca 6c 16 be
       -0.16318765 0.32581604 0.3482927 -0.14689937
000110 8f ef be be bf 4a f8 3e c9 01 3f 3e 27 e7 8e 3e
       -0.37292144 0.48494527 0.18653025 0.2791073
000120 f8 06 e9 3e 8e aa 4d 3e 30 24 b4 3e e3 e5 91 3e
       0.4551313 0.20084593 0.3518386 0.28495702
000130 02 fb 25 3d 82 9f 31 3d 13 e0 c6 3e f4 c0 30 3d
       0.040522583 0.04336501 0.3884283 0.043152764
000140 c7 b0 84 3e f9 7b 3e 3e 59 21 cb 3e f7 fc 83 3e
       0.2591612 0.1860198 0.3967388 0.25778934
000150 20 69 58 3e 72 9b ac 3e 8a 3d 2f 3d ff e0 14 3c
       0.21133852 0.33712345 0.042783298 0.009086846
000160 32 b6 56 bd 58 60 25 3e 2f 6d d9 3d 7e 34 06 3f
       -0.05241985 0.16150033 0.10616528 0.52423847
000170 65 e0 80 bd b7 c3 ce 3e e6 40 96 3e fd 87 f3 3e
       -0.062928 0.40383694 0.2934639 0.47564688
000180 a6 77 d6 be ab 87 01 3f 5c 36 8a be 0e 0a b1 3e
       -0.4188816 0.5059764 -0.26994598 0.34577984
000190 8e 8a b2 3e 39 ee d6 bc 5e da 92 3d de c1 97 be
       0.34871334 -0.02623664 0.071705565 -0.29640096
0001a0 7a d5 cf 3b c8 09 ba 3c 68 f6 e9 3e 3a 02 29 be
       0.006342587 0.022709742 0.45695806 -0.16504756
0001b0 57 a8 a6 be 57 ae 25 3e d4 cf 2e 3e 50 44 1c 3d
       -0.32550308 0.16179787 0.17071468 0.038151085
0001c0 b6 7e 64 3e 52 a2 e6 bd 70 7c 02 bf b3 41 a7 bd
       0.22313961 -0.11261429 -0.50971127 -0.08166828
0001d0 c9 86 45 3e 6f f0 92 3e f1 5a 58 3d 89 b8 c0 bd
       0.19289698 0.2869906 0.052821103 -0.09410197
0001e0 5c 4b 8b 3e dc 8e e7 3d 03 1a ed 3e 0e 91 c2 be
       0.27205932 0.11306545 0.46308908 -0.38001293
0001f0 08 50 ac 3e a3 f3 41 3d 10 af cc 3e 08 70 ad 3e
       0.3365481 0.04735149 0.39977312 0.33874536

weight f4 [128, 128]
000000 c4 80 6e be 1e ee 30 3e af c2 2a 3d ab 6d 8f be
       -0.23291308 0.17278334 0.04168957 -0.28013358
000010 9e f2 ee be 22 fe 2e 3e dd 28 9a 3e de 14 8c be
       -0.46669477 0.17089131 0.301093 -0.2735967
000020 1d 48 42 3d 46 e2 1f 3f 46 ce 82 3e 6c f3 d0 be
       0.047432054 0.6245464 0.25548 -0.40810716
000030 84 7c 91 3e f1 df 11 3e 41 52 27 3f 37 bf c5 3d
       0.2841531 0.14245583 0.65359885 0.09655612
000040 73 8b 8a 3c 51 71 e2 3c 76 b3 ac be 2a 85 27 3e
       0.016912198 0.027641924 -0.33730668 0.16359392
000050 51 17 83 3d 3f 78 d4 3d df 49 fa 3e 2c 73 a0 be
       0.064009316 0.103744976 0.48884484 -0.3133787
000060 f3 38 ce be 6e eb e2 be 10 cb 64 bd 3f 07 88 bd
       -0.40277824 -0.44320244 -0.055857718 -0.06642007
000070 99 19 c5 be 5b c5 87 3d f5 97 d1 be 14 6a ad 3c
       -0.38496092 0.066294394 -0.40936247 0.021168746
000080 a7 55 75 be b2 00 f0 3d 59 77 c3 bc c5 0c 59 be
       -0.23958455 0.117188826 -0.02386062 -0.21196277
000090 b3 c5 5c 3e 1d 6f ac be 61 a0 dd bd 2d e4 73 3c
       0.21559791 -0.33678523 -0.108216055 0.014885944
0000a0 b3 53 77 bf 27 d8 c3 bd 21 18 40 bf f8 72 83 be
       -0.9661209 -0.09562712 -0.7503682 -0.25673652
0000b0 75 75 98 be 65 99 99 bb 5b 29 20 3f 63 6d 50 3d
       -0.29777113 -0.0046874755 0.62563103 0.05088557
0000c0 dc b5 e2 bd 7e bb 68 be 10 24 31 be e0 52 d7 be
       -0.11069843 -0.22727773 -0.17298913 -0.42055416
0000d0 38 9d 9b be a1 aa bc bd 01 d6 b9 3d bf 25 9f 3d
       -0.30393386 -0.092122324 0.09074021 0.07770871
0000e0 7c ad 61 be 1e 87 21 bf a1 7f 09 3d 55 fb f1 bd
       -0.22038835 -0.630968 0.033568982 -0.11815516
0000f0 77 ab 28 bf 3d 58 04 bf 9a 13 27 3f 1b e4 00 bc
       -0.65886635 -0.5169714 0.65264285 -0.007866885
000100 a5 7c c5 be dd a3 d4 3d b5 49 8c be bc 33 94 be
       -0.3857166 0.10382817 -0.27399984 -0.2894572
000110 49 6e 8d be 94 2c 74 3e 4b 2b 78 3f 51 6e 99 3e
       -0.27623203 0.2384513 0.9694106 0.29966977
000120 28 6f 04 3d d0 f6 a6 3e 2e 24 07 3e 00 a4 58 3e
       0.03233257 0.32610178 0.13197395 0.21156311
000130 d5 c7 0f 3e b1 6a 9b be 55 8c 2c 3c 5b 7b 84 bc
       0.14041074 -0.30354837 0.010531505 -0.016172102
000140 9d a4 4c 3e 86 19 ed 3d fe 68 08 3e 15 c6 50 be
       0.1998467 0.11577134 0.13321301 -0.20388062
000150 e0 48 64 bf 2f 20 85 be aa aa 53 be 71 6f 08 3e
       -0.891737 -0.26001117 -0.20670572 0.13323762
000160 60 16 a9 3e 41 09 82 be d2 d8 da be 81 16 62 3e
       0.33024883 -0.25397685 -0.42743546 0.22078897
000170 ab 35 62 3e 0d c8 df 3d eb 22 10 be 4e 0a 80 3e
       0.22090785 0.109268285 -0.1407582 0.25007862
000180 96 41 af be aa 9e 02 3d cd 3d 61 3e dc f5 b2 3d
       -0.34229726 0.031889595 0.21996231 0.087383
000190 f5 e8 41 3d 7d 70 33 3e 37 27 5d be ac c1 9e 3d
       0.047341306 0.1752338 -0.2159699 0.07751784
0001a0 43 03 c0 3e 06 6c 0c 3f d2 f9 99 3d 98 e8 ae 3c
       0.37502488 0.5485233 0.075183526 0.021351144
0001b0 54 7a fe be bb 93 54 3e 78 37 3b bb 6a 4c dc 3e
       -0.49702704 0.2075948 -0.0028566997 0.4302705
0001c0 35 35 ab be 73 dc 37 3e 34 cd 3c 3e 92 3b 22 3e
       -0.3343903 0.17955188 0.18437654 0.15843037
0001d0 7b 3d 59 be 28 62 f5 bd 64 21 59 3e 35 c8 33 be
       -0.21214859 -0.119816124 0.21204144 -0.17556842
0001e0 47 b9 67 3e ad 0e 88 3e f9 3d 23 3e a7 aa 16 bf
       0.22629271 0.26573697 0.1594161 -0.58854145
0001f0 97 6e b0 3d 99 bb 2a 3f 34 8e 4c be 24 31 76 bc
       0.08614843 0.666925 -0.19976121 -0.0150263645
000200 6e d9 a4 3d a2 d2 95 3d ac 29 04 be 2c 67 98 bd
       0.08049284 0.07315566 -0.12906522 -0.074415535
000210 1f 05 b0 3d 46 5f 61 bd 83 15 1c be a6 85 5d 3e
       0.08594727 -0.0550225 -0.15242581 0.21633014
000220 aa f5 21 3d 1e 21 ce bd 67 85 80 bd 14 e7 31 3e
       0.039540924 -0.1006491 -0.062754445 0.17373306
000230 04 cb b7 bd bb 5c d4 3d 56 fa 84 be 74 9a 97 3d
       -0.08974269 0.103692494 -0.2597224 0.074025065
000240 8a cc 6a be cf 36 b8 bd 5d ef a2 bc 53 b4 ee bd
       -0.22929588 -0.08994829 -0.019889528 -0.11655488
000250 4c d5 b2 3d c6 69 76 3e ff cb 29 bf 3f 1f 07 3e
       0.087320894 0.24063787 -0.663269 0.13195513
000260 87 18 3a bd 44 31 4d 3e 2b 25 6b 3e 94 6b 38 3e
       -0.045433547 0.20038325 0.22963397 0.18009788
000270 f0 86 8b bd ba 14 9e 3d 98 b3 8c 3e 0a a8 3c bc
       -0.06812847 0.07718797 0.2748077 -0.011514673
000280 a2 41 d7 3d e7 67 8a 3e ad d0 e1 3e bc 84 18 be
       0.10510565 0.27032396 0.4410452 -0.14894384
000290 35 b6 57 be f6 da a2 3e ad 0e b7 3d 85 43 1a bb
       -0.210656 0.3180768 0.08938346 -0.002353878
0002a0 9e fc c1 3c e8 4d 4c bd 1c 19 64 b9 dd ba 02 bf
       0.023680028 -0.049878985 -0.00021753128 -0.5106638
0002b0 96 9e 5c 3d e0 1b d1 bc a9 eb 0c bf e7 73 d8 bd
       0.053862177 -0.025525987 -0.5504709 -0.105689816
0002c0 3b a1 97 3d a5 63 42 3e 37 64 01 be 60 63 73 3d
       0.07403799 0.18983324 -0.12635885 0.059420943
0002d0 6b 26 a0 3e 71 44 ee 3d 4c 22 36 bb ff 92 6d bd
       0.3127931 0.11634148 -0.0027791439 -0.058001515
0002e0 35 75 8e 3b 43 9f b6 3d a3 35 4e be 04 dc 07 bd
       0.0043474683 0.089170955 -0.20137648 -0.033168808
0002f0 07 bb ea 3c e1 60 50 bb 97 86 55 bf 11 55 ed 3d
       0.028653635 -0.0031796026 -0.8340849 0.11588491
000300 f6 ba aa 3e 47 23 4c be 83 4b 39 be 2b 8f a0 3d
       0.33345765 -0.19935332 -0.18095212 0.07839807
000310 5f 70 87 3e 30 d8 10 bd 7b 14 b9 be 49 f2 18 be
       0.2645292 -0.035362422 -0.36148438 -0.14936174
000320 8f 6f 21 be 25 3b c0 bd 2c 8c ab 3c 42 04 c5 3d
       -0.15765212 -0.09386281 0.020940863 0.09619953
000330 7a 61 d9 bd 14 ca a2 3d c9 cc 8e bd ed 0f 10 be
       -0.10614295 0.079486996 -0.069726534 -0.14068575
000340 af 99 22 be 11 ff 1a bc d7 89 2d bb 3b ab f2 bd
       -0.15878938 -0.009460227 -0.0026479864 -0.11849066
000350 13 de 25 3e 1f 85 00 bd a1 27 28 3e 67 f0 31 be
       0.16197996 -0.031376954 0.16421367 -0.17376862
000360 ef 9e b2 bd 48 38 b7 3d d8 ce 69 3e f6 78 5b 3d
       -0.087217204 0.08946282 0.22832811 0.053582154
000370 e1 5b d7 3c 38 67 73 bd 93 d9 52 be e5 b3 84 be
       0.026288928 -0.05942461 -0.2059081 -0.259185
000380 55 fc 20 3e cb d9 f0 bd f8 06 b2 3e 39 de e7 bd
       0.15721257 -0.11760291 0.34770942 -0.113216825
000390 55 fd 38 be b8 56 de 3c 8a ce 13 be 00 92 17 3e
       -0.18065389 0.02714096 -0.14434257 0.14801788
0003a0 f6 da 07 3d bc 7b e0 bd cf 8a 35 be d2 92 34 be
       0.0331678 -0.109611005 -0.17728733 -0.17634133
0003b0 06 67 4c 3e 46 e1 84 3e 5c 0b 94 bd 34 3c 59 bd
       0.19961175 0.2595312 -0.07228729 -0.05303593
0003c0 f9 e3 93 3d 60 a9 30 bd eb 15 0c 3d e4 35 68 3c
       0.07221217 -0.04313028 0.03420059 0.014173005
0003d0 f7 c1 0b 3e 6d 17 44 3e f4 b9 e4 3d e2 96 0d 3e
       0.1364821 0.19149561 0.1116828 0.13827088
0003e0 c9 45 04 bf 89 fb e4 bd 52 0f 1f bc c0 39 8e 3e
       -0.51668984 -0.11180789 -0.0097082425 0.27778435
0003f0 26 f3 d8 bd 86 c1 02 bf 6b c8 ca bd 42 2a 77 be
       -0.10593252 -0.51076543 -0.09901508 -0.24137214

bias f4 [128]
000000 dc df e7 b9 51 62 29 be 5b 4c 09 3d c0 1c 0c be
       -0.00044226542 -0.16541411 0.033520084 -0.13682842
000010 ae 65 ae bd 53 bb ed bb dd fb b5 bc c6 bb 41 3d
       -0.085154876 -0.007254997 -0.022214824 0.047298215
000020 2e c9 f9 3d c6 c3 30 3e 7e 86 48 bd 53 fb 88 bd
       0.12196575 0.17262182 -0.048956387 -0.06688561
000030 14 e1 51 bd 05 43 0d 3e 15 e3 6a 3e f6 0b c4 3d
       -0.05124004 0.13795097 0.22938187 0.09572594
000040 9e 52 37 3e c4 59 e1 bc df 44 80 3d 16 04 ab bd
       0.1790261 -0.027508624 0.06263136 -0.08350389
000050 3b 24 b3 3d 15 25 07 bd cb cc c4 bb 55 99 24 bc
       0.08747145 -0.03299435 -0.0060058585 -0.010046323
000060 d3 67 89 bd 58 11 cd bd c7 a0 1c 3e 8a 8f 1c 3e
       -0.06709256 -0.10013074 0.15295707 0.15289131
000070 79 06 bb bc 6c 19 ba 3d e9 11 61 3d ae af 86 3d
       -0.022830235 0.0908688 0.05494872 0.06576477
000080 20 cc 0a 3e 7e 1d 15 3d 05 33 2f 3d 5c 11 20 3b
       0.1355443 0.03640508 0.042773265 0.002442441
000090 8e 80 65 3e 0a 53 ac 3d ef 47 24 3d 2d 50 ac bd
       0.22412321 0.08414276 0.040107664 -0.0841373
0000a0 04 29 8e 3d be 63 4f 3d 15 2d fd bd a1 97 b3 3d
       0.06941417 0.05063223 -0.12362114 0.08769155
0000b0 3b 0b 82 3e e2 6f b3 bd da 0e 31 be ce 4f de bc
       0.25399193 -0.08761574 -0.17290822 -0.027137663
0000c0 46 87 64 3e 83 b6 af 37 5b 81 5e 3c 52 af 1a 3e
       0.22317228 2.0946614e-05 0.013580645 0.15105942
0000d0 83 6f 89 3e 5b 1f 0d 3e 57 ac 50 bd 4e b4 fd bc
       0.2684289 0.13781492 -0.050945606 -0.030969765
0000e0 e2 ef 84 3e d2 06 85 3e 40 30 df bd 3a e4 c1 3d
       0.25964266 0.25981766 -0.10897875 0.09467359
0000f0 04 c6 3b 3e f7 11 b1 bd 11 a6 65 3e 57 a0 90 bc
       0.18337256 -0.08646005 0.2242663 -0.017654581
000100 9e 9b 6b 3e fe 42 c5 3d 61 f3 3a be cf 76 6f 3d
       0.23008582 0.09631918 -0.18256904 0.058462914
000110 f1 16 12 3c 2c 92 c1 bd 3c 17 51 bc 6f 08 37 3e
       0.0089166025 -0.09451708 -0.012761887 0.17874311
000120 fc e6 af bd 68 06 b2 bd 3b a0 e7 bd 0f 9e 79 3e
       -0.08588979 -0.08692628 -0.113098584 0.24376701
000130 7d 3a 5a bc f9 29 b6 bd c4 d7 20 bd 77 c6 62 3e
       -0.013319609 -0.088947244 -0.03926827 0.22146021
000140 59 5e 93 bc 6e 4b 8b 3d 0c 9f 5b 3d e9 17 65 bd
       -0.017989324 0.068014964 0.053618476 -0.055931006
000150 a8 0d 05 be e8 b7 49 bd 9e 7f 17 3e 40 52 1d 3e
       -0.1299349 -0.049247652 0.14794776 0.15363407
000160 14 b1 06 bd 66 b5 2e bc 8a 98 d7 bc c5 be 17 3e
       -0.03288372 -0.010663366 -0.026317853 0.14818867
000170 0f ea 19 bd 05 b6 e4 bd 06 06 a6 3c 81 b0 ac bc
       -0.03757673 -0.1116753 0.020266544 -0.021080257
000180 6a 9e 56 bb c1 ce fa 3d 0c 89 c2 bc bb 37 db 3c
       -0.003274823 0.122464664 -0.02374699 0.026759973
000190 70 78 2f 3d c7 a1 a0 bc fe 0e 72 3e 0e b7 d7 bc
       0.042839468 -0.019608391 0.23638532 -0.026332404
0001a0 92 f9 b6 bd 42 25 81 be d2 6e a7 bd f0 d1 83 3e
       -0.089343205 -0.25223738 -0.08175434 0.25746107
0001b0 00 58 a6 bd 88 c6 4c bd 8e c8 67 3e 86 5e 5a bd
       -0.081222534 -0.04999402 0.226351 -0.0533128
0001c0 59 f0 e9 bb f7 75 0f 3d ff 31 1b 3e 85 22 d0 bb
       -0.0071392474 0.03502461 0.15155791 -0.0063517713
0001d0 4c 62 c1 bd 2d 16 4b bd bf c5 5e bb 52 63 a4 bb
       -0.09442577 -0.049581695 -0.0033992378 -0.0050167227
0001e0 44 06 89 3d 05 7e fe 3d 3b 62 f0 3a 70 83 d6 3d
       0.06690648 0.1242638 0.0018339822 0.104742885
0001f0 2f 72 4d 3e 11 a6 23 3d 59 71 96 be c6 70 b0 bd
       0.20063089 0.039953295 -0.29383352 -0.0861526

weight f4 [1, 128]
000000 43 da 88 3f 75 53 dd be cb 83 84 3f eb 76 12 bf
       1.0691608 -0.43227735 1.035272 -0.57212704
000010 75 92 0a bf be 6d 46 3d e2 7f fb be 69 b7 f1 be
       -0.54129726 0.048444502 -0.49121004 -0.47210243
000020 03 6d 5c 3f 86 91 94 3f 34 a9 bc 3f c5 8e f2 be
       0.8610384 1.160691 1.4739137 -0.4737455
000030 29 f9 02 bf f6 49 64 3f ec ee 76 3f c1 40 f2 3f
       -0.5116144 0.89175355 0.96458316 1.8926011
000040 78 1c 98 3f b5 21 9d bf 82 31 88 3f fe 7c 43 bf
       1.1883688 -1.2275912 1.0640109 -0.763626
000050 97 03 85 3f 44 f8 f2 be 52 0c 31 bf 53 15 a2 3d
       1.039172 -0.47455037 -0.69159424 0.079142235
000060 c5 8b 64 3f 4b 79 fa be 64 04 94 3f 84 80 c5 3f
       0.8927577 -0.48920664 1.156384 1.5429845
000070 0c 9b fb be 4a 2f bc 3f 92 8a 39 3f 4c f5 84 3f
       -0.4914173 1.4701931 0.72477067 1.0387359
000080 98 a3 8f 3f 44 c0 ea be 20 74 aa 3f 59 93 e9 be
       1.12218 -0.45849812 1.3316689 -0.4562023
000090 2b 58 5d 3f a1 c0 74 3f 76 13 47 3f 9a 28 00 3d
       0.8646266 0.9560643 0.7776407 0.03128872
0000a0 64 7e 4c 3f 86 b4 ca be b1 d3 fa be 9c c1 3c bf
       0.79880357 -0.39590853 -0.48989633 -0.73732924
0000b0 f0 b6 55 3f 88 46 21 bf 05 58 43 bf e8 21 0c bf
       0.83482265 -0.6299825 -0.7630618 -0.54739237
0000c0 58 4b 28 3f 1c 7e 10 bf 25 29 fc be 06 07 7f 3f
       0.65739965 -0.5644243 -0.4925014 0.9962009
0000d0 ec 50 3a 3f bb 3f 9d 3f 97 bf 16 bf be a7 46 bf
       0.72779727 1.2285074 -0.5888609 -0.77599704
0000e0 d6 33 2b 3f f5 c2 39 3f 69 ab 04 bf 55 90 f3 be
       0.6687597 0.72563106 -0.5182405 -0.47571054
0000f0 be 93 2e 3f 9a 96 5e 3d ee b1 87 3f ef 02 22 bf
       0.68194187 0.054342844 1.0601175 -0.63285726
000100 a2 6a 39 3f f7 5e 89 3f e1 5d 83 bf fe ce 8b 3f
       0.72428334 1.0732106 -1.0263025 1.0922544
000110 fe 22 00 bf 65 6b 01 bf ce c8 03 bf 84 e1 3c 3f
       -0.50053394 -0.50554496 -0.5147828 0.7378161
000120 9a 46 16 bf 9c 30 0f bb fa 5f 05 bf f5 89 30 3f
       -0.5870148 -0.0021849042 -0.52099574 0.68960506
000130 e7 8f 0a bf 19 9b ff be 8c 34 07 bf 46 f2 3f 3f
       -0.5412583 -0.49923018 -0.52814555 0.74979055
000140 e8 09 fe be 84 56 d2 be 34 28 35 bf 1e 4a 52 3d
       -0.49616933 -0.4108163 -0.7076447 0.051340215
000150 6a c3 fa be 02 bf 0e bf 76 40 4f 3f ed 68 6d 3f
       -0.48977214 -0.55760205 0.80957735 0.9273823
000160 7d 8d 93 3f 86 f3 f1 be 92 e7 02 bf b1 c6 33 3f
       1.1527554 -0.47256106 -0.511346 0.70225054
000170 b7 62 06 bf 26 ba 26 bf 8f de 14 bf 8a 2a ee be
       -0.52494377 -0.6512779 -0.581521 -0.4651683
000180 92 77 5e 3f 72 93 0e 3f 6c c5 b4 be 74 3c 73 3f
       0.869012 0.55693734 -0.3530687 0.9501412
000190 1e 23 0b bf 3e 63 09 bf cf 16 32 3f ae fa 0a bf
       -0.5435046 -0.53667057 0.69566053 -0.54288757
0001a0 84 7b 3a bf cf 19 7f bf 2a 96 28 bf 47 57 2d 3f
       -0.7284472 -0.99648756 -0.6585413 0.677113
0001b0 3f 61 0c bf ca 99 c7 3b 05 9c 58 3f 2c 80 0f bf
       -0.54835886 0.006091331 0.84613067 -0.5605495
0001c0 f6 d3 e9 be bc 48 c6 be 5e 37 92 3f e6 ce 15 bf
       -0.45669526 -0.38727367 1.1423147 -0.58518827
0001d0 c2 cc ef be 5a 82 75 3b e9 ac d6 be 2b 78 05 bf
       -0.46835905 0.0037461729 -0.41928795 -0.52136487
0001e0 20 99 d5 3f 27 4d e6 3f a9 cf 04 bf da ff 4b 3f
       1.6687355 1.7992295 -0.51879364 0.79687274
0001f0 99 62 2f 3f ca 05 25 bf c5 8f 7f bf 78 e8 11 bf
       0.68509823 -0.6446196 -0.9982875 -0.56995344

weight f4 [128, 128]
000000 fa 7c 0e bc 5b 88 53 bc 17 33 01 bd d1 80 7f bd
       -0.008696789 -0.012910928 -0.031542864 -0.06237871
000010 e9 9a 21 3d b5 fe 87 bd 85 a4 5f 3d 58 2c 86 3b
       0.039454374 -0.066403784 0.054600257 0.0040946417
000020 04 87 78 3d 11 cb 00 bd 87 75 0f 3d fc 8d b6 bd
       0.060675636 -0.03144366 0.035024192 -0.089138
000030 89 d8 b3 bd 2a cd 97 bc f4 8d 37 3d 3e 3a 9a bd
       -0.08781535 -0.018530447 0.04481311 -0.0753064
000040 cc 09 4d 3d ab f5 82 bd 0a 38 a1 3d 1d 2d 2e 3d
       0.05005817 -0.06394514 0.07872017 0.042523492
000050 fd e5 3d 3d 52 21 88 bb f1 0a 4b 3d 1a 8c bb bd
       0.046361912 -0.0041543627 0.04957098 -0.091575816
000060 7d d2 db bc c8 17 dc 3c ef 28 1e b9 b8 34 c8 bd
       -0.026833767 0.026866809 -0.00015083303 -0.0977568
000070 c4 0a c2 bd b6 3e 9f bd bb f2 e7 bc e5 30 b9 bc
       -0.0947471 -0.07775633 -0.028313985 -0.022606323
000080 a3 53 35 bc 2f 67 96 3c 69 26 9f bd 45 ec 0d bd
       -0.011067304 0.018359749 -0.07770998 -0.034649152
000090 06 b0 f0 bc 55 1c b1 bd 31 bb 8f 3d a9 05 60 3d
       -0.02938081 -0.08647982 0.07018126 0.054692898
0000a0 bb 7f d9 3b 54 ab 3c bc 8b df be bd db 3f 4a 3d
       0.006637541 -0.011515457 -0.09319981 0.049377304
0000b0 37 26 38 bd 68 24 66 bd de a9 c8 3c 0e 1b 67 bd
       -0.04495832 -0.056187063 0.024495061 -0.056422286
0000c0 56 12 10 bb a1 43 2c 3d a8 4f a1 bd ae 67 89 3d
       -0.0021983585 0.042056683 -0.07876521 0.067092285
0000d0 ef ef 89 bd 9b 4d d6 bc 78 03 c0 bd b2 10 47 3d
       -0.06735217 -0.026160052 -0.093756616 0.048599906
0000e0 93 20 9b bd a2 e2 85 3d 4e ef cf bd f2 8e 6f 3d
       -0.075745724 0.065373674 -0.101530656 0.058485933
0000f0 1e f4 87 3c 08 dc 6b 3d 7a 6b 0f bd 15 ef 9a bd
       0.016595896 0.057582885 -0.035014607 -0.075651325
000100 89 b1 2b bd 80 d4 17 bd 70 e3 98 bd 72 c0 37 3d
       -0.041917358 -0.03706789 -0.07465255 0.044861265
000110 f4 5d 30 3d 4e 0d 39 bd 0e 8f 73 3d 34 5e 1e bc
       0.04305835 -0.045178704 0.0594626 -0.009666014
000120 0f de 8f 3d 22 3a 42 bd 7d 89 1f 3d eb de 98 bd
       0.07024776 -0.04741872 0.03894948 -0.07464393
000130 0b 58 86 3c 73 e9 14 3d f5 5c 7c bc 97 fc 4d 3c
       0.016399404 0.036355447 -0.015403022 0.012572429
000140 61 3a ce bd b3 20 73 bc a5 43 b2 bd de 77 93 bd
       -0.10069729 -0.014839339 -0.087043084 -0.07200597
000150 1c 8b b6 bd 20 80 29 3d 1a e3 67 bd eb ab 61 bd
       -0.08913252 0.041381955 -0.056613065 -0.055095594
000160 85 58 bb bd 5f 58 81 3c ac 09 8f bc 97 47 89 bd
       -0.09147743 0.015789209 -0.017460667 -0.06703108
000170 a7 8b 22 3d 78 7a 55 bc 3d 0c 33 3d 9c 80 5b 3d
       0.039683964 -0.013029687 0.043712843 0.05358945
000180 9f bc 47 bd ad 46 ca bd 9c 91 20 bd 29 39 d1 bd
       -0.048763867 -0.098767616 -0.039201364 -0.102159806
000190 ba 33 99 3b 3e ea d7 bc a8 59 79 3d 8f 39 28 3d
       0.0046753557 -0.026356813 0.06087652 0.041070517
0001a0 29 7f b4 bd cf a5 7e 3d 4f 82 58 bd 70 e2 8f bd
       -0.088133164 0.062169846 -0.052858647 -0.070256114
0001b0 fb 43 83 3d a0 cd a2 ba 04 d2 7c b9 9c fe 72 bd
       0.064094506 -0.00124209 -0.0002411083 -0.059324846
0001c0 50 a1 65 bd fd 44 1f 3b ea aa 1b bd 68 67 34 3d
       -0.056062043 0.0024302595 -0.038004793 0.04404393
0001d0 d6 1e 7f 3d 53 b0 c6 bd a9 fb bf bb cd 3b 95 3d
       0.062285267 -0.097016 -0.0058588577 0.07286797
0001e0 6a 14 19 3d 37 e5 90 bc ba b6 27 3d ef d3 3b bc
       0.037372984 -0.017687423 0.040945746 -0.011464103
0001f0 62 74 27 3d f9 72 82 bd a8 61 77 3d f2 ad 3c bd
       0.040882476 -0.063695855 0.060395867 -0.046064325
000200 5c f0 b0 3c 75 14 4c 3b b0 b5 6f 3e 68 ca ae 3d
       0.021598987 0.0031140123 0.23409152 0.085347
000210 2f a8 03 bd dc 0f 28 be b6 e0 0b 3e 99 2b bb 3e
       -0.032142814 -0.164123 0.13659939 0.365567
000220 1d 01 35 3e 98 09 61 3c a3 c5 51 be 1b e4 63 bd
       0.17676206 0.0137351975 -0.20485549 -0.05563746
000230 8e d4 cc 3e 94 68 1b 3e eb 21 d2 bd 19 ba c8 bd
       0.40005916 0.15176612 -0.102603756 -0.0980112
000240 1d ba 2e 3d 89 c4 37 bf 6e 7e eb bb 51 bb c4 3e
       0.04265796 -0.71784264 -0.0071867025 0.3842416
000250 c0 c0 e2 bd d2 ed 8c bd 85 19 3f bf c3 ce 05 3d
       -0.110719204 -0.06881298 -0.74648315 0.032667886
000260 a7 27 e7 bd e0 f6 05 3e bd 33 69 be 89 33 e2 3d
       -0.1128686 0.13082457 -0.22773643 0.11044986
000270 b3 44 ca bc 7f d2 2f 3e d2 a9 2a bd 33 72 d4 3d
       -0.024690961 0.17170142 -0.04166586 0.10373344
000280 77 29 2d be 08 92 ae bd cc a4 60 3e 62 42 01 bd
       -0.16910349 -0.08523947 0.21937865 -0.03155745
000290 34 78 2a be 5d d2 59 bc dd 29 ac 3d 7b fa 12 be
       -0.16647416 -0.013294783 0.08406422 -0.14353363
0002a0 d7 95 ec be 51 12 f4 bd 40 65 6b be e4 a6 ba 3e
       -0.4620807 -0.11917556 -0.22987843 0.36455452
0002b0 f7 f9 09 3e 53 fa 4c 3e b0 1c fc 3b c1 a8 0c 3d
       0.1347426 0.20017366 0.0076938495 0.034340624
0002c0 0a c4 1a 3d f2 8a 2a be 74 ad 47 bd 87 1e 2e bc
       0.037784614 -0.16654566 -0.048749402 -0.0106273955
0002d0 af e4 94 3d 9e ef 04 3a 48 8d 2d be 11 d1 2c be
       0.072701804 0.0005071106 -0.16948426 -0.16876628
0002e0 46 a1 59 be ca 60 56 bd 9e 82 bb bd 6b 21 33 3e
       -0.21252927 -0.0523384 -0.091557726 0.17493217
0002f0 35 97 36 3d 48 42 d1 bd c1 92 39 3e c4 3f a6 be
       0.044577796 -0.1021772 0.18122388 -0.32470524
000300 63 5c 37 bd 4c 24 21 bd 2d 44 98 bb 89 1e 0d 3e
       -0.04476584 -0.039341256 -0.004646799 0.1378118
000310 a9 9e 8c 3e 3d c5 50 3c 6c 30 2b 3e 8e 19 38 3d
       0.27464798 0.012742338 0.1671769 0.044946246
000320 34 db 2c be cc a8 08 3e 94 1c fc bc 8a d3 46 be
       -0.16880494 0.13345641 -0.030775346 -0.19416633
000330 09 08 29 bd ed 83 18 bf de 44 d7 3c ae 69 9b 3d
       -0.04126743 -0.595763 0.026277956 0.07588516
000340 e2 6a 0d bd 35 19 a9 bd 6e 67 31 be 5e dd f9 ba
       -0.03452576 -0.08256761 -0.17324612 -0.0019063165
000350 bf 5f d1 bd c8 ce 4a 3d 92 4e f2 bb 46 5e cf be
       -0.1022334 0.04951361 -0.00739462 -0.40501612
000360 a2 c2 c6 be 65 96 a6 be 81 a8 38 3e ab ee 8e bc
       -0.38820368 -0.32536617 0.18033029 -0.01744779
000370 64 06 da bd ec 11 25 3c 15 82 d6 3d e0 21 7d 3d
       -0.1064575 0.010075074 0.1047403 0.061799884
000380 d9 0c b7 3c 2b 75 3c be e0 92 c9 bc 56 9c fe bc
       0.022344993 -0.18404071 -0.024606168 -0.031080406
000390 5e 6c 23 bd db 65 40 be bf dc ac bd 0d 82 8f 3c
       -0.03989827 -0.18788855 -0.084405415 0.017518068
0003a0 ee 70 b3 3d b1 d7 8b bb 26 90 95 3d f8 39 a9 be
       0.08761774 -0.004267656 0.07302885 -0.3305204
0003b0 07 ba 00 3d 52 14 9f 3d 91 80 9b be a2 e2 5c 3e
       0.03142741 0.07767548 -0.30371526 0.21570829
0003c0 83 28 99 bc 06 a3 f7 bd 6d 12 67 3d ca 84 22 3e
       -0.018696075 -0.12091641 0.056414057 0.15870968
0003d0 1b ce 04 3e 76 47 30 3e d5 4f 3f be ff f5 4f bd
       0.12969248 0.1721476 -0.18682797 -0.05077171
0003e0 43 79 07 3f be f5 3d bd 5a 0b a1 3d 7c a9 07 be
       0.52919406 -0.046376936 0.07863493 -0.13248247
0003f0 70 1f dc ba 6f 9d 25 3c 09 04 66 3c 4b b8 ec 3c
       -0.0016794037 0.010108336 0.014039048 0.028896471

bias f4 [128]
000000 a9 44 1a 3d d2 4a a9 3d 05 39 73 3d 05 f7 17 3c
       0.037663136 0.08266224 0.05938055 0.009275203
000010 6f 6f 17 3e eb b3 b4 3d 77 2d d8 3d 83 f5 9b 3d
       0.14788602 0.08823379 0.10555547 0.07615187
000020 6e 73 dc 3a 03 5c 81 bd ff 2b db 3d 01 3d 89 3b
       0.0016819069 -0.06316378 0.10701751 0.0041881804
000030 a1 20 29 3d 67 91 1c 3e 02 70 b7 3b 3c 28 23 3e
       0.041290883 0.15289842 0.005598069 0.15933317
000040 0f d0 50 3d 63 57 b1 3d c5 7e 1c 3c 40 94 9b 3b
       0.05097967 0.08659246 0.009551709 0.0047478974
000050 d1 cc 09 3e 9e 47 6f 38 6c 1e 90 bd b8 d0 0f 3d
       0.13457038 5.704874e-05 -0.070370525 0.03511116
000060 64 36 ca bd 08 d0 d9 3d c8 dc 27 bd b4 15 a5 bd
       -0.098736554 0.10635382 -0.040982038 -0.0806078
000070 2d 4b c3 bd a1 5b 96 3d 64 26 90 bd f8 0c b4 3d
       -0.09535823 0.073416956 -0.070385724 0.08791536
000080 63 61 af bc bd 4a 09 3e 9d 32 49 3c c3 d2 50 3d
       -0.021408742 0.13407417 0.012280134 0.050982248
000090 ba 2d a8 3d a8 2b 1a 3d db ba 07 bd d9 54 e2 bb
       0.08211847 0.03763929 -0.033137184 -0.0069070873
0000a0 98 1b 41 3c 17 59 09 3e a9 6b 88 bc c5 ae b2 3d
       0.011786364 0.13412891 -0.016652899 0.08724741
0000b0 81 d3 3f bc 39 3b 70 3d 4a 77 a9 3d d7 be 56 bd
       -0.011708141 0.05865023 0.08274706 -0.052428093
0000c0 85 05 cd 3d d4 94 70 3d 36 27 bf 3d d0 b9 20 3d
       0.100108184 0.058735684 0.09333651 0.039239705
0000d0 09 1d 11 bc 02 cc 2a bd a3 59 97 3d 42 8f 80 3d
       -0.00885702 -0.041698463 0.07390144 0.06277324
0000e0 c7 14 7e 3d 13 b3 e7 3c 53 4b 8d bd 47 ff ce 3d
       0.062031534 0.028283631 -0.068991326 0.10107284
0000f0 ab 49 71 3c 90 0c 92 bd 96 1d 08 3d c3 bd 80 3c
       0.0147270365 -0.07131302 0.03323134 0.015715485
000100 da 4a 92 bc 47 37 03 be ba d4 92 3d 0d c7 8b 3c
       -0.017857958 -0.12814055 0.071694806 0.017062688
000110 36 8d 1d 39 d2 b4 94 3d d9 20 01 3e 1a ec bc 3d
       0.00015025292 0.07261051 0.12610187 0.0922472
000120 e5 08 9e bb 07 72 cc 3d a8 ea c3 3d 12 94 03 3e
       -0.0048228377 0.099826865 0.095662415 0.12849453
000130 81 53 91 3d 45 60 e2 3d 52 46 50 3a c6 16 5a 3d
       0.07096005 0.11053518 0.0007945049 0.053244375
000140 7c ad e9 3d c8 ed 23 3d 0e 5a d6 3d 6a f0 a3 bb
       0.11410043 0.040021688 0.10466395 -0.005003025
000150 8e 25 b7 bd 0d c1 be 3b 36 30 0d bc ad 78 3a bc
       -0.0894271 0.0058213533 -0.008617451 -0.01138131
000160 b8 76 81 3d 3e e1 03 bd ae bc 4a 3d ea 08 8b 3d
       0.06321472 -0.03219723 0.049496345 0.067888096
000170 b9 78 87 3d 83 8e da 3d 8e c4 6e bd 8e ad 85 bd
       0.06614823 0.10671713 -0.058292918 -0.065272436
000180 40 f1 02 bd ae 9c ee bd 62 b0 ad bd 98 d4 e5 bb
       -0.031968355 -0.11650978 -0.08480908 -0.0070138685
000190 29 b6 26 3d 0d b2 69 3d 88 b7 cc 3d 1a 3a 1c bd
       0.040701065 0.057054568 0.09995943 -0.038141347
0001a0 67 57 02 3e 4d ca 80 3d 47 6d 3d 3d 41 1b 04 3e
       0.12728654 0.06288586 0.046246793 0.12901022
0001b0 cc 27 c0 3d c9 55 f9 3c 7c e7 09 3e 47 18 34 3e
       0.09382591 0.030436413 0.1346721 0.17587386
0001c0 ee 01 ae bd 27 36 83 3d 36 17 01 3e 0a 48 10 bd
       -0.08496462 0.06406813 0.1260651 -0.03522495
0001d0 9f c6 aa 3d a0 ec 14 3e ed 02 ab 3c a2 be b8 bd
       0.08338665 0.1454339 0.020875419 -0.09020735
0001e0 05 ab 80 3d 0e e8 8c 3d 4d f6 60 bd e9 6e 13 be
       0.062826194 0.068801984 -0.05492239 -0.14397778
0001f0 1b bc 04 3c 20 a9 f1 3d d2 53 bb bd 38 6b ac 3d
       0.008101488 0.11799836 -0.09146847 0.08418888

weight f4 [4, 128]
000000 8f 9f 91 3d 79 dc 03 3e 36 52 11 3e 3d 72 1a be
       0.071105115 0.12877072 0.14191517 -0.15082641
000010 9b 27 6d 3e 50 ed 47 3d 19 ff fa 3d 20 a5 72 bd
       0.2315964 0.048810303 0.12255687 -0.059239507
000020 d9 5e b1 bc 5c 30 21 3e 55 6b 90 bd 75 7b 47 3d
       -0.021651672 0.15741104 -0.07051722 0.048701722
000030 26 67 c0 be ec b7 33 bd d3 d2 18 be 8b 43 71 3e
       -0.37578696 -0.043876573 -0.14924173 0.23560922
000040 cb f9 ac bd 1c ce 19 be a4 f8 23 be e1 74 a1 be
       -0.08446082 -0.1502003 -0.16012818 -0.31534484
000050 47 61 40 3e 6e 1f 16 be ec 7d 4a 3e 49 a9 ba 3e
       0.18787108 -0.14660427 0.19774598 0.3645728
000060 41 7d 52 bc a3 c1 f6 3c 7b 20 b4 3d 85 2c 42 be
       -0.012847246 0.03012163 0.08795258 -0.18962295
000070 15 e4 74 3e df 03 9f 3e 9a f7 3d bd 4a 8e 47 be
       0.23915131 0.3105764 -0.04637871 -0.19487873
000080 ea c7 a1 be 0c 9b 05 be 43 0b 2a be 5f f8 40 3e
       -0.31597835 -0.13047427 -0.16605859 0.18844746
000090 35 20 6c be 18 44 dc 3e 3e 5e ac bd 9e 03 4a 3e
       -0.23059161 0.430207 -0.08416413 0.19727942
0000a0 79 c6 7a 3d 81 d5 b5 bd 35 34 f5 3d 0b b9 96 3e
       0.061224435 -0.08878613 0.11972848 0.29438052
0000b0 4b a4 b6 3d 6b ae f6 3c 30 3e 04 3c 10 29 22 3e
       0.08918055 0.030112466 0.008071467 0.15835977
0000c0 6b 60 89 3d 4d 3d 4a bc bc ab b2 bc 5f 62 ec 3e
       0.067078434 -0.012343717 -0.021810405 0.461688
0000d0 53 4c f6 be a3 15 ac 3e 63 d0 e6 3d dd 9d 3c 3e
       -0.48105106 0.33610258 0.11270215 0.18419595
0000e0 f8 10 62 3e ac e5 40 be c3 69 87 3d 24 2d d8 bd
       0.22076786 -0.18837613 0.06611969 -0.10555485
0000f0 87 3f 3b be 10 84 11 3e 18 78 0b be 4a 8d 93 bd
       -0.18285953 0.14210534 -0.13620031 -0.07204683
000100 aa 99 00 3e 1c 36 56 3e bd fe 1b be 7d 68 0f 3d
       0.12558618 0.20919079 -0.15233894 0.035011757
000110 d7 a9 0d 3e e7 fb 84 be 6c 24 64 3e 03 02 8a bd
       0.1383432 -0.25973436 0.22279519 -0.06738665
000120 28 6a 12 bf 55 2d 8b be ea 27 a1 be f9 9d d9 3d
       -0.5719323 -0.27183023 -0.31475765 0.10625834
000130 31 64 de bd c3 2d f2 bd fc b7 59 be ae 72 9e 3c
       -0.10858954 -0.118251346 -0.2126159 0.019341793
000140 77 9c ac 3b 7d 49 0f be 5e f3 97 3d 18 00 65 3e
       0.0052676755 -0.13992877 0.074194655 0.22363317
000150 49 ef 9d be 8b 40 0f 3d 8e 05 ce be 54 38 14 bd
       -0.30846623 0.034973662 -0.40238613 -0.03618653
000160 a2 47 5d 3e 8f ed f5 3d 28 bb d7 be 5b d6 05 bf
       0.21609357 0.12008201 -0.42134976 -0.52280205
000170 08 a6 c9 bd ec 18 81 3d f5 f7 41 be b0 0b b0 3c
       -0.09846121 0.063035816 -0.18942244 0.021489948
000180 58 b0 2d 3e f6 38 30 3d 19 1f 32 bb f4 b8 8c 3e
       0.16961801 0.043023072 -0.002717918 0.27484858
000190 2f 94 2e bd 63 c3 86 bd 98 e6 c5 bc 51 47 8b 3d
       -0.042621788 -0.06580236 -0.024157807 0.06800712
0001a0 72 1f 1d bd f6 a0 3d be 1f 34 9c bc 59 c0 02 bf
       -0.038360067 -0.18518433 -0.019067822 -0.5107475
0001b0 60 87 0b bd 75 6c 34 3e 9e 70 30 be cc c6 d4 3d
       -0.03406465 0.17619498 -0.1723046 0.1038948
0001c0 89 de 8f be 78 ca 42 bd 7a 5d 8a 3a fc f4 73 bc
       -0.28099468 -0.04755637 0.0010556423 -0.014889952
0001d0 21 01 40 3e bf 49 09 bc 8a 41 8f bd 57 c3 f2 bc
       0.1875043 -0.008379399 -0.069949225 -0.02963416
0001e0 3b db ab 3d a4 0d 02 bd d1 ad bc bc 65 a2 6e 3e
       0.08391424 -0.03175129 -0.0230321 0.23304136
0001f0 6b 56 a0 be 18 0b 62 be 2f c2 bd 3e 35 64 6f 3e
       -0.31315932 -0.22074544 0.37062213 0.2337807
000200 63 31 85 bd 5f cf 29 3f 9b d6 80 be 37 37 27 3d
       -0.065035604 0.6633205 -0.2516373 0.04082414
000210 f6 1f a8 3e 16 bd 8e 3e b1 f9 79 3e 13 1f 9a be
       0.32836884 0.27878636 0.24411656 -0.30101833
000220 8a 7d f4 3e 6f 4d 9c bb d2 a6 83 3e 14 b9 93 bd
       0.4775203 -0.004769973 0.2571321 -0.07213035
000230 9f 9f bb be 6e 6c 25 bf 68 58 ef be 6c f0 95 3e
       -0.3664522 -0.64618576 -0.46747136 0.2928499
000240 54 c4 37 3e 49 f1 52 3e a5 d8 20 be 5f d1 1e be
       0.17945987 0.20599855 -0.15707643 -0.15509556
000250 51 af 02 3f 11 c6 9a 3e 21 0a 6f be 38 34 9c 3d
       0.5104876 0.30229238 -0.23343708 0.076271474
000260 cc 5b af 3d b5 e9 e0 be 06 01 55 be 85 17 1f bf
       0.08562431 -0.43928304 -0.20801172 -0.6214526
000270 3a d2 7d 3e cd 00 62 bd f4 48 59 bc be 28 72 bd
       0.24787226 -0.055176545 -0.013262022 -0.059120886
000280 9f f7 c1 3d 7a 5f 3d bf 99 58 52 bd 2e d2 c4 3e
       0.09471058 -0.7397381 -0.051354025 0.38441604
000290 30 fa 73 be 85 e3 2e 3f f5 05 49 bd 03 34 66 3e
       -0.23825908 0.6831592 -0.049077947 0.22480778
0002a0 a2 33 91 3d a3 fa 9d be f0 98 a6 be 8c 5f 37 3f
       0.07089926 -0.30855283 -0.32538557 0.7163017
0002b0 57 80 da be 27 ac 41 be 8a 43 d2 3e 0f af b5 bd
       -0.4267604 -0.18913327 0.41067153 -0.088712804
0002c0 cb f0 62 be 67 5c a1 be 32 c6 a9 3e 91 37 99 bd
       -0.22162168 -0.3151581 0.33159024 -0.074813016
0002d0 3d 8e 13 be cc ee 81 be b0 ac a3 be 94 c3 47 3e
       -0.14409728 -0.253775 -0.31967688 0.19508201
0002e0 ca 5b 95 3e 28 81 39 3e 60 7f d0 3c 15 d6 05 bf
       0.29171592 0.18115675 0.025451362 -0.5227979
0002f0 43 70 c4 3e d0 e3 8c bd c2 d7 af be f1 5c 2e be
       0.383669 -0.06879389 -0.34344298 -0.17027642
000300 dc d6 4e bf 5b 7f bf 3e 88 50 24 bd 89 e5 92 bd
       -0.807966 0.37401852 -0.040115863 -0.071726866
000310 46 c7 3f bd 75 72 0d bf c0 eb 9b 3d 32 43 59 be
       -0.0468209 -0.5525277 0.07613325 -0.21217039
000320 b6 3f f0 3e ae 3c d3 bd c9 49 a1 3d 72 35 bd bd
       0.46923608 -0.10314308 0.078754015 -0.092387095
000330 b3 fe 49 3e 0f b8 6e 3e 87 48 a2 bd f5 b2 11 bf
       0.19726066 0.233124 -0.0792399 -0.5691369
000340 33 d0 3d bf 5f a5 7c bf 62 e2 b5 bd 21 f0 47 3e
       -0.7414581 -0.98689836 -0.0888107 0.19525196
000350 01 48 ae 3d 81 82 1a be ce 3d d3 3e 3b 93 8e be
       0.085098274 -0.15088846 0.4125809 -0.27846703
000360 d4 46 66 bd f0 0a b9 3e 20 97 a8 bf 13 14 14 bd
       -0.05621989 0.36141157 -1.317112 -0.036151957
000370 79 c2 29 3b 8a 54 a9 3d 80 2d 02 3b 12 f8 01 bd
       0.0025903268 0.08268078 0.0019863546 -0.03173072
000380 97 75 d4 be 14 07 03 3f b7 4a 99 bd 90 d3 60 be
       -0.41495964 0.51182675 -0.07484954 -0.21955705
000390 c3 c2 cf be 95 71 9a be f8 5c 75 3d c5 8f d6 bd
       -0.4057828 -0.3016478 0.059903115 -0.104766406
0003a0 bc 0d 18 bf 67 45 80 3e d7 14 6e bd 4b 4c c7 3e
       -0.59395957 0.2505295 -0.058125343 0.38925394
0003b0 47 18 1a 3d 61 45 d1 3e c3 58 7e bd 3b 5c e7 3e
       0.03762081 0.40873244 -0.06209637 0.45187554
0003c0 56 8b 9a be 12 20 ac be 47 10 11 3d b0 e9 81 3e
       -0.3018443 -0.33618218 0.035415914 0.25373602
0003d0 60 48 6a bc a2 73 c8 be 68 7d 2b 3e e2 60 5b bd
       -0.014299482 -0.3915072 0.16747057 -0.05355919
0003e0 07 66 8d 3f b7 3c 12 be 13 d4 c4 bc 8b 61 9e 3e
       1.1046761 -0.14280973 -0.024026906 0.30933794
0003f0 86 14 2e bf 61 49 19 bf 06 b8 c5 3e 88 13 de be
       -0.68000066 -0.5987759 0.3861696 -0.43374276

bias f4 [4]
000000 71 b0 62 bb 7b 22 c1 3c 6e 5d 7d bd 40 2a 7c 3d
       -0.003459003 0.023576012 -0.06185668 0.06156373
