problem1/models/underway/success_whole_model_1767028706.pth (torch, 146613 bytes, 9 tensors)

weight f4 [128, 8]
0.16869819 -0.10644743 -0.5112302 -0.7325361 0.3576351 -0.15989578 0.03965734 0.2159884
-0.24192537 0.16830651 -0.4352627 0.8711131 0.18063432 -0.190689 0.003971186 0.032509893
0.16738424 0.2078629 -0.32256114 0.45654187 0.08560899 0.4575426 0.51322305 0.33721438
-0.2704568 -0.3048305 -0.1896926 -0.6371124 0.34956023 -0.03270356 -0.08222903 -0.09843078
-0.069114976 -0.07780734 0.096642554 0.2172635 0.12873386 0.47533774 0.52959365 0.23246944
0.04565432 0.44341135 -0.5256546 0.0673527 0.49563113 -0.3755747 -0.23913474 -0.15978222
0.56060696 0.46194386 -0.41362208 0.054228615 0.22135787 0.122169405 -0.23390953 0.085004196
0.126711 -0.06754249 -0.12814605 0.0919406 -0.10083906 -0.75447166 0.06348817 0.2962011
0.1158872 -0.15344605 -0.13072433 -0.059040185 -0.29371578 -0.650288 -0.5301361 0.28210518
-0.14143448 -0.4449696 0.14462206 -0.5816238 -0.050962243 -0.26627856 -0.59922683 0.044425063
0.524692 -0.06714618 -0.22853817 -0.24445331 0.21889119 -0.2891107 -0.20137724 -0.30939168
0.019159572 0.47237524 0.25886512 0.77575666 -0.118547335 -0.16964042 -0.034552913 -0.39734948
-0.44546887 0.3765679 0.39411637 -0.24553387 -0.35839185 0.48579815 0.0042783218 -0.33166075
-0.044535883 -0.04953766 0.295554 -0.3065918 0.048934247 0.35719624 0.2953238 -0.015603692
-0.020448547 -0.29408723 -0.054963183 -0.7218729 -0.0026035944 -0.3801822 0.23634383 -0.12625466
-0.14360888 -0.10036562 0.018714909 1.2019817 0.3463151 -0.31032044 -0.23757802 0.5457461
0.22534655 0.33447808 0.376905 1.5303265 0.3304511 -0.090313174 -0.12355065 -0.34538978
0.14261939 0.40816653 -0.4285549 -0.09645465 0.40155846 -0.18534999 -0.19939958 0.28507844
-0.3429843 0.2887781 -0.15495661 0.11150279 0.59741247 0.38054836 -0.50874466 -0.32821652
-0.05748036 -0.30410016 0.2925816 1.4275942 0.033724174 0.41501722 0.4387719 0.2977978
-0.29503193 -0.084937 1.0766283 0.7110399 0.45464817 -0.0052693663 -0.14343405 0.48905298
0.22021402 -0.05440974 -0.10390055 -0.19407581 0.080829374 -0.67229396 -0.43546608 0.12215849
0.21766885 -0.18819726 0.19781154 -0.1639735 -0.23462012 -0.34723505 0.1741169 -0.082102805
0.016882053 0.44611436 0.281255 0.18521456 -0.23598666 -0.49787596 -0.0028292967 0.40672824
-0.01219489 0.015330508 -0.28794724 0.43298766 0.3093158 0.4664868 -0.2737097 -0.2697068
0.4765123 -0.049114615 0.38916498 -0.45502746 -0.64330107 0.026544645 0.121406816 -0.24434851
0.15185197 -0.33860058 0.14912951 -0.06429883 0.2312469 0.2414576 -0.09684496 0.0923342
0.3070923 0.45850092 -0.28124252 1.1695743 -0.20625864 -0.09481752 -0.33080143 -0.19279276
-0.16955942 -0.23894767 -0.08868895 0.13336746 -0.09739629 0.4989353 -0.37621987 -0.055090502
-0.3346934 -0.19063514 -0.2046882 0.0019444053 0.5790732 0.7248591 0.050075747 0.14608642
-0.35823283 0.2484417 -0.20212208 -0.32863334 0.6784531 -0.20900181 0.14618678 -0.043145318
-0.27132973 -0.1681593 -0.2140393 -0.20601714 -0.00092512893 0.5113942 -0.14050277 -0.17381497
00000000: 38bf 2c3e 1c01 dabd fbdf 02bf 7c87 3bbf
00000010: f31b b73e b8bb 23be bc6f 223d 102c 5d3e
00000020: 49bb 77be 8b58 2c3e c1da debe 4501 5f3f
00000030: 34f8 383e fa43 43be b920 823b 1829 053d
00000040: c666 2b3e 03da 543e bc26 a5be dbbf e93e
00000050: c453 af3d 0643 ea3e 9662 033f 5da7 ac3e
00000060: 5079 8abe be12 9cbe c73e 42be cc19 23bf
00000070: 8ff9 b23e 2bf4 05bd b267 a8bd 1496 c9bd
00000080: 278c 8dbd 7459 9fbd 88ec c53d 537a 5e3e
00000090: cfd2 033e 785f f33e 7393 073f 780c 6e3e
000000a0: 0600 3b3d d006 e33e 4d91 06bf 36f0 893d
000000b0: 5dc3 fd3e 544b c0be bddf 74be f39d 23be
000000c0: f083 0f3f e883 ec3e 46c6 d3be d31e 5e3d
000000d0: a3ab 623e f433 fa3d fb85 6fbe ae16 ae3d
000000e0: 87c0 013e b853 8abd b838 03be 5a4b bc3d
000000f0: b684 cebd 0e25 41bf 1606 823d aca7 973e
00000100: 4556 ed3d f620 1dbe 99dc 05be 1fd4 71bd
00000110: ea61 96be 4679 26bf 00b7 07bf 1770 903e
00000120: 33d4 10be 0ed3 e3be ce17 143e 4ce5 14bf
00000130: c9bd 50bd aa55 88be ee66 19bf 0ef7 353d
00000140: 3752 063f f083 89bd e905 6abe f851 7abe
00000150: 0325 603e 5106 94be d635 4ebe 9668 9ebe
00000160: 89f4 9c3c 2bdb f13e f889 843e fd97 463f
00000170: f2c8 f2bd 38b6 2dbe 5b87 0dbd 6471 cbbe
00000180: 7f14 e4be 82cd c03e 9fc9 c93e 3b6d 7bbe
00000190: 237f b7be 89ba f83e 2a31 8c3b 70cf a9be
000001a0: 426b 36bd 00e8 4abd db52 973e 9af9 9cbe
000001b0: 476f 483d 6de2 b63e ae34 973e a1a6 7fbc
000001c0: b683 a7bc 9a92 96be 1321 61bd aacc 38bf
000001d0: 11a1 2abb 3ea7 c2be 1e04 723e e748 01be
000001e0: 350e 13be 7d8c cdbd 0250 993c 89da 993f
000001f0: 3650 b13e 52e2 9ebe a747 73be 04b6 0b3f
00000200: 3fc1 663e b640 ab3e b1f9 c03e bde1 c33f
00000210: e330 a93e 1df6 b8bd 2008 fdbd eed6 b0be
00000220: d10a 123e 34fb d03e 8c6b dbbe 048a c5bd
00000230: 1299 cd3e 63cc 3dbe 672f 4cbe cdf5 913e
00000240: a39b afbe b9da 933e f2ac 1ebe 935b e43d
00000250: 06f0 183f 3cd7 c23e 173d 02bf ff0b a8be
00000260: 8770 6bbd 04b3 9bbe 41cd 953e 68bb b63f
00000270: 5c22 0a3d 237d d43e b6a6 e03e f478 983e
00000280: 6d0e 97be 73f3 adbd f5ce 893f b606 363f
00000290: a5c7 e83e a6aa acbb 60e0 12be 2765 fa3e
000002a0: c97f 613e bfdc 5ebd d0c9 d4bd cfbb 46be
000002b0: df89 a53d 751b 2cbf 69f5 debe 3b2e fa3d
000002c0: 95e4 5e3e c8b6 40be 1c8f 4a3e abe8 27be
000002d0: 4240 70be cbc8 b1be b34b 323e 8425 a8bd
000002e0: 3b4c 8a3c 1a69 e43e a800 903e e3a8 3d3e
000002f0: 7da6 71be 99e9 febe b96b 39bb af3e d03e
00000300: 13cd 47bc d02c 7b3c d26d 93be 8fb0 dd3e
00000310: a45e 9e3e 5cd7 ee3e ae23 8cbe 0217 8abe
00000320: 6cf9 f33e 682c 49bd a240 c73e 5cf9 e8be
00000330: 61af 24bf 2874 d93c 23a4 f83d 7f36 7abe
00000340: 157f 1b3e 0e5d adbe 68b5 183e 1baf 83bd
00000350: fdcb 6c3e a940 773e a656 c6bd b719 bd3d
00000360: 343b 9d3e a2c0 ea3e 05ff 8fbe 9cb4 953f
00000370: 7735 53be b02f c2bd ce5e a9be 776b 45be
00000380: fca0 2dbe b3ae 74be 8da2 b5bd 7b91 083e
00000390: b577 c7bd 7374 ff3e e49f c0be 94a6 61bd
000003a0: ef5c abbe dc35 43be c999 51be 6adb fe3a
000003b0: 243e 143f 5e90 393f 3a1c 4d3d ae97 153e
000003c0: 4b6a b7be 8067 7e3e 17f9 4ebe a142 a8be
000003d0: 1aaf 2d3f 9204 56be fdb1 153e 25b9 30bd
000003e0: bbeb 8abe f431 2cbe 1e2d 5bbe 28f6 52be
000003f0: 5a84 72ba bbea 023f f5df 0fbe 8dfc 31be

bias f4 [128]
0.13627587 -0.2700263 0.30386114 0.43805647 0.0061411657 0.26258874 0.17409018 0.08973841
0.2861332 -0.120520175 0.16642076 0.16790144 0.24520464 0.21483654 0.107843615 -0.2040093
-0.4344935 0.4029599 -0.19036664 -0.24201266 0.0452525 0.20345825 0.38819206 -0.25083682
-0.31953362 -0.24033439 0.5071302 -0.0012357346 0.25773713 -0.25430712 0.38567665 0.19006601
-0.04451533 0.13960074 0.4429941 0.39938605 0.11759428 0.16850014 -0.17919922 0.2314187
0.04442239 -0.072153404 0.20715027 0.20452198 0.15194914 0.2550245 0.014870528 0.30717272
0.19095717 -0.25133756 -0.17143923 0.41033733 -0.24304344 0.3709348 0.009338956 0.41095296
0.06855818 0.18758087 0.30709568 0.27118158 0.12929079 0.2699462 0.4010459 0.17131802
0.35349014 0.32331455 0.31450528 0.47256356 0.05253265 0.0050412538 0.095745586 0.023042394
0.0011362352 0.26306555 0.5148616 0.24385165 0.10284485 0.4017765 -0.36588603 0.13794203
0.45401514 0.38761717 0.09649053 0.4963605 0.36090365 0.18768339 -0.23675649 0.52240175
-0.0858585 0.3977125 0.26031232 0.059816755 0.5389838 0.29476508 0.20998298 0.21796657
0.3849027 0.32884225 0.3366286 -0.14575994 -0.42179045 0.1479964 0.20783094 0.29391497
0.069695264 0.044598192 -0.027288714 0.30501562 0.34477714 0.13266349 -0.112671435 0.47034514
0.03608301 -0.4475982 0.39321518 -0.11405729 0.22113171 0.08913633 0.2576473 0.5168486
0.25647587 0.08792555 -0.016275773 0.15149209 0.39063373 0.16363136 0.35856494 0.05324787
00000000: e78b 0b3e e340 8abe b093 9b3e f048 e03e
00000010: d53b c93b 0872 863e b244 323e c6c8 b73d
00000020: 0d80 923e 48d3 f6bd 346a 2a3e 5bee 2b3e
00000030: ed16 7b3e 1cfe 5b3e 1ddd dc3d d0e7 50be
00000040: ef75 debe c350 ce3e 79ef 42be 2bd2 77be
00000050: af5a 393d 5c57 503e 1cc1 c63e af6d 80be
00000060: e999 a3be 381a 76be 49d3 013f 5ff8 a1ba
00000070: 1ff6 833e 8b34 82be 6977 c53e aaa0 423e
00000080: b555 36bd 7ff3 0e3e 1fd0 e23e 547c cc3e
00000090: 45d5 f03d 4d8b 2c3e 0080 37be 06f9 6c3e
000000a0: 41f4 353d 2ac5 93bd 331f 543e 366e 513e
000000b0: 8e98 1b3e 9292 823e 84a3 733c be45 9d3e
000000c0: 478a 433e 51af 80be c48d 2fbe bc17 d23e
000000d0: 61e0 78be 2beb bd3e 6c02 193c 6d68 d23e
000000e0: 3b68 8c3d 3315 403e a53b 9d3e 50d8 8a3e
000000f0: ce64 043e 6336 8a3e e355 cd3e fe6d 2f3e
00000100: a9fc b43e 7c89 a53e d606 a13e daf3 f13e
00000110: 7a2c 573d 1a31 a53b 4316 c43d 67c3 bc3c
00000120: baed 943a 87b0 863e f8cd 033f 3fb4 793e
00000130: 52a0 d23d a6b5 cd3e 6a55 bbbe ad40 0d3e
00000140: ac74 e83e c275 c63e d49c c53d f722 fe3e
00000150: 5dc8 b83e 1330 403e 4b70 72be 1fbc 053f
00000160: 95d6 afbd f9a0 cb3e a847 853e 6a02 753d
00000170: d8fa 093f 73eb 963e c705 573e a132 5f3e
00000180: f711 c53e 035e a83e 955a ac3e 1842 15be
00000190: ebf4 d7be 5e8c 173e a2d1 543e 067c 963e
000001a0: 64bc 8e3d 98ac 363d 958c dfbc 022b 9c3e
000001b0: a186 b03e f0d8 073e 48c0 e6bd 14d1 f03e
000001c0: c7cb 133d 972b e5be 8053 c93e de96 e9bd
000001d0: 5a70 623e 1c8d b63d 59ea 833e 3150 043f
000001e0: ce50 833e 5012 b43d c554 85bc be20 1b3e
000001f0: 2501 c83e fb8e 273e d395 b73e 701a 5a3d

weight f4 [128, 128]
0.39451364 0.86469525 -0.17983344 0.2355294 -1.2485852 0.13996056 0.22026747 0.11989435
0.12971434 0.14020872 -0.079594 0.2149045 -0.05700434 -1.701443 -0.1582393 0.28927776
0.46929482 0.21602184 -0.122385524 -0.8358939 0.070304185 -0.0009070029 -0.13842627 0.19888245
-0.26714247 -0.18742052 -0.60584354 0.2508051 -0.7595178 -0.42169738 0.03652548 -0.89491767
-0.4509807 -0.39889315 -0.026492678 0.06689252 -0.052874178 0.14688714 -0.76670206 0.2964277
1.2713813 -0.01953354 0.4593896 0.17838551 0.17689395 0.2907573 -0.5105685 0.1664241
-0.22765398 -0.44031417 0.018127518 -0.57504344 -0.11174779 -0.17976224 -0.7222485 -0.17339058
-0.75861543 -0.7838695 -0.006209131 0.112690024 -0.22572537 -0.18554898 -0.007729946 0.17991129
0.18129644 0.07650428 -0.4946494 0.53469735 -1.3698491 0.5688432 0.16646059 0.39369297
0.45020342 -0.32387745 0.04379088 -0.3281303 -0.15112239 -0.14326118 0.0011194221 -0.6280085
-0.1679367 -0.13428408 0.07480977 -0.7121265 -0.38056085 -0.087648466 -0.20286816 0.111663215
-0.10674234 -0.57615733 -0.02175302 -0.22327495 0.03828197 -0.23222625 -0.8440517 0.06022931
0.117597215 -0.0429564 -0.14471547 -0.5855936 0.18181552 0.3995826 -0.19112618 -0.43395174
1.1312155 0.06366805 -0.2124452 0.31755835 0.68097496 0.03607031 -0.6738757 -0.015634915
-0.4835879 0.44024414 0.04857 0.22400148 0.6172469 0.29277635 -0.5618266 0.10132712
-0.15264747 0.13328914 0.2303657 0.27178347 0.02985242 0.3841831 -0.001458447 -0.00081380433
-0.28053144 -0.3768869 0.15562277 -0.2761615 0.21012715 -0.07704398 -0.21188308 0.25703937
0.16529536 0.47639856 0.06562471 0.31048983 -0.12436492 0.22492926 0.0694477 0.46134555
-0.1492888 -0.20519248 0.26376963 0.27056116 0.071742214 0.21756943 0.09752629 0.21329701
0.45817387 0.568451 0.11118412 -0.10478884 -0.09204761 -0.019484125 -0.12899032 0.065122575
0.07348566 0.04834645 -0.082088895 0.09182269 -0.06457129 -0.033922084 0.2733861 0.22912277
-0.4959373 0.18551524 0.11591416 0.19537687 0.014924118 0.14638439 0.23639408 0.18389493
-0.08626146 0.2417449 0.17702931 0.17718145 0.24393515 0.0429226 0.1470923 0.13037297
-0.06745873 0.27195677 -0.0068949927 0.32563716 0.12903504 0.0799557 -0.040952735 -0.30036515
-0.102334104 0.053802177 0.122931056 -0.5440095 0.19669642 -0.29787323 0.4412558 0.304118
-0.5966397 0.015144244 -0.10543314 0.12503374 0.17605819 -0.1252765 0.39546204 0.2106117
-0.09902364 -0.100317545 0.01906277 0.18843938 0.12459022 0.015827991 0.5306669 -0.08785286
0.2832185 0.11762249 0.22847335 -0.18561444 0.00030050543 0.06837653 0.23409729 0.1899966
-0.0028686724 0.10070669 0.046268173 0.179347 0.6532727 -0.34630638 0.21199332 0.0956032
-0.39150026 0.4114825 -0.2735857 0.00049006735 -0.104560025 0.160665 0.08861392 -0.16122566
0.088918425 -0.71210176 0.05073711 0.1141377 -0.28756577 0.76288927 0.08326336 -0.1094573
0.16796264 0.29209125 -0.28449732 -0.37551755 0.093323246 -0.23804836 0.041580185 0.13644902
00000000: b1fd c93e ab5c 5d3f 4226 38be 9e2e 713e
00000010: a4d1 9fbf d251 0f3e cc8d 613e 2b8b f53d
00000020: d6d3 043e e092 0f3e 2e02 a3bd ed0f 5c3e
00000030: 627d 69bd e2c8 d9bf 7c09 22be 371c 943e
00000040: 6947 f03e d434 5d3e 43a5 fabd 25fd 55bf
00000050: a4fb 8f3d efc3 6dba 9ebf 0dbe d7a7 4b3e
00000060: e6c6 88be 2aeb 3fbe 9018 1bbf 8769 803e
00000070: c26f 42bf b8e8 d7be be9b 153d 5319 65bf
00000080: f1e6 e6be b93b ccbe 2c07 d9bc f2fe 883d
00000090: 9892 58bd 9569 163e 9646 44bf 5fc5 973e
000000a0: 9fbc a23f cd04 a0bc 1d35 eb3e b1aa 363e
000000b0: b023 353e 24de 943e 9eb4 02bf 146b 2a3e
000000c0: 201e 69be dc70 e1be 2980 943c 0c36 13bf
000000d0: 06dc e4bd 9813 38be 47e5 38bf 4d8d 31be
000000e0: 9f34 42bf acab 48bf f775 cbbb 07ca e63d
000000f0: 8d24 67be 8d00 3ebe 7d4b fdbb aa3a 383e
00000100: c6a5 393e 47ae 9c3d b042 fdbe ede1 083f
00000110: 3757 afbf b59f 113f a574 2a3e 2092 c93e
00000120: 1081 e63e 44d3 a5be 115e 333d b200 a8be
00000130: d4bf 1abe 0fb3 12be 93b9 923a 2ac5 20bf
00000140: 99f7 2bbe c481 09be dd35 993d ec4d 36bf
00000150: dfd8 c2be 0a81 b3bd acbc 4fbe afaf e43d
00000160: ba9b dabd 0c7f 13bf 6433 b2bc 30a2 64be
00000170: 8ecd 1c3d b8cc 6dbe c613 58bf 02b3 763d
00000180: cfd6 f03d 0df3 2fbd 4b30 14be 76e9 15bf
00000190: d92d 3a3e 1796 cc3e 95b6 43be ec2e debe
000001a0: abcb 903f 6564 823d 3c8b 59be 0297 a23e
000001b0: 6054 2e3f 76be 133d 1e83 2cbf cb14 80bc
000001c0: d598 f7be ae67 e13e 56f1 463d a560 653e
000001d0: e503 1e3f c8e6 953e ded3 0fbf 9884 cf3d
000001e0: 9e4f 1cbe f37c 083e fce4 6b3e 3427 8b3e
000001f0: 108d f43c a6b3 c43e 5c29 bfba 7c55 55ba
00000200: d1a1 8fbe 52f7 c0be 935b 1f3e 0a65 8dbe
00000210: 922b 573e 3cc9 9dbd e1f7 58be aa9a 833e
00000220: 3043 293e 83ea f33e 3f66 863d 86f8 9e3e
00000230: 09b3 febd db53 663e 993a 8e3d 7c35 ec3e
00000240: 2adf 18be fa1d 52be d00c 873e fe86 8a3e
00000250: 95ed 923d 85ca 5e3e ddbb c73d 886a 5a3e
00000260: c495 ea3e 0186 113f 80b4 e33d 889b d6bd
00000270: 7583 bcbd 2c9d 9fbc 0a16 04be fc5e 853d
00000280: a67f 963d ed06 463d 391e a8bd 890d bc3d
00000290: f43d 84bd e2f1 0abd 43f9 8b3e 299f 6a3e
000002a0: 7eeb fdbe b5f7 3d3e 6764 ed3d e010 483e
000002b0: 4a84 743c cae5 153e 4a11 723e f44e 3c3e
000002c0: d9a9 b0bd fa8b 773e 2c47 353e 0e6f 353e
000002d0: 23ca 793e 9ccf 2f3d 5d9f 163e 7e80 053e
000002e0: cd27 8abd eb3d 8b3e 64ef e1bb eab9 a63e
000002f0: c321 043e d0bf a33d 0ebe 27bd 76c9 99be
00000300: 8b94 d1bd ac5f 5c3d 47c3 fb3d 3544 0bbf
00000310: c96a 493e d782 98be 48ec e13e 5bb5 9b3e
00000320: 61bd 18bf 901f 783c 55ed d7bd d808 003e
00000330: 9948 343e 7c48 00be 007a ca3e 98aa 573e
00000340: e8cc cabd 4973 cdbd 8729 9c3c 41f6 403e
00000350: 2829 ff3d b4a9 813c c9d9 073f 33ec b3bd
00000360: 0402 913e 0fe4 f03d ebf4 693e b611 3ebe
00000370: 288d 9d39 ff08 8c3d 33b7 6f3e 788e 423e
00000380: 5600 3cbb 4f3f ce3d b283 3d3d bda6 373e
00000390: e13c 273f 124f b1be c714 593e 9ccb c33d
000003a0: b972 c8be d6ad d23e 6d13 8cbe dd77 003a
000003b0: 9123 d6bd 5e85 243e 377b b53d 5718 25be
000003c0: dd1a b63d 4d4c 36bf b7d1 4f3d 07c1 e93d
000003d0: d23b 93be b64c 433f fb85 aa3d 262b e0bd
000003e0: 66fe 2b3e fc8c 953e a2a9 91be d643 c0be
000003f0: 4220 bf3d f3c2 73be fc4f 2a3d 4bb9 0b3e

bias f4 [128]
0.13557139 -0.06527895 0.12675111 0.2771064 0.15639678 -0.14037982 -0.062692 -0.119515784
-0.11623124 -0.045326553 -0.08555818 0.10611516 -0.03925639 0.16482608 0.30075386 -0.05869663
-0.059390083 0.039922334 -0.121409394 -0.04743825 -0.014625798 0.1232489 0.08900333 -0.0006364784
-0.07010935 -0.1123048 0.0031277838 0.1338202 -0.10124733 0.0014763994 -0.10993451 -0.02202927
-0.064683184 0.25738457 -0.0691901 -0.021539742 0.063188195 -0.023778126 0.081063084 0.13687125
0.042189896 -0.08210128 -0.14706957 0.0078015435 -0.14908856 -0.11888579 0.06629016 0.16523191
0.25823018 -0.08155048 0.03805778 -0.04893402 0.22666731 -0.0008311392 -0.13834497 -0.035717912
-0.101784796 -0.014386578 -0.03250352 -0.03508828 -0.07726003 0.061162002 0.07152217 -0.008773522
0.04836848 -0.034844175 -0.11082335 -0.072605684 0.12869851 0.104449674 0.06427269 0.00049606507
0.008745693 -0.0063890936 -0.037939437 -0.045045458 0.13927825 -0.118032746 0.03818606 -0.059633948
0.17895335 -0.011811542 -0.048937168 -0.09889533 0.07133413 0.19762856 -0.13756913 -0.18114603
-0.033681877 0.020778118 -0.017605493 -0.042783987 0.08748338 0.19169353 -0.02283168 -0.019423699
0.14627203 -0.07162039 0.042513683 0.096101515 -0.1014654 -0.084641986 0.14146423 0.01849829
0.018087309 0.034654602 -0.03692888 0.23306489 -0.07392955 -0.015798943 0.11248584 -0.0025703816
-0.026375512 0.1708426 0.18093216 -0.082323514 0.19635688 -0.12424845 -0.08780004 0.24303073
0.15525001 0.0075457287 -0.0037505159 -0.07099819 0.17633507 -0.1008357 -0.1386778 -0.06418953
00000000: 3ad3 0a3e f8b0 85bd 0bcb 013e e4e0 8d3e
00000010: 7a26 203e babf 0fbe aa64 80bd b1c4 f4bd
00000020: a50a eebd 56a8 39bd 2139 afbd e852 d93d
00000030: 4fcb 20bd 2bc8 283e 69fc 993e e16b 70bd
00000040: 0443 73bd 9a85 233d 7da5 f8bd 9c4e 42bd
00000050: 0ba1 6fbc eb69 fc3d 6147 b63d 58d9 26ba
00000060: 7e95 8fbd 0f00 e6bd 81fb 4c3b 2a08 093e
00000070: c35a cfbd be83 c13a 5825 e1bd ba76 b4bc
00000080: 9e78 84bd e9c7 833e 8ab3 8dbd 1d74 b0bc
00000090: d068 813d 58ca c2bc 6704 a63d fa27 0c3e
000000a0: 50cf 2c3d b724 a8bd 6899 16be 17a4 ff3b
000000b0: acaa 18be 657a f3bd 23c3 873d 8e32 293e
000000c0: bf36 843e f003 a7bd 7ae2 1b3d 0a6f 48bd
000000d0: 7a1b 683e cfe0 59ba 4eaa 0dbe f24c 12bd
000000e0: 8c74 d0bd afb5 6bbc 6922 05bd bab8 0fbd
000000f0: 823a 9ebd 0285 7a3d 377a 923d d2be 0fbc
00000100: 071e 463d c4b8 0ebd 5af7 e2bd 4ab2 94bd
00000110: 8bc9 033e b6e9 d53d 66a1 833d 5d0a 023a
00000120: 184a 0f3c 9a5b d1bb 6266 1bbd 9681 38bd
00000130: f59e 0e3e 27bb f1bd fc68 1c3d ba42 74bd
00000140: 8c3f 373e 3385 41bc 5772 48bd a389 cabd
00000150: a117 923d 245f 4a3e ecde 0cbe 587e 39be
00000160: 02f6 09bd df36 aa3c 6539 90bc 433e 2fbd
00000170: 7d2a b33d 4f4b 443e 8109 bbbc 731e 9fbc
00000180: 56c8 153e b6ad 92bd d422 2e3d dfd0 c43d
00000190: 17cd cfbd c758 adbd 00dc 103e ba89 973c
000001a0: d62b 943c fcf1 0d3d bd42 17bd 90a8 6e3e
000001b0: 6068 97bd c96c 81bc fa5e e63d d973 28bb
000001c0: 7511 d8bc 5df1 2e3e 4846 393e 3b99 a8bd
000001d0: c711 493e f975 febd 82d0 b3bd 0cdd 783e
000001e0: dcf9 1e3e 2942 f73b 37cb 75bb 8067 91bd
000001f0: 2e91 343e f382 cebd 8e01 0ebe cd75 83bd

weight f4 [1, 128]
1.5493169 -0.50313216 0.5259149 0.8918713 0.82076913 -0.48491263 -0.59007776 -0.5056473
-0.5666263 -0.45290917 -0.71910733 1.6994331 -0.4840603 0.8013846 0.7628513 -0.52878106
-0.4517756 0.7636048 -0.5698793 -0.52176315 -0.5458248 1.6145486 0.91654396 0.06159271
-0.8253783 -0.5912198 -0.8436652 0.85608256 -0.9220367 -0.5384745 -0.8277185 -0.5303903
-0.5703768 0.8158836 -0.5174278 -0.5332529 1.6152029 0.73984 0.8129917 0.8556072
0.7838594 -0.031999003 -0.52143437 0.9230973 -0.44335383 -0.5122853 0.58656263 1.0182692
0.76977795 -0.5766002 1.0421847 0.07749159 0.92792815 -0.57116514 -0.5837568 -0.6862215
-0.5441233 -0.54302895 -0.46173832 -0.7819108 -0.5861279 0.44357684 0.8101889 -0.42362264
0.82694954 -0.5342424 -0.3976295 -0.5067336 0.40891573 1.4248908 0.44954506 -0.7771567
-0.5139738 -0.6652609 -0.52627444 -0.4632479 0.7207933 -0.46467286 1.754832 -0.5199357
0.41876072 -0.45550996 -0.91333896 -0.5966629 0.07981519 1.5573425 -0.5970944 -0.4466064
-0.5144256 0.072612874 -0.70685023 -0.9154506 0.8897364 1.433991 -0.42968017 -0.6956742
0.66559666 -0.5317411 1.4542711 0.8514526 -0.54413193 -0.08642193 0.9242941 -0.57222414
0.82498145 0.93019706 -0.020743538 0.9115211 -0.532943 -0.51988095 -0.4631334 -0.6599248
-0.44933656 0.7834353 0.914856 -0.5579488 0.85040915 -0.7379598 -0.51181453 0.73513293
0.9886279 -0.5636612 -0.46676442 -0.534094 1.3343877 -0.45854768 -0.5088609 -0.0021577082
00000000: 0450 c63f 45cd 00bf 5ca2 063f ad51 643f
00000010: ed1d 523f 7846 f8be 560f 17bf 1a72 01bf
00000020: 6c0e 11bf b6e3 e7be 6b17 38bf 0687 d93f
00000030: c0d6 f7be 8b27 4d3f 394a 433f 325e 07bf
00000040: 224f e7be 9b7b 433f 9ce3 11bf 4592 05bf
00000050: 2dbb 0bbf 87a9 ce3f a0a2 6a3f a348 7c3d
00000060: fe4b 53bf 2e5a 17bf 71fa 57bf 3a28 5b3f
00000070: 990a 6cbf 77d9 09bf 5ce5 53bf a9c7 07bf
00000080: 3704 12bf bfdd 503f 2676 04bf 4383 08bf
00000090: f8be ce3f 2766 3d3f 3920 503f 1309 5b3f
000000a0: 02ab 483f 6311 03bd b97c 05bf 1b50 6c3f
000000b0: 46ff e2be 2125 03bf f828 163f a556 823f
000000c0: 2b10 453f 129c 13bf 4f66 853f e9b3 9e3d
000000d0: b38c 6d3f e137 12bf 1671 15bf 36ac 2fbf
000000e0: aa4b 0bbf f203 0bbf f768 ecbe 4e2b 48bf
000000f0: 7a0c 16bf 811c e33e 8a68 4f3f 11e5 d8be
00000100: f7b2 533f 1cc4 08bf 1896 cbbe 4bb9 01bf
00000110: 675d d13e d262 b63f c52a e63e bef3 46bf
00000120: c993 03bf 8a4e 2abf ecb9 06bf d42e edbe
00000130: e985 383f 9ae9 edbe 569e e03f 821a 05bf
00000140: ce67 d63e 9a38 e9be 95d0 69bf e6be 18bf
00000150: 2576 a33d 0057 c73f 2edb 18bf 98a9 e4be
00000160: 65b1 03bf 0fb6 943d 23f4 34bf f85a 6abf
00000170: c4c5 633f 048d b73f 0aff dbbe b417 32bf
00000180: 8b64 2a3f 2f20 08bf 8e25 ba3f ccf8 593f
00000190: 3b4c 0bbf fbfd b0bd 8a9e 6c3f 487d 12bf
000001a0: fc31 533f 6521 6e3f 5aee a9bc 7259 693f
000001b0: f46e 08bf eb16 05bf d21f edbe d5f0 28bf
000001c0: 710f e6be 378f 483f 0134 6a3f bcd5 0ebf
000001d0: 6ab4 593f efea 3cbf 4706 03bf ac31 3c3f
000001e0: b816 7d3f 1a4c 10bf bffb eebe 62ba 08bf
000001f0: 37cd aa3f c3c6 eabe b544 02bf 5668 0dbb

weight f4 [128, 128]
-0.040846545 0.23353027 0.04174131 0.029231854 -0.09819315 -0.03726195 -0.09555804 0.0059034755
-0.12190774 0.11523497 -0.09180302 -0.06846559 0.07871646 0.079628855 -0.035076477 0.14912924
0.44023588 -0.007908413 0.0401056 0.15979189 -0.010278562 0.0015958288 -0.005291805 0.02100655
0.04418876 -0.15302184 0.100998856 0.4164518 -0.11672594 -0.012897748 -0.040704425 0.016873077
0.060040973 0.095869735 -0.051511344 0.051695857 0.089459956 0.15105376 -0.11048636 -0.089576356
-0.16573273 0.1088737 -0.03635536 0.0018033168 0.057209354 0.09792144 0.013957377 0.035031777
0.05721877 -0.13082248 -0.03557117 0.08986959 0.16194443 -0.025821282 0.11555191 0.013251767
-0.05095971 0.1937234 0.015951268 0.22837865 -0.09079857 0.027505035 -0.091744445 0.05973557
0.11181705 0.0576735 -0.11420406 -0.03601675 -0.049802344 -0.08030763 0.075274736 -0.016999822
-0.05898005 0.01325825 -0.021354524 0.118696004 -0.020861765 0.08251533 0.04761634 -0.10317828
0.075466394 0.060542572 -0.057013817 0.11096072 0.012251837 -0.004917591 0.07514918 0.10371334
0.10212254 -0.0063480926 -0.068836465 0.22959739 -0.063100524 0.030184958 0.022878755 0.055032395
-0.037188128 0.111572556 -0.06957386 -0.047770847 0.1645479 0.06803635 0.053449545 0.091469
-0.15289056 0.086870246 0.14728972 0.09509368 0.024845762 0.038021017 0.017731981 0.012507039
0.101750195 0.4318525 -0.017274402 0.078769565 0.034631643 -0.11707318 0.0697952 -0.046744183
-0.0043793684 0.13749465 0.17008893 0.0138470065 0.050040565 0.16163005 0.0069595044 -0.06529046
-0.24535999 0.1358811 -0.012075406 -0.10650544 -0.098599434 -0.20849136 -0.083737366 0.01834926
-0.0879926 0.1831966 0.12928015 -0.2671614 0.07485522 -0.035811454 -0.16367698 0.089643374
-0.19036603 -0.12790845 -0.4927652 0.012969211 -0.17154318 -0.10478382 0.19551507 -0.008351833
-0.41508073 -0.26637703 0.17522173 -0.096146345 -0.28261426 -0.72893715 -0.19222365 -0.19445549
-0.3579903 -0.22099586 0.08059274 0.05991386 -0.40351218 0.06197866 -0.36499894 -0.066838175
-0.6673178 0.0687174 0.03746499 -0.003793853 0.0097089745 0.077669114 -0.023957875 -0.109392956
-0.15610923 -0.5355074 -0.12972596 -0.008975396 -0.20406401 -0.039162416 -0.073029324 -0.025909616
0.03905703 0.074713044 -0.03345078 0.13455704 0.29784727 0.004599023 -0.015676608 0.13742219
0.10140212 0.020059565 0.078053124 0.30497 -0.4805268 0.18003775 -0.21146603 -0.09114152
-0.30142823 0.08127821 0.14411226 -0.10776801 -0.340628 0.039987758 -0.34499815 -0.22886796
0.13872412 0.039754562 -0.09294197 0.19016379 -0.051974736 -0.0030624112 -0.19661139 -0.010733682
-0.2178247 -0.07362609 -0.1865211 -0.33381706 0.07292507 -0.110111386 0.089977406 0.1598841
-0.03886501 0.0154237775 0.012557836 -0.71850324 0.074407876 -0.037434235 -0.110516824 0.11395366
0.02217951 -0.242111 -0.20257348 -0.0082201185 0.29373157 -0.51015764 -0.26909631 0.2211013
-0.08253118 -0.18018028 -0.03351488 0.14601746 0.24864638 -0.19237801 -0.1221409 0.12084464
0.051618893 -0.19535112 -0.08755639 0.26334748 0.13654329 0.37073082 0.04785478 -0.44922113
00000000: b54e 27bd 8f22 6f3e f0f8 2a3d a477 ef3c
00000010: 7d19 c9bd fd9f 18bd efb3 c3bd f171 c13b
00000020: c4aa f9bd 5000 ec3d 3903 bcbd b037 8cbd
00000030: 1836 a13d 7414 a33d 5aac 0fbd 56b5 183e
00000040: 9966 e13e 4a92 01bc c545 243d 7ca0 233e
00000050: 6a67 28bc 212b d13a e166 adbb ee15 ac3c
00000060: 46ff 343d c2b1 1cbe 7dd8 ce3d 2c39 d53e
00000070: 020e efbd 1351 53bc afb9 26bd 6839 8a3c
00000080: 86ed 753d 5a57 c43d 8ffd 52bd 09bf 533d
00000090: c836 b73d d6ad 1a3e ac46 e2bd cf73 b7bd
000000a0: d7b5 29be 2df9 de3d 5ce9 14bd 455d ec3a
000000b0: 5b54 6a3d 098b c83d 7bad 643c 7b7d 0f3d
000000c0: 3b5e 6a3d 54f6 05be 13b3 11bd 8c0d b83d
000000d0: c3d4 253e 2787 d3bc 7ba6 ec3d f01d 593c
000000e0: 21bb 50bd 6d5f 463e 3cac 823c 18dc 693e
000000f0: 9af4 b9bd 3d52 e13c 83e4 bbbd 49ad 743d
00000100: 5600 e53d 0c3b 6c3d d1e3 e9bd 4d86 13bd
00000110: 8bfd 4bbd 5478 a4bd a429 9a3d 3643 8bbc
00000120: 1195 71bd 2239 593c afef aebc e416 f33d
00000130: 4be6 aabc ccfd a83d 5a09 433d 224f d3bd
00000140: 208e 9a3d 7dfb 773d 5287 69bd 603f e33d
00000150: eebb 483c be23 a1bb d0e7 993d a967 d43d
00000160: 9f25 d13d a903 d0bb 22fa 8cbd 941b 6b3e
00000170: d93a 81bd 7246 f73c 3a6c bb3c a669 613d
00000180: 9452 18bd 2780 e43d bd7c 8ebd 5dab 43bd
00000190: 3f7f 283e a456 8b3d e9ed 5a3d 1954 bb3d
000001a0: 588f 1cbe 07e9 b13d 1ed3 163e 7ac0 c23d
000001b0: 5789 cb3c edbb 1b3d a942 913c 53ea 4c3c
000001c0: 6862 d03d c51b dd3e 0c83 8dbc f051 a13d
000001d0: e9d9 0d3d 10c4 efbd c9f0 8e3d d476 3fbd
000001e0: ce80 8fbb 66cb 0c3e cb2b 2e3e 8ede 623c
000001f0: 56f7 4c3d 5982 253e 8e0c e43b 01b7 85bd
00000200: a63f 7bbe 6a24 0b3e ecd7 45bc 861f dabd
00000210: 80ee c9bd c27e 55be 7f7e abbd 3051 963c
00000220: 7735 b4bd e497 3b3e 0462 043e 61c9 88be
00000230: b24d 993d 08af 12bd f09a 27be f296 b73d
00000240: 50ef 42be 6ffa 02be b84b fcbe d07c 543c
00000250: 04a9 2fbe e698 d6bd 1a35 483e 20d6 08bc
00000260: 7685 d4be 9262 88be 536d 333e 60e8 c4bd
00000270: d1b2 90be a09b 3abf 47d6 44be 571f 47be
00000280: 814a b7be bd4c 62be ce0d a53d 3c68 753d
00000290: 2699 cebe 56dd 7d3d 24e1 babe 74e2 88bd
000002a0: 57d5 2abf b5bb 8c3d e474 193d 4ba2 78bb
000002b0: 6412 1f3c fc10 9f3d 4e43 c4bc 6a09 e0bd
000002c0: 19db 1fbe 0317 09bf e2d6 04be 8a0d 13bc
000002d0: 28f6 50be c568 20bd 6690 95bd 6740 d4bc
000002e0: 44fa 1f3d 2703 993d af03 09bd 52c9 093e
000002f0: 707f 983e 67b3 963b 3b6c 80bc 67b8 0c3e
00000300: eaab cf3d f553 a43c 51da 9f3d 0725 9c3e
00000310: 9c07 f6be d15b 383e 8d8a 58be 68a8 babd
00000320: cd54 9abe 3175 a63d 2a92 133e 79b5 dcbd
00000330: cb66 aebe 34ca 233d 99a3 b0be 5d5c 6abe
00000340: b20d 0e3e aed5 223d 5c58 bebd 4cba 423e
00000350: 76e3 54bd bcb2 48bb 7f54 49be 53dc 2fbc
00000360: 700d 5fbe 47c9 96bd 63ff 3ebe 12ea aabe
00000370: bd59 953d 1482 e1bd 1346 b83d a8b8 233e
00000380: eb30 1fbd 03b4 7c3c 62bf 4d3c d4ef 37bf
00000390: 2863 983d a454 19bd a556 e2bd 8960 e93d
000003a0: ceb1 b53c f2eb 77be 6c6f 4fbe adad 06bc
000003b0: fc63 963e b199 02bf fec6 89be 6168 623e
000003c0: 1b06 a9bd 2e81 38be e646 09bd 9a85 153e
000003d0: 289d 7e3e befe 44be 0225 fabd 657d f73d
000003e0: 556e 533d 200a 48be c450 b3bd 7bd5 863e
000003f0: 01d2 0b3e 6ed0 bd3e 6003 443d 5000 e6be

bias f4 [128]
0.024834657 0.08999052 -0.03339419 -0.19111945 0.17506762 0.17333795 -0.04134928 0.03874768
0.033794373 -0.04886109 -0.10476778 -0.0056724 0.059030075 0.038696773 -0.07339138 0.17198057
0.005779176 -0.08286755 -0.09442324 0.069130205 -0.040565476 -0.060145307 0.008618252 0.059494384
-0.07205325 0.21113944 -0.033743147 0.030262958 0.098355524 -0.021623189 -0.016300011 0.1689929
0.031313222 0.10323366 0.1437235 0.036059875 0.037068453 -0.09552912 0.059884295 -0.03539235
-0.05921126 0.037703615 -0.0071953577 -0.08824792 0.078255445 0.14452705 -0.08455378 0.11411828
0.036623254 -0.017099831 0.07099692 -0.035817754 0.10119776 -0.0063308678 0.107721 0.046103142
0.036340393 -0.16857134 0.065555185 0.12978849 -0.10000266 -0.005232201 0.007104718 0.116350085
-0.07637238 0.030942746 0.10759478 0.025563031 -0.024044676 0.02741028 -0.13097166 -0.050045274
0.12930198 -0.038447134 0.12058728 0.013116952 0.026096 0.16227876 -0.04425916 0.121836014
-0.035822697 0.024040438 0.0795067 -0.02531004 -0.0845276 -0.06442339 -0.046751074 -0.010024602
0.108175166 -0.017055623 0.012442806 0.10102912 0.047980975 0.029553866 0.02781205 -0.017433729
0.079727024 -0.008253733 0.03033196 0.074005835 -0.03957989 -0.026649006 0.057291124 -0.03449362
-0.041527327 0.0017044704 -0.054310642 0.19312246 -0.08204516 0.04860111 -0.0025903205 0.043323163
0.0191062 -0.16229655 -0.077932686 0.11640324 0.008156102 -0.072038524 -0.11520776 -0.099718966
0.06310004 -0.075269446 0.07998038 0.13437878 0.074011005 0.08366067 0.09126154 -0.0149085885
00000000: 0d72 cb3c f34c b83d 59c8 08bd d1b4 43be
00000010: ed44 333e 817f 313e dd5d 29bd e3b5 1e3d
00000020: f86b 0a3d 9122 48bd 7d90 d6bd 8adf b9bb
00000030: 85c9 713d 8280 1e3d 384e 96bd ad1b 303e
00000040: 3e5f bd3b 76b6 a9bd f960 c1bd 2394 8d3d
00000050: fc27 26bd ed5a 76bd 9233 0d3c 62b0 733d
00000060: a890 93bd f034 583e 4136 0abd 06ea f73c
00000070: 9f6e c93d 1d23 b1bc 9a87 85bc 7a0c 2d3e
00000080: 4b42 003d 2b6c d33d 412c 133e 85b3 133d
00000090: 17d5 173d c5a4 c3bd 3c49 753d 92f7 10bd
000000a0: 8287 72bd 1b6f 1a3d 09c7 ebbb 53bb b4bd
000000b0: 6444 a03d e6fe 133e 882a adbd d8b6 e93d
000000c0: 4402 163d f214 8cbc d566 913d a3b5 12bd
000000d0: c540 cf3d 2b73 cfbb d49c dc3d a6d6 3c3d
000000e0: aad9 143d f79d 2cbe cc41 863d 46e7 043e
000000f0: 32ce ccbd e272 abbb b2ce e83b f448 ee3d
00000100: 1f69 9cbd a47b fd3c a75a dc3d 9069 d13c
00000110: 57f9 c4bc 868b e03c 6f1d 06be 46fc 4cbd
00000120: bd67 043e be7a 1dbd 77f6 f63d 7ce8 563c
00000130: 47c7 d53c 672c 263e 1849 35bd 2985 f93d
00000140: d2ba 12bd 74f0 c43c 69d4 a23d 0057 cfbc
00000150: ce1c adbd 69f0 83bd 0e7e 3fbd 3a3e 24bc
00000160: f18a dd3d 3cb8 8bbc e9dc 4b3c 5be8 ce3d
00000170: b387 443d f31a f23c 19d6 e33c 2ed1 8ebc
00000180: ec47 a33d aa3a 07bc bb7a f83c 5f90 973d
00000190: 861e 22bd 044f dabc 19aa 6a3d 2f49 0dbd
000001a0: 8f18 2abd 8968 df3a d674 5ebd e5c1 453e
000001b0: 4b07 a8bd f511 473d 5ec2 29bb a173 313d
000001c0: 9b84 9c3c 1131 26be 2c9b 9fbd d264 ee3d
000001d0: 2ca1 053c ef88 93bd 0cf2 ebbd 7539 ccbd
000001e0: 983a 813d de26 9abd c1cc a33d 979a 093e
000001f0: 1593 973d 4956 ab3d 55e7 ba3d 2743 74bc

weight f4 [4, 128]
-0.010803432 -0.18085213 -0.07745148 0.40982658 -0.08671944 0.01540861 -0.046988342 0.1131479
0.03241571 0.26480013 -0.20913756 -0.0135261845 0.036296222 -0.11841119 0.0013704565 -0.05381233
-0.47987002 0.13299097 -0.087145746 0.044132143 0.09167411 -0.085217334 -0.21524093 -0.25610036
0.032497086 0.12759559 0.31620157 -0.13090643 -0.16803423 -0.45428127 0.14520118 -0.1199027
0.42495936 -0.10657416 -0.49063718 0.053903334 0.12653409 0.35796097 -0.09422808 0.120297074
-0.074006885 0.07492901 -0.015297614 0.0043527097 0.07268898 0.1529084 0.19085848 -0.15217139
0.08580791 -0.0936027 0.16390009 0.057847463 -0.37334117 -0.60757107 -0.059525095 0.042473685
-0.05224468 0.24229698 -0.052716486 -0.13015926 0.52665347 -0.14879927 -0.09688801 -0.09780424
-0.64342487 -0.4684728 -0.14331354 0.06368508 0.03132797 -0.04431387 0.27302513 -0.6605088
-0.07128952 0.027771013 0.44080767 0.13905899 -0.15872076 -0.23657203 0.06899423 0.11454988
-0.16410106 -0.23197 -0.2677768 0.025845492 -0.10274926 -0.018272534 -0.3475245 -0.3284614
0.07801381 0.26943663 0.06797446 0.09948972 -0.087993525 -0.078142084 -0.21146692 -0.02937364
0.25120446 0.028915467 -0.2941187 0.14032155 -0.20757897 -0.11465007 0.29786456 -0.002327508
-0.021970041 0.16619457 0.1807908 0.02069636 -0.20061032 0.22382215 -0.12859643 -0.065336466
0.05665323 -0.04790142 0.19846696 -0.15802701 0.0556687 -0.044950407 0.016296307 -0.0090450095
-0.015368401 -0.13754283 0.09730931 0.18453525 -0.16300362 -0.12958027 -0.059987705 -0.0028681213
-0.086570956 -0.21387577 -0.34349152 -0.12378207 0.21805426 0.19310686 -0.07044052 0.33682635
0.3871377 0.24525335 -0.6868231 -0.058676645 -0.02260951 -0.30280182 0.21485223 0.32151902
0.4467999 -0.12877432 0.53936446 -0.08487268 -0.14975297 -0.69677925 -0.28457174 -0.035005093
-0.08738464 0.02886047 -0.052811835 -0.10892161 -0.75175023 0.27357835 0.19275154 0.29867116
0.48666656 -0.019200798 0.21656308 -0.042717546 -0.055158097 0.0028599643 -0.3284198 0.35586816
0.07161247 0.7453118 -0.13973968 0.046083856 0.20852852 -0.3776421 0.1262072 0.18692493
-0.08918506 -0.33853185 -0.14047536 -0.4834427 -0.12984537 0.7546932 0.09771899 0.34785223
0.28359744 0.041996513 0.52862865 -0.9000163 0.013103462 0.2607287 -0.53166837 -0.3373807
0.7506048 -0.76814175 -0.8793612 -0.44268584 -0.15830608 -0.6458431 0.2375127 0.8699612
-0.3275517 0.051318996 -0.24045417 0.6567268 0.35822427 0.17514339 -0.019401573 0.23395541
-0.5186498 -0.8751545 -0.48831677 -0.16039397 -0.45303062 0.046366733 -0.8185732 -0.8795512
0.4984814 0.35198596 0.7036707 0.20591253 0.019452628 0.8255115 -0.5400095 -0.3192041
0.53235173 0.051802836 -0.41363487 0.24457036 0.82291824 -0.6675888 -0.41170987 0.35125497
-0.21230535 0.51241666 0.20323378 0.23420602 0.76246035 0.25965795 0.28484178 -0.0022463666
0.08110749 0.0389851 0.17722142 -0.5541573 0.03632357 0.6301829 0.28417543 0.41219634
-0.071282335 0.25671935 0.6365258 0.008187729 0.059346832 -0.11612949 -0.13897566 0.05842185
00000000: e100 31bc 4d31 39be e29e 9ebd cad4 d13e
00000010: f699 b1bd 6574 7c3c d976 40bd 16ba e73d
00000020: 56c6 043d e293 873e 2828 56be ee9c 5dbc
00000030: 59ab 143d 9181 f2bd e4a0 b33a 516a 5cbd
00000040: 86b1 f5be c92e 083e 7879 b2bd e8c3 343d
00000050: a3bf bb3d 6d86 aebd 1e68 5cbe 961f 83be
00000060: aa1b 053d 6ba8 023e 2ce5 a13e 560c 06be
00000070: 2a11 2cbe 8e97 e8be 9eaf 143e 8c8f f5bd
00000080: 4694 d93e 8e43 dabd cc34 fbbe bec9 5c3d
00000090: 2792 013e a946 b73e a7fa c0bd 505e f63d
000000a0: ec90 97bd 6174 993d d8a2 7abc 2da1 8e3b
000000b0: f6dd 943d 0594 1c3e 6870 433e d1d2 1bbe
000000c0: 0fbc af3d c6b2 bfbd 6dd5 273e 76f1 6c3d
000000d0: 9326 bfbe c789 1bbf 96d0 73bd e3f8 2d3d
000000e0: 84fe 55bd b31c 783e 3eed 57bd 7848 05be
000000f0: c3d2 063f d65e 18be 396d c6bd 974d c8bd
00000100: 7eb7 24bf abdb efbe c9c0 12be 536d 823d
00000110: c251 003d 7682 35bd f3c9 8b3e 1b17 29bf
00000120: 3d00 92bd 0980 e33c 8bb1 e13e 7b65 0e3e
00000130: b287 22be f03f 72be d94c 8d3d 2199 ea3d
00000140: 1c0a 28be 8b89 6dbe 0a1a 89be edb9 d33c
00000150: 346e d2bd 48b0 95bc bbee b1be 182c a8be
00000160: b4c5 9f3d 99f3 893e 3236 8b3d 44c1 cb3d
00000170: f335 b4bd f508 a0bd c98a 58be fda0 f0bc
00000180: df9d 803e 21e0 ec3c ba96 96be 74b0 0f3e
00000190: 958f 54be a8cd eabd b481 983e 1b89 18bb
000001a0: 84fa b3bc e92e 2a3e 3921 393e 6a8b a93c
000001b0: cb6c 4dbe a231 653e c8ae 03be 20cf 85bd
000001c0: 380d 683d 4834 44bd ec3a 4b3e d5d1 21be
000001d0: dd04 643d eb1d 38bd d57f 853c 8531 14bc
000001e0: bfcb 7bbc 07d8 0cbe 1b4a c73d cff6 3c3e
000001f0: 6cea 26be b1b0 04be abb5 75bd 17f7 3bbb
00000200: 1d4c b1bd 4002 5bbe 1fde afbe 7481 fdbd
00000210: 9e49 5f3e cebd 453e 1f43 90bd 8174 ac3e
00000220: ea36 c63e b223 7b3e a4d3 2fbf ec56 70bd
00000230: 9437 b9bc d708 9bbe 3902 5c3e 249e a43e
00000240: f5c2 e43e 6add 03be ca13 0a3f bad1 adbd
00000250: d858 19be 2060 32bf 63b3 91be 8061 0fbd
00000260: b8f6 b2bd cb6c ec3c 3951 58bd 4b12 dfbd
00000270: b472 40bf 7612 8c3e a960 453e 6deb 983e
00000280: 5c2c f93e fe4a 9dbc b6c2 5d3e 98f8 2ebd
00000290: 75ed 61bd 3d6e 3b3b a426 a8be 5a34 b63e
000002a0: 8fa9 923d c1cc 3e3f eb17 0fbe 6dc2 3c3d
000002b0: 8088 553e 4e5a c1be 763c 013e 4069 3f3e
000002c0: a8a6 b6bd 0c54 adbe c6d8 0fbe cd85 f7be
000002d0: 2ff6 04be 9333 413f e520 c83d b019 b23e
000002e0: af33 913e 8904 2c3d 3554 073f 7867 66bf
000002f0: e7af 563c 3b7e 853e 6b1b 08bf 2abd acbe
00000300: a327 403f f0a4 44bf d11d 61bf b8a7 e2be
00000310: fd1a 22be f955 25bf 8736 733e c7b5 5e3f
00000320: dbb4 a7be de33 523d 9e39 76be 3f1f 283f
00000330: 2c69 b73e ca58 333e 0cf0 9ebc 0292 6f3e
00000340: 3cc6 04bf 200a 60bf a804 fabe 513e 24be
00000350: a1f3 e7be 0beb 3d3d 038e 51bf 442a 61bf
00000360: f438 ff3e 8137 b43e c323 343f bcda 523e
00000370: 1e5b 9f3c b954 533f 103e 0abf b86e a3be
00000380: 3448 083f 362f 543d f3c7 d3be a770 7a3e
00000390: c5aa 523f 19e7 2abf a3cb d2be b1d7 b33e
000003a0: 9366 59be bd2d 033f 841c 503e b4d3 6f3e
000003b0: 9a30 433f e3f1 843e c8d6 913e c737 13bb
000003c0: af1b a63d d7ae 1f3d 8879 353e 41dd 0dbf
000003d0: 06c8 143d ab53 213f 717f 913e 660b d33e
000003e0: 79fc 91bd b870 833e 5bf3 223f d325 063c
000003f0: aa15 733d 4cd5 edbd a34f 0ebe c04b 6f3d

bias f4 [4]
-0.047955368 -0.0628298 0.042611178 -0.023919951
00000000: d96c 44bd e9ac 80bd 0f89 2e3d c6f3 c3bc
