problem1/models/underway/success_whole_model_1766858710.pth (torch, 146613 bytes, 9 tensors)

weight f4 [128, 8]
000000 11 50 b3 be e1 1c 0c 3d 74 60 b6 be 1c 85 c3 3d
       -0.35022023 0.03420723 -0.35620463 0.09546873
000010 a1 fc e9 3e cd 9f ce be a0 93 8b be 1b 23 46 bf
       0.45700553 -0.40356293 -0.27261066 -0.77397317
000020 b7 72 09 bf be 3e 85 3e a8 48 0b bf 61 d6 b1 3e
       -0.53690666 0.2602443 -0.5440774 0.3473387
000030 86 33 0d 3e 94 47 13 bf c4 03 ba 3d 0c 86 bc 3d
       0.13789186 -0.57531095 0.090827495 0.09205255
000040 16 fc 41 3f 90 df af be d2 34 02 3e 82 e0 c1 be
       0.7577528 -0.34350252 0.12715462 -0.37866598
000050 a5 a3 f2 be 00 22 eb be 70 90 ec be 83 13 c1 3d
       -0.47390476 -0.45924377 -0.46203947 0.0942755
000060 c7 d2 98 be 34 f3 a6 be bb b7 7c 3e f6 d4 9d 3e
       -0.2984831 -0.32607424 0.24679463 0.3082654
000070 de 1a 8c be b2 dd 05 bf 75 e1 7c 3e 2e 0a ac bd
       -0.27364248 -0.52291405 0.2469538 -0.08400379
000080 46 25 0f 3e 7e f2 ab 3e da 00 9d 3e 37 86 05 3f
       0.13979062 0.33583444 0.30664712 0.5215792
000090 74 70 6f be c0 bf 03 3f e2 a3 9b be 53 30 10 3d
       -0.23382741 0.5146446 -0.3039847 0.035202336
0000a0 57 5f 9e 3e ff d8 35 be 05 76 cf be b1 35 cc be
       0.30932114 -0.17758559 -0.4051973 -0.39884713
0000b0 34 b9 ff 3e ae 01 0a 3f 9e 7a 9e 3e cf ae 18 bd
       0.49945986 0.53908813 0.30952924 -0.037276085
0000c0 e6 fc d7 be 9b e6 0a 3f 72 4d f8 3d ef 70 91 be
       -0.42185134 0.54258126 0.121241465 -0.28406474
0000d0 d8 c9 55 be af 52 1d 3e 41 c8 7d 3d c8 ee 9c 3d
       -0.20877779 0.15363573 0.061958555 0.076627314
0000e0 6c 4b a9 bc 45 60 4d be b9 b8 25 be d4 e5 43 bf
       -0.020665847 -0.20056255 -0.16183747 -0.76522565
0000f0 3d e9 b9 bc a7 df 86 be 80 03 37 bd 5c 3a 38 3d
       -0.022694224 -0.26342508 -0.044681072 0.04497753
000100 ec 99 7c be 2d 9e 88 3e ca f4 79 3e bb 60 b8 3c
       -0.24668092 0.2668318 0.24409786 0.022507062
000110 63 50 d2 3d 9c 07 70 3f 7c e3 12 bf 9f 74 1d 3e
       0.10269239 0.9376161 -0.57378364 0.15376519
000120 ed f5 93 be 80 24 c7 be 76 f6 2e bd 57 41 40 be
       -0.28898564 -0.38895035 -0.042715512 -0.18774925
000130 78 a5 0a 3e 57 6b 81 3e e8 02 3c 3e e4 98 00 3d
       0.13539684 0.25277206 0.18360484 0.031395808
000140 25 24 08 be fb 6d 3b 3e 6b 3f ea 3e 8a 9e 0b bf
       -0.13295038 0.18303673 0.4575151 -0.54538786
000150 1f d6 2e bf fb c3 06 3f 53 65 d0 3d fd a1 a1 be
       -0.6829547 0.5264279 0.10175576 -0.315689
000160 8e 80 44 be 52 90 94 3e d9 73 16 3d 6d 34 14 3e
       -0.19189665 0.29016358 0.036731575 0.14473124
000170 eb a7 01 3f 2b 8e 28 3f b6 7a b4 3e 3b b3 0f be
       0.5064685 0.6584193 0.3524987 -0.14033215
000180 8f 3d 46 be 4a 5a 83 be 66 8a 62 3e c9 12 9b 3d
       -0.1935942 -0.25654823 0.22123107 0.07571942
000190 5f 28 05 3e f3 0a 06 bf 53 9c 26 bd 7b fe bf 3e
       0.13003682 -0.5236046 -0.040676426 0.3749884
0001a0 4a 0e bd be 60 b2 fe bd 55 b6 c5 3e 3e 68 7d 3d
       -0.36924964 -0.12436366 0.3861567 0.06186699
0001b0 ca 5c 0a bf ce 36 02 bf 90 d7 86 be 88 2f 20 be
       -0.54047835 -0.50864875 -0.26336336 -0.15643132
0001c0 45 e4 7a be f7 89 5f 3e 7f b9 2f 3e 00 16 29 3d
       -0.2450114 0.21829973 0.17160605 0.041280746
0001d0 0d 43 b9 3e 40 61 02 3f 28 c8 a8 3e 5c 59 14 3e
       0.36183968 0.5092964 0.32965207 0.14487213
0001e0 fd 3a e5 be f9 ca a4 3e 5a 7c f1 be 83 28 56 3e
       -0.44771567 0.32186106 -0.47165185 0.20913891
0001f0 62 03 b3 3e 00 0b a2 3e 0a 74 9f be ad c1 bc be
       0.34963518 0.31649017 -0.31143218 -0.36866513
000200 96 4c f7 3d 5d f4 91 be 0f 6d e6 3e 23 4f 10 3d
       0.120751545 -0.28506747 0.4500508 0.03523172
000210 69 90 40 bf 94 2e da bd b3 82 81 bd e8 01 c8 3d
       -0.7522035 -0.10653415 -0.06323757 0.097659886
000220 0a 4a b6 3e 79 a6 69 3e a0 6a 8b 3e 25 96 3c 3e
       0.35603362 0.2281741 0.27229786 0.1841665
000230 ed e5 a5 be cb ad f2 be a8 a6 89 be 98 2f e6 3e
       -0.32401982 -0.4739822 -0.2688496 0.44958186
000240 ad f1 6c be 26 69 a6 3e a5 44 e6 be 2b d1 28 be
       -0.23139067 0.32502097 -0.44974247 -0.16486041
000250 33 e8 53 3e db 94 e3 be d5 01 ad bd 18 3d c8 3e
       0.20694046 -0.44449505 -0.08447615 0.3910911
000260 31 dc 8a 3d 59 cd 87 bd 38 cd a9 3e 57 be de be
       0.067802794 -0.06630964 0.33164382 -0.43504593
000270 01 ee f0 be b0 b3 1f bf 4f 22 9b be 1f ba 14 3e
       -0.47056583 -0.62383556 -0.30299613 0.14524125
000280 f7 36 c3 3e 4a 3d 0d 3f a6 a9 03 3e 85 a6 0a bf
       0.38127872 0.55171645 0.12857684 -0.5416034
000290 21 2a 85 3d 33 08 01 3f 0e d6 9d 3c b4 fd 89 be
       0.06502176 0.50403136 0.019267108 -0.26951373
0002a0 37 e9 0b 3e f1 bc 01 3f fe 44 e3 be c2 dd a3 be
       0.13663183 0.50678927 -0.44388574 -0.32005125
0002b0 e5 27 9d 3e a9 ec 97 be 0b da 1d 3e 67 fc 24 3d
       0.306945 -0.29672745 0.15415208 0.040279772
0002c0 ed 44 28 3e ca 49 9f 3e 4b 34 5d be 71 9c da be
       0.16432543 0.31110984 -0.2160198 -0.4269748
0002d0 af 08 bb 3e 5a 5c 30 3f c9 09 b4 be a9 82 fc be
       0.36530063 0.6889092 -0.35163715 -0.49318436
0002e0 e7 bb 4d 3e 03 b3 89 3e f4 45 bb 3e 64 5d 23 be
       0.2009121 0.26894388 0.36576807 -0.15953594
0002f0 86 a7 2c bf 11 7a d3 be 74 c8 bd be 02 b0 a9 3e
       -0.6744312 -0.41304067 -0.37066996 0.33142096
000300 0a 20 be 3e 4e d7 92 be 49 44 bf 3d b6 d0 2f bd
       0.3713382 -0.2867989 0.09339196 -0.04292365
000310 96 e9 2f bf d0 b6 3c be c4 db b8 be 2e de 7e be
       -0.687158 -0.18429112 -0.36105168 -0.24889442
000320 05 52 ed 3c 22 46 6d bd b9 e6 8a be 12 4f 9e be
       0.028969774 -0.057928212 -0.27129152 -0.309197
000330 04 d3 a7 3f 31 ee 4a be 07 d1 56 be 6a 05 c5 3e
       1.3111272 -0.19817425 -0.20978175 0.38480693
000340 2b 81 87 bd d9 b0 29 be 6a 37 96 3e 0a 18 ad bd
       -0.06616434 -0.16571368 0.29339153 -0.08451851
000350 33 99 fe be 1a f2 66 be 32 16 05 bf 23 a7 18 3e
       -0.49726257 -0.22553292 -0.5198699 0.14907508
000360 7f a0 bb be 7e f6 0f bd 35 f6 88 be 8b a6 71 3e
       -0.36645886 -0.035147183 -0.2675034 0.23598687
000370 38 41 32 be 37 f1 f3 be de c3 61 3d 80 a0 58 3e
       -0.17407691 -0.4764497 0.055118434 0.21154976
000380 73 a7 32 3e c1 89 9e bf 3e 9b 0a bf 87 74 a3 3e
       0.1744669 -1.2385789 -0.5414313 0.3192484
000390 35 ef df 3e 8e 4d 72 bd d9 5f b7 bd c4 47 c3 3e
       0.43737188 -0.059155993 -0.08953828 0.3814069
0003a0 ea b2 9d be 90 52 a0 3e 07 f8 fd 3e f3 b2 b7 be
       -0.30800563 0.3131299 0.49603292 -0.35878715
0003b0 80 fb c5 be 82 ac 22 bf ba 2a 57 bd 2f b2 dc bd
       -0.38668442 -0.63544476 -0.05253098 -0.10776173
0003c0 a6 82 e0 bd 0f 98 1f be 66 c7 b2 3e 22 36 c8 be
       -0.10962419 -0.1558535 0.34917754 -0.391038
0003d0 c8 2e 78 be ee cc 52 bf d9 10 9c 3e da b7 bb 3d
       -0.24236596 -0.8234395 0.30481604 0.09165926
0003e0 11 25 a5 3c 02 b7 cb bf f7 60 e5 be 15 86 6f be
       0.020159276 -1.5915225 -0.4480054 -0.23390992
0003f0 af b8 47 3f e4 64 1c be fa 5f 36 be 7a 06 de 3d
       0.7801618 -0.15272862 -0.1781005 0.10841079

bias f4 [128]
000000 83 73 2f 3e 20 8c 84 3d 42 b5 f0 bd 84 e5 40 be
       0.17133908 0.06472039 -0.11753322 -0.18837553
000010 14 25 5f bc c5 d0 f1 3e 88 2e 7b bd eb 3f b3 bd
       -0.01361968 0.4722959 -0.061323673 -0.08752426
000020 99 c0 d4 3c a9 43 77 3e 94 72 79 3e 6c d0 4c 3d
       0.025970744 0.24146904 0.24360114 0.050003454
000030 d7 f1 65 3e f3 30 8a be 18 7e a2 be 45 ea 63 bd
       0.22455536 -0.2699047 -0.31736827 -0.05564334
000040 bd 1b 5d 3e 59 96 3c be 78 76 a9 3d bc 2b 88 be
       0.21592613 -0.18416728 0.08274549 -0.26595867
000050 d5 08 d8 3e 0e ed 45 be 88 c4 91 3e bd 50 5a be
       0.42194238 -0.1932871 0.28470254 -0.21319862
000060 1b 4c 5a 3e fc 26 59 bc b8 d8 0d 3e 37 3c 2d bd
       0.21318094 -0.0132539235 0.13852203 -0.042293753
000070 e5 f9 a8 3d df 6f e2 3e 48 6a 5e be 53 4e e9 3d
       0.082507886 0.44225976 -0.2172023 0.11391892
000080 e3 d1 97 3e 86 92 9e 3e 72 e3 00 3e d9 c5 0a 3f
       0.29652318 0.30971164 0.12586764 0.5420814
000090 ef a2 ff ba 07 1e 95 3e 9c 51 26 3e 04 72 92 3e
       -0.0019503514 0.29124472 0.16242069 0.28602612
0000a0 f8 16 71 3e 3d 4c a5 3b 31 39 26 3d 50 7b 39 3d
       0.23543918 0.0050444887 0.040581886 0.045283616
0000b0 6e 33 86 3e 31 79 9c 3e c3 d2 e3 3e 03 18 07 3f
       0.26211113 0.30561212 0.44496736 0.52771014
0000c0 a5 8a eb be eb 10 b7 bd 8c a0 3d 3e 71 ef 30 be
       -0.46004215 -0.08938774 0.18518275 -0.1727884
0000d0 48 50 bf bd c4 ee 5d 3e dc 90 4d be 7b 54 99 3e
       -0.09341484 0.21673113 -0.2007479 0.29947266
0000e0 8a e6 2d bd 10 bb b2 be 78 b6 0e bd 38 e5 d2 3e
       -0.042456187 -0.34908342 -0.034841985 0.41190505
0000f0 ca 1c 5a 3e dc 4e 44 3e 6c 75 01 3f 1e 5a 82 3e
       0.21300045 0.19170707 0.50569797 0.2545938
000100 d2 7b b8 3e e9 82 3c be 4b 69 49 3e f8 f6 9d be
       0.36031967 -0.18409313 0.19669072 -0.30852485
000110 10 5f 15 3e 16 5c 1b 3e c7 98 bb 3e 3d 4b e3 3d
       0.14587045 0.15171847 0.36639997 0.11098335
000120 18 72 89 3e a4 37 92 be 07 a9 bd 3e fa 3e ef 3e
       0.2684486 -0.28558075 0.3704302 0.46727735
000130 14 69 78 3e 11 7a 8e 3e d6 3a 1a 3f 89 36 b9 3e
       0.24258834 0.27827504 0.60246027 0.3617442
000140 e7 68 ed bd 8c fc 23 3e e4 8d 3c be a6 e6 0c 3f
       -0.11592274 0.16014308 -0.18413502 0.5503944
000150 ae e7 04 3f 43 75 9e 3e 7b e0 cc 3e ca 0d 7f 3c
       0.51916015 0.3094884 0.40015015 0.015567252
000160 1d 3f e4 be 7d 49 6a 3e 6d 06 12 3f cc 48 de 3e
       -0.44579402 0.22879596 0.57041055 0.43414915
000170 76 c9 a4 3e eb 86 05 bd 06 32 ce 3c b6 4c c7 3e
       0.32184952 -0.03259937 0.025170337 0.38925713
000180 9f 51 78 be 34 95 e8 3e 0d a8 47 3d 8b bd f1 3e
       -0.24249886 0.45426333 0.04874425 0.47214922
000190 9e 3d 08 3f ef 0a fe 3e c0 1e 5d 3e 36 6c 03 bf
       0.5321902 0.49617717 0.21593761 -0.5133699
0001a0 77 f6 0a 3e 3c 8e 6f bd 3d 7b f9 3d 31 80 9c 3d
       0.13570581 -0.058485255 0.12181709 0.07641638
0001b0 d3 21 b1 bd 92 49 8a 3e 74 da 34 be ce 0e c1 bd
       -0.086490296 0.27009255 -0.17661458 -0.09426652
0001c0 14 d6 3f 3d 64 13 96 3d 1f 79 63 3e 69 6d 9e 3d
       0.04683502 0.07327917 0.22214173 0.07735712
0001d0 fa 66 48 bd b0 8b af 3d a4 e6 5d bb 21 71 d6 3e
       -0.04892633 0.08571565 -0.0033859396 0.41883186
0001e0 48 09 da 3e 09 45 23 3e a3 27 5f 3e 43 2c 8a 3e
       0.42585206 0.15944304 0.21792464 0.26986894
0001f0 5f 30 b1 3e f4 50 c7 3e 69 95 99 3e 5c 14 2d bd
       0.34607217 0.3892895 0.29996803 -0.042255744

weight f4 [128, 128]
000000 af 56 8c bd 90 8a 26 bd 0a 5a 5a 3d 56 fc a4 bd
       -0.06852471 -0.040659487 0.053308524 -0.08055942
000010 44 09 81 3d 77 00 e8 bc 45 27 1b bd 91 be c2 bc
       0.063005954 -0.028320534 -0.037879247 -0.02377251
000020 89 d4 cd 3b 7f ef 86 bd d2 fb fb bc 66 a5 5f bd
       0.0062814397 -0.06588649 -0.030759726 -0.054601096
000030 82 c4 07 bc f6 3c 87 3c 15 6e 94 bd 69 1a b8 3c
       -0.008286597 0.01650856 -0.07247559 0.02247353
000040 a3 8a 93 3d 5c 1e 91 bc b0 93 80 3d 12 95 a0 bd
       0.07204177 -0.017714672 0.06278169 -0.07840933
000050 22 f6 31 bd be 9c 9c bd 17 1a 8f 3d 32 ee 1a 3d
       -0.04344762 -0.07647084 0.06987398 0.037824817
000060 0a 9a 40 3d d4 e1 94 bd 17 4f b6 bb 01 13 c1 3a
       0.047021903 -0.07269636 -0.0055636275 0.0014730395
000070 9c bb 12 bd dd 6d 74 bd 09 8d 83 bd e5 29 9d bc
       -0.03582345 -0.059675086 -0.06423385 -0.019185016
000080 00 0f 25 bd 83 b2 c2 bd 8a 46 99 bb 4a dc ab 3c
       -0.04029751 -0.09506705 -0.0046775984 0.020979065
000090 62 57 c4 bc 06 0e 59 bd cb ac d8 3c 25 70 93 bd
       -0.023967449 -0.05299189 0.026449582 -0.07199124
0000a0 fe 23 93 bd fc a5 d8 3c 2c 64 8a 3d 55 06 25 bd
       -0.07184599 0.026446335 0.067573875 -0.04028924
0000b0 48 1c 83 3c 27 c6 7c bd e7 6d c0 3c eb 26 f4 bc
       0.016004696 -0.06171241 0.023489906 -0.029803714
0000c0 4e 47 8d 3d 2b 22 99 3d 65 9d 9a bd b4 86 09 bd
       0.06898366 0.0747722 -0.07549552 -0.03357573
0000d0 dc cb df 3b 01 a5 cc 3c ed 75 99 3c 9b 1a ab bd
       0.006829722 0.024981024 0.01873299 -0.08354684
0000e0 ba 24 25 3c 8c 52 0d 3c 8c 0d b0 bc 8c c7 62 3d
       0.010079557 0.008625638 -0.021490835 0.055366084
0000f0 1d c4 6e 3d 80 1f 22 3d 25 f8 80 3d 86 11 aa bd
       0.058292497 0.039580822 0.0629733 -0.083041236
000100 7b 90 a9 3c b7 69 45 bc 67 74 5e 3d a8 c7 9b 3d
       0.020698776 -0.01204913 0.05431023 0.07606441
000110 44 72 0f bd e8 90 37 3d a7 8d ca 3c ca 0e 95 bd
       -0.03502108 0.044815928 0.024725748 -0.072782114
000120 42 00 1b bc 52 6c 67 bd 45 4b 3d 3d d4 44 25 bc
       -0.009460511 -0.056499787 0.04621436 -0.010087211
000130 21 ef 72 3d a1 4c 82 3d b8 70 92 b9 10 a9 9e bd
       0.059310082 0.06362272 -0.00027931272 -0.0774709
000140 e0 e1 f3 bc 58 fb b2 bd 21 52 5e 3d e0 88 91 bc
       -0.029770792 -0.08739346 0.054277543 -0.017765462
000150 92 e1 ab 3c 48 c1 0a 3d b5 48 5b b9 6c 65 80 bd
       0.020981584 0.033875734 -0.00020912553 -0.06269345
000160 39 4d f1 3c e3 6f 81 3d 30 74 8d bc 23 3a 9b 3d
       0.029455768 0.06320169 -0.017267317 0.07579448
000170 9c d7 05 3d 22 3c 92 bd 08 2e 74 bd 68 b2 b1 3d
       0.032676324 -0.07140376 -0.05961421 0.086766064
000180 bc 18 4d bd a5 a2 b8 bd 9c fe a0 bd 1f 74 25 3d
       -0.050072417 -0.09015397 -0.07861063 0.040393945
000190 ce 5e 84 3d cd 8d 83 bd 11 62 be bc 8d 39 e1 3c
       0.06463395 -0.06423531 -0.023240121 0.027493263
0001a0 f0 75 00 bd e7 c0 b6 bd 34 36 94 bd 91 82 93 3c
       -0.031362474 -0.08923512 -0.07236901 0.018006595
0001b0 81 c5 79 3c d4 52 3d 3d 25 e2 80 ba 70 d0 2e bd
       0.0152448425 0.04622157 -0.0009833021 -0.04267925
0001c0 51 61 97 3c 2c d6 01 3d ec 9d a7 3c ad 05 a9 bd
       0.018479021 0.03169839 0.020461045 -0.08253036
0001d0 bf 18 12 bd e5 80 ce 3c d1 4c bc 3c bb b2 ac bd
       -0.03566813 0.025207946 0.022985848 -0.08432528
0001e0 7a 1d a1 bd f3 ce 00 3d 97 1f 1d bb d4 3d 1f 3d
       -0.0786695 0.031447362 -0.0023975128 0.038877323
0001f0 bb e2 8c 3c 8e e4 91 bd 9f 10 8a bd 09 1d 1c bd
       0.017197957 -0.071236715 -0.067414515 -0.038113628
000200 3e 23 3e 3d f2 4d 1f 3e 97 0a 80 be c9 63 ca 3e
       0.04642033 0.15557078 -0.2500808 0.39529255
000210 ed 0c 22 be 7d 0e 4a be 5a 3e b9 3e f1 99 35 be
       -0.15825243 -0.1973209 0.36180383 -0.17734505
000220 4b 65 8b be e0 ee fd bd 3e c0 86 3d 5d 35 f1 be
       -0.27225718 -0.123990774 0.06579636 -0.47111025
000230 2e 6e b4 3c a8 57 4c 3d 8e b8 62 be 9e d4 90 bd
       0.022025194 0.049888283 -0.22140715 -0.070718035
000240 8d 8c 29 3e b4 74 5d 3d 3d af 17 3e ec 6a 05 be
       0.16557522 0.054066375 0.14812942 -0.13029069
000250 a6 2a c8 bb 39 da d8 3e fc 9e 76 be 54 fd 04 3d
       -0.0061085997 0.4235399 -0.24084085 0.032468155
000260 fe 80 f6 bd 37 5e cb 3e b1 09 93 3d 5f 7c 35 3d
       -0.12036322 0.39720318 0.07179583 0.044308063
000270 9f 14 d5 3e ad a0 a4 3e a7 6a a0 3c f1 9a 01 3f
       0.41617295 0.32153836 0.019582106 0.50627047
000280 ac 4d e2 be 1d 41 52 3e ca dc e3 3e 33 a7 5c 3e
       -0.44199884 0.20532651 0.44504386 0.21548156
000290 03 13 8d 3f dc c2 19 3e 5f bb 94 be a1 c4 61 be
       1.1021427 0.15015739 -0.29049203 -0.22047664
0002a0 c1 14 77 3c 05 c9 fd 3e ec b9 af be 44 11 0d be
       0.015080632 0.49567428 -0.34321535 -0.13776118
0002b0 25 2c 8a bc a5 3e 48 3e 17 18 ab 3e e7 f1 1f 3e
       -0.016866753 0.19555147 0.33416817 0.15619622
0002c0 50 b0 86 bd 7c cc 79 3e 7b 5a 15 3e de 29 43 bf
       -0.06576598 0.24394411 0.14585297 -0.7623576
0002d0 8d d9 00 3f e7 af c3 bd 38 a5 d2 be d3 1a 41 be
       0.50331956 -0.09555035 -0.41141677 -0.18857889
0002e0 ae e7 08 be ac e7 51 be ad b8 bf be e4 68 40 3e
       -0.13369629 -0.20498532 -0.37445584 0.18790013
0002f0 19 a9 0b 3e a3 d6 07 bf 7f ce 9c 3e ba 1c d2 3d
       0.13638724 -0.53061885 0.30626294 0.102593854
000300 68 28 98 3e a7 ac 03 be 54 c5 44 be 35 8b c1 3c
       0.29718328 -0.1285883 -0.192159 0.02362595
000310 a5 59 9c 3f 9f 62 8a bd ef 4a 4a be 79 47 6d be
       1.2214857 -0.06757092 -0.19755147 -0.23171796
000320 d3 6e ad 3e b8 7c c6 be ce fd 17 3e af 57 22 3e
       0.33873615 -0.38767028 0.14842913 0.15853761
000330 bd d4 dd 3c da b2 ad be 2c 26 38 3c c9 d3 2e 3e
       0.02707898 -0.33925515 0.01123957 0.17072977
000340 6d f2 22 be e7 c1 39 be a6 2a 5e 3d 14 a0 90 3e
       -0.1591279 -0.18140374 0.05423989 0.2824713
000350 75 86 74 3e 4e 90 89 3e 09 02 c0 3e 86 28 ee be
       0.23879416 0.26867908 0.37501553 -0.46515292
000360 94 1b 13 bf 63 ad c4 be 9b e6 f6 3d 19 3c 90 be
       -0.57463956 -0.38413534 0.12055703 -0.2817085
000370 38 0f 49 be d4 57 49 3f de 8c 6e 3d e8 76 a4 be
       -0.19634712 0.7864964 0.05823981 -0.32121968
000380 98 bb c6 be 96 1a 25 be 5b b7 af bc 63 41 48 3e
       -0.38814998 -0.16123423 -0.021449735 0.19556193
000390 e2 f6 d6 3d 65 ed 84 be 61 2e 44 3e 0a ac 87 3a
       0.10496308 -0.25962368 0.19158317 0.0010350954
0003a0 4a 9a 6c bd 42 83 57 bd 26 85 4f 3d 1a 66 71 3f
       -0.05776433 -0.05261541 0.05066409 0.9429642
0003b0 bf 4d 6f 3e a1 a8 fb bd f8 1f f9 bb e8 fd 67 3e
       0.23369502 -0.12288023 -0.007602688 0.22655451
0003c0 e3 bd 6e bd f5 46 ca be c8 2f f3 bd e3 68 22 3e
       -0.05828656 -0.3950726 -0.11874348 0.15860324
0003d0 04 91 a4 be fd e7 d2 be 44 4e 4f 3f 61 95 04 3e
       -0.32141888 -0.41192618 0.809788 0.12947609
0003e0 f6 5b ef be 05 e1 02 3e 58 0f 8a be 06 55 7e 3e
       -0.46749848 0.1278115 -0.2696483 0.24837121
0003f0 c4 5d e8 3d 51 05 87 be a7 6b ff 3d 29 c7 b8 be
       0.113460094 -0.26371244 0.12471705 -0.36089447

bias f4 [128]
000000 dc dc b9 bd c6 7b 48 3e 9e 81 3b bd 2a aa 96 3c
       -0.09075329 0.19578466 -0.04577791 0.018391687
000010 fb e0 19 be bd 3a fd bd 97 f9 f8 3d 45 b2 cc bc
       -0.1502723 -0.12364719 0.121569805 -0.02498735
000020 81 6b c0 3d f1 f4 43 3e d5 31 84 bc 8a 2a 0a 3e
       0.09395505 0.19136406 -0.016137043 0.1349279
000030 f7 ca c0 bd 8e ef 02 bd 01 85 a0 bd a8 e3 2d be
       -0.094137125 -0.03196674 -0.078378685 -0.16981375
000040 bb df 8a bd ce a6 43 bd 96 90 48 3e 9e 80 94 bb
       -0.067809545 -0.0477665 0.19586405 -0.004531934
000050 c7 e8 2a 3d 9d 8a 8b 3d d0 93 4b 3d 3a b4 60 bc
       0.0417259 0.06813548 0.04970151 -0.013714844
000060 80 54 d2 3d db 32 cd bd 90 8d 90 3e cc 15 ce 3d
       0.10270023 -0.100194655 0.28233004 0.10062751
000070 73 14 0f bd 74 c4 ce 3d db ad 7d bd e9 a8 fb bd
       -0.03493161 0.10096064 -0.06193338 -0.122880764
000080 b7 30 b4 bd e1 0b 29 3e 7a ca 8c 3e 91 70 18 bb
       -0.08798354 0.16508438 0.27498227 -0.0023260454
000090 89 20 58 bd 03 26 f1 3d 1a 1a a8 3c 39 5f bb bd
       -0.052765403 0.11774828 0.020520259 -0.09149022
0000a0 8d 66 53 3e 74 91 03 3e c4 fb df bc 15 e6 06 3c
       0.20644589 0.12848455 -0.02734173 0.008233567
0000b0 c8 8b a5 bb 49 28 97 bc 01 80 87 bd 92 d8 b8 bd
       -0.0050520636 -0.018451827 -0.06616212 -0.090256825
0000c0 6c 1d 25 3e 7a 08 f3 3c 18 05 7a 3c bb 45 fb bd
       0.16124505 0.029667128 0.0152600035 -0.122691594
0000d0 bb e6 ab bd 60 14 06 be 17 4a 47 bd da 69 a1 3c
       -0.08393618 -0.1309371 -0.048654642 0.019703794
0000e0 f9 79 15 be 9e b0 2d 3c f7 d4 f0 3c 98 45 8e 3e
       -0.1459731 0.010601191 0.029398425 0.2778747
0000f0 eb d1 ec bc 00 a4 19 bd c1 cf a1 bd 86 d1 2c be
       -0.02890869 -0.03750992 -0.07900954 -0.16876802
000100 be 5b c0 3a 28 06 53 3c d2 c5 1e bc 00 50 53 bd
       0.0014675779 0.012879886 -0.009690719 -0.051589966
000110 5c 43 be bc dd 89 01 be 89 1c a3 3c d8 e0 20 be
       -0.023225479 -0.12650247 0.019911068 -0.15710771
000120 fe 96 ac 3c 8c c5 c0 3c e5 01 93 3e be ed 07 bc
       0.021068092 0.023531698 0.28712383 -0.008296428
000130 04 7d e5 3c 2c fd b9 bc e0 b9 05 bd e9 e6 9f 3e
       0.028013714 -0.02270373 -0.032647967 0.31230858
000140 8f 53 20 3e 5f da 8a bc e3 2e 22 3e d6 b0 6f 3e
       0.15656875 -0.01694983 0.15838198 0.23407301
000150 3d d4 be bc 67 a7 4c 3e df 8c 7f bb b8 80 40 bd
       -0.023294562 0.19985734 -0.0038993878 -0.046997756
000160 1a e2 be bb eb d7 b6 bd 63 92 18 be 94 f9 57 bd
       -0.0058252933 -0.08927902 -0.14899592 -0.05272825
000170 be 83 39 3e ac 24 51 bd b2 99 29 bd e6 23 bf bd
       0.18116662 -0.051060364 -0.04140634 -0.09333019
000180 ff e8 0c 3e 7a 78 8a 3d 4d 62 90 bd a0 f6 88 3d
       0.13760756 0.0676126 -0.070499994 0.06687665
000190 07 c8 05 3e ac 75 d1 bc 63 b4 75 bc f9 45 d3 bc
       0.13064586 -0.025568806 -0.014996621 -0.025790202
0001a0 d6 73 06 3b e6 b9 f9 3d b4 b8 91 bc 2f 35 03 3e
       0.002051582 0.121936604 -0.017788269 0.12813257
0001b0 bb 83 1c bd cf 26 02 3d 19 eb 83 3d f5 45 d9 3d
       -0.038211565 0.031775292 0.06441326 0.10609046
0001c0 11 c2 f5 3c 63 f1 c3 bd 79 a4 de bd 89 de 10 3e
       0.029999765 -0.09567525 -0.108712144 0.1414739
0001d0 21 46 f3 bd 0a dc 90 3e 05 03 e8 3d 65 f6 02 3e
       -0.118786104 0.28292876 0.11328701 0.12789305
0001e0 58 5e e8 bb ed 53 47 3e c3 73 c0 bd a8 14 11 be
       -0.007091325 0.19465609 -0.0939708 -0.14168036
0001f0 ca f2 39 3e db 40 80 3d 28 cf 32 3e 03 ce c4 3d
       0.18159023 0.0626237 0.17461836 0.09609606

weight f4 [1, 128]
000000 7b 91 7b 3d 6a a5 44 3f 75 99 fc be 71 0a f0 be
       0.061418038 0.768149 -0.49335828 -0.46882966
000010 7d b5 ea be d5 9b ec be d8 cb 33 3f dd c8 a4 bd
       -0.4584159 -0.4621264 0.70232916 -0.08046124
000020 6c 95 40 3f 3e d1 33 3f c3 8a f4 be c0 3b aa 3f
       0.75228 0.70241153 -0.47762117 1.3299484
000030 5d 30 f4 be fb e1 2a 3f 09 a7 74 3f a7 a8 d3 be
       -0.47693148 0.6675107 0.95567375 -0.4133961
000040 91 30 ba be 82 d2 ca be 5b 46 54 3f b2 9a e7 3e
       -0.36365178 -0.3961373 0.82919854 0.4523521
000050 d0 d5 c0 be 91 bd fd bb 72 93 a9 3f da 2a db be
       -0.37663126 -0.0077435453 1.3248122 -0.4280613
000060 3e b2 5d 3f 49 44 4e 3e 44 a8 07 3f 6c a4 17 3f
       0.866001 0.20143236 0.5299113 0.5923526
000070 a9 b0 a1 3d 35 02 36 3f 1d 2c ea be f8 37 d3 be
       0.078950234 0.7109712 -0.4573678 -0.41253638
000080 4d f7 f8 be e0 e3 30 3f 5b 49 29 3f 71 7a 08 bf
       -0.48626176 0.6909771 0.66127557 -0.5331183
000090 8c 0f f2 be 11 42 30 3f c1 22 b0 be 7a a2 02 bf
       -0.47277486 0.6885081 -0.34401515 -0.5102917
0000a0 c9 d5 31 3f d0 ff 3c 3f 5d d7 e5 be 49 98 45 3f
       0.69466835 0.7382784 -0.44890872 0.77185494
0000b0 52 40 c9 be 03 bf ff be c5 71 c3 be e7 fd d8 be
       -0.39306885 -0.49950418 -0.38172737 -0.42381212
0000c0 8a b9 1a 3f 4d 57 88 3d db 1c cd be 4b a0 e1 be
       0.6043936 0.06657276 -0.40061077 -0.44067606
0000d0 6b a8 c0 be e6 df 08 bf db 68 df be 7a c3 73 3f
       -0.37628493 -0.5346664 -0.43634686 0.9522015
0000e0 9e 5d 08 bf 31 d6 e0 be c9 fb 3a 3f 0d 93 1a 3f
       -0.5326785 -0.43913415 0.73040444 0.6038063
0000f0 59 99 c3 be b7 e0 dc be 60 a7 06 bf 15 f6 ff be
       -0.38202932 -0.43140194 -0.52599144 -0.49992433
000100 4b 3b 05 3d 59 38 4c 3f c3 39 d8 be 68 25 fe be
       0.03252725 0.7977348 -0.4223157 -0.49637914
000110 f7 f8 ce be 29 59 f7 be 99 c5 ec be 46 21 d7 be
       -0.4042432 -0.4831021 -0.46244505 -0.42017573
000120 8f ad 18 bd 0a ec bb be ac 69 1c 3f a7 92 ce be
       -0.037274893 -0.3670352 0.6109874 -0.40346262
000130 12 8e d0 be 11 ff cc be 9b 8f 04 bf 17 ba 17 3f
       -0.4073339 -0.4003835 -0.51781625 0.59268326
000140 49 50 05 3f 8b 1c ea be 2c d7 2c 3f 66 9b 1b 3f
       0.5207563 -0.45724902 0.67515826 0.60783994
000150 1a 14 ab be 18 19 1b 3f 3e 39 c4 be d7 dd d4 be
       -0.33413774 0.60585165 -0.38324922 -0.415755
000160 f2 0c f3 be 10 76 15 3d a9 0b e1 be 27 50 c8 be
       -0.47470814 0.036489546 -0.43954208 -0.3912365
000170 11 ca 17 3f 02 85 12 3a 37 53 b5 be e1 0e cb be
       0.59292704 0.0005589278 -0.3541505 -0.3965979
000180 4c 33 1f 3f 8b 53 eb 3c 33 62 b0 3c 98 e2 2e 3f
       0.6218765 0.02872636 0.0215312 0.68314505
000190 61 38 47 3f af cf da be 79 99 95 3f a1 66 cf be
       0.778204 -0.42736575 1.1687461 -0.40507987
0001a0 e4 57 e1 bb 0e 9e 8e 3f 9e c2 ab be c2 f5 29 3f
       -0.0068769325 1.1141984 -0.3354692 0.6639062
0001b0 d1 4d c7 be 26 3a 7a 3f 5a 81 8b 3f f3 44 99 3f
       -0.38926557 0.9774498 1.089885 1.1974167
0001c0 1a a6 bf 3f de 98 01 bf 7c 5e e1 be 44 59 91 3f
       1.4972565 -0.5062388 -0.44017398 1.1355367
0001d0 81 ef 14 bf 0f e6 22 3f 90 7a ce 3f e9 75 2a 3f
       -0.58177954 0.6363229 1.6131153 0.66586167
0001e0 06 37 82 3f d3 4c 37 3f c5 32 d7 be f5 85 eb be
       1.0173042 0.716016 -0.42030922 -0.4600064
0001f0 ba d4 41 3f 40 0f 45 3f 96 74 23 3f b4 55 37 3f
       0.7571522 0.76976395 0.6384977 0.7161515

weight f4 [128, 128]
000000 e8 24 2a bc c8 d1 45 be fd a3 a9 3d aa 8a d7 3e
       -0.010384776 -0.19318306 0.082832314 0.4209798
000010 94 39 9b 3d 45 15 56 be c6 fc f0 3d dc fe 14 3e
       0.075793415 -0.20906551 0.11766963 0.14550346
000020 20 4d bf 3c 9c 1b bb 3d bf 8b 02 3e 6e df bc 3d
       0.023352206 0.091361254 0.12748621 0.09222303
000030 39 ee fa 3d 6d 48 d6 3e f0 16 96 3e dc 20 6f bd
       0.122524686 0.4185213 0.29314375 -0.058380947
000040 2a b3 51 3e 00 6d f6 3d 5d e1 37 be 27 ae bc 3d
       0.20478502 0.12032509 -0.17957063 0.092129044
000050 26 7f 89 bd e5 4a b4 3c ba d1 63 bc 1b 5f 69 3e
       -0.06713705 0.022008369 -0.013904983 0.22790186
000060 36 59 b3 3d e3 2e 20 bf cc 95 84 bb 6d 89 03 3d
       0.0875725 -0.62571543 -0.0040461775 0.03211348
000070 d5 d5 cc bc 72 4e 79 3c ce 37 40 3e ae 43 b3 be
       -0.025004307 0.015216457 0.18771288 -0.35012573
000080 ed e7 2a be f2 d4 62 3c 6d 6e 52 3e ed 04 ed 3d
       -0.16690035 0.013844715 0.20549937 0.11573205
000090 c9 f8 71 3d 77 2d ae 3d 09 b6 46 3b 36 c2 87 3e
       0.05907515 0.085047655 0.0030320904 0.2651536
0000a0 6c 39 73 bd 9f 36 87 3d c7 a6 f2 3d 25 a0 4b 3e
       -0.059380934 0.06602215 0.118482165 0.19885309
0000b0 f6 06 be bd 81 51 17 be eb b9 84 3b 2d a1 ae bc
       -0.092786714 -0.14777185 0.0040504835 -0.021317089
0000c0 b9 54 7e 3e cd f1 61 3d f9 ef 4d bd 01 47 65 3e
       0.24837007 0.05516224 -0.050277684 0.22390367
0000d0 e3 0a 64 3e 51 40 d3 3d 2d e4 16 3d 04 38 09 3e
       0.22269778 0.10315002 0.0368387 0.13400275
0000e0 de 1e 1a 3e ed 72 31 3d 6f 88 55 be c4 26 fb 3c
       0.15050837 0.043322492 -0.20852827 0.030658133
0000f0 79 5a 94 3d ce 56 0c 3e d5 4d 94 bd f7 bd 17 be
       0.07243819 0.13704988 -0.07241408 -0.1481856
000100 57 7c 4a 3e d0 ec 17 3e e7 58 1d be 9b 1a 44 3e
       0.19773994 0.1483643 -0.15365945 0.19150774
000110 b8 18 aa 3e ff 2a cb 3d 50 6b 29 3d 25 75 08 bd
       0.33221984 0.0992031 0.041362107 -0.033314843
000120 81 af 7f 3d 26 cb 7a be 07 df f9 3c 55 80 3f bd
       0.062423233 -0.24491557 0.030501856 -0.046753246
000130 e6 85 92 bd c6 85 3c bd 37 0f 97 3d 08 26 2d bd
       -0.07154445 -0.046026014 0.07375949 -0.042272598
000140 4d 5e d0 3d f6 25 1f be 46 79 82 3e b9 7c 9e 3c
       0.101742364 -0.15541825 0.2548315 0.019346582
000150 89 e7 f7 3b 32 09 bb 3d 85 d7 0a 3e 02 a2 c4 3d
       0.007565443 0.09132613 0.13558777 0.09601213
000160 b2 9c 1e be 02 fb 26 bb 78 0b 07 3d 42 56 bc 3b
       -0.15489462 -0.0025479202 0.03296992 0.0057475874
000170 45 a4 19 3e d8 42 14 3e 0c 45 0c 3e a8 fd 2d be
       0.1500407 0.14478624 0.13698214 -0.16991293
000180 34 f1 9b 3e 81 6e ca bd e2 23 9d bd 53 7b 74 bd
       0.3045746 -0.09884358 -0.0767286 -0.059687924
000190 80 a3 60 be 33 c1 cd 3d 56 04 5c be d1 d0 32 bc
       -0.2193737 0.100466155 -0.21486029 -0.0109140435
0001a0 ac 00 bd 3d 6f 60 0a be 21 67 92 3d 73 24 c2 3e
       0.09228644 -0.13513349 0.071485765 0.37918434
0001b0 53 aa 56 3c 07 ad 7d bc 16 28 86 3e e2 1b 10 bc
       0.013102132 -0.015483147 0.26202458 -0.00879571
0001c0 7b 07 26 be 31 50 5b 3e eb 36 4b 3e ba 6c 44 3e
       -0.16213791 0.2141731 0.19845168 0.19182101
0001d0 b6 eb 33 be 88 87 5a 3e ad 89 d8 be d1 0e a0 bd
       -0.17570385 0.21340764 -0.42292538 -0.07815326
0001e0 cc d5 ca bd a4 8d 0b 3e e5 0c ef bd aa 1d 26 be
       -0.0990406 0.1362825 -0.11672381 -0.16222253
0001f0 dc 94 a1 3d e2 3e 3f bd 96 52 37 bd b8 28 25 be
       0.07889721 -0.04669083 -0.044756494 -0.16128814
000200 d2 62 cb 3d e6 05 a2 bd 90 59 92 3e f8 35 22 be
       0.09930958 -0.07911281 0.28583956 -0.158409
000210 3f 1b 23 bc 40 22 01 be 9c 6b 01 3e 5a 6f bc 3d
       -0.009955226 -0.12610722 0.12638706 0.09200926
000220 e8 ef 37 3d 09 b8 4d be cf cf a6 3d f7 7f b8 3c
       0.044906527 -0.20089735 0.08145105 0.022521956
000230 d6 e0 41 be 21 25 80 bc 14 72 eb 3d c3 48 a0 3d
       -0.18933424 -0.015642704 0.11496368 0.07826378
000240 ff d7 ad be f0 d9 47 be 03 5a 8f bd d4 6c 71 be
       -0.33953854 -0.1951673 -0.0699959 -0.23576671
000250 b6 5e 98 3c 14 b6 bf bc bc c0 0d 3e fd 97 cc bc
       0.01859985 -0.023402251 0.13843054 -0.024974817
000260 f2 0b e7 bd 0c 75 2e 3e 68 ed d2 bd 52 23 32 3e
       -0.11281575 0.17036837 -0.10299188 0.17396286
000270 86 f4 a8 be e9 e8 1f 3e 20 05 05 bf d9 ee af be
       -0.32999057 0.15616192 -0.51960945 -0.34361914
000280 3a 98 85 be e7 50 41 3e d3 7e 9b 3e e0 34 e9 3d
       -0.26092702 0.18878518 0.30370197 0.11387038
000290 6f 9d 6f 3e 51 be 66 bd 47 b5 ca 3d 26 d3 11 bc
       0.233999 -0.056333844 0.09897857 -0.008900439
0002a0 e0 c5 da 3d 53 c7 ae 3d 07 f9 09 bc 3e 65 8f 3d
       0.10682273 0.08534112 -0.008421189 0.07001732
0002b0 b2 92 a2 3d 41 dd 27 be 6d aa 96 3d c6 71 d9 3c
       0.07938136 -0.16392995 0.07356725 0.02654351
0002c0 67 e4 34 be 82 8b a4 be ea 50 93 bd 0a e4 7b bd
       -0.17665254 -0.32137686 -0.071931675 -0.061496772
0002d0 08 81 8a b9 cd d4 da bd d4 09 46 be c4 7d 2c bd
       -0.00026417547 -0.1068512 -0.19339687 -0.042112127
0002e0 9b d1 9f bb 4e e1 80 3d 63 f2 04 bc 11 db de 3d
       -0.004877282 0.062929735 -0.00811443 0.10881627
0002f0 1a 52 7d bd c6 c9 be bd 74 b1 e8 3d 7b 0f 5b bc
       -0.061845876 -0.09315829 0.113619715 -0.01337039
000300 a9 6a 45 3d c3 b4 f7 3d 6d 95 89 be 62 b9 8a be
       0.048197422 0.120950244 -0.26871815 -0.2709456
000310 2e b7 7c be ff bb 57 3c 63 3e bf bd 99 79 23 3e
       -0.24679253 0.01316738 -0.09338071 0.15964355
000320 b4 ce cf bc 15 b3 c5 3d e9 55 d4 bd d2 e2 1f 3e
       -0.025367118 0.09653298 -0.103679486 0.15613869
000330 a5 7e 34 be 2b df 9e be 8c 6b 29 3e 0f ea 3c 3d
       -0.17626436 -0.3102964 0.16544932 0.046121653
000340 92 5c 26 3e e1 3a 4b bd ce 2d 96 be 95 a5 2a 3e
       0.1624625 -0.0496167 -0.2933182 0.16664727
000350 1c 29 40 3e 87 95 18 3e 53 4e 93 be 8e 65 13 bd
       0.18765682 0.1490079 -0.28770694 -0.035985522
000360 6f 95 5c be c7 4a 0c be 54 1f 66 3d 43 3e 57 3d
       -0.2154138 -0.137004 0.05618222 0.05254961
000370 c9 80 15 bd 73 82 e1 3e b9 17 97 be ad 28 98 bd
       -0.036499772 0.44044837 -0.29510286 -0.07429633
000380 d0 eb 95 bd e6 e8 72 be 5c d2 82 3e c0 b8 e9 3d
       -0.07320368 -0.23721656 0.25551116 0.114121914
000390 cf 56 00 3e 4d b0 5f bd 6e f4 57 3c f4 14 ef bd
       0.12533115 -0.054611493 0.013180835 -0.11673918
0003a0 b8 ba 04 3e 4e f6 4b 3d 9a ee e1 be 0d 4e ad be
       0.12961853 0.04979544 -0.4412735 -0.3384861
0003b0 2b e6 f4 3d 26 56 8b bd 46 8f 55 be 21 39 87 3e
       0.119579636 -0.06803541 -0.20855436 0.26410773
0003c0 97 15 25 3e 72 9d 56 bc a8 9c da 3d 64 7a 4b 3d
       0.16121517 -0.013099061 0.10674411 0.049677268
0003d0 b7 56 17 be 0d 44 af bc 01 88 ad 3e c4 56 3e 3d
       -0.14779173 -0.021394754 0.33892825 0.046469465
0003e0 7d 91 1f be 7c ba 30 be 6a 41 0a 3e e0 87 73 3d
       -0.15582843 -0.17258638 0.13501516 0.059455752
0003f0 36 98 98 be fd 48 e3 bc 7f e7 5e 3e 9e f4 63 bd
       -0.29803628 -0.027744764 0.21767996 -0.055653207

bias f4 [128]
000000 3e 4d 00 bd 12 ce d1 bb d2 7b 35 3e 4d 95 06 3e
       -0.031323664 -0.0064027393 0.17723015 0.13142891
000010 fe 0f f0 bd 80 f4 a0 bc 0d 35 01 3e 91 92 b6 3c
       -0.117218 -0.019647837 0.12617894 0.022286685
000020 71 b0 88 bc 3f 7e c1 3d b7 5b b8 bd 86 ff 6b 3d
       -0.016685696 0.09447908 -0.09001868 0.057616733
000030 fe f9 1c 3c f1 6b 22 bd 23 d6 cd 3c 1a 02 17 3d
       0.009581087 -0.039653722 0.025126522 0.03686724
000040 a2 29 19 bb e5 60 e9 bc 44 b4 9c 3d 98 19 76 3c
       -0.0023370762 -0.028488586 0.076515704 0.01502075
000050 eb 7c e7 3c 58 fc 65 3d 45 f3 1a 3e 51 eb d0 39
       0.028257808 0.056148857 0.15131862 0.00039848176
000060 83 be 03 be 0e 6e ce 3d 64 68 6b 3a b3 ee 13 bc
       -0.12865643 0.10079585 0.0008980094 -0.009029078
000070 f7 70 ab 3d f3 ee 5e 3d b1 68 2f bd ae 99 bf 3d
       0.08371156 0.0544271 -0.04282445 0.09355484
000080 ba 8c 81 3c 1a 9c 78 3d c5 48 fd bc 23 75 e7 3d
       0.015814174 0.060695745 -0.030918488 0.11301639
000090 49 54 27 3e af f6 ae 3d 83 b1 25 bc a0 41 c7 3c
       0.16340746 0.08543145 -0.010113123 0.024323285
0000a0 f1 9d b5 bd 0c 46 a2 bd 66 8e 40 bd 21 48 e3 3d
       -0.088680156 -0.07923517 -0.0470108 0.11097742
0000b0 7e d2 b9 bc d0 18 b7 3d 3b 8f e5 3d b5 07 51 3c
       -0.022683378 0.089402795 0.1120896 0.012758185
0000c0 1d 35 d9 bd 9f d4 71 3c 30 4a a8 3d 38 2a b8 3d
       -0.10605834 0.0147601655 0.08217275 0.089924276
0000d0 c1 a1 b4 3c 42 c4 22 3d 80 b3 7e 3d 29 1c fc 3c
       0.022049787 0.039737947 0.062182903 0.030775147
0000e0 be 3b e7 3d cf fd f1 bc 11 20 76 3a 08 0f 72 3d
       0.11290692 -0.02953997 0.00093889335 0.059096366
0000f0 59 da 0e 3d 6e 5d 6d bd 7d bc 8f 3d 73 d9 60 3d
       0.0348762 -0.05795043 0.07018373 0.054894876
000100 5c e4 e7 bd 3a 29 0e be 15 35 47 3c 0e 5c cf 3d
       -0.11322853 -0.13882914 0.012158652 0.1012498
000110 3c 2d f0 3d 2d 41 03 be 68 fb e1 3d 7f 50 d2 bd
       0.11727378 -0.12817831 0.1103428 -0.1026926
000120 c9 7a 4f bd a1 b6 ed bb f3 f2 f4 bc d4 c4 1f 3d
       -0.050654206 -0.007254437 -0.029901003 0.03900607
000130 03 40 b4 3c 9a 29 36 3d e5 06 79 bd d0 54 37 bd
       0.02200318 0.044473268 -0.06079759 -0.044758618
000140 1d 2c 84 bd 06 49 5b 3d 08 51 7b 3d d1 af 5b bd
       -0.064537264 0.053536437 0.061356574 -0.05363447
000150 8d 8d 0e 3c 3b e2 04 3e 30 41 98 3d 27 ae 75 3d
       0.0087007405 0.12976925 0.074343085 0.059980538
000160 66 e1 92 bd 76 e7 64 bd 0d 0c 60 bd 57 c3 bf bb
       -0.071718976 -0.0558848 -0.054698993 -0.0058521437
000170 11 1d a7 3c bb bf 28 3d 43 87 26 3d 6f 71 c1 3d
       0.020399602 0.041198473 0.04065634 0.09445464
000180 93 0d 7a bd b4 16 c8 3d b5 3d 7e bd 3e 45 c2 3c
       -0.0610481 0.09769955 -0.062070567 0.023714658
000190 26 de 99 bd 81 d0 14 bc cf d1 da bd d5 62 c4 3c
       -0.075130746 -0.009082914 -0.10684549 0.023972908
0001a0 e7 be 0a 3e 80 1f e0 bc 50 08 6e ba dc ec 01 3e
       0.13549386 -0.02735877 -0.0009080218 0.12688011
0001b0 5f 63 c9 ba 95 d1 47 3e 68 8a 01 3e cf 0c 80 bd
       -0.0015364698 0.19513543 0.12650454 -0.06252443
0001c0 2a 54 de 3d 1d 6e cd 3d 2b 78 3a bc 0f 4f 20 3e
       0.10855897 0.10030768 -0.011381189 0.15655158
0001d0 67 e9 e4 3d 42 7b ce 3b e5 fa d0 bd 54 ac 8a 3d
       0.111773305 0.0063013146 -0.10204104 0.0677115
0001e0 96 ad b8 bc 41 db 29 3d 2c e5 f8 3d 90 48 9d bd
       -0.02254371 0.041468862 0.12153086 -0.07679856
0001f0 22 62 09 3e cc 04 18 3d f3 40 53 bb 70 9d 31 3b
       0.13416341 0.03711395 -0.0032234758 0.0027101897

weight f4 [4, 128]
000000 e9 cf fd 3e cd 08 44 be d4 1f 94 3d 95 09 af bc
       0.49572685 -0.19143982 0.07232633 -0.021366874
000010 7e 78 9b 3d 99 97 b6 bd e3 92 eb 3b b1 54 44 3e
       0.075913414 -0.08915634 0.007189141 0.19172932
000020 18 aa 24 3d ea c1 68 be 74 6e 5e bd 4b 07 fb bd
       0.040201277 -0.22730222 -0.054304555 -0.122572504
000030 69 ff 13 bd ce 05 c5 3c af 41 8d bd 43 c7 6a 3e
       -0.03613225 0.02405062 -0.06897294 0.22927575
000040 76 ef 1e bc 07 17 c7 bc 55 42 39 be 0a ec 59 bd
       -0.009700647 -0.024302972 -0.1809171 -0.05320362
000050 e6 12 7e 3d 61 c0 76 bd 09 05 ad be 51 ab 88 3e
       0.06202974 -0.06024206 -0.33792904 0.26693204
000060 21 fb 14 3e 86 b1 bc bd ba dc d6 3d ee ff 0d 3f
       0.14548923 -0.092135474 0.10491319 0.5546864
000070 e0 fa c1 3d ec 2a 93 bd 72 b8 84 bd aa e3 b8 3c
       0.09471679 -0.07185921 -0.06480493 0.022569496
000080 01 77 28 3e a6 8b a2 3e 7e 8c 4d 3c f2 18 0d be
       0.16451646 0.31747168 0.012545703 -0.13779047
000090 46 8e 40 be 67 e4 8c 3d 50 48 61 be 10 8a 74 bd
       -0.18804273 0.06879502 -0.22000241 -0.05970198
0000a0 b5 41 94 3e ac 35 09 be 9e 7b 22 be e1 b9 8c be
       0.2895638 -0.1339938 -0.15867469 -0.27485564
0000b0 73 67 37 3e 59 67 a5 3a 00 ef ef bd b2 b7 e9 bd
       0.17910556 0.0012619301 -0.117155075 -0.1141199
0000c0 df 4a 93 be 86 f7 77 3d be 13 c1 bd e3 0b 33 bc
       -0.2876806 0.06053879 -0.09427594 -0.010928127
0000d0 26 f5 17 3e 68 a9 99 bd 33 04 59 3d 91 ca a0 bc
       0.1483961 -0.07503015 0.05298252 -0.019627841
0000e0 c8 fd ce 3d 2d 87 97 3e 4f b9 4e 3e be 72 b3 3d
       0.10106999 0.29595318 0.20187877 0.0876212
0000f0 2a 80 1c 3e ca 40 40 be b2 e9 2c 3e 21 6a 1a 3e
       0.15283266 -0.18774715 0.16886023 0.15079547
000100 5a 74 a4 bd c0 73 c8 bd 11 4d ec bc d2 26 9c be
       -0.08030005 -0.097877026 -0.028845342 -0.30498368
000110 44 c5 96 bc ea fc f3 3d 9c c4 90 bd 92 32 9a 3e
       -0.01840461 0.11913474 -0.0706875 0.30116707
000120 f3 c1 f5 bc df 6b 5b 3e cb 7f c8 bc c6 05 44 3e
       -0.029999709 0.21427868 -0.024474999 0.19142827
000130 51 a5 25 bd 46 09 13 bf cd c9 15 be 7d ff 02 bd
       -0.04044086 -0.57436025 -0.14627762 -0.031981934
000140 c6 22 6e bd f9 90 5c bc b7 c8 a2 bd 03 11 dc be
       -0.05813863 -0.013462299 -0.079484396 -0.4298173
000150 01 8e b3 bd 27 e3 6a bd 2a 11 93 3d 1d f6 d5 bb
       -0.087673195 -0.057345536 0.07181008 -0.006529583
000160 17 74 78 be 24 ef ec 3d eb 14 3a 3e 96 2d 72 be
       -0.24263035 0.1156905 0.18172042 -0.23650202
000170 1b 71 9b be 56 32 66 bd 51 84 af 3e d7 a6 6c 3d
       -0.3035973 -0.056200348 0.34280637 0.0577763
000180 13 5e 96 bd be 21 10 bc be b9 b0 bd 8e df 86 bd
       -0.07342162 -0.008797107 -0.086291775 -0.065856084
000190 a2 ab 65 3d 9d 19 12 be 2b 3d c8 bc b3 80 22 3d
       0.056071885 -0.14267583 -0.02444323 0.03967352
0001a0 83 5d 31 3d fc 1e 9c bd 40 fd c1 be 55 87 60 3c
       0.04330207 -0.07623097 -0.37888527 0.013704141
0001b0 a9 93 83 bc 18 94 99 3d 75 99 ac bd 30 45 9a 3d
       -0.01606162 0.0749895 -0.08427707 0.07532728
0001c0 da 3c 80 bd 5e cb 93 bd 31 c0 21 3e 10 03 c5 3d
       -0.062616065 -0.072165236 0.15795971 0.09619725
0001d0 f7 c9 0f bd d2 95 10 3e 66 f7 a3 3e 09 6d f7 3d
       -0.035104718 0.14119652 0.32024688 0.12081344
0001e0 e0 b2 72 3c fc 06 a6 be e1 2b f4 bd 1b 17 d1 3d
       0.014813155 -0.32427204 -0.11922432 0.10209485
0001f0 58 f0 90 bd 2c 6e d0 3d 6d 4e 1a 3e 3b 22 04 3e
       -0.07077092 0.101772636 0.1506898 0.12903683
000200 15 db 40 3e 9c 87 8e be d9 17 72 be 64 13 f0 bd
       0.18833573 -0.27837837 -0.2364191 -0.117224485
000210 62 33 fe be f1 c8 dc bd e5 9c 07 be 0b 13 92 3e
       -0.49648577 -0.10780514 -0.13243444 0.28530154
000220 b5 24 af 3e 07 53 9f 3e 8e 3b 10 bd b3 d9 b1 3e
       0.34207693 0.31118032 -0.035213046 0.34736404
000230 a3 a5 61 3c a8 79 2f 3e 31 e5 58 bc 8f 7a 5e 3e
       0.013772401 0.17136252 -0.013238237 0.2172644
000240 d4 06 9c 3c 63 27 36 3e 12 93 36 ba db a9 be be
       0.019046225 0.17788462 -0.0006964664 -0.37238964
000250 d5 7c 8e be d3 b5 52 3c 25 9d 39 3e 40 5c 7a 3d
       -0.27829614 0.012860733 0.18126352 0.061123133
000260 54 54 fe be 5f 9c 38 3e e7 17 0c 3e 6f 49 99 3e
       -0.49673712 0.18028401 0.13680993 0.29938838
000270 79 52 23 bd 96 ec 4f 3e a8 04 93 bc aa a1 55 3e
       -0.039873574 0.20305094 -0.017946556 0.20862451
000280 5c 84 21 3e 4f 59 84 3e 1a b1 2c bf 69 76 ff bc
       0.15773147 0.25849387 -0.67457736 -0.031184392
000290 e4 78 17 bb 1d 2c 5c be 7d d8 7b 3b 72 c5 67 3a
       -0.0023112828 -0.21501203 0.0038428598 0.00088413723
0002a0 a7 7a cc be 2d 24 09 3f 78 bf a4 bd b2 6c 27 bf
       -0.39937326 0.53570825 -0.08044332 -0.6540023
0002b0 e2 d9 23 3d f5 f2 aa 3e 16 dd ae be ab a8 38 be
       0.04000271 0.33388487 -0.3415305 -0.18033092
0002c0 11 2f 87 be 95 67 3b 3e 11 09 49 be fd 50 26 3e
       -0.26403096 0.18301232 -0.19632365 0.16241832
0002d0 86 74 18 bd 96 23 14 3e fe 97 e0 be 07 b5 0b bd
       -0.0372205 0.144667 -0.4386596 -0.034108188
0002e0 70 43 59 bd ea 00 6e 3d 85 02 0a be 60 45 fb 3e
       -0.05304283 0.05810634 -0.13477524 0.49076366
0002f0 12 da ae 3e 74 18 9b 3e 50 7e 52 3e 5c f9 08 be
       0.3415075 0.30292094 0.20555997 -0.13376373
000300 64 da 62 3e 0c 38 89 be 1d fc cb bd 27 99 6f 3d
       0.22153622 -0.26800573 -0.09960196 0.058495667
000310 73 23 13 be d0 17 8d be 6e 74 54 3d d5 dc a6 be
       -0.14368992 -0.2755723 0.05186885 -0.32590356
000320 4b 1e f1 be 44 8f 3e 3f d7 ff 69 bd 19 ae 80 3e
       -0.47093424 0.74437356 -0.057128754 0.25132826
000330 5f b0 95 bd 20 ce 86 be 56 19 6f 3d de 4f 9d be
       -0.07309031 -0.26329136 0.05837377 -0.30724996
000340 d3 1d 6d ba 1b 1e 84 3d fb 23 0f 3e 80 d7 94 be
       -0.00090452767 0.06451055 0.13978569 -0.29070663
000350 e0 27 ed be 26 b6 68 3e 25 8d 76 3e bb 5d 14 bf
       -0.46319485 0.22725734 0.2407728 -0.5795552
000360 41 21 99 be d5 88 fd 3d 7e 4b f5 bd bd 31 29 be
       -0.29908183 0.12379614 -0.119772896 -0.1652288
000370 19 e6 1d be b2 f2 aa be c0 7f 12 bf 8c d2 f1 bd
       -0.15419807 -0.33388287 -0.5722618 -0.11807737
000380 90 c8 ea bd 72 3b f8 3c 0c 9b 91 3b d8 8a f3 bd
       -0.114640355 0.030301783 0.004443532 -0.11891717
000390 27 61 6f 3e 5d 51 0e bf 50 57 77 be f2 a7 70 3e
       0.23376904 -0.555929 -0.24154401 0.23501566
0003a0 05 3f 88 3e 76 a2 95 bd c8 c3 d3 3e 32 de a1 3e
       0.2661058 -0.073063776 0.41360307 0.31614834
0003b0 6f 73 20 3c 21 f4 2b bd 8e 37 df 3c 00 c1 b4 3d
       0.0097931465 -0.041980866 0.02724817 0.08825874
0003c0 5d a1 1a ba 51 96 0e bf 9e 08 54 3e c6 57 26 3e
       -0.0005898679 -0.55698115 0.20706412 0.1624442
0003d0 2e 70 55 3e 2d 76 64 3d 7f 7f fe 3e b6 9e 78 3d
       0.20843574 0.055776764 0.49706647 0.060698234
0003e0 3f 83 e1 bd d4 aa d5 be c2 57 f8 3c 14 48 4b be
       -0.11011361 -0.41731894 0.030315284 -0.19851714
0003f0 7d e1 83 be 3d 0b a1 be 7b 82 cc 3e 82 42 c9 3d
       -0.2575797 -0.31453887 0.399433 0.098271385

bias f4 [4]
000000 b4 5e 50 3d 9b 6a 9d bd 69 5e ab 3c c6 5e 55 3d
       0.050871566 -0.07686349 0.020919042 0.052092336
