problem1/models/underway/success_whole_model_1766858317.pth (torch, 146613 bytes, 9 tensors)

weight f4 [128, 8]
0.0069697364 0.38489428 -0.07872049 0.8504007 -0.075665876 -0.3576891 -0.04689439 -0.31389835
0.1521976 0.17386366 0.02090675 -0.010165223 0.30656937 -0.66400456 -0.55430365 0.18357341
-0.11985917 0.3410914 0.041582804 0.21328533 0.7799743 0.5307043 -0.6703697 -0.24391787
0.91249055 -0.093923435 0.24203598 -0.01037243 -0.485343 0.42112017 -0.13633132 0.013739942
-0.35353512 -0.48386914 -0.10076783 -0.3384707 -0.1729096 -0.17825848 -0.25638947 0.369496
-0.05013006 0.07636654 0.3871441 -0.61727935 -0.81644475 0.06429424 -0.22896723 0.34005356
-0.044077594 -0.020011501 0.33614013 -0.69782525 0.70988584 0.10535791 0.079078905 0.32260653
0.7922922 0.061825607 0.43331832 -0.43614888 0.27796835 -0.27593875 0.04171565 -0.003872179
-0.056622013 0.24352829 0.008000635 0.24888752 -0.08212949 -0.23499052 -0.49891198 0.1671572
0.053386617 0.09165359 0.6844848 -0.75041413 -0.26956603 -0.7161544 -0.050462283 0.37392753
0.04587403 0.15251492 -0.2523005 -0.500149 0.28602263 -0.3199076 -0.31887582 -0.0064430023
-0.069209516 0.5040741 -0.2650733 0.7137314 0.113320835 -0.21589494 0.025320908 -0.6289817
-0.3746618 -0.45543793 -0.23724777 -0.7232458 0.16633488 0.23066327 0.10558711 0.3905204
0.79494774 0.0108803995 0.419081 0.0961986 0.044468407 0.11511204 0.3189327 0.45046684
-0.08411489 0.24327965 0.42764664 0.25482398 -0.6060947 -0.2946017 -0.30753604 -0.4976308
-0.49437878 -0.34154546 -0.52496994 -0.016465396 -0.20881005 -0.33716348 0.020326884 -0.098576136
-0.24297994 0.31084365 0.70462376 -0.033397023 -0.5272387 -0.5903375 -0.22375673 -0.15240669
0.25656712 0.25604558 0.024630122 0.1134256 0.367222 -0.7034192 0.021107879 0.08767086
-0.18445997 -0.10739379 -0.42806062 -0.33272728 0.16501945 -0.22914036 -0.09906648 -0.10401484
-0.50191104 -0.7953859 -0.23688121 -0.49130407 0.4408931 0.45302528 -0.04360111 0.0744241
-1.11875 -0.05928901 -0.4945699 -0.2722433 0.0008285629 -0.17400025 0.07266524 0.018360414
0.040811725 -0.7330668 0.37248516 -0.4763158 -0.72194725 0.45523375 -0.21608596 0.16506554
-0.3188391 0.22830236 0.33259824 0.029838627 -0.09211309 0.35917917 0.28496084 -0.2948496
-0.22649866 -0.12448131 -0.19881058 -0.27518466 0.39628795 -0.28552058 -0.10027724 0.16950919
-0.1659458 0.11628715 0.78905714 -0.20670295 0.5212032 0.058563955 0.047347695 -0.6299728
-0.04192322 -0.23199347 -0.19437896 0.3094933 -0.68945795 0.13431874 0.17689362 0.30087477
-0.2270043 1.1168419 -0.349906 -0.22138172 0.58719766 0.11468949 -0.12926197 0.11732185
-0.0069731846 0.04895522 -0.097095825 -0.18405917 -1.158033 0.1683143 -0.8309326 0.077424884
-0.07446948 0.09274032 0.3342397 -0.09083216 -0.76100963 0.3553834 0.19877966 -0.61675006
0.32427803 0.5108298 -0.34845293 0.086520895 -0.1103829 0.03416321 -0.41349548 -0.1722158
-0.08914403 0.18853441 -0.11731657 0.271979 0.3668634 0.33983374 0.28019255 0.48424444
-0.07846513 0.536437 0.7548341 -0.22768341 0.2609424 0.19079283 0.06980012 -0.012766378
00000000: 6362 e43b dd10 c53e 3538 a1bd dcb3 593f
00000010: b6f6 9abd 0723 b7be 5514 40bd 49b7 a0be
00000020: b0d9 1b3e 5109 323e a244 ab3c 098c 26bc
00000030: a9f6 9c3e 34fc 29bf d8e6 0dbf abfa 3b3e
00000040: b978 f5bd 88a3 ae3e bb52 2a3d 7867 5a3e
00000050: 65ac 473f 3ddc 073f 599d 2bbf 9bc5 79be
00000060: fb98 693f ee5a c0bd 48d8 773e 20f1 29bc
00000070: e17e f8be 109d d73e 709a 0bbe 7e1d 613c
00000080: 8e02 b5be b2bd f7be 5d5f cebd 084c adbe
00000090: 370f 31be 6489 36be 7b45 83be 942e bd3e
000000a0: 2e55 4dbd 0f66 9c3d c037 c63e 0506 1ebf
000000b0: 8602 51bf b3ac 833d 6376 6abe 801b ae3e
000000c0: b58a 34bd 29ef a3bc 8f1a ac3e ada4 32bf
000000d0: 14bb 353f e3c5 d73d 1ff4 a13d af2c a53e
000000e0: a9d3 4a3f d93c 7d3d e6db dd3e e84e dfbe
000000f0: de51 8e3e d847 8dbe 08de 2a3d 62c4 7dbb
00000100: 7cec 67bd 7b5f 793e 1815 033c 5fdc 7e3e
00000110: 8233 a8bd 5ba1 70be 6471 ffbe 422b 2b3e
00000120: edab 5a3d e1b4 bb3d 653a 2f3f 241b 40bf
00000130: 8f04 8abe e555 37bf 8ab1 4ebd 6e73 bf3e
00000140: 68e6 3b3d df2c 1c3e 882d 81be c409 00bf
00000150: 8f71 923e eeca a3be b143 a3be d21f d3bb
00000160: b8bd 8dbd 000b 013f b0b7 87be 1ab7 363f
00000170: c114 e83d 9013 5dbe cb6d cf3c f204 21bf
00000180: acd3 bfbe 292f e9be 14f1 72be a326 39bf
00000190: b153 2a3e fe32 6c3e 0e3e d83d 4af2 c73e
000001a0: b281 4b3f b443 323c c991 d63e c603 c53d
000001b0: 8124 363d dcbf eb3d 264b a33e 97a3 e63e
000001c0: 6d44 acbd 4d1e 793e 80f4 da3e 4a78 823e
000001d0: 0629 1bbf 09d6 96be 5d75 9dbe 77c9 febe
000001e0: 371f fdbe 0cdf aebe 6e64 06bf 70e2 86bc
000001f0: 4dd2 55be b1a0 acbe 9184 a63c 49e2 c9bd
00000200: bccf 78be e626 9f3e 3962 343f 51cb 08bd
00000210: 1ef9 06bf 5c20 17bf 7c20 65be 8010 1cbe
00000220: c45c 833e 6818 833e 1cc5 c93c ae4b e83d
00000230: 8604 bc3e 4813 34bf 6eea ac3c c88c b33d
00000240: 13e3 3cbe 46f1 dbbd c32a dbbe 3b5b aabe
00000250: dcfa 283e c5a3 6abe 5ee3 cabd bc05 d5bd
00000260: 3e7d 00bf 699e 4bbf fd90 72be 358c fbbe
00000270: bebc e13e eef2 e73e 1497 32bd aa6b 983d
00000280: 3333 8fbf 08d9 72bd 4438 fdbe 7963 8bbe
00000290: ea33 593a 1f2d 32be 83d1 943d 9468 963c
000002a0: 322a 273d 44aa 3bbf 60b6 be3e aadf f3be
000002b0: 89d1 38bf 6614 e93e a345 5dbe f106 293e
000002c0: e13e a3be 18c8 693e 514a aa3e 2370 f43c
000002d0: caa5 bcbd 55e6 b73e 63e6 913e 87f6 96be
000002e0: 44ef 67be 0ff0 febd 0095 4bbe 01e5 8cbe
000002f0: 41e6 ca3e c12f 92be 275e cdbd d193 2d3e
00000300: b2ed 29be f527 ee3d a6ff 493f f0a9 53be
00000310: 936d 053f c2e0 6f3d a8ef 413d e645 21bf
00000320: afb7 2bbd b28f 6dbe 470b 47be e875 9e3e
00000330: 5180 30bf da8a 093e 9a23 353e 420c 9a3e
00000340: d173 68be adf4 8e3f e126 b3be e4b1 62be
00000350: 9652 163f 53e2 ea3d 405d 04be 7046 f03d
00000360: 507f e4bb 4585 483d 2dda c6bd 027a 3cbe
00000370: 6d3a 94bf 955a 2c3e 00b8 54bf f090 9e3d
00000380: 7483 98bd a3ee bd3d 7721 ab3e 3606 babd
00000390: 87d1 42bf d0f4 b53e e58c 4b3e 55e3 1dbf
000003a0: c507 a63e bec5 023f 6c68 b2be de31 b13d
000003b0: 6e10 e2bd b9ee 0b3d aeb5 d3be 5759 30be
000003c0: 2591 b6bd 2a0f 413e ab43 f0bd d540 8b3e
000003d0: 85d5 bb3e b0fe ad3e 6675 8f3e e3ee f73e
000003e0: 53b2 a0bd ef53 093f cf3c 413f d725 69be
000003f0: 3e9a 853e 325f 433e 5ef3 8e3d 122a 51bc

bias f4 [128]
-0.245865 0.03703585 0.019750457 0.09788716 0.0189417 0.09132136 0.4234745 -0.017207941
0.16980977 -0.23892811 -0.25956985 0.09466322 -0.19061129 0.0074441796 -0.42607412 0.30050746
0.20551828 0.39285254 0.44248736 -0.24055398 -0.04163567 0.3020229 -0.34380016 0.3647585
0.43864575 0.44884172 0.3527688 -0.041428782 0.110288925 0.5300178 0.057821754 -0.10980779
-0.09343426 -0.012649841 0.20938389 0.54817957 -0.23952213 0.33292183 -0.045065116 0.43164808
0.28004092 -0.07971996 0.14065759 0.15275241 0.119538605 -0.037694693 0.11805 -0.15314353
-0.092312984 -0.11151139 0.19847716 0.1986412 0.13464575 -0.15878056 -0.019033521 -0.19167233
0.3859333 -0.28425843 0.42136204 0.44627026 -0.14463533 0.16474721 0.2776047 -0.0040021786
0.20064096 0.08236189 0.17688753 0.4798476 0.059726056 -0.03992076 0.36639678 0.15844361
-0.25548187 -0.122803174 0.1293975 0.104146935 0.40045193 0.46473908 0.5647946 0.52711403
0.20338978 0.1684629 -0.059417695 0.13118584 0.5628012 0.10163025 0.10577624 0.12927067
0.4530768 -0.19607942 -0.07991635 0.45377597 0.13947092 -0.36456478 0.3044523 0.396741
0.43671688 0.58822495 0.21903096 0.55603075 -0.4198925 0.3164455 0.065843366 -0.12750888
0.04201695 0.26448387 0.12499314 -0.011682717 0.26961905 0.2739059 0.49588168 0.1617851
-0.2999577 0.42085302 -0.15968429 -0.069305584 -0.024327477 0.21119972 0.22167856 -0.3860363
0.095772915 0.054081663 0.17253555 -0.07862377 0.29709014 0.008298268 0.28387824 0.23741603
00000000: 09c4 7bbe e7b2 173d b6cb a13c 1079 c83d
00000010: a02b 9b3c b106 bb3d a6d1 d83e abf7 8cbc
00000020: 9de2 2d3e 92a9 74be 57e6 84be cade c13d
00000030: 9b2f 43be 4eee f33b 6326 dabe 1ddc 993e
00000040: 6273 523e f823 c93e b48d e23e c853 76be
00000050: 2a8a 2abd bfa2 9a3e 9306 b0be a0c1 ba3e
00000060: 2d96 e03e 95ce e53e 1d9e b43e 3ab1 29bd
00000070: 29df e13d 3faf 073f 81d6 6c3d e8e2 e0bd
00000080: 765a bfbd 4741 4fbc bb68 563e 7f55 0c3f
00000090: 4a45 75be bb74 aa3e 3396 38bd fa00 dd3e
000000a0: 8661 8f3e 3844 a3bd 8b08 103e 216b 1c3e
000000b0: a8d0 f43d c065 1abd 33c4 f13d a8d1 1cbe
000000c0: 970e bdbd 1560 e4bd 993d 4b3e 9968 4b3e
000000d0: 93e0 093e 5f97 22be 30ec 9bbc c045 44be
000000e0: 0d99 c53e 528a 91be c4bc d73e 897d e43e
000000f0: 491b 14be 7eb3 283e 3422 8e3e b524 83bb
00000100: d374 4d3e 5aad a83d 0122 353e 96ae f53e
00000110: 4fa3 743d f383 23bd 5c98 bb3e 0b3f 223e
00000120: 85ce 82be 3b80 fbbd c780 043e fd4a d53d
00000130: 0908 cd3e 48f2 ed3e 6196 103f f2f0 063f
00000140: 6945 503e 8a81 2c3e f85f 73bd 9555 063e
00000150: bd13 103f 8523 d03d 37a1 d83d 885f 043e
00000160: aff9 e73e 0bc9 48be 2fab a3bd 5355 e83e
00000170: 77d1 0e3e 3ca8 babe 2ce1 9b3e a321 cb3e
00000180: 5b99 df3e e995 163f a749 603e 0858 0e3f
00000190: 26fc d6be 2505 a23e e3d8 863d b091 02be
000001a0: f719 2c3d 6e6a 873e 67fc ff3d de68 3fbc
000001b0: 820b 8a3e 653d 8c3e 34e4 fd3e feaa 253e
000001c0: 0e94 99be 0c7a d73e 4784 23be 16f0 8dbd
000001d0: 6b4a c7bc bd44 583e b4ff 623e 8da6 c5be
000001e0: 9724 c43d bc84 5d3d 29ad 303e 8005 a1bd
000001f0: 331c 983e 75f5 073c 7d58 913e 301d 733e

weight f4 [128, 128]
0.052221026 -0.097645074 -0.1807544 -0.47984105 -0.06695292 -0.22409852 0.03679631 -0.2343804
-0.06363111 0.5759809 0.2794073 -0.31811276 -0.10477939 -0.07532893 -0.13382545 -0.1397515
0.4081712 0.20405449 0.16700943 -0.28651938 -0.5305466 0.12970798 -0.19159652 0.120755166
0.2098454 0.20769338 0.010931423 0.69510764 -0.5183354 0.18308623 -0.3721362 0.59295946
0.5233857 -0.036652986 -0.16217126 -0.17511949 -0.16607346 -0.061457835 0.7136294 0.092463575
-0.23606248 0.42894733 -0.14015514 -0.013046784 -0.30880818 -0.17706113 0.028841056 -0.2851563
-0.5880667 -0.30376053 -0.07646863 -0.19536142 0.70173055 -0.20995742 -0.39319235 -0.5904674
0.03851667 0.01854978 0.11926046 0.12505269 0.24605577 -0.10489026 -0.08924504 0.06311915
0.38555577 -0.17365482 0.33846006 0.09644298 0.13306119 -0.21795003 0.07315074 -0.050323233
-0.41569188 0.37850186 0.28344837 0.23585239 0.12130608 -0.19061114 0.06246472 0.085616946
-0.34563717 -0.07412134 -0.6162111 0.0397827 0.052108396 -0.11479337 0.67448753 0.0784179
-0.1704602 -0.35587823 0.38594487 0.06294997 -0.28253275 -0.24067618 -0.10403111 0.16692285
-0.026928319 0.119721554 0.10727703 0.14603165 0.13026029 0.41880724 -0.07468815 0.38099647
0.6838746 -0.12848766 -0.0515846 0.41512716 -0.115314744 -0.06020568 -0.023392553 0.16167425
0.45236388 -0.19094402 -0.1654005 0.3597505 0.34570256 0.09507329 -0.33788887 -0.037296966
0.08993933 0.07143034 -0.00020552785 0.4304683 0.11144017 1.3167614 -0.04237682 -0.031082192
0.34961647 0.43687585 0.3700859 0.17460239 0.54407525 -0.07228297 0.08446252 0.11471119
0.10673825 0.12283112 0.15772177 0.09408593 0.49670267 -0.1985836 0.49766922 0.15233286
-0.06967753 -0.092085235 -0.019672494 0.29716828 0.45095903 -0.2426507 0.35172367 -0.13849136
-0.09015437 -0.42371613 0.05071868 -0.09028741 0.26102385 -0.27988842 0.18003218 -0.27869996
-0.35925445 0.13320827 0.12514149 -0.032957293 0.35097155 0.28347895 -0.37794402 -0.20911533
0.19883804 0.016111728 0.14426453 0.027900582 0.28479683 0.3380884 0.24747294 0.5774362
0.41732347 0.24250783 0.025257915 0.015168192 -0.20818616 0.43100584 0.48284128 0.23728757
-0.10203569 0.34973523 0.059395228 -0.14779724 -0.008293957 0.2473225 0.04415734 -0.3288371
-0.070649676 0.09997387 -0.089813136 -0.37844056 0.42609316 0.23077871 -0.061278936 0.25944996
0.67818755 -0.13889347 -0.12581167 -0.2843552 -0.15333986 -0.13119736 0.0067100413 -0.2560587
0.23167603 0.0983314 0.45965117 0.1729474 -0.19333331 -0.028456291 -0.68204814 0.14659311
-0.069376364 0.33966583 0.1850012 0.15721443 0.23348828 0.30691448 0.091188036 -0.37159175
-0.18128031 -0.13224527 -0.21420959 -0.32679892 0.658817 -0.2566273 0.26195544 -0.26405057
0.085608646 0.11579385 0.2667213 0.041403737 0.20579673 0.11521498 0.077581935 -0.04527235
0.8436158 0.07286469 0.39912286 -0.013505019 -0.1682628 -0.05784145 0.2770758 0.48591
-0.009482722 -0.06784721 0.10127396 0.023384532 0.17870654 -0.0989046 0.44987032 0.31745714
00000000: b7e5 553d 24fa c7bd ae17 39be baad f5be
00000010: 9d1e 89bd 157a 65be bab7 163d 6a01 70be
00000020: 0751 82bd 7c73 133f 790e 8f3e addf a2be
00000030: 9496 d6bd 0e46 9abd 8a09 09be 041b 0fbe
00000040: d1fb d03e a9f3 503e 8504 2b3e abb2 92be
00000050: e7d1 07bf 2bd2 043e e131 44be 7c4e f73d
00000060: b6e1 563e 93ad 543e b619 333c 93f2 313f
00000070: a1b1 04bf f57a 3b3e a388 bebe 31cc 173f
00000080: 9bfc 053f 7121 16bd 3910 26be 8652 33be
00000090: 290f 2abe 36bb 7bbd 6bb0 363f 8b5d bd3d
000000a0: 5dba 71be fc9e db3e d484 0fbe 2ec2 55bc
000000b0: 1b1c 9ebe 834f 35be 1444 ec3c 0200 92be
000000c0: 8a8b 16bf 8086 9bbe 969b 9cbd d30c 48be
000000d0: 9da4 333f 14ff 56be 8250 c9be df28 17bf
000000e0: a8c3 1d3d b5f5 973c d43e f43d d00d 003e
000000f0: 0bf6 7b3e b4d0 d6bd 1bc6 b6bd 9d44 813d
00000100: 9167 c53e 92d2 31be a34a ad3e e683 c53d
00000110: 3141 083e 4b2e 5fbe 0ed0 953d bc1f 4ebd
00000120: 91d5 d4be ffca c13e 2520 913e 4a83 713e
00000130: 526f f83d 912f 43be 02db 7f3d f057 af3d
00000140: 5bf7 b0be eecc 97bd 03c0 1dbf 2ff3 223d
00000150: 9d6f 553d c918 ebbd 37ab 2c3f 9099 a03d
00000160: 1e8d 2ebe ac35 b6be 919a c53e eaeb 803d
00000170: 22a8 90be d173 76be 430e d5bd d3ed 2a3e
00000180: c798 dcbc 9330 f53d 0fb4 db3d 5289 153e
00000190: f462 053e e76d d63e 1af6 98bd f811 c33e
000001a0: 6812 2f3f 4592 03be 604a 53bd 8c8b d43e
000001b0: 232a ecbd 3b9a 76bd bda1 bfbc ef8d 253e
000001c0: 3d9c e73e d486 43be c05e 29be 3831 b83e
000001d0: edff b03e c9b5 c23d c5ff acbe b4c4 18bd
000001e0: 1d32 b83d 124a 923d f682 57b9 5766 dc3e
000001f0: be3a e43d a38b a83f 5193 2dbd 15a0 febc
00000200: ee00 b33e 31ae df3e e67b bd3e f8ca 323e
00000210: 8448 0b3f 1809 94bd b0fa ac3d b3ed ea3d
00000220: 9599 da3d e28e fb3d d181 213e 20b0 c03d
00000230: d04f fe3e 8059 4bbe 80ce fe3e 25fd 1b3e
00000240: 18b3 8ebd 2f97 bcbd 3628 a1bc 7126 983e
00000250: 1ae4 e63e 6d79 78be 2015 b43e aed0 0dbe
00000260: dba2 b8bd 52f1 d8be 64be 4f3d 9be8 b8bd
00000270: eba4 853e 894d 8fbe 5b5a 383e c3b1 8ebe
00000280: 33f0 b7be c067 083e 1725 003e 3afe 06bd
00000290: 8bb2 b33e 2724 913e e181 c1be 5422 56be
000002a0: 339c 4b3e befc 833c 15ba 133e c38f e43c
000002b0: e4d0 913e ec19 ad3e 8c69 7d3e dcd2 133f
000002c0: 6cab d53e f953 783e b0e9 ce3c 0284 783c
000002d0: c12e 55be ccac dc3e f936 f73e 83fb 723e
000002e0: 16f8 d0bd 7f10 b33e 6948 733d 2958 17be
000002f0: 61e3 07bc 1c42 7d3e 54de 343d 565d a8be
00000300: c7b0 90bd 1abf cc3d f3ef b7bd f6c2 c1be
00000310: e228 da3e 4151 6c3e 9fff 7abd a0d6 843e
00000320: b39d 2d3f 173a 0ebe c6d4 00be 0197 91be
00000330: 2005 1dbe 9a58 06be e8df db3b 201a 83be
00000340: 7b3c 6d3e f961 c93d 6657 eb3e 2019 313e
00000350: 2bf9 45be 2b1d e9bc b59a 2ebf 811c 163e
00000360: 3215 8ebd aee8 ad3e f470 3d3e d2fc 203e
00000370: 8d17 6f3e e523 9d3e cbc0 ba3d 4641 bebe
00000380: 8ca1 39be 4e6b 07be c259 5bbe 3052 a7be
00000390: 3ba8 283f a764 83be 061f 863e a331 87be
000003a0: 9653 af3d 5325 ed3d b28f 883e f796 293d
000003b0: 61bc 523e d5f5 eb3d 47e3 9e3d 806f 39bd
000003c0: 34f7 573f 153a 953d d559 cc3e 2844 5dbc
000003d0: 154d 2cbe 28eb 6cbd e1dc 8d3e 32c9 f83e
000003e0: 6b5d 1bbc 7af3 8abd b968 cf3d eb90 bf3c
000003f0: d9fe 363e 7f8e cabd 6755 e63e be89 a23e

bias f4 [128]
-0.0120916655 -0.29852363 -0.08803059 0.12675424 0.23569763 0.17554429 -0.13059375 -0.20228465
-0.11940835 -0.20375949 -0.15150031 -0.27078497 0.06368195 -0.023732921 0.13955785 -0.014653276
0.17312679 0.07674979 -0.31860694 -0.05691965 -0.26582506 0.11617765 -0.3252196 -0.1761413
0.034383137 0.074475355 0.13748968 0.024845961 -0.019252965 0.28903002 -0.057073914 0.016971862
0.067361325 -0.04939654 0.02313428 -0.26409632 -0.035429392 -0.24953265 0.1249432 -0.0117486995
-0.22721666 0.087367445 0.064738795 -0.074242644 0.233698 -0.036705792 -0.29425174 -0.029983662
-0.2574335 -0.25707304 -0.24628417 0.073036216 -0.0784983 0.17363945 0.18724933 0.121366814
0.13834576 0.122731194 -0.12321174 -0.17955033 -0.047998227 -0.059450775 -0.19961219 0.06197585
-0.0015934063 -0.13351235 -0.22464395 0.12660705 -0.32077447 -0.038868874 0.118250795 0.14502224
-0.014991137 -0.34037933 0.07074312 -0.26403004 0.018783346 -0.009158659 -0.006246681 0.033495143
-0.19483511 0.059984587 0.08665608 -0.26952958 -0.28903311 -0.16755418 0.061175507 -0.072970584
0.03718452 0.00059492973 -0.17631364 -0.22499946 0.04353684 -0.05190318 0.116831966 0.039016336
0.0069482354 0.08838536 -0.33693138 0.09247996 -0.0696532 -0.11268962 0.22277278 -0.08425922
-0.0043780566 -0.0081337625 -0.0843518 0.15851386 -0.08005321 -0.28665546 -0.0051913955 -0.29576302
0.05133084 -0.13426456 -0.12436584 0.063022874 0.038942397 0.05381834 0.099006824 0.23261996
-0.17751291 -0.18092401 -0.057043467 -0.07234272 -0.09368532 0.29272732 -0.011004897 -0.060879163
00000000: 1f1c 46bc 17d8 98be 6249 b4bd ddcb 013e
00000010: b85a 713e e2c1 333e 5eba 05be b523 4fbe
00000020: 5d8c f4bd 54a6 50be e622 1bbe 54a4 8abe
00000030: af6b 823d 8b6b c2bc 41e8 0e3e 4b14 70bc
00000040: 2648 313e fe2e 9d3d 7320 a3be 9424 69bd
00000050: 391a 88be 8cee ed3d 2f83 a6be 635e 34be
00000060: 55d5 0c3d 8986 983d 18ca 0c3e c289 cb3c
00000070: 65b8 9dbc befb 933e 56c6 69bd 9308 8b3c
00000080: bcf4 893d 0754 4abd 1a84 bd3c a237 87be
00000090: 691e 11bd 7d85 7fbe 38e2 ff3d 9e7d 40bc
000000a0: 7cab 68be b4ed b23d c695 843d 870c 98bd
000000b0: 874e 6f3e d058 16bd 2aa8 96be 4ca0 f5bc
000000c0: 53ce 83be 149f 83be eb31 7cbe 0394 953d
000000d0: b7c3 a0bd 8ace 313e 4abe 3f3e 2a8f f83d
000000e0: 83aa 0d3e 7e5a fb3d 7056 fcbd 0bdc 37be
000000f0: ca99 44bd a882 73bd 2367 4cbe 64da 7d3d
00000100: d8d9 d0ba 76b7 08be 1009 66be 47a5 013e
00000110: 8d3c a4be f834 1fbd 792d f23d b680 143e
00000120: 639d 75bc 3346 aebe c5e1 903d f22e 87be
00000130: 88df 993c 330e 16bc f5b0 ccbb 3432 093d
00000140: db82 47be 66b2 753d be78 b13d c8ff 89be
00000150: 26fc 93be 5393 2bbe 2b93 7a3d 9a71 95bd
00000160: cc4e 183d 0ff5 1b3a 908b 34be 4266 66be
00000170: af53 323d 6e98 54bd 9945 ef3d 98cf 1f3d
00000180: 06ae e33b 6203 b53d 4582 acbe 2266 bd3d
00000190: 56a6 8ebd d1c9 e6bd 8c1e 643e 1990 acbd
000001a0: cd75 8fbb 7943 05bc a3c0 acbd 7551 223e
000001b0: f0f2 a3bd 81c4 92be 951c aabb 406e 97be
000001c0: 4940 523d a67c 09be 84b3 febd 2312 813d
000001d0: 1082 1f3d 9f70 5c3d 17c4 ca3d ed33 6e3e
000001e0: f2c5 35be 2544 39be 69a6 69bd 6c28 94bd
000001f0: 17de bfbd 5be0 953e e24d 34bc 6e5c 79bd

weight f4 [1, 128]
0.66153693 -0.87044996 1.7266765 0.7387917 0.76535857 1.4927902 -0.63764876 -0.9597259
-0.5938055 -0.8848906 -0.6009372 -0.8213419 0.9734059 -0.61090875 1.4517487 -0.5959805
0.65919185 0.8982878 -0.877638 -0.0010039585 -0.8015399 0.9314687 -0.7952413 -0.83431417
0.04095209 1.5123713 0.7527852 -0.62560564 1.4200943 1.3185768 -0.7324518 -0.56927633
0.63765985 -0.5222654 1.5620883 -0.8525668 -0.5231862 -0.56547195 0.8083929 -0.059358187
-0.8807603 1.7684197 0.7986684 -0.4593751 0.59534985 -0.49721023 -0.8385359 -0.5333413
-0.8466805 -0.78944284 -0.6918356 2.1952748 0.01370928 0.80276394 0.8152059 2.1851761
0.5756128 0.6084434 1.4717726 -0.87737185 1.0030221 -0.58958244 -0.8024255 0.85606885
-0.5419552 -0.5357326 -0.8951803 0.98481774 -0.8888497 -0.5506234 0.8287132 0.8486459
0.04755435 -0.88227296 0.547885 -0.8300036 0.7361615 -0.44676837 -0.046923306 -0.02463293
-0.7434785 0.9331444 0.8998883 -0.9029743 -0.82415915 -0.7767287 0.75691223 -0.60651284
0.0072844545 0.8197084 -0.76166683 -0.82630116 1.0546244 1.1286117 2.0377748 0.6345886
0.9152728 0.72786057 -0.7196728 0.9108233 -0.5567821 -0.6260983 1.5725173 0.008072486
-0.6045268 -0.5549799 -0.55406207 1.5522237 -0.6707756 -0.8035143 -0.4804041 -0.8689779
1.7520279 -0.59631026 -0.46817058 0.664582 0.027995573 -0.01874164 0.7661197 0.81063956
-0.5647403 -0.8521825 0.038944934 -0.60303223 -0.51598823 0.7797526 0.894287 -0.015627218
00000000: 7c5a 293f cfd5 5ebf bc03 dd3f 7421 3d3f
00000010: 8aee 433f c013 bf3f f33c 23bf 99b0 75bf
00000020: a303 18bf 3188 62bf 05d7 19bf 7643 52bf
00000030: 2131 793f 8464 1cbf e7d2 b93f 2e92 18bf
00000040: ccc0 283f 30f6 653f e2ac 60bf 4297 83ba
00000050: b831 4dbf bc74 6e3f ef94 4bbf 9d95 55bf
00000060: 61bd 273d 6295 c13f 88b6 403f b127 20bf
00000070: a6c5 b53f 20c7 a83f f681 3bbf 18bc 11bf
00000080: ad3d 233f 2fb3 05bf 82f2 c73f d141 5abf
00000090: 88ef 05bf c5c2 10bf d6f2 4e3f 9221 73bd
000000a0: 8279 61bf 945b e23f 8875 4c3f 3733 ebbe
000000b0: d968 183f 5792 febe 4aaa 56bf 0e89 08bf
000000c0: 0ec0 58bf ed18 4abf 231c 31bf 627f 0c40
000000d0: e39c 603c f081 4d3f 55b1 503f edd9 0b40
000000e0: 5c5b 133f f2c2 1b3f 0b63 bc3f 719b 60bf
000000f0: 0763 803f e0ee 16bf c26b 4dbf 5427 5b3f
00000100: 93bd 0abf c625 09bf 892a 65bf 041d 7c3f
00000110: a78b 63bf a8f5 0cbf 8c26 543f dc40 593f
00000120: 5ac8 423d a4dc 61bf 3142 0c3f 1e7b 54bf
00000130: 1475 3c3f d3be e4be a732 40bd 00cb c9bc
00000140: 9b54 3ebf 8de2 6e3f 145f 663f 5329 67bf
00000150: 18fc 52bf b1d7 46bf 00c5 413f 6d44 1bbf
00000160: 6fb2 ee3b 69d8 513f 99fc 42bf 7988 53bf
00000170: effd 863f 5976 903f e76a 0240 6674 223f
00000180: 514f 6a3f 1255 3a3f 7a3c 38bf b72b 693f
00000190: 4689 0ebf fa47 20bf 3f48 c93f 7642 043c
000001a0: 45c2 1abf 2a13 0ebf 03d7 0dbf 44af c63f
000001b0: f3b7 2bbf 1db3 4dbf 87f7 f5be 5675 5ebf
000001c0: 7342 e03f caa7 18bf 0eb4 efbe 0c22 2a3f
000001d0: f956 e53c 1188 99bc 6c20 443f 1386 4f3f
000001e0: d292 10bf a228 5abf b984 1f3d 5260 1abf
000001f0: ce17 04bf de9d 473f feef 643f a704 80bc

weight f4 [128, 128]
-0.15735523 0.07083366 -0.03252095 0.02100657 0.144812 -0.028128706 0.039943445 -0.05226065
-0.0747994 -0.01942758 0.08353065 0.10506588 -0.0020834634 -0.011384842 -0.1360721 0.229991
0.061351415 0.053406272 0.09784417 0.16927338 0.07841504 -0.02232109 -0.070131235 0.038692962
-0.02808923 0.08811312 0.05735088 0.25256392 -0.121385306 0.088357754 -0.016299317 0.0761915
0.06567199 -0.057890333 0.040427506 -0.017533751 0.1989028 0.048974574 -0.13368349 0.20609008
-0.10131902 -0.1005937 0.031837393 -0.0042805583 -0.116615236 -0.11513145 0.004324398 -0.0829983
-0.09951893 -0.021944895 -0.16152668 0.1370336 0.16022426 0.15187179 -0.24891748 0.08612857
-0.002791776 0.052071664 0.10142044 0.08738136 0.06725138 -0.037888657 0.004119283 0.0439617
0.14695454 -0.017354622 0.02317011 0.06723307 -0.1500873 0.0466798 -0.091443166 -0.01993492
-0.007331504 0.17410389 -0.051819295 0.080402985 -0.030928653 -0.13683286 0.04465367 0.0196667
-0.0068231733 0.013796624 -0.10096875 -0.05842167 0.07948348 0.022023976 -0.02850093 0.089160204
-0.013493945 0.052662827 -0.097868286 0.09590382 0.09034326 0.261457 -0.13309598 0.13463508
0.06185312 0.14476329 0.1405623 0.019525126 0.105260104 0.19221976 0.2201919 0.045577545
-0.14858839 -0.004172743 -0.04966459 0.057021465 -0.06543647 0.0068359077 -0.11735074 0.035346437
0.121094204 0.05760519 -0.11597926 0.0023845085 0.05192016 -0.042456575 -0.025209345 -0.036024455
0.12713549 0.050350334 0.08282806 0.020128913 -0.098099396 -0.0065023643 -0.055786267 -0.11359582
0.15628609 0.20493308 -0.12230693 0.012141648 0.1803418 0.2856003 0.08430815 0.038271684
0.13098486 0.053734902 0.20782892 0.038530424 0.16946982 0.20354164 0.26415926 -0.2756351
-0.12881126 0.065643094 -0.33049276 -0.06263339 0.03294363 0.23512462 0.16934371 -0.09490955
-0.2519998 -0.010542652 0.02062641 0.0067561273 -0.010455829 -0.18932603 0.028811622 -0.33983257
-0.09556265 0.021327134 -0.09722221 -0.036287125 0.020521773 0.007987818 0.36053836 -0.12298779
0.11899637 0.05204394 -0.0070222286 -0.04769641 0.095564835 -0.015783919 0.08955578 0.087691896
-0.009824585 0.20634803 0.1208554 0.068175964 0.07224584 0.024689494 0.09166835 0.07912934
-0.069881335 0.19904312 -0.10557322 0.047131173 0.10005696 -0.036083035 0.09247951 0.023388293
-0.14622852 0.20676589 -0.03797463 -0.042833753 0.01749762 0.011601031 -0.10283778 0.16666566
0.14713089 -0.2528546 0.043106444 0.011996084 -0.16846088 0.19537249 -0.048431482 -0.09112648
0.14777516 0.06823523 0.15088342 0.05770684 -0.05326794 0.052344672 0.14182025 0.15018156
-0.17328417 -0.05591701 -0.036853798 -0.114512734 0.105950765 0.07719025 0.18762717 0.038867593
-0.008081872 -0.13533486 -0.13448715 0.035850864 0.15314671 -0.09547464 -0.05330076 0.07025467
-0.11777726 0.046856787 -0.13196954 0.09700365 -0.0007372001 -0.16742867 -0.01677651 0.057825357
-0.17136079 -0.039494622 -0.05013571 0.14167789 -0.104557775 -0.08967474 0.18825749 0.19090125
-0.23575084 -0.040718213 0.054567758 0.06926047 0.14031313 0.08195468 0.0013420724 0.06855148
00000000: bb21 21be 3d11 913d b034 05bd f815 ac3c
00000010: 9949 143e 2c6e e6bc bd9b 233d 430f 56bd
00000020: 6e30 99bd 9726 9fbc 1e12 ab3d c82c d73d
00000030: b78a 08bb 7d87 3abc 7c56 0bbe c382 6b3e
00000040: 9f4b 7b3d 89c0 5a3d 8662 c83d 0056 2d3e
00000050: 1198 a03d b8da b6bc f7a0 8fbd 837c 1e3d
00000060: 631b e6bc a774 b43d c2e8 6a3d 0f50 813e
00000070: dc98 f8bd e9f4 b43d 2586 85bc 4a0a 9c3d
00000080: 097f 863d 6a1e 6dbd 5097 253d f1a2 8fbc
00000090: 2dad 4b3e 9099 483d 53e4 08be 4709 533e
000000a0: 5980 cfbd 1204 cebd ed67 023d ed43 8cbb
000000b0: f8d3 eebd 0aca ebbd aeb3 8d3b 03fb a9bd
000000c0: 95d0 cbbd c8c5 b3bc 4067 25be 8952 0c3e
000000d0: d411 243e 4784 1b3e 39e4 7ebe 2d64 b03d
000000e0: 3bf6 36bb 1949 553d 85b5 cf3d 00f5 b23d
000000f0: 17bb 893d 2331 1bbd 0dfb 863b 2f11 343d
00000100: 407b 163e 482b 8ebc 3ecf bd3c 7eb1 893d
00000110: 7cb0 19be 5133 3f3d 8e46 bbbd 8f4e a3bc
00000120: 1d3d f0bb 4a48 323e 7840 54bd 52aa a43d
00000130: 165e fdbc ea1d 0cbe c4e6 363d 0f1c a13c
00000140: ed94 dfbb 3c0b 623c b4c8 cebd 904b 6fbd
00000150: 3cc8 a23d a06b b43c c87a e9bc a099 b63d
00000160: b515 5dbc fab4 573d 2b6f c8bd 3969 c43d
00000170: e305 b93d b1dd 853e 504a 08be c7dd 093e
00000180: b259 7d3d d43c 143e 90ef 0f3e 28f3 9f3c
00000190: 9c92 d73d 42d5 443e fc79 613e 85af 3a3d
000001a0: 8e27 18be 81bb 88bb 196d 4bbd 578f 693d
000001b0: 8e03 86bd c0ff df3b 9655 f0bd 6dc7 103d
000001c0: 3d00 f83d 6bf3 6b3d 8986 edbd 6a45 1c3b
000001d0: 3caa 543d f2e6 2dbd d483 cebc 618e 13bd
000001e0: ce2f 023e 273c 4e3d c2a1 a93d 64e5 a43c
000001f0: 56e8 c8bd c911 d5bb 2480 64bd eda4 e8bd
00000200: 7609 203e fad9 513e 0e7c fabd c3ed 463c
00000210: 85ab 383e 343a 923e c0a9 ac3d c5c2 1c3d
00000220: e520 063e 2119 5c3d 1bd1 543e 14d2 1d3d
00000230: 7f89 2d3e 386d 503e e23f 873e 0b20 8dbe
00000240: 19e7 03be e36f 863d 5936 a9be ef45 80bd
00000250: e6ef 063d 82c4 703e 7068 2d3e f05f c2bd
00000260: 1e06 81be 16bb 2cbc b8f8 a83c 8162 dd3b
00000270: ed4e 2bbc afde 41be 5a06 ec3c 89fe adbe
00000280: 5ab6 c3bd 3eb6 ae3c 701c c7bd cfa1 14bd
00000290: 471d a83c 56df 023c 7c98 b83e 06e1 fbbd
000002a0: 5eb4 f33d 072c 553d b91a e6bb 505d 43bd
000002b0: 7fb7 c33d 474d 81bc 0569 b73d cf97 b33d
000002c0: 4cf7 20bc e64c 533e 0983 f73d d79f 8b3d
000002d0: a1f5 933d 9f41 ca3c 9ebc bb3d 900e a23d
000002e0: f21d 8fbd f6d1 4b3e c636 d8bd 9e0c 413d
000002f0: aaea cc3d cecb 13bd e665 bd3d ce98 bf3c
00000300: eebc 15be 70ba 533e 498b 1bbd 7272 2fbd
00000310: 2b57 8f3c 4012 3e3c 9d9c d2bd 67aa 2a3e
00000320: 7ba9 163e 2876 81be 6290 303d 398b 443c
00000330: 0281 2cbe ba0f 483e 1760 46bd 85a0 babd
00000340: 5f52 173e eabe 8b3d 2f81 1a3e 025e 6c3d
00000350: 7c2f 5abd 5e67 563d 5439 113e 32c9 193e
00000360: 6871 31be 3c09 65bd 02f4 16bd a785 eabd
00000370: b7fc d83d ec15 9e3d 5621 403e a033 1f3d
00000380: d469 04bc 3995 0abe 00b7 09be 5bd8 123d
00000390: 7ed2 1c3e 3588 c3bd e651 5abd aee1 8f3d
000003a0: 3435 f1bd e7ec 3f3d 0623 07be daa9 c63d
000003b0: a940 41ba 6c72 2bbe e46e 89bc 48da 6c3d
000003c0: 3479 2fbe 1dc5 21bd 1a5b 4dbd 0214 113e
000003d0: 6322 d6bd 64a7 b7bd 92c6 403e 9e7b 433e
000003e0: ab68 71be 24c8 26bd 7182 5f3d 6fd8 8d3d
000003f0: 3fae 0f3e dbd7 a73d 7ae8 af3a b864 8c3d

bias f4 [128]
0.14922321 -0.055709384 -0.093875855 -0.086393066 0.022925682 0.0029878435 0.04333912 -0.0057648793
0.092535615 -0.1531686 -0.063459314 0.19692889 -0.0011633409 -0.0028926677 0.0017866198 0.052801132
-0.08157478 -0.08571401 -0.05528787 -0.047637157 -0.033243038 -0.098575845 -0.03637125 0.04039251
-0.11633674 -0.031386197 0.029133672 -0.048991676 0.06920003 0.14407909 0.013610108 0.10949407
0.14311066 0.05204785 -0.07655378 -0.0910217 0.091952555 0.11324986 0.061524443 -0.059561417
0.08454606 0.12378114 0.05913293 -0.025492141 -0.06330443 0.038702108 -0.015157952 0.071130976
0.0005228514 0.040483873 0.087702245 0.002620099 -0.040210493 0.13027954 0.0302218 0.053034145
0.096070684 -0.021033147 0.10945723 -0.0066086133 -0.020799069 0.008693046 0.034298636 -0.031570654
0.06432519 -0.08481218 0.12281149 -0.0060541746 0.02852934 -0.07748286 0.091297306 0.011651689
-0.027187673 -0.13190424 0.040520165 0.006026052 0.0069598183 0.09142582 0.0036550974 0.017118746
0.067098916 0.11183323 0.06979269 -0.0037074294 -0.040933587 0.09794192 -0.010310291 -0.002504407
0.027058236 0.09077685 0.072111145 0.08050799 0.13616262 0.036664296 0.062001854 -0.062138777
0.006720148 -0.016915595 0.022321714 0.055618778 0.08107884 0.108788826 0.020462442 -0.14035387
-0.010016905 0.11019111 0.04263619 -0.08993261 0.053659838 -0.06916098 0.13833696 0.024187848
-0.13109982 -0.058069326 0.06925101 0.027075604 0.064388596 0.0027012327 -0.054589342 0.0479305
-0.030026486 -0.029576961 -0.009135583 -0.04800059 -0.022994954 0.098278224 0.0955789 0.06357184
00000000: f8cd 183e 862f 64bd fc41 c0bd d9ee b0bd
00000010: a4ce bb3c b2cf 433b 5c84 313d 50e7 bcbb
00000020: 5083 bd3d 3bd8 1cbe f5f6 81bd baa7 493e
00000030: 3e7b 98ba e992 3dbb 032d ea3a 0046 583d
00000040: ae10 a7bd d48a afbd 8975 62bd 2e1f 43bd
00000050: da29 08bd 22e2 c9bd 05fa 14bd 9e72 253d
00000060: f541 eebd d08e 00bd bda9 ee3c 7fab 48bd
00000070: bfb8 8d3d 7889 133e eefc 5e3c 6d3e e03d
00000080: 9a8b 123e 2030 553d 3ac8 9cbd 9669 babd
00000090: 9f51 bc3d 8bef e73d 0e01 7c3d acf6 73bd
000000a0: 7c26 ad3d f780 fd3d 5f35 723d e5d4 d0bc
000000b0: c1a5 81bd 1a86 1e3d 0f59 78bc 1ead 913d
000000c0: f70f 093a 6bd2 253d 3c9d b33d f8b5 2b3b
000000d0: c2b3 24bd 0068 053e b593 f73c 553a 593d
000000e0: b5c0 c43d b54d acbc 1d2b e03d 118d d8bb
000000f0: cf62 aabc 476d 0e3c ba7c 0c3d 3b50 01bd
00000100: edbc 833d 02b2 adbd 9784 fb3d 1962 c6bb
00000110: 5db6 e93c 55af 9ebd 15fa ba3d bae6 3e3c
00000120: afb8 debc e811 07be 79f8 253d 3076 c53b
00000130: 300f e43b 763d bb3d 5c8a 6f3b 9d3c 8c3c
00000140: 286b 893d d208 e53d 78ef 8e3d 58f8 72bb
00000150: faa9 27bd c695 c83d 7fec 28bc fa20 24bb
00000160: 3ca9 dd3c 37e9 b93d 02af 933d 60e1 a43d
00000170: 376e 0b3e 4d2d 163d a8f5 7d3d 3b85 7ebd
00000180: b034 dc3b 9392 8abc 07dc b63c 84d0 633d
00000190: aa0c a63d adcc de3d daa0 a73c edb8 0fbe
000001a0: f21d 24bc e0ab e13d 49a3 2e3d 972e b8bd
000001b0: 6bca 5b3d 46a4 8dbd 34a8 0d3e 9825 c63c
000001c0: 083f 06be 1ada 6dbd 79d3 8d3d a8cd dd3c
000001d0: 2bde 833d 2a07 313b 1399 5fbd c652 443d
000001e0: 1bfa f5bc 624b f2bc 6aad 15bc 449c 44bd
000001f0: ea5f bcbc 1846 c93d dfbe c33d f431 823d

weight f4 [4, 128]
-0.0077388217 0.24348459 0.18697204 -0.036875363 0.09238237 0.07888291 -0.31993324 -0.1387876
-0.20789336 0.101372905 -0.038301293 0.15898141 -0.1306812 0.037700254 0.2756823 0.13712154
0.2373199 -0.07269247 -0.1624824 -0.38846904 -0.07021502 0.1031539 0.22815861 0.037364352
0.32813054 0.06720761 0.09982577 -0.08934694 0.06866704 0.01986016 -0.34981132 -0.17180711
-0.2720804 -0.016225735 -0.04049672 0.0023309228 -0.11732186 -0.25393182 -0.1443401 -0.0021054244
-0.05178312 -0.43248236 -0.052520372 0.032837734 -0.054257713 0.0035623994 0.008154526 -0.29627764
-0.10296444 -0.061708707 0.059241127 0.27764326 -0.13582258 -0.019983752 0.036240704 -0.07198414
-0.55638474 -0.0738359 -0.056223005 -0.025530552 0.00084623497 -0.035834003 -0.12734602 -0.004394038
-0.40404558 -0.15765542 -0.11961704 -0.033717513 0.07406213 -0.22091393 -0.008312321 0.18292828
-0.16222209 0.16912077 0.24667822 -0.060573533 0.2391766 -0.27994794 0.08672241 0.01618999
0.03150774 0.23439929 0.19670591 -0.122140124 -0.03827198 0.15409647 -0.06325286 -0.062644064
-0.49211785 0.1833877 -0.012058348 -0.45711017 -0.27096465 0.2127823 -0.055997543 0.2701469
-0.23568772 0.00023294563 -0.034470618 0.017062189 0.103701234 -0.26707336 -0.114392005 0.18711324
-0.08508752 -0.40165657 -0.23610526 0.13236947 0.20629902 -0.029209534 0.12011304 -0.029426062
0.30728897 0.038010657 -0.43845713 -0.2210935 -0.07597073 -0.0129512595 -0.18585834 0.26075265
0.031491093 -0.027076265 -0.10565578 0.15632312 -0.10544631 0.058073107 0.04635573 -0.049448494
-0.13326243 0.058087744 -0.32180545 0.04356485 0.07577001 0.03263809 -0.4171721 -0.44308677
-0.27662462 -0.30297643 -0.015610758 -0.034895074 0.21682185 0.2347073 -0.2452383 0.017305205
0.32462704 -0.01195528 0.025296623 -0.22152753 -0.013530063 0.5450219 0.4619567 -0.18662815
-0.09639966 -0.12716328 0.11590094 0.20192012 0.14682704 0.087532856 0.16106185 0.07824491
-0.5191202 0.02821487 -0.16430102 0.046122305 -0.33492917 -0.4333363 -0.8460154 0.40680906
0.15662232 -0.5335611 0.091630645 0.13914949 0.042350944 0.13998798 0.047671728 -0.541793
-0.23446019 -0.034696817 -0.24957034 0.14067012 -0.21037252 -0.29073998 -0.037614383 -0.07836818
-0.45135134 -0.032098357 0.08454553 -0.5022069 -0.037489664 -0.035830997 -0.09976568 -0.33874956
-0.53330773 0.010601936 -0.12006211 -0.2777638 0.030231746 -0.12886411 -0.096330166 0.28558573
0.0439792 0.4564834 0.29201087 0.02597584 0.16466548 -0.4928168 0.35072938 -0.12938562
0.19911076 0.53131354 0.49808353 -0.1522502 -0.26732916 -0.124243505 -0.18647632 0.17239344
-0.5791255 0.25760475 -0.5310602 -0.104036584 -0.6470821 0.22088735 -0.014830764 0.22545993
-0.3397083 0.05792883 0.39470533 -0.15935399 0.4137107 0.068963565 -0.06380571 0.44371748
-0.41649422 -0.60508925 -0.57271785 0.21263367 0.24992792 -0.005951713 -0.30936825 0.08029654
0.092139296 -0.026263935 -0.26767144 -0.4451024 -0.5179264 -0.055357873 -0.3341353 -0.20990539
0.37808713 -0.23563561 -0.010756463 0.13087732 -0.1589686 -0.007964258 0.2636262 -0.09495839
00000000: f195 fdbb 0654 793e 9975 3f3e 9f0a 17bd
00000010: f832 bd3d 5d8d a13d 4ace a3be 561e 0ebe
00000020: ffe1 54be 999c cf3d d1e1 1cbd 06cc 223e
00000030: 4bd1 05be 956b 1a3d 3b26 8d3e 9769 0c3e
00000040: fd03 733e cadf 94bd c961 26be 6ae5 c6be
00000050: e4cc 8fbd 5a42 d33d 69a2 693e 5d0b 193d
00000060: ba00 a83e 25a4 893d 7471 cc3d 87fb b6bd
00000070: 4ea1 8c3d c6b1 a23c 781a b3be 34ee 2fbe
00000080: 1f4e 8bbe d5eb 84bc e3df 25bd 65c2 183b
00000090: 7146 f0bd 5a03 82be e4cd 13be 29fb 09bb
000000a0: 891a 54bd 546e ddbe 9a1f 57bd dc80 063d
000000b0: 563d 5ebd 2577 693b 909a 053c b4b1 97be
000000c0: 05df d2bd 45c2 7cbd d3a6 723d 4227 8e3e
000000d0: 1315 0bbe f7b4 a3bc 2271 143d 6c6c 93bd
000000e0: 3b6f 0ebf 4737 97bd 184a 66bd 7325 d1bc
000000f0: ded5 5d3a adc6 12bd ff66 02be ddfb 8fbb
00000100: 10df cebe 6c70 21be c7f9 f4bd 601b 0abd
00000110: e3ad 973d 4337 62be 6730 08bc 8d51 3b3e
00000120: 8c1d 26be ff2d 2d3e 3799 7c3e f41b 78bd
00000130: b6ea 743e 5655 8fbe 859b b13d dfa0 843c
00000140: 430e 013d 5e06 703e 466d 493e 9a24 fabd
00000150: 14c3 1cbd 77cb 1d3e b78a 81bd 884b 80bd
00000160: dff6 fbbe fcc9 3b3e 6190 45bc 580a eabe
00000170: e1bb 8abe 9ae3 593e ae5d 65bd b250 8a3e
00000180: 1f58 71be de42 7439 1031 0dbd 01c6 8b3c
00000190: 5061 d43d d7bd 88be 5b46 eabd 9d9a 3f3e
000001a0: 5e42 aebd eea5 cdbe 94c5 71be dd8b 073e
000001b0: 0d40 533e d548 efbc d3fd f53d ed0e f1bc
000001c0: fb54 9d3e 10b1 1b3d 747d e0be 5666 62be
000001d0: 8b96 9bbd 8531 54bc a651 3ebe 5f81 853e
000001e0: cefc 003d 0bcf ddbc 0f62 d8bd 2b13 203e
000001f0: 3cf4 d7bd 11de 6d3d 82df 3d3d 818a 4abd
00000200: f275 08be 6aed 6d3d afc3 a4be 0e71 323d
00000210: 4f2d 9b3d 85af 053d 9597 d5be 45dc e2be
00000220: bea1 8dbe ba1f 9bbe 44c4 7fbc 23ee 0ebd
00000230: 8c06 5e3e 1c57 703e c01f 7bbe a5c3 8d3c
00000240: 8435 a63e 14e0 43bc dd3a cf3c 1dd8 62be
00000250: 33ad 5dbc 8e86 0b3f 9785 ec3e 731b 3fbe
00000260: 2f6d c5bd 1737 02be 795d ed3d 26c4 4e3e
00000270: d459 163e 6d44 b33d 66ed 243e de3e a03d
00000280: 10e5 04bf df22 e73c 873e 28be beea 3c3d
00000290: d67b abbe 41de ddbe 7794 58bf 4749 d03e
000002a0: 9a61 203e 7697 08bf d9a8 bb3d 347d 0e3e
000002b0: 2f78 2d3d 0259 0f3e 6e43 433d f2b2 0abf
000002c0: 5516 70be 401e 0ebd 5e8f 7fbe d40b 103e
000002d0: e56b 57be dfdb 94be 8a11 1abd 7f7f a0bd
000002e0: 8617 e7be 9179 03bd 3526 ad3d a290 00bf
000002f0: c38e 19bd 86c3 12bd f351 ccbd 9570 adbe
00000300: db86 08bf beb3 2d3c 20e3 f5bd 0f37 8ebe
00000310: 91a8 f73c f4f4 03be c048 c5bd 4b38 923e
00000320: 8923 343d 31b8 e93e 7382 953e 49cb d43c
00000330: 119e 283e 7c52 fcbe cd92 b33e aa7d 04be
00000340: b1e3 4b3e 2a04 083f ce04 ff3e 7ae7 1bbe
00000350: 5edf 88be 6173 febd a6f3 3ebe e887 303e
00000360: 9241 14bf c5e4 833e 90f3 07bf 2211 d5bd
00000370: 2ca7 25bf 4b30 623e bcfc 72bc f8de 663e
00000380: 3fee adbe c846 6d3d d116 ca3e b12d 23be
00000390: e4d1 d33e c53c 8d3d 91ac 82bd f02e e33e
000003a0: bb3e d5be 21e7 1abf a39d 12bf a4bc 593e
000003b0: 1bed 7f3e 9606 c3bb 8465 9ebe 8372 a43d
000003c0: 87b3 bc3d 7727 d7bc 3b0c 89be 76e4 e3be
000003d0: d396 04bf f0be 62bd c813 abbe 70f1 56be
000003e0: a394 c13e 764a 71be e03b 30bc b404 063e
000003f0: aac8 22be 857c 02bc 03fa 863e 8b79 c2bd

bias f4 [4]
-0.08637118 -0.077534035 0.04852588 0.012719156
00000000: 60e3 b0bd 2aca 9ebd 13c3 463d 0264 503c
