problem1/models/underway/success_whole_model_1766680084.pth (torch, 146613 bytes, 9 tensors)

weight f4 [128, 8]
-0.04319756 -0.47104508 0.40288904 -0.35889816 -0.27514994 -0.3814933 0.16296758 0.068210475
-0.024349978 0.396499 0.31155476 0.39211205 -0.1464907 -0.1865993 0.044250876 -0.39605632
0.04346484 0.32565275 0.019139579 0.6332727 0.66443944 -0.07023427 -0.028197225 -0.067508824
-1.0459113 -0.3579468 -0.33920473 -0.22923212 0.3221492 0.08231525 -0.0049517327 -0.366197
-0.16281925 -0.11311415 0.04899823 -0.41030148 -0.24434248 -0.21892916 0.024736391 -0.06617975
-0.2145108 0.40148708 -0.44879672 -0.42287514 0.2329676 -0.4533474 0.022317374 0.017318822
0.030753523 0.27016184 0.38446027 -0.18614493 -0.28011122 0.41936848 -0.15430735 -0.4956378
-0.0054345536 -0.56988597 -0.47253415 -0.5588203 0.026923127 -0.058615297 -0.04663909 -0.21783042
-0.15852384 -0.35611174 0.43427193 -0.71842164 -0.1044685 0.25251818 -0.34183678 -0.108473465
-0.109217666 -0.02633775 0.66346216 0.48295793 0.6877976 0.0038725599 -0.1804359 -0.12547727
-0.17014821 -0.28171003 0.087100916 1.5198771 0.14325167 0.15147382 0.37933874 0.39560217
0.24530268 -0.038262263 -0.039713733 -0.31249154 0.010317127 -0.23479109 0.493135 0.22379297
-0.031716324 0.30461407 0.2992085 -0.71314794 0.03710029 0.07192652 -0.35910243 -0.6002748
0.2449335 0.11485176 0.5069828 -0.2208568 0.7062183 0.20483471 -0.31243652 0.023031756
-0.0650202 -0.053110376 0.04673952 -0.032834347 -1.7512208 0.028490087 0.031652313 0.0850695
0.21115066 0.22496963 -0.11762027 0.23653893 0.05446349 0.31166682 0.3718231 0.107253894
0.09976504 0.13775627 -0.0913297 -0.48739764 -0.33999357 -0.06288971 0.2957687 -0.30657214
-0.152755 -0.098199435 -0.851473 -0.6191736 -0.06341704 0.05447035 0.40445828 0.13808583
-0.5611395 -0.18831512 -0.52300483 -0.009710428 0.53700835 0.16733561 -0.22370715 -0.052771617
0.49243024 0.011809684 0.44200456 0.62358254 -0.2556273 -0.17981036 -0.15353516 -0.33444983
0.1613707 0.23590213 0.22690806 -0.03767517 -0.47309166 -0.28289703 -0.27473003 0.39236197
0.119427554 0.45360065 -0.015569004 0.59482473 0.38315013 -0.37905258 -0.004540447 -0.36136675
-0.15693802 0.13658342 0.23369654 0.8057176 -0.43692395 -0.000835213 0.021814566 0.21609639
-0.06403753 -0.054557864 -0.16013426 -0.08159511 -0.6898661 -0.71806216 -0.38215697 0.3205876
0.19912793 -0.13890362 0.043604475 -0.4361042 0.060211737 -0.25686613 0.29704162 0.04469564
-0.12675636 -0.24921262 0.03348646 -0.66404843 0.15049277 -0.15087637 -0.29191598 0.112370454
-0.9930549 0.14192353 -0.5694952 -0.13278884 0.08126689 -0.15537676 0.03449441 0.0057174596
0.16676196 0.3163563 0.26667878 -0.0066279345 -0.06901316 -0.71177155 -0.61057293 -0.2111727
0.15457107 -0.0051481593 -0.08129436 -0.37092575 0.33884937 -0.34984484 0.27971256 -0.07880483
-0.40140927 0.18098892 -0.29740492 0.21609262 0.11215084 -0.5275357 -0.4465531 0.118616104
0.06454201 -0.058879603 0.5817387 -0.84939766 0.011545125 0.3224972 -0.037746605 0.044648007
-0.056918677 -0.2768866 -0.09283463 -0.07520457 -0.23827806 0.6085849 0.058439936 0.2925652
00000000: edef 30bd d22c f1be 7947 ce3e 80c1 b7be
00000010: 74e0 8cbe 1753 c3be f9e0 263e efb1 8b3d
00000020: 9b79 c7bc eb01 cb3e 1b84 9f3e e9c2 c83e
00000030: a801 16be e313 3fbe 6840 353d e5c7 cabe
00000040: 3008 323d f5bb a63e 9bca 9c3c 291e 223f
00000050: b418 2a3f fcd6 8fbd defd e6bc 1142 8abd
00000060: 6ce0 85bf ce44 b7be 3eac adbe d3bb 6abe
00000070: bdf0 a43e e694 a83d 2542 a2bb 2c7e bbbe
00000080: 17ba 26be 64a8 e7bd 5eb2 483d 0913 d2be
00000090: ea34 7abe f72e 60be f9a3 ca3c 4089 87bd
000000a0: b8a8 5bbe b78f cd3e afc8 e5be 1783 d8be
000000b0: 0f8f 6e3e 271d e8be edd2 b63c 34e0 8d3c
000000c0: d0ee fb3c a752 8a3e fad7 c43e c79c 3ebe
000000d0: bd6a 8fbe 77b7 d63e bf02 1ebe 3dc4 fdbe
000000e0: 5714 b2bb 0ce4 11bf ffef f1be d90e 0fbf
000000f0: e48d dc3c 9816 70bd a108 3fbd f00e 5fbe
00000100: 1354 22be 4754 b6be e458 de3e 7bea 37bf
00000110: 95f3 d5bd 104a 813e 3b05 afbe 5627 debd
00000120: 83ad dfbd 44c2 d7bc a8d8 293f 4346 f73e
00000130: 8113 303f c6ca 7d3b 30c4 38be 1d7d 00be
00000140: 553b 2ebe 4c3c 90be f761 b23d 558b c23f
00000150: 91b0 123e f41b 1b3e b038 c23e 5e8c ca3e
00000160: a030 7b3e e4b8 1cbd deaa 22bd e4fe 9fbe
00000170: 2b09 293c 136d 70be 317c fc3e fc29 653e
00000180: fae8 01bd 60f6 9b3e db31 993e dd90 36bf
00000190: 79f6 173d 364e 933d 46dc b7be 9cab 19bf
000001a0: d9cf 7a3e 6637 eb3d a0c9 013f 4928 62be
000001b0: b9ca 343f 31c0 513e aef7 9fbe 18ad bc3c
000001c0: 5029 85bd 448a 59bd f071 3f3d 4f7d 06bd
000001d0: 0128 e0bf 0b64 e93c dba5 013d eb38 ae3d
000001e0: e137 583e 705e 663e e5e2 f0bd 4337 723e
000001f0: 1c15 5f3d cb92 9f3e 995f be3e eea7 db3d
00000200: 9d51 cc3d fb0f 0d3e 110b bbbd 2f8c f9be
00000210: a313 aebe 52cc 80bd ff6e 973e 06f7 9cbe
00000220: cf6b 1cbe c91c c9bd 22fa 59bf 2982 1ebf
00000230: cbe0 81bd 4d1c 5f3d 2815 cf3e 5f66 0d3e
00000240: d7a6 0fbf aed5 40be a5e3 05bf 7d18 1fbc
00000250: 6179 093f 075a 2b3e 7d13 65be 0d27 58bd
00000260: d11f fc3e 687d 413c 6c4e e23e 1ba3 1f3f
00000270: 95e1 82be 3520 38be 5238 1dbe 023d abbe
00000280: 5c3e 253e 5490 713e 965a 683e 4751 1abd
00000290: 1239 f2be e1d7 90be 6aa9 8cbe abe3 c83e
000002a0: 6f96 f43d 583e e83e 2315 7fbc 6f46 183f
000002b0: 412c c43e 2e13 c2be 08c8 94bb 1005 b9be
000002c0: 5cb4 20be 86dc 0b3e 254e 6f3e 8243 4e3f
000002d0: 7fb4 dfbe 32f2 5aba 76b4 b23c 5f48 5d3e
000002e0: 1c26 83bd 1178 5fbd 3cfa 23be 561b a7bd
000002f0: 119b 30bf ecd2 37bf 14aa c3be 0f24 a43e
00000300: 31e8 4b3e c03c 0ebe 9b9a 323d 0d49 dfbe
00000310: 95a0 763d f583 83be d715 983e c712 373d
00000320: 6bcc 01be 9831 7fbe 1929 093d 14ff 29bf
00000330: c71a 1a3e 567f 1abe 0376 95be 7b22 e63d
00000340: d938 7ebf 6754 113e 70ca 11bf ccf9 07be
00000350: 416f a63d 161b 1fbe 034a 0d3d 8759 bb3b
00000360: a6c3 2a3e 74f9 a13e 1f8a 883e 252f d9bb
00000370: c656 8dbd a936 36bf 824e 1cbf a83d 58be
00000380: e147 1e3e e4b1 a8bb a87d a6bd fbe9 bdbe
00000390: aa7d ad3e dd1e b3be 7c36 8f3e 6d64 a1bd
000003a0: 8485 cdbe 2955 393e 7545 98be 6247 5d3e
000003b0: 57af e53d 940c 07bf 9ca2 e4be 00ed f23d
000003c0: 9a2e 843d bd2b 71bd d4ec 143f 2072 59bf
000003d0: c427 3d3c 5a1e a53e 2f9c 1abd d4e0 363d
000003e0: 8f23 69bd 15c4 8dbe 1520 bebd db04 9abd
000003f0: 2aff 73be 38cc 1b3f b75e 6f3d 1bcb 953e

bias f4 [128]
0.3829866 0.14815629 0.40033183 0.023715941 0.29439256 0.28751054 0.28079545 -0.14998871
0.42423466 0.014483795 -0.24981372 -0.24885827 -0.066316746 0.26205647 0.049586106 0.12455511
0.5131219 0.11472952 0.32105336 0.30138683 -0.1075431 0.07933972 -0.3198164 -0.017835146
0.23347476 -0.24466392 -0.026520815 0.12862709 0.09819398 -0.06947605 -0.10137101 0.27388203
-0.23712642 0.29033953 -0.3921778 0.3832537 0.26986974 0.15234412 -0.24368642 0.15734988
0.2539263 0.45266408 0.21730885 0.26708847 0.45963654 0.030409869 0.01204937 0.3320694
-0.03107286 -0.11555493 0.33184466 -0.083151214 0.043865707 0.37618288 0.27424437 0.1808359
-0.30142772 -0.0066132615 0.073695354 0.3382665 0.08827241 0.25638786 0.047320973 0.14795388
-0.19705792 0.31841817 0.38670528 -0.14356768 -0.37292144 0.4841528 0.19020392 0.27112758
0.4542463 0.20511578 0.35202083 0.28173065 -3.8997578e-06 0.05285936 0.38786966 0.04069422
0.25514624 0.17818677 0.39598978 0.30348265 0.2349742 0.3370804 0.011625965 0.024027264
-0.07708044 0.14341843 0.095519364 0.53303504 -0.077395126 0.4008632 0.31457642 0.4706639
-0.4188816 0.508732 -0.24611738 0.33160195 0.350287 -0.04386489 0.076085865 -0.29471418
0.014762074 0.036427725 0.45321205 -0.16598617 -0.3090128 0.11951344 0.15695757 0.043484308
0.23035656 -0.10501332 -0.50971127 -0.060310367 0.20414515 0.29488337 0.018305933 -0.072320566
0.26561877 0.059165493 0.47951278 -0.3751694 0.34120417 0.039567553 0.40033942 0.34286225
00000000: d216 c43e 48b6 173e 4bf8 cc3e ef47 c23c
00000010: 9fba 963e 9534 933e 6cc4 8f3e a496 19be
00000020: 4935 d93e 704d 6d3c 2bcf 7fbe b4d4 7ebe
00000030: 13d1 87bd 442c 863e cd1a 4b3d c016 ff3d
00000040: f55b 033f 50f7 ea3d 1b61 a43e 604f 9a3e
00000050: 8f3f dcbd dd7c a23d fabe a3be 031b 92bc
00000060: 0214 6f3e 2e89 7abe 2e42 d9bc d2b6 033e
00000070: ed19 c93d 7649 8ebd 9b9b cfbd 443a 8c3e
00000080: 45d1 72be 62a7 943e 87cb c8be d439 c43e
00000090: 5e2c 8a3e 1900 1c3e ef88 79be 5420 213e
000000a0: a102 823e 96c3 e73e 3686 5e3e d2bf 883e
000000b0: 7b55 eb3e 1e1e f93c b96a 453c 0005 aa3e
000000c0: 838c febc 10a8 ecbd 8be7 a93e 2f4b aabd
000000d0: 87ac 333d 0b9b c03e c269 8c3e 0c2d 393e
000000e0: bc54 9abe 0fb4 d8bb 97ed 963d 4431 ad3e
000000f0: 2ac8 b43d 4545 833e a3d3 413d 3981 173e
00000100: 8dc9 49be b507 a33e 3cfe c53e 6803 13be
00000110: 8fef bebe e0e2 f73e d1c4 423e 3cd1 8a3e
00000120: f992 e83e df09 523e 133c b43e 003f 903e
00000130: aada 82b6 0e83 583d da96 c63e fcae 263d
00000140: 87a2 823e 9876 363e 2cbf ca3e 1462 9b3e
00000150: 149d 703e cd95 ac3e d57a 3e3c d3d4 c43c
00000160: 5adc 9dbd 48dc 123e a89f c33d fc74 083f
00000170: 5681 9ebd f13d cd3e 2910 a13e dcfa f03e
00000180: a677 d6be 433c 023f 3206 7cbe bbc7 a93e
00000190: d158 b33e acab 33bd e8d2 9b3d c7e4 96be
000001a0: a0dc 713c 3d35 153d 690b e83e 47f8 29be
000001b0: ed36 9ebe 76c3 f43d 7cb9 203e 9a1c 323d
000001c0: 97e2 6b3e 3911 d7bd 707c 02bf 0108 77bd
000001d0: 6d0b 513e f4fa 963e 53f6 953c ce1c 94bd
000001e0: 2fff 873e 8457 723d b382 f53e 3416 c0be
000001f0: 50b2 ae3e 9611 223d 4af9 cc3e a48b af3e

weight f4 [128, 128]
-0.20565404 0.16523536 0.03411262 -0.3209397 -0.46059343 0.16511786 0.28330678 -0.26247415
0.039189484 0.6110579 0.2691045 -0.2914138 0.25886187 0.116717726 0.7433967 0.11528616
0.015771834 0.06441615 -0.33553946 0.16390802 0.089240886 0.09950018 0.4360762 -0.29551542
-0.38886976 -0.45533693 -0.049745683 -0.080177 -0.40130153 0.041301683 -0.4613365 0.06995311
-0.26647854 0.11500366 0.01085022 -0.19582465 0.22482845 -0.33010802 -0.026284399 0.028316787
-0.9317045 -0.10218466 -0.6876462 -0.24042605 -0.27141774 -0.004432888 0.6519504 0.039145775
-0.14703807 -0.13847858 -0.16780134 -0.43322444 -0.31183335 -0.09284944 0.08917179 0.06867292
-0.23023798 -0.75720024 0.02570587 -0.11277173 -0.66489136 -0.54124826 0.70427006 0.03289956
-0.30925712 0.09404236 -0.25326216 -0.32756287 -0.27623203 0.24083851 0.8584707 0.30281287
0.021631677 0.26889244 0.13265815 0.20737618 0.13461944 -0.27432173 -0.010126814 -0.04260228
0.2228988 0.1306894 0.14279383 -0.21375628 -0.9680896 -0.2463233 -0.21361639 0.114702016
0.3212176 -0.24608268 -0.43113685 0.22196755 0.20832762 0.09695946 -0.15254955 0.24530007
-0.34229726 0.0258779 0.27802196 0.07187922 0.04042745 0.13001426 -0.22957255 0.1438132
0.3600963 0.50982016 0.08030681 -0.012557363 -0.5507819 0.21995363 0.015107022 0.4305719
-0.33578438 0.16803323 0.18437654 0.14321691 -0.18744154 -0.10698023 0.19140175 -0.096069925
0.19066837 0.26580316 0.14071977 -0.61269593 0.09240702 0.7054869 -0.15774779 0.029322557
0.08049284 0.07315566 -0.12906522 -0.074415535 0.08594727 -0.0550225 -0.15242581 0.21633014
0.039540924 -0.1006491 -0.062754445 0.17373306 -0.08974269 0.103692494 -0.2597224 0.074025065
-0.22929588 -0.08994829 -0.019889528 -0.11655488 0.087320894 0.24063787 -0.663269 0.13195513
-0.045433547 0.20038325 0.22963397 0.18009788 -0.06812847 0.07718797 0.2748077 -0.011514673
0.10510565 0.27032396 0.4410452 -0.14894384 -0.210656 0.3180768 0.08938346 -0.002353878
0.023680028 -0.049878985 -0.00021753128 -0.5106638 0.053862177 -0.025525987 -0.5504709 -0.105689816
0.07403799 0.18983324 -0.12635885 0.059420943 0.3127931 0.11634148 -0.0027791439 -0.058001515
0.0043474683 0.089170955 -0.20137648 -0.033168808 0.028653635 -0.0031796026 -0.8340849 0.11588491
0.33345765 -0.19935332 -0.18095212 0.07839807 0.2645292 -0.035362422 -0.36148438 -0.14936174
-0.15765212 -0.09386281 0.020940863 0.09619953 -0.10614295 0.079486996 -0.069726534 -0.14068575
-0.15878938 -0.009460227 -0.0026479864 -0.11849066 0.16197996 -0.031376954 0.16421367 -0.17376862
-0.087217204 0.08946282 0.22832811 0.053582154 0.026288928 -0.05942461 -0.2059081 -0.259185
0.15721257 -0.11760291 0.34770942 -0.113216825 -0.18065389 0.02714096 -0.14434257 0.14801788
0.0331678 -0.109611005 -0.17728733 -0.17634133 0.19961175 0.2595312 -0.07228729 -0.05303593
0.07221217 -0.04313028 0.03420059 0.014173005 0.1364821 0.19149561 0.1116828 0.13827088
-0.51668984 -0.11180789 -0.0097082425 0.27778435 -0.10593252 -0.51076543 -0.09901508 -0.24137214
00000000: f996 52be 7533 293e adb9 0b3d 3552 a4be
00000010: e7d2 ebbe a814 293e 960d 913e 0363 86be
00000020: 2785 203d 4a6e 1c3f 11c8 893e 3134 95be
00000030: 8b89 843e b409 ef3d 3f4f 3e3f 261b ec3d
00000040: ef33 813c 9dec 833d d4cb abbe 81d7 273e
00000050: edc3 b63d c0c6 cb3d 6145 df3e cc4d 97be
00000060: f019 c7be ec21 e9be 21c2 4bbd d733 a4bd
00000070: 6577 cdbe f42b 293d 4c34 ecbe 9343 8f3d
00000080: e06f 88be 0a87 eb3d 1fc5 313c 4286 48be
00000090: 6e39 663e eb03 a9be 6152 d7bc 9bf8 e73c
000000a0: 3084 6ebf 3146 d1bd 9509 30bf 3f32 76be
000000b0: 44f7 8abe c241 91bb 39e6 263f 5257 203d
000000c0: 2691 16be 54cd 0dbe 1dd4 2bbe 98cf ddbe
000000d0: 9fa8 9fbe d927 bebd b39f b63d 63a4 8c3d
000000e0: 81c3 6bbe e0d7 41bf 1e95 d23c ddf4 e6bd
000000f0: 5236 2abf 3f8f 0abf 0b4b 343f b0c1 063d
00000100: f356 9ebe 4899 c03d 94ab 81be 52b6 a7be
00000110: 496e 8dbe 5f9e 763e bcc4 5b3f 4a0a 9b3e
00000120: ea34 b13c 45ac 893e 8ad7 073e 6c5a 543e
00000130: aed9 093e e673 8cbe f0ea 25bc ba7f 2ebd
00000140: 953f 643e 71d3 053e 8c38 123e ede2 5abe
00000150: b8d4 77bf 2d3c 7cbe 41be 5abe e4e8 ea3d
00000160: a276 a43e 19fd 7bbe f8bd dcbe 764b 633e
00000170: d653 553e ae92 c63d f335 1cbe f12f 7b3e
00000180: 9641 afbe e4fd d33c e558 8e3e 6a35 933d
00000190: 4197 253d 7522 053e 1115 6bbe c443 133e
000001a0: 8b5e b83e 9383 023f e677 a43d 66bd 4dbc
000001b0: 0b00 0dbf 863b 613e 7183 773c ec73 dc3e
000001c0: eeeb abbe e710 2c3e 34cd 3c3e 74a7 123e
000001d0: adf0 3fbe 7318 dbbd d2fe 433e 4fc0 c4bd
000001e0: 923e 433e 5a17 883e d818 103e a4d9 1cbf
000001f0: e43f bd3d ca9a 343f a388 21be dc35 f03c
00000200: 6ed9 a43d a2d2 953d ac29 04be 2c67 98bd
00000210: 1f05 b03d 465f 61bd 8315 1cbe a685 5d3e
00000220: aaf5 213d 1e21 cebd 6785 80bd 14e7 313e
00000230: 04cb b7bd bb5c d43d 56fa 84be 749a 973d
00000240: 8acc 6abe cf36 b8bd 5def a2bc 53b4 eebd
00000250: 4cd5 b23d c669 763e ffcb 29bf 3f1f 073e
00000260: 8718 3abd 4431 4d3e 2b25 6b3e 946b 383e
00000270: f086 8bbd ba14 9e3d 98b3 8c3e 0aa8 3cbc
00000280: a241 d73d e767 8a3e add0 e13e bc84 18be
00000290: 35b6 57be f6da a23e ad0e b73d 8543 1abb
000002a0: 9efc c13c e84d 4cbd 1c19 64b9 ddba 02bf
000002b0: 969e 5c3d e01b d1bc a9eb 0cbf e773 d8bd
000002c0: 3ba1 973d a563 423e 3764 01be 6063 733d
000002d0: 6b26 a03e 7144 ee3d 4c22 36bb ff92 6dbd
000002e0: 3575 8e3b 439f b63d a335 4ebe 04dc 07bd
000002f0: 07bb ea3c e160 50bb 9786 55bf 1155 ed3d
00000300: f6ba aa3e 4723 4cbe 834b 39be 2b8f a03d
00000310: 5f70 873e 30d8 10bd 7b14 b9be 49f2 18be
00000320: 8f6f 21be 253b c0bd 2c8c ab3c 4204 c53d
00000330: 7a61 d9bd 14ca a23d c9cc 8ebd ed0f 10be
00000340: af99 22be 11ff 1abc d789 2dbb 3bab f2bd
00000350: 13de 253e 1f85 00bd a127 283e 67f0 31be
00000360: ef9e b2bd 4838 b73d d8ce 693e f678 5b3d
00000370: e15b d73c 3867 73bd 93d9 52be e5b3 84be
00000380: 55fc 203e cbd9 f0bd f806 b23e 39de e7bd
00000390: 55fd 38be b856 de3c 8ace 13be 0092 173e
000003a0: f6da 073d bc7b e0bd cf8a 35be d292 34be
000003b0: 0667 4c3e 46e1 843e 5c0b 94bd 343c 59bd
000003c0: f9e3 933d 60a9 30bd eb15 0c3d e435 683c
000003d0: f7c1 0b3e 6d17 443e f4b9 e43d e296 0d3e
000003e0: c945 04bf 89fb e4bd 520f 1fbc c039 8e3e
000003f0: 26f3 d8bd 86c1 02bf 6bc8 cabd 422a 77be

bias f4 [128]
0.004495947 -0.16541411 -0.016822567 -0.13878512 -0.08565849 -0.007254997 -0.017363401 0.046377167
0.14815818 0.17791633 -0.041241128 -0.07332936 -0.051852763 0.14987879 0.2300521 0.106864855
0.17837189 -0.016276889 0.053006977 -0.08111735 0.042035405 -0.033628758 -0.0060298084 -0.010046323
-0.0541661 -0.10097989 0.13032793 0.14529546 -0.023676855 0.050163243 0.059219565 0.108379275
0.087153345 0.035476446 0.046236977 0.0015682067 0.22446522 0.07182672 0.046874743 -0.0841373
0.062145848 0.049697373 -0.124537036 0.07474604 0.24362445 -0.070992894 -0.16562791 -0.02771493
0.22380221 -0.0005544994 0.015220579 0.16588424 0.26907027 0.17735371 -0.054326758 -0.019065745
0.2602737 0.26046047 -0.10977457 0.09373353 0.19969705 -0.08646005 0.22687839 -0.01911738
0.23072761 0.08059101 -0.17431933 0.06861093 0.008003047 -0.096926756 -0.013671433 0.19543274
-0.084995754 -0.08692628 -0.11346605 0.24131386 -0.011097207 -0.08985505 -0.022639642 0.22210728
-0.018082455 0.06576792 0.048470467 -0.055931006 -0.1303823 -0.05014393 0.14202817 0.13291466
-0.06961049 -0.011527137 -0.027157046 0.14883152 -0.038413074 -0.11424688 0.022294035 -0.02200745
0.023573224 0.12072267 -0.024673667 0.049645577 0.040113673 -0.020513406 0.2370263 -0.02723174
-0.09177519 -0.25548303 -0.084168285 0.25809476 -0.08944504 -0.04999402 0.2270063 -0.05414951
-0.0056390814 0.03409208 0.1565828 -0.007184123 -0.09535507 -0.049581695 -0.0020289887 -0.005435471
0.09073729 0.13045447 0.0009215035 0.09861114 0.20126769 0.047621205 -0.28418243 -0.080155715
00000000: bd52 933b 5162 29be 7bcf 89bc b01d 0ebe
00000010: b86d afbd 53bb edbb b13d 8ebc fcf5 3d3d
00000020: c7b6 173e b32f 363e 75ec 28bd b42d 96bd
00000030: 9063 54bd d379 193e c792 6b3e f6db da3d
00000040: 1fa7 363e 1c57 85bc d81d 593d da20 a6bd
00000050: 512d 2c3d 4fbe 09bd b395 c5bb 5599 24bc
00000060: 46dd 5dbd 8bce cebd af74 053e 55c8 143e
00000070: f7f5 c1bc f977 4d3d 3790 723d f4f5 dd3d
00000080: 747d b23d c04f 113d fc62 3d3d 498c cd3a
00000090: 36da 653e e319 933d bbff 3f3d 2d50 acbd
000000a0: a58c 7e3d 798f 4b3d 460d ffbd 7414 993d
000000b0: b078 793e b964 91bd 5d9a 29be 6c0a e3bc
000000c0: 682c 653e d35b 11ba bc5f 793c 8fdd 293e
000000d0: 94c3 893e 369c 353e bc85 5ebd c42f 9cbc
000000e0: 9842 853e 135b 853e 7dd1 e0bd 5df7 bf3d
000000f0: 627d 4c3e f711 b1bd cf52 683e 0d9c 9cbc
00000100: dc43 6c3e e60c a53d c480 32be e383 8c3d
00000110: 361f 033c 8981 c6bd 25fe 5fbc 851f 483e
00000120: 4112 aebd 6806 b2bd e360 e8bd fb1a 773e
00000130: 0fd1 35bc ed05 b8bd c576 b9bc 1770 633e
00000140: a821 94bc 55b1 863d f888 463d e917 65bd
00000150: f082 05be b963 4dbd d56f 113e c81a 083e
00000160: f28f 8ebd 51dc 3cbc 7478 debc 4a67 183e
00000170: 0757 1dbd 45fa e9bd fba1 b63c f848 b4bc
00000180: a21c c13c 723d f73d 6e20 cabc 2959 4b3d
00000190: 3c4e 243d bb0b a8bc 06b7 723e 1915 dfbc
000001a0: a1f4 bbbd acce 82be 6c60 acbd ff24 843e
000001b0: f62e b7bd 88c6 4cbd 5774 683e e0cb 5dbd
000001c0: 0bc8 b8bb 23a4 0b3d 3e57 203e cb68 ebbb
000001d0: 8549 c3bd 2d16 4bbd c8f8 04bb 091c b2bb
000001e0: 79d4 b93d db95 053e 0e91 713a a3f4 c93d
000001f0: 1e19 4e3e 740e 433d 5c80 91be ae28 a4bd

weight f4 [1, 128]
1.0565709 -0.43227735 1.0132151 -0.5975208 -0.5433933 0.048444502 -0.51422125 -0.4757534
0.8653141 1.1706388 1.5163482 -0.48154324 -0.5166447 0.902672 0.9679084 1.9888887
1.1930205 -1.3271301 1.0491109 -0.7686085 1.0283153 -0.48575592 -0.7154011 0.079142235
0.9568944 -0.4929797 1.1888745 1.7246978 -0.49436662 1.5273913 0.75683194 1.038246
1.1062335 -0.45993674 1.3522904 -0.45893577 0.8686767 0.9395873 0.7831207 0.03128872
0.79281354 -0.39629146 -0.49350747 -0.77068204 0.8351837 -0.65944386 -0.84887123 -0.5508574
0.6608623 -0.570852 -0.4994044 0.98591757 0.7308763 1.2498999 -0.5936934 -0.8129244
0.6709937 0.729367 -0.52384603 -0.47479844 0.69024825 0.054342844 1.0672946 -0.64188963
0.7280343 1.0566624 -1.1186452 1.1175314 -0.5039486 -0.5072857 -0.51752895 0.7472798
-0.5864898 -0.0021849042 -0.5252913 0.6904392 -0.54263556 -0.50070643 -0.55049884 0.7538595
-0.5008396 -0.4127578 -0.72100616 0.051340215 -0.49460995 -0.5598296 0.8165691 0.9120094
1.2092347 -0.47348985 -0.51485026 0.7055242 -0.527881 -0.66074646 -0.5851575 -0.46747923
0.8997373 0.56457096 -0.3527586 0.9595331 -0.5614491 -0.53865397 0.6989353 -0.54461557
-0.73921543 -1.1109276 -0.6624672 0.6805851 -0.56416297 0.006091331 0.8476156 -0.56418425
-0.45889214 -0.38961688 1.1489501 -0.5884655 -0.47135863 0.0037461729 -0.42475125 -0.52356434
1.7330023 1.9170411 -0.5227256 0.8031364 0.6874996 -0.6501596 -1.0957888 -0.6103943
00000000: b73d 873f 7553 ddbe 08b1 813f 20f7 18bf
00000010: d31b 0bbf be6d 463d 01a4 03bf f395 f3be
00000020: 3a85 5d3f 7ed7 953f b317 c23f d68c f6be
00000030: d442 04bf 8315 673f d8c8 773f e893 fe3f
00000040: e5b4 983f 66df a9bf 4449 863f 87c3 44bf
00000050: d69f 833f 00b5 f8be 8724 37bf 5315 a23d
00000060: 08f7 743f d667 fcbe 0a2d 983f e6c2 dc3f
00000070: 9f1d fdbe 8f81 c33f bdbf 413f 3fe5 843f
00000080: 0f99 8d3f d47c ebbe da17 ad3f a1f9 eabe
00000090: 9961 5e3f cb88 703f 997a 483f 9a28 003d
000000a0: d4f5 4a3f b7e6 cabe 03ad fcbe 6b4b 45bf
000000b0: 99ce 553f 50d1 28bf a04f 59bf fe04 0dbf
000000c0: 462e 293f 5b23 12bf efb1 ffbe 1865 7c3f
000000d0: b61a 3b3f b8fc 9f3f 4afc 17bf d01b 50bf
000000e0: 3ec6 2b3f ccb7 3a3f c61a 06bf c818 f3be
000000f0: 1cb4 303f 9a96 5e3d 1c9d 883f e152 24bf
00000100: 7560 3a3f b740 873f c42f 8fbf 450b 8f3f
00000110: c702 01bf 7add 01bf c77c 04bf bb4d 3f3f
00000120: 3224 16bf 9c30 0fbb 7e79 06bf a0c0 303f
00000130: 2aea 0abf 4c2e 00bf 7eed 0cbf f0fc 403f
00000140: 0637 00bf fe54 d3be dc93 38bf 1e4a 523d
00000150: 843d fdbe fe50 0fbf ac0a 513f 7379 693f
00000160: 34c8 9a3f 436d f2be 3acd 03bf 3c9d 343f
00000170: 3623 07bf ae26 29bf e2cc 15bf 7059 efbe
00000180: 2f55 663f b987 103f c69c b4be f6a3 753f
00000190: 21bb 0fbf 3ae5 09bf 6ced 323f ed6b 0bbf
000001a0: 393d 3dbf e032 8ebf 7397 29bf d33a 2e3f
000001b0: fc6c 10bf ca99 c73b 56fd 583f 616e 10bf
000001c0: e9f3 eabe dd7b c7be cc10 933f ada5 16bf
000001d0: eb55 f1be 5a82 753b ff78 d9be 5008 06bf
000001e0: 05d3 dd3f 9a61 f53f 58d1 05bf 599a 4d3f
000001f0: f9ff 2f3f dc70 26bf cf42 8cbf cd42 1cbf

weight f4 [128, 128]
-0.008696789 -0.012910928 -0.031542864 -0.06237871 0.039454374 -0.066403784 0.054600257 0.0040946417
0.060675636 -0.03144366 0.035024192 -0.089138 -0.08781535 -0.018530447 0.04481311 -0.0753064
0.05005817 -0.06394514 0.07872017 0.042523492 0.046361912 -0.0041543627 0.04957098 -0.091575816
-0.026833767 0.026866809 -0.00015083303 -0.0977568 -0.0947471 -0.07775633 -0.028313985 -0.022606323
-0.011067304 0.018359749 -0.07770998 -0.034649152 -0.02938081 -0.08647982 0.07018126 0.054692898
0.006637541 -0.011515457 -0.09319981 0.049377304 -0.04495832 -0.056187063 0.024495061 -0.056422286
-0.0021983585 0.042056683 -0.07876521 0.067092285 -0.06735217 -0.026160052 -0.093756616 0.048599906
-0.075745724 0.065373674 -0.101530656 0.058485933 0.016595896 0.057582885 -0.035014607 -0.075651325
-0.041917358 -0.03706789 -0.07465255 0.044861265 0.04305835 -0.045178704 0.0594626 -0.009666014
0.07024776 -0.04741872 0.03894948 -0.07464393 0.016399404 0.036355447 -0.015403022 0.012572429
-0.10069729 -0.014839339 -0.087043084 -0.07200597 -0.08913252 0.041381955 -0.056613065 -0.055095594
-0.09147743 0.015789209 -0.017460667 -0.06703108 0.039683964 -0.013029687 0.043712843 0.05358945
-0.048763867 -0.098767616 -0.039201364 -0.102159806 0.0046753557 -0.026356813 0.06087652 0.041070517
-0.088133164 0.062169846 -0.052858647 -0.070256114 0.064094506 -0.00124209 -0.0002411083 -0.059324846
-0.056062043 0.0024302595 -0.038004793 0.04404393 0.062285267 -0.097016 -0.0058588577 0.07286797
0.037372984 -0.017687423 0.040945746 -0.011464103 0.040882476 -0.063695855 0.060395867 -0.046064325
0.050237015 0.038317516 0.25655323 -0.018648634 -0.015520989 -0.12933664 0.10332888 0.3240335
0.13084865 -0.010293398 -0.17941895 0.0055813547 0.3913176 0.12271206 -0.08243394 -0.07909
0.056613024 -0.7768942 -0.049050916 0.4285866 -0.07768502 -0.00973861 -0.8071109 0.102970265
-0.08113288 0.14419152 -0.22405472 0.17699996 0.04097022 0.27099356 -0.06627237 0.03241175
-0.1764012 -0.070322394 0.29304555 0.004028595 -0.17974177 -0.09256795 0.10716147 -0.14869097
-0.44375604 -0.16642356 -0.22566773 0.44797277 0.09876101 0.25114733 -0.0028313454 0.015606352
-0.08065096 -0.18920432 0.0014630633 0.08326165 -0.015046165 -0.01800491 -0.21737987 -0.1470782
-0.3103537 -0.082187906 -0.043639395 0.1672956 0.11204553 -0.112576164 0.16297686 -0.3037499
-0.13249986 0.024299026 -0.026451837 0.2397826 0.27464798 0.030468283 0.16481791 0.0661094
-0.18996362 0.12615977 -0.036772355 -0.12603733 3.1455296e-05 -0.6531126 -0.005715884 0.08549494
0.014676147 -0.12943682 -0.13564557 -0.060853984 -0.13650039 0.012033962 -0.16592735 -0.39848468
-0.34619293 -0.3533933 0.21447778 -0.007875084 -0.09017644 0.043102767 0.17564411 0.028094657
0.022344993 -0.23598762 0.017707827 -0.06808719 0.0029324712 -0.20602009 -0.082286544 0.04653741
0.04756648 -0.035521857 0.09382741 -0.2892894 0.03142741 0.09042733 -0.23406072 0.17733094
-0.03002286 -0.101112954 0.056414057 0.21529235 0.14558083 0.2063223 -0.2652803 -0.0047635385
0.5133616 -0.013126845 0.050389692 -0.23978265 -0.019771669 0.018324703 0.06097749 0.059758067
00000000: fa7c 0ebc 5b88 53bc 1733 01bd d180 7fbd
00000010: e99a 213d b5fe 87bd 85a4 5f3d 582c 863b
00000020: 0487 783d 11cb 00bd 8775 0f3d fc8d b6bd
00000030: 89d8 b3bd 2acd 97bc f48d 373d 3e3a 9abd
00000040: cc09 4d3d abf5 82bd 0a38 a13d 1d2d 2e3d
00000050: fde5 3d3d 5221 88bb f10a 4b3d 1a8c bbbd
00000060: 7dd2 dbbc c817 dc3c ef28 1eb9 b834 c8bd
00000070: c40a c2bd b63e 9fbd bbf2 e7bc e530 b9bc
00000080: a353 35bc 2f67 963c 6926 9fbd 45ec 0dbd
00000090: 06b0 f0bc 551c b1bd 31bb 8f3d a905 603d
000000a0: bb7f d93b 54ab 3cbc 8bdf bebd db3f 4a3d
000000b0: 3726 38bd 6824 66bd dea9 c83c 0e1b 67bd
000000c0: 5612 10bb a143 2c3d a84f a1bd ae67 893d
000000d0: efef 89bd 9b4d d6bc 7803 c0bd b210 473d
000000e0: 9320 9bbd a2e2 853d 4eef cfbd f28e 6f3d
000000f0: 1ef4 873c 08dc 6b3d 7a6b 0fbd 15ef 9abd
00000100: 89b1 2bbd 80d4 17bd 70e3 98bd 72c0 373d
00000110: f45d 303d 4e0d 39bd 0e8f 733d 345e 1ebc
00000120: 0fde 8f3d 223a 42bd 7d89 1f3d ebde 98bd
00000130: 0b58 863c 73e9 143d f55c 7cbc 97fc 4d3c
00000140: 613a cebd b320 73bc a543 b2bd de77 93bd
00000150: 1c8b b6bd 2080 293d 1ae3 67bd ebab 61bd
00000160: 8558 bbbd 5f58 813c ac09 8fbc 9747 89bd
00000170: a78b 223d 787a 55bc 3d0c 333d 9c80 5b3d
00000180: 9fbc 47bd ad46 cabd 9c91 20bd 2939 d1bd
00000190: ba33 993b 3eea d7bc a859 793d 8f39 283d
000001a0: 297f b4bd cfa5 7e3d 4f82 58bd 70e2 8fbd
000001b0: fb43 833d a0cd a2ba 04d2 7cb9 9cfe 72bd
000001c0: 50a1 65bd fd44 1f3b eaaa 1bbd 6867 343d
000001d0: d61e 7f3d 53b0 c6bd a9fb bfbb cd3b 953d
000001e0: 6a14 193d 37e5 90bc bab6 273d efd3 3bbc
000001f0: 6274 273d f972 82bd a861 773d f2ad 3cbd
00000200: 54c5 4d3d d4f2 1c3d f25a 833e 05c5 98bc
00000210: bf4b 7ebc d370 04be 189e d33d b8e7 a53e
00000220: 30fd 053e a4a5 28bc 9ab9 37be cce3 b63b
00000230: c85a c83e 7650 fb3d 20d3 a8bd f0f9 a1bd
00000240: 0fe3 673d 8ae2 46bf 9de9 48bd b46f db3e
00000250: 5319 9fbd b18e 1fbc d29e 4ebf 13e2 d23d
00000260: ff28 a6bd f1a6 133e 9a6e 65be 7a3f 353e
00000270: 64d0 273d abbf 8a3e cfb9 87bd 2fc2 043d
00000280: 84a2 34be 3005 90bd 110a 963e 4e02 843b
00000290: 3a0e 38be 4494 bdbd 7977 db3d 7242 18be
000002a0: fe33 e3be f06a 2abe 7115 67be b05c e53e
000002b0: 3643 ca3d 6296 803e 188e 39bb c9b1 7f3c
000002c0: 552c a5bd c7be 41be 42c4 bf3a 1585 aa3d
000002d0: 3184 76bc 087f 93bc d498 5ebe ab9b 16be
000002e0: aee6 9ebe 2252 a8bd 39bf 32bd 8a4f 2b3e
000002f0: 2078 e53d 558e e6bd 68e3 263e 1b85 9bbe
00000300: 0bae 07be c00e c73c 86b1 d8bc 9289 753e
00000310: a99e 8c3e 9f98 f93c 07c6 283e 5d64 873d
00000320: d385 42be 0730 013e 9c9e 16bd ee0f 01be
00000330: deee 0338 6332 27bf 4f4c bbbb f917 af3d
00000340: 3974 703c 168b 04be ace6 0abe 0742 79bd
00000350: c2c6 0bbe 182a 453c dce8 29be 2f06 ccbe
00000360: 3340 b1be f7ef b4be 10a0 5b3e 7f06 01bc
00000370: 6dae b8bd 878c 303d 0ddc 333e c426 e63c
00000380: d90c b73c bda6 71be 0110 913c 4c71 8bbd
00000390: b42e 403b eef6 52be d985 a8bd 039e 3e3d
000003a0: 12d5 423d 5e7f 11bd 9628 c03d be1d 94be
000003b0: 07ba 003d f731 b93d 9dad 6fbe 3e96 353e
000003c0: 80f2 f5bc 4f14 cfbd 6d12 673d 9975 5c3e
000003d0: 2413 153e 2746 533e d2d2 87be 7517 9cbb
000003e0: aa6b 033f fa11 57bc 6c65 4e3d 9589 75be
000003f0: 32f8 a1bc b01d 963c 88c3 793d e0c4 743d

bias f4 [128]
0.037663136 0.09086225 0.055016767 0.020258352 0.15139727 0.08477845 0.10448535 0.080271594
0.026689181 -0.06316378 0.11236731 0.0041881804 0.045285087 0.16264534 0.009468592 0.16496283
0.05262517 0.08514164 0.012451291 0.0034290191 0.13954578 -0.028064294 -0.06878374 0.04650852
-0.10810908 0.10788453 -0.03507229 -0.094506346 -0.100609906 0.07163127 -0.06298346 0.080494866
-0.03808551 0.12910618 0.008835819 0.053735185 0.07987523 0.041733094 -0.04234878 -0.0048817745
0.011786364 0.12239223 -0.024282 0.091565855 -0.009687868 0.06212638 0.04170353 -0.045020174
0.0906066 0.063498266 0.111179136 0.03641453 -0.0056685954 -0.043039344 0.08273302 0.06907285
0.059435133 0.034765813 -0.068991326 0.08486165 0.011602153 -0.0642477 0.023417205 0.012117348
-0.019205071 -0.1299379 0.07823093 0.013642034 0.019636014 0.06750171 0.12667948 0.11904351
-0.10234915 0.08107337 0.10737745 0.1389597 0.0783366 0.11771633 -0.007701586 0.052403457
0.11956289 0.036356386 0.10570079 -0.0055397786 -0.083114296 -0.009037006 -0.017348759 -0.0018158704
0.06100887 -0.041600138 0.0091784345 0.07100973 0.078019194 0.11579109 -0.055278093 -0.065272436
-0.025110379 -0.117763855 -0.08480908 -0.0023830438 0.03493643 0.057366543 0.10720873 -0.038141347
0.12286017 0.068602294 0.046246793 0.032951545 0.09841412 0.035028588 0.13508143 0.18106441
-0.09605488 0.08131545 0.11988541 -0.040645033 0.090707585 0.15155241 0.01730853 -0.09020735
0.07401208 0.06313675 -0.058079537 -0.10610192 0.0087634185 0.111299135 -0.09922514 0.0675629
00000000: a944 1a3d fd15 ba3d 4359 613d d8f4 a53c
00000010: e307 1b3e 53a0 ad3d 6afc d53d 6f65 a43d
00000020: 45a3 da3c 035c 81bd d520 e63d 013d 893b
00000030: db7c 393d 808c 263e 2722 1b3c 04ec 283e
00000040: 7e8d 573d bd5e ae3d 8000 4c3c 65b9 603b
00000050: 17e5 0e3e 17e7 e5bc 7dde 8cbd b87f 3e3d
00000060: 4b68 ddbd 91f2 dc3d f6a7 0fbd 8b8c c1bd
00000070: 910c cebd 6ab3 923d 79fd 80bd 7eda a43d
00000080: 8dff 1bbd 6934 043e 1cc4 103c 6d19 5c3d
00000090: a095 a33d 52f0 2a3d ea75 2dbd 4bf7 9fbb
000000a0: 981b 413c c7a8 fa3d 0beb c6bc e186 bb3d
000000b0: ddb9 1ebc 3b78 7e3d 52d1 2a3d 1367 38bd
000000c0: f48f b93d 610b 823d e3b1 e33d 6727 153d
000000d0: a0bf b9bb 064a 30bd ee6f a93d 1176 8d3d
000000e0: 4172 733d 9966 0e3d 534b 8dbd f2cb ad3d
000000f0: f516 3e3c 4c94 83bd 70d5 bf3c d787 463c
00000100: f453 9dbc 710e 05be 8a37 a03d d682 5f3c
00000110: b5db a03c 563e 8a3d 44b8 013e 15cd f33d
00000120: 6e9c d1bd cc09 a63d b5e8 db3d 744b 0e3e
00000130: f06e a03d 4215 f13d 965d fcbb 02a5 563d
00000140: 63dd f43d 6fea 143d a879 d83d 0887 b5bb
00000150: d437 aabd f30f 14bc fc1e 8ebc 8002 eeba
00000160: 70e4 793d e864 2abd 2561 163c 8d6d 913d
00000170: 87c8 9f3d e123 ed3d 486b 62bd 8ead 85bd
00000180: 48b4 cdbc 2d2e f1bd 62b0 adbd d72c 1cbb
00000190: 8119 0f3d 2ef9 6a3d 4090 db3d 1a3a 1cbd
000001a0: 1d9e fb3d 5c7f 8c3d 476d 3d3d 33f8 063d
000001b0: 588d c93d 237a 0f3d c952 0a3e f368 393e
000001c0: 6cb8 c4bd b788 a63d 7b86 f53d 687b 26bd
000001d0: e6c4 b93d 8e30 1b3e 9eca 8d3c a2be b8bd
000001e0: a593 973d d74d 813d cfe4 6dbd f74b d9bd
000001f0: 7194 0f3c cdf0 e33d 8d36 cbbd 6b5e 8a3d

weight f4 [4, 128]
0.071105115 0.16633211 0.07698163 -0.15958631 0.20910305 0.046595972 0.12502755 -0.05009807
-0.048030484 0.15741104 -0.06901153 0.048701722 -0.5249225 -0.021858545 -0.10965271 0.23670158
-0.06325723 -0.14881034 -0.20767511 -0.38171747 0.16126898 -0.14563784 0.19837527 0.36224005
-0.0077404873 0.014663164 0.090243146 -0.16529885 0.22890663 0.30505088 -0.040919773 -0.20446396
-0.33240485 -0.20071244 -0.17052408 0.1513024 -0.251476 0.42485026 -0.08790423 0.22062817
0.061224435 -0.083410956 0.09287451 0.3142085 0.13592318 0.037976254 -0.11295495 0.1813233
0.06253232 -0.00044180598 -0.035913095 0.4605846 -0.5100831 0.32081732 0.099502936 0.18139626
0.2403045 -0.19925779 0.06611969 -0.18978707 -0.18061207 0.13390426 -0.14100584 -0.08186508
0.21801512 0.19316094 -0.112126596 0.052698117 -0.031634685 -0.3033088 0.21292426 -0.073225744
-0.63102883 -0.28375837 -0.33628356 0.11619087 -0.15265872 -0.11816559 -0.21408352 0.008087083
-0.012914631 -0.12068378 0.047367964 0.22674963 -0.38177556 0.025267787 -0.39060837 -0.01225443
0.19214575 0.09236336 -0.4510246 -0.51360524 -0.1050107 0.055032566 -0.19299918 0.021489948
0.16384973 0.01944457 -0.002717918 0.27734852 -0.09710887 -0.065532036 -0.019314237 0.06800712
-0.06951195 -0.1949332 -0.019067822 -0.556733 -0.024326323 0.16031575 -0.17450963 0.106545694
-0.28068912 -0.098386385 0.0003722301 0.0044835024 0.15694988 0.002538265 -0.03913648 -0.02963416
0.083139695 -0.057760544 -0.022957575 0.20520568 -0.33746207 -0.26788226 0.40362182 0.20966193
-0.065035604 0.71173394 -0.32810205 0.054384954 0.33332518 0.28772858 0.24686973 -0.30769578
0.4796269 -0.004769973 0.29380134 -0.07213035 -0.37438712 -0.6559177 -0.4279769 0.2953972
0.1831926 0.20778114 -0.13836405 -0.26102632 0.50103533 0.32028106 -0.23028523 0.07404966
0.118724674 -0.4816253 -0.21899106 -0.59508 0.24443592 -0.10201702 -0.012397234 -0.0488807
0.055428848 -0.771563 -0.041979704 0.40668523 -0.23693584 0.6657017 -0.0375448 0.253863
0.07089926 -0.31874827 -0.34050715 0.74803257 -0.51189786 -0.17498875 0.36266315 -0.07349033
-0.21151526 -0.31664112 0.32558888 -0.07788084 -0.25642747 -0.31209204 -0.40237865 0.21215512
0.31997427 0.18470292 0.025451362 -0.60957444 0.38229918 -0.07106499 -0.33473045 -0.16041331
-0.81548226 0.40006685 -0.051013254 -0.1208866 0.028449314 -0.6259174 0.08867285 -0.24662696
0.45550004 -0.11468978 0.04970082 -0.1109021 0.1815464 0.22196585 -0.063406 -0.5764404
-0.7239474 -1.0762281 -0.16116089 0.19314526 0.09221463 -0.14070296 0.45794326 -0.27807936
-0.050273232 0.36981577 -1.3697748 -0.077817515 0.0074236644 0.084379576 -0.044214964 -0.03173072
-0.43365744 0.57823914 -0.07484954 -0.2241532 -0.41614148 -0.30570114 0.06939528 -0.104766406
-0.60728556 0.24623524 -0.058125343 0.36803317 0.041360922 0.4340138 -0.055730242 0.45491442
-0.3195186 -0.40121675 0.031191535 0.38445485 0.010924022 -0.4648007 0.18239401 -0.05355919
1.1255563 -0.12977296 -0.02395238 0.30396077 -0.69036996 -0.6260674 0.46858925 -0.5077842
00000000: 8f9f 913d f752 2a3e 8ba8 9d3d 986a 23be
00000010: 1c1f 563e 6bdb 3e3d 3907 003e a233 4dbd
00000020: 9dbb 44bd 5c30 213e eb55 8dbd 757b 473d
00000030: 5261 06bf b110 b3bc 9a91 e0bd e661 723e
00000040: 028d 81bd bd61 18be c9a8 54be 7970 c3be
00000050: b223 253e 1622 15be e322 4b3e 8777 b93e
00000060: eaa3 fdbb c43d 703c 66d1 b83d 1a44 29be
00000070: 8066 6a3e a12f 9c3e 7e9b 27bd 005f 51be
00000080: f830 aabe 9087 4dbe dd9d 2ebe 04ef 1a3e
00000090: 76c1 80be f985 d93e 2207 b4bd 5aec 613e
000000a0: 79c6 7a3d 5dd3 aabd fe34 be3d f0df a03e
000000b0: 722f 0b3e fd8c 1b3d ed54 e7bd d1ac 393e
000000c0: f210 803d 32a2 e7b9 9c19 13bd bfd1 eb3e
000000d0: ce94 02bf 2b42 a43e 32c8 cb3d f1bf 393e
000000e0: 6212 763e 3c0a 4cbe c369 873d 8b57 42be
000000f0: 5ff2 38be 331e 093e d663 10be e1a8 a7bd
00000100: 5b3f 5f3e fbcb 453e a1a2 e5bd fbd9 573d
00000110: 5f93 01bd 4b4b 9bbe d108 5a3e 61f7 95bd
00000120: 1b8b 21bf c748 91be 5c2d acbe 7bf5 ed3d
00000130: 9152 1cbe cd00 f2bd b638 5bbe af7f 043c
00000140: e397 53bc 0f29 f7bd e904 423d 0e31 683e
00000150: 1678 c3be 64fe ce3c d2fd c7be cec6 48bc
00000160: dbc1 443e 0029 bd3d b2ec e6be a27b 03bf
00000170: da0f d7bd d469 613d 94a1 45be b00b b03c
00000180: 39c8 273e 384a 9f3c 191f 32bb a000 8e3e
00000190: 04e1 c6bd a935 86bd e438 9ebc 5147 8b3d
000001a0: 485c 8ebd 929c 47be 1f34 9cbc 0e86 0ebf
000001b0: ff47 c7bc d029 243e a7b2 32be a134 da3d
000001c0: 7cb6 8fbe cd7e c9bd e127 c339 58ea 923b
000001d0: 78b7 203e 0559 263b 934d 20bd 57c3 f2bc
000001e0: 2545 aa3d 5296 6cbd 8611 bcbc 7021 523e
000001f0: d4c7 acbe dd27 89be 85a7 ce3e 9eb1 563e
00000200: 6331 85bd 3234 363f fefc a7be c2c2 5e3d
00000210: 99a9 aa3e 2951 933e 6bcb 7c3e 4d8a 9dbe
00000220: a891 f53e 6f4d 9cbb 216d 963e 14b9 93bd
00000230: abaf bfbe 39ea 27bf ca1f dbbe 4d3e 973e
00000240: d796 3b3e 94c4 543e 4eaf 0dbe 3ea5 85be
00000250: da43 003f e1fb a33e e4cf 6bbe 59a7 973d
00000260: ec25 f33d 9797 f6be 313f 60be 2a57 18bf
00000270: 694d 7a3e 4dee d0bd c51d 4bbc 2137 48bd
00000280: 5c09 633d 2785 45bf e9f2 2bbd 0c39 d03e
00000290: 4f9f 72be 6d6b 2a3f 94c8 19bd 55fa 813e
000002a0: a233 913d f932 a3be f456 aebe 107f 3f3f
000002b0: bd0b 03bf 4030 33be fcae b93e 1982 96bd
000002c0: 7597 58be c91e a2be 96b3 a63e fd7f 9fbd
000002d0: 764a 83be 87ca 9fbe 9304 cebe 313f 593e
000002e0: abd3 a33e c322 3d3e 607f d03c 120d 1cbf
000002f0: b8bc c33e 858a 91bd ca61 abbe 6343 24be
00000300: 72c3 50bf 90d5 cc3e 46f3 50bd 6593 f7bd
00000310: 890e e93c 1f3c 20bf 1c9a b53d c78b 7cbe
00000320: 4d37 e93e 7ae2 eabd 1693 4b3d a420 e3bd
00000330: 4de7 393e 044b 633e 01db 81bd 9991 13bf
00000340: 9e54 39bf d8c1 89bf 5c07 25be dfc7 453e
00000350: 06db bc3d 7014 10be 8a77 ea3e 6b60 8ebe
00000360: 4eeb 4dbd 7e58 bd3e c854 afbf ca5e 9fbd
00000370: 3642 f33b 33cf ac3d c01a 35bd 12f8 01bd
00000380: 5908 debe 7b07 143f b74a 99bd 6b88 65be
00000390: 7f10 d5be dc84 9cbe 1d1f 8e3d c58f d6bd
000003a0: 1177 1bbf 1725 7c3e d714 6ebd d86e bc3e
000003b0: 126a 293d 0f37 de3e 6545 64bd 8bea e83e
000003c0: f197 a3be 486c cdbe 6485 ff3c 44d7 c43e
000003d0: abfa 323c 5bfa edbe 7fc5 3a3e e260 5bbd
000003e0: 3b12 903f 34e3 04be c837 c4bc bfa0 9b3e
000003f0: 16bc 30bf f445 20bf eeea ef3e 25fe 01bf

bias f4 [4]
-0.0014699455 0.028126927 -0.06053921 0.053449135
00000000: 30ab c0ba 716a e63c f6f7 77bd 7bed 5a3d
