problem1/models/underway/success_whole_model_1767028700.pth (torch, 146613 bytes, 9 tensors)

weight f4 [128, 8]
0.1608196 -0.11062771 -0.5187311 -0.73081195 0.36011115 -0.15584555 0.04670698 0.21614544
-0.26433465 0.17845434 -0.42323476 0.84833276 0.14927158 -0.2509882 0.003971186 0.032509893
0.17351551 0.20545977 -0.31606013 0.4601504 0.091718726 0.4708921 0.5091664 0.33782166
-0.27777466 -0.30442715 -0.18788518 -0.640811 0.35080045 -0.026159814 -0.07760688 -0.0982136
-0.06947996 -0.114427604 0.12155182 0.22774361 0.14805935 0.48520306 0.52389276 0.22571747
0.03530606 0.44489527 -0.52106357 0.068261914 0.531804 -0.36384463 -0.21881628 -0.16247599
0.5370873 0.46353573 -0.39946434 0.041589618 0.24503498 0.12573549 -0.22864467 0.093463525
0.14359808 -0.0787357 -0.12679107 0.10156619 -0.096491314 -0.7491607 0.059187137 0.297306
0.124112144 -0.1456167 -0.123608045 -0.06022625 -0.2796286 -0.6299129 -0.56264627 0.2599825
-0.15182768 -0.4621189 0.17745315 -0.5644695 -0.011134078 -0.28597164 -0.59922683 0.041936144
0.528873 -0.06882691 -0.24097155 -0.23394367 0.21078995 -0.3089567 -0.21075219 -0.28977594
0.010242302 0.46825558 0.26367584 0.77617013 -0.12779379 -0.15525047 -0.043060254 -0.39734948
-0.44505125 0.37854525 0.38729003 -0.2490141 -0.3517423 0.4880963 -0.0036048542 -0.32504466
-0.038285267 -0.05526471 0.29598886 -0.3026052 0.04547566 0.34866458 0.2893029 -0.014821339
-0.011734071 -0.30726966 -0.03767333 -0.71284103 -0.010434321 -0.37011203 0.23648271 -0.1330931
-0.14245692 -0.10541304 0.047815256 1.1681869 0.33427033 -0.32343805 -0.24517497 0.54380834
0.23106503 0.33893844 0.37420994 1.5269904 0.3296092 -0.0959608 -0.12355065 -0.34538978
0.1310061 0.40984553 -0.42746827 -0.102379225 0.40134862 -0.17134303 -0.1920936 0.28630868
-0.36949584 0.2924172 -0.15320903 0.10180142 0.5640646 0.39565733 -0.50874466 -0.32821652
-0.05926101 -0.29038638 0.3367923 1.417136 0.044302028 0.41583183 0.44078055 0.29691792
-0.30628368 -0.06792078 1.0288996 0.7342589 0.45106754 -0.0077590006 -0.13772394 0.48561364
0.22066092 -0.055440877 -0.101685524 -0.18884453 0.08054218 -0.67698616 -0.45515898 0.12417572
0.22030218 -0.19091558 0.20322494 -0.15774065 -0.23396347 -0.34686193 0.17159632 -0.08028696
0.015142312 0.45772308 0.29005915 0.16463192 -0.25090536 -0.50045884 -0.0065665566 0.40339655
-0.027481051 0.014357869 -0.27364054 0.43724874 0.29651248 0.4466802 -0.2737097 -0.2697068
0.45789546 -0.046056632 0.41491765 -0.4436612 -0.6215333 0.07190945 0.14365938 -0.24109946
0.1475888 -0.3424318 0.14807646 -0.07141 0.222725 0.22671244 -0.100928 0.0935389
0.29890576 0.47252652 -0.26382828 1.1124903 -0.20931298 -0.07429224 -0.33080143 -0.19541442
-0.1517155 -0.22004338 -0.10227194 0.13023669 -0.05038919 0.5459423 -0.391553 -0.08476528
-0.30565292 -0.14221965 -0.23019443 0.02986847 0.60909843 0.7120605 0.04819362 0.13427657
-0.36925557 0.25069135 -0.20283486 -0.33085895 0.6863323 -0.20588459 0.14798933 -0.04387591
-0.2675528 -0.17262658 -0.22407529 -0.19175902 -0.0016704404 0.5304058 -0.14030884 -0.16140842
00000000: e5ad 243e c890 e2bd 90cb 04bf 7e16 3bbf
00000010: 7d60 b83e fa95 1fbe d14f 3f3d 3b55 5d3e
00000020: df56 87be bcbc 363e 3ab2 d8be 562c 593f
00000030: a6da 183e 8681 80be b920 823b 1829 053d
00000040: 0dae 313e 0c64 523e a2d2 a1be d598 eb3e
00000050: 07d7 bb3d c518 f13e bb58 023f f6f6 ac3e
00000060: 7b38 8ebe e0dd 9bbe f964 40be 310c 24bf
00000070: 1e9c b33e 1b4d d6bc 5bf0 9ebd 3624 c9bd
00000080: 824b 8ebd 0559 eabd 29f0 f83d 9f35 693e
00000090: df9c 173e 896c f83e d61d 063f 7b22 673e
000000a0: 169d 103d 50c9 e33e 6c64 05bf e7cc 8b3d
000000b0: 4f24 083f d849 babe 6011 60be 1b60 26be
000000c0: 8e7e 093f 8e54 ed3e 9786 ccbe e059 2a3d
000000d0: 73ea 7a3e cec0 003e d421 6abe ce69 bf3d
000000e0: 600b 133e 2f40 a1bd 85d5 01be ef01 d03d
000000f0: 3d9d c5bd ffc8 3fbf 366e 723d 7e38 983e
00000100: 822e fe3d 8b1c 15be 3726 fdbd cdaf 76bd
00000110: 7b2b 8fbe f941 21bf 9609 10bf 6d1c 853e
00000120: b778 1bbe d99a ecbe 47b6 353e 1381 10bf
00000130: b56b 36bc e06a 92be ee66 19bf 3cc5 2b3d
00000140: 3964 073f 1ff5 8cbd 3fc1 76be ee8e 6fbe
00000150: 52d9 573e 932f 9ebe 6ccf 57be 835d 94be
00000160: 54cf 273c 32bf ef3e 8500 873e 16b3 463f
00000170: 60dc 02be fbf9 1ebe f35f 30bd 6471 cbbe
00000180: c2dd e3be afd0 c13e e14a c63e 8dfd 7ebe
00000190: 9117 b4be c2e7 f93e 6b3f 6cbb 416c a6be
000001a0: 03d1 1cbd 405d 62bd da8b 973e 12ef 9abe
000001b0: b044 3a3d 2a84 b23e 821f 943e 34d5 72bc
000001c0: 4340 40bc 7352 9dbe 5a4f 1abd c07c 36bf
000001d0: b7f4 2abc 537f bdbe 8628 723e 8f49 08be
000001e0: 3ae0 11be cbe2 d7bd eed9 433d 2687 953f
000001f0: 7b25 ab3e ac99 a5be 260f 7bbe 0637 0b3f
00000200: 509c 6c3e 5789 ad3e 7298 bf3e 6c74 c33f
00000210: 89c2 a83e 1987 c4bd 2008 fdbd eed6 b0be
00000220: 7726 063e 46d7 d13e 1fdd dabe 33ac d1bd
00000230: 917d cd3e 8c74 2fbe 2fb4 44be 0d97 923e
00000240: 8f2e bdbe b5b7 953e d4e2 1cbe 437d d03d
00000250: 8a66 103f 9993 ca3e 173d 02bf ff0b a8be
00000260: acbb 72bd 86ad 94be 0a70 ac3e b664 b53f
00000270: 0b76 353d e9e7 d43e fdad e13e a005 983e
00000280: 37d1 9cbe 0d1a 8bbd fbb2 833f 64f8 3b3f
00000290: 53f2 e63e 373f febb 8107 0dbe 5aa2 f83e
000002a0: f0f4 613e f915 63bd 8040 d0bd 7660 41be
000002b0: 4cf3 a43d f74e 2dbf 990a e9be d74f fe3d
000002c0: e596 613e 607f 43be 331a 503e c486 21be
000002d0: 1f94 6fbe e397 b1be f2b6 2f3e 7d6d a4bd
000002e0: 7617 783c ae5a ea3e a282 943e 4595 283e
000002f0: ab76 80be 121e 00bf 452c d7bb fe89 ce3e
00000300: f11f e1bc 443d 6b3c 9d1a 8cbe 11df df3e
00000310: 7cd0 973e 44b3 e43e ae23 8cbe 0217 8abe
00000320: 4671 ea3e e1a5 3cbd 1670 d43e 9027 e3be
00000330: ce1c 1fbf 4345 933d 721b 133e c7e2 76be
00000340: 8521 173e 3953 afbe 5ba1 173e 683f 92bd
00000350: 0612 643e 4e27 683e 57b3 cebd 5391 bf3d
00000360: 2d0a 993e ffee f13e 8014 87be 1566 8e3f
00000370: 2456 56be 8826 98bd ce5e a9be b81a 48be
00000380: 4f5b 1bbe 0d53 61be f373 d1bd c45c 053e
00000390: e564 4ebd e0c2 0b3f a379 c8be 6b99 adbd
000003a0: 8a7e 9cbe 07a2 11be 17b8 6bbe b9ae f43c
000003b0: e0ed 1b3f 9949 363f ac66 453d cc7f 093e
000003c0: 110f bdbe 9e5a 803e f1b3 4fbe 5866 a9be
000003d0: 79b3 2f3f 69d3 52be 848a 173e 3ab7 33bd
000003e0: aefc 88be 06c5 30be fe73 65be 7a5c 44be
000003f0: aef2 daba adc8 073f 1fad 0fbe 4048 25be

bias f4 [128]
0.13409586 -0.26015583 0.3014475 0.435021 0.011437778 0.25977942 0.17717496 0.08719871
0.2804594 -0.12788832 0.16649014 0.16313669 0.24720281 0.21578428 0.09992121 -0.20548663
-0.43009445 0.4035233 -0.18163644 -0.23944272 0.044314988 0.20255318 0.38961977 -0.2411111
-0.32910457 -0.23886196 0.50874615 0.0035718938 0.2489352 -0.26332787 0.38186923 0.18428034
-0.041360952 0.13019255 0.44591323 0.40183872 0.11932393 0.16304182 -0.2121431 0.23144643
0.045027003 -0.060852416 0.20925994 0.20866215 0.15834436 0.25031447 0.015082746 0.3090402
0.19396235 -0.27217895 -0.17285761 0.41445968 -0.2251473 0.37186205 0.022363119 0.41387308
0.068499215 0.19024555 0.30061513 0.27421007 0.13742767 0.2645602 0.39722222 0.17121479
0.3553894 0.32456982 0.31432092 0.46418563 0.05223819 -0.0013516303 0.09924275 0.02150159
-0.0025954456 0.26536065 0.5132182 0.2446171 0.09785149 0.39600584 -0.35402498 0.13498338
0.45469746 0.38492143 0.09809103 0.50058156 0.36483294 0.18491288 -0.24426748 0.5203507
-0.07740481 0.39889586 0.26473868 0.051209133 0.53609526 0.3065393 0.21093166 0.22012259
0.38119876 0.32968742 0.3337896 -0.15028428 -0.41871443 0.13550863 0.20876704 0.29639643
0.065959945 0.04367084 -0.03553262 0.29930943 0.3308765 0.12549552 -0.114715084 0.46959063
0.030322056 -0.43280694 0.3913551 -0.11883818 0.2133914 0.08673196 0.25952134 0.51629674
0.2573068 0.09284162 -0.018001175 0.14505835 0.38893324 0.15850072 0.35793394 0.04880767
00000000: 6d50 093e 2533 85be 5457 9a3e 13bb de3e
00000010: 8565 3b3c cf01 853e 5a6d 353e 3d95 b23d
00000020: 6098 8f3e 28f5 02be 647c 2a3e 4e0d 273e
00000030: bc22 7d3e 8ef6 5c3e 7ea3 cc3d 166b 52be
00000040: 5735 dcbe 9b9a ce3e e7fe 39be 7930 75be
00000050: a283 353d 1a6a 4f3e 3e7c c73e d4e5 76be
00000060: 6580 a8be 3b98 74be 303d 023f 6f16 6a3b
00000070: dee8 7e3e e9d2 86be 5d84 c33e fcb3 3c3e
00000080: 1a6a 29bd 3251 053e bd4e e43e cebd cd3e
00000090: 1b60 f43d 6ff4 263e 0a3c 59be 4b00 6d3e
000000a0: 3c6e 383d 6240 79bd 3d48 563e 88ab 553e
000000b0: 0625 223e 3829 803e 9f1d 773c 843a 9e3e
000000c0: 119e 463e 0a5b 8bbe 9601 31be 0f34 d43e
000000d0: 048d 66be b464 be3e dc32 b73c 2ce7 d33e
000000e0: 5149 8c3d bbcf 423e 3aea 993e 4365 8c3e
000000f0: d7b9 0c3e 6f74 873e b660 cb3e ee52 2f3e
00000100: 99f5 b53e 042e a63e acee a03e bda9 ed3e
00000110: b6f7 553d 3029 b1ba c83f cb3d 1a24 b03c
00000120: 5a18 2abb 5add 873e 4562 033f e87c 7a3e
00000130: 5d66 c83d 47c1 ca3e c342 b5be 1539 0a3e
00000140: 1bce e83e 6c14 c53e f3e3 c83d 1d26 003f
00000150: 62cb ba3e cd59 3d3e 4121 7abe b435 053f
00000160: 6a86 9ebd 143c cc3e d48b 873e abc0 513d
00000170: 8a3d 093f b8f2 9c3e 78fe 573e d167 613e
00000180: 7c2c c33e cacc a83e 78e6 aa3e 1fe4 19be
00000190: bd61 d6be c6c2 0a3e 07c7 553e 46c1 973e
000001a0: 0216 873d 32e0 323d a78a 11bd 163f 993e
000001b0: a568 a93e e681 003e beef eabd 2f6e f03e
000001c0: f665 f83c df98 ddbe b25f c83e 6f61 f3bd
000001d0: 4683 5a3e 87a0 b13d fbdf 843e 062c 043f
000001e0: b8bd 833e bf23 be3d 3377 93bc 2d8a 143e
000001f0: 4222 c73e 034e 223e 1e43 b73e 8dea 473d

weight f4 [128, 128]
0.39446434 0.84351224 -0.18247584 0.23586372 -1.1919364 0.12743734 0.20449954 0.10710241
0.11242481 0.098610334 -0.08844915 0.19104287 -0.04780806 -1.6598209 -0.15601994 0.28293285
0.47930554 0.20356846 -0.15329583 -0.85647124 0.07535339 -0.021321177 -0.14442854 0.18788213
-0.2378711 -0.13632253 -0.6180575 0.21962543 -0.72673786 -0.42169738 0.033716995 -0.85861015
-0.4509807 -0.40874207 -0.020263642 0.06610773 -0.056485154 0.13387494 -0.7131565 0.28274527
1.2349383 -0.018569024 0.4447202 0.1683644 0.14881365 0.2829721 -0.4842336 0.16235141
-0.2294652 -0.38104483 0.016929207 -0.57393146 -0.12876815 -0.16893928 -0.68501 -0.17565389
-0.7329028 -0.7471976 -0.016557863 0.107091494 -0.23699954 -0.17611809 -0.009922426 0.17551188
0.17135212 0.07836117 -0.47887906 0.52758926 -1.3531798 0.5929664 0.15297157 0.38215455
0.46869946 -0.33778998 0.028804522 -0.3249458 -0.15668665 -0.15838882 -0.027849942 -0.6525413
-0.15859216 -0.13338427 0.0721206 -0.71285325 -0.38473144 -0.084431954 -0.2213305 0.1046899
-0.08415736 -0.58465105 -0.016758949 -0.1973494 0.042875793 -0.24451603 -0.82963914 0.057824787
0.11414918 -0.045408506 -0.1474307 -0.54051864 0.20690553 0.38432127 -0.20392758 -0.43847424
1.1332455 0.046506938 -0.23406516 0.30538812 0.6705517 0.027929427 -0.618484 -0.014768563
-0.47697493 0.475701 0.047346193 0.21905255 0.61762935 0.31267884 -0.5429966 0.10747098
-0.15348089 0.1380323 0.23429018 0.26926798 0.02071502 0.37466645 0.0013024255 -0.01363228
-0.28709996 -0.35771725 0.1494875 -0.2829685 0.20230705 -0.07890699 -0.21161905 0.2580466
0.17221282 0.49432337 0.06568683 0.31049109 -0.13055581 0.21431258 0.0671581 0.4624603
-0.14781491 -0.20777161 0.26061168 0.26891807 0.07528148 0.22671947 0.09783361 0.21374752
0.42620528 0.5504378 0.106587075 -0.08362264 -0.10302044 -0.04864563 -0.13619214 0.04651944
0.045967594 0.045005195 -0.08675968 0.08928725 -0.07443866 -0.031934794 0.25707173 0.22798662
-0.5133515 0.18546045 0.11817418 0.19580376 0.008676754 0.14603044 0.23158285 0.1817269
-0.09445261 0.21027605 0.18043883 0.17054482 0.24569973 0.033446148 0.14057817 0.12653734
-0.0773599 0.2654426 -0.006961992 0.32773784 0.12615371 0.0729233 -0.046110753 -0.30389625
-0.103610486 0.0512112 0.11504164 -0.5495206 0.19959295 -0.30273855 0.43958685 0.30309182
-0.596112 0.010343804 -0.109039724 0.11681358 0.16584936 -0.13102287 0.39021507 0.19597206
-0.10956646 -0.1083219 0.014656603 0.18142296 0.121942535 0.0067575844 0.5322445 -0.09137727
0.27906376 0.111543566 0.22635858 -0.19626696 -0.0058380635 0.058492832 0.22666135 0.18875043
-0.0057314234 0.09212457 0.040668514 0.16805859 0.61044025 -0.34590656 0.20579869 0.0901375
-0.3893332 0.41623926 -0.3204379 0.0012241856 -0.100907646 0.14459482 0.0783777 -0.17032464
0.080844805 -0.7352556 0.047369357 0.1127764 -0.2953933 0.75403285 0.07530446 -0.118150175
0.16715571 0.28541473 -0.29129592 -0.37324777 0.094348885 -0.2255581 0.036212586 0.12672496
00000000: 3bf7 c93e 6bf0 573f f2da 3abe 4286 713e
00000010: 5f91 98bf ef7e 023e 5468 513e 8258 db3d
00000020: fb3e e63d 37f4 c93d d424 b5bd bea0 433e
00000030: 62d2 43bd 0375 d4bf b1c3 1fbe 93dc 903e
00000040: 8967 f53e 4074 503e 95f9 1cbe b341 5bbf
00000050: e152 9a3d c0a9 aebc 13e5 13be 2c64 403e
00000060: 7b94 73be 2298 0bbe 0439 1ebf 7de5 603e
00000070: 7e0b 3abf b8e8 d7be d51a 0a3d e0cd 5bbf
00000080: f1e6 e6be a446 d1be f0ff a5bc 7d63 873d
00000090: fa5c 67bd 8316 093e 6d91 36bf fdc3 903e
000000a0: 7512 9e3f 111e 98bc 5eb2 e33e b867 2c3e
000000b0: 9b62 183e b8e1 903e 77ed f7be 733f 263e
000000c0: edf8 6abe 4f18 c3be 1faf 8a3c 2ced 12bf
000000d0: ccdb 03be 6bfe 2cbe d15c 2fbf 9dde 33be
000000e0: 859f 3bbf 5848 3fbf 5ba4 87bc c952 db3d
000000f0: 02b0 72be 4d58 34be ac91 22bc 63b9 333e
00000100: ee76 2f3e d27b a03d a32f f5be 1710 073f
00000110: ff34 adbf a5cc 173f 94a4 1c3e c3a9 c33e
00000120: 60f9 ef3e cff2 acbe 76f7 eb3c 4c5f a6be
00000130: 7772 20be ae30 22be 9025 e4bc f20c 27bf
00000140: fc65 22be e395 08be f7b3 933d 8d7d 36bf
00000150: 85fb c4be a9ea acbd 76a4 62be a967 d63d
00000160: b25a acbd b1ab 15bf 104a 89bc f615 4abe
00000170: 879e 2f3d 6962 7abe 3b63 54bf afd9 6c3d
00000180: 0cc7 e93d 45fe 39bd 13f8 16be 6e5f 0abf
00000190: 0bdf 533e c2c5 c43e 64d2 50be b27f e0be
000001a0: 300e 913f 0f7e 3e3d c7ae 6fbe d55b 9c3e
000001b0: 47a9 2b3f 41cc e43c f854 1ebf d8f7 71bc
000001c0: 0f36 f4be 158f f33e 15ee 413d 504f 603e
000001d0: f51c 1e3f 7117 a03e d301 0bbf bf19 dc3d
000001e0: 182a 1dbe 5758 0d3e c4e9 6f3e 7edd 893e
000001f0: 8cb2 a93c 48d4 bf3e 26b6 aa3a ed59 5fbc
00000200: c4fe 92be b726 b7be 4013 193e 3fe1 90be
00000210: 9429 4f3e fd99 a1bd aab2 58be af1e 843e
00000220: 8f58 303e f417 fd3e d186 863d b0f8 9e3e
00000230: 6cb0 05be c274 5b3e 308a 893d 99c7 ec3e
00000240: cb5c 17be 15c2 54be e56e 853e a1af 893e
00000250: 2d2d 9a3d 2629 683e fd5c c83d a1e0 5a3e
00000260: 9437 da3e 7ee9 0c3f 534a da3d 5942 abbd
00000270: 61fc d2bd a440 47bd f475 0bbe 2b8b 3e3d
00000280: 8448 3c3d 5e57 383d 0faf b1bd 3cdc b63d
00000290: 4c73 98bd 0fce 02bd e89e 833e 5375 693e
000002a0: 016b 03bf 58e9 3d3e 4e05 f23d c880 483e
000002b0: f228 0e3c 0189 153e 0e24 6d3e 9e16 3a3e
000002c0: 5f70 c1bd 9b52 573e f5c4 383e 4da3 2e3e
000002d0: b698 7b3e d4fe 083d b9f3 0f3e 0193 013e
000002e0: de6e 9ebd 18e8 873e 6c21 e4bb 41cd a73e
000002f0: 702e 013e d058 953d a1de 3cbd 4a98 9bbe
00000300: bc31 d4bd d6c2 513d f49a eb3d 62ad 0cbf
00000310: 1862 4c3e 8c00 9bbe 8711 e13e da2e 9b3e
00000320: cc9a 18bf 0f79 293c 3850 dfbd f53b ef3d
00000330: 6ad4 293e dc2a 06be 45ca c73e e6ac 483e
00000340: 6164 e0bd dfd7 ddbd 4022 703c f1c6 393e
00000350: 02bd f93d ba6e dd3b 2d41 083f 0224 bbbd
00000360: 72e1 8e3e f470 e43d 8bca 673e 35fa 48be
00000370: 3a4d bfbb 2e96 6f3d ea19 683e cb47 413e
00000380: aace bbbb ceab bc3d 0794 263d 8d17 2c3e
00000390: d045 1c3f aa1a b1be e4bc 523e 029a b83d
000003a0: ae56 c7be 501d d53e 7010 a4be da74 a03a
000003b0: aba8 cebd aa10 143e 7d84 a03d 9569 2ebe
000003c0: f691 a53d b639 3cbf 5f06 423d 50f7 e63d
000003d0: ca3d 97be 4c08 413f 3a39 9a3d b8f8 f1bd
000003e0: de2a 2b3e e121 923e bd24 95be 551a bfbe
000003f0: fd39 c13d b4f8 66be a653 143d 30c4 013e

bias f4 [128]
0.12718447 -0.06863296 0.124201074 0.27378958 0.15259278 -0.13927379 -0.060012482 -0.11980669
-0.11398647 -0.04545619 -0.08773713 0.10835677 -0.03620261 0.16108577 0.29776594 -0.05807488
-0.058642276 0.04670169 -0.11930721 -0.045436062 -0.013362898 0.11131666 0.0857725 -0.0006364784
-0.06975826 -0.11140964 0.006301736 0.1306445 -0.10067499 0.003399351 -0.11101451 -0.02029485
-0.06626107 0.25439548 -0.06987377 -0.02057651 0.050137717 -0.015555214 0.075048625 0.14210036
0.030407112 -0.08210128 -0.14765626 -0.0054563847 -0.14931045 -0.11656831 0.066921666 0.16144714
0.255242 -0.079406455 0.040035058 -0.04893402 0.2219433 -0.0046142424 -0.13711223 -0.026972793
-0.10051637 -0.013237028 -0.029449193 -0.03676849 -0.07533808 0.059009556 0.06582149 -0.006862393
0.05155605 -0.040597774 -0.112490766 -0.070565596 0.12605467 0.105554745 0.061302632 -0.00096954854
0.00927185 -0.007489614 -0.03807494 -0.041988354 0.14294183 -0.11592094 0.03644163 -0.058806784
0.17648244 -0.010612811 -0.048445877 -0.09762617 0.07133413 0.19832702 -0.134666 -0.18331605
-0.0321088 0.020778118 -0.013300999 -0.037964176 0.07270381 0.18186237 -0.024131166 -0.016761327
0.14327937 -0.0784148 0.040593155 0.097370416 -0.10056409 -0.084641986 0.14539528 0.019844688
0.025405772 0.03500898 -0.03692888 0.2268391 -0.07088162 -0.014125958 0.11427308 -0.009021888
-0.023918731 0.17084916 0.17660311 -0.08444528 0.19189107 -0.12500484 -0.087630615 0.24004431
0.15353248 0.009426427 -0.0051529887 -0.07330804 0.16434659 -0.09900724 -0.14020522 -0.06418953
00000000: a53c 023e 708f 8cbd 225d fe3d 262e 8c3e
00000010: 4841 1c3e ca9d 0ebe a6cf 75bd 365d f5bd
00000020: bd71 e9bd 4530 3abd 86af b3bd 27ea dd3d
00000030: 3049 14bd abf3 243e c774 983e eddf 6dbd
00000040: e232 70bd 454a 3f3d 5757 f4bd 2a1b 3abd
00000050: 0ef0 5abc fdf9 e33d 7ea9 af3d 58d9 26ba
00000060: 6bdd 8ebd bd2a e4bd cb7e ce3b acc7 053e
00000070: b02e cebd a5c7 5e3b 935b e3bd 6341 a6bc
00000080: e2b3 87bd 2040 823e fb19 8fbd 1290 a8bc
00000090: 355d 4d3d 4cdb 7ebc 18b3 993d c282 113e
000000a0: 5618 f93c b724 a8bd 3433 17be 79cb b2bb
000000b0: d7e4 18be 5ebb eebd 3a0e 893d 6652 253e
000000c0: 14af 823e da9f a2bd cdfb 233d 0a6f 48bd
000000d0: 1b45 633e 1233 97bb 2667 0cbe 0cf6 dcbc
000000e0: 87db cdbd 1fe0 58bc 6f3f f1bc 8e9a 16bd
000000f0: da4a 9abd 01b4 713d 6bcd 863d eddd e0bb
00000100: 702c 533d da49 26bd 8f61 e6bd b284 90bd
00000110: 7a14 013e 162d d83d 7818 7b3d 4d29 7eba
00000120: f5e8 173c 706b f5bb 78f4 1bbd fbfb 2bbd
00000130: 585f 123e f567 edbd d243 153d 62df 70bd
00000140: d0b7 343e 5be1 2dbc 2f6f 46bd 3bf0 c7bd
00000150: a117 923d 3d16 4b3e e2e5 09be 34b7 3bbe
00000160: 8484 03bd df36 aa3c 6fec 59bc 5380 1bbd
00000170: bce5 943d 213a 3a3e b9ae c5bc 0d4f 89bc
00000180: d4b7 123e f097 a0bd 0245 263d 246a c73d
00000190: 8cf4 cdbd c758 adbd 80e2 143e 5491 a23c
000001a0: c41f d03c 9465 0f3d bd42 17bd 8248 683e
000001b0: 622a 91bd 9070 67bc 0108 ea3d 8ad0 13bc
000001c0: 37f1 c3bc 15f3 2e3e 72d7 343e a6f1 acbd
000001d0: 187f 443e 4501 00be ae77 b3bd 2dce 753e
000001e0: 9e37 1d3e 4d71 1a3c 67da a8bb 8722 96bd
000001f0: 794a 283e 4fc4 cabd f591 0fbe cd75 83bd

weight f4 [1, 128]
1.5084682 -0.4988683 0.5246907 0.88379693 0.8199607 -0.48236105 -0.5871289 -0.50307083
-0.5633653 -0.4500637 -0.70234436 1.6899564 -0.48106954 0.7974925 0.76265234 -0.5254884
-0.44675398 0.76005054 -0.5582019 -0.5191574 -0.54434824 1.61445 0.9128828 0.06159271
-0.7929381 -0.58744377 -0.8204224 0.852622 -0.89617646 -0.53682554 -0.8029722 -0.5275403
-0.56251526 0.81484157 -0.5141619 -0.53006625 1.5896597 0.7370689 0.8061234 0.8458786
0.7806945 -0.031999003 -0.5178782 0.91693366 -0.44173074 -0.50666577 0.5833824 1.0148119
0.76886475 -0.5675756 1.047669 0.07749159 0.924201 -0.56543577 -0.58532673 -0.6973789
-0.54568416 -0.5412579 -0.45937848 -0.7682336 -0.5848167 0.44259396 0.8050764 -0.4181606
0.8231545 -0.5320628 -0.39555448 -0.5039505 0.4077195 1.416311 0.44842455 -0.7630323
-0.51069605 -0.6470371 -0.5236788 -0.45977187 0.7169026 -0.46245357 1.727549 -0.5185692
0.41757149 -0.4525417 -0.88312817 -0.5951416 0.07981519 1.5344934 -0.5920458 -0.44428986
-0.5126309 0.072612874 -0.68860716 -0.8964266 0.8796963 1.4287583 -0.4278376 -0.6854219
0.6640665 -0.5296288 1.4077618 0.84641457 -0.5421841 -0.08642193 0.9218407 -0.5702123
0.82472926 0.9275553 -0.020743538 0.9039463 -0.5305897 -0.5196565 -0.4574969 -0.65941066
-0.44549122 0.7799535 0.9092806 -0.556389 0.8449018 -0.7133125 -0.50942236 0.7347737
0.9848451 -0.5609417 -0.4642548 -0.5361147 1.33427 -0.45694032 -0.50711286 -0.0021577082
00000000: 7c15 c13f aa6b ffbe 2152 063f 8440 623f
00000010: f2e8 513f 07f8 f6be 144e 16bf 40c9 00bf
00000020: b538 10bf c06e e6be d7cc 33bf 7e50 d83f
00000030: bf4e f6be 7828 4c3f 2f3d 433f 6886 06bf
00000040: f0bc e4be ac92 423f 52e6 0ebf 80e7 04bf
00000050: 685a 0bbf 4ca6 ce3f b0b2 693f a348 7c3d
00000060: fefd 4abf b762 16bf 3407 52bf 6f45 5a3f
00000070: d26b 65bf 666d 09bf 968f 4dbf e20c 07bf
00000080: 0001 10bf 7599 503f 1da0 03bf 6cb2 07bf
00000090: f879 cb3f 8cb0 3c3f 1a5e 4e3f 808b 583f
000000a0: 98db 473f 6311 03bd aa93 04bf 2abc 6a3f
000000b0: 882a e2be d9b4 01bf 8d58 153f 5be5 813f
000000c0: 52d4 443f a24c 11bf 051a 863f e9b3 9e3d
000000d0: 7098 6c3f 66c0 10bf f9d7 15bf 6c87 32bf
000000e0: f5b1 0bbf e18f 0abf a833 ebbe f5aa 44bf
000000f0: 8cb6 15bf ad9b e23e 7d19 4e3f 2519 d6be
00000100: 41ba 523f 4535 08bf 1e86 cabe e602 01bf
00000110: 9cc0 d03e ae49 b53f e797 e53e 1656 43bf
00000120: fabc 02bf 39a4 25bf d00f 06bf 3867 ebbe
00000130: ee86 373f b7c6 ecbe 5320 dd3f f3c0 04bf
00000140: eecb d53e 8cb3 e7be b014 62bf 335b 18bf
00000150: 2576 a33d 486a c43f 5090 17bf f679 e3be
00000160: c73b 03bf 0fb6 943d 8f48 30bf 377c 65bf
00000170: c733 613f 8de1 b63f 880d dbbe cf77 2fbf
00000180: 4300 2a3f c195 07bf 8a31 b43f a0ae 583f
00000190: 94cc 0abf fbfd b0bd c1fd 6b3f 6ff9 11bf
000001a0: 7521 533f 4474 6d3f 5aee a9bc 0669 673f
000001b0: bad4 07bf 3508 05bf 093d eabe 23cf 28bf
000001c0: 6d17 e4be 08ab 473f 9dc6 683f 826f 0ebf
000001d0: 7c4b 583f a69b 36bf 8169 02bf 211a 3c3f
000001e0: cf1e 7c3f e099 0fbf ceb2 edbe d03e 09bf
000001f0: 5cc9 aa3f 15f4 e9be 26d2 01bf 5668 0dbb

weight f4 [128, 128]
-0.044495385 0.28258255 0.039749794 0.028642647 -0.09957701 -0.034180287 -0.10372223 0.011346101
-0.11509641 0.13027158 -0.09561112 -0.061133202 0.07669192 0.078012004 -0.030156188 0.15822509
0.44368103 -0.008590336 0.03996948 0.1566615 -0.0065235836 0.010373855 -0.0020895689 0.014630836
0.076149076 -0.14949007 0.10184784 0.42227495 -0.11735328 -0.021755489 -0.041353438 0.010649376
0.0088341655 0.096359834 -0.05364077 0.054012757 0.08812639 0.16034016 -0.16676897 -0.0864442
-0.17319848 0.110331625 -0.03287139 0.004190037 0.049650013 0.10144064 0.0024587896 0.034467094
0.054559696 -0.1838421 -0.038597718 0.08910025 0.15493727 -0.028812626 0.10676032 0.013948277
-0.05117847 0.19731152 0.016449103 0.24252449 -0.091885775 0.02885511 -0.088807486 0.063106954
0.11111952 0.05634321 -0.116338365 -0.035456076 -0.054643944 -0.07838858 0.085892215 -0.016866583
-0.065639034 0.012862997 -0.020684626 0.11174667 -0.016820129 0.08269756 0.06313808 -0.11118103
0.07061921 0.05939905 -0.05558005 0.11034818 0.012875079 -0.0060113557 0.08978721 0.10430485
0.089854844 -0.0069313967 -0.070742525 0.23048224 -0.06305903 0.02651436 0.021887405 0.05618262
-0.033948112 0.108570196 -0.067501426 -0.086824864 0.14869311 0.05878558 0.05086283 0.09024187
-0.15334785 0.09178778 0.13664378 0.1016148 0.03208918 0.031083155 -0.0012178943 0.010994062
0.09805976 0.45691985 -0.016857438 0.074769154 0.036669917 -0.103080675 0.067036055 -0.051996227
-0.0016510258 0.14831343 0.1620825 0.012823496 0.05271642 0.16209297 0.008045518 -0.075445764
-0.2369034 0.1358811 -0.01286006 -0.09258294 -0.10313037 -0.19198467 -0.07625241 0.011348893
-0.079019494 0.22677335 0.13765912 -0.25031942 0.09337829 -0.029756907 -0.14505239 0.087324396
-0.19036603 -0.1221313 -0.49590114 -0.00024060764 -0.18168873 -0.09465108 0.20345356 -0.022855187
-0.41508073 -0.24463734 0.18059556 -0.112506635 -0.276086 -0.70370877 -0.18138026 -0.17575227
-0.37429857 -0.21633436 0.1041344 0.068504766 -0.38409775 0.06204653 -0.36539033 -0.0718747
-0.66445875 0.061905853 0.050054505 -0.006307819 0.008586892 0.084263824 -0.02986418 -0.097939774
-0.15524009 -0.53451055 -0.10821408 -0.008324686 -0.20499136 -0.026685268 -0.07415368 -0.02172402
0.041201774 0.09876281 -0.032862604 0.15182315 0.28981605 0.015834762 -0.00917371 0.14746185
0.10657332 0.035746213 0.08484828 0.3098391 -0.49110544 0.18374151 -0.19055043 -0.10323111
-0.2655038 0.0823769 0.15438573 -0.09233298 -0.3388988 0.04414687 -0.34137714 -0.21526067
0.15762609 0.050028756 -0.09505229 0.1916559 -0.049442016 -0.0027816067 -0.18787344 -0.006304802
-0.23342422 -0.067899525 -0.15433842 -0.3408973 0.077740386 -0.107209265 0.09138597 0.16118665
-0.02922232 0.021734405 0.014681485 -0.73424786 0.104113586 -0.045361336 -0.10308537 0.11323848
0.012818344 -0.21790409 -0.19849129 -0.010599665 0.29482365 -0.51513004 -0.26336277 0.2347008
-0.09039931 -0.15948763 -0.021960163 0.12881717 0.26451257 -0.19151613 -0.11683352 0.14035745
0.056439295 -0.1577976 -0.0862842 0.25408003 0.13917914 0.37094244 0.05125992 -0.44428617
00000000: cb40 36bd a9ae 903e aed0 223d fca3 ea3c
00000010: 08ef cbbd a100 0cbd 526c d4bd ffe4 393c
00000020: abb7 ebbd ea65 053e c3cf c3bd cf66 7abd
00000030: a710 9d3d c2c4 9f3d 1c0a f7bc c205 223e
00000040: 292a e33e 7bbe 0cbc 0ab7 233d df6b 203e
00000050: c9c3 d5bb 1af7 293c 26f1 08bb 2db6 6f3c
00000060: 0cf4 9b3d ed13 19be 9a95 d03d 6c34 d83e
00000070: eb56 f0bd 9138 b2bc 3962 29bd b87a 2e3c
00000080: 2dbd 103c 4e58 c53d 6db6 5bbd 7b3c 5d3d
00000090: 9c7b b43d 3630 243e 7cc5 2abe a809 b1bd
000000a0: f15a 31be 8cf5 e13d 27a4 06bd 944c 893b
000000b0: d05d 4b3d 1cc0 cf3d a523 213b 5e2d 0d3d
000000c0: fd79 5f3d 1a41 3cbe a418 1ebd 317a b63d
000000d0: e0a7 1e3e 7508 ecbc 28a5 da3d 5087 643c
000000e0: 84a0 51bd 080c 4a3e 45c0 863c 5758 783e
000000f0: 9c2e bcbd 8d61 ec3c b3e0 b5bd 383e 813d
00000100: a292 e33d 23c8 663d cf42 eebd 643a 11bd
00000110: 54d2 5fbd 318a a0bd 42e8 af3d ca2b 8abc
00000120: c26d 86bd 52bf 523c ce72 a9bc 70db e43d
00000130: 5eca 89bc 575d a93d 8a4e 813d e1b2 e3bd
00000140: cea0 903d 6b4c 733d e8a7 63bd 3afe e13d
00000150: fff1 523c e8fa c4bb 5be2 b73d c89d d53d
00000160: d105 b83d c520 e3bb 75e1 90bd 8903 6c3e
00000170: 1825 81bd a534 d93c 374d b33c bf1f 663d
00000180: 2d0d 0bbd 0d5a de3d 303e 8abd 3cd1 b1bd
00000190: 0243 183e 26c9 703d 8b55 503d bbd0 b83d
000001a0: 3807 1dbe 3bfb bb3d 59ec 0b3e 6c1b d03d
000001b0: f26f 033d 1aa2 fe3c c0a1 9fba 7020 343c
000001c0: 8ed3 c83d 66f1 e93e 9c18 8abc 9220 993d
000001d0: 3233 163d f61b d3bd 334a 893d fff9 54bd
000001e0: 3c67 d8ba 7adf 173e f4f8 253e a419 523c
000001f0: 2ced 573d b3fb 253e 59d1 033c 4f83 9abd
00000200: ce96 72be 6a24 0b3e 00b3 52bc 209c bdbd
00000210: 0436 d3bd a197 44be 392a 9cbd b5f0 393c
00000220: f9d4 a1bd 4637 683e 83f6 0c3e de29 80be
00000230: 1e3d bf3d c2c4 f3bc 9d88 14be 22d7 b23d
00000240: 50ef 42be fa1f fabd c1e6 fdbe 9f4b 7cb9
00000250: 9c0c 3abe 6dd8 c1bd 2156 503e cd3a bbbc
00000260: 7685 d4be 3682 7abe 0bee 383e e169 e6bd
00000270: 255b 8dbe 4226 34bf bfbb 39be 67f8 33be
00000280: 10a4 bfbe c186 5dbe 6b44 d53d 3a4c 8c3d
00000290: 76a8 c4be 8124 7e3d 7114 bbbe 0b33 93bd
000002a0: f819 2abf fe90 7d3d f405 4d3d d2b1 cebb
000002b0: 09b0 0c3c 8392 ac3d baa5 f4bc a694 c8bd
000002c0: 42f7 1ebe afd5 08bf 589f ddbd 4464 08bc
000002d0: 41e9 51be 109b dabc e2dd 97bd 92f6 b1bc
000002e0: 31c3 283d 2844 ca3d f09a 06bd 8777 1b3e
000002f0: c562 943e e7b7 813c 544d 16bc 3d00 173e
00000300: 1d43 da3d 9f6a 123d efc4 ad3d 3ba3 9e3e
00000310: 2c72 fbbe bc26 3c3e a71f 43be d56a d3bd
00000320: 1df0 87be 38b5 a83d 4b17 1e3e 1319 bdbd
00000330: 2584 adbe 59d3 343d fcc8 aebe 4b6d 5cbe
00000340: bc68 213e f4ea 4c3d c6aa c2bd 7241 443e
00000350: b683 4abd 9e4b 36bb e561 40be 8398 cebb
00000360: c206 6fbe e80e 8bbd e40a 1ebe 178a aebe
00000370: 5a36 9f3d 8890 dbbd 9128 bb3d 1d0e 253e
00000380: a663 efbc 5a0c b23c 9c8a 703c abf7 3bbf
00000390: 8139 d53d cfcc 39bd 6c1e d3bd 94e9 e73d
000003a0: 0804 523c 4022 5fbe 4d41 4bbe 38aa 2dbc
000003b0: 20f3 963e 90df 03bf 7cd7 86be 6855 703e
000003c0: 4623 b9bd ba50 23be cde5 b3bc a6e8 033e
000003d0: 316e 873e ce1c 44be 6a46 efbd ddb9 0f3e
000003e0: e42c 673d b295 21be c5b5 b0bd c716 823e
000003f0: fa84 0e3e 2bec bd3e ecf5 513d 7a79 e3be

bias f4 [128]
0.025576882 0.097795 -0.038178913 -0.18604167 0.17385593 0.17321235 -0.04134928 0.034412336
0.032291453 -0.042535443 -0.10041367 -0.004812459 0.059811022 0.03963967 -0.07259364 0.17013001
0.00143447 -0.08286755 -0.0993028 0.06980375 -0.040159784 -0.08017839 0.015302766 0.061912615
-0.07205325 0.2115171 -0.031775936 0.031148816 0.0919731 -0.025468381 -0.018150318 0.16345581
0.01674825 0.106743194 0.13927019 0.039313894 0.037585817 -0.09552912 0.057820797 -0.0361165
-0.05921126 0.03351281 -0.0066343597 -0.08824792 0.07552016 0.14701246 -0.082266144 0.109620154
0.034398377 -0.024366077 0.07036103 -0.032621972 0.10134444 -0.013535373 0.121157594 0.041203234
0.037529286 -0.16726477 0.06443374 0.1276516 -0.09842644 -0.0046935286 0.016359076 0.1194632
-0.08944135 0.03719747 0.105272114 0.024538793 -0.014493743 0.032095432 -0.13043259 -0.052525822
0.12988566 -0.038447134 0.120005235 0.016593887 0.02782348 0.15341763 -0.04425916 0.120672
-0.065247834 -0.004986898 0.06763786 -0.025305267 -0.08070031 -0.06442339 -0.044244345 -0.032628004
0.11571865 -0.013399071 0.010418505 0.09443757 0.047980975 0.02844111 0.021237615 -0.020246532
0.078626335 -0.008253733 0.030695017 0.07221227 -0.039536845 -0.029097656 0.05521038 -0.036390215
-0.04319136 0.00015922402 -0.057210386 0.19215152 -0.07457542 0.046021476 -0.0002441698 0.04378039
0.0191062 -0.15796115 -0.079264045 0.112682596 0.008156102 -0.07904633 -0.10331222 -0.11177035
0.06390606 -0.07869533 0.08437365 0.12806939 0.08282339 0.08446175 0.09085729 -0.018724915
00000000: 9c86 d13c bf48 c83d 7e61 1cbd b581 3ebe
00000010: 4a07 323e 945e 313e dd5d 29bd f3f3 0c3d
00000020: 0b44 043d a539 2ebd afa5 cdbd d5b1 9dbb
00000030: 67fc 743d 355d 223d f9ab 94bd 9036 2e3e
00000040: d304 bc3a 76b6 a9bd 445f cbbd 45f5 8e3d
00000050: 967e 24bd 9134 a4bd 74b8 7a3c 1598 7d3d
00000060: a890 93bd f097 583e 7c27 02bd cd2b ff3c
00000070: 655c bc3d 11a3 d0bc faaf 94bc f660 273e
00000080: a033 893c 2d9c da3d d89c 0e3e 9b07 213d
00000090: 96f3 193d c5a4 c3bd 80d5 6c3d e5ee 13bd
000000a0: 8287 72bd ba44 093d 0b65 d9bb 53bb b4bd
000000b0: 50aa 9a3d 6f8a 163e 277b a8bd 8880 e03d
000000c0: 50e5 0c3d 5e9b c7bc 7219 903d 9e9e 05bd
000000d0: ac8d cf3d 78c3 5dbc 7921 f83d b9c4 283d
000000e0: 4fb8 193d 7547 2bbe d6f5 833d 1ab7 023e
000000f0: cd93 c9bd 2ccc 99bb 7803 863c 1fa9 f43d
00000100: 072d b7bd 605c 183d e898 d73d 9405 c93c
00000110: 2a77 6dbc 8076 033d 1f90 05be 5125 57bd
00000120: bf00 053e be7a 1dbd 4ec5 f53d e7ef 873c
00000130: 11ee e33c 8319 1d3e 1849 35bd e222 f73d
00000140: a8a0 85bd 2269 a3bb b885 8a3d fe4c cfbc
00000150: 3446 a5bd 69f0 83bd 8f39 35bd f1a4 05bd
00000160: e6fd ec3d c787 5bbc 61b2 2a3c 7c68 c13d
00000170: b387 443d 55fd e83c 82fa ad3c 0edc a5bc
00000180: d806 a13d aa3a 07bc 1e74 fb3c 07e4 933d
00000190: 63f1 21bd 355e eebc 4824 623d e80d 15bd
000001a0: 6ce9 30bd 5ff5 2639 7055 6abd 5ec3 443e
000001b0: ffba 98bd 0481 3c3d ea03 80b9 1153 333d
000001c0: 9b84 9c3c 91c0 21be 3055 a2bd 22c6 e63d
000001d0: 2ca1 053c 0be3 a1bd 5b95 d3bd dae7 e4bd
000001e0: 2ee1 823d 042b a1bd 18cc ac3d 9f24 033e
000001f0: 4f9f a93d 48fa ac3d 6313 ba3d fe64 99bc

weight f4 [4, 128]
-0.011921852 -0.1695067 -0.074375555 0.37559095 -0.07817323 0.019929307 -0.046988342 0.12081988
0.037639454 0.28221434 -0.26369435 -0.014500852 0.04162885 -0.11538973 -0.0007615391 -0.056098092
-0.43832234 0.13299097 -0.08826674 0.04452638 0.09762124 -0.12166716 -0.22747351 -0.25130498
0.032497086 0.12326269 0.30809665 -0.13157372 -0.16704954 -0.4354842 0.14363709 -0.12016233
0.37228206 -0.103014946 -0.4829617 0.056497306 0.119716145 0.35796097 -0.09352829 0.11203394
-0.074006885 0.062480148 -0.015744021 0.0043527097 0.07401626 0.14611812 0.15684937 -0.14311019
0.086122766 -0.08801349 0.16190211 0.057217743 -0.36223587 -0.56335604 -0.051386926 0.047823302
-0.054171372 0.24768561 -0.048282627 -0.1401533 0.49061963 -0.15052131 -0.09211073 -0.09360429
-0.61396515 -0.51754576 -0.15266544 0.046468187 0.023920236 -0.04624805 0.27356967 -0.6231478
-0.06456049 0.027771013 0.43624586 0.111663386 -0.12575316 -0.18510735 0.06899423 0.11868395
-0.22537217 -0.28872728 -0.27735582 0.022074206 -0.10080909 -0.018272534 -0.39314657 -0.37204248
0.08436655 0.28761294 0.088848226 0.10680341 -0.087993525 -0.06881193 -0.22593734 -0.030812137
0.256534 0.028915467 -0.30155236 0.14773518 -0.20687152 -0.15105201 0.29817224 -0.00092824706
-0.02335947 0.17147991 0.18179864 0.024944909 -0.17338704 0.21892904 -0.119974256 -0.069497675
0.05665323 -0.041104726 0.19994518 -0.14584701 0.0556687 -0.04068956 0.022371143 -0.0039663147
-0.009891503 -0.122851655 0.10262111 0.17183957 -0.1730625 -0.13108933 -0.06145916 -0.0009503458
-0.08862791 -0.21080843 -0.34808156 -0.10430683 0.2019618 0.18972069 -0.07044052 0.34214348
0.37383965 0.23978026 -0.6528881 -0.059800897 -0.02891334 -0.29426193 0.21996886 0.31955627
0.4109541 -0.12877432 0.54436326 -0.08534821 -0.15312994 -0.67323196 -0.2942299 -0.03288304
-0.08738464 0.039400063 -0.052677996 -0.11312161 -0.7323471 0.2693368 0.19746967 0.29365316
0.49233434 -0.015811447 0.20082252 -0.049883556 -0.052696705 0.0028599643 -0.32093698 0.36621305
0.07161247 0.7391109 -0.1398261 0.046083856 0.2043323 -0.36284772 0.12691832 0.17771257
-0.08667696 -0.34000722 -0.13370654 -0.47027978 -0.12714954 0.7172127 0.08622044 0.3472673
0.29058096 0.046290368 0.5216234 -0.8548691 0.019816754 0.26122117 -0.52919465 -0.33275115
0.72481656 -0.7370782 -0.8338976 -0.42530358 -0.1500058 -0.60226953 0.24096867 0.8355573
-0.32879454 0.051318996 -0.21296757 0.59924084 0.32579654 0.18598975 -0.019401573 0.23290005
-0.48600408 -0.83765227 -0.4817547 -0.15522508 -0.45394504 0.046366733 -0.7871151 -0.8472038
0.4594628 0.346271 0.66943645 0.20109169 0.019452628 0.7894896 -0.5371077 -0.32078075
0.51925886 0.051802836 -0.41117495 0.2474345 0.7947625 -0.62744707 -0.41407773 0.34049523
-0.20722115 0.5036647 0.19852966 0.23127118 0.73546344 0.25927597 0.26665127 0.008309549
0.08110749 0.027344696 0.17708558 -0.51647 0.03632357 0.5967635 0.2761438 0.3790403
-0.072244085 0.24455914 0.6315134 0.025907766 0.069223404 -0.12144387 -0.135298 0.051295616
00000000: df53 43bc 2a93 2dbe 3652 98bd 754d c03e
00000010: 4919 a0bd c942 a33c d976 40bd 6a70 f73d
00000020: d42b 1a3d 667e 903e f202 87be fb94 6dbc
00000030: 0383 2a3d 7351 ecbd 06a2 47ba 1dc7 65bd
00000040: c96b e0be c92e 083e 31c5 b4bd 4b61 363d
00000050: a5ed c73d a22c f9bd d1ee 68be 0cab 80be
00000060: aa1b 053d 2671 fc3d d8be 9d3e 43bb 06be
00000070: 090f 2bbe c9f7 debe 9a15 133e ab17 f6bd
00000080: c19b be3e 80f9 d2bd c246 f7be b869 673d
00000090: bd2d f53d a946 b73e c38b bfbd 0d72 e53d
000000a0: ec90 97bd 2feb 7f3d 9bf9 80bc 2da1 8e3b
000000b0: d695 973d fd9f 153e 1f9d 203e 7a8b 12be
000000c0: 2261 b03d 6b40 b4bd abc9 253e 275d 6a3d
000000d0: fb76 b9be 1a38 10bf 197b 52bd 5ee2 433d
000000e0: cde2 5dbd 4ca1 7d3e 01c4 45bd 5984 0fbe
000000f0: 7f32 fb3e 4222 1abe 8da4 bcbd 9bb3 bfbd
00000100: d22c 1dbf e17d 04bf 5454 1cbe 6d55 3e3d
00000110: 5ff4 c33c 986e 3dbd 5311 8c3e 9d86 1fbf
00000120: 4a38 84bd 0980 e33c 9e5b df3e c6af e43d
00000130: 70c5 00be c88c 3dbe d94c 8d3d 9210 f33d
00000140: f6c7 66be 10d4 93be 9501 8ebe f7d4 b43c
00000150: ff74 cebd 48b0 95bc 824a c9be 5a7c bebe
00000160: 5fc8 ac3d 0142 933e 0ff6 b53d bfbb da3d
00000170: f335 b4bd 45ed 8cbd 1e5c 67be bc69 fcbc
00000180: 6d58 833e 21e0 ec3c 1265 9abe e447 173e
00000190: 21d6 53be 61ad 1abe 08aa 983e 9b55 73ba
000001a0: 5c5c bfbc 6e98 2f3e 6c29 3a3e 4459 cc3c
000001b0: 5f8c 31be ef2e 603e 10b5 f5bd cc54 8ebd
000001c0: 380d 683d 6e5d 28bd 6ebe 4c3e eb58 15be
000001d0: dd04 643d 19aa 26bd b043 b73c dcf7 81bb
000001e0: f80f 22bc a699 fbbd 042b d23d b6f6 2f3e
000001f0: 4c37 31be 483c 06be 9abc 7bbd a120 79ba
00000200: 8d82 b5bd 2ade 57be bf37 b2be d29e d5bd
00000210: 13cf 4e3e 2446 423e 1f43 90bd 6e2d af3e
00000220: e967 bf3e f588 753e ad23 27bf c9f1 74bd
00000230: abdb ecbc 80a9 96be 843f 613e e19c a33e
00000240: 9368 d23e 6add 03be 645b 0b3f 0bcb aebd
00000250: 18ce 1cbe ee58 2cbf 4da5 96be 5eb0 06bd
00000260: b8f6 b2bd f661 213d e2c4 57bd 4dac e7bd
00000270: 197b 3bbf 83e6 893e 7d35 4a3e b559 963e
00000280: 3f13 fc3e 0287 81bc 6ba4 4d3e b352 4cbd
00000290: 80d8 57bd 3d6e 3b3b da51 a4be 4780 bb3e
000002a0: 8fa9 923d 5f36 3d3f 932e 0fbe 6dc2 3c3d
000002b0: 7d3c 513e 2dc7 b9be e0f6 013e 49fa 353e
000002c0: b183 b1bd 6d15 aebe 5eea 08be 83c8 f0be
000002d0: 7d33 02be 409b 373f 5894 b03d 05cd b13e
000002e0: 07c7 943e f89a 3d3d 1c89 053f b4d8 5abf
000002f0: bf56 a23c c8be 853e 4d79 07bf 5c5e aabe
00000300: 948d 393f 28b1 3cbf 507a 55bf 64c1 d9be
00000310: 1f9b 19be 562e 1abf 7ec0 763e 15e7 553f
00000320: c257 a8be de33 523d 2c14 5abe d967 193f
00000330: cece a63e 1974 3e3e 0cf0 9ebc 5a7d 6e3e
00000340: 87d5 f8be 6170 56bf 8da8 f6be 53f3 1ebe
00000350: 7c6b e8be 0beb 3d3d 6080 49bf 59e2 58bf
00000360: b53e eb3e 6f4a b13e 3060 2b3f fbea 4d3e
00000370: 1e5b 9f3c fe1b 4a3f e47f 09bf 603d a4be
00000380: 26ee 043f 362f 543d 8685 d2be 785f 7d3e
00000390: 8e75 4b3f 5fa0 20bf ff01 d4be 6455 ae3e
000003a0: c831 54be 2bf0 003f 5c4b 4b3e 5ad2 6c3e
000003b0: 5547 3c3f d2bf 843e 8486 883e c624 083c
000003c0: af1b a63d fc01 e03c ec55 353e 6137 04bf
000003d0: 06c8 143d 7ec5 183f b862 8d3e 9211 c23e
000003e0: b5f4 93bd b66d 7a3e ddaa 213f 863c d43c
000003f0: 00c5 8d3d 90b7 f8bd 8f8b 0abe 5a1b 523d

bias f4 [4]
-0.048817024 -0.062101584 0.043119967 -0.024506465
00000000: 5cf4 47bd 3b5e 7ebd 909e 303d c8c1 c8bc
