problem1/models/underway/success_whole_model_1766857998.pth (torch, 146613 bytes, 9 tensors)

weight f4 [128, 8]
0	0x3f0e43cd	0.55572206
1	0xbea2b8eb	-0.31781706
2	0x3da35fd4	0.07977262
3	0xbe94729e	-0.28993696
4	0xbe73178c	-0.23739451
5	0xbe9f2646	-0.31083888
6	0x3ea4a608	0.32157922
7	0x3e1e660a	0.15468612
8	0x3d887c0d	0.06664286
9	0x3e2ae21c	0.16687816
10	0xbd3447df	-0.044013854
11	0x3dbdd987	0.09270006
12	0x3e569a42	0.20957282
13	0xbe6209f0	-0.22074103
14	0x3ed7c34c	0.42141187
15	0x3ebe030b	0.37111697
16	0x3e821ee9	0.25414208
17	0xbec5a35d	-0.386012
18	0xbe4d68b6	-0.20059475
19	0xbf0fbb72	-0.56145394
20	0x3e374007	0.17895518
21	0x3eb19e70	0.3469119
22	0xbd2fb649	-0.04289845
23	0x3ed385ff	0.41313168
24	0x3ca05934	0.019573785
25	0x3d4dddcd	0.050260354
26	0xbee02c22	-0.4378367
27	0x3ed05316	0.4068839
28	0x3f071c14	0.5277722
29	0x3ed31a24	0.4123088
30	0x3e99152a	0.2989896
31	0x3e35934c	0.1773197
32	0xbf5ade1f	-0.8549518
33	0x3e945096	0.28967732
34	0xbe8e5fe0	-0.27807522
35	0x3e26f655	0.16304906
36	0x3e5c080a	0.21487442
37	0x3c5bf911	0.013426081
38	0x3e217e49	0.1577083
39	0x3df91bd8	0.12163514
40	0x3e91ff8c	0.2851528
41	0x3de7e6d3	0.11323323
42	0xbe80511c	-0.25061882
43	0x3f53fd61	0.828085
44	0xbe4597ff	-0.19296263
45	0xbf16b16a	-0.5886446
46	0x3e3a29a7	0.18179952
47	0xbe8387e9	-0.2568963
48	0xbf180393	-0.59380454
49	0x3ee7df4b	0.45287547
50	0xbe70f55c	-0.23531097
51	0xbf184fb0	-0.59496593
52	0x3ef56319	0.47927168
53	0x3e375c12	0.17906216
54	0xbd9c0465	-0.07618026
55	0xbc74068f	-0.014894142
56	0xbd687be2	-0.05675877
57	0xbecdd85d	-0.40204135
58	0xbe45d445	-0.19319256
59	0xbeb54ad8	-0.35408664
60	0x3ce4d8b7	0.027935369
61	0xbeb34550	-0.3501382
62	0x3d9ad94d	0.07560978
63	0x3e973cd4	0.29538596
64	0xbe94c1eb	-0.29054198
65	0x3d284802	0.041084297
66	0xbf1bdbca	-0.60882246
67	0x3e298ec8	0.16558373
68	0x3d8d5b9f	0.06902241
69	0xbdc413bf	-0.09574079
70	0x3eb617de	0.35565084
71	0xbe3e8b03	-0.18607716
72	0x3f48f573	0.78499526
73	0xbf247386	-0.64238775
74	0x3f18db8b	0.59709996
75	0xbefd0fc3	-0.49426088
76	0xbe8f270d	-0.2795948
77	0x3c45ad76	0.012065282
78	0x3d70f2a7	0.05882516
79	0xbd91c4e0	-0.07117629
80	0xbe1e64bc	-0.15468115
81	0x3f7285ad	0.94735223
82	0xbeac4607	-0.33647177
83	0xbf7eed12	-0.9958049
84	0xbecca5bc	-0.39970195
85	0xbdfc1fd3	-0.123107575
86	0x3d39cb24	0.045359746
87	0xbe48e740	-0.19619465
88	0x3e9f9beb	0.31173643
89	0x3eaedcfb	0.3415297
90	0xbec7be34	-0.390123
91	0xbc24dc39	-0.010062271
92	0xbe373923	-0.1789289
93	0xbe2e1e01	-0.17003633
94	0x3e8313ce	0.25601047
95	0xbccef09f	-0.025261221
96	0xbde3beb5	-0.11120359
97	0xbe9f808f	-0.3115277
98	0x3dd3b7ef	0.10337817
99	0xbecfc299	-0.40578154
100	0xbe5b2146	-0.21399412
101	0xbef4e33f	-0.47829625
102	0xbf225ab2	-0.6341964
103	0xbd378657	-0.04480585
104	0xbd46a9c2	-0.048501737
105	0x3eb2a77e	0.3489341
106	0x3e84630b	0.25856814
107	0x3ca09b1c	0.019605212
108	0xbf248e12	-0.6427928
109	0x3cde8160	0.0271613
110	0x3ecf58da	0.40497476
111	0x3e603876	0.21896538
112	0xbe27a0ff	-0.16370009
113	0x3eddc33a	0.4331301
114	0x3ebf13f9	0.37319925
115	0xbde59c0d	-0.11211405
116	0x3e8cc3ff	0.27493283
117	0xbea4c0c5	-0.3217832
118	0xbeb89fcd	-0.36059418
119	0xbc6246c3	-0.013810816
120	0xbe32f00f	-0.17474388
121	0xbd53a272	-0.05166859
122	0xbf4b883c	-0.7950475
123	0xbedc85d5	-0.43070856
124	0x3e5e969a	0.21737137
125	0xbd9b33e7	-0.07578259
126	0xbe000659	-0.12502421
127	0xbd088249	-0.033327375
128	0x3e3e75f8	0.18599689
129	0xbea21dfd	-0.31663504
130	0xbe9666cd	-0.29375306
131	0xbf08f199	-0.5349365
132	0x3d25c223	0.040468346
133	0x3e03f5b6	0.128867
134	0xbe8b76db	-0.27239117
135	0xbe6c0da7	-0.23052083
136	0xbbb8fe0a	-0.005645518
137	0xbfeee454	-1.866343
138	0x3f686e20	0.9079304
139	0xbf0c8fc0	-0.54906845
140	0xbea2dbfd	-0.31808463
141	0xbe45fc80	-0.19334602
142	0x3dd7e3d9	0.10541505
143	0x3e3aaddf	0.18230389
144	0xbc72fae2	-0.014830323
145	0x3f53ecd7	0.82783264
146	0x3f5b64b3	0.8570053
147	0x3ed426f3	0.41435966
148	0xbef6e4c5	-0.48221412
149	0xbe11e557	-0.14247642
150	0x3c7936a7	0.015210784
151	0x3d33f160	0.043931365
152	0xbf062b05	-0.5240939
153	0xbd8e1af2	-0.06938733
154	0xbedfcdbc	-0.4371165
155	0x3db3c1d0	0.08777201
156	0x3ebb4d40	0.36582375
157	0x3dd22d81	0.102625854
158	0x3e91dae3	0.2848731
159	0x3c27b53b	0.01023608
160	0xbd90455d	-0.0704448
161	0x3e16bbf2	0.14720133
162	0x3d73ab58	0.059489578
163	0xbad737f0	-0.0016419869
164	0xbe2e45e6	-0.17018852
165	0x3ed05fe3	0.40698156
166	0xbf3d1eb2	-0.7387496
167	0xbdbeeb35	-0.09322206
168	0xbdb412de	-0.08792661
169	0xbfbce58a	-1.475755
170	0x3e5135cf	0.20430683
171	0xbf553350	-0.8328142
172	0x3e68eb97	0.2274612
173	0x3e6f5afd	0.23374553
174	0xbbd220c7	-0.006412599
175	0xbf1484a4	-0.58014894
176	0x3e862e75	0.2620732
177	0xbe66ce5e	-0.2253966
178	0x3e54135b	0.20710509
179	0x3cf6b9e0	0.030117929
180	0xbe86b204	-0.2630769
181	0xbe9f9c28	-0.31173825
182	0x3e0aa4ac	0.1353938
183	0x3e06d916	0.13168749
184	0xbe10b4cf	-0.14131473
185	0x3eea37b3	0.4574562
186	0xbdf3c2c5	-0.11902384
187	0x3ee06d76	0.43833512
188	0x3dceea60	0.10103297
189	0xbed9ad1b	-0.42514881
190	0xbee883e1	-0.45413116
191	0xbe9ce0b8	-0.30640197
192	0xbdb967cb	-0.09053
193	0x3bf35c3c	0.0074267667
194	0x3f4b3516	0.7937788
195	0xbf12efbb	-0.5739705
196	0x3f2862ac	0.6577556
197	0x3dff0181	0.12451459
198	0xbd94ad51	-0.0725962
199	0xbeb529b2	-0.35383373
200	0x3cf3ec15	0.029775659
201	0x3e93602b	0.28784308
202	0xbed05f90	-0.40697908
203	0xbec46fa9	-0.3836644
204	0x3df52973	0.119707964
205	0xbdc4396d	-0.095812656
206	0xbc1c8ced	-0.009555084
207	0xbe46780f	-0.19381736
208	0x3e985e09	0.29759243
209	0x3edee640	0.43535042
210	0x3e6b4a9d	0.22977681
211	0x3d1ca183	0.038239967
212	0xbe602e36	-0.21892628
213	0xbf0dacb5	-0.55341655
214	0xbf1ac529	-0.6045709
215	0xbd90be4c	-0.07067546
216	0xbe63aebd	-0.22234626
217	0x3e1ec3a5	0.1550432
218	0x3cd17fba	0.0255736
219	0xbf349e3e	-0.7055396
220	0x3e9fd243	0.31215104
221	0x3edf0e36	0.4356553
222	0x3e82ac1d	0.25521937
223	0x3ec4c041	0.38427928
224	0x3d6fd3e4	0.058551684
225	0x3d1b536f	0.037921365
226	0x3d9f99ba	0.07792993
227	0xbea90e7f	-0.33018872
228	0x3f8d2ecd	1.1029907
229	0xbc8244fa	-0.015902031
230	0xbd3e50f8	-0.046463937
231	0xbe524dee	-0.2053754
232	0xbe5d0664	-0.21584469
233	0xbd08e905	-0.03342535
234	0x3e8c5c66	0.27414244
235	0x3e730491	0.2373221
236	0xbed9f375	-0.42568555
237	0xbf03f338	-0.51543
238	0x3def02c1	0.11670447
239	0x3ebf4276	0.37355393
240	0xbe5071e2	-0.20355943
241	0x3ed9568c	0.42448843
242	0xbe2510e4	-0.16119725
243	0xbe76d145	-0.24103267
244	0xbd809566	-0.062784955
245	0xbe5a7e4a	-0.21337238
246	0xbe121d24	-0.14268929
247	0x3eb03707	0.34416983
248	0xbed0d102	-0.4078446
249	0x3d567778	0.052360028
250	0xbe7451c6	-0.23859319
251	0x3ea9325a	0.33046228
252	0x3ea61f71	0.32445863
253	0x3ee02c90	0.43783998
254	0xbf16508f	-0.5871667
255	0x3e270ca3	0.16313414

bias f4 [128]
0	0xbe3d5a1c	-0.18491405
1	0x3e9e16eb	0.3087686
2	0xbdf3b017	-0.11898821
3	0x3e9a2133	0.30103454
4	0xbd73b076	-0.05949446
5	0x3e3dbb76	0.18528542
6	0x3d643d63	0.055722605
7	0x3f2c1316	0.6721662
8	0x3f0ed012	0.5578624
9	0xbd7e8c06	-0.062145256
10	0x3df6ad2c	0.12044749
11	0x3f154096	0.58301675
12	0xbde00c07	-0.10939794
13	0xbc3fc5f5	-0.0117049115
14	0x3ec8e466	0.39236754
15	0xbe9deb2e	-0.3084349
16	0x3e9fd100	0.31214142
17	0x3d8df35b	0.06931182
18	0x3ed23c7f	0.4106178
19	0x3c9f924c	0.01947894
20	0xbe4e88de	-0.20169398
21	0x3dd94cb5	0.10610334
22	0x3ee304f4	0.44339716
23	0x3d161e29	0.036649857
24	0x3d84a27d	0.06476305
25	0x3e97ae77	0.29625294
26	0x3d946d40	0.072474
27	0x3e453907	0.19260035
28	0xbd31942e	-0.043354206
29	0xbd214aca	-0.039377965
30	0x3eec6fda	0.46179086
31	0xbeeb5af6	-0.45967835
32	0x3e29dee2	0.1658893
33	0x3f0a24ee	0.539626
34	0xbea67b76	-0.32516068
35	0xbe16d62b	-0.14730136
36	0xbd97a994	-0.07405391
37	0xbce0d736	-0.02744637
38	0x3e4edef8	0.20202243
39	0x3e480469	0.19532932
40	0xbe603824	-0.21896416
41	0xbead4a1f	-0.33845612
42	0x3edaa87d	0.4270667
43	0x3e38a875	0.18033011
44	0x3e09e579	0.13466443
45	0x3e85010c	0.2597736
46	0x3e03d2b2	0.12873343
47	0xbd18d815	-0.037315447
48	0xbea51964	-0.32245934
49	0xbd76c1a4	-0.060243264
50	0x3ebe08ce	0.37116092
51	0x3d550095	0.05200251
52	0x3f2a63c8	0.66558504
53	0x3cb94a8c	0.022618555
54	0x3eb98c3c	0.36239803
55	0x3d9738ff	0.07383918
56	0xbc00b5a4	-0.0078558065
57	0x3ef4fd6a	0.4784959
58	0xbeb76d2c	-0.3582548
59	0x3ee47b1c	0.44625175
60	0xbe4be84f	-0.19912837
61	0x3ea3fae2	0.32027346
62	0xbc340995	-0.010988613
63	0x3e07a57c	0.13246721
64	0xbe7165de	-0.23574015
65	0x3e42e39c	0.19032139
66	0x3dc7fba3	0.09764793
67	0x3ef86e63	0.48521718
68	0x3e96afb3	0.29430923
69	0xbe32d8da	-0.17465535
70	0xbd51ebdf	-0.051250335
71	0x3db30e8e	0.087430105
72	0xbcbfcdc1	-0.02341354
73	0x3d3136cc	0.04326515
74	0x3d39f493	0.04539926
75	0x3e63104e	0.22174188
76	0xbd70cf4b	-0.05879144
77	0x3eb49bcb	0.3527511
78	0x3cb54900	0.022129536
79	0x3e222f3d	0.15838332
80	0x3e2da08d	0.16955777
81	0x3dc565c5	0.096385516
82	0xbd0dd91e	-0.034630887
83	0xbd061237	-0.032732215
84	0xbc269e4b	-0.010169576
85	0x3e5806f0	0.21096396
86	0x3ea9f75b	0.3319653
87	0xbe120d27	-0.1426283
88	0x3dfd19f9	0.123584695
89	0x3f00f7c9	0.5037809
90	0x3dc8634a	0.09784563
91	0x3f0f2500	0.5591583
92	0xbe3f50dd	-0.1868319
93	0xbef19f01	-0.47191623
94	0x3e8024ac	0.25027978
95	0x3e4dd461	0.20100547
96	0x3e78c872	0.24295214
97	0x3e9b27e3	0.3030387
98	0x3da62590	0.08112633
99	0x3e24e42e	0.16102669
100	0x3ea9b4db	0.33145794
101	0x3d9014a8	0.0703519
102	0xbde9df78	-0.114195764
103	0x3e6943e5	0.22779806
104	0x3f0d11e9	0.55105454
105	0xbe166f51	-0.14690901
106	0x3de6f187	0.112765364
107	0x3e64429a	0.22291031
108	0x3ec991de	0.393691
109	0xbcfaa939	-0.03059827
110	0x3dd8341a	0.105568126
111	0x3eb4b9e8	0.35298085
112	0xbdb368c5	-0.087602176
113	0xbd4d3719	-0.050101373
114	0x3e517289	0.20453848
115	0x3eb2944f	0.34878775
116	0x3c63fdd1	0.013915495
117	0x3ea2162f	0.3165755
118	0xbb66d46c	-0.0035221828
119	0xbe7cd92d	-0.24692221
120	0xbcae8316	-0.021302741
121	0x3e5e951b	0.21736567
122	0x3ebe6131	0.37183526
123	0x3e0c4644	0.13698679
124	0x3e26b290	0.16279054
125	0x3de17c01	0.1100998
126	0xbcfff825	-0.031246254
127	0x3c70c1d7	0.0146946525

weight f4 [128, 128]
0	0x3e91ff3a	0.28515035
1	0xbe35b6b1	-0.17745472
2	0xbba098ac	-0.0049010124
3	0x3e22a06e	0.15881512
4	0x3e6562bc	0.22400945
5	0xbd9cbf06	-0.07653622
6	0x3e598e69	0.21245731
7	0x3de79b4f	0.1130892
8	0x3d728bad	0.059215236
9	0x3f35ab96	0.70964944
10	0x3e1d53f7	0.15364061
11	0xbb346f23	-0.0027532063
12	0x3e968f8f	0.29406402
13	0x3df36cba	0.11885972
14	0xbe4eb112	-0.20184734
15	0x3e3d98c3	0.18515305
16	0x3dcbec70	0.09957206
17	0xbc83e0ba	-0.016098369
18	0x3d820531	0.063486464
19	0x3e2f3f2e	0.17113945
20	0x3e7f8a83	0.24955182
21	0xbe1a4530	-0.15065455
22	0x3e261cea	0.16221967
23	0x3de2a2cf	0.110662095
24	0xbeb44494	-0.3520857
25	0xbd786d6c	-0.060651228
26	0x3dc42273	0.09576883
27	0x3d44091a	0.047860242
28	0xbf290acc	-0.660321
29	0x3eb5e30a	0.3552478
30	0xbb5faa79	-0.003412871
31	0x3ed5136a	0.41616374
32	0x3eae8d39	0.3409212
33	0xbe30fb0b	-0.17283265
34	0x3ee1807f	0.44043347
35	0x3e1ff1fc	0.15619653
36	0xbeb32277	-0.34987232
37	0x3ebab22a	0.36464053
38	0x3dcec26e	0.10095678
39	0x3dd82684	0.10554221
40	0x3e996abf	0.29964253
41	0x3edfaf81	0.43688586
42	0xbe3c80a7	-0.18408452
43	0x3c9a18b9	0.018810617
44	0x3e879eb7	0.26488277
45	0x3e4a1889	0.19735922
46	0x3e598a81	0.21244241
47	0x3efbc133	0.49170837
48	0x3ed235f3	0.41056785
49	0x3dd8332f	0.105566375
50	0x3d9ce23f	0.076603405
51	0x3eba288b	0.36359057
52	0x3d9660ed	0.07342706
53	0x3e6ce2e4	0.23133427
54	0x3de4d0c3	0.11172631
55	0xbeae2268	-0.34010625
56	0x3d33c10d	0.04388528
57	0xbb92fe65	-0.0044858926
58	0x3e396095	0.1810325
59	0xbdd80aa6	-0.10548906
60	0xbeb063e0	-0.344512
61	0x3b095696	0.002095615
62	0x3e5bdfdb	0.21472113
63	0xbe720a9d	-0.23636861
64	0x3e8829cb	0.26594386
65	0x3d4d77f9	0.050163243
66	0xbee70784	-0.4512292
67	0x3dd781b8	0.10522789
68	0xbec06cb7	-0.37582943
69	0x3e31989b	0.1734337
70	0x3e29672d	0.16543265
71	0x3e9555e5	0.29167095
72	0x3e78dcb6	0.24302945
73	0x3e1cb576	0.15303597
74	0xbf1f01c3	-0.62112063
75	0x3e323358	0.17402399
76	0x3eac479e	0.3364839
77	0x3dab8530	0.08375013
78	0x3e4845dd	0.195579
79	0xbdd76186	-0.10516648
80	0x3db3c7b3	0.08778324
81	0x3eac43ef	0.3364558
82	0xbf003409	-0.500794
83	0x3bc63911	0.0060492833
84	0x3da36d15	0.0797979
85	0x3e4505ac	0.19240445
86	0x3daac7f4	0.08338919
87	0x3e81afcd	0.25329438
88	0x3e5b5198	0.21417844
89	0x3cba1527	0.022715164
90	0xbc9ee0ca	-0.019394297
91	0xbdbe56d4	-0.09293905
92	0x3eb70e43	0.35753068
93	0x3e7fb157	0.24969994
94	0xbe5d95b1	-0.21639134
95	0x3db3a95d	0.08772538
96	0x3e6a40a8	0.22876227
97	0x3e400f51	0.18755843
98	0xbe454963	-0.19266276
99	0xbe7d50b7	-0.24737822
100	0x3d5c6ec0	0.053816557
101	0xbe419c2b	-0.1890723
102	0x3eece3c6	0.46267527
103	0x3dac676c	0.08418164
104	0x3dbd7b1c	0.09251997
105	0x3d3d9df2	0.046293207
106	0x3e254baa	0.16142145
107	0x3e400810	0.18753076
108	0x3e2f46db	0.17116873
109	0xbde6e732	-0.11274566
110	0x3dea108d	0.11428938
111	0x3e5c61a2	0.21521619
112	0x3e36fbed	0.1786954
113	0x3e4168db	0.18887655
114	0x3e753e6b	0.23949592
115	0xbdefcee7	-0.11709385
116	0xbf3c516d	-0.73561746
117	0xbbe6d2f4	-0.0070441905
118	0xbe874a11	-0.26423696
119	0x3d19c6b3	0.03754301
120	0x3da61358	0.08109158
121	0x3d1f6ede	0.03892409
122	0x3db67676	0.089093134
123	0xbedc8565	-0.43070522
124	0xbea19eb6	-0.315664
125	0xbe4d9fe6	-0.20080528
126	0x3e9ed6bc	0.31023204
127	0x3d2f0d37	0.042737212
128	0x3e57ae8d	0.2106268
129	0xbcce3f94	-0.0251768
130	0xbdbc1ca8	-0.09185153
131	0x3d5ab7e2	0.05339802
132	0x3ea972c6	0.33095378
133	0x3dabdb84	0.08391479
134	0x3e338663	0.17531733
135	0x3e0f50ef	0.13995717
136	0x3cbe9cdb	0.023268154
137	0x3f2976fd	0.66197187
138	0x3e4cde9d	0.20006795
139	0xbcb67ee2	-0.0222773
140	0x3ed21797	0.41033623
141	0x3ce70447	0.028200282
142	0xbe280aef	-0.16410421
143	0x3db0fe85	0.08642296
144	0x3d81a1b1	0.06329668
145	0xbde685e2	-0.11256005
146	0x3e23208b	0.15930383
147	0x3e08778e	0.13326856
148	0x3e89f52c	0.26944864
149	0xbe398191	-0.18115832
150	0x3e58544f	0.21125911
151	0x3e5f73dc	0.2182154
152	0xbed0d92e	-0.40790695
153	0xbbedf091	-0.0072613438
154	0x3e773dcd	0.24144669
155	0x3dd1a93e	0.102373585
156	0xbf051fdc	-0.5200174
157	0x3e8456d2	0.2584749
158	0xbdaf9ef9	-0.085752435
159	0x3ebc0220	0.3672037
160	0x3eb7f758	0.35930896
161	0xbe0e1435	-0.13874896
162	0x3ef2ac6b	0.4739717
163	0x3e3bf430	0.18354869
164	0xbe83c7bd	-0.25738326
165	0x3e3aeddd	0.182548
166	0x3d36712a	0.044541515
167	0x3e05af44	0.1305514
168	0x3ed165e8	0.4089806
169	0x3f005282	0.50125897
170	0x3c2a15a9	0.010381141
171	0xbc8d38c9	-0.017238991
172	0x3e442da3	0.19158034
173	0x3e4dd8d2	0.20102242
174	0x3e806003	0.2507325
175	0x3ed76f1a	0.4207695
176	0x3eb2547a	0.34830076
177	0x3e884d03	0.26621255
178	0x3d0ce322	0.0343963
179	0x3ee52b71	0.44759706
180	0xbb982942	-0.00464359
181	0x3e285d79	0.16441907
182	0x3d8c0a13	0.06837859
183	0xbe843a39	-0.2582567
184	0x3e3bf635	0.1835564
185	0xbdaec12d	-0.08532939
186	0x3e8bc839	0.27301195
187	0x3c1d3168	0.009594299
188	0xbee30b2d	-0.44344464
189	0xbd0d84b1	-0.034550373
190	0x3ddac263	0.106816076
191	0xbe89ed95	-0.26939073
192	0x3eb1ddef	0.34739634
193	0x3dc404fa	0.09571262
194	0xbea188a9	-0.31549576
195	0x3e6203f7	0.22071825
196	0xbe704901	-0.23465349
197	0x3d9bdfad	0.07611022
198	0x3e94f2de	0.29091543
199	0x3e773f67	0.2414528
200	0x3e5236b9	0.20528688
201	0x3e4bbcc2	0.19896224
202	0xbf206a9d	-0.6266268
203	0x3e65b265	0.22431333
204	0x3eac0710	0.33599138
205	0x3b94ed67	0.004544902
206	0x3e93da4b	0.28877482
207	0xbe8c7de4	-0.27439797
208	0x3def5133	0.116854094
209	0x3ece1164	0.40247643
210	0xbec31634	-0.38102877
211	0x3b39db5d	0.002835951
212	0x3dd983e7	0.106208615
213	0x3db9311e	0.090425715
214	0x3d48dda4	0.049039498
215	0x3e8a7c3c	0.27047908
216	0x3e5a300d	0.21307392
217	0x3db5f6ee	0.08884989
218	0xbd90f003	-0.070770286
219	0xbb7e6e38	-0.003882302
220	0x3e8d019b	0.27540287
221	0x3e933edc	0.28758895
222	0xbe6f6072	-0.23376635
223	0x3e865025	0.2623302
224	0x3e9990e8	0.29993367
225	0x3e19b4e8	0.15010417
226	0xbe86f8da	-0.26361734
227	0xbe3a3d6d	-0.18187495
228	0x3e3065a4	0.17226273
229	0xbe9970f4	-0.2996899
230	0x3e8fb996	0.28071278
231	0x3df2c8c3	0.118546985
232	0x3ce68288	0.028138414
233	0x3e2905ac	0.1650607
234	0x3cfad370	0.0306184
235	0x3d4033ce	0.046924405
236	0x3e2a5486	0.16633806
237	0xbcd261c9	-0.025681393
238	0x3e4ef2fd	0.2020988
239	0x3e8af5ca	0.27140647
240	0x3eacb25e	0.33729833
241	0x3d669999	0.056298826
242	0x3e6d2bbb	0.23161213
243	0xbde906c1	-0.11378241
244	0xbf1be0d3	-0.6088993
245	0x3dfe0101	0.12402535
246	0xbe4253e2	-0.18977311
247	0x3d750ef1	0.059828702
248	0x3e9a2890	0.30109072
249	0xbdb1fdd4	-0.08690992
250	0x3e891dee	0.26780647
251	0xbee5a14b	-0.4484962
252	0xbea63960	-0.3246565
253	0xbe1f2be0	-0.1554408
254	0x3e8f5397	0.2799346
255	0x3dbaad8d	0.091151334

bias f4 [128]
0	0xbe3eccd9	-0.1863283
1	0xbcc847a3	-0.024448222
2	0xbd4f3149	-0.05058411
3	0xbdf83626	-0.12119703
4	0xbd82245e	-0.06354593
5	0xbd65738b	-0.056018393
6	0x3d171edb	0.03689466
7	0xbe2a35f1	-0.1662214
8	0xbe29dc4f	-0.16587947
9	0xbdbd304f	-0.0923773
10	0x3daf4cf4	0.085595995
11	0xbe1e358a	-0.15450111
12	0x3da7109e	0.08157466
13	0xbe0f91f3	-0.14020519
14	0xbdf2ce1d	-0.11855719
15	0xbdcbd442	-0.09952594
16	0x3d8b82f4	0.06812087
17	0x3df71ded	0.12066255
18	0x3c25b033	0.01011281
19	0x3c8cd3e6	0.017190885
20	0xbe096f27	-0.13421308
21	0x3bd1c9d7	0.006402235
22	0x3e27530a	0.1634027
23	0x3e8178f1	0.25287583
24	0x3e31fff6	0.17382798
25	0x3db94905	0.090471305
26	0xbd0553aa	-0.03255049
27	0xbd2be31a	-0.041964628
28	0x3e28e1af	0.16492341
29	0xbd9f32a6	-0.07773332
30	0x3ddeef99	0.108855434
31	0xbe8178b0	-0.2528739
32	0xbda4c967	-0.08046227
33	0x3e7b3448	0.24531662
34	0xbe4341f3	-0.19068126
35	0xbd2ef8cd	-0.042717744
36	0x3c65b10d	0.014019263
37	0x3d5a9d9d	0.053372968
38	0xbe02cd00	-0.12773514
39	0x3e38079f	0.17971657
40	0xbdd28093	-0.1027843
41	0x3e2fd497	0.1717094
42	0x3d5b6b7b	0.0535693
43	0x3d37b0b8	0.044846267
44	0xbe5867b9	-0.21133317
45	0xbd39f36a	-0.045398153
46	0x3e30444e	0.17213556
47	0x3e2af9c3	0.16696839
48	0xbdc04671	-0.09388436
49	0xbce4a36d	-0.027909959
50	0xbd7af98b	-0.06127314
51	0xbd38c5a1	-0.04511035
52	0x3dabf52c	0.08396372
53	0xbdf8add4	-0.1214253
54	0xbd024252	-0.03180153
55	0xbda54f70	-0.08071792
56	0xbd299b1b	-0.041407686
57	0xbc813311	-0.01577142
58	0xbafe5a2e	-0.0019405538
59	0xbdc26d08	-0.09493452
60	0xbdece447	-0.11566978
61	0x3d96ae9f	0.07357525
62	0x3d93c2ee	0.07214914
63	0x3e3e9ad8	0.18613756
64	0xbd7976c5	-0.060904283
65	0xbe350527	-0.17677747
66	0xbdb7f73d	-0.08982704
67	0x3b2a364b	0.0025972303
68	0xbdb9bb91	-0.090689786
69	0x3e34d5f7	0.17659746
70	0x3cf60ae0	0.030034482
71	0xbd9a3e4b	-0.07531413
72	0x3bdbf069	0.0067120087
73	0xbe3ac047	-0.1823741
74	0xbe023281	-0.12714578
75	0xbe338d3e	-0.17534348
76	0x3cfb1ed4	0.030654348
77	0xbe20e060	-0.15710592
78	0xbd9175cb	-0.07102545
79	0x3eac525a	0.3365658
80	0xbdb991ff	-0.0906105
81	0xbd2cd2f0	-0.042193353
82	0x3d820ec0	0.063504696
83	0x3d969967	0.07353478
84	0x3c915a5c	0.017743282
85	0xbdc02e80	-0.09383869
86	0x3df6724a	0.12033518
87	0xbdb16e23	-0.08663585
88	0xbda23b17	-0.07921427
89	0x3e2ecb8d	0.17069836
90	0xbd96a674	-0.07355967
91	0xbd9012bf	-0.070348255
92	0xbda3a911	-0.07991231
93	0xbd9eecca	-0.07760008
94	0xbd93be7f	-0.072140686
95	0xbe5455f0	-0.20735908
96	0x3e57fef6	0.21093354
97	0xbe05dea2	-0.13073209
98	0x3e2dfc3d	0.16990753
99	0xbd8c22a4	-0.06842545
100	0x3d5c65d3	0.053808045
101	0x3dda9005	0.10672001
102	0x3d8f5baa	0.069999054
103	0xbd2af845	-0.041740675
104	0x3e54f6db	0.20797293
105	0xbe734106	-0.23755273
106	0xbdd296ef	-0.102826945
107	0xbe04f4d5	-0.12984021
108	0xbdfb3f67	-0.122679524
109	0xbe42165e	-0.18953845
110	0xbdd6a89c	-0.104813784
111	0x3df8a77b	0.12141319
112	0xbdba26d4	-0.09089437
113	0x3e280cc5	0.16411121
114	0xbdc6063e	-0.09669159
115	0xbd88bd75	-0.06676761
116	0x3e7c8595	0.24660333
117	0xbe09b0f5	-0.1344641
118	0xbde950c8	-0.11392361
119	0x3e0a63bf	0.13514613
120	0x3e668f3b	0.22515576
121	0x3d8907b0	0.066909194
122	0x3de169da	0.11006518
123	0x3e23715a	0.15961209
124	0x3e02a6fb	0.1275901
125	0xbe01ecfb	-0.12688057
126	0x3dccc9d1	0.09999431
127	0x3e736b0f	0.23771308

weight f4 [1, 128]
0	0xbf13299e	-0.5748538
1	0xbf034737	-0.5128054
2	0xbf1d4c24	-0.61444306
3	0x3fab6b66	1.339215
4	0xbf186d95	-0.5954221
5	0xbf191037	-0.59790367
6	0xbd97bcb3	-0.074090384
7	0xbf1ff08b	-0.62476414
8	0xbf0d6c30	-0.55243206
9	0xbf07bfd6	-0.53027093
10	0x3f475427	0.7786278
11	0xbf1dcc84	-0.6164019
12	0x3fce1190	1.609911
13	0xbf123774	-0.57115865
14	0xbf3e2ea4	-0.7428992
15	0xbf4b7eff	-0.79490656
16	0x3f453528	0.77034235
17	0x3f33ac1a	0.7018448
18	0x3fb1c540	1.3888321
19	0x3d99c8ee	0.075090274
20	0xbf0f8864	-0.5606749
21	0xbf10619f	-0.5639896
22	0x3f01a432	0.5064117
23	0x3f2e90e7	0.68189853
24	0x3f4cbcbe	0.799755
25	0x3f5ac4d9	0.85456616
26	0xbf0d3dba	-0.5517231
27	0x3fa1157e	1.2584684
28	0x3f1c7fcf	0.6113252
29	0xbef3a332	-0.47585446
30	0x3f06bf5c	0.5263574
31	0xbf506ba6	-0.8141426
32	0xbf29185e	-0.66052806
33	0x3f197d98	0.59957266
34	0xbf0e2934	-0.5553162
35	0x3edc5ea7	0.43040964
36	0xbf16e68c	-0.58945537
37	0x3f68a113	0.9087078
38	0xbee800cf	-0.45313117
39	0x3f41a99c	0.7564943
40	0xbf468b5a	-0.77556384
41	0x3f0990d6	0.5373663
42	0xbf00fbff	-0.50384516
43	0x3fa2adcc	1.2709289
44	0xbf3e9c21	-0.74456984
45	0xbf198e7b	-0.5998303
46	0x3f2264ac	0.63434863
47	0x3f5aa191	0.8540278
48	0xbf1f578c	-0.6224296
49	0x3d5e109a	0.05421505
50	0x3d87d358	0.066321075
51	0xbf148d99	-0.5802856
52	0x3f5aa164	0.8540251
53	0xbf2c801e	-0.6738299
54	0xbf0e88fd	-0.5567778
55	0xbf181efc	-0.5942228
56	0xbf33c674	-0.7022469
57	0xbf057821	-0.5213643
58	0xbefb2184	-0.49049008
59	0xbf14b53f	-0.5808906
60	0xbf1d9ff3	-0.6157219
61	0x3f52eb3d	0.82390195
62	0x3aa7d6da	0.001280512
63	0x3ed093a5	0.40737644
64	0xbf14432d	-0.57915
65	0xbf06ab8b	-0.52605504
66	0xbefb1193	-0.49036846
67	0xbf0c9c10	-0.5492563
68	0xbf186732	-0.59532464
69	0x3f32f12f	0.69899267
70	0x3f57a069	0.8422914
71	0xbf03b681	-0.51450354
72	0x3d63540b	0.05550007
73	0xbf4337f7	-0.7625727
74	0xbf1b75b1	-0.6072646
75	0xbf031f25	-0.512194
76	0x3f53bf70	0.82713985
77	0xbf1eee33	-0.62082213
78	0xbf1ae617	-0.6050734
79	0x3f154d98	0.58321524
80	0xbf0d5daa	-0.55221045
81	0xbf25966d	-0.64682657
82	0x3f77c780	0.9678879
83	0x3f36ce99	0.71408993
84	0x3f8f05a8	1.1173601
85	0x3ae688a9	0.0017588335
86	0x3fd25a5e	1.6433828
87	0xbc534409	-0.012894639
88	0xbf1ab169	-0.60426956
89	0x3f7955ae	0.9739636
90	0xbf218853	-0.6309864
91	0x3fa8cf43	1.3188251
92	0xbf14265d	-0.5787104
93	0xbf1e40ed	-0.6181782
94	0xbf1c2314	-0.60991025
95	0xbf009b42	-0.50236905
96	0x3f6c489e	0.92298305
97	0xbf1e3c68	-0.6181092
98	0x3f8c232b	1.0948232
99	0xbf16407b	-0.5869214
100	0x3f58ca9f	0.84684175
101	0x3f8516c5	1.0397574
102	0xbd994411	-0.07483686
103	0xbf02a5ce	-0.5103425
104	0x3f438deb	0.76388425
105	0xbf284786	-0.65734136
106	0xbeea2486	-0.4573099
107	0xbf26cb6e	-0.6515416
108	0xbf2928ef	-0.66078085
109	0xbf20d09f	-0.6281833
110	0xbefcd91b	-0.49384388
111	0x3f243a89	0.6415182
112	0xbd550b3e	-0.052012675
113	0x3f2f714f	0.6853227
114	0xbf173a42	-0.5907327
115	0x3d91098b	0.07081898
116	0x3f0cf370	0.55058956
117	0xbf02edfa	-0.51144373
118	0xbf260b4a	-0.64860976
119	0x3f3e1167	0.74245304
120	0x3f4b5c2f	0.79437536
121	0x3f07e92d	0.53090173
122	0x3efa70b8	0.48914123
123	0x3f676acb	0.9039733
124	0x3f483293	0.7820217
125	0xbf2c1284	-0.6721575
126	0x3ecc7a32	0.39936978
127	0x3f2f0320	0.68364143

weight f4 [128, 128]
0	0xbdb4f95d	-0.08836625
1	0xbe2a4166	-0.1662651
2	0x3e6eb39b	0.23310702
3	0xbd86a749	-0.06574876
4	0x3df91ff8	0.12164301
5	0xbf0cdb0c	-0.5502174
6	0x3d9e7c68	0.07738572
7	0xbdbe208a	-0.0928355
8	0xbe05a623	-0.13051657
9	0xbd26f770	-0.04076332
10	0xbd3d568c	-0.046225116
11	0xbcbd6ac2	-0.023122195
12	0x3e698e50	0.22808194
13	0xbe991e49	-0.29905918
14	0xbdfb6c2d	-0.12276492
15	0x3e401494	0.1875785
16	0x3cb9a2c1	0.022660615
17	0xbda4bd4e	-0.080439195
18	0xbe26507b	-0.16241638
19	0x3cb4f568	0.022089675
20	0xbdabfc51	-0.08397735
21	0xbd843075	-0.06454555
22	0xbe9cd64d	-0.3063225
23	0xbf20a17b	-0.627464
24	0x3e847df3	0.25877342
25	0x3d9385cb	0.07203253
26	0xbe308840	-0.17239475
27	0x3df0f811	0.11766065
28	0x3e2d3554	0.16914874
29	0x3dd4aa86	0.10384087
30	0xbd871de9	-0.06597502
31	0xbe48696f	-0.1957147
32	0xbef974ef	-0.48722026
33	0xbe25eb10	-0.1620295
34	0xbc8f55c5	-0.017496953
35	0x3db94013	0.09045424
36	0x3de212b9	0.11038727
37	0xbbf75f54	-0.007549206
38	0xbecf94ae	-0.4054312
39	0xbd7c6f52	-0.0616296
40	0xbee1c75e	-0.44097418
41	0xbf118743	-0.5684702
42	0x3ca57f99	0.020202445
43	0xbd57f15d	-0.052720416
44	0x3dc7564e	0.09733258
45	0xbe9941ab	-0.29932913
46	0x3e62d71a	0.22152367
47	0x3e96a2f0	0.29421186
48	0x3e16980c	0.14706439
49	0xbf3d7f69	-0.7402254
50	0x3d8b28c2	0.06794883
51	0xbdaf3f79	-0.08557028
52	0xbc72251f	-0.014779358
53	0xbd8c389c	-0.06846735
54	0xbe1eb1ad	-0.15497465
55	0x3e40fc90	0.18846345
56	0xbe098d39	-0.13432778
57	0xbe168ebe	-0.1470289
58	0xbf515cba	-0.81782115
59	0xbdbe96b8	-0.09306091
60	0x3d78826e	0.060671262
61	0x3c0b038c	0.008484732
62	0x3e76c8dd	0.24100061
63	0x3da610cf	0.08108675
64	0x3e6dd279	0.2322482
65	0x3da41af2	0.08012952
66	0xbc9265ea	-0.017870862
67	0xbe2f44bb	-0.17116062
68	0xbdc4dfe6	-0.09613018
69	0x3d0cc296	0.03436526
70	0xbf08042d	-0.5313137
71	0x3d81bd4a	0.06334932
72	0xbca2dff2	-0.019882176
73	0xbe8fbed4	-0.28075278
74	0x3e283aca	0.16428676
75	0x3e489356	0.19587454
76	0xbe08f824	-0.13375908
77	0x3bda643b	0.0066647804
78	0xbed5263c	-0.41630733
79	0xbda68c2c	-0.081322044
80	0x3e0755a8	0.13216269
81	0xbf3f594d	-0.7474564
82	0xbaddd90e	-0.0016925649
83	0x3e057534	0.1303299
84	0x3e02b1f3	0.12763195
85	0xbf09a7c2	-0.53771603
86	0x3cdf64f7	0.027269823
87	0x3daab5c3	0.083354495
88	0xbd5e4527	-0.054265168
89	0x3db8da45	0.090260066
90	0xbdf07b0a	-0.11742218
91	0x3c996110	0.01872304
92	0x3d3cd32c	0.046099827
93	0x3e057570	0.1303308
94	0xbbc0d4a3	-0.0058847233
95	0xbf52ba39	-0.82315403
96	0x3dbc3292	0.09189333
97	0xbd0ea470	-0.03482479
98	0x3e60ef46	0.21966276
99	0xbbb166df	-0.0054138745
100	0xbc1668d5	-0.009180267
101	0x3e17417a	0.14771071
102	0xbd639830	-0.05556506
103	0x3d2d5649	0.042318616
104	0x3bd69fa8	0.006549794
105	0xbeba8be3	-0.3643485
106	0xbd9ee32b	-0.077581726
107	0x3e5e3044	0.216981
108	0xbf16ad90	-0.58858585
109	0xbe009296	-0.12555918
110	0xbdcce428	-0.10004455
111	0xbf300b49	-0.6876722
112	0xbf216ed7	-0.63059753
113	0x3e021ae7	0.12705575
114	0x3d3e4fc3	0.046462785
115	0x3d5db9aa	0.05413214
116	0x3e9d1ff6	0.30688447
117	0xbd4fc972	-0.050729223
118	0x3ea12b45	0.31478325
119	0x3d9874cc	0.07444152
120	0xbf60d690	-0.87827396
121	0x3d9ab82f	0.075546615
122	0xbe0d1b9b	-0.13780062
123	0xba4c702e	-0.00077986985
124	0xbe23ba8c	-0.1598913
125	0xbe2f5e60	-0.17125845
126	0x3da79f81	0.0818472
127	0x3e615c08	0.22007763
128	0xbe4b69f0	-0.1986463
129	0x3c43dff2	0.011955248
130	0xbdf07a7d	-0.11742113
131	0x3d38b510	0.04509455
132	0xbddeee93	-0.10885348
133	0x3d99d2c8	0.075109065
134	0x3c5c7da5	0.01345769
135	0xbdcc20b5	-0.09967176
136	0xbe31cb76	-0.1736277
137	0xbccbc3e5	-0.024873683
138	0xbe603f6a	-0.2189919
139	0xbdef98d5	-0.11699072
140	0x3d6bcc5c	0.05756794
141	0xbe925e7e	-0.28587717
142	0x3e1fe18e	0.15613386
143	0xbe3bad06	-0.18327722
144	0xbd15f43a	-0.036609866
145	0x3b218eb5	0.002465171
146	0x3dd6da16	0.10490815
147	0xbdff8f0e	-0.124784574
148	0x3e5b8cb3	0.21440391
149	0x39b29fdd	0.00034069913
150	0x3da21f28	0.07916099
151	0xbec27271	-0.37977937
152	0x3e90a408	0.28250146
153	0x3c1dad76	0.009623876
154	0x3d80182f	0.06254613
155	0x3d9b1c1c	0.07573721
156	0xbecee44d	-0.40408555
157	0x3d934c41	0.07192279
158	0xbae2cb80	-0.0017303079
159	0xbda54529	-0.08069832
160	0xbdb9e45e	-0.09076761
161	0xbccd7780	-0.025081396
162	0x3d966b55	0.07344691
163	0xbdcf2953	-0.10115304
164	0xbef543e7	-0.47903368
165	0x3c8cd944	0.017193444
166	0x3dde0b60	0.10842013
167	0x3cb495fb	0.022044173
168	0xbdee7c12	-0.11644758
169	0xbecb23c1	-0.39675716
170	0xbde7d0a2	-0.113190904
171	0x3dc75c37	0.097343855
172	0xbdd1abab	-0.10237821
173	0x3dae89f7	0.085224085
174	0xbd48f73b	-0.049063902
175	0xbe2d0ff0	-0.16900611
176	0x3e1616f1	0.14657189
177	0xbd8dadce	-0.06917916
178	0x3c084e1c	0.008319404
179	0xbe757614	-0.23970824
180	0xbcedb383	-0.029016262
181	0xbe1dc709	-0.15407957
182	0xbca63271	-0.020287724
183	0x3e35deab	0.17760722
184	0xbe446ad0	-0.1918137
185	0x3e1f120a	0.15534225
186	0xbe106ac4	-0.14103228
187	0x3d362b97	0.044475164
188	0xbe3a2825	-0.18179376
189	0x3d95b639	0.07310147
190	0x3aec2a09	0.0018017899
191	0x3e958dd3	0.29209766
192	0xbd73e470	-0.059544027
193	0x3c033857	0.008009038
194	0xbf4288af	-0.7598981
195	0x3e9afa4c	0.30269086
196	0xbd9ed32e	-0.07755123
197	0xbbdeacb8	-0.006795492
198	0xbdd265d8	-0.102733314
199	0xbd09dd28	-0.033658177
200	0xbe39213c	-0.18079084
201	0xbe03b8dd	-0.12863488
202	0x3e39bab1	0.18137623
203	0xbdbd2ab1	-0.09236658
204	0xbe227a9c	-0.15867084
205	0x3d9459b8	0.07243675
206	0xb98b98da	-0.0002662603
207	0x3e6f0cad	0.23344679
208	0xbdcc02b5	-0.09961454
209	0x3d64aa22	0.055826314
210	0x3d75016a	0.0598158
211	0xbe08464b	-0.13308065
212	0x3d9a90a4	0.07547119
213	0x3eaad538	0.33365798
214	0x3c84f91c	0.016232066
215	0x3cee7a27	0.029110981
216	0x3e72ebc3	0.23722748
217	0x3e21883c	0.15774626
218	0x3d126c77	0.03574797
219	0xbdb51a8a	-0.088429525
220	0xbdf446af	-0.11927544
221	0x3d4b0baa	0.04957167
222	0xbd68464b	-0.05670766
223	0x3e01a91d	0.12662168
224	0x3d488ce6	0.048962496
225	0xbd02ecea	-0.03196422
226	0xbc7c6013	-0.015403765
227	0x3d208272	0.039186902
228	0x3e5cac07	0.21549998
229	0xbef95abb	-0.48702034
230	0xbe0e9720	-0.13924837
231	0xbe3bf68c	-0.18355769
232	0xbd27008c	-0.040772006
233	0xbf03286d	-0.5123356
234	0xbd165c6e	-0.03670924
235	0x3e30300f	0.17205833
236	0x3dd54214	0.10412994
237	0xbf331421	-0.6995259
238	0xbdbfe9f2	-0.093707934
239	0x3e4cbb16	0.19993243
240	0xbd6f350d	-0.058400203
241	0xbe148329	-0.14503159
242	0x3de4cccf	0.11171877
243	0x3d099d89	0.033597503
244	0x3ef8fa63	0.4862853
245	0xbc4524cd	-0.0120327
246	0x3e029bab	0.12754695
247	0xbd905abb	-0.070485555
248	0xbecbb055	-0.39782968
249	0x3d32d6d7	0.04366192
250	0x3df0c12a	0.11755593
251	0xbd997bcd	-0.07494316
252	0x3e32225c	0.1739592
253	0x3e431e60	0.19054556
254	0xbddfa524	-0.1092017
255	0xbf34056f	-0.7032079

bias f4 [128]
0	0xbcc10994	-0.023564138
1	0x3e32baa8	0.17454016
2	0x3dc79d9a	0.09746857
3	0xbd3c63cf	-0.045993622
4	0xbd5655c5	-0.05232789
5	0x3df8aae8	0.12141973
6	0xbc2a27c3	-0.0103854565
7	0x3c5e3004	0.0135612525
8	0x3c877466	0.016534995
9	0x3d2cb344	0.04216315
10	0x3d4dbc1e	0.05022823
11	0xbdc5f474	-0.09665766
12	0xbc5455eb	-0.012959938
13	0xbc7fa2c3	-0.01560277
14	0xbd4bcdbc	-0.04975675
15	0x3dd45fc9	0.10369832
16	0x3cebe2e0	0.028794706
17	0xbc2b7e9b	-0.010467197
18	0xbc25d2e2	-0.010121079
19	0x3c96074a	0.018314023
20	0x3d6aee9c	0.057356462
21	0xbcbd8e80	-0.023139238
22	0x3cf7004a	0.030151505
23	0x3d43fae2	0.047846682
24	0xbd6aee39	-0.057356093
25	0x3d9f50f5	0.07779113
26	0xbd8c985d	-0.068649985
27	0x3deca4ee	0.11554895
28	0xbbabb1a1	-0.005239681
29	0x3dcc3228	0.09970504
30	0xbe0b40ba	-0.1359891
31	0x3de65065	0.11245803
32	0xbb2a285b	-0.0025963995
33	0x3ca691bc	0.020333163
34	0xbd5e5675	-0.05428167
35	0xbd60d6ba	-0.05489228
36	0x3d99f33f	0.07517099
37	0x3df2e61c	0.11860296
38	0x3d8345c3	0.0640979
39	0x3e090c5b	0.1338362
40	0x3d2209e3	0.03956021
41	0xbde925c4	-0.11384156
42	0xbbacb4b0	-0.005270563
43	0x3d2a090b	0.04151253
44	0x3dfe0b02	0.12404443
45	0x3ce3cbbe	0.027807113
46	0xbc1df486	-0.009640818
47	0xbb5968f4	-0.003317413
48	0xbca92c40	-0.020650983
49	0xbc4767e7	-0.012170768
50	0xbd408789	-0.047004256
51	0xbe376c8c	-0.17912501
52	0x3d353efd	0.044249523
53	0x3defa05a	0.117005065
54	0xbbd35aff	-0.0064500566
55	0x3dac77d6	0.084212944
56	0xbc294280	-0.010330796
57	0x3e15dd5f	0.14635228
58	0x3c9ad358	0.018899605
59	0xbb7999b7	-0.0038086006
60	0x3e1e8ff7	0.15484606
61	0x3cce8879	0.02521156
62	0x3d9e1f7a	0.077208474
63	0x3e0c443b	0.13697903
64	0x3c08fd01	0.008361102
65	0xbd6b2348	-0.057406694
66	0x3cc5fd68	0.024168685
67	0xbd7f09cb	-0.0622652
68	0x3c9eaf41	0.019370677
69	0x3d9cefac	0.07662901
70	0xbc2e9ead	-0.010657948
71	0x3e2a53f6	0.16633591
72	0xbe37bd16	-0.17943224
73	0x3d26b2f8	0.04069802
74	0x3bccfb32	0.0062555308
75	0xbe39f3d4	-0.1815942
76	0x3d45137c	0.048114285
77	0x3ddbb744	0.107283145
78	0x3a94ebf0	0.0011361819
79	0x3d794745	0.060858984
80	0x3cd79585	0.026316414
81	0x3d148ce6	0.036267184
82	0x3c33df95	0.010978599
83	0xbd050188	-0.032472163
84	0x3e3a8210	0.18213677
85	0xbdb5bf69	-0.08874399
86	0x3dccffda	0.10009737
87	0x3d551d14	0.052029684
88	0x3d7bfd23	0.061520707
89	0xbdf83d41	-0.12121058
90	0x3dbd3c5f	0.092400305
91	0x3df6cd24	0.12050846
92	0x3d5cc84d	0.05390196
93	0x3d5df38d	0.054187346
94	0x3db83131	0.089937575
95	0x3dc5edf8	0.096645296
96	0x3d2ec043	0.042663824
97	0xbdea4b42	-0.114401355
98	0x3dcf0d7c	0.10109994
99	0xbc5d95ec	-0.013524514
100	0x3ac446f0	0.0014974754
101	0x3e0194b2	0.12654379
102	0x3d9f8f6a	0.07791026
103	0xbc60a157	-0.013710341
104	0x3df3c52d	0.11902843
105	0xbdb6c5a6	-0.08924417
106	0x3db579f7	0.088611536
107	0x3db84119	0.089967914
108	0x3c28c894	0.010301728
109	0x3dc593be	0.0964732
110	0x3d37e891	0.044899527
111	0x3e1e6100	0.1546669
112	0xbd4f8641	-0.050665144
113	0xbc3f5d2d	-0.01167993
114	0xbd8d41aa	-0.0689729
115	0x3dff299b	0.124591075
116	0x3d4c8de7	0.049940016
117	0xbd418894	-0.04724939
118	0x3d4368d1	0.047707383
119	0x3d3667ce	0.04453259
120	0xbc9943d2	-0.018709097
121	0x3d071f9f	0.03298914
122	0x3df6de26	0.1205409
123	0x3c464cf1	0.012103305
124	0x3d8bc3df	0.06824469
125	0xbd54b163	-0.05192698
126	0x3e1d5c54	0.15367252
127	0xbd83d2be	-0.0643668

weight f4 [4, 128]
0	0xbf0a847f	-0.54108423
1	0x3e76a9d2	0.24088219
2	0xbac2fbd8	-0.0014876081
3	0x3ebee3b6	0.37283105
4	0xbd0630f8	-0.032761544
5	0xbe311d23	-0.17296271
6	0xbd4985ed	-0.049199987
7	0x3db7cab8	0.089742124
8	0xbd4bc005	-0.04974367
9	0x3e044ca3	0.1291986
10	0xbd361fe9	-0.044464026
11	0xbda675ea	-0.08127959
12	0xbed1d385	-0.4098169
13	0x3cebfd7c	0.028807394
14	0x3e1dcd93	0.15410452
15	0xbddd18a2	-0.10795714
16	0xbe52f123	-0.20599799
17	0x3e2d1bc5	0.16905124
18	0xbf0e24ff	-0.555252
19	0xbecb0858	-0.39654803
20	0x3e723b77	0.23655497
21	0xbe4e5ff8	-0.20153797
22	0x3e515d47	0.20445739
23	0xbd75d1ee	-0.060014658
24	0x3e358386	0.17725953
25	0x3e1d72ca	0.1537582
26	0xbe82ebe0	-0.25570583
27	0xbefafd11	-0.490212
28	0xbeaf7d42	-0.34275252
29	0xbef2b180	-0.47401047
30	0x3b906016	0.0044059856
31	0x3e5a9729	0.21346726
32	0x3e4a504f	0.19757198
33	0x3e2f1995	0.17099603
34	0x3d2d50c8	0.042313367
35	0xbd556100	-0.05209446
36	0xbe9f11fc	-0.31068408
37	0xbd7c5ecb	-0.06161384
38	0x3e6e6e84	0.23284346
39	0x3e131e70	0.1436708
40	0x3d94f5ad	0.072734214
41	0x3e685901	0.22690202
42	0x3cc99f1c	0.024612002
43	0xbede27f8	-0.4338987
44	0x3ccef3f1	0.025262805
45	0x3d56fadd	0.052485336
46	0x3db35c70	0.087578654
47	0x3d0b4aad	0.034006763
48	0x3de54f34	0.111967474
49	0xbe492910	-0.1964457
50	0xbb5b0147	-0.003341751
51	0x3d86653f	0.0656228
52	0xbdbb30d3	-0.09140172
53	0x3dd7bdda	0.10534258
54	0xbe9a9762	-0.3019362
55	0x3e8e3cdc	0.27780807
56	0xbd5ebe4e	-0.054380707
57	0xbccee1a4	-0.025254078
58	0x3e3fe039	0.18737878
59	0xbed9b494	-0.42520583
60	0xbe19493f	-0.14969347
61	0x3ebbb002	0.3665772
62	0xbdf028d0	-0.11726534
63	0x3dd7d340	0.105383396
64	0x3d292ae1	0.041300658
65	0x3d784fb6	0.060622893
66	0xbde85450	-0.11344206
67	0x3e4547ce	0.19265673
68	0x3e06a414	0.13148528
69	0xbd193125	-0.037400384
70	0xbeb4d83b	-0.3532122
71	0x3bbfc5b0	0.0058524236
72	0xbd643c79	-0.055721734
73	0x3e956430	0.29178
74	0xbd7183fc	-0.05896376
75	0x3d2096bb	0.039206248
76	0x3e05a823	0.1305242
77	0x3dce9ee0	0.10088897
78	0x3e9bc3bf	0.3042278
79	0xbd9bd1ce	-0.076083764
80	0xbd90808f	-0.070557706
81	0x3e39b573	0.18135624
82	0x3e220eea	0.15826002
83	0x3d6a11ef	0.05714601
84	0x3df2a487	0.11847787
85	0xbe07088a	-0.13186851
86	0xbdc72f19	-0.0972578
87	0x3b816b3c	0.003949551
88	0xbd3f6469	-0.046726618
89	0xbe30bf0b	-0.17260377
90	0xbed50805	-0.4160768
91	0xbe49a7a0	-0.1969285
92	0xbd377967	-0.044793513
93	0xbc574f64	-0.013141487
94	0xbee285c9	-0.44242695
95	0xbdbf5ba3	-0.0934365
96	0x3e8b5b41	0.2721806
97	0x3d9f2280	0.07770252
98	0xbdee4481	-0.1163416
99	0x3de03bdd	0.10948918
100	0x3d3e736f	0.046496805
101	0xbe51cd49	-0.20488466
102	0xbc0f8372	-0.008759366
103	0x3d88a449	0.0667196
104	0xbdda9874	-0.106736094
105	0xbcc5ef14	-0.024161853
106	0x3e12c275	0.14331992
107	0xbc324350	-0.010880306
108	0xbefd1cfd	-0.4943618
109	0x3b5d53b6	0.003377182
110	0x3e731b3b	0.23740856
111	0xbd1030bf	-0.035202738
112	0xbe527114	-0.20550948
113	0xbce4328e	-0.027856138
114	0x3c823e31	0.015898796
115	0xbda50afe	-0.08058737
116	0xbd8c3990	-0.06846917
117	0xbe393044	-0.18084818
118	0x3f1131be	0.56716526
119	0xbd51f430	-0.051258266
120	0xbd4cbda1	-0.04998553
121	0x3e07bb23	0.1325498
122	0x3e808b06	0.25106066
123	0xbd3dcfac	-0.04634063
124	0x3e03a79b	0.12856905
125	0x3eb1f0ff	0.34754178
126	0xbd23f45a	-0.040027954
127	0x3d07bf62	0.0331415
128	0xbf448da7	-0.76778644
129	0x3ecc6cdc	0.39926803
130	0x3ea9c7c0	0.3316021
131	0x3f0e8d78	0.55684614
132	0xbe02b7ac	-0.12765378
133	0x3e81800f	0.25293013
134	0xbe101750	-0.14071393
135	0xbefb53f5	-0.49087492
136	0x3ecc0cdd	0.39853564
137	0xbe1e288f	-0.1544516
138	0xbd4bb5a7	-0.049733784
139	0x3e824cb1	0.25449136
140	0x3eb048bf	0.344305
141	0x3e8aa854	0.2708155
142	0x3ef02780	0.46905136
143	0xbe107c9a	-0.14110032
144	0x3e9f2835	0.31085363
145	0xbef2a290	-0.4738965
146	0x3d46a7ae	0.048499756
147	0xbf244d4f	-0.64180464
148	0x3e4311af	0.19049715
149	0xbebca1f6	-0.36842316
150	0xbef1e629	-0.4724591
151	0x3ef0915d	0.46985903
152	0xbd3c255a	-0.04593406
153	0x3e855a79	0.26045588
154	0xbeee6daa	-0.46568042
155	0x3c5f5943	0.0136321215
156	0xbedca939	-0.43097857
157	0xbf1cdaa2	-0.6127111
158	0xbeb5019d	-0.35352793
159	0x3f24fae7	0.64445347
160	0x3ee92789	0.45537975
161	0x3eb5e594	0.35526717
162	0x3eac744e	0.33682483
163	0xbe3287bb	-0.1743459
164	0xbf40da60	-0.75333214
165	0xbed5b5d2	-0.4174028
166	0x3eedaec3	0.46422395
167	0xbe61cd24	-0.22050911
168	0x3ddb1c84	0.10698798
169	0xbdd286f3	-0.10279646
170	0xbe1dd937	-0.15414892
171	0xbf251569	-0.64485794
172	0xbce52684	-0.027972467
173	0x3a739fd2	0.00092935294
174	0xbe2c414b	-0.16821782
175	0x3e6c1936	0.23056492
176	0x3e93db97	0.2887847
177	0xbd0778b4	-0.033074096
178	0xbf0d9d2f	-0.5531797
179	0xbe5fa34e	-0.2183964
180	0x3ee4aefb	0.4466475
181	0xbdc4d596	-0.09611051
182	0xbf4c9dea	-0.7992846
183	0x3ebf825c	0.37404144
184	0xbd8cf6ec	-0.06883034
185	0xbe88893b	-0.266672
186	0x3e733758	0.2375158
187	0x3e6d261d	0.2315907
188	0xbf332336	-0.699756
189	0x3f379ad5	0.7172063
190	0x3cbb1a6c	0.022839747
191	0x3eb61e52	0.35570008
192	0xbd79a071	-0.060944024
193	0xbccad488	-0.024759546
194	0x3ebcebf5	0.3689877
195	0xbed4b5b1	-0.4154487
196	0x3ebacc27	0.3648388
197	0xbd92f3b6	-0.071753904
198	0xbef11da9	-0.4709294
199	0x3e939bf6	0.28829926
200	0xbf08fb1e	-0.53508174
201	0x3ea294b8	0.31754088
202	0xbea7c22f	-0.32765338
203	0xbe055bfc	-0.1302337
204	0x3dce3b40	0.10069895
205	0x3c827982	0.01592708
206	0x3bfab41d	0.0076508657
207	0xbdedcb5d	-0.11611054
208	0xbd1d287c	-0.038368687
209	0x3dd3a73a	0.1033463
210	0xbeebad39	-0.46030596
211	0x3ea43229	0.3206952
212	0x3eb251c6	0.34828013
213	0xbebd4eca	-0.36974174
214	0xbdf023cd	-0.117255785
215	0x3e648bc2	0.22318938
216	0xbdfe9160	-0.12430072
217	0xbef492d4	-0.4776827
218	0xbecf1d5e	-0.40452093
219	0xbf0ec1b3	-0.5576431
220	0x3da5f338	0.08103031
221	0xbd0ec85c	-0.034859046
222	0xbdb2b089	-0.08725078
223	0xbdb6a788	-0.08918673
224	0xbea532bb	-0.32265267
225	0x3d128552	0.035771675
226	0x3db35c9d	0.08757899
227	0x3e8ed141	0.27894023
228	0xbe03dcba	-0.12877169
229	0xbf25ad29	-0.64717346
230	0xbdb7db10	-0.0897733
231	0xbddb3b51	-0.10704673
232	0x3df4beb4	0.11950436
233	0x3d62bd85	0.05535652
234	0xbebc21af	-0.3674445
235	0x3e59037e	0.21192738
236	0x3f309c0a	0.68988097
237	0xbcd5008d	-0.02600124
238	0x3ea0dbf8	0.31417823
239	0x3e032252	0.12806061
240	0x3e544395	0.20728905
241	0x3e83fa0a	0.25776702
242	0xbd5947c1	-0.053046945
243	0xbd32ebdc	-0.043681964
244	0x3eadbdba	0.33933812
245	0xbec18d5d	-0.37803164
246	0x3e9f1963	0.31074056
247	0xbd9b1791	-0.07572854
248	0xbd0fa036	-0.0350649
249	0xbd9141ee	-0.07092653
250	0x3cb0a5a9	0.021563368
251	0x3ee2a4fd	0.442665
252	0x3eabe54d	0.3357338
253	0xbd2f8155	-0.04284795
254	0xbc2e07b1	-0.010621951
255	0xbe4feb56	-0.20304617

bias f4 [4]
0	0xbca15e95	-0.01969842
1	0x3d99574d	0.074873544
2	0x3daae18f	0.08343803
3	0xbb8318f2	-0.0040007764
