problem1/models/underway/success_whole_model_1766858819.pth (torch, 146613 bytes, 9 tensors)

weight f4 [128, 8]
00000000: d5df 92be b60b a6bd 18a3 c3be c00e c93d
00000010: 7d2b 0c3f 6fb6 b4be 1718 f8be c3a6 4abf
00000020: 4c54 35bf 3029 4b3e 974a 1abf 122e 003f
00000030: c01f 8a3e 24c3 06bf e868 e23c 0b93 8b3d
00000040: e51d 473f cfb8 ebbe 06e9 bcba ad08 fabe
00000050: dbfe 8ebe f216 92be fe02 debe b9e4 0b3d
00000060: e8ab 8ebe 4f4f 32bf 4943 843e 46c3 3a3e
00000070: 79cc 24be 8ee5 22bf 94a9 3b3e fb46 23bd
00000080: 47d6 8f3e f422 a23e 4f28 b83e 6340 1d3f
00000090: 3b53 68be 4ce6 c43e ce88 afbe 150f 9e3d
000000a0: f11b a63e a4f0 7ebe b47a 14bf df9a 00bf
000000b0: 2dab db3e 035b 113f 1b2f 903e ab0b 14bd
000000c0: b661 d3be c2fb 043f 7319 593e ae63 2bbe
000000d0: 3e88 88be bcef 9c3e 7063 0a3e a820 ae3d
000000e0: 6146 6e3d 0d2c 61bc 74a9 08bf 9a88 53bf
000000f0: 5bda b33d 984d 81be 1117 84be b89a c8bd
00000100: 3a94 d1be c5ea 793e 37e6 963e 2359 803e
00000110: 5674 14be df04 423f 7452 31bf 5b09 2f3e
00000120: ddbe 52be 2f53 0cbf 8ba0 443d 37d5 60bd
00000130: 839d a43e 807b 733e c4cb 563e ad32 e33c
00000140: 2869 00be 7b57 5c3e 5552 053f c1ca 10bf
00000150: c6f5 31bf 9164 0c3f f0e9 143e 8efb 8dbe
00000160: 34f2 debd 8436 a13e ef58 f13b 577b d73d
00000170: 8d53 1d3f a393 123f d801 a73e f954 3abe
00000180: e2ae 6bbe acd1 bdbe 47dd f43e 62e2 7a3d
00000190: 5de2 763e c5c3 00bf cfc7 cdbd bd3d bf3e
000001a0: 7306 0cbf 911c 4dbe 1b8a ef3e e9a8 723e
000001b0: e7ff 13bf 9559 dfbe ac7d cbbe 16ad bebe
000001c0: a374 87be 9c38 643e 99b8 9e3d 4bc8 45bd
000001d0: 876a 713e 7403 123f 2b43 ab3e 9d23 063e
000001e0: bfba aabe 62fc 6f3e f8d5 1cbf 43ac d43e
000001f0: c9f1 6c3e f76c 123e 1fd8 cbbe adc1 bcbe
00000200: d15a 133e bcb0 83be 3b7a d53e e267 e13d
00000210: 118c 2abf ec5f 23be 7201 993a 811c 003e
00000220: 5d88 e53e 8145 5c3e 833e 5d3e cab1 323e
00000230: 9905 ecbd 453d cdbe ba66 7fbe 57d8 eb3e
00000240: 3d7d 92be da8f a93e b6e3 06bf 1091 84be
00000250: a4dc dd3e 9631 94be 7a55 d7bd 6832 c33e
00000260: 31d8 f63d b894 85ba 7ba1 983e a566 1abf
00000270: cc08 69be 7cdd 89be 7596 d9be abbd 14bd
00000280: 8fd8 ce3e 1798 163f b15b ed3d 039e 17bf
00000290: 77de 873d 62da 123f 42fa 323a 19e9 b2be
000002a0: 3737 013d edf0 f53e 0d67 f5be 33e2 94bd
000002b0: bc9d 823e deab f7be eae7 533e 77f9 5f3d
000002c0: dec1 7d3e ca31 a23e 2bad 75be 5285 1abf
000002d0: 9901 d83e 74ac 1f3f 0d7c acbe eeba eebe
000002e0: 0221 1d3e b929 923e 2975 723e 712f 58be
000002f0: 1530 24bf 386f 04bf 61a5 28bf a12f 9c3e
00000300: 6c3e b43e d629 bcbe fbdc 5e3d 3624 48bc
00000310: c130 42bf 7ffd 6cbe 80fe a9be bb33 8abe
00000320: 0fb4 073d 0b4f 92bb fe4d 80bd 7d08 a4bd
00000330: e9eb e53f e871 fabd f4c5 e9bd 6707 cd3e
00000340: 1407 a5bd 8643 16be 4d19 843e 29e3 d5bd
00000350: 6cec d9be f31b 6cbe 49f7 34bf ca99 013e
00000360: 0e32 f5be b718 0abd 9cd6 66be 4724 863d
00000370: 0677 20be 326f efbe cc27 563d 3173 873e
00000380: ee26 0c3d 5494 f2bf e9f9 b1be 2ec5 713e
00000390: c13b 1a3f 5ddb 063e f9ff 67bd 7d87 ac3e
000003a0: a445 94be a636 be3e 52cb 003f 4637 e5be
000003b0: 9359 90be 7c37 11bf b95c 0ebc 1049 0fbe
000003c0: 8690 bbbd b4a5 4abe 6f37 9d3e 472c 9bbe
000003d0: 6c5d 4bbe c76d 69bf 3cba 9a3e e1b5 d03d
000003e0: 4984 213d 635e e7bf 5d26 d6be 7c9f 4dbe
000003f0: 10ed 503f 0521 38bd bd7e cebd 458b f23d
-0.28686395 -0.081077024 -0.38210368 0.098172665 0.5475386 -0.35295436 -0.4845588 -0.7916071
-0.7083175 0.1983993 -0.60270065 0.500703 0.26977348 -0.5264151 0.027637914 0.068151556
0.7777999 -0.46039435 -0.0014412708 -0.48834744 -0.27928814 -0.2853313 -0.43361658 0.034153674
-0.2786553 -0.69652265 0.25832585 0.18238553 -0.16093625 -0.6363152 0.18326408 -0.039862614
0.28093168 0.31667292 0.35968253 0.6142637 -0.22688 0.38456953 -0.3428406 0.077177204
0.32443193 -0.24896485 -0.5799973 -0.50236315 0.42904034 0.567795 0.2816094 -0.03614394
-0.41285485 0.5194665 0.21201114 -0.16737244 -0.26666445 0.30651653 0.13514495 0.085023224
0.058172587 -0.013743413 -0.53383565 -0.8263031 0.087818824 -0.25254512 -0.25798848 -0.09795135
-0.409334 0.24405964 0.29472515 0.25068006 -0.14497504 0.7578868 -0.6926644 0.17093413
-0.20580621 -0.5481443 0.04800467 -0.054890838 0.32151422 0.2377758 0.20976168 0.027734125
-0.12540114 0.21517746 0.52078754 -0.5655938 -0.69515646 0.5484095 0.14542365 -0.27730983
-0.1088604 0.31486905 0.007365338 0.10521572 0.61455613 0.57256526 0.32618594 -0.18196477
-0.23015931 -0.3707403 0.4782507 0.06125105 0.24109788 -0.5029872 -0.10047876 0.3735179
-0.5469734 -0.20030428 0.46785054 0.23697247 -0.5781235 -0.43623033 -0.39744318 -0.3724143
-0.26456174 0.2228722 0.07750053 -0.048286717 0.23575793 0.5703652 0.33449683 0.13099523
-0.333456 0.2343612 -0.6126399 0.41537675 0.23139109 0.1429938 -0.39813325 -0.36866513
0.14390112 -0.25720775 0.41694817 0.11006142 -0.66619974 -0.1595456 0.0011673404 0.12510873
0.448306 0.21510889 0.21605878 0.17450634 -0.11524505 -0.40085807 -0.24941531 0.46063492
-0.28611174 0.33117563 -0.5269121 -0.25891924 0.43332398 -0.2894408 -0.1051435 0.38124394
0.12052954 -0.0010191416 0.298107 -0.60312873 -0.22757262 -0.26926792 -0.42497602 -0.036313694
0.40399596 0.5882582 0.115897544 -0.5922548 0.06634229 0.57364476 0.00068274525 -0.34943464
0.031546798 0.48035374 -0.47930184 -0.072697066 0.25510967 -0.48373312 0.20693937 0.054681268
0.24780986 0.3167861 -0.2399184 -0.6035968 0.4218872 0.6237252 -0.33688393 -0.4662699
0.15344623 0.28547457 0.23677506 -0.21111847 -0.6413587 -0.51732206 -0.6587735 0.30505088
0.35203874 -0.36750668 0.054409962 -0.012215665 -0.7585564 -0.23143576 -0.3320198 -0.26992592
0.0331307 -0.004464989 -0.06264876 -0.080094315 1.7962619 -0.12228757 -0.1141471 0.4004471
-0.08057991 -0.14674196 0.25800553 -0.10443718 -0.42563188 -0.23057537 -0.7068983 0.12656322
-0.4788975 -0.033714976 -0.22542804 0.06549888 -0.15670404 -0.46764523 0.052284047 0.26455072
0.034216814 -1.8951516 -0.3476098 0.23610374 0.6024743 0.13169618 -0.0566406 0.3369712
-0.28959382 0.37151068 0.5031024 -0.44768733 -0.2819334 -0.5672529 -0.008689099 -0.13992715
-0.09158425 -0.19789773 0.30706355 -0.30307218 -0.19859856 -0.9118313 0.3022021 0.10190941
0.039432798 -1.807568 -0.41826144 -0.2008037 0.8161173 -0.044953365 -0.10082767 0.1184297

bias f4 [128]
00000000: 02a1 4c3e 4d7a c93b 584f 92bd d181 54be
00000010: 9cea abbc 52ca df3e 6e96 19be 0a9f a93c
00000020: 87bf d03c 8efe 823e 108d 873e cc5f 493c
00000030: 3410 5c3e a310 46be 26b0 aabe 35be c6bd
00000040: 439e 863e 33d8 53be 222f a83d 0475 cebe
00000050: 2dc1 d33e b193 93be 28d2 8c3e edb3 30be
00000060: 6e9d 4d3e ca6d 57bc 9c4b 333e 04da c3bb
00000070: 26fd d63d a876 e93e 7869 64be 153c 623e
00000080: 357f a13e f932 9e3e 741b 763e b8c9 073f
00000090: 9d63 8abc 7ca9 963e b2e9 263e 36d1 c23e
000000a0: 3d33 9f3e a503 023d 7756 2e3d b298 c93d
000000b0: 6e1b 7c3e d4d2 a73e 270b ea3e 1314 043f
000000c0: 31ce e2be 7f2d 8ebc 3627 3f3e 7ab5 b2bd
000000d0: 2ed7 4fbd 61c6 253e de29 44be 51a8 a93e
000000e0: ed4a 893c 28f6 f2be 24c3 f63c 6922 ce3e
000000f0: 466b 373e 5318 5a3e cd8f 0a3f 848a 9d3e
00000100: 94ed bb3e c3a0 26be d9af 573e 3eb7 a9be
00000110: 9c7c 683e 6054 ce3d 7040 c03e 8976 693d
00000120: 3f9f 883e 23da 9ebe 879a ed3e 4680 ea3e
00000130: 6856 903e 734f 903e cf76 183f abb7 b33e
00000140: 0250 7abe 5afa 383e 5858 2abe 0ea1 0a3f
00000150: cae7 ff3e da85 973e 2e53 e63e ae46 57bd
00000160: 90b7 d7be 4eb5 8f3e 61e3 0e3f a578 ee3e
00000170: 0bd6 a63e 9899 87bd a018 c53d 434c ba3e
00000180: f628 54be cedc f63e 11b0 e63d e079 ef3e
00000190: 90e8 043f d0d7 003f 0c1b 873e 900d 00bf
000001a0: e4ff ad3d 9be0 9ebd 5c27 4f3e 9e06 f33d
000001b0: 9d22 bebc 45b6 aa3e 2d68 6cbe 068e 12be
000001c0: 82f2 ce3d 1fa0 243d 7925 1b3e 3336 023e
000001d0: 1725 c4bc 1510 d33d a273 83bd 69bc cd3e
000001e0: 3d4e ec3e 1d1e 053e cb37 5c3e cb4d 873e
000001f0: 0b69 af3e ca5b e13e 18a3 833e 1cbf c9bd
0.19983295 0.0061486126 -0.0714404 -0.20752646 -0.020985894 0.43709046 -0.1499879 0.020705719
0.025481952 0.25584835 0.2647481 0.012290906 0.21490556 -0.19342284 -0.33337516 -0.09704248
0.2629262 -0.20687942 0.08212115 -0.4032365 0.4135832 -0.28823617 0.27504086 -0.17256136
0.20079586 -0.013148734 0.17509311 -0.005976917 0.10497503 0.4559834 -0.22305858 0.22093232
0.31542364 0.30898264 0.2403391 0.53042173 -0.016893202 0.2942618 0.16300085 0.3805024
0.3109378 0.031741757 0.042562928 0.098435774 0.24619839 0.32778037 0.45711634 0.5159313
-0.44297937 -0.017355679 0.18667302 -0.0872602 -0.05074232 0.16188957 -0.19156596 0.33136228
0.01675936 -0.47453427 0.030122347 0.40260628 0.17912015 0.21298341 0.5412567 0.30769742
0.36704695 -0.16272263 0.21063174 -0.33147615 0.22703785 0.10074687 0.37549162 0.05699781
0.26683995 -0.310258 0.46406958 0.4580099 0.28190923 0.28185615 0.5955629 0.35101065
-0.24444583 0.18064252 -0.16635263 0.54152 0.4998153 0.29594308 0.44985336 -0.05255764
-0.42132235 0.28068012 0.558157 0.4657642 0.32585177 -0.066210926 0.096238375 0.36386308
-0.2071875 0.48215336 0.11264051 0.4677267 0.5191736 0.50329304 0.26387823 -0.50020695
0.08496073 -0.07757684 0.20229858 0.118664965 -0.023209864 0.33342186 -0.23086615 -0.1431199
0.101048484 0.040191766 0.15151013 0.12715988 -0.023943467 0.10305802 -0.064185396 0.40182808
0.4615344 0.12999769 0.21505658 0.2642654 0.3425983 0.44015342 0.25710368 -0.09850904

weight f4 [128, 128]
00000000: af56 8cbd 908a 26bd 0a5a 5a3d 56fc a4bd
00000010: 4409 813d 7700 e8bc 4527 1bbd 91be c2bc
00000020: 89d4 cd3b 7fef 86bd d2fb fbbc 66a5 5fbd
00000030: 82c4 07bc f63c 873c 156e 94bd 691a b83c
00000040: a38a 933d 5c1e 91bc b093 803d 1295 a0bd
00000050: 22f6 31bd be9c 9cbd 171a 8f3d 32ee 1a3d
00000060: 0a9a 403d d4e1 94bd 174f b6bb 0113 c13a
00000070: 9cbb 12bd dd6d 74bd 098d 83bd e529 9dbc
00000080: 000f 25bd 83b2 c2bd 8a46 99bb 4adc ab3c
00000090: 6257 c4bc 060e 59bd cbac d83c 2570 93bd
000000a0: fe23 93bd fca5 d83c 2c64 8a3d 5506 25bd
000000b0: 481c 833c 27c6 7cbd e76d c03c eb26 f4bc
000000c0: 4e47 8d3d 2b22 993d 659d 9abd b486 09bd
000000d0: dccb df3b 01a5 cc3c ed75 993c 9b1a abbd
000000e0: ba24 253c 8c52 0d3c 8c0d b0bc 8cc7 623d
000000f0: 1dc4 6e3d 801f 223d 25f8 803d 8611 aabd
00000100: 7b90 a93c b769 45bc 6774 5e3d a8c7 9b3d
00000110: 4472 0fbd e890 373d a78d ca3c ca0e 95bd
00000120: 4200 1bbc 526c 67bd 454b 3d3d d444 25bc
00000130: 21ef 723d a14c 823d b870 92b9 10a9 9ebd
00000140: e0e1 f3bc 58fb b2bd 2152 5e3d e088 91bc
00000150: 92e1 ab3c 48c1 0a3d b548 5bb9 6c65 80bd
00000160: 394d f13c e36f 813d 3074 8dbc 233a 9b3d
00000170: 9cd7 053d 223c 92bd 082e 74bd 68b2 b13d
00000180: bc18 4dbd a5a2 b8bd 9cfe a0bd 1f74 253d
00000190: ce5e 843d cd8d 83bd 1162 bebc 8d39 e13c
000001a0: f075 00bd e7c0 b6bd 3436 94bd 9182 933c
000001b0: 81c5 793c d452 3d3d 25e2 80ba 70d0 2ebd
000001c0: 5161 973c 2cd6 013d ec9d a73c ad05 a9bd
000001d0: bf18 12bd e580 ce3c d14c bc3c bbb2 acbd
000001e0: 7a1d a1bd f3ce 003d 971f 1dbb d43d 1f3d
000001f0: bbe2 8c3c 8ee4 91bd 9f10 8abd 091d 1cbd
00000200: 8023 dd3d c108 293e e860 67be 8d96 e23e
00000210: 5635 c3bd 35b6 4fbe dcaf ab3e 087b 68be
00000220: c276 1dbe fceb 74be 7282 703c 03a3 dfbe
00000230: 8fc1 cebc f998 eabd 7c57 c5be adb7 0d3d
00000240: 87f5 963d 29d2 c93d 6d31 293e 1317 4fbe
00000250: 5fad 3d3d fa00 fe3e f90e 13be 58ab 04bc
00000260: e7d2 24be af80 353f ed38 093d 7e0f 5dbc
00000270: f1cf b43e 2157 a13e 0730 2dbc 2b8d e43e
00000280: 4622 cebe 2de4 8a3e db67 f73e ca19 613e
00000290: 5063 4a3f 140f 163e fb9e 4bbe 9924 74be
000002a0: 91f8 0e3e 1cc8 ff3e f354 78be 70f5 0cbe
000002b0: ec19 8fbc 8de9 4f3e 718d 983e d5b8 0d3e
000002c0: ffbb 45be 4e07 893e 4875 f73d cd6c 99bf
000002d0: c44e e23e 93a3 bdbd 1dca 04bf 00bb 56be
000002e0: 657b 02be fae8 19be 0e50 b1be 67df 613e
000002f0: 7505 a53d 98ab 01bf 3a8f 943e 55af ae3d
00000300: b80e 803e 137c cbbd e41e 87be 85b7 2f3d
00000310: 14b2 8a3f 5969 11bd 89bd 28be 41c4 09be
00000320: f61d 883e cdc3 01bf c288 923d b084 443e
00000330: 3655 4aba c261 cebe 8226 443d bf4e 6a3e
00000340: a47f dfbe bf23 92bd bca2 193c c9c6 9d3e
00000350: e1c0 803e da10 953e 491c c43e b061 07bf
00000360: 9ce7 0cbf f4ad acbe 13f0 fc3d 9118 6bbe
00000370: 9401 8abd 3b51 133f 60eb 763d e628 bdbe
00000380: 8d92 05bf 16ab 63be 858c 49bc 7bb4 8f3e
00000390: b0dc 033e e3c7 98be b434 2d3e 0aac 873a
000003a0: 958a babc 76fe 49bd 0961 9cbd 1ba8 473f
000003b0: 4c61 a93e db4c 37be 0f26 a1bd bc85 993e
000003c0: 7f5d 3abe 4a2f 98be 9eed 90bd dcfd 103e
000003d0: 2178 05bf 3aa9 afbe 3e67 663f a174 b03d
000003e0: 4adc e9be 1cfa a23d 55e8 73be 756f 8a3e
000003f0: e21f df3c abb2 a7be 2f64 ee3d b436 25bf
-0.06852471 -0.040659487 0.053308524 -0.08055942 0.063005954 -0.028320534 -0.037879247 -0.02377251
0.0062814397 -0.06588649 -0.030759726 -0.054601096 -0.008286597 0.01650856 -0.07247559 0.02247353
0.07204177 -0.017714672 0.06278169 -0.07840933 -0.04344762 -0.07647084 0.06987398 0.037824817
0.047021903 -0.07269636 -0.0055636275 0.0014730395 -0.03582345 -0.059675086 -0.06423385 -0.019185016
-0.04029751 -0.09506705 -0.0046775984 0.020979065 -0.023967449 -0.05299189 0.026449582 -0.07199124
-0.07184599 0.026446335 0.067573875 -0.04028924 0.016004696 -0.06171241 0.023489906 -0.029803714
0.06898366 0.0747722 -0.07549552 -0.03357573 0.006829722 0.024981024 0.01873299 -0.08354684
0.010079557 0.008625638 -0.021490835 0.055366084 0.058292497 0.039580822 0.0629733 -0.083041236
0.020698776 -0.01204913 0.05431023 0.07606441 -0.03502108 0.044815928 0.024725748 -0.072782114
-0.009460511 -0.056499787 0.04621436 -0.010087211 0.059310082 0.06362272 -0.00027931272 -0.0774709
-0.029770792 -0.08739346 0.054277543 -0.017765462 0.020981584 0.033875734 -0.00020912553 -0.06269345
0.029455768 0.06320169 -0.017267317 0.07579448 0.032676324 -0.07140376 -0.05961421 0.086766064
-0.050072417 -0.09015397 -0.07861063 0.040393945 0.06463395 -0.06423531 -0.023240121 0.027493263
-0.031362474 -0.08923512 -0.07236901 0.018006595 0.0152448425 0.04622157 -0.0009833021 -0.04267925
0.018479021 0.03169839 0.020461045 -0.08253036 -0.03566813 0.025207946 0.022985848 -0.08432528
-0.0786695 0.031447362 -0.0023975128 0.038877323 0.017197957 -0.071236715 -0.067414515 -0.038113628
0.10797787 0.16507246 -0.2259556 0.44255486 -0.095316574 -0.2028435 0.33532608 -0.22703183
-0.15377334 -0.23918146 0.014679538 -0.43679056 -0.02523878 -0.114549585 -0.38543308 0.034598995
0.073710494 0.09854538 0.1652276 -0.20223646 0.046307918 0.4961012 -0.1436118 -0.008097492
-0.16096078 0.7089948 0.033501554 -0.013492463 0.35314897 0.31511787 -0.010570533 0.44638953
-0.40260524 0.2712721 0.48321423 0.21982494 0.7905779 0.1465419 -0.19884865 -0.23842086
0.13962008 0.4995736 -0.24251156 -0.13765502 -0.017468415 0.20303936 0.2979541 0.13840039
-0.19309996 0.26763386 0.120829165 -1.1986328 0.44200718 -0.09259715 -0.518709 -0.20969772
-0.12742384 -0.1503028 -0.3463139 0.22057877 0.080576815 -0.50652456 0.29015523 0.08529536
0.2501123 -0.09935775 -0.26390755 0.042899627 1.0835595 -0.035500858 -0.16478552 -0.13453771
0.26585358 -0.50689393 0.07154991 0.19191241 -0.0007718386 -0.40308958 0.047888286 0.22881602
-0.4365207 -0.07135724 0.009377178 0.30815724 0.25147155 0.2911442 0.3830283 -0.52883434
-0.5504091 -0.33726466 0.12350478 -0.2295859 -0.06738582 0.5754582 0.060283065 -0.36945266
-0.52176744 -0.22233233 -0.012301569 0.28067383 0.12877154 -0.2984 0.16914636 0.0010350954
-0.02277116 -0.04931494 -0.076356955 0.77990884 0.33082044 -0.17900412 -0.07868587 0.29984844
-0.18199728 -0.2972358 -0.07076572 0.1415934 -0.5213643 -0.34308797 0.90001285 0.08615995
-0.4567588 0.07957861 -0.23819096 0.2703816 0.027236883 -0.327535 0.11640202 -0.64536595

bias f4 [128]
00000000: dcdc b9bd 1db7 473e 650b 53bd 8014 2f3d
00000010: 36a5 09be 524b cbbd 0ee3 0b3e 45b2 ccbc
00000020: 51e8 cf3d fde9 3f3e 261a e13b b63c 083e
00000030: 34db afbd 4aba 2dbd c9a7 c4bd a654 20be
00000040: 8412 3bbd e556 cabc f1a4 4b3e 79da 4fba
00000050: c335 873d 9d8a 8b3d 7aed 3a3d f526 343c
00000060: 0097 7a3d 66a2 d4bd 9fa0 833e dfe7 eb3d
00000070: 7314 0fbd 56ab c83d df0d 1abd a6da c9bd
00000080: 4bc8 82bd 43cb 4a3e a197 7a3e 4629 b43c
00000090: a358 fabc fa00 073e 9841 f03c ad91 acbd
000000a0: 4e8f 5e3e afca eb3d 9e92 43bb b758 773b
000000b0: 3c59 7c3c 68e9 ba3b 5b2a 99bd d244 89bd
000000c0: d0b5 3b3e 7a08 f33c e6ef 213d 831b cdbd
000000d0: 1059 79bd d8fd d9bd 41e6 52bc e394 673d
000000e0: c9c0 0cbe e931 0f3d fd06 533d 7d5d 813e
000000f0: eaa2 90bb 14a0 57bc 32a3 87bd 127a 2bbe
00000100: be5b c03a fad7 b63c 0f5a b03c 3f91 3ebd
00000110: 8fbd 8e3a 3ff5 0abe f815 283d b6fa 07be
00000120: fe96 ac3c 901b 903d 0e1b 863e 4256 c7bb
00000130: 57fc 563d a41b 46bd d02d febc 8ffd 923e
00000140: c3cc 333e 7e91 f13b 6b04 463e 8a90 6f3e
00000150: 9527 8b3a be13 503e 77e0 a63c 871d b8bc
00000160: b82f 92bb ebd7 b6bd cf93 1fbe e122 59bd
00000170: 3ab7 1f3e ac24 51bd a991 8cbc 1c7a e6bd
00000180: dcac f23d 7a78 8a3d 4830 5ebd f5a2 9f3d
00000190: 6f27 0c3e c8a7 87bc 4e29 8fbd a8a7 03bb
000001a0: d673 063b fe0a d93d 52e4 9abc 9ff7 c93d
000001b0: ce08 64bc 054c 8c3d ebe5 4b3d eab6 a03d
000001c0: d006 6abb 3e57 b5bd f067 05be 99eb 163e
000001d0: 2434 2fbe 0ef7 833e 06a6 f83d 1cb7 0e3e
000001e0: 78c2 01bd cbc1 503e a7dc 9fbd 51a1 0fbe
000001f0: d301 2e3e 72a6 413d bb0b 2f3e c0b3 fe3d
-0.09075329 0.19503446 -0.05152454 0.04274416 -0.13441929 -0.099264756 0.13660833 -0.02498735
0.10151733 0.18741603 0.006869572 0.1330441 -0.085867316 -0.042413987 -0.09602315 -0.15657291
-0.045671955 -0.024699638 0.19887139 -0.00079289783 0.06602051 0.06813548 0.04563663 0.010995616
0.06117916 -0.103825375 0.25708482 0.11518835 -0.03493161 0.09798305 -0.037610885 -0.09856157
-0.06385859 0.198041 0.24471904 0.021992337 -0.030559843 0.13183966 0.029328153 -0.08426223
0.21734354 0.11513268 -0.002984203 0.0037742087 0.0154021345 0.0057040937 -0.07478782 -0.067025796
0.18331075 0.029667128 0.039535426 -0.10015013 -0.060875952 -0.1064412 -0.01287228 0.056538474
-0.13745417 0.034959707 0.051520336 0.25266638 -0.004413952 -0.013160724 -0.06622924 -0.16745785
0.0014675779 0.022319783 0.021527318 -0.046525236 0.0010890233 -0.13570116 0.041036576 -0.13279232
0.021068092 0.07036507 0.26192516 -0.006083281 0.052486744 -0.048366204 -0.031027704 0.28709075
0.17558579 0.0073720803 0.19337623 0.23394981 0.0010616655 0.20320031 0.020370705 -0.022475017
-0.004461255 -0.08927902 -0.15583728 -0.05301178 0.15597239 -0.051060364 -0.0171593 -0.11253759
0.118493766 0.0676126 -0.054245263 0.077947535 0.13686918 -0.016559497 -0.069903 -0.0020088945
0.002051582 0.105978 -0.0189077 0.09861683 -0.013918115 0.06850437 0.049779814 0.07847388
-0.0035709627 -0.08854531 -0.1302793 0.14738311 -0.17109734 0.25774425 0.121410415 0.13937038
-0.0316796 0.20386426 -0.07805758 -0.14026381 0.16992883 0.047277875 0.17094319 0.12436628

weight f4 [1, 128]
00000000: 7b91 7b3d 2b34 453f f266 10bf 860f 01bf
00000010: 8046 04bf 6d3e 01bf 309d 523f ddc8 a4bd
00000020: c2bc 5b3f 82a8 493f 5c2f 04bf 643b b43f
00000030: 0953 05bf 9f3b bb3f dfac 943f e8fa e8be
00000040: 378b cabe ed97 e2be 40bd 6a3f f8e9 f63e
00000050: 74c4 d8be 91bd fdbb 776a b03f 1828 f0be
00000060: e12a 893f dcc8 963e 6b6c 043f 94b7 1d3f
00000070: a9b0 a13d a90b 433f d2e7 01bf 6b79 e4be
00000080: 7bd4 05bf 312c 373f 8a83 283f d5b1 11bf
00000090: 8d33 03bf e7f9 3d3f 5ba9 d1be 6bad 1ebf
000000a0: aaff 4e3f 3f53 523f 288c fcbe 6bd9 973f
000000b0: 18f4 e2be 97db 09bf 1dfb e3be ba75 edbe
000000c0: 9219 243f 4d57 883d 8801 dfbe c6d8 f5be
000000d0: 9de8 d3be cc76 14bf 9123 fabe 8de1 983f
000000e0: 4787 1dbf 68e7 f8be 615b 543f a625 173f
000000f0: a0d2 d2be 07a6 f2be 7185 1cbf 7617 1bbf
00000100: 4b3b 053d 9920 683f 2682 07bf e5ee 17bf
00000110: c959 e4be e897 0bbf 07ae 02bf cbcc eabe
00000120: 8fad 18bd 52dd cabe c7df 193f 64f4 fcbe
00000130: 3451 e3be d9f8 ebbe b056 22bf fa40 153f
00000140: 8c0d 0a3f 3812 fcbe 70f1 393f c1d1 223f
00000150: fa59 bdbe 275b 1f3f b577 d5be 2625 ecbe
00000160: 26be 14bf 1076 153d 7ad8 09bf f427 e2be
00000170: 5a31 153f 0285 123a 775a cbbe 10f9 10bf
00000180: 9ea5 2e3f 8b53 eb3c cd02 083f 6fe6 483f
00000190: b217 4a3f 6fc7 f7be 4d01 a53f 3ef1 dcbe
000001a0: e457 e1bb ea0c 923f 2c25 b9be a024 283f
000001b0: dfd1 d9be 09ac b43f e300 8f3f a15b b73f
000001c0: 0436 0040 fa61 24bf 8490 02bf 2c42 953f
000001d0: 2837 6dbf 07e0 1f3f 35b4 f83f a667 343f
000001e0: 3b29 953f 10d2 543f ec8c eabe 87b2 05bf
000001f0: f86d 503f 7507 583f adc5 373f 2d73 3c3f
0.061418038 0.77032727 -0.5640708 -0.5041431 -0.51670074 -0.5048588 0.822711 -0.08046124
0.85834897 0.7877275 -0.51634765 1.4080625 -0.52079827 1.462757 1.1615256 -0.45503926
-0.39559337 -0.44256535 0.9169502 0.4822538 -0.42337382 -0.0077435453 1.378249 -0.4690559
1.0716211 0.2945012 0.5172793 0.61608243 0.078950234 0.76189667 -0.50744355 -0.44623885
-0.52277344 0.71551806 0.6582571 -0.56911975 -0.51250535 0.74209446 -0.4094952 -0.61983365
0.8085886 0.82158273 -0.4932568 1.1863226 -0.44326854 -0.5385069 -0.44527522 -0.4637888
0.6410152 0.06657276 -0.43555856 -0.48016948 -0.41388407 -0.5799377 -0.4885526 1.1943833
-0.6153454 -0.4861405 0.82951933 0.5904182 -0.4117632 -0.47392294 -0.61141115 -0.60582674
0.03252725 0.9067474 -0.52932966 -0.593489 -0.4459975 -0.54528666 -0.51046795 -0.4585937
-0.037274893 -0.3962198 0.6010708 -0.49405205 -0.4439789 -0.46088293 -0.63413525 0.5830227
0.5392692 -0.4923265 0.7263403 0.6360131 -0.3698271 0.6224846 -0.41692892 -0.46122092
-0.58102643 0.036489546 -0.5384594 -0.44171107 0.5827843 0.0005589278 -0.39717457 -0.5663004
0.6822146 0.02872636 0.53129274 0.78476614 0.78942406 -0.48394343 1.2891022 -0.43152803
-0.0068769325 1.1410191 -0.36161172 0.65680885 -0.4254293 1.4115001 1.1172146 1.4324838
2.0032969 -0.64212 -0.51001763 1.1660819 -0.92662287 0.62451214 1.9429995 0.70470655
1.1653208 0.8313303 -0.4581064 -0.52225536 0.814178 0.8438638 0.71786004 0.73613244

weight f4 [128, 128]
00000000: 75b5 cf3c 2662 35be 5aef b43d c916 bd3e
00000010: 960f 4fbd d51f 61be c9c8 833c 5952 d43b
00000020: feca 17be 19dd 253e e53a 1c3e e25a c53d
00000030: 961f 0d3e 71a0 7e3e 8b99 953e 672a 5bbe
00000040: 9153 803e 6886 293e 410a 71be 1afe 80bd
00000050: 5f77 c9bd b356 81bd 80fa b9bd 8494 913e
00000060: e4eb e93d 3e47 5dbf d341 0ebc afc0 993d
00000070: 03ae 94be 7857 5d3d 43b7 a63d 4f5f 0ebf
00000080: 468c 4dbd 54d8 1a3c 3f6a 823e 1edd 0a3e
00000090: 5cb9 a7bd 09f6 a83d 81f5 68bd 79c8 a33e
000000a0: 80dd e6bd 2499 ab3d 6faf 8d3d 6ffb f43d
000000b0: 68ed bfbd 4ba9 55be e6b6 243d ed42 ce38
000000c0: 3993 993e 86e2 0ebd 7037 c5bd 1783 393e
000000d0: 0466 1e3e 4bce bf3d 8a9a afbd 2327 5e3e
000000e0: 27bc 013e d8a3 203e 3a9e 81be 3e16 173d
000000f0: 3e81 c93d 590e 273e 0c22 95bd 45e4 25be
00000100: 6783 753e 421f 31bd b1f7 3cbe d255 433e
00000110: 1e73 b43e a5d8 0f3d a45e d93d 7050 f9bd
00000120: 980d 403d c529 a3bc 5996 083e 0bd1 88bd
00000130: 8638 abbd 4034 98bc 0719 803d c78f 5dbd
00000140: 4b92 923c 7738 4abe 0334 303e 0ae0 223c
00000150: e472 ec3b 56b2 d93d 8739 273e 5d54 bc3d
00000160: 51b1 a6be 8f05 2b3c 2b83 de3c 9d7d 08bd
00000170: d0c3 193e 690e b63d de16 293e 4b99 adbd
00000180: 3a35 bc3e 53ea 96bd 5536 f1bd e57f 4c3d
00000190: 2783 7fbe 690f 043e de7b 75be a8c8 523d
000001a0: cfcb 603d 5f88 3bbe 5976 aa3d 57d1 033f
000001b0: 0558 eebd 8c51 c03d 8e92 9e3d 944d b4bd
000001c0: 6299 21be 56bc 193e 51ee 1c3e 1651 2a3e
000001d0: 76e5 b0be 0d46 573e b0db 1fbf 1b4a 4dbd
000001e0: 1a6c 33bd 7495 7c3e 7771 5bbe 8551 d2bd
000001f0: 3e57 223e bed1 23bd 6b07 16bd 4630 16be
00000200: 9250 e53d 4c64 78bd 3101 783e e229 aa3d
00000210: ba34 903c c96a f7bd 9812 063e be61 d03d
00000220: ce66 473d ba91 60be 4ac9 ce3d bb0a 003d
00000230: 4cfc f1bd b916 883e 9445 023f 8c01 8a3d
00000240: a056 65be b19a 96be 0284 95bd 8fad a9bd
00000250: 6cf4 f23c 7725 96bc 83b3 1b3e 34a4 97bd
00000260: cfee c03c 0a7f 313e a83c 7abd 2669 913e
00000270: 48bb 0bbf c096 233e 0614 6dbe ed30 15bf
00000280: ea8d a2be 8fd2 403e f333 7b3e f401 f43d
00000290: 528c 1a3f 2925 7dbd 64ea f23d bcd2 aebc
000002a0: 823a d73d 8f0c 7bbd f109 823c effb bf3d
000002b0: a500 a83d 11ea 31be e857 9a3d d7ec cb3c
000002c0: fd03 5d3e 2625 31bc bd5b 83bd c86b 9bbe
000002d0: 2743 ce3c b7b8 c4bd 7f1c a3be dabd 18bd
000002e0: 8516 bdbb d9e7 6c3e 7ecc 08bb d2f1 ec3d
000002f0: ec87 92bd b5ce adbd d4bc e73d 7f84 26bc
00000300: eb64 7a3d ce5c ff3d c656 8ebe 9845 36be
00000310: 9c8a a1be 9acd b83c d154 afbd 5b76 3f3e
00000320: e5bb 9c3d cd8e 5e3e 392b ccbd 36dd 223e
00000330: fd97 36be 9f6e 80be 167f 2d3e 00b1 533d
00000340: f440 e73e 751d 6fbd 18ab d8bc 7bfe 323e
00000350: 9112 473e 2e18 1b3e 7a39 81be 4324 ce3c
00000360: ad6a a1bd 35d8 f8bd cbfc 5e3d 4719 553d
00000370: 22f4 54bd 9a52 403f 9ddf 94be 1963 ffbd
00000380: bc4b 89bd 0e49 43be 7f6d 843e 8d60 ec3d
00000390: 3a3b f93d cb81 7cbd daff 063c f414 efbd
000003a0: bed3 0f3e 663d ad3a 97fc bbbe 65ce 07bf
000003b0: 60b2 283e d719 7ebd 821b 4d3d 3e4e 893e
000003c0: 953f cfbc b045 243c fc46 c53d d557 8a3d
000003d0: 0c87 fabd de9a cebc c6db 913e 2dec 4b3d
000003e0: b3b8 20be 1724 25be 0a82 373e 80a4 5f3d
000003f0: 5bfb 91be e4c9 9abc 5f47 533e a602 16be
0.02535508 -0.17713222 0.08834715 0.36931446 -0.050551973 -0.21984799 0.016086953 0.006479543
-0.14823529 0.16197623 0.15256841 0.09636475 0.1378158 0.24865891 0.29218706 -0.21402894
0.25063756 0.16555178 -0.23539068 -0.06298466 -0.09837221 -0.06315365 -0.09080982 0.2843362
0.11421946 -0.8643683 -0.008682686 0.075074546 -0.2903901 0.054038495 0.08140423 -0.5561418
-0.050182603 0.009450991 0.25471684 0.13560912 -0.08189651 0.082500525 -0.056874756 0.31988886
-0.112727165 0.08378819 0.06918227 0.1196202 -0.093714535 -0.20865361 0.040213488 9.835311e-05
0.29995134 -0.034884 -0.096297145 0.18116413 0.15468603 0.09365519 -0.08574398 0.21694617
0.1266943 0.15687501 -0.2531603 0.036886446 0.09839104 0.16314067 -0.072818846 -0.16200359
0.23975907 -0.0432427 -0.18453862 0.19075707 0.35244077 0.035118718 0.106137544 -0.12173545
0.046887964 -0.019917378 0.13338603 -0.06680497 -0.0836039 -0.018579602 0.062547736 -0.054092195
0.017892024 -0.19748102 0.17207341 0.00994111 0.0072158445 0.10629718 0.16330539 0.091957785
-0.32557157 0.010438337 0.027162155 -0.03332292 0.15016103 0.08889467 0.1651263 -0.08476504
0.3675936 -0.073689125 -0.11777941 0.049926657 -0.24952374 0.12896504 -0.23973033 0.051460892
0.054881867 -0.1831374 0.08323354 0.514913 -0.11637882 0.09390554 0.07742797 -0.08803859
-0.15781167 0.1501325 0.15325285 0.16632494 -0.34550065 0.21022816 -0.6244459 -0.0501195
-0.043804266 0.24666387 -0.21430002 -0.10269455 0.15853593 -0.039994948 -0.036628168 -0.14666852
0.11197008 -0.060642526 0.24219204 0.0830877 0.017603267 -0.120809145 0.1309303 0.10174893
0.048682027 -0.2193059 0.100969866 0.031260233 -0.118157 0.26579836 0.5088742 0.06738576
-0.22396326 -0.29414895 -0.07300569 -0.08285057 0.029657565 -0.018328412 0.15205197 -0.07404366
0.023551373 0.17333618 -0.061093003 0.28400534 -0.54582644 0.15975475 -0.2315217 -0.5827778
-0.31748897 0.18830322 0.24531536 0.11914435 0.6037036 -0.061803017 0.11861113 -0.02134072
0.10509206 -0.061291274 0.015873881 0.093742244 0.08203248 -0.17374445 0.07536298 0.024893207
0.21583553 -0.0108120795 -0.06413982 -0.30355668 0.025178505 -0.09605544 -0.31857678 -0.03729043
-0.005770507 0.23135318 -0.002087384 0.11569561 -0.07154831 -0.08486692 0.11315313 -0.0101634255
0.0611314 0.12468873 -0.27800578 -0.17799985 -0.31551063 0.022558976 -0.08561099 0.18697493
0.076530255 0.21734162 -0.099691816 0.15904698 -0.17831416 -0.25084397 0.1694301 0.051682472
0.45166743 -0.0583777 -0.026448771 0.17479889 0.19440676 0.15145943 -0.25239164 0.025163775
-0.07881675 -0.12150613 0.0544403 0.05202606 -0.051990636 0.7512604 -0.29076853 -0.12470073
-0.06703898 -0.19070837 0.2586479 0.11541853 0.121695 -0.061647218 0.008239711 -0.11673918
0.14045617 0.0013217151 -0.36716148 -0.5304931 0.16474295 -0.06203636 0.05007506 0.26817507
-0.025298873 0.01002638 0.0963268 0.06755034 -0.122327894 -0.02522033 0.28487986 0.04978578
-0.15695457 -0.16127048 0.179207 0.05460024 -0.28512082 -0.018895097 0.20632695 -0.14649448

bias f4 [128]
00000000: a8c9 dcbb da0e 1bbc cedb 563e 808d f73d
00000010: 6d1d 1bbe d602 c2bc 7cc3 023e d99f 003d
00000020: 181b e339 882c 5a3d b75b b8bd d9a2 6f3d
00000030: cb1e d23b 64dd 873b 7698 cd3c 4fc3 663d
00000040: a229 19bb a1a1 0ebd 6a32 b03d 1af2 783c
00000050: 6803 023d 9379 653d 1889 cd3d 1bb2 95ba
00000060: 34cf 3dbe dd8a d43d d1fc 2fbb 889f 30ba
00000070: 3f15 d83d 6651 833d b168 2fbd 96a4 b93d
00000080: 8099 9a3d 3798 953d 725a 61bd f6bb e73d
00000090: 8b68 153e a384 f13d b368 0d3c 67e1 8dbb
000000a0: fab5 21be bebf d5bd 747f 80bd 7c13 a33d
000000b0: 2bde 173c f65c d03d 43f4 d13d 9ee6 953c
000000c0: 4a0d 0dbe 656c cf3c 1b68 993d 3227 aa3d
000000d0: 0727 6c3d 4d21 39bd 32e2 083d efe6 473d
000000e0: f60e e13d 9890 a2bd fb8e 07bc 0b9d 5d3d
000000f0: bb2b 693d a147 8fbd 8554 b33d 2fe4 943d
00000100: a73e bcbd 676b 22be 97b1 023c e02a e03c
00000110: b150 e13d d811 f5bd 0242 c23d 8700 acbd
00000120: bb17 dbbc e1a9 d63a f3f2 f4bc 3924 cd3c
00000130: 0340 b43c a0ab f63c 1c64 75bd 2a0f aabd
00000140: 6583 8cbd 0649 5b3d a94a 693d deb2 93bd
00000150: 1c33 c2b9 9705 113e 5b36 d33d f27e 813d
00000160: da33 89bd 5e7c 5fbd 2981 d4bc c35a 1ebc
00000170: 52f3 75bc 5147 233d 8d5c 053d 80e2 c23d
00000180: e000 a0bd 265a bd3d b53d 7ebd db76 043c
00000190: ca0e 3ebd ef5d a23b 9a82 e8bd fbf8 083d
000001a0: 90db 283e 801f e0bc 0fc0 6e3c d413 113e
000001b0: 5f63 c9ba 81c0 553e bbef fc3d cf0c 80bd
000001c0: 6b94 a93d 77fd 6c3d 7564 9dbc e087 163e
000001d0: 7c47 d93d cb29 8fbc b257 c4bd d39a b23d
000001e0: d022 e2bc 18b8 9b3c 4aec e53d d033 d8bd
000001f0: f53a be3d 2ab3 0a3d ea82 393c 59f7 22bb
-0.0067379065 -0.00946399 0.20982286 0.12087536 -0.15147944 -0.023682993 0.12769884 0.031402443
0.00043317 0.053265125 -0.09001868 0.058504913 0.006412362 0.004146265 0.025097113 0.056338605
-0.0023370762 -0.03482211 0.08603366 0.01519444 0.03174153 0.056024145 0.10035914 -0.0011420877
-0.18536073 0.103780486 -0.0026853571 -0.0006737639 0.10550927 0.0641201 -0.04282445 0.090645954
0.07548809 0.07304423 -0.055017896 0.113151476 0.14590661 0.117928766 0.008630919 -0.0043298486
-0.15792075 -0.104369625 -0.0627431 0.07962701 0.009269278 0.10173981 0.10251667 0.018298443
-0.137746 0.025320241 0.0749056 0.08308257 0.057654407 -0.045197774 0.03341884 0.04880422
0.10989182 -0.07937735 -0.008273835 0.054104846 0.05692647 -0.06996084 0.08756355 0.07270085
-0.091916375 -0.15861283 0.007976911 0.027364194 0.11001719 -0.11966294 0.09485246 -0.08398538
-0.026744714 0.0016377532 -0.029901003 0.025041686 0.02200318 0.030111134 -0.059909925 -0.083036736
-0.06860999 0.053536437 0.056955967 -0.072118506 -0.00037040643 0.14162289 0.10313102 0.06323041
-0.06699343 -0.054561965 -0.025940495 -0.009665194 -0.015011625 0.039862934 0.032558966 0.09515858
-0.07812667 0.0924571 -0.062070567 0.008084978 -0.046400823 0.0049550454 -0.11353035 0.03344057
0.16490006 -0.02735877 0.0145721575 0.1416772 -0.0015364698 0.20874216 0.123504125 -0.06252443
0.082802616 0.05785891 -0.01921294 0.1470027 0.10609338 -0.017475983 -0.09587039 0.087209366
-0.02760449 0.019008681 0.11226709 -0.105567575 0.09288589 0.03386227 0.011322716 -0.002486667

weight f4 [4, 128]
00000000: af1d 173f ff3e 59be 11fe 873d 0915 533c
00000010: e953 b0bd d34e b1bd fd10 4fbd 8433 6e3e
00000020: 7e63 643d 8d6c a1be 746e 5ebd 6ff7 f0bd
00000030: 8a20 18bd 3fd0 91bc ffa7 d3bd 0385 013e
00000040: 76ef 1ebc feb4 b8bc 1154 5ebe 5e22 b4bd
00000050: dc1e 203d cebd 94bd cf47 12bf 87b6 aa3e
00000060: 90ad 8bba 8779 68bd b01f a73d 3b16 2a3f
00000070: 802d 893d 5da3 06be 72b8 84bd af42 543b
00000080: 04d9 853e baec c83e 0299 4fbe fe3f 10be
00000090: e47b 47be d3df 993d acb4 56be 1837 8fbd
000000a0: 6ed1 d93e 41ae 0ebf c6c7 6abe ffba 2abf
000000b0: 0efb f93d 60a7 d43c 2d7c f5bd 8327 00be
000000c0: af14 fabe 7b39 c93d 08e2 2cbe d0bc 47bc
000000d0: d285 333e 8fa3 4dbe f539 0c3e 9d3d 8fbd
000000e0: 9640 943d 5ae2 973e 63c2 903e c850 213e
000000f0: 7b01 273e 9574 36be 0d1e 3a3e 7a4a 593e
00000100: 2661 16be cd3c 96bd a90b 3abd 2264 e6be
00000110: ebf0 a4bc 04d6 b73d 1f69 69bd 50b2 c13e
00000120: 8ed8 e0bc a120 303e cb7f c8bc bf5e cb3d
00000130: 51a5 25bd 7901 52bf 7c2d 12be e4d9 b9bc
00000140: 483c 2abe f990 5cbc 4b4c ecbd 1a1f 19bf
00000150: e202 cfbd 3993 a3bd 280a a73d 2d62 b4bc
00000160: 3f00 d3be fd63 f33d d152 873e 751d a3be
00000170: c51d dabe 9d6b 0abe 9454 c43e d445 823c
00000180: 59a8 f1bd 213c 0c3b beb9 b0bd 3751 32bd
00000190: 8012 9e3d 2027 3fbe b440 31bd af33 0a3e
000001a0: 570d 1b3d fc1e 9cbd 3723 05bf c783 a93c
000001b0: a993 83bc 6722 b63d ff16 9abd 3045 9a3d
000001c0: 9273 b2bd 537f aabd 764f dd3d 2431 5d3d
000001d0: 7de4 dabc 9ad1 803e 1d14 ac3e 9ba0 193e
000001e0: 8dcd e33c 4c90 28bf 5e01 f9bd ecfb 603e
000001f0: c4d8 3ebe 9970 173e b465 7d3e bf42 db3c
00000200: 04b1 003e bc9e 91be c8ed 81be 0604 f0bd
00000210: 9e05 f7be 9931 c1bd be30 1fbe e657 b53e
00000220: 87ff d13e 9f7d ab3e 8e3b 10bd abec b73e
00000230: 1321 513c c6e8 463e 3628 4d3c b814 0d3f
00000240: d406 9c3c 5a5b 3c3e 5c84 043c 93ad d3be
00000250: 78f0 ffbe 97a5 283d bfce 773e 038b 033e
00000260: a466 06bf 3d92 153e 173e 1c3e 3411 5e3e
00000270: 451b 74bc ab48 673e a804 93bc 0bf4 483e
00000280: 8198 3a3e 9443 473e 1a61 6dbf 0647 fbbc
00000290: c002 093d d358 62be ca5e 9abc 64cd 7d3c
000002a0: da3a 01bf 1c43 813f 065a 86bd a634 1bbf
000002b0: d255 083e 2621 cf3e d355 b6be f510 4ebe
000002c0: 42f9 c6be e49b e03d a1c7 3bbe 34b3 253e
000002d0: 47ff 35bd bc91 c83d 24dd 28bf b535 1b3c
000002e0: d8ff 0fbe f37f d43d b24d 6fbe 4c45 213f
000002f0: b6c8 c43e db45 603e 5034 8b3e 2d51 45be
00000300: 65da 213e 4205 9bbe 7dcf dbbd e729 753e
00000310: 8eff 23be 6766 afbe 5054 3d3d 2a57 e5be
00000320: 8c8d 13bf a257 6d3f d7ff 69bd 5bcd d33e
00000330: 5fb0 95bd 7b91 7fbe 0ef6 833d 91e4 a9be
00000340: 6c29 37be 1b1e 843d 4b9d 033e cc63 7dbe
00000350: 5a1c 4fbf e1c6 913e 539c 8e3e 30bc 74bf
00000360: 9a64 4fbe b744 1a3e c257 87be ab34 91be
00000370: 6aa6 46be 0cba 76be 49d3 22bf 3328 adbe
00000380: 435c babd 7d0e 0f3d 0c9b 913b 22c8 bebd
00000390: 85db ab3e 7ccd 3abf ef20 b0be 2936 b93e
000003a0: 46c5 963e 76a2 95bd 7f78 d33e f81c be3e
000003b0: 6f73 203c 4b71 69bd dc37 183d 00c1 b43d
000003c0: 59dc 4c3d 2025 18bf a49f 8d3e 08bf 433e
000003d0: 53bc 623e 784d 1cbe bc21 063f 3a73 80ba
000003e0: 7846 51be 8df2 b4be 1880 293d 897f 8bbe
000003f0: 5d33 d9be 8e0c b2be b503 033f 71e6 ff3d
0.5902967 -0.21215437 0.06640256 0.012883433 -0.086097546 -0.08657613 -0.05055331 0.23261839
0.055758946 -0.3152813 -0.054304555 -0.11765944 -0.037140407 -0.017799495 -0.10334777 0.12648396
-0.009700647 -0.022547241 -0.21711756 -0.087956175 0.03909193 -0.07262765 -0.5714082 0.33342382
-0.0010656584 -0.056756523 0.08160341 0.6644017 0.066981316 -0.13148256 -0.06480493 0.003238838
0.26142132 0.39243108 -0.20273212 -0.14086911 -0.19480854 0.07513394 -0.20967358 -0.0699293
0.42542595 -0.5573464 -0.2292777 -0.66691583 0.12206088 0.025958717 -0.11986575 -0.12515073
-0.48843905 0.09825417 -0.16883099 -0.0121910125 0.17531517 -0.20081924 0.13693984 -0.06994174
0.07238881 0.2966488 0.28273305 0.15753472 0.16309159 -0.1781791 0.18175526 0.21219817
-0.14685497 -0.073358156 -0.045421276 -0.4499827 -0.02013441 0.08976367 -0.056985017 0.37831354
-0.027447011 0.17199947 -0.024474999 0.09930181 -0.04044086 -0.820335 -0.14275163 -0.022686906
-0.16624558 -0.013462299 -0.11537989 -0.5981308 -0.10107972 -0.07987065 0.08156234 -0.02201947
-0.41211125 0.118843056 0.2643037 -0.3185841 -0.42600837 -0.13517614 0.38345778 0.015902437
-0.11799688 0.0021398144 -0.086291775 -0.043534484 0.07718372 -0.18667269 -0.043274596 0.13496278
0.03785452 -0.07623097 -0.5200686 0.02069272 -0.01606162 0.088932805 -0.075239174 0.07532728
-0.087134495 -0.083250664 0.108061716 0.054001942 -0.02672028 0.25159913 0.33609095 0.15002672
0.027807975 -0.6584518 -0.12158464 0.219711 -0.18637377 0.14789046 0.24745828 0.026765225
0.12567526 -0.28441417 -0.25376725 -0.117195174 -0.48246473 -0.09433288 -0.15545937 0.35418624
0.41015264 0.3349428 -0.035213046 0.3592275 0.012764233 0.19424734 0.012521794 0.5510974
0.019046225 0.18394223 0.008088198 -0.41343364 -0.4998815 0.041173544 0.24199961 0.12845998
-0.5250037 0.14606567 0.1525806 0.2168625 -0.01489908 0.22586314 -0.017946556 0.19624345
0.18222238 0.19459373 -0.9272629 -0.030673515 0.03344989 -0.22104196 -0.018844027 0.0154908635
-0.50480425 1.0098605 -0.06560139 -0.6062721 0.13313988 0.40454978 -0.35612354 -0.20123656
-0.38862044 0.10967234 -0.18337871 0.16181642 -0.044432905 0.097934216 -0.65962434 0.009473254
-0.1406244 0.10375967 -0.23369482 0.62996364 0.3843438 0.21901648 0.2718835 -0.19269247
0.15805967 -0.3027745 -0.107329346 0.23941766 -0.16015455 -0.34257814 0.046222985 -0.44793063
-0.5763786 0.9271184 -0.057128754 0.4136761 -0.07309031 -0.2495784 0.064434156 -0.33182195
-0.17886895 0.06451055 0.12852971 -0.247451 -0.80902636 0.28472045 0.2785364 -0.9559965
-0.2025322 0.15065275 -0.2643414 -0.28360495 -0.1939942 -0.24094409 -0.63603646 -0.33819732
-0.09099629 0.034925926 0.004443532 -0.09315516 0.33565918 -0.72969794 -0.34400126 0.36174133
0.29447383 -0.073063776 0.4130287 0.37131476 0.0097931465 -0.05699281 0.037162647 0.08825874
0.050014827 -0.5943165 0.2766086 0.19115841 0.22142152 -0.15263927 0.52395225 -0.0009799965
-0.20437038 -0.35341302 0.041381925 -0.2724574 -0.42422 -0.34775203 0.5117753 0.12495125

bias f4 [4]
00000000: 7704 403d a58f 97bd 80cb 9c3c 64b1 6b3d
0.046879258 -0.07400445 0.019140005 0.05754222
