problem1/models/underway/success_whole_model_1766857212.pth (torch, 146613 bytes, 9 tensors)

weight f4 [128, 8]
00000000: 54ee d23e 8414 623f 8532 ea3e 8260 b3bd
00000010: eaeb 483e 2412 40be f1f3 ebbe efe7 11bf
00000020: 1349 b3be 5fc7 a5bd dcc3 02bf 01ea fabe
00000030: 2d7c 163f 2e80 313e 87e5 69bc 0cd3 bfbe
00000040: 057d fdbd 9083 1fbd 0555 8e3e 2828 2f3f
00000050: 8a6c 8fbf 5be4 9d3e 9172 6abe 823d c2be
00000060: 481d 933c a166 113f 2804 26be 2d44 6cbd
00000070: c5d2 a7be 6ac7 603e aee2 ce3d 3262 ea3e
00000080: 7560 463f 78c0 283e 69bc 63bf 3d95 493e
00000090: 63d4 48bd d24b 4bbf c98d 633e fcc3 9e3e
000000a0: 6ace 08bd 1e86 1fbe 8147 3e3f 0407 d9be
000000b0: 3c5b 453f d5b1 363f b15f 0fbe c76a 99bd
000000c0: 7dd9 283d f288 413f 6ba7 633e 1339 a6be
000000d0: 0a52 193e 26b8 8a3e 0d91 2b3e 819f 2fbf
000000e0: 3ea3 39be baf4 503c 3f6b 623d 8a4a 993e
000000f0: 1bec ce3e 65d6 c93e d740 e23e 0723 a73e
00000100: 55eb 4c3d 1712 5ebb 6604 1ebd db01 12bb
00000110: 05da c03f c00a 09bd f45b dd3a 33fb 9bbe
00000120: 7bd9 423e 7b05 8fbd be4c b03e 475e a83f
00000130: d962 783f 3f76 933d 1996 d03d 5467 f2bb
00000140: 3496 01be 951a 39bd 6bf1 8f3e 1236 81be
00000150: c113 6fbe a65c a43e 7e5e cb3e 2f19 ca3e
00000160: 4553 51bd 8a1c ff3e 945b f83d bdb2 baba
00000170: c446 12be 8981 303e 017b b13e 66e3 88be
00000180: 9ff9 163c c926 003f 0bf9 113f 5d18 a1bf
00000190: aa32 343f a5b4 533f 520b 9a3d fa68 29be
000001a0: 5eb3 263e 8e0e 6ebe 1662 bbbd 2ae2 acbe
000001b0: 0644 e13e 265b 093f c6cf 443e 4072 29bf
000001c0: 524f 07bf f56d 32be c251 24bf 32fd 1bbf
000001d0: f9b3 ea3e cac3 2d3e 6ab0 f33d e86e 35be
000001e0: e829 103f 1e04 723f 2dd9 60bc 7fba febd
000001f0: 45e6 8f3b 5bc6 eabd 3bc0 a3be 79f3 a4be
00000200: 48c6 583e 582e e7be 1385 16be 970b 07bf
00000210: 1314 cfbe 4c9b a2be 8b94 e43e e306 0a3e
00000220: 3799 75bd 6133 993e 5bca d7be 88f9 ccbe
00000230: ab74 21bf 174b b7be 912a 9f3c d5c0 923e
00000240: 0497 71be 7f75 9e3e 1d67 aa3e f1b3 553d
00000250: 3c0c db3e c317 003f 3423 303e 9d6a 073f
00000260: 3a38 53bd dfdc 25be fc35 8c3f 1856 3d3f
00000270: 04ed 3abe bba0 12bf 1561 3bbe a6c9 083f
00000280: 421a d0be 8b8f 8e3e 995a cbbe 1453 b53d
00000290: d9b9 ab3e b5d9 0a3e 7cd2 14bd 4b46 d0be
000002a0: f58f eb3d 9cec b2be f48f b23e 287f 213e
000002b0: 6ba9 6d3e 8b8e 0cbf 6afe 953e ce2e b23e
000002c0: bc0b 3d3f 7336 7e3e 4955 95bf 7eb5 f0be
000002d0: 87e1 9b3e 79ed 333c c795 acbd 356e 53bf
000002e0: dea9 28be a250 093f 5012 983e e2e6 0fbf
000002f0: 1064 d7bc 96a6 9dbc fb09 073e 5034 613e
00000300: 4556 163b eac6 c93e be29 58bf fbf7 2abe
00000310: b934 51bf e9ed 6bbe 5121 45be 11cf d0bc
00000320: c4c5 97be 811a 6c3e e0b1 85bf a84b 4dbf
00000330: bf77 813b daa7 b23e 78dc 303e f44a 793e
00000340: 9f86 16bf b6a4 b93e 6f02 8d3f c4d2 e6be
00000350: f74b 99bd 4723 f6bd 1533 bdbc f2e2 f2bc
00000360: e7b0 243f e809 60be 1439 6d3e 0323 95bf
00000370: 7350 ef3e 471c b6be 04ff 473e 6602 ae3d
00000380: d057 83bd 9b4e 2c3f 4fca 6ebe ffe3 39bf
00000390: c691 173f 87dd 593e a4d1 f13b f9c1 02bf
000003a0: 1105 7dbe 9f00 8c3e 20f9 0fbe 270a 14bf
000003b0: 6689 31bf 08cc 01bf 94a1 a0bd 493e 03be
000003c0: b94c 0e3e 51eb 203f 69bf 903e 3259 26bc
000003d0: a2d4 783d 6276 ebbe b8c7 2dbe 0654 3d3c
000003e0: 3923 e73e 9af1 36be 110d 7bbe ce30 2cbf
000003f0: b3ec 21be ef46 bc3b 9d3e 92be 5142 b9be
0.41197455 0.88312554 0.45741668 -0.08758642 0.19621244 -0.1875692 -0.4608455 -0.5699453
-0.3501669 -0.08094668 -0.5108011 -0.49006656 0.5878323 0.17334053 -0.014275915 -0.37465703
-0.12377361 -0.038943827 0.2779924 0.6842065 -1.1204998 0.30838284 -0.22895266 -0.37937552
0.017958298 0.56797224 -0.16212523 -0.057682205 -0.32777992 0.2195107 0.101018295 0.45778042
0.7749093 0.16479671 -0.88959366 0.19685836 -0.049030673 -0.7941257 0.22222055 0.310089
-0.033399977 -0.15578505 0.74327856 -0.42388165 0.7709234 0.713651 -0.14001347 -0.07491069
0.041223038 0.75599587 0.22231834 -0.3246542 0.14972702 0.2709362 0.16754551 -0.6860276
-0.18128678 0.01275366 0.05527806 0.2993968 0.4041451 0.39421383 0.44190094 0.3264391
0.050029118 -0.0033885294 -0.038578413 -0.0022278938 1.5066534 -0.033457518 0.0016888366 -0.30465087
0.19028275 -0.06983467 0.3443355 1.3153771 0.9702583 0.07200288 0.10184879 -0.0073975716
-0.12654954 -0.045191366 0.28113875 -0.25236565 -0.2334738 0.32101935 0.3972053 0.3947234
-0.051104803 0.4982646 0.12126842 -0.0014243942 -0.14284807 0.17236914 0.34664157 -0.2673599
0.009214788 0.5005918 0.57020634 -1.258556 0.7038981 0.82697517 0.075216904 -0.16543952
0.1627936 -0.2324774 -0.09149568 -0.337663 0.4399721 0.53654706 0.19219884 -0.66189957
-0.5285541 -0.17424758 -0.6418725 -0.6093322 0.45840433 0.16969219 0.11898883 -0.17718089
0.56313944 0.9453753 -0.013723654 -0.12437915 0.004391464 -0.114636146 -0.31982598 -0.32217005
0.21169388 -0.45152545 -0.14699201 -0.5275206 -0.40445003 -0.31759107 0.4464458 0.1347919
-0.05996057 0.29922011 -0.42146572 -0.40034127 -0.63068646 -0.35799477 0.019429477 0.28662744
-0.23592764 0.30949017 0.33281794 0.05217356 0.42782772 0.5003626 0.17200929 0.52897054
-0.051567294 -0.16197537 1.0953975 0.73959494 -0.18254477 -0.57276505 -0.18298753 0.5343269
-0.40645033 0.2784389 -0.39717558 0.088537365 0.33540228 0.13559611 -0.036333546 -0.4067863
0.11502067 -0.34946144 0.34875453 0.15771163 0.23209159 -0.54905003 0.29295665 0.34801334
0.7384603 0.24825458 -1.1666652 -0.47013468 0.304455 0.010981911 -0.08427005 -0.8259004
-0.16471049 0.5363866 0.2970147 -0.56211674 -0.02629283 -0.019244473 0.13187401 0.21992612
0.0022939604 0.39409572 -0.84438694 -0.1669616 -0.81721073 -0.23039974 -0.1925099 -0.025489362
-0.2964307 0.23056985 -1.0444908 -0.8019357 0.0039510424 0.34893686 0.17271602 0.24344999
-0.58799165 0.36258477 1.1016368 -0.45082676 -0.07485192 -0.12018447 -0.023095647 -0.029649232
0.6433243 -0.21878779 0.23166305 -1.165131 0.46741065 -0.3556845 0.19530874 0.08496551
-0.06413233 0.6730744 -0.23319362 -0.7261352 0.5920681 0.21275912 0.0073797274 -0.5107723
-0.24708964 0.27344224 -0.14059877 -0.5782799 -0.6935028 -0.5070195 -0.078433186 -0.12816729
0.13896455 0.62859064 0.28271034 -0.010153102 0.060749657 -0.45988756 -0.16970718 0.011555677
0.4514406 -0.17865601 -0.24516703 -0.6726197 -0.1581295 0.0057457606 -0.28563395 -0.36183408

bias f4 [128]
00000000: a3cb 5d3e d78a 4f3e 96fa 8e3e 66b6 233e
00000010: 93c3 893e cc7a 593e d5b2 37be 1aef a23e
00000020: a242 573a 52a6 a3bc 4836 c43e 9137 143f
00000030: f237 693e 8570 b23e c156 e4be 554f 023d
00000040: 5684 41be 9193 c03e 2b10 ecbe 1b34 fa3e
00000050: 27c8 ec3d 9974 1ebe 37c5 a73d 45f0 5d3d
00000060: dce1 613e 9dd1 c23e c20f e13c 5b09 dc3e
00000070: 0289 5d3d c2e6 de3e 5af9 133f e648 f73e
00000080: 87a2 c0bd 859f fc3e 2526 2c3f e89b 013f
00000090: e22b d53e ff7c 073f 97e7 3c3e 9daf d8be
000000a0: c681 033f 98d6 083f 994c 123f c202 303f
000000b0: 81a2 2d3f 3118 2f3f ad0f 073f ccb1 ad3e
000000c0: 1ba8 5dbe 876e 36be 68a1 9fbd c536 78be
000000d0: 9274 133f 1bd8 3c3e a08e e43c dcb9 a23d
000000e0: ac08 383f fb6f 023f c9fe cb3e 9cb9 eebd
000000f0: 85c0 d23e 1cab a03e 6b76 4bbd 8b54 86be
00000100: a213 6ebc ff52 c9bb 984d 7cbe 9f74 35be
00000110: 2dfb 0b3f b635 b8bd 6042 853e daca 8ebe
00000120: a91b 423e 3fcc 823e 78bc f33e 84a3 8abe
00000130: 351c ddbd 25e7 46be 713c 7cbe 3b55 f63e
00000140: c807 853e 7c0b f43e 86cf 133f 66f9 0e3f
00000150: e548 183f bad8 143e 6069 01bf 4a71 253f
00000160: 8079 973d e29a 34be e905 07be 36a7 cd3e
00000170: 3fda e63b 5208 be3c 20c9 423f 1062 003e
00000180: 40db bb3e 074f 843d 0076 fd3d c2b0 c23e
00000190: 63da 903e 77cd b33d 7cea 9f3e 67ab d33e
000001a0: ab17 d1be e694 013f 730d 3f3f 152f a53e
000001b0: 8a14 aebe b0c3 363f cb1b ed3e dc4f 71bd
000001c0: faa8 993e 9f9d 02be 086f be3e 8f00 1b3e
000001d0: a28e 313f f7bd c33e f807 c6be f3a3 0c3d
000001e0: b82f 2d3e 1a52 f63e 1e77 b4be def6 a23d
000001f0: e460 dbbe c6eb 17be 6a9a 963e efe9 b53e
0.21659712 0.20267807 0.27925557 0.15987548 0.26907024 0.2123825 -0.17939313 0.31823045
0.0008211528 -0.019976769 0.38322663 0.5789729 0.22775248 0.3485147 -0.44597438 0.03181394
-0.18898138 0.37612584 -0.46106085 0.48867878 0.115616135 -0.15474166 0.081919126 0.054184217
0.22058815 0.38050547 0.027473334 0.42975888 0.05408574 0.4353543 0.57802355 0.48297805
-0.09406 0.49340454 0.67245704 0.5062852 0.41635042 0.52925104 0.1844772 -0.42321482
0.51369894 0.53452444 0.5714813 0.6875421 0.67826086 0.6839629 0.52758294 0.3392471
-0.21646158 -0.178156 -0.07794458 -0.24239643 0.5759975 0.18441813 0.02790004 0.07945606
0.7188823 0.5095212 0.39842823 -0.11656496 0.41162506 0.31380546 -0.04967348 -0.26236376
-0.014531048 -0.006143927 -0.24638975 -0.17720269 0.5468014 -0.089946195 0.26027203 -0.27889138
0.18955864 0.25546452 0.47604728 -0.27077878 -0.10796396 -0.19424112 -0.24632432 0.481119
0.259825 0.47665012 0.5773853 0.558493 0.5948623 0.145358 -0.50551414 0.6462599
0.07396221 -0.17637208 -0.13185848 0.40166634 0.00704506 0.023197327 0.7608814 0.12537408
0.36690712 0.06460386 0.12376022 0.3802548 0.28291616 0.08779424 0.31233585 0.41341707
-0.4083837 0.50617826 0.74629897 0.32262483 -0.34000045 0.71392345 0.46310267 -0.05891405
0.3001173 -0.1275544 0.37194085 0.15136932 0.69358265 0.3823087 -0.38677955 0.03433604
0.16912735 0.48109514 -0.3524713 0.079572424 -0.4284736 -0.14836034 0.29414684 0.3553004

weight f4 [128, 128]
00000000: 0d99 5e3c 8987 d3be 0c29 3d3e 5fc8 5a3d
00000010: f492 043e 4f6a b53d 65d4 b13d e72f 05bd
00000020: 6036 183e e69b 763e 03d3 1abd e984 223e
00000030: 7360 cabe a9fc 04bf 40c2 e6be 5473 a3bd
00000040: 37ca 26bf 8158 e9bd b07f 61bf 0c80 8b3e
00000050: e9a0 27be 5442 ecbe cadf ef3e 5afa 96be
00000060: f6f5 c03d d965 7ebe 28cd 3a3f ce36 dbbe
00000070: 8f9e c4be c8f3 8e3b 3fff 0d3e bdb5 45bd
00000080: 1e49 243e fbe8 a8bf 4418 85be b00b 8bbf
00000090: a9f2 e73d 66e9 b2bd 607f dfbe 4ff3 ac3e
000000a0: 2c39 bdbc ecea 06bf 1c4c d9be e1a3 f53d
000000b0: c66f 69bf c81c e83d e368 f6be 80ef a83d
000000c0: fe61 073e 833a e4bd d786 00be 8f1b 06bf
000000d0: 2500 20be 395b 85be 6634 d13d db86 783d
000000e0: 084e e03d 1fdf dfbe e625 85be 0542 d63d
000000f0: 0d3e 613b c0ad 38bf 42ca b0bc 6f23 633e
00000100: 88d8 db3e cdcd 2d3f 7352 3cbf d96c 91be
00000110: 5c4e 51bf 60e1 bcbe 206d 2fbe ea5e d03d
00000120: e8e9 3cbf 3d52 a1be c751 d73c 5d15 973e
00000130: f2be 943c 7820 9ebe e35e 49bf 4a19 cebe
00000140: 76f9 993e b9db b93d 592d 7a3d fca2 ef3c
00000150: 7cc7 c03d af29 bb3e 93bf 86bf fa49 00bf
00000160: a8d4 2ebe 00ff 38bf 8e97 13be 5a78 ad3d
00000170: 82d5 40be 128b b0bd 9a3a 21bf f504 69be
00000180: 7643 adbd 6d7d 323e fb5b c13d c2a0 3dbf
00000190: b2ff cdbd 7ae9 d6bc bb2a d6be bf4f 75bf
000001a0: f98c 21bf 251d 63bf b13f 58bf 81d9 91bd
000001b0: 80ff a5bc e1a6 25bf 1f04 b2be 3165 ea3d
000001c0: 4e0b 5cbe c68d 94bf 17b3 4bbf 4d27 dd3e
000001d0: 4668 803e 2364 bfbe 902f 5cbf 6b24 fa3d
000001e0: 2e92 73be 976a 1fbe 6ed4 cfbe e3a3 1fbe
000001f0: f9e0 81be 0444 d0be a529 043f 2b99 a33c
00000200: 139c 8bbe a9c0 14be 5963 f93e b895 8d3d
00000210: a768 973e 7ede e83e 66fb d33d eba4 283e
00000220: a724 8a3f 0cce 413f 7049 893e 7e27 893e
00000230: fff4 18bd 4025 483e c4dc 68bf e9a6 3cbe
00000240: 23c7 d83d 0fcc 5b3d c70e c93d 1f7c 683e
00000250: 81d1 b73d a350 ab3d c961 193f 4f65 e1be
00000260: e70c 2c3e d773 0b3e 21a2 183f 37fa b43e
00000270: 85f2 c5bd c4b3 da3b 42c7 413e 6af9 f53e
00000280: fe41 9e3d d79e c03e 19d2 063f ea4c 4b3e
00000290: a0c8 923e 2223 cf3e c008 a83e 7b62 503f
000002a0: 858c 973e e829 bf3e f1c4 153f 11cb 7f3e
000002b0: f104 fa3e fc2d 0c3f ffd8 103d fdeb 6cbd
000002c0: 51e5 35bf eb8a 5fbe f6bc 113e b584 9d3c
000002d0: 625e 7a3e e7bf d33d 6cf8 bd3e 3976 013f
000002e0: bb4f 6f3e 3eb1 4a3e 5e0a c83e b225 ec3e
000002f0: c0ef bd3e 9673 be3e 711a 98be aa1b 9cbe
00000300: a63d 6d3f 363f 4e3f ee21 95be a180 cfbe
00000310: 51bb c23e 54db 7e3e 4887 13be 59a1 bd3d
00000320: 7139 b7bd 99d5 33be 75c8 dc3d 06cf 633f
00000330: d86c b23e db73 ab3b dc78 f3bd 2f2b d33d
00000340: c926 e23e 411f d93d 9611 9f3e 480a cd3d
00000350: 290d 8d3e 9ab1 873d 1f5a 823d 0f5e 593e
00000360: ec28 9a3e a4d8 93bd a189 ae3d 8b20 34bd
00000370: 44a6 993e d68b 3d3f 0755 0f3f 0e2d 913e
00000380: 9832 77bc 967d 11bf 3d0a 91be f392 0c3f
00000390: 22f2 973d 64a4 813e 3dd9 c9be 0be7 863d
000003a0: 39e7 533e b529 de3d d959 893e 91a4 523e
000003b0: b02b d1be de43 c33d 649c 3f3e 1c83 a6bd
000003c0: 9acd 713e 710a 9b3d 142a c43d 4dad 3a3f
000003d0: f13a 403e d5b5 07bc 907a a8bc 0595 80be
000003e0: 3187 c6bd 302e 9e3d bf9f a4bc 74be d13d
000003f0: 7247 e8be 1cb9 70be d499 993e 9ac1 bdbc
0.013586295 -0.41314343 0.1847269 0.053413745 0.12946683 0.088581674 0.08683089 -0.032516386
0.14864492 0.24082908 -0.037798893 0.15871014 -0.3952671 -0.5194803 -0.45070076 -0.079809815
-0.65152305 -0.11393834 -0.8808546 0.2724613 -0.16369976 -0.46144354 0.46850425 -0.29487878
0.09421913 -0.2484354 0.72969294 -0.4281525 -0.3840222 0.004362557 0.138669 -0.048269022
0.16043517 -1.31961 -0.25995076 -1.0862942 0.113255806 -0.087359235 -0.43651867 0.3377938
-0.02309855 -0.5270221 -0.4244088 0.11994148 -0.9118618 0.113336146 -0.48126897 0.08248806
0.13220975 -0.11143973 -0.12551437 -0.523858 -0.15625055 -0.2604616 0.10215072 0.060675483
0.10952383 -0.43724915 -0.26005477 0.10461811 0.003436926 -0.7214012 -0.021580819 0.22181486
0.42938638 0.6789215 -0.7356331 -0.28403357 -0.8176019 -0.36890697 -0.17131472 0.101743534
-0.7379441 -0.31508055 0.026284112 0.29508486 0.018157456 -0.30884147 -0.7866041 -0.4025367
0.30073136 0.09075112 0.061078403 0.029252522 0.094130486 0.3655524 -1.0527214 -0.5011288
-0.1707331 -0.722641 -0.14413282 0.08470221 -0.18831447 -0.086202756 -0.62980044 -0.22755797
-0.08460133 0.17430659 0.09441372 -0.7407342 -0.10058536 -0.026234377 -0.41829476 -0.9582481
-0.6310573 -0.88716346 -0.84472185 -0.07121564 -0.020263433 -0.6470776 -0.3476877 0.11445082
-0.21488687 -1.1605766 -0.79570144 0.43194047 0.25079554 -0.37381086 -0.86010075 0.122139774
-0.23786232 -0.15568005 -0.40591758 -0.15589862 -0.25366953 -0.40676892 0.51626045 0.019970497
-0.27267513 -0.14526619 0.4870861 0.06913322 0.2957203 0.45482248 0.10350685 0.16469161
1.0792435 0.7570503 0.2681384 0.26787943 -0.03734302 0.1954546 -0.9096186 -0.18423046
0.10584857 0.053661402 0.09817272 0.22703598 0.089755066 0.083649896 0.59914833 -0.44022605
0.16801797 0.13618408 0.5962239 0.3534715 -0.096653976 0.0066742618 0.18923667 0.4804185
0.07727431 0.37621185 0.52664334 0.19853559 0.2866869 0.40456492 0.32819176 0.8140027
0.29599395 0.3733666 0.58503634 0.24979807 0.48831895 0.54757667 0.035363194 -0.057842243
-0.71053034 -0.21830337 0.14232239 0.019228319 0.24450067 0.10339337 0.37103593 0.5057102
0.23370259 0.19794175 0.3907041 0.4612251 0.37096977 0.3719756 -0.29707673 -0.30489856
0.92672193 0.805652 -0.2912745 -0.40527824 0.38033536 0.24888355 -0.14407074 0.0925929
-0.08946503 -0.1756195 0.10780422 0.8898777 0.34848666 0.005232317 -0.118882865 0.10310971
0.44170216 0.10601664 0.31068105 0.100117266 0.27549103 0.06625672 0.063648455 0.21227287
0.30109346 -0.07219055 0.085223444 -0.043976348 0.30009663 0.740415 0.55989116 0.28354686
-0.015087746 -0.56832254 -0.28328124 0.54911727 0.0741923 0.25320733 -0.39423552 0.06587037
0.20693673 0.10847799 0.2682636 0.2057059 -0.40853643 0.09534429 0.18712002 -0.08130476
0.23613587 0.07570351 0.09578338 0.72920686 0.18772484 -0.008283098 -0.020566255 -0.25113693
-0.096937545 0.07723653 -0.020095704 0.10241404 -0.45367008 -0.23508114 0.30000174 -0.023163605

bias f4 [128]
00000000: e8f8 b9bd 554f a73e 4e4e dcbc 1a45 4cbe
00000010: 2ef9 db3e 542b 23bd d13a 51be 56b0 b0bc
00000020: 1528 6abd fe1d 583e 7d8f e0bc 5de7 893e
00000030: 2434 d73e d529 5cbe 9f62 68be 000d e4bd
00000040: e66e febc 530a 06be 1011 98bd 9275 5dbe
00000050: bdc5 4c3c 7f18 edbd ea29 0a3b 3791 6d3d
00000060: e44f 193d b562 683e 72b9 cabc 8481 72be
00000070: b8da 0bbe 8005 6b38 ec70 50be 0b5c ef3e
00000080: 84a6 57be 7cb1 b43e c0a8 b8bd e22c 89bd
00000090: 59cd acbd 774e 9abe adb8 aa3e 489f 9fbd
000000a0: 5572 24be 0199 28be 7bca 5c3e 0002 ab3e
000000b0: 66da d9bd 049b 09bd c4ae 5dbd 691b 43bd
000000c0: 1b31 51bd 8527 a0be b9ce bc3e aa85 9dbe
000000d0: b676 05be 546e 96bd 279f 47bd e21a 2cbe
000000e0: 7752 d03d d976 52be 64b3 6bbc 85d6 c73e
000000f0: 47a3 3a3e c379 33bd 00f2 013b c411 183c
00000100: 9011 b33e 9a1d ebbd eac0 4bbd 029c 87bd
00000110: f1fc 343a cc17 43bd d826 143e e5db 23be
00000120: 5822 173e 049b c63e 59bf c5bd 8bf6 3dbe
00000130: f3fd 3fbe f8f8 3e3e a8af 793e 8905 6abe
00000140: dfb3 efbd a029 5ebe a16a 61be 89be a33e
00000150: 5d65 4c3e 60a8 84be 6178 0a3d 327d 6dbd
00000160: 262b d2bd d48c 6c3e dc8b e0bd 9fe1 d03c
00000170: d4f8 babd 1c05 653e 2ec6 21be c007 3b3b
00000180: 530c 5abc 467d 04be 9543 08be 5367 1ebc
00000190: a04b 6b3e fee8 25bd e524 cf3c f26c d0bc
000001a0: 78cf b4bd 2bd5 e4bd ee18 f33b 07eb 2fbe
000001b0: 711b 37be 730f d23d 6c7c 913e 3843 da3e
000001c0: 1a10 35be f1f6 1b3e f33c 7ebe cafd 003f
000001d0: baf4 63be 2aae 8ebe ddca 843e b10c eabc
000001e0: 140b 85be cd5c b3bd 53f1 86be aeba bf3e
000001f0: 5f22 c6bd fb90 babd 8f17 3bbe 4fef 86be
-0.09080678 0.32677713 -0.026892807 -0.19948235 0.42963547 -0.039836243 -0.20432593 -0.021568459
-0.05716713 0.21105191 -0.02741217 0.2693433 0.42031968 -0.21500333 -0.22693871 -0.11135292
-0.03105874 -0.13089876 -0.074251294 -0.21626881 0.012498316 -0.11576938 0.0021082112 0.057999816
0.037429705 0.22693904 -0.02474663 -0.23682219 -0.13657653 5.603349e-05 -0.20355576 0.4674991
-0.21059614 0.3529166 -0.090165615 -0.06698014 -0.084376045 -0.3013799 0.3334402 -0.07794052
-0.16059239 -0.16464616 0.21561615 0.33399963 -0.10637359 -0.0335951 -0.054121748 -0.047633562
-0.05107222 -0.3128015 0.36876467 -0.3076604 -0.13033566 -0.07345262 -0.048735764 -0.1680713
0.10171979 -0.2055315 -0.014386032 0.39030853 0.18226348 -0.043817293 0.001982808 0.009281579
0.34974337 -0.114802554 -0.049744524 -0.06621553 0.0006904146 -0.047630116 0.14467943 -0.16001852
0.14759195 0.38790143 -0.09655637 -0.1855108 -0.18749218 0.18649662 0.24383414 -0.22853674
-0.117042296 -0.21695566 -0.22013332 0.31981304 0.19960542 -0.2590971 0.03380621 -0.057980724
-0.10262136 0.23100597 -0.10964176 0.02549821 -0.091294914 0.2236523 -0.15798256 0.0028538555
-0.013308602 -0.12938413 -0.1330703 -0.009668189 0.22978067 -0.0405054 0.025286147 -0.025442574
-0.08828634 -0.11173471 0.0074187433 -0.171795 -0.17881562 0.10256853 0.2841524 0.4262941
-0.17681924 0.1523092 -0.24827938 0.5038725 -0.22261325 -0.27867252 0.25936022 -0.028570505
-0.25985014 -0.08757935 -0.2635599 0.37447113 -0.096745245 -0.09109684 -0.18270706 -0.26354453

weight f4 [1, 128]
00000000: a008 883f 41f4 da3f 3308 733f 9171 f8be
00000010: 8dd1 893f ddf8 01bf e6f3 27bf 0d2b f8be
00000020: 4626 0cbf 1bdd 7c3f ac73 1dbf f382 ff3f
00000030: fe2e c53f 3555 84bf ffbf 3cbf 72d6 0ebf
00000040: c246 68bd c3d9 5c3f 6874 f0be 2515 59bf
00000050: dd66 a5bd 2772 4dbf bd5f cb3f 528d d43f
00000060: 9c23 b93f 8f90 af3f 0ccd 803a d6d9 1cbf
00000070: cd59 683f 9c79 eebe 9f11 0fbf 7c08 7a3f
00000080: f8aa a8bf c3cc 643f ec79 1abf 75e3 1cbf
00000090: 309c 6fbf f87a 4ebf 1041 783f e3b7 e4be
000000a0: 162e 08bf e5aa 4abf d218 f13f f179 f73f
000000b0: 4364 19bf c54f 0fbf 8c4a 8fbd ca46 86bd
000000c0: 3a9a 7c3f 99b2 16bf 39cc 843f 2710 73bf
000000d0: 58fb 10bf 8a91 9b3d 3f1f b33f 731e eabe
000000e0: 1c55 8f3f 3ada 12bf f58d 623f c91c 8c3f
000000f0: 75e3 f83f 8354 11bf d525 9a3d b72b 08bf
00000100: 4db9 7e3f aa6b efbe af74 dc3c 8f6b 6e3f
00000110: 49e0 873f c5c4 04bd 0218 973f d59f f7be
00000120: 2f84 883f d6c4 883f 4ac4 00bf 9210 f8be
00000130: cd6f e5be 1b71 933f a616 f03f 4d25 0abf
00000140: 2cb6 0cbf af22 19bf e9b5 36bf 177b f73f
00000150: 36fa d83f 6c41 43bf e0e0 8c3f c4ed 813f
00000160: d925 f6be 6813 0240 239f 6b3f 2d7a 8e3f
00000170: b7c4 65bd fa75 f83f 68db 0bbf d847 813f
00000180: 6626 853f 9897 96bf 12ce 03bf 284b b63f
00000190: 9ea1 e33f a6e2 08bf 5730 d83c f7e3 823f
000001a0: 6b3e 3cbf 3ad1 3cbf 18d2 063c 8654 13bf
000001b0: ca69 23bf 8c9d 6d3f d462 3a3f 0627 8e3f
000001c0: 7faf 1abf 88a2 8c3f fcd3 25bf dc81 883f
000001d0: 883c fabe 1d80 26bf 9c8b db3f bf67 1abf
000001e0: de0b 12bf 6c12 aebc 4882 30bf ddc2 be3f
000001f0: e1a9 6abf 8046 f8be 46fa 5abf 120d 3bbf
1.0627632 1.710579 0.94934386 -0.48524144 1.0767075 -0.5077036 -0.65606534 -0.48470345
-0.547459 0.9877488 -0.61504626 1.9961838 1.5404966 -1.0338503 -0.7373046 -0.5579597
-0.056708105 0.8626978 -0.4696381 -0.8479789 -0.0807626 -0.8025231 1.5888592 1.6605628
1.4463992 1.3715991 0.0009826734 -0.6126989 0.90762025 -0.46577156 -0.5588626 0.97669196
-1.3177176 0.8937494 -0.6034229 -0.6128457 -0.935977 -0.80656385 0.9697428 -0.44671544
-0.5319532 -0.79167014 1.88357 1.9334089 -0.5991861 -0.55981094 -0.069966406 -0.06556471
0.9867283 -0.5886627 1.0374824 -0.9494652 -0.5663352 0.07596119 1.399391 -0.45726356
1.1197848 -0.5736424 0.8849786 1.0946285 1.9444414 -0.5676958 0.07526747 -0.53191704
0.99501497 -0.4676183 0.026911108 0.9313287 1.0615321 -0.032414217 1.1804202 -0.4836413
1.0665339 1.068507 -0.50299513 -0.48450142 -0.4481186 1.1518892 1.8756912 -0.53963166
-0.5496547 -0.5981855 -0.7137132 1.9334439 1.6951358 -0.762717 1.1006126 1.0150685
-0.4807575 2.0324345 0.920397 1.1131035 -0.056095805 1.9411004 -0.5463166 1.010005
1.0402343 -1.1765013 -0.51486313 1.4241686 1.7783697 -0.5347084 0.026390238 1.0225819
-0.7353274 -0.73756754 0.008228801 -0.5755085 -0.63833296 0.9281852 0.7280705 1.1105659
-0.60424036 1.0987101 -0.6477659 1.066463 -0.48874307 -0.65039235 1.715198 -0.60314554
-0.5704936 -0.021249019 -0.68948793 1.4903218 -0.91665465 -0.48491287 -0.85538137 -0.7306682

weight f4 [128, 128]
00000000: 7aa5 acbd ce5a 92bc 1a9e fa3c ae27 933d
00000010: 9efd a33d f509 58bc 9732 59bd ac70 ffbc
00000020: 9c06 783c 61a3 8cbd 6943 83bd 84b2 973d
00000030: dc13 473d aa99 803d 2811 8dbd a23d 70bd
00000040: c13b 67bd cb7d d4bc 4ac1 da3c c975 793d
00000050: 4cf3 25bd dbae 95bd c2b1 353d 6dd0 963c
00000060: 28a6 4f3d a7c7 a3bc e928 96bd 901a acbc
00000070: 2135 8d3d 48f0 5c3d 8bd7 01bd 0073 8abd
00000080: b624 97bd 4450 6ebd 39c2 bbbd 5164 4e3d
00000090: b444 a93d 934a 383d 1b76 6837 2061 86bd
000000a0: 6afd a33c 28a7 84bd 0b2f 813d 7023 a13c
000000b0: dcf4 94bd 3f37 6fbc 5cbf 90bd 2396 693d
000000c0: bbf1 9fbd d270 f13b 77e0 30bc 9c54 f2ba
000000d0: 0a0e 533c 546f b73c c7e2 75bc 0f34 be3c
000000e0: 694c 9bbd ec2b 433d eb9e ee3b 8469 15bd
000000f0: 94e6 a1bc 705b 8f3d ef6e a23d ae4f 1abd
00000100: fd7c 683d c94a c4bc a2b6 5b3d c118 93bd
00000110: 1bc4 62bd 698e 0a3d 2445 0fbd 40f7 733d
00000120: 4879 a7bd 987f 8abd 368e 633c c09f 8a3d
00000130: bfc6 a4bd 82ea 50bd a962 46bc 9fb8 68bd
00000140: aab9 193d dcfc fcbc 7556 1e3c 6413 7e3c
00000150: 74fc 12bd 0bfa ebbc 160c 8b3d f4a5 54bc
00000160: cc81 9d3d e80c fc3c 62e4 85bc 385f 9cbd
00000170: a4b6 183d 5129 10b9 6262 d5bc 722c 1e3d
00000180: 9fb1 8b3d 8a87 8bbd 6d3e 803a 2684 20bd
00000190: 4257 96bd a714 e9bc e174 833d bafe 6dbd
000001a0: 79cf afbd 7028 84bd 796f 88bd 4abf 093d
000001b0: b441 abbd 5ad3 7e3d 2c90 bcbd 3764 3ebd
000001c0: ef0d 353d ef32 443d e8a8 9a3d 95b2 a4bd
000001d0: 11b0 93bd 1043 1cbc 10d1 b93b 87f8 043d
000001e0: 0b82 13bd 34b8 3f3d da5f 4fbd 6888 353d
000001f0: 833e b13c a0f6 c2bc aafd a7bd 0a64 96bd
00000200: e267 243d 23cc 6cbe 9b76 66be 558f ab3c
00000210: 5258 b83b f283 33bb d438 613d be58 43be
00000220: 4f04 71be f460 40be 8f23 2fbe 3faf b0be
00000230: 7064 85bc 3125 bebd 0c24 0abe 6cd3 d13d
00000240: 05bf 2a3e f51d 2abd fd1c e7bd 9106 9abd
00000250: 4b4a a2bd 11fa 083e 738b 30bd f44d 823c
00000260: a224 1abe a171 80bd be9a 4c3e 49d1 d93d
00000270: 45d2 3fbd f702 a6bd 74d3 3b3b 0a40 c1bc
00000280: 53e4 fcbe b99b f5bd 47e8 e33d 2865 31bd
00000290: 3e8d 8ebd 3ebe 1abe 084e 0e3d 157f 8f3e
000002a0: e5a2 2ebe 1ef7 ba3d 161c c53d a7d7 d5be
000002b0: 9889 493d 6e08 05bf e0dc 1abe dba4 1fbd
000002c0: fd02 1a3e cb98 ae3d fe14 afbd ca97 a43e
000002d0: af08 30bc 85cd 74bd f0de 2c3d a5ef 40bd
000002e0: 00c7 eabd f3b4 ecbd 8f6b 833e 505d 0d3e
000002f0: b53a bfbe 1abb 1b3e 7c97 463e 532d 543e
00000300: 90a3 94be b79c 07be 09b5 a8bc 5b7d 823e
00000310: 797d 613d 36f3 c7bd 17b2 24bd bfb4 97bd
00000320: ec96 fcbe 4521 c33d 2ed7 8ebe 7f5c cd3e
00000330: 0acf 743c 3708 733e 9ad7 fb3c 3c48 213d
00000340: dcf7 ed3c 231b a63d 3e5b 83be ee76 19bd
00000350: c72e ddbd f38a 87bd 18b0 493e ddad 88bd
00000360: 2fea 89bd 9b94 6b3d a807 f63d 6874 bbbd
00000370: 28e7 2fbe 0138 81be a5fe 4fbd 0ff4 9cbd
00000380: c793 58bd 8c11 763d 8cf6 cabd 115b 2d3e
00000390: e9ea a7be 4ca7 8d3d 2d4f 313d b6f4 273d
000003a0: b016 12bb b9c2 193d 2f7d 3abe d3c1 5a3d
000003b0: 3359 623d 77ef 30be ef68 20bd 3fc2 09bd
000003c0: 88cd 223e fa3f 11bd 6505 3dbe c198 babd
000003d0: 020b 36be e4e5 75bd 7c29 003e 954f 8dbe
000003e0: ce8d b9bd 1a75 94bd 53d5 8f3e 23d5 90be
000003f0: 8898 8e3d 7646 7abe 89db 10bf 1d31 5cbc
-0.0843 -0.017865565 0.030592967 0.07185303 0.08007358 -0.013185968 -0.05302676 -0.031181656
0.015138295 -0.068670996 -0.06409342 0.07407096 0.048602924 0.06279309 -0.06888038 -0.058652528
-0.05645347 -0.025938889 0.026703496 0.060903344 -0.04051523 -0.07308742 0.044358976 0.018409932
0.05069557 -0.019992663 -0.07332022 -0.02100876 0.06894899 0.053940088 -0.0316997 -0.06760216
-0.07380049 -0.058182016 -0.091679044 0.050388638 0.08265057 0.044992995 1.3855776e-05 -0.06561494
0.020018298 -0.06477195 0.06307801 0.019670218 -0.07273266 -0.014600574 -0.07067749 0.057027947
-0.07809778 0.0073681856 -0.010795704 -0.001848835 0.012881765 0.022391953 -0.015007681 0.023218183
-0.075829335 0.04764931 0.007282128 -0.03647758 -0.019763269 0.06999862 0.07931315 -0.037673645
0.056759823 -0.023961442 0.05364097 -0.07182456 -0.055362802 0.03382722 -0.034978047 0.059561968
-0.081774294 -0.06762618 0.013888886 0.06768751 -0.0804572 -0.051004894 -0.012108483 -0.056816693
0.03753058 -0.030882291 0.009664168 0.015507553 -0.03588529 -0.028805753 0.067894146 -0.012979019
0.076907724 0.030767873 -0.016344253 -0.07635349 0.037283555 -0.00013748302 -0.02604789 0.038616605
0.06820988 -0.068129614 0.0009784229 -0.039188527 -0.07340862 -0.02845223 0.06418777 -0.058104254
-0.08584494 -0.06453025 -0.06661887 0.033629693 -0.08362141 0.06221328 -0.09207186 -0.04648229
0.04420274 0.047900137 0.075517476 -0.08041874 -0.072113164 -0.009537473 0.005670674 0.032463577
-0.03601269 0.04680653 -0.05062852 0.04431954 0.021636253 -0.02379924 -0.082026795 -0.073433
0.040138133 -0.23124747 -0.22506182 0.02094237 0.005625763 -0.0027391878 0.054985836 -0.19076821
-0.235368 -0.18786985 -0.17103408 -0.34508702 -0.016283244 -0.092844374 -0.13490313 0.10245404
0.1667443 -0.041532476 -0.11284826 -0.07520784 -0.079243265 0.13376643 -0.04310174 0.015906312
-0.15053037 -0.06271673 0.19980904 0.10635621 -0.046831388 -0.08106034 0.0028659971 -0.023590107
-0.49392948 -0.11992592 0.11128288 -0.04330936 -0.069605336 -0.15111634 0.034742385 0.28026643
-0.17054327 0.09129165 0.096244976 -0.41766092 0.049203485 -0.5196599 -0.1512332 -0.038975578
0.15040202 0.08525237 -0.08548926 0.32147056 -0.010744258 -0.05976631 0.042204797 -0.047103543
-0.114637375 -0.11557951 0.25667998 0.13805127 -0.37349477 0.15208092 0.19393724 0.20720415
-0.29031038 -0.13243376 -0.020594137 0.25486264 0.0550513 -0.09763186 -0.040208902 -0.074075215
-0.49333894 0.0952783 -0.27898544 0.4010963 0.01494194 0.23733602 0.030742455 0.03937553
0.029048853 0.08110645 -0.2565555 -0.037466936 -0.10799938 -0.06618299 0.1969608 -0.06673787
-0.0673412 0.057514768 0.12013179 -0.09153062 -0.17178023 -0.2523804 -0.050779957 -0.07663738
-0.052875306 0.060075328 -0.09910306 0.1692927 -0.3279641 0.06916675 0.0432884 0.04100486
-0.0022291355 0.037539218 -0.18211816 0.0534075 0.05526085 -0.17278849 -0.039162572 -0.033632513
0.15898716 -0.035461403 -0.18459089 -0.09111167 -0.17777637 -0.060033694 0.12515825 -0.2759978
-0.0906025 -0.07248898 0.2809244 -0.2828761 0.06962687 -0.24440941 -0.56584984 -0.013439444

bias f4 [128]
00000000: f0aa 9e3c 909f 58be 529f f0bc d23c 98bd
00000010: fb76 023e 538b 9d3d ecb2 123e 80e0 d43d
00000020: e267 73bc 7f12 d6bc 3786 003e e62b c1bd
00000030: 0f1e efbc f998 a03d e861 9dbc ded6 c1bd
00000040: ff19 a0bc b851 c2bd 8013 003e 37ad 6dbc
00000050: b812 9e3d f073 da3c 30e7 7d3d 3242 d6bc
00000060: 7e58 533d 354b bcbd 603c 803d eedd 1f3e
00000070: 398e b03d 0b8d a63d 4ada 3fbc 5d98 873d
00000080: bf8c 15bd 90d0 f53d 8f5a 883d 583a 343e
00000090: a779 ee3d d6cf 923c 3247 a63d a4a8 393d
000000a0: 4089 9c3d 635d 0c3e 0745 87bc 2ab4 d23d
000000b0: eadb 733c 8b0c a23c 8527 e7bc 6d18 1bbd
000000c0: e900 633d b351 e23d 337b 343c ad02 e63d
000000d0: 5124 0ebd e74a e7bb 860a e83d 5e57 8ebd
000000e0: 9eb5 033e b3fb dbbc 954e 163e 414d 31bd
000000f0: 47e8 be3d 03a1 193e 388c 263d d8c0 b6bd
00000100: 39cd ac3d e5c4 143d 1ffd 44bd 18a7 cc3b
00000110: e2b5 713d 8ddc 68bc bc7e e33d 62c6 c03d
00000120: b24f 5a3c 539f 293e b586 e33d 7f89 13bd
00000130: e1c4 9e3d 2f9d 1dbe af9f 753d 9a57 ce3d
00000140: 2423 013d 071c 493d 2297 d93d 2e15 f13d
00000150: 6fc9 be3d b5b3 be3d 0163 003e 3850 e03d
00000160: 5611 f63d 3bbc 0c3e 472a 033e 0bf1 9a3d
00000170: e4d2 cc3d 3ea0 fc3d 364b c8bd abcc 573d
00000180: 9f73 6cbd a803 88bd 7715 103d 6a5c b0bc
00000190: b464 b73d 87ee 4bbd 9b4a bc3c 3e9d 8bbd
000001a0: eeec 373d eabe 143d 43f4 d4bc a9dc 17be
000001b0: 6a04 953e ccfc 533d b33b 093e ec3d d33d
000001c0: df4e 953d 9803 473e 366b 383e 1d41 aabc
000001d0: d490 d5bc dbdd 633d f516 d53d bf0b 763d
000001e0: b6d5 9a3d a21b 253e 3494 10bd 81c7 133e
000001f0: f64a 353c 3a78 943d e2c0 d13d 3800 413e
0.019368619 -0.21154618 -0.029372845 -0.074334756 0.127407 0.076925896 0.14326066 0.103943825
-0.014856311 -0.026131866 0.12551199 -0.09432201 -0.029189138 0.07841677 -0.019211724 -0.09464811
-0.019543646 -0.09488243 0.12507439 -0.01450663 0.07718414 0.026666611 0.061988056 -0.026154611
0.051598065 -0.09194032 0.062615156 0.15612003 0.08620877 0.081323706 -0.011709759 0.06620858
-0.03651118 0.12002671 0.06657898 0.17600381 0.11644297 0.01792137 0.08119048 0.045326844
0.07643366 0.13707499 -0.016512407 0.1028827 0.014883975 0.019781372 -0.028217087 -0.03786509
0.05542079 0.11050739 0.011015701 0.11230979 -0.034702603 -0.0070584896 0.11330132 -0.06950258
0.1286225 -0.026853418 0.14678414 -0.043286566 0.09321647 0.15002827 0.040661067 -0.08923501
0.084375806 0.036320586 -0.048092958 0.006245505 0.059011348 -0.01421274 0.11108157 0.094128385
0.013324665 0.16564684 0.11109678 -0.0360198 0.077523954 -0.15391992 0.05996674 0.100753024
0.031527653 0.049098995 0.106245294 0.11771618 0.09315764 0.0931162 0.12537767 0.109528005
0.12015025 0.13743679 0.12809096 0.075655065 0.10001162 0.12335251 -0.0977997 0.05268542
-0.057727452 -0.066413224 0.03517672 -0.021528441 0.089547545 -0.049788024 0.022984793 -0.06817101
0.044903688 0.036314882 -0.02599538 -0.14830269 0.2910493 0.051754758 0.1340168 0.10314545
0.07290434 0.19434965 0.18009648 -0.020783002 -0.026070036 0.0556315 0.10404769 0.060069796
0.075602934 0.16123822 -0.035297588 0.14431573 0.011065235 0.07249494 0.102418676 0.1884774

weight f4 [4, 128]
00000000: 18c6 96bd 646b 02bd 2cb1 9bbd 0fe8 c53e
00000010: 578e 683d 3af4 0a3e 1d5d b73e 4ab0 323e
00000020: d6cf 6bbd e845 6d3e a07c cf3e c25c 82be
00000030: 9dc7 47be c5f1 803e 6dd5 8bbe 8632 d8be
00000040: fcd8 23be 98fb bfbd ecf1 b63d 0734 c9be
00000050: d7f4 a43e 12c0 9d3e acb0 ac3c c5fa e23e
00000060: b146 e7bd a3e9 0b3d 694a bcbe d64e 96be
00000070: 6d6c 093d e1e3 0bbf 8359 25be 3a2f 8a3d
00000080: 2575 013f 3eed 8d3e 83ac 7d3d 856e 57bf
00000090: df25 62bd c0b2 243e e9df 1dbe 0445 ebbe
000000a0: aba0 e43d 4a61 bdbc 15d6 81be b2aa 04be
000000b0: 830d 843c e03c 863e 2574 9d3b e413 7dbe
000000c0: a226 843d c617 a83c ecda 87be 7a9f 153e
000000d0: 7152 a33c b16a 113e 141e 7f3e 1300 063d
000000e0: aaba b33d 79f5 563e 767f 2c3f b244 bbbd
000000f0: b881 443e f2ae 96be b76d e13e b5f9 af3c
00000100: e817 31be e4e7 a53e d069 d4bd 9d2b 693e
00000110: 59b2 26bc 3680 fcbc ebf8 a93b efd9 0cbe
00000120: 685d 743d d79c c83c 9796 13be 4a82 983d
00000130: 681b 7fbd 2dd9 dd3c d41b 6abe fb94 66bd
00000140: fa68 9c3b fc91 e8bd 40f9 abbd 7450 c9be
00000150: 36c8 d7bc e80e 28be b62e ed3e d28f afbb
00000160: 2314 07bf e413 0d3d 5026 9fbd 300a 1abe
00000170: 536a a73d a1ea 6abe 3856 463e a7e9 8ebd
00000180: 2c63 89bd 0ef4 a1bd 12e6 d2be ec96 83be
00000190: f262 2dbc 0822 bf3b a131 083d 9294 b13e
000001a0: ace8 63be e8ce b03e 8a3f 5a3d 7d10 0b3f
000001b0: b608 06bf 98fc 183e ae6c b33e 121b 463d
000001c0: 8b38 8fbd 33d1 c63d 556e ecbc dbe8 cdbe
000001d0: 7109 4dbe 3839 3a3d 7f09 8bbd abe0 87bd
000001e0: 9da9 a3bd d3c5 ab3d 144a 533d 101e 1bbe
000001f0: 9fc1 69bc 5440 8f3e cbbe 2ebe e12d 4b3d
00000200: 67b8 71bc ee64 a63d 875c b23e 096d 9abd
00000210: 7b23 fa3e 1e09 1ebe 3a38 7f3e bdef d6be
00000220: 3d4c b3bd c20c dbbd fea9 c33e c0de 8cbd
00000230: 38bd f8be 6116 06bf dbe5 573f 7411 1cbf
00000240: ed24 a7bd c0b7 db3d 7d2f 00be 95bf 0cbf
00000250: 0f6d 973d 0ceb 68be 95a8 603d 793c 11bf
00000260: 7460 f83d 8f07 a93d 7e5a e8be ac9c b3bd
00000270: 6a19 71bd a802 6abe aa0a 26bf c1fd 91bd
00000280: 1454 8a3e 440a 1d3e 86c5 86be 5b49 6b3c
00000290: ac0c d9bc dd9a 563e d200 b73d cd4c 0ebe
000002a0: 6c7b bb3d b417 cd3c 992c 2abf 7401 eb3d
000002b0: f6db 1d3e a04a 90be c151 dbbb 76d1 c53e
000002c0: a640 0dbe 22f4 593e 2d84 d1bd 5223 993e
000002d0: 138c 563d da14 bb3e a3c0 c33d b3f5 1abd
000002e0: 6794 20bd dfb5 8a3e aff5 71bc c928 ae3e
000002f0: 07ac c4be 107c ec3e 906a ab3e 3392 9ebd
00000300: 7913 d43d 8e77 bf3e c911 113f 54f6 a93e
00000310: c8cf 463f 7ebf 0f3f 69d3 2fbc 28a3 d43c
00000320: 8c14 fe3d 788b a03e c064 c3bd fd99 fc3b
00000330: 92f2 123e f5eb 1bbc 5674 a9be cafc 66bd
00000340: 6905 86be 9e99 f73c 0586 0c3d 9fd4 87be
00000350: ff9d c23e a646 b03d 6840 2e3d cb9a 10bf
00000360: 2707 f33e 16e2 6dbd 2526 2bbd 5eda 373c
00000370: 160d 96bc ea43 b13d ef91 593e 6151 31bd
00000380: f23b fd3c 7175 5cbd 204b e9be cde7 1cbf
00000390: 7fd3 febe c203 7a3d 4ad3 37bd 1b72 9abd
000003a0: 42e4 ebbe c92a 053f f874 85bd 76d9 493e
000003b0: f9fb f43e e379 1cbe 52a1 08be a93c 6bbe
000003c0: edbf f9bd 9a3b 80be 8a91 95be 6417 bebe
000003d0: cc46 ddbe d613 a7be be50 aebe 5540 7dbc
000003e0: af16 be3e 3251 62bd b3eb 26bc 2dc5 1fbd
000003f0: d8b2 5a3e 77da 373e 179c 3bb9 ce24 3ebe
-0.07362002 -0.031840697 -0.07602152 0.3865361 0.05677637 0.13569728 0.35813227 0.17450061
-0.057571255 0.23171198 0.4052477 -0.25461394 -0.1950974 0.25184456 -0.27311268 -0.42226046
-0.16000742 -0.093741596 0.08932862 -0.39297506 0.32218048 0.308106 0.021080337 0.44331947
-0.1129278 0.03415836 -0.3677552 -0.29357022 0.03355067 -0.5464459 -0.16147427 0.06747289
0.50569373 0.27720064 0.061932098 -0.84153014 -0.055211898 0.16083813 -0.15417446 -0.45951092
0.111634575 -0.02311768 -0.25358644 -0.1295574 0.016119724 0.2621832 0.0048051053 -0.24714619
0.06452681 0.020519149 -0.26534212 0.14611617 0.019936772 0.14200856 0.24913818 0.032714915
0.08775838 0.20992078 0.6738199 -0.09143962 0.19190109 -0.29430348 0.44029018 0.021481374
-0.17294276 0.3240348 -0.10371745 0.22770543 -0.010174357 -0.030822854 0.005187144 -0.1375501
0.05965939 0.02448885 -0.14412914 0.07446726 -0.062281996 0.027081097 -0.22862178 -0.056294423
0.0047732564 -0.11355969 -0.0839715 -0.39319193 -0.026340585 -0.16411936 0.463247 -0.005357721
-0.527651 0.034442797 -0.077709794 -0.15042949 0.081745766 -0.22941066 0.19368827 -0.069781594
-0.06708369 -0.07907878 -0.41191155 -0.25701082 -0.010582672 0.0058329143 0.033250455 0.34683663
-0.22256726 0.34532857 0.05328325 0.54322034 -0.5235704 0.14940107 0.35043854 0.04836566
-0.069932066 0.0970787 -0.028861204 -0.40216717 -0.20023133 0.045464724 -0.067889206 -0.06634649
-0.079913355 0.08387341 0.05158432 -0.15148187 -0.014267354 0.27978766 -0.17064969 0.0496043
-0.014753438 0.081247196 0.34836218 -0.07540328 0.48855194 -0.15433165 0.24923792 -0.4197978
-0.08754776 -0.10695793 0.3821563 -0.06878424 -0.48581862 -0.523779 0.84335107 -0.6096413
-0.0816134 0.10728407 -0.12518115 -0.5497983 0.07393848 -0.22745913 0.054848272 -0.567329
0.12127772 0.08253395 -0.4538154 -0.08770117 -0.058862127 -0.22852576 -0.6486002 -0.07128478
0.27017272 0.15335947 -0.26322573 0.014360751 -0.0264953 0.20957513 0.08935703 -0.13896485
0.091544 0.025035717 -0.664743 0.114748865 0.1541594 -0.28181934 -0.0066930954 0.3863637
-0.13794193 0.21284536 -0.10230289 0.2990976 0.05237968 0.36539346 0.09558227 -0.037831973
-0.039204028 0.27091882 -0.014768048 0.34015492 -0.38412496 0.46188402 0.33479738 -0.07742729
0.103552766 0.373959 0.56667763 0.33195746 0.776608 0.5615157 -0.010731556 0.025956705
0.12406263 0.31356406 -0.09540701 0.0077087865 0.14350346 -0.009516706 -0.3309657 -0.056393422
-0.26176003 0.030224618 0.0343075 -0.26529405 0.38011166 0.08607225 0.04254189 -0.56486195
0.47466394 -0.05807694 -0.041784424 0.011221496 -0.018316787 0.08655532 0.21247075 -0.0432905
0.030912373 -0.05382294 -0.45565128 -0.612912 -0.49770734 0.06103874 -0.044879235 -0.07541295
-0.46072584 0.5201841 -0.06516451 0.19711861 0.4784849 -0.15280871 -0.13342789 -0.22972359
-0.1219481 -0.25045472 -0.292126 -0.3712722 -0.43218076 -0.3263232 -0.34045976 -0.0154572325
0.3712668 -0.055253215 -0.010188031 -0.0390064 0.21357286 0.17954431 -0.00017891858 -0.18568727

bias f4 [4]
00000000: 5d3c e0bc 6044 fdbd 1fbb 563d 6048 98bc
-0.027372533 -0.12366557 0.052424546 -0.018589199
