problem1/models/underway/success_whole_model_1766858324.pth (torch, 146613 bytes, 9 tensors)

weight f4 [128, 8]
0.0072284653 0.38775098 -0.08143742 0.8489665 -0.082721084 -0.358562 -0.03537027 -0.31389835
0.15806891 0.17139561 0.013250624 -0.012575181 0.32045186 -0.66148 -0.52955145 0.18171152
-0.12428162 0.33598793 0.062834 0.21661142 0.7904056 0.52329195 -0.6941403 -0.23652244
0.9308645 -0.087365694 0.2371079 -0.001934009 -0.48570028 0.41148576 -0.13362835 0.019242652
-0.33834183 -0.49606937 -0.11276786 -0.34088805 -0.17101708 -0.17206882 -0.26919124 0.36370543
-0.04510236 0.078585036 0.3806431 -0.6223541 -0.83498746 0.062856175 -0.21811552 0.33315647
-0.046229985 -0.020683372 0.35149372 -0.6885326 0.70759135 0.101292625 0.07775862 0.32120848
0.80106694 0.06398508 0.43339834 -0.43428954 0.2773484 -0.2597903 0.042045597 -6.3916836e-05
-0.053322468 0.24483016 0.005925849 0.24210809 -0.073961444 -0.21585648 -0.49130255 0.1715417
0.04865391 0.09606991 0.6777993 -0.7514847 -0.25684062 -0.71880627 -0.053509843 0.37686294
0.043690957 0.15487781 -0.25569353 -0.49659652 0.28396383 -0.32623944 -0.32482257 0.002401788
-0.083386056 0.50252986 -0.25635248 0.72270954 0.12300219 -0.20945218 0.032991827 -0.6289817
-0.39389312 -0.45512938 -0.2307783 -0.720598 0.17297846 0.21557756 0.09802151 0.3943997
0.80610406 0.012111767 0.41519463 0.106624834 0.04551703 0.12085442 0.3201927 0.4490805
-0.097071774 0.244367 0.41980845 0.2816089 -0.61516285 -0.29195872 -0.3107124 -0.4976308
-0.4962523 -0.33623376 -0.5323774 -0.026314255 -0.19251296 -0.34754935 0.010839286 -0.093439005
-0.24222058 0.31085142 0.7110499 -0.031360276 -0.53347707 -0.5926666 -0.23489125 -0.15769061
0.25042364 0.25419447 0.028726742 0.121702895 0.36223805 -0.7054703 0.016204871 0.09174204
-0.18524066 -0.109035864 -0.4281941 -0.33302772 0.16634256 -0.22759405 -0.098551705 -0.10443962
-0.5258274 -0.78749436 -0.21598911 -0.48539898 0.43609294 0.4398221 -0.045780666 0.09799641
-1.134585 -0.05527335 -0.49584904 -0.2701485 0.017308043 -0.17424522 0.07032465 0.014821197
0.043954168 -0.7440356 0.38162854 -0.47886506 -0.7274966 0.4516155 -0.21691771 0.16292766
-0.3486499 0.23158677 0.34467724 0.033538338 -0.102097504 0.34696966 0.279207 -0.2948496
-0.22854279 -0.12747908 -0.20077634 -0.2727625 0.39745387 -0.2827895 -0.10082542 0.16922782
-0.17151308 0.11713639 0.79401416 -0.20399494 0.5088733 0.059779152 0.048668575 -0.6383729
-0.03794568 -0.22933976 -0.18770388 0.29961488 -0.6902964 0.13911794 0.17838447 0.3000283
-0.2311541 1.1225687 -0.35268992 -0.21733339 0.5878628 0.11383625 -0.12908415 0.118256666
0.0018858447 0.051082462 -0.097747594 -0.17777221 -1.1617638 0.1609238 -0.8309326 0.07287404
-0.073433585 0.09176445 0.33588186 -0.086220995 -0.77679604 0.33921984 0.1969404 -0.618569
0.3266385 0.50910854 -0.3556228 0.08852531 -0.10750384 0.037719224 -0.41080964 -0.17331421
-0.09160642 0.1853476 -0.104427606 0.2733552 0.37143058 0.34490287 0.28104457 0.48408654
-0.0743362 0.5362395 0.7573973 -0.22564086 0.24269927 0.19855042 0.069213524 -0.010541525
00000000: c3dc ec3b 4c87 c63e a9c8 a6bd de55 593f
00000010: ac69 a9bd 7095 b7be 6be0 10bd 49b7 a0be
00000020: d1dc 213e 5582 2f3e 2519 593c 2208 4ebc
00000030: 4412 a43e c156 29bf af90 07bf 9612 3a3e
00000040: 5d87 febd 9c06 ac3e 1daf 803d 62cf 5d3e
00000050: 0558 4a3f 76f6 053f 2eb3 31bf f032 72be
00000060: 234d 6e3f c9ec b2bd 6acc 723e 937e fdba
00000070: b5ad f8be 43ae d23e dfd5 08be c4a2 9d3c
00000080: 243b adbe cefc fdbe d6f2 e6bd e188 aebe
00000090: 1a1f 2fbe cf32 30be 6fd3 89be 9937 ba3e
000000a0: 41bd 38bd 31f1 a03d a7e3 c23e 9952 1fbf
000000b0: bdc1 55bf bdba 803d ad59 5fbe 7c93 aa3e
000000c0: a75b 3dbd 2d70 a9bc fcf6 b33e ac43 30bf
000000d0: b524 353f 8272 cf3d e93f 9f3d 7075 a43e
000000e0: b912 4d3f 9c0a 833d 63e6 dd3e 335b debe
000000f0: 9c00 8e3e 3c03 85be 0138 2c3d 170b 86b8
00000100: a968 5abd c2b4 7a3e a02d c23b 2feb 773e
00000110: 1979 97bd 7b09 5dbe 028c fbbe a1a8 2f3e
00000120: 5349 473d 4dc0 c43d 4184 2d3f 4d61 40bf
00000130: 9d80 83be b003 38bf 232d 5bbd 2ef4 c03e
00000140: 4af5 323d 4a98 1e3e 43ea 82be e641 febe
00000150: b563 913e db08 a7be 254f a6be 5167 1d3b
00000160: 4fc6 aabd cca5 003f a240 83be 7e03 393f
00000170: 92e8 fb3d a27a 56be 7022 073d f204 21bf
00000180: 5cac c9be b806 e9be 2651 6cbe 1c79 38bf
00000190: 4421 313e 5dc0 5c3e 80bf c83d c2ee c93e
000001a0: d65c 4e3f 6f70 463c 6494 d43e 1f5e da3d
000001b0: 1170 3a3d 8682 f73d 4cf0 a33e e1ed e53e
000001c0: 91cd c6bd 583b 7a3e 22f1 d63e 0b2f 903e
000001d0: 507b 1dbf 9d7b 95be b215 9fbe 77c9 febe
000001e0: c814 febe d526 acbe e349 08bf fe90 d7bc
000001f0: 1e22 45be fdf1 b1be 4397 313c f35c bfbd
00000200: ac08 78be eb27 9f3e 5e07 363f a273 00bd
00000210: f491 08bf 00b9 17bf 5587 70be a679 21be
00000220: 8737 803e c725 823e 5854 eb3c 5e3f f93d
00000230: 4477 b93e b499 34bf 14c0 843c 40e3 bb3d
00000240: baaf 3dbe 324e dfbd 423c dbbe 9c82 aabe
00000250: b455 2a3e 6a0e 69be 7ad5 c9bd 71e4 d5bd
00000260: a09c 06bf 3b99 49bf 402c 5dbe 3786 f8be
00000270: 9347 df3e 5d30 e13e 8284 3bbd 58b2 c83d
00000280: 153a 91bf 4f66 62bd eddf fdbe e750 8abe
00000290: 99c9 8d3c 576d 32be 5f06 903d 9bd4 723c
000002a0: 4909 343d 1e79 3ebf d164 c33e cd2d f5be
000002b0: 383d 3abf 263a e73e ad1f 5ebe 82d6 263e
000002c0: 3d82 b2be 1525 6d3e 8979 b03e 7f5f 093d
000002d0: 7f18 d1bd 02a6 b13e 38f4 8e3e 87f6 96be
000002e0: 1f07 6abe e089 02be 5098 4dbe 87a7 8bbe
000002f0: 137f cb3e c9c9 90be 8f7d cebd 0f4a 2d3e
00000300: 20a1 2fbe 34e5 ef3d 8344 4b3f 0de4 50be
00000310: 8545 023f fcda 743d b358 473d 686c 23bf
00000320: ee6c 1bbd 0bd8 6abe 7235 40be 1f67 993e
00000330: 44b7 30bf ef74 0e3e 6baa 363e 4f9d 993e
00000340: a9b3 6cbe 55b0 8f3f c693 b4be a58c 5ebe
00000350: 2d7e 163f fb22 e93d a32e 04be 8d30 f23d
00000360: 732e f73a d83b 513d e42f c8bd eb09 36be
00000370: adb4 94bf 35c9 243e 00b8 54bf fc3e 953d
00000380: 5964 96bd 00ef bb3d b5f8 ab3e a294 b0bd
00000390: 1bdc 46bf 39ae ad3e bfaa 493e 8a5a 1ebf
000003a0: 293d a73e f054 023f 3114 b6be c24c b53d
000003b0: f92a dcbd 797f 1a3d a455 d2be 4879 31be
000003c0: 269c bbbd c3cb 3d3e 24de d5bd 36f5 8b3e
000003d0: 262c be3e 1c97 b03e 13e5 8f3e 31da f73e
000003e0: 943d 98bd fe46 093f cae4 413f 660e 67be
000003f0: 2886 783e cd50 4b3e d2bf 8d3d 5cb6 2cbc

bias f4 [128]
-0.24214213 0.03486607 0.01644183 0.09139491 0.006674243 0.08977248 0.42444798 -0.0150105655
0.17175533 -0.23674306 -0.26503292 0.09548621 -0.19132614 0.005885081 -0.42004797 0.30101576
0.20373543 0.39106765 0.4426971 -0.236065 -0.042455576 0.30305922 -0.34037662 0.36437088
0.43995807 0.45354953 0.35062084 -0.042418208 0.10519228 0.5307333 0.056366716 -0.11149439
-0.09942242 -0.0142141655 0.21020202 0.54846406 -0.2388453 0.33590248 -0.04243993 0.43189538
0.2826075 -0.074938394 0.14341907 0.14550745 0.1150434 -0.043130416 0.11539379 -0.15342706
-0.09097315 -0.11697252 0.20252314 0.19700316 0.13476068 -0.14815903 -0.017068971 -0.18875198
0.38610393 -0.28281242 0.42026383 0.44654104 -0.14456852 0.1637749 0.2787975 -0.0056477026
0.20023303 0.08807287 0.18086238 0.4807719 0.06221739 -0.04509724 0.36815113 0.16032624
-0.25869575 -0.12688689 0.1313168 0.099125326 0.40057808 0.46878853 0.5649182 0.52808505
0.204577 0.17041282 -0.06373501 0.13140118 0.56360996 0.098844096 0.113128714 0.12619923
0.45424876 -0.20495716 -0.0896042 0.4535865 0.13699405 -0.36925223 0.30962178 0.39578977
0.43620577 0.5893087 0.21654229 0.55739266 -0.4179286 0.3156848 0.06483403 -0.13729271
0.042329367 0.26400733 0.12570761 -0.011508612 0.2702824 0.2717818 0.49821657 0.16459063
-0.31262395 0.4189451 -0.15600465 -0.081085294 -0.030619178 0.2105142 0.22202782 -0.38745072
0.09959303 0.05316731 0.16895775 -0.08197029 0.28971645 0.010547007 0.2873945 0.24039899
00000000: 1bf4 77be b9cf 0e3d 04b1 863c 412d bb3d
00000010: 9cb3 da3b a2da b73d 3f51 d93e e0ee 75bc
00000020: a1e0 2f3e c66c 72be 65b2 87be 468e c33d
00000030: 00eb 43be a3d7 c03b 8710 d7be bd1e 9a3e
00000040: 05a0 503e 053a c83e 32a9 e23e 06bb 71be
00000050: e6e5 2dbd 942a 9b3e d845 aebe d28e ba3e
00000060: 2f42 e13e a537 e83e 9384 b33e b7be 2dbd
00000070: 0d6f d73d 23de 073f c9e0 663d 2c57 e4bd
00000080: fb9d cbbd 88e2 68bc 333f 573e 2468 0c3f
00000090: dd93 74be 69fb ab3e 7ed5 2dbd 6421 dd3e
000000a0: eeb1 903e 4d79 99bd 73dc 123e e8ff 143e
000000b0: e09b eb3d 85a9 30bd 9453 ec3d fc1b 1dbe
000000c0: 2250 babd 4a8f efbd 3a62 4f3e 32bb 493e
000000d0: b4fe 093e 00b7 17be 3ad4 8bbc 3348 41be
000000e0: 6aaf c53e cacc 90be d22c d73e 07a1 e43e
000000f0: c509 14be 9bb4 273e 8cbe 8e3e 5d10 b9bb
00000100: e309 4d3e 8d5f b43d fd33 393e bc27 f63e
00000110: a9d7 7e3d e2b7 38bd 4e7e bc3e 902c 243e
00000120: c573 84be a3ee 01be e977 063e 3802 cb3d
00000130: 9218 cd3e 0d05 f03e 7b9e 103f 9530 073f
00000140: a27c 513e b380 2e3e 8087 82bd 088e 063e
00000150: be48 103f c66e ca3d 07b0 e73d 5f3a 013e
00000160: 4b93 e83e 4ae0 51be 6882 b7bd 7d3c e83e
00000170: 2b48 0c3e a10e bdbe bf86 9e3e f5a4 ca3e
00000180: 5d56 df3e efdc 163f 43bd 5d3e 49b1 0e3f
00000190: bdfa d5be 70a1 a13e b4c7 843d 7696 0cbe
000001a0: 8f61 2d3d f82b 873e 7fb9 003e 9e8e 3cbc
000001b0: 7462 8a3e fc26 8b3e 3e16 ff3e 728a 283e
000001c0: 3f10 a0be f97f d63e afbf 1fbe 0c10 a6bd
000001d0: 12d5 fabc 0991 573e 435b 633e f15f c6be
000001e0: 6ef7 cb3d f7c5 593d 4303 2d3e 0ae0 a7bd
000001f0: b755 943e 5bcd 2c3c 5f25 933e 272b 763e

weight f4 [128, 128]
0.05148679 -0.08997455 -0.19308913 -0.48650312 -0.060254842 -0.22285575 0.038687088 -0.23202048
-0.05819794 0.5798034 0.28560016 -0.317111 -0.10307361 -0.073123574 -0.1366243 -0.13358952
0.413054 0.20839162 0.16947848 -0.2893271 -0.5363196 0.13116653 -0.1931236 0.12396206
0.21195911 0.21195255 0.00944641 0.69774926 -0.5135447 0.1809512 -0.3696975 0.5914755
0.5266223 -0.04217694 -0.15611345 -0.17327164 -0.15941323 -0.056238964 0.71505237 0.09610508
-0.23014836 0.43484297 -0.13735788 -0.013765105 -0.31369883 -0.17315067 0.034392636 -0.26802394
-0.57859236 -0.3051249 -0.0744264 -0.18821971 0.69962084 -0.20121448 -0.39457133 -0.6022782
0.03981784 0.019524226 0.11874709 0.1305129 0.25151417 -0.102502964 -0.08476587 0.05990893
0.3867748 -0.17211083 0.34407952 0.098148674 0.1410189 -0.21565871 0.07572841 -0.043759957
-0.39542326 0.37657726 0.28384298 0.2329653 0.1245955 -0.18863104 0.067114934 0.08844196
-0.34313726 -0.070731945 -0.618988 0.04071684 0.056720078 -0.1115726 0.68405855 0.08247341
-0.16635011 -0.32188618 0.38753882 0.06301664 -0.2815372 -0.24072003 -0.09706051 0.16444047
-0.030430341 0.12297849 0.102430895 0.14703764 0.121935226 0.42226392 -0.0785124 0.3758137
0.6801921 -0.12779772 -0.04532984 0.4175917 -0.11454756 -0.057875574 -0.021278327 0.17130366
0.46101096 -0.1906218 -0.1566966 0.36003366 0.3439161 0.09485995 -0.3445526 -0.039427772
0.08953378 0.069583036 -0.001983032 0.43386862 0.10979407 1.3202261 -0.038691252 -0.02268984
0.34611413 0.43950444 0.35532758 0.16946165 0.5496352 -0.076701455 0.09064785 0.113779284
0.10961084 0.12197266 0.16313872 0.09549092 0.51295596 -0.19628921 0.4978284 0.1535772
-0.078145675 -0.08555519 -0.016560111 0.28308836 0.46579912 -0.2605488 0.3414384 -0.12845409
-0.10254392 -0.42595342 0.055449847 -0.10248829 0.24126783 -0.2832304 0.18911962 -0.28689983
-0.36582536 0.12012718 0.12147423 -0.032653015 0.3472546 0.28242823 -0.3639198 -0.19985694
0.20381093 0.0033282002 0.15229529 0.028804459 0.27631593 0.32954183 0.24859384 0.56404984
0.40134904 0.25008994 0.028554762 0.01942669 -0.2184854 0.4276471 0.46505478 0.24590299
-0.11093072 0.3513649 0.06178672 -0.14736456 -0.022776838 0.23814803 0.045508083 -0.3414631
-0.057583347 0.095804736 -0.093580805 -0.37798503 0.4289849 0.21889514 -0.0733284 0.2544622
0.6635768 -0.146233 -0.12368986 -0.286447 -0.15378268 -0.13786916 0.0039136023 -0.25188553
0.24153265 0.09342007 0.4471035 0.16672048 -0.1977816 -0.029207576 -0.67884177 0.14914837
-0.06666695 0.32880145 0.18298332 0.16220313 0.23803514 0.30289686 0.09317124 -0.37246236
-0.18368597 -0.12749921 -0.21669793 -0.3267101 0.6671183 -0.24661173 0.25671118 -0.26320806
0.08762053 0.11284661 0.26992238 0.03285554 0.20458223 0.10871488 0.073407635 -0.035288636
0.8349911 0.07707185 0.39303282 -0.0128940595 -0.16092393 -0.068993285 0.26877436 0.4891241
-0.0033548358 -0.06390967 0.104303025 0.027225906 0.17337088 -0.08853985 0.45962512 0.3203547
00000000: d0e3 523d 9444 b8bd 28b9 45be f016 f9be
00000010: c8cd 76bd 4c34 64be 5a76 1e3d c796 6dbe
00000020: f760 6ebd ff6d 143f 2f3a 923e 5f5c a2be
00000030: 4218 d3bd d0c1 95bd 3ee7 0bbe b1cb 08be
00000040: d07b d33e 9d64 553e c48b 2d3e af22 94be
00000050: 3e4c 09bf 8550 063e 31c2 45be d2df fd3d
00000060: cf0b 593e 170a 593e 1ec5 1a3c b29f 323f
00000070: aa77 03bf 454b 393e fe48 bdbe f06a 173f
00000080: b8d0 063f bac1 2cbd 34dc 1fbe 1f6e 31be
00000090: 393d 23be d45a 66bd ac0d 373f bdd2 c43d
000000a0: 03ac 6bbe bda3 de3e 8ba7 0cbe 0987 61bc
000000b0: 229d a0be 694e 31be 4bdf 0c3d 6f3a 89be
000000c0: a11e 14bf 5539 9cbe de6c 98bd abbc 40be
000000d0: 5a1a 333f 2b0b 4ebe 4105 cabe e72e 1abf
000000e0: 0818 233d 45f1 9f3c ad31 f33d 2ca5 053e
000000f0: 77c6 803e 13ed d1bd ba99 adbd 1163 753d
00000100: 5907 c63e d23d 30be 312b b03e 2c02 c93d
00000110: 4267 103e a3d5 5cbe 7f17 9b3d a43d 33bd
00000120: eb74 cabe bcce c03e de53 913e 758e 6e3e
00000130: ed2b ff3d 7f28 41be 8e73 893d 0f21 b53d
00000140: b0af afbe e9db 90bd ff75 1ebf b4c6 263d
00000150: 5053 683d 2d80 e4bd 761e 2f3f d2e7 a83d
00000160: af57 2abe 44ce a4be 7d6b c63e de0e 813d
00000170: a525 90be 507f 76be a9c7 c6bd 1563 283e
00000180: 0d49 f9bc 26dc fb3d 4ac7 d13d 0991 163e
00000190: 2db9 f93d fa32 d83e 1ccb a0bd a76a c03e
000001a0: 1221 2e3f 68dd 02be c8ab 39bd 94ce d53e
000001b0: e997 eabd f00e 6dbd e34f aebc 3a6a 2f3e
000001c0: a109 ec3e 5c32 43be 1375 20be 5556 b83e
000001d0: c515 b03e ef45 c23d 3369 b0be 047f 21bd
000001e0: 7d5d b73d 8d81 8e3d c2f5 01bb 0724 de3e
000001f0: b7db e03d 2bfd a83f b87a 1ebd 0be0 b9bc
00000200: df35 b13e ba06 e13e 7fed b53e 5b87 2d3e
00000210: e4b4 0c3f a715 9dbd 94a5 b93d 1d05 e93d
00000220: a67b e03d cdcc f93d d60d 273e be90 c33d
00000230: 1551 033f 0a00 49be 5de3 fe3e 5743 1d3e
00000240: d70a a0bd 8f37 afbd 12a9 87bc f5f0 903e
00000250: 397d ee3e a766 85be 04d1 ae3e 7889 03be
00000260: 8c02 d2bd 9116 dabe 611f 633d 61e5 d1bd
00000270: ea0e 773e 9303 91be 93a8 413e 89e4 92be
00000280: 764d bbbe 3d05 f63d 7bc7 f83d 2bbf 05bd
00000290: 5bcb b13e 6f9a 903e b253 babe 4ca7 4cbe
000002a0: d0b3 503e ef1d 5a3b 4cf3 1b3e 54f7 eb3c
000002b0: 4879 8d3e b5b9 a83e 628f 7e3e 9265 103f
000002c0: 9f7d cd3e ca0b 803e adeb e93c b924 9f3c
000002d0: a3ba 5fbe 90f4 da3e a91b ee3e fecd 7b3e
000002e0: a52f e3bd 1ae6 b33e 1214 7d3d bce6 16be
000002f0: 7e96 babc 14dd 733e af66 3a3d 40d4 aebe
00000300: 84dc 6bbd 4635 c43d 4ba7 bfbd 4187 c1be
00000310: e9a3 db3e 0c26 603e 332d 96bd df48 823e
00000320: 2be0 293f 1bbe 15be 1c51 fdbd 2ea9 92be
00000330: 3579 1dbe 932d 0dbe ad3d 803b 24f7 80be
00000340: 5654 773e 0653 bf3d c0ea e43e c6b8 2a3e
00000350: 4287 4abe ba44 efbc 93c8 2dbf 5aba 183e
00000360: af88 88bd aa58 a83e fb5f 3b3e 9418 263e
00000370: 7cbf 733e 4c15 9b3e 90d0 be3d 63b3 bebe
00000380: 2d18 3cbe 278f 02be 10e6 5dbe 8c46 a7be
00000390: 44c8 2a3f c987 7cbe a66f 833e 35c3 86be
000003a0: 6472 b33d 201c e73d 4433 8a3e 8893 063d
000003b0: 017e 513e e8a5 de3d be56 963d d18a 10bd
000003c0: fac1 553f d9d7 9d3d 993b c93e 9b41 53bc
000003d0: 3ec9 24be 5a4c 8dbd cb9c 893e 796e fa3e
000003e0: cedc 5bbb 13e3 82bd d39c d53d dd08 df3c
000003f0: 2388 313e 6254 b5bd fc53 eb3e 8805 a43e

bias f4 [128]
-0.009055238 -0.2991111 -0.09626529 0.12575862 0.23809974 0.17885986 -0.13690011 -0.20431682
-0.11960523 -0.20652254 -0.1516976 -0.2767555 0.061667945 -0.023929182 0.13661587 -0.014850138
0.17225604 0.076891035 -0.32200608 -0.05691965 -0.26481572 0.11615158 -0.32624522 -0.17987476
0.034383137 0.072986186 0.13737267 0.026706345 -0.014185592 0.29094997 -0.057265703 0.016774496
0.06729655 -0.049596526 0.024601184 -0.27135885 -0.03562952 -0.24854264 0.12614124 -0.0117486995
-0.22931395 0.09061986 0.06484695 -0.07444607 0.23383874 -0.036905926 -0.2943495 -0.030182838
-0.2596911 -0.25985566 -0.24471423 0.073292404 -0.0784983 0.17567366 0.18816069 0.11908969
0.13773963 0.12592341 -0.12321174 -0.18977654 -0.053206626 -0.05964717 -0.20164886 0.062234327
-0.0017917829 -0.13371181 -0.22527982 0.123732805 -0.3233599 -0.039067063 0.11866808 0.14229064
-0.014991137 -0.34339324 0.07313257 -0.2659935 0.019454893 -0.007459564 -0.006246681 0.033495143
-0.2009181 0.05704416 0.08888938 -0.27193227 -0.2906223 -0.16556029 0.062008947 -0.0731661
0.03718452 0.001867097 -0.17806084 -0.2240815 0.046666685 -0.050520923 0.11541607 0.03987017
0.005463617 0.085655876 -0.33932477 0.09056467 -0.069852106 -0.11288511 0.22460698 -0.08425922
-0.004574174 -0.008332132 -0.08455059 0.15663154 -0.080247805 -0.29136357 -0.0053943307 -0.2943021
0.053605378 -0.13446105 -0.12456988 0.06448289 0.038942397 0.05381834 0.098455995 0.2330294
-0.17898673 -0.18605153 -0.057043467 -0.07253973 -0.09388551 0.29339612 -0.011102694 -0.060879163
00000000: 6c5c 14bc 1725 99be bd26 c5bd dec6 003e
00000010: 6bd0 733e 0a27 373e 8b2f 0cbe 6e38 51be
00000020: 96f3 f4bd a57a 53be 9e56 1bbe e6b2 8dbe
00000030: 8797 7c3d 2207 c4bc 08e5 0b3e fe4d 73bc
00000040: e363 303e 0c79 9d3d fbdd a4be 9424 69bd
00000050: ed95 87be e1e0 ed3d 9d09 a7be 1731 38be
00000060: 55d5 0c3d c879 953d 6cab 0c3e 44c7 da3c
00000070: af6a 68bc 65f7 943e 718f 6abd ab6a 893c
00000080: c6d2 893d ba25 4bbd 6c88 c93c 8cef 8abe
00000090: 42f0 11bd f681 7ebe 2b2b 013e 9e7d 40bc
000000a0: 47d1 6abe e896 b93d 7ace 843d 2e77 98bd
000000b0: 6c73 6f3e ab2a 17bd fab4 96be 0042 f7bc
000000c0: 3bf6 84be cd0b 85be 5e96 7abe 541a 963d
000000d0: b7c3 a0bd cce3 333e 32ad 403e 4ce5 f33d
000000e0: 9e0b 0d3e 11f2 003e 7056 fcbd c854 42be
000000f0: 31ef 59bd 9750 74bd 0a7d 4ebe 6ce9 7e3d
00000100: 42da eaba c0eb 08be c1af 66be a067 fd3d
00000110: 6e8f a5be c904 20bd 4008 f33d a3b4 113e
00000120: 639d 75bc 3dd1 afbe 87c6 953d 4d30 88be
00000130: de5f 9f3c 5c6f f4bb f5b0 ccbb 3432 093d
00000140: 79bd 4dbe 23a7 693d a30b b63d b53a 8bbe
00000150: 72cc 94be a388 29be 18fd 7d3d 1cd8 95bd
00000160: cc4e 183d 61b9 f43a 9555 36be 9f75 65be
00000170: 9125 3f3d 07ef 4ebd 435f ec3d e74e 233d
00000180: 2408 b33b 596c af3d fabb adbe f879 b93d
00000190: 9f0e 8fbd 4f30 e7bd 5fff 653e 1990 acbd
000001a0: f4e2 95bb 7f83 08bc dc28 adbd 0564 203e
000001b0: f658 a4bd 9b2d 95be edc2 b0bb c4ae 96be
000001c0: 5091 5b3d 28b0 09be 7e1e ffbd 9b0f 843d
000001d0: 1082 1f3d 9f70 5c3d 4ca3 c93d 429f 6e3e
000001e0: 4c48 37be 4b84 3ebe 69a6 69bd b68f 94bd
000001f0: 0c47 c0bd 0438 963e 13e8 35bc 6e5c 79bd

weight f4 [1, 128]
0.66460556 -0.867391 1.7135383 0.74274963 0.76742524 1.5081543 -0.6475256 -0.9528484
-0.5928908 -0.88044196 -0.6003681 -0.8101783 0.97508126 -0.6103709 1.4544295 -0.5951049
0.6637614 0.89851576 -0.8744932 -0.0010039585 -0.79084784 0.93362695 -0.7877927 -0.82170796
0.04095209 1.5120949 0.7551853 -0.62697893 1.4255638 1.3217022 -0.7318208 -0.5685183
0.6423895 -0.521414 1.5647819 -0.8384818 -0.5222465 -0.5645397 0.8179693 -0.059358187
-0.8746019 1.7673595 0.7989136 -0.4584303 0.596828 -0.49618906 -0.83434016 -0.53246987
-0.84056646 -0.78028905 -0.68227744 2.2048686 0.01370928 0.80480045 0.8161698 2.2006028
0.57896584 0.61619484 1.4717726 -0.86548305 1.00401 -0.5886261 -0.7980134 0.8562996
-0.5411091 -0.53492427 -0.89317566 0.98533756 -0.88147044 -0.5501174 0.8306632 0.85368985
0.04755435 -0.8718113 0.55393714 -0.82320714 0.7402284 -0.44964066 -0.046923306 -0.02463293
-0.7332453 0.933719 0.90040815 -0.90070546 -0.8215388 -0.7677965 0.76059854 -0.60602695
0.0072844545 0.8232212 -0.75651914 -0.82712686 1.0533204 1.1438403 2.050344 0.6398388
0.91704327 0.7317991 -0.7111713 0.91190803 -0.5558441 -0.62563497 1.5714722 0.008072486
-0.60399085 -0.5544485 -0.55335194 1.5512664 -0.67008334 -0.79395574 -0.47925144 -0.86399525
1.7697356 -0.5953538 -0.4663815 0.6707138 0.027995573 -0.01874164 0.7703435 0.8127532
-0.5647992 -0.8474567 0.038944934 -0.60282576 -0.5151566 0.7820719 0.8950666 -0.015627218
00000000: 9723 2a3f 560d 5ebf 3955 db3f d724 3e3f
00000010: fb75 443f 330b c13f 3dc4 25bf dfed 73bf
00000020: b1c7 17bf a564 61bf b9b1 19bf d867 4fbf
00000030: ed9e 793f 4441 1cbf bf2a ba3f cb58 18bf
00000040: 44ec 293f 2105 663f c9de 5fbf 4297 83ba
00000050: 0175 4abf 2d02 6f3f c8ac 49bf 745b 52bf
00000060: 61bd 273d 538c c13f d353 413f b181 20bf
00000070: e078 b63f 8a2d a93f 9c58 3bbf 6a8a 11bf
00000080: a373 243f 637b 05bf c64a c83f bea6 56bf
00000090: f2b1 05bf ac85 10bf 7066 513f 9221 73bd
000000a0: e9e5 5fbf d638 e23f 9a85 4c3f 60b7 eabe
000000b0: b8c9 183f 7e0c febe 5197 55bf f24f 08bf
000000c0: 5d2f 57bf 06c1 47bf bca9 2ebf 911c 0d40
000000d0: e39c 603c 6707 4e3f 81f0 503f add6 0c40
000000e0: 1b37 143f f2be 1d3f 0b63 bc3f 4c90 5dbf
000000f0: 6683 803f 33b0 16bf 9b4a 4cbf 7336 5b3f
00000100: 2086 0abf ccf0 08bf 29a7 64bf 153f 7c3f
00000110: 0ca8 61bf 7ed4 0cbf 58a6 543f 6b8b 5a3f
00000120: 5ac8 423d 062f 5fbf d3ce 0d3f b4bd 52bf
00000130: 9c7f 3d3f 4d37 e6be a732 40bd 00cb c9bc
00000140: f7b5 3bbf 3508 6f3f 2681 663f a294 66bf
00000150: 5e50 52bf 508e 44bf 96b6 423f 9524 1bbf
00000160: 6fb2 ee3b a0be 523f 3dab 41bf 96be 53bf
00000170: 34d3 863f 5c69 923f d638 0340 7acc 233f
00000180: 59c3 6a3f 3057 3b3f 530f 36bf ce72 693f
00000190: cd4b 0ebf 9d29 20bf 0026 c93f 7642 043c
000001a0: 259f 1abf 56f0 0dbf 79a8 0dbf e68f c63f
000001b0: 958a 2bbf af40 4bbf 7260 f5be cb2e 5dbf
000001c0: b286 e23f 1b69 18bf 8ec9 eebe e6b3 2b3f
000001d0: f956 e53c 1188 99bc 3b35 453f 9810 503f
000001e0: ae96 10bf ecf2 58bf b984 1f3d ca52 1abf
000001f0: 4ee1 03bf dd35 483f 1623 653f a704 80bc

weight f4 [128, 128]
-0.14960879 0.07604498 -0.036049273 0.02414957 0.14509143 -0.029735427 0.03740675 -0.054108348
-0.07261896 -0.017916098 0.09164812 0.10603921 -0.0022405814 -0.014977709 -0.13494708 0.23305649
0.06517321 0.05460785 0.09920598 0.18041988 0.085747465 -0.025954574 -0.08434107 0.03850272
-0.027240746 0.08702509 0.05724432 0.23715642 -0.12304823 0.089662775 -0.018771825 0.075132154
0.06395188 -0.058084033 0.0419227 -0.018139115 0.20185639 0.050109852 -0.13653071 0.20280021
-0.100670405 -0.10122216 0.030526223 -0.007353383 -0.112282395 -0.116998985 0.0072591105 -0.06510062
-0.10317649 -0.02451275 -0.16578035 0.13481021 0.15705828 0.15634365 -0.24591044 0.08520968
-0.0017583475 0.058775537 0.10122096 0.089743145 0.07033443 -0.03866763 0.00086201704 0.04578579
0.1469928 -0.02332949 0.021855962 0.066887975 -0.14748748 0.05548721 -0.08672801 -0.015384762
-0.015601227 0.1754537 -0.050260738 0.08229695 -0.031247556 -0.13836375 0.044229116 0.019585919
-0.008668547 0.015256339 -0.09664141 -0.05893746 0.07860399 0.023050025 -0.029524112 0.09153675
-0.013045727 0.05994057 -0.09901143 0.09415486 0.09024886 0.2627322 -0.13374028 0.13433759
0.058957286 0.14441101 0.14121714 0.018737562 0.09790947 0.19010377 0.21918556 0.040011723
-0.13966265 -0.0059919315 -0.04778957 0.059436906 -0.068908915 0.012504006 -0.119374484 0.035123125
0.12924567 0.056739267 -0.118266374 0.0018855353 0.051988073 -0.04187414 -0.024747381 -0.03817716
0.12948133 0.05278262 0.08295266 0.023250774 -0.089050695 -0.008539241 -0.0544183 -0.11354307
0.15277636 0.20507494 -0.120034136 0.0056742667 0.18133599 0.28730336 0.08473495 0.036677368
0.12804036 0.054593515 0.20684281 0.042696264 0.1749034 0.20254007 0.27000213 -0.27208462
-0.13197899 0.06458674 -0.3293815 -0.06364623 0.0394534 0.2349675 0.18221578 -0.09463064
-0.2556747 -0.010129952 0.023905646 -0.00016161773 -0.008372782 -0.19194144 0.029539665 -0.32501665
-0.09556265 0.027538456 -0.093480006 -0.035331678 0.021369921 0.009486863 0.3581134 -0.1249992
0.11926858 0.06332537 -0.0059962813 -0.044198688 0.09093385 -0.016614497 0.08709141 0.08912795
-0.013880542 0.2113905 0.12120054 0.06837407 0.06968667 0.02346801 0.090705186 0.08606231
-0.06738978 0.20537955 -0.1036322 0.04817915 0.10085224 -0.035416678 0.09219546 0.017549489
-0.14499436 0.20473348 -0.03539172 -0.042713277 0.014906639 0.010898244 -0.108796075 0.16117647
0.14349501 -0.25389364 0.0469791 0.007978019 -0.16742751 0.1954616 -0.04683843 -0.09225544
0.14809191 0.067793936 0.13824676 0.062576905 -0.052121606 0.052970424 0.14034967 0.14965178
-0.17209287 -0.0529363 -0.041041564 -0.11355332 0.106100984 0.07472041 0.18754914 0.03657698
-0.008237008 -0.13504001 -0.1299102 0.033551846 0.15667337 -0.097019136 -0.043804027 0.08076163
-0.11057019 0.05037293 -0.13008298 0.10058566 0.0008948372 -0.16973665 -0.016539939 0.05726861
-0.17993817 -0.03836304 -0.055187635 0.14895439 -0.09940701 -0.08568958 0.1918039 0.19733886
-0.23832257 -0.038823903 0.06013344 0.072374105 0.14344664 0.066148974 0.00092452083 0.068411365
00000000: 0c33 19be 78bd 9b3d 67a8 13bd 52d5 c53c
00000010: d992 143e b697 f3bc d237 193d b7a0 5dbd
00000020: 40b9 94bd c8c4 92bc 02b2 bb3d 162b d93d
00000030: b8d6 12bb 1165 75bc 912f 0abe 5ca6 6e3e
00000040: 8879 853d 7bac 5f3d 812c cb3d fdbf 383e
00000050: 5e9c af3d b09e d4bc 03bb acbd 07b5 1d3d
00000060: fc27 dfbc 363a b23d 0579 6a3d 22d9 723e
00000070: b600 fcbd 1ea1 b73d 5fc7 99bc e3de 993d
00000080: 34f9 823d 86e9 6dbd 23b7 2b3d 7b98 94bc
00000090: 71b3 4e3e fd3f 4d3d b5ce 0bbe dcaa 4f3e
000000a0: 492c cebd 904d cfbd 2112 fa3c a6f4 f0bb
000000b0: 50f4 e5bd 2a9d efbd d5dd ed3b 7953 85bd
000000c0: 324e d3bd f6ce c8bc 53c2 29be b00b 0a3e
000000d0: e3d3 203e 8d18 203e f2cf 7bbe 6a82 ae3d
000000e0: 5a78 e6ba 9ebe 703d ef4c cf3d 41cb b73d
000000f0: 7f0b 903d f361 1ebd fcf8 613a e189 3b3d
00000100: 4885 163e 7d1d bfbc 460b b33c 90fc 883d
00000110: f506 17be 8f46 633d 749e b1bd 5e10 7cbc
00000120: 4a9c 7fbc 22aa 333e 34de 4dbd 4e8b a83d
00000130: e0fa ffbc 3aaf 0dbe 9729 353d a672 a03c
00000140: 8506 0ebc b9f5 793c eeeb c5bd 6868 71bd
00000150: 21fb a03d 68d3 bc3c 8ddc f1bc 9f77 bb3d
00000160: bfbd 55bc 3e84 753d 81c6 cabd 43d4 c03d
00000170: 65d4 b83d d684 863e 36f3 08be cb8f 093e
00000180: 327d 713d 7be0 133e 3a9b 103e 847f 993c
00000190: c384 c83d 90aa 423e 2e72 603e 55e3 233d
000001a0: ba03 0fbe f757 c4bb ffbe 43bd 1d74 733d
000001b0: 1e20 8dbd 9add 4c3c 9c7a f4bd 44dd 0f3d
000001c0: fa58 043e 6f67 683d a435 f2bd 1124 f73a
000001d0: 72f1 543d 3884 2bbd 05bb cabc a75f 1cbd
000001e0: c196 043e 9732 583d 16e3 a93d 6878 be3c
000001f0: 3660 b6bd 2ce8 0bbc b9e5 5ebd 4589 e8bd
00000200: 6871 1c3e 2aff 513e 75d4 f5bd 33ef b93b
00000210: 24b0 393e 6d19 933e 8489 ad3d 023b 163d
00000220: 031d 033e 739d 5f3d 9ace 533e 47e2 2e3d
00000230: e019 333e aa66 4f3e b83d 8a3e ad4e 8bbe
00000240: 8025 07be 0e46 843d b1a4 a8be f458 82bd
00000250: e399 213d 529b 703e c696 3a3e b5cd c1bd
00000260: cbe7 82be 19f8 25bc c6d5 c33c ee77 29b9
00000270: fe2d 09bc 4c8c 44be 2bfd f13c 9568 a6be
00000280: 5ab6 c3bd 5498 e13c 7272 bfbd f3b7 10bd
00000290: f90f af3c ca6e 1b3c a45a b73e 95ff ffbd
000002a0: 1643 f43d bbb0 813d 747c c4bb af09 35bd
000002b0: 873b ba3d 201b 88bc fb5c b23d b788 b63d
000002c0: 366b 63bc c076 583e fd37 f83d b407 8c3d
000002d0: e3b7 8e3d fc3f c03c a4c3 b93d 7041 b03d
000002e0: a703 8abd 044f 523e 1e3d d4bd 8057 453d
000002f0: 9f8b ce3d 1411 11bd f9d0 bc3d f2c3 8f3c
00000300: 6779 14be a7a5 513e e8f6 10bd 1ef4 2ebd
00000310: fa3a 743c 8c8e 323c 7ad0 debd 720b 253e
00000320: 5bf0 123e 59fe 81be 286d 403d 3db6 023c
00000330: 1e72 2bbe 1627 483e a7d9 3fbd 6cf0 bcbd
00000340: 68a5 173e 8cd7 8a3d 8f90 0d3e 5228 803d
00000350: 777d 55bd 84f7 583d d3b7 0f3e 513e 193e
00000360: 1d39 30be bcd3 58bd 331b 28bd a58e e8bd
00000370: 794b d93d 0407 993d e20c 403e bed1 153d
00000380: 84f4 06bc ee47 0abe 2e07 05be a96d 093d
00000390: fc6e 203e f8b1 c6bd da6b 33bd 5a66 a53d
000003a0: a072 e2bd d853 4e3d 7934 05be dbff cd3d
000003b0: 8293 6a3a 72cf 2dbe c47e 87bc 7d92 6a3d
000003c0: b641 38be 9022 1dbd 6e0c 62bd 8087 183e
000003d0: e795 cbbd 057e afbd 3e68 443e 3313 4a3e
000003e0: d50a 74be d005 1fbd 7b4e 763d e038 943d
000003f0: ade3 123e 1d79 873d 8b5b 723a 421b 8c3d

bias f4 [128]
0.14871593 -0.05581856 -0.09285616 -0.086393066 0.022925682 0.0035304702 0.043229822 -0.0062221494
0.090641014 -0.15490268 -0.063459314 0.19519588 -0.0009830483 -0.0017288236 0.0020974758 0.054901082
-0.08224612 -0.08571401 -0.06478081 -0.047307685 -0.033243038 -0.10466069 -0.039740957 0.040039673
-0.1199972 -0.031206407 0.02701743 -0.04883097 0.069961615 0.14533249 0.012636132 0.10906802
0.14295892 0.05204785 -0.07655378 -0.0910217 0.09230473 0.11252468 0.05965428 -0.059823457
0.087354295 0.12588157 0.058788758 -0.025814516 -0.06330443 0.034829736 -0.015157952 0.07004687
0.005533283 0.040483873 0.086464755 0.006862362 -0.038297288 0.1306777 0.029670388 0.05230126
0.09688209 -0.02027721 0.108895496 -0.0037593262 -0.020799069 0.009578738 0.03556472 -0.03267052
0.06484178 -0.08322191 0.121788576 -0.0053209695 0.029554624 -0.08013983 0.088835746 0.013909716
-0.02641292 -0.13039564 0.04453498 0.008677663 0.0077633257 0.0946084 0.007856205 0.016627574
0.0676909 0.11401409 0.06895223 -0.0026068164 -0.04221464 0.09760819 -0.009110244 -0.0011976005
0.023733698 0.09008168 0.070823945 0.080659814 0.13874988 0.04362814 0.06204567 -0.05847778
0.0062660514 -0.016915595 0.023575898 0.057326082 0.08280078 0.09028206 0.021401849 -0.14198123
-0.010448473 0.11165901 0.041282866 -0.08722314 0.054871425 -0.06916098 0.13906929 0.02461274
-0.1310853 -0.05576626 0.07078292 0.025428614 0.06580273 0.0027012327 -0.055638842 0.05142738
-0.030080277 -0.029095132 -0.010058327 -0.04740266 -0.022230418 0.09807082 0.09544456 0.0639802
00000000: fd48 183e 01a2 64bd 5f2b bebd d9ee b0bd
00000010: a4ce bb3c 765f 673b c111 313d 2ce3 cbbb
00000020: ffa1 b93d cf9e 1ebe f5f6 81bd 6ee1 473e
00000030: a1d9 80ba b299 e2ba ce75 093b f5df 603d
00000040: a770 a8bd d48a afbd cdab 84bd b4c5 41bd
00000050: da29 08bd 5858 d6bd 6ac7 22bd a400 243d
00000060: 18c1 f5bd 94a4 ffbc a853 dd3c fc02 48bd
00000070: 0948 8f3d 0ad2 143e c707 4f3c 0e5f df3d
00000080: d363 123e 2030 553d 3ac8 9cbd 9669 babd
00000090: 430a bd3d 5773 e63d 0c58 743d 7109 75bd
000000a0: cfe6 b23d 19e7 003e 7bcc 703d f778 d3bc
000000b0: c1a5 81bd a0a9 0e3d 0f59 78bc bc74 8f3d
000000c0: 8b50 b53b 6bd2 253d 6f14 b13d aadd e03b
000000d0: 9edd 1cbd 60d0 053e 500f f33c d939 563d
000000e0: 1e6a c63d 641c a6bc 9a04 df3d 075f 76bb
000000f0: cf62 aabc 24f0 1c3c 50ac 113d 86d1 05bd
00000100: c4cb 843d 4070 aabd 4a6c f93d 875b aebb
00000110: 8a1c f23c 5a20 a4bd 84ef b53d 94e5 633c
00000120: e85f d8bc 6f86 05be 506a 363d c22c 0e3c
00000130: 7f63 fe3b 0cc2 c13d 50b7 003c 8d36 883c
00000140: 87a1 8a3d 3880 e93d d436 8d3d 1fd7 2abb
00000150: 42e9 2cbd cde6 c73d 2243 15bc cef8 9cba
00000160: 2c6d c23c be7c b83d 250c 913d f930 a53d
00000170: 7314 0e3e 6cb3 323d 9a23 7e3d 6686 6fbd
00000180: 7353 cd3b 9392 8abc 3e22 c13c c1ce 6a3d
00000190: 7593 a93d cde5 b83d ee52 af3c 8763 11be
000001a0: 1230 2bbc 7bad e43d 3918 293d 0ca2 b2bd
000001b0: dcc0 603d 46a4 8dbd 2e68 0e3e a8a0 c93c
000001c0: 3a3b 06be 296b 64bd a3f6 903d ab4f d03c
000001d0: 95c3 863d 2a07 313b 8ee5 63bd 84a5 523d
000001e0: ea6a f6bc ea58 eebc aecb 24bc 4b29 42bd
000001f0: 911c b6bc 5bd9 c83d 7078 c33d 0d08 833d

weight f4 [4, 128]
-0.008110625 0.23948433 0.17508942 -0.036875363 0.09238237 0.0764414 -0.32826275 -0.13315704
-0.21179132 0.085024655 -0.038301293 0.15534821 -0.13260593 0.043037962 0.29162914 0.13742454
0.22634114 -0.07269247 -0.16446412 -0.39928088 -0.07021502 0.0966433 0.22578171 0.040743314
0.32521957 0.06919181 0.098314516 -0.087841116 0.06904082 0.019023873 -0.34986752 -0.17379141
-0.28822556 -0.016225735 -0.04049672 0.0023309228 -0.119992405 -0.26343042 -0.15399052 0.0054044994
-0.055044614 -0.43429536 -0.048978325 0.034957014 -0.054257713 0.0036551442 0.008154526 -0.31340653
-0.1083082 -0.061708707 0.06305794 0.27755836 -0.13098581 -0.019031832 0.0379947 -0.07331141
-0.5706024 -0.08741043 -0.05548284 -0.029803015 0.00084623497 -0.03444632 -0.12962568 -0.0032529093
-0.43486065 -0.17771946 -0.11998825 -0.035116855 0.080864444 -0.23226656 -0.007410805 0.18160658
-0.16862498 0.16440697 0.24964654 -0.05408184 0.2369794 -0.28326127 0.08810349 0.016473498
0.031358004 0.22951719 0.19750467 -0.11736217 -0.037344933 0.15489948 -0.064869605 -0.07519096
-0.5071088 0.18249759 -0.014969138 -0.47034797 -0.28610745 0.21329471 -0.05485666 0.26814526
-0.22478378 0.00023294563 -0.030062042 0.0210596 0.09920787 -0.26303416 -0.114913076 0.18484508
-0.0846108 -0.41592193 -0.24040724 0.13004532 0.21306509 -0.029209534 0.11687477 -0.036422208
0.29468215 0.036042295 -0.45065758 -0.22427855 -0.076051526 -0.0129512595 -0.18147747 0.26501867
0.033427075 -0.024792636 -0.10545608 0.14745678 -0.111430354 0.058194056 0.04199644 -0.043247037
-0.13261177 0.06513279 -0.3162757 0.04356485 0.07577001 0.03983429 -0.43073085 -0.4474751
-0.27229846 -0.28957027 -0.015610758 -0.035342034 0.21738088 0.2286441 -0.26778457 0.018795548
0.33380637 -0.01195528 0.024443954 -0.2269289 -0.013530063 0.52453494 0.47148117 -0.19093058
-0.09244888 -0.123108886 0.113333546 0.20133387 0.14740084 0.08854225 0.1651229 0.07902547
-0.5311512 0.02821487 -0.16430102 0.046122305 -0.33196095 -0.44961005 -0.85934365 0.40146315
0.15894671 -0.54499304 0.09609046 0.14162779 0.042350944 0.14162338 0.047671728 -0.56234086
-0.23156515 -0.034696817 -0.2542279 0.1378419 -0.20687394 -0.28888032 -0.035494767 -0.07530483
-0.4675319 -0.012787245 0.08534919 -0.5079858 -0.037489664 -0.036027547 -0.09791108 -0.33224267
-0.52258325 0.02031336 -0.11905786 -0.27732027 0.029291902 -0.124635234 -0.09549884 0.28669614
0.05493409 0.46247372 0.30466548 0.033636935 0.16615026 -0.5073167 0.35393715 -0.124387585
0.20325716 0.54755545 0.50442076 -0.15931438 -0.26770258 -0.12448641 -0.18213102 0.18345678
-0.59579486 0.26519713 -0.53978014 -0.095718935 -0.6648057 0.22210215 -0.016046733 0.23298611
-0.35383165 0.05792883 0.39489412 -0.15773432 0.41197053 0.0743883 -0.061352227 0.44553804
-0.4389142 -0.6226513 -0.58486146 0.21510504 0.25086638 -0.005951713 -0.30655363 0.0895225
0.07217165 -0.027951624 -0.28106204 -0.45802882 -0.517424 -0.055357873 -0.33909202 -0.21389061
0.37795982 -0.23584898 -0.009834061 0.13517395 -0.15098925 -0.0025827298 0.26281768 -0.10043798
00000000: 6de2 04bc 613b 753e a44a 333e 9f0a 17bd
00000010: f832 bd3d 4f8d 9c3d 0e12 a8be 525a 08be
00000020: d3df 58be 6821 ae3d d1e1 1cbd 9a13 1f3e
00000030: d9c9 07be 9348 303d 6a50 953e 05b9 0c3e
00000040: f9c5 673e cadf 94bd 4869 28be 8b6e ccbe
00000050: e4cc 8fbd ecec c53d 5233 673e 76e2 263d
00000060: 2e83 a63e 70b4 8d3d 1f59 c93d 0be6 b3bd
00000070: 4665 8d3d f4d7 9b3c d621 b3be 60f6 31be
00000080: 4d92 93be d5eb 84bc e3df 25bd 65c2 183b
00000090: 94be f5bd 5ae0 86be b1af 1dbe 3a18 b13b
000000a0: 7676 61bd f65b debe 7f9d 48bd 162f 0f3d
000000b0: 563d 5ebd 258b 6f3b 909a 053c d276 a0be
000000c0: b1d0 ddbd 45c2 7cbd 8524 813d 211c 8e3e
000000d0: 2521 06be a5e8 9bbc 55a0 1b3d 4b24 96bd
000000e0: 0013 12bf 3d04 b3bd f941 63bd 7425 f4bc
000000f0: ded5 5d3a 9617 0dbd 98bc 04be c32e 55bb
00000100: 0ea6 debe 17fc 35be 66bc f5bd b1d6 0fbd
00000110: 429c a53d 49d7 6dbe 57d6 f2bb 13f7 393e
00000120: 07ac 2cbe 4d5a 283e 58a3 7f3e eb84 5dbd
00000130: baaa 723e 9f07 91be 9a6f b43d 6ef3 863c
00000140: 4071 003d 8e06 6b3e aa3e 4a3e 945b f0bd
00000150: 00f7 18bd f89d 1e3e 5bda 84bd b8fd 99bd
00000160: e2d1 01bf a6e0 3a3e 1e41 75bc 73d1 f0be
00000170: ad7c 92be ee69 5a3e 61b1 60bd 564a 893e
00000180: b82d 66be de42 7439 ac44 f6bc 2f85 ac3c
00000190: 7f2d cb3d 6aac 86be 8c57 ebbd 0748 3d3e
000001a0: 6d48 adbd b8f3 d4be 512d 76be 9a2a 053e
000001b0: bc2d 5a3e d548 efbc 0a5c ef3d 742f 15bd
000001c0: 94e0 963e 16a1 133d 97bc e6be 47a9 65be
000001d0: e7c0 9bbd 8531 54bc 3bd5 39be 87b0 873e
000001e0: d4ea 083d ed19 cbbc 5bf9 d7bd e9fe 163e
000001f0: 9935 e4bd e45c 6e3d 7604 2c3d ce23 31bd
00000200: 61cb 07be 5764 853d e3ee a1be 0e71 323d
00000210: 4f2d 9b3d 4829 233d c188 dcbe 751b e5be
00000220: b46a 8bbe 8e42 94be 44c4 7fbc cfc2 10bd
00000230: 1899 5e3e ae21 6a3e 0f1b 89be 1ff9 993c
00000240: abe8 aa3e 14e0 43bc b03e c83c 0d60 68be
00000250: 33ad 5dbc ec47 063f fb65 f13e 4e83 43be
00000260: d755 bdbd 8320 fcbd 6b1b e83d 772a 4e3e
00000270: 3ff0 163e a455 b53d fa15 293e 1bd8 a13d
00000280: 86f9 07bf df22 e73c 873e 28be beea 3c3d
00000290: c9f6 a9be 4a33 e6be f2fd 5bbf 948c cd3e
000002a0: edc2 223e aa84 0bbf 13cb c43d e006 113e
000002b0: 2f78 2d3d b805 113e 6e43 433d 92f5 0fbf
000002c0: 6a1f 6dbe 401e 0ebd 292a 82be 6d26 0d3e
000002d0: c3d6 53be 1fe8 93be f662 11bd 6b39 9abd
000002e0: 5760 efbe 9881 51bc 8ecb ae3d 5b0b 02bf
000002f0: c38e 19bd 9f91 13bd 9b85 c8bd b61b aabe
00000300: 04c8 05bf 3468 a63c 9bd4 f3bd ecfc 8dbe
00000310: 92f5 ef3c c240 ffbd e594 c3bd d6c9 923e
00000320: 9102 613d 5bc9 ec3e 1dfd 9b3e e2c6 093d
00000330: 4b23 2a3e 82df 01bf 4037 b53e ebbe febd
00000340: a522 503e 982c 0c3f b821 013f 4f23 23be
00000350: 5010 89be bbf2 febd 8e80 3abe 18dc 3b3e
00000360: 0386 18bf ebc7 873e 082f 0abf 4a08 c4bd
00000370: b530 2abf bf6e 633e 7074 83bc e993 6e3e
00000380: 6c29 b5be c846 6d3d 902f ca3e 1b85 21be
00000390: cded d23e e558 983d 794c 7bbd 901d e43e
000003a0: 5db9 e0be 1366 1fbf 7bb9 15bf 7f44 5c3e
000003b0: 8f71 803e 9606 c3bb 99f4 9cbe 9357 b73d
000003c0: bbce 933d cefa e4bc 5de7 8fbe c182 eabe
000003d0: e675 04bf f0be 62bd 789d adbe 2406 5bbe
000003e0: f383 c13e 6582 71be 0b1f 21bc 0a6b 0a3e
000003f0: ed9c 1abe 0443 29bb 0a90 863e 6db2 cdbd

bias f4 [4]
-0.08600075 -0.076983504 0.04794138 0.012365813
00000000: 2921 b0bd 87a9 9dbd 2e5e 443d fb99 4a3c
