problem1/models/underway/success_whole_model_1766857581.pth (torch, 146613 bytes, 9 tensors)

weight f4 [128, 8]
00000000: 5a11 00be de61 fd3e 2d7e 0c3f 8010 edbe
00000010: ae13 20be 532e dbbe 8440 07bf 669a 08be
00000020: 8db2 a63e 1c75 efbe 19d5 9cbd 6df1 d8be
00000030: d598 10bf c60f 6dbe 2767 5ebe c060 663e
00000040: 0906 1a3d 8a7c 983e fd1a 203e 11cc d03e
00000050: 19f3 343c 1aff 04bf b6dd 08be ce5d af3e
00000060: 35ba ea3e ad1f a4bc 3c64 50be 88c7 b0bd
00000070: 218b fdbe 3b57 eebe e7d2 383e 2fd6 113b
00000080: 9a7c 463f 7461 5dbe c4a2 ee3e 1ba0 46be
00000090: 7999 203d 8cab 7ebe 380e 3cbc dec0 003e
000000a0: d28b 863e 1d7b 3c3e 463f f33e 06b0 03bf
000000b0: ee66 c03d 512c 94be faa4 acbe 9552 c43d
000000c0: f927 053d 847b 19bc ffaa 9bbf ed86 133e
000000d0: fd03 1dbe 1582 043e 4b18 dd3d ce2a 033f
000000e0: 3874 0a3e 99af 90be ed7d 503d a610 bf3f
000000f0: c7ce 09be a3f5 ce3d 1bc1 b63e e8dc 7d3e
00000100: 8238 33be b25f a1be 1a6f 263f e596 d9be
00000110: 65e2 6fbe c5ad dc3e 2ca3 32bf 744d 22be
00000120: 188b 93bb 3708 fd3e bfdf 8fbd 64ff e2be
00000130: 8783 d63b bc04 893e 9d5e 763e 394e b13d
00000140: cd28 bb3e 58d4 e8bd 2f43 623e 529a ce3d
00000150: febd 1f3e bfe2 54bf 3a26 1d3d 9b27 ae3e
00000160: 828d 83be 367a b2be da93 c4be 5e02 18bf
00000170: d48a 97be 8c5f b1ba f2e2 1b3f 5afd b9bd
00000180: cff8 bcbd b298 8bbe 8a7f aabe 7d9a ffbd
00000190: 55e9 afbe 5b1c c43e 7cd5 cdbe ec52 13bf
000001a0: 734d 97be b014 cabd 7cd2 25bf d47b d33f
000001b0: c322 6abe 2cec ca3d 779b bdbd 8169 eabd
000001c0: dc64 79be b839 b1be 89dd fd3d b463 2fbd
000001d0: f575 99be 71d9 f53e cd64 9f3e 3c5d 04be
000001e0: 9b73 4a3e 4b4f 093d 2217 8bbd ff7c a1bc
000001f0: e42d 98be 7083 1abf 41f2 bfbc 87b5 9d3e
00000200: 5549 183f c9bd ac3e 34c7 ddbc 1373 17be
00000210: 765a 40be d2b1 1ebf b2c7 11be 0154 96bd
00000220: 88ac 4dbe 1eec fc3e cffb 263d 79ab d2be
00000230: 6c84 2abf 6848 06bc b176 bfbe 7393 973d
00000240: 15fe 483f a9bd 3bbf 0763 ff3e 4054 b7be
00000250: df1f 1fbe 64cd 71be 90d6 183e d62b af3d
00000260: bcac 8fbe 43ff 98be 6088 8cbe e54f 0fbf
00000270: 8c4d 88bf cd85 963d 6ae0 dbbc 65b8 283e
00000280: 129f ef3e 8a19 4abd 8898 a63d fc8d 79bc
00000290: 4124 683a bba4 8f3e be2c fe3c 81bc 6c3e
000002a0: 9d08 7cbe 227f 103f 600d 1bbc 32c6 d6be
000002b0: 3ad2 43be a675 f43d 01c5 593f b33a 1bbe
000002c0: a0e7 41bf e46d ebba 7a61 08be ab2c fe3d
000002d0: 7531 86be c5f6 b13e 2342 473d fe52 6cbe
000002e0: 6cbf d0bd b5b1 c63e d8a8 2bbe 76f5 b53d
000002f0: 1c9b e03e ede6 0b3f 6422 06be 502c 31bf
00000300: 395c 93be f46f 26be 90d1 adbe 9ef3 a8be
00000310: b0b1 f73e 2e6a 6c3d 4b8f ed3c 5e96 a03e
00000320: ab41 3a3e 6602 25bf c994 0a3e bfed 3abf
00000330: 147d 10bd 7f73 34be 26d1 9e3e f0b5 20be
00000340: e444 99bd af09 7cbe a4d4 1bbe bb23 d53f
00000350: 4060 b8bc 52b9 3cbe b531 3c3e f633 a73e
00000360: 8c28 523d 412e 873e ed91 46be 27a5 dabe
00000370: c9ec 64bd 214a 9bbe 37d2 823e 7939 533e
00000380: 4753 01be 04b5 04bf c092 8ebd eeb2 b23c
00000390: 73c0 cc3e adf0 033f 7610 2d3e 68dd d63e
000003a0: a0ff b43c 9f18 d53d 8b7d 55be 9dea 813e
000003b0: 1990 43bd b738 e83d e80a 93bd 2af6 193e
000003c0: 0950 22bc f724 1a3f 7dfb 20bd 97c1 6e3e
000003d0: ba9a e0be 199e 07bf d99f 9cbd afcc 1abd
000003e0: e0b6 acbe 0f5d a03e 1a65 c23e 8006 2e3e
000003f0: f223 ffbe 4011 17bf 6b87 373e 9081 9cbe
-0.12506619 0.4948873 0.5488003 -0.4630165 -0.15632507 -0.4280878 -0.5283282 -0.13340148
0.32558098 -0.46769035 -0.07657833 -0.42371693 -0.56483203 -0.23150548 -0.21719037 0.22497845
0.03760341 0.29782516 0.15635295 0.4078069 0.011044287 -0.51951754 -0.13365826 0.34251255
0.4584519 -0.020034635 -0.20350736 -0.086318076 -0.4952021 -0.46550927 0.18049203 0.0022252908
0.77533877 -0.21619207 0.46608555 -0.19397013 0.039208863 -0.24870127 -0.011477999 0.12573573
0.2627855 0.18406339 0.4750921 -0.51440465 0.09394632 -0.2894006 -0.33719617 0.09586064
0.032508824 -0.009367827 -1.2161559 0.14406939 -0.15333553 0.12940247 0.10795649 0.5123719
0.13520896 -0.2825897 0.050901342 1.4926956 -0.13457786 0.10105445 0.35694203 0.247913
-0.17502025 -0.31518322 0.6501328 -0.42497936 -0.23426206 0.43101326 -0.6978023 -0.15849859
-0.0045026653 0.4942033 -0.07025098 -0.44335473 0.006546441 0.26761425 0.2405953 0.08657498
0.36554566 -0.11368626 0.22095941 0.10088028 0.1559982 -0.8315849 0.038366534 0.34014592
-0.256939 -0.34858865 -0.38394052 -0.5937861 -0.29598105 -0.0013532504 0.60893166 -0.09081526
-0.09227144 -0.27264935 -0.3330043 -0.12480638 -0.34357706 0.38302884 -0.40201938 -0.57548404
-0.29551277 -0.09867227 -0.647743 1.6522164 -0.22864823 0.099083275 -0.09258168 -0.114459045
-0.24354881 -0.34614348 0.1239577 -0.042819694 -0.29972807 0.48017457 0.31131592 -0.12926191
0.19770662 0.033522885 -0.067915216 -0.019712923 -0.29722512 -0.6035681 -0.023430945 0.30802557
0.59486896 0.33738545 -0.027072527 -0.14789991 -0.18784508 -0.6199008 -0.14236334 -0.07340241
-0.20085347 0.49398893 0.040767487 -0.41146448 -0.6660831 -0.008195974 -0.37395242 0.074011706
0.785127 -0.73336273 0.4988024 -0.35806465 -0.15539502 -0.23613507 0.14925599 0.08553283
-0.28061473 -0.2988225 -0.27447796 -0.55981284 -1.0648665 0.07349739 -0.026840407 0.16476591
0.4680105 -0.049340762 0.08134562 -0.015231606 0.00088555 0.28055367 0.031027194 0.23118784
-0.2461266 0.5644399 -0.009463638 -0.41948086 -0.19123164 0.11936502 0.8506623 -0.1515911
-0.75744057 -0.0017961827 -0.13318434 0.124108635 -0.26209608 0.34758583 0.048647057 -0.23078534
-0.10192761 0.38807455 -0.16763628 0.088847086 0.4386834 0.5464924 -0.13099056 -0.6920824
-0.28781298 -0.16253644 -0.33948946 -0.32998365 0.48377752 0.05771845 0.028998991 0.3136472
0.18189113 -0.64456785 0.1353332 -0.7301902 -0.035275534 -0.17622183 0.31018943 -0.15694404
-0.07483843 -0.24613069 -0.15217835 1.6651529 -0.022506833 -0.18430069 0.18378337 0.3265683
0.0513082 0.26402476 -0.19391604 -0.42704126 -0.05588988 -0.30329993 0.25551006 0.20627393
-0.12629424 -0.5183871 -0.06961584 0.021813836 0.39990577 0.5153912 0.1690081 0.41965795
0.022094548 0.10405087 -0.20848672 0.25374308 -0.047744844 0.113389425 -0.071798146 0.1503531
-0.009906777 0.60212654 -0.039302338 0.23316036 -0.43868047 -0.5297561 -0.07647676 -0.037792858
-0.33733273 0.31320998 0.3796776 0.16994667 -0.49832112 -0.59010696 0.17922752 -0.30567598

bias f4 [128]
00000000: b44a 0b3e 39a4 d5be c6af 443e 3168 8a3e
00000010: 98a5 323d 806c 003f 006b 823c 5d0a 55be
00000020: 1051 a13e daaf af3e 6327 4abe 6031 b23e
00000030: af68 613e 7a7e 8ebd aa6f ccbd 6f2c 133e
00000040: 7889 47be ad21 633e 6872 6ebd 1bea cf3d
00000050: 0b0b 973d 10da b73d 3245 0dbe 8b5b 823d
00000060: de60 bdbc e10f 81bd fe44 78be 2bfd f73e
00000070: 71c2 c33e 10c7 f73e 8997 dfbd 28b1 f53e
00000080: 4b39 bd3c 851e 653e 7de9 543d b73a 283e
00000090: 2d71 46bd d4ed ec3e 5cd2 6e3c 41a2 b13e
000000a0: 27d7 adbc 3041 c23e a01a 2f3e 6e7c 063f
000000b0: 8063 dd3e 9074 b73e ce7a e93d 9ecb 3dbe
000000c0: 1e19 a63e 7002 a0bb 32d2 933e 539a 99bd
000000d0: 3c1b 753e 482a 7d3e 2f21 b4bd 1d01 5e3e
000000e0: 0cc6 f6bd 443f 5cbe c8b5 54bd 94f9 3abe
000000f0: 7609 f53e 3c3e ee3e b4fa 0a3e c7f7 ac3e
00000100: 5f8e b63e a71a 513d 24b9 613d 310b c9be
00000110: b6cd ba3d 7dd1 c63e 186c de3e efc2 8a3e
00000120: 03e4 d9bd 4607 823e ba2b 4e3e 5ce9 ea3e
00000130: 36c0 483e 71d8 303e ace7 253c df2a 163c
00000140: 292b 053f 2a88 86be 5be9 013f 93ae 27be
00000150: 607f d63e 6ee6 efbc 7dc5 f03d 6c6a b73e
00000160: c174 413e ce50 a83e be6e 983e 7e9d 033f
00000170: 0829 153d fb02 2d3e 402c b83e 2aa6 b73c
00000180: 86d0 673e 75f2 473e a095 9b3e 628f d23d
00000190: c843 913e ff1d 613e 52a7 debc e9bc f43d
000001a0: b41c 2e3e e765 983e cdd0 853e 8fbe d63d
000001b0: 7679 a13e 2f2a 263e c7f2 34bc f93f 053f
000001c0: 7f34 343e acc3 42bd 1a02 a63e bdd3 993d
000001d0: ed2a e43c 007c 51bd 7a23 e23e 1b4d cf3e
000001e0: 0b45 573d 4e80 f63e f6c9 813e 1b99 f83d
000001f0: e954 fd3e 7364 793e d8c1 c33b ff0e b13e
0.13602716 -0.41726854 0.19207677 0.27032617 0.043614954 0.5016556 0.015920162 -0.20804735
0.31507158 0.34313852 -0.19741587 0.34803295 0.2201259 -0.06957717 -0.09982236 0.14372419
-0.19486034 0.22180815 -0.058214575 0.10152074 0.07375153 0.08977139 -0.13795927 0.06365117
-0.023117479 -0.06301857 -0.24245068 0.4843534 0.38234285 0.4839406 -0.10917575 0.47986722
0.023098608 0.22374924 0.051980484 0.16428648 -0.048447777 0.46275198 0.014576521 0.34694102
-0.021220757 0.3794036 0.171 0.52533615 0.43239975 0.35831118 0.11400376 -0.18534705
0.32441038 -0.004883103 0.28871304 -0.07500138 0.2393617 0.2472316 -0.08795392 0.21680112
-0.12049493 -0.21508509 -0.051931173 -0.18259269 0.4785878 0.46531856 0.13572198 0.3378279
0.35655496 0.05105081 0.055108204 -0.3926635 0.091212675 0.38831702 0.43441844 0.27101848
-0.10639193 0.25396174 0.20133868 0.45881164 0.19604573 0.17270066 0.010126036 0.009165495
0.5201898 -0.2627576 0.507467 -0.16375189 0.41894054 -0.029284682 0.11756418 0.3582338
0.18892194 0.3287415 0.2977199 0.5141219 0.036416084 0.16895668 0.3597126 0.0224181
0.22638139 0.19526084 0.30387592 0.10281254 0.28372025 0.21984099 -0.027179394 0.11950094
0.17003137 0.29765245 0.26135865 0.10485565 0.3153798 0.1622703 -0.011044211 0.5205074
0.1759815 -0.04754989 0.32423478 0.07511089 0.0278525 -0.051143646 0.4416769 0.40488514
0.05255608 0.48144764 0.25349396 0.121385776 0.49478844 0.24354725 0.0059740357 0.34581754

weight f4 [128, 128]
00000000: 4c70 b8bc b1d4 903e c115 163e 6348 17bd
00000010: f063 4c3e 6e4e 333d aa9f 05bf c769 ef3e
00000020: 37c1 183d 12e5 10bd 794e b63d 3868 8fbd
00000030: f841 38be 0d47 83bf 57d8 3d3e 1919 5f3e
00000040: 51b1 85bd 64ff f03d 38ef 813e ab05 6fbe
00000050: 4bf4 103c f581 1cbe fde3 9a3e 2f5c 1b3e
00000060: f12c 8d3e fdfb b93e 774f bd3e ade7 e6bd
00000070: bfba 473d 73d4 6fbc 8629 563e b0e4 56be
00000080: 266f 133e ccd0 953e e007 8c3e 2e14 0b3e
00000090: 3235 963e fd5d 9ebb 10f3 88bd b942 31be
000000a0: 8c59 23be 7c82 3cbd f95d 253d c8c0 193d
000000b0: 4399 2b3e e4c5 013e bcc4 533e 59c8 63be
000000c0: 7c31 a73d 58ce c13c 7400 15bf 32c9 553e
000000d0: 8274 823c 17ad 993d 8186 87bf 4424 073e
000000e0: 06df 7c3e e2dc 903e 2af9 833e 8ebb bd3d
000000f0: de84 553e b05f a23d 70a1 7e3e 1d36 cb3d
00000100: 4a32 2d3d 4cd5 4bbd 6f57 153e 89c3 fa3e
00000110: e615 7f3d abb6 b43d dbee 3e3b 464d 9f3e
00000120: 72d4 2f3e 2334 02be 5564 85bd 7448 09bd
00000130: 39fa 493d f846 84be 2d4e e13e ef83 44bf
00000140: c7c9 a2bd 3783 ab3e 7750 eb3d 84cd 123e
00000150: 88c0 b43d f333 643e 87ba 8bbc b2e2 ad3d
00000160: f01e b0bd a1d7 873c 1662 223d b106 12bc
00000170: 1d87 ca3d d432 8f3e f1e2 4ebd b7e9 79bf
00000180: 7735 a5bd 66ce b83e 4002 223d f050 46be
00000190: 110c 233e 37be 1b3e ac13 293f 7936 4d3d
000001a0: b92f 783d bd02 b23d edc8 5ebc 6762 ba3d
000001b0: b832 403e c4e3 753d a412 aebc ee70 63bd
000001c0: ac22 f13d 6c0a e93d f2e8 22be 93f0 d53d
000001d0: 00c0 91bf a1cf b2be 776b 1a3d 2ef4 2fbe
000001e0: 97bc 153d ed21 893e f37f ec3d a687 8bbf
000001f0: 6e52 0cbd 3684 e2bd 24b5 b3bf 1506 83bd
00000200: 7480 053c 1c98 3abd 9cb8 23bd e1c2 703c
00000210: 67eb 9bbd 5cab afbc 5c27 0a3d 62aa b43d
00000220: 5e42 9dbc b6bb c33c f5dc 9dbd 8458 15bd
00000230: 2340 afbd 6fa6 90bd babc 4fbd e23a f13c
00000240: 3a69 b5bd 2b98 a03d 1a37 eebc 3732 47bd
00000250: 6c81 97bd 197c 74bd fec4 84bd 2a5c 9b3d
00000260: 2041 9e3d 32f0 abbc a144 a33d 8fca 90bd
00000270: 46bb 82bd 7afb e6bb 5587 9d3d 133f 48bc
00000280: 5706 1c3d 6b81 ca3c 3c48 733d 8ac7 913d
00000290: 15a2 5e3d 40a9 853b 737e 133d 7096 833d
000002a0: 041c 81ba 3a80 2ebc 2144 23bd c400 343d
000002b0: b650 aebb 1e9a d3bc f623 b3bc 3790 68bd
000002c0: 1e58 fabc 60f2 8ebd 752b 97bd a1b7 a8bb
000002d0: 74b2 fd38 33cf 253d 611b a3bd 2142 7e3d
000002e0: 0893 6abd a10c 9e3c 6187 cc3c e87f 31bd
000002f0: d957 8cbd 7f76 99bd be84 a03d cff4 a03b
00000300: 1a41 28bd 12d1 54bd aa67 d6bb 4620 873d
00000310: 8f4d d33c 4931 433d 03c4 a0bd 5b67 903d
00000320: 7696 993d 25eb 923d 310b 833d 18f0 b4bd
00000330: b385 55bc 0864 413d 3ea0 5a3d 5464 773c
00000340: 7ba7 58bd 2a24 b2bd 8522 3c3c 07ed 4a3d
00000350: 851d 05bc 2dac 773d f459 16bd 2b5f 60bb
00000360: c098 a8bd 3ab4 093c 51d7 973c 8cfb 9e3d
00000370: 4dcd 68bd 5185 46bd 7cc8 9abb 4d65 7fbd
00000380: 97f6 0cbd c75a 863d 8097 cc3b 296c c3bd
00000390: 69db 3abd 77e8 a1bd 299c 17bd 7e36 833d
000003a0: 95cf 383c 0db0 3dbd 3195 71bd 5333 083d
000003b0: d42e 13bd 0caf acbc b61c 42bc 2c63 80bd
000003c0: 3160 a63c fd5b 63bc 9992 793d b42d bcbd
000003d0: 1586 37bd 3c4e 5dbc 038e 81bd 0b10 3db9
000003e0: 5575 fdbc 2ee5 8abd c033 a0bd fbff 6c3d
000003f0: 0cb9 6c3d 143f ae3c dca4 413c 7ed8 0ebd
-0.022514485 0.2828727 0.14656736 -0.036934268 0.19959998 0.04377597 -0.52196753 0.4676039
0.03729364 -0.03537471 0.08901686 -0.070023 -0.17993915 -1.0256058 0.18539558 0.21786918
-0.06527961 0.11767462 0.25377822 -0.23342006 0.0088473065 -0.1528395 0.30252066 0.15171884
0.2757335 0.36325064 0.3697469 -0.112746574 0.04876208 -0.014638054 0.20914277 -0.20985675
0.14397869 0.29260862 0.27349758 0.13581917 0.2933746 -0.0048329816 -0.066869855 -0.17310609
-0.15952128 -0.046022877 0.040372822 0.037537366 0.16757683 0.12673146 0.20680517 -0.22244395
0.08163735 0.023657963 -0.58203816 0.20877531 0.015924696 0.075037174 -1.0587922 0.13197428
0.24694452 0.2829352 0.25776035 0.09264289 0.20851466 0.07928407 0.24866271 0.09922431
0.042284288 -0.049763963 0.14584135 0.48977306 0.062276743 0.08823904 0.0029134068 0.31113642
0.17170885 -0.12715201 -0.065132774 -0.033516362 0.049310897 -0.25835395 0.44004956 -0.76763815
-0.07948642 0.33498546 0.11489957 0.1433621 0.08825785 0.22285442 -0.017056717 0.08490504
-0.08599651 0.016582312 0.039644323 -0.008912728 0.09889052 0.27968466 -0.050509397 -0.97622246
-0.08066838 0.3609497 0.039552927 -0.19366813 0.15922572 0.1520928 0.6604564 0.050100777
0.060592387 0.086919285 -0.013597709 0.091008 0.18769348 0.060031667 -0.021249123 -0.05552762
0.11774191 0.11378941 -0.15909174 0.104462765 -1.1386719 -0.34924033 0.037700143 -0.17182991
0.036556806 0.26783696 0.11547842 -1.0900772 -0.0342583 -0.110603735 -1.4039655 -0.063976444
0.008148301 -0.04555522 -0.03997098 0.0146949 -0.07613259 -0.021444015 0.033728942 0.088215604
-0.019196685 0.023893218 -0.0770816 -0.03646137 -0.08557155 -0.07062995 -0.050717093 0.029447023
-0.08857961 0.07841524 -0.029079009 -0.048631873 -0.07397732 -0.05968866 -0.06482886 0.07585938
0.07727265 -0.020988557 0.07972074 -0.07069885 -0.06383376 -0.0070490213 0.07691828 -0.012222069
0.038091984 0.024719914 0.05939506 0.07118137 0.054353792 0.004079014 0.036009263 0.06425178
-0.0009850268 -0.010650689 -0.039859895 0.043946043 -0.00531968 -0.025830325 -0.021867733 -0.05677816
-0.030559596 -0.06979823 -0.07381336 -0.0051488434 0.000120972196 0.040480804 -0.079642065 0.062074784
-0.057269126 0.019293131 0.024966897 -0.04333487 -0.06852693 -0.074933045 0.078378186 0.004911996
-0.04107771 -0.051957197 -0.0065431194 0.065979525 0.025793819 0.047654424 -0.07849886 0.070509635
0.07499401 0.071737565 0.06398619 -0.08834857 -0.013032365 0.047214538 0.053375475 0.015099604
-0.052894097 -0.08698304 0.0114828395 0.049542453 -0.008124714 0.060466934 -0.03670688 -0.0034236412
-0.0823226 0.008404786 0.018535288 0.077628225 -0.056836415 -0.048466984 -0.0047236066 -0.062352467
-0.034414854 0.06560283 0.006243646 -0.09542114 -0.045619402 -0.07905667 -0.03701416 0.06406878
0.01127996 -0.046310473 -0.05898017 0.03325207 -0.03593333 -0.021079563 -0.0118476655 -0.062689155
0.02030954 -0.013876912 0.060930822 -0.09188405 -0.044805605 -0.013507422 -0.06325915 -0.00018030421
-0.030939737 -0.06781994 -0.078223705 0.05786131 0.057793662 0.021270312 0.011819091 -0.03487443

bias f4 [128]
00000000: 9310 7abd c667 223b dfd3 f03c 08f8 4a3e
00000010: 1fcd c83d 948b 10be 5076 5e3e fc91 293c
00000020: 4c87 cabd 3dd5 c9bc be55 d0bd 46b8 413e
00000030: 00a4 51bd 13da 2e3e 3fa4 3bbc dc31 c7bc
00000040: 5241 f63c f602 bc3c af39 e0bc ebf9 1dbb
00000050: 6d94 83bc f8e3 7e3c 4c47 a83d eb10 bcbd
00000060: 6de3 853d 8971 9bbc 10df ca3d 5c22 0d3d
00000070: c32c 333e 6f93 f13a 8120 29bd 1bdf 053d
00000080: 6902 973d 55f4 24bd f867 813d 8c10 543c
00000090: 5c15 cdbc a559 c5bd 5d5b 133e c82e 0a3e
000000a0: 6468 813d 7117 66bd 4402 9bbd c987 0f3d
000000b0: e076 aebd fb06 1b3b 2b0b 18be 4a6b 3d3e
000000c0: 841e 0ebd 02f9 e3bd c021 ed3c 89e5 cabb
000000d0: 23f7 c63d 378d 1f3d 4bda 0bbc f96b 093d
000000e0: af50 b3bd 04fd 9abd 356f 94bd 85da f13c
000000f0: 6e8d dd3d 9867 22bc 2b56 31bb 03e7 e23c
00000100: 7cf6 72bd 368d 5f3d 9084 543e 8aa5 063d
00000110: 4b44 d8bc 7221 9e3e effc 313e 1ac9 493d
00000120: 742b b83d c958 653e 7cf2 643d c626 6b3d
00000130: 268d efbc 1311 b63d 36bb 973d a182 973d
00000140: 317f 1c3e 9ef4 063e 6989 313d cf12 273d
00000150: abe6 aa3d 6a00 3c3d 43b9 38bd 1542 393d
00000160: 72cf a83d 5d7c 1cbe e18e 46bd 713c 983b
00000170: d32f 19bd b6c1 013e 2074 0e3e fde2 33bd
00000180: cfd4 6fbd d77a 443d c529 563d 5e69 c9bd
00000190: 9a49 f93d ad28 d7bd 467c d0bd 932f d1bc
000001a0: e9b9 2a3d 26b0 c43d 2cd1 b9bd 4678 7e3b
000001b0: aad9 3e3d 0ec8 e9bd a691 5fbd c1cc bfbc
000001c0: 16a6 733d deb9 d13c 28a1 2dbd ef43 0abb
000001d0: a66f 6abd db31 903d 6dca 483e f414 04bd
000001e0: 0a15 2f3d ca2e 123b f282 593d 23ba 98bb
000001f0: 6fb8 7f3d 44b6 00bd 09dd 673e 21a1 81bd
-0.061050963 0.0024781092 0.029397903 0.19821179 0.09804749 -0.14115745 0.2172482 0.010349747
-0.09889087 -0.024637813 -0.10172604 0.18917951 -0.051181793 0.17075376 -0.011452734 -0.024315767
0.030060444 0.02295063 -0.027371256 -0.0024105262 -0.016061986 0.015557282 0.08216724 -0.09182914
0.06537519 -0.018975036 0.09905827 0.034456596 0.17497544 0.001843078 -0.041290764 0.032683473
0.073735066 -0.040272076 0.063186586 0.012943398 -0.025034599 -0.09636239 0.14390321 0.13494408
0.06318739 -0.0561747 -0.075687915 0.035041604 -0.08518767 0.0023655284 -0.1484801 0.18497959
-0.03469707 -0.11131479 0.028946757 -0.0061919135 0.09715106 0.038953032 -0.008535932 0.033550236
-0.087556235 -0.0756779 -0.072477736 0.029523144 0.10817991 -0.009912394 -0.0027059417 0.027698046
-0.059317097 0.05457803 0.20753694 0.032872714 -0.026399752 0.30884892 0.17381643 0.04926405
0.08992663 0.2239715 0.055895314 0.057410024 -0.02924211 0.088899754 0.074087545 0.07397962
0.15282895 0.13179252 0.043343935 0.04078942 0.08344778 0.045898832 -0.045098554 0.045229036
0.08242692 -0.15281816 -0.048476104 0.004645877 -0.037399124 0.12671551 0.13911486 -0.043917645
-0.05855256 0.04796871 0.05228593 -0.0983455 0.121722415 -0.10505805 -0.10179953 -0.02553538
0.041681204 0.0960391 -0.090730995 0.0038829013 0.0465943 -0.114151105 -0.05458226 -0.023413064
0.059484564 0.025601324 -0.04239002 -0.002109762 -0.057235382 0.07040759 0.1960847 -0.032246545
0.042744674 0.002230572 0.053103395 -0.004660861 0.06243175 -0.031423822 0.22642912 -0.06329561

weight f4 [1, 128]
00000000: 62d5 48bf de02 a53c 2b38 75bd 6cfa 303f
00000010: fb11 403f a586 40bf be37 4f3f 4d96 dfbe
00000020: 3e99 3ebf 73a4 35bf 0a66 e7be d328 563f
00000030: 9233 3f3c d8f3 423f c6e9 cebe 7fdf 47bf
00000040: 9e20 5e3f 0138 43bf d16a dbbe a060 5d3f
00000050: df6c 013d 3667 f7be 5f83 983f 3b50 12bf
00000060: 366c 623f 37c5 4fbf bc34 403f 2d04 08bf
00000070: 3acf 553f b5a9 293f d4b8 173f 0187 f5be
00000080: 1b29 283f de9e 21bf ae50 4b3f 413b 873f
00000090: 4a20 cfbb c68c 1abf 3606 923f 5a38 533f
000000a0: 3185 533f 0048 d6be 3581 a5b9 ab39 2d3f
000000b0: 7d03 dfbe 549a 34bf 5668 e3be c853 963f
000000c0: 8cdd e2be 8134 0bbf 9195 6c3f 2a86 4b3f
000000d0: beb0 3c3f 9eeb 08bf 2ec1 d5be 2ff4 08bf
000000e0: d61a 2d3d c5cb d2be d39d f7be dd27 743f
000000f0: 4b8d e43e 7a54 c8be 3b94 c6be 0f27 44bf
00000100: 9860 d8be 7715 cbbe b9fe 803f 3a5a 813f
00000110: c592 1fbf 8695 333f ce7b 4d3f 2636 eebe
00000120: 1795 4e3f 8c20 353f da57 52bf 197b 24bf
00000130: 512b 0ebf 7a8f f23e ec2d d0bc b7e4 e83e
00000140: e04d 8f3f f18c 383f 5d2e 793c c862 533f
00000150: 6c2e efbe d98b 213f ad98 1a3d fd63 273e
00000160: e0b1 633f 856b 54bf b3b3 f13d 81f9 363f
00000170: 16e5 3ebf 35c1 653f 8e11 1c3f b6c0 a6be
00000180: a999 23bf f55a 5d3f 3a03 4a3f 8ded 18bf
00000190: 4ec7 843f faa3 d5be 4c7a 05bf 8eda d3be
000001a0: 41fa c1be 3c3d 3b3f 1eb8 c73b 825d 0bbf
000001b0: 77dc 123f a436 04bf 9b05 febe 3e74 20bf
000001c0: e6ef 473f 806e b2be c47c 1d3f 745f 613f
000001d0: 1f6b f0be 7b80 333f 1eb4 123f f703 85bf
000001e0: 1472 21bd 540e aa3d ab2e efbe 633d 2d3d
000001f0: 455e c4be 07a5 04bf e7ba 293f be30 953d
-0.78450596 0.020142969 -0.05986802 0.69132113 0.75027436 -0.7520545 0.8094443 -0.43669358
-0.7445258 -0.70954055 -0.45195037 0.8365604 0.01167001 0.76153326 -0.4041273 -0.780754
0.8676852 -0.7625733 -0.42854932 0.86475563 0.03159797 -0.4832093 1.1915091 -0.5715367
0.88446367 -0.811603 0.75080466 -0.5313137 0.8351933 0.6627458 0.592664 -0.47954562
0.6568772 -0.6313304 0.7941998 1.0564958 -0.006320988 -0.60371053 1.1408145 0.8250786
0.8262511 -0.41851807 -0.0003156752 0.6766612 -0.4355735 -0.70547986 -0.4441554 1.1744318
-0.44309652 -0.5437699 0.9241572 0.79501593 0.7370719 -0.53484523 -0.41748947 -0.53497595
0.04226192 -0.4117109 -0.48362598 0.95373327 0.44639048 -0.3912695 -0.38784966 -0.766221
-0.42261195 -0.39664814 1.0077735 1.010566 -0.6233333 0.7015003 0.80267036 -0.46525687
0.80696243 0.7075279 -0.821653 -0.6425033 -0.55534846 0.4737509 -0.025412522 0.45486996
1.119564 0.7209006 0.015208808 0.82572603 -0.46715105 0.63104016 0.03774326 0.16346736
0.8894329 -0.8297656 0.11801853 0.7147446 -0.7456831 0.89747936 0.60964286 -0.32568902
-0.6390634 0.86466914 0.78911173 -0.59737474 1.0373323 -0.41726667 -0.52139735 -0.41377681
-0.3788624 0.7314031 0.0060949465 -0.54439557 0.5736765 -0.51645875 -0.49613652 -0.6267737
0.7810043 -0.3484993 0.615185 0.88036275 -0.46956727 0.7011792 0.57306087 -1.0391835
-0.039415434 0.08303514 -0.46715292 0.04229487 -0.38353172 -0.5181431 0.66300815 0.072846875

weight f4 [128, 128]
00000000: 1a7c 63be 0df3 9f3d 5664 fc3c faba 193d
00000010: 2e92 753d 155d e8bb 808a 293d 067e dabd
00000020: ac1e cbbd 097a 8cbe 0573 ff3d 4d6f ebbd
00000030: 658c 15bd 59e4 4f3e f4eb e0bd eadf e63d
00000040: b0b6 7cbe 9a7a 9fbd 6ae5 84bd 215f 53bd
00000050: c36f b0be bc95 27bf 8f45 b1be 0bdd f1bd
00000060: bc6c ac3d 43c0 6ebe 1cb9 6d3d 81c5 8dbd
00000070: a26b 81be 7bdc f2bc b928 a8bd ebbf 033c
00000080: a0a3 9bbd aeea 323e 5356 ddbd 3a76 39be
00000090: a88f 0e3c 34b9 d1bd 1b82 38bd 14fc febd
000000a0: 9a4d 9fbc c0ad abbe 986d e53d 2735 8bbd
000000b0: 3574 97be 8352 053e 2688 a2be c464 1bbe
000000c0: 7391 82be 6fd4 6b3d cb32 5bbc 8bc2 013e
000000d0: 8615 be3d 2b41 69bd 3e24 0abd e626 e33d
000000e0: a1e0 24be 892c 9b3d 7499 abbe 5917 6f3d
000000f0: 0d0f cfbc 87f7 f63d bcfe 71be e61a 5a3d
00000100: 0cfd 93be d1fb 0e3d a133 abbd a229 88bd
00000110: c2c9 65bd 9b55 823e b786 dcbc 0880 82be
00000120: 5d1d 773d b793 123d 6ba0 25be 742f fabd
00000130: 956e 8fbd 1c31 e0bd 8b98 e33d 42fd ae3a
00000140: 058c 06bd 11a6 233e 0362 8cbd 7334 0a3e
00000150: 9724 8bbe bfc3 b2bc 170b 513e bfc9 0abe
00000160: 8fde 6cbe 40c7 b73d e57c 9f3d bb93 3dbe
00000170: 626f d6bd af48 08bf 9843 45be dcd8 83bc
00000180: 22a6 8dbe 478f 09bf 420a 873c 60eb 6cbe
00000190: 2138 593d 48fd 713e 7649 773e 8eeb 33be
000001a0: 686e d2bb c5ef 32bd 1d0f 0bbe 694f c2be
000001b0: fef6 a2bd 1562 07bf 7d83 3ebd db67 dbbd
000001c0: 5ac9 b53c 1909 bcbc 2e27 dcbe 4321 4f3d
000001d0: 2d34 113f 9f06 0fbe a2a5 c0be 750b 60be
000001e0: 3d9f 653e 14d3 cebc 3453 883d 6d6e 003e
000001f0: a527 3dbd 604b abbd 55bb 23bf 7ce3 b2be
00000200: 1033 a33d 4678 f0bd 54da d13d 3f5d 3b3e
00000210: 10fa 953d 977d b53c 5650 fc3d da2f c1bd
00000220: 70d3 9bbe 7e9e 043e d257 f73b d0f2 e7bc
00000230: c410 063d 4a25 473e 40c2 0c3e 11e7 0b3e
00000240: c413 553e ca66 593d 7a21 b23b ecd4 233e
00000250: 60ca 303d bb0a 603d 8279 363e 87a2 613e
00000260: e752 483e daae 133d 2f74 3e3d cad6 333d
00000270: cca3 593e 3d9a 873d eec5 7a3e 0915 353d
00000280: 9f22 823a 079a bbbe 8f36 3e3e 5587 4fbe
00000290: 97e3 653d 5546 b13d 4cb2 7abd 1f48 e83d
000002a0: 7071 5a3c 3d8e 923a 8f9a 2a3e 7c2b b33d
000002b0: 6c6e 3fbd 99f9 fe3c 6663 b73d 866a b9be
000002c0: bb46 1bbd a381 3c3e ee58 763e b7f0 70bc
000002d0: b1f5 14be 46a7 283d 9cd9 123e 84df 92bc
000002e0: 3c7b f23d 8224 ba3d 9caa 46be 2593 d83d
000002f0: 42a9 213b 89fc f7bd ce79 14bc 934a c0bd
00000300: f15a 0c3e 8b5a 6c3e e9e4 2f3e 2b6f a73c
00000310: 2884 43be ab35 47be 2995 b23d 2549 f63c
00000320: b735 e23d 18c1 aa3d 1f97 f83d 07e4 a13d
00000330: 8f3f 19bf 72ca 953d 35aa 073d 0d26 8d3e
00000340: 4815 8b3d 76a0 863e 4e63 313d 5486 25bb
00000350: 2d39 c73d 2046 1a3d a14f f5bd be02 bd3c
00000360: 1d32 763d 9f97 3d3e a11f f63c 2553 08be
00000370: 1628 81be d75d bc3d cb23 6f3d ecb6 683e
00000380: 7fe2 2bbe 93ed 9dbd 53b6 e93d 4f34 af3d
00000390: 8a0d 123e 0e7d 66bd b864 303d f27b 24be
000003a0: a5a6 803e 3e28 08be 80ac b13d 4c6e d0bc
000003b0: 91bd 373e 50d2 013e f46a ae3e bfa2 033c
000003c0: 5d9c bb3d 889e 7a3e 055c 0a3d 4cd9 183d
000003d0: a000 e7be 1c0c dc3d c67b 0dbd 8501 283e
000003e0: 482e 823e 49e0 88bd 38c0 033e 2cac 3a3e
000003f0: 7561 253e 4935 473d 18af ecbd c4b0 883b
-0.2221531 0.0781003 0.030809563 0.03753183 0.05995386 -0.0070911744 0.04139185 -0.10668568
-0.099179596 -0.27436855 0.1247311 -0.11495838 -0.036510844 0.20301951 -0.109825045 0.11273177
-0.24679065 -0.07787056 -0.0648907 -0.051604394 -0.34460267 -0.6546285 -0.34623381 -0.11809739
0.08419177 -0.2331553 0.058037862 -0.069224365 -0.2527743 -0.029646149 -0.08210892 0.008041362
-0.07599568 0.17472336 -0.10807481 -0.18111506 0.0087012425 -0.10240403 -0.045045953 -0.12450424
-0.019446183 -0.33530998 0.11202544 -0.067972474 -0.29580846 0.13019757 -0.31744498 -0.15175158
-0.25501594 0.05757564 -0.013378809 0.12671869 0.09281449 -0.056946915 -0.03372597 0.11091404
-0.16101314 0.07576854 -0.33515513 0.058371875 -0.025275731 0.12058931 -0.2363233 0.05324831
-0.28903997 0.03490812 -0.08359457 -0.06648566 -0.056100614 0.25455937 -0.026919706 -0.25488305
0.060330737 0.035785403 -0.16174476 -0.12216082 -0.07003514 -0.10946867 0.1111308 0.0013350623
-0.032848377 0.15981318 -0.06854632 0.1349657 -0.27176353 -0.021821855 0.20414387 -0.13553523
-0.23131774 0.08973551 0.077874936 -0.18513386 -0.10470463 -0.53235906 -0.19264066 -0.016094618
-0.27665812 -0.5373425 0.016484383 -0.23136663 0.053032044 0.23631775 0.24149117 -0.17570326
-0.006421853 -0.043685693 -0.13579984 -0.3795121 -0.07957266 -0.52884036 -0.046512116 -0.10713168
0.022190738 -0.022953557 -0.42998642 0.05056883 0.5672024 -0.1396737 -0.37626368 -0.2187937
0.22424026 -0.025247134 0.06656495 0.12542124 -0.046180386 -0.08363986 -0.6395772 -0.34939182
0.07968724 -0.1174169 0.10246721 0.1829729 0.07323086 0.022154612 0.1232001 -0.09432955
-0.30434752 0.12951085 0.007548311 -0.028314024 0.032730833 0.19447818 0.13745975 0.13662364
0.20808321 0.053076543 0.0054361196 0.15999192 0.04316175 0.054697733 0.17819789 0.22034656
0.19562875 0.036055423 0.04649752 0.04390601 0.2125389 0.066212155 0.24489567 0.044209514
0.0009928531 -0.3664095 0.185755 -0.20266469 0.05612525 0.08655993 -0.061205193 0.11341881
0.01333271 0.0011181306 0.16660522 0.08748528 -0.046736166 0.031124877 0.089545056 -0.36214083
-0.03790925 0.18408827 0.24057361 -0.014705828 -0.14546849 0.04117515 0.14340824 -0.017928846
0.11839911 0.090889946 -0.1940102 0.105749406 0.0024667536 -0.12108714 -0.009062244 -0.09389224
0.13706566 0.23081414 0.17177166 0.020438751 -0.19093382 -0.19454066 0.08719856 0.030064175
0.110454015 0.08337611 0.12138199 0.07904821 -0.5986261 0.07314004 0.033121306 0.27568093
0.067911685 0.26294297 0.043307595 -0.0025257068 0.09727702 0.037664533 -0.11978079 0.023072597
0.060106385 0.1851487 0.030044379 -0.13312967 -0.25225896 0.09197586 0.058383744 0.22726029
-0.1678562 -0.07711329 0.11411729 0.08554899 0.14262977 -0.056271605 0.043064803 -0.16062906
0.2512714 -0.13296601 0.0867548 -0.025443219 0.17943408 0.12677884 0.34065974 0.008034407
0.09160683 0.24474537 0.033779163 0.037316605 -0.45117664 0.10744497 -0.034541868 0.1640683
0.25425935 -0.06683404 0.12866294 0.18229741 0.16150458 0.0486348 -0.11556834 0.0041714627

bias f4 [128]
00000000: fe85 763c 35fa a23d 565c 79bc 7383 a33b
00000010: 18fd d83c f163 933c f6c9 933d e687 d93c
00000020: d2cd f73d 5fa5 283e 9367 a3bc 4bff 033e
00000030: fe7d 41bd ab32 c7bc 1467 6c3d 1359 bd3d
00000040: 5c4e fa3d 5500 0cbd fca8 783d f84e 293d
00000050: 38fa 823d 48a8 cfbd 2fab 68bd 4118 383d
00000060: 5a1d cf3b 8f72 a8bd 8b52 8f3d 919e 30bd
00000070: d232 fbbd b0ce 183d 6692 a4bd 3483 843d
00000080: 9ab8 efbd d13c b5bd c5ca 26bc 037f a53c
00000090: 9fdf 62bc a3d3 dfbd 7b90 253e 9bfd bf3d
000000a0: 5bac 173e e4a7 2dbc 194c debb d836 513d
000000b0: 3a0b e73d 1078 603b d9ae 063d 8fa6 68be
000000c0: b841 a93c 5fa9 793d ddd2 603d ec9c 723d
000000d0: 44d8 08be 9cd1 263e 4150 79bc 6f0a 463d
000000e0: 3683 4d3d c2ad 163c cd69 ff3d 1798 f73c
000000f0: b898 d2bd e029 1cbd 15c7 c63d 431a f73d
00000100: f0de 26bd d3cb 98bd 13c4 6cbd 7bf0 c1bd
00000110: b6af 8bbd d2b3 463d 683c 053c 3689 0fbe
00000120: 074c 42bd 25bf e53d 440b e63c 6485 e93c
00000130: 2392 cf3c bc1c b63d 08b9 42be d369 d3bd
00000140: dbd2 d4bc 4493 353e 2c9b de3d 96ff b73c
00000150: fbde 383d a55d e43d b59e af3c 6c3d 863d
00000160: 3109 523c cb65 93bd 303a a8bd dc98 b23b
00000170: 933c 0dbd f58f efbd 9e1a 92bd 7c94 f9bd
00000180: 161f 0e3e b594 8ebd aed2 ab3d 8229 323d
00000190: a75e 1e3e 2061 f93d 6a1c 923c ba18 42bd
000001a0: 87d2 82bd 6f67 893d 7898 1cbd 2eae ab3c
000001b0: 8151 5fbd fffc 8e3c e8ab ae3c 4105 063e
000001c0: 0dcd a4bd 2375 103c ca24 41be a61b 293b
000001d0: e61c 973b c69b 24be cd4a 093c ac25 053e
000001e0: 69f8 3a3d 1d75 773d 9aa8 7ebd 39d4 1fbe
000001f0: 1018 81bd b125 803d 2f42 373d 7eeb acbd
0.015046595 0.079578795 -0.0152197685 0.004990035 0.026487872 0.017991992 0.07216255 0.02655406
0.12099804 0.16469334 -0.019946849 0.12890355 -0.047239296 -0.024316153 0.05771549 0.09245505
0.12221977 -0.034180004 0.06070803 0.041335076 0.06395382 -0.10139519 -0.05680388 0.044945005
0.0063206377 -0.08224975 0.06998166 -0.04311997 -0.122655526 0.037306488 -0.08035736 0.064703375
-0.11705132 -0.088494904 -0.01018018 0.020202165 -0.013847261 -0.109290384 0.16168396 0.09374543
0.14811842 -0.01059911 -0.006783974 0.051077694 0.11281438 0.003425125 0.03288159 -0.22719787
0.02066122 0.06095254 0.054888595 0.059231684 -0.13363749 0.16290897 -0.015216888 0.048349794
0.05017396 0.0091967005 0.12471352 0.03022389 -0.10283035 -0.038125873 0.09705941 0.12065556
-0.040739954 -0.074607514 -0.05780418 -0.09469696 -0.068206236 0.048511334 0.008132078 -0.14017186
-0.047435787 0.112180986 0.028081544 0.028505988 0.025338238 0.088921994 -0.19015896 -0.10322919
-0.02597945 0.17731959 0.108694404 0.02246074 0.045134526 0.11150674 0.021437982 0.06554684
0.012819574 -0.0719715 -0.082142234 0.005450351 -0.034481596 -0.116973795 -0.07133983 -0.12186524
0.13879046 -0.06961957 0.08389793 0.043496616 0.15465795 0.12176728 0.017835815 -0.047386862
-0.06387811 0.067091815 -0.038231343 0.020957079 -0.054521088 0.017454622 0.021322206 0.13087942
-0.08046923 0.00881699 -0.1886169 0.0025803833 0.0046115993 -0.16075048 0.00837965 0.13002652
0.04564706 0.060414422 -0.06217251 -0.156083 -0.06303418 0.06257189 0.044740852 -0.08443354

weight f4 [4, 128]
00000000: ccf4 7b3e f681 36be e257 1ebe 9ded 9e3d
00000010: c1f8 55bc 99b6 9abd b77c 99be fb2b 863d
00000020: c10f e43c 274c 30bd 206a cbbc 3678 cebd
00000030: b8b3 c8be 334c 7bbf 3a66 38bd 7938 893e
00000040: d1dc 413d f679 f8bd eaf1 f43c 3c85 2fbe
00000050: 8c79 ad3c 8f37 7cbe 25a6 443d 9a33 2c3e
00000060: 89cf 19bd 4878 e73b ce0f 473c 4416 9cbd
00000070: ca79 383d 9f3f c1bc 8121 b4bd fec6 08be
00000080: fa74 d53d 2390 9fbd 8100 9d3e a114 1c3e
00000090: b346 523c 4246 b6be 8a65 95bd 41fc da3e
000000a0: a75c 77be 5376 8cbd d25d 8dbe 32af 4fbe
000000b0: be8e 813d fd7b 333d d623 e43d 24c9 43be
000000c0: abd1 bdbc 6af7 44be f459 10bd e577 903e
000000d0: 70e4 5d3e ca17 0bbf 4b61 a5bd cddb 7bbd
000000e0: cb00 853d 38e8 19be 7097 f53e cee4 3c3f
000000f0: b192 dcbd b551 293d e4c6 ff3d 9d49 c9be
00000100: 2795 2f3d 2bb8 aa3e d544 583e a235 8a3d
00000110: 884f d9be 8358 90bd cd74 abbd 9829 993d
00000120: c66e eebd 5b0e 9e3d d670 b43e 95af d9bd
00000130: f0b4 22bc cf7a a2be e399 0f3e fe93 86be
00000140: 814f f23a 46ff 343e 902d 853d 47b4 90bd
00000150: b378 6f3e db63 a23e 4b6d c33e e366 dd3e
00000160: f93c 7ebe 7cd2 d6be c2ea 9ebd 6604 d2be
00000170: 90d2 253d 873e 82be 7b42 e7bd 732f 3f3e
00000180: d5f4 7cbe 4857 cbbd e247 ec3d fb48 073f
00000190: 6da5 943e 0575 a1bd 52bf a9bd e143 553c
000001a0: eafb 89bd df54 273e 3a3a 30bd f32f 593e
000001b0: a418 953e 61b5 583e c203 26be e757 0b3e
000001c0: 7dca b13c 74b7 fa3e f208 ef3e 8cc1 92be
000001d0: 7c90 1ebf ae3f 133e ef4c c5bd a0a5 8abe
000001e0: f249 a1bd dd08 b23e 1b2e 39bd 9290 0c3d
000001f0: e092 e43d 76ac 2fbd 1612 e23d bf65 89bd
00000200: cdc9 c53d f795 7dbe 908b 19bf dcf8 8a3e
00000210: 0e8b 19bf 2073 fb3c 8f1f 94be ba7e d2be
00000220: 5c07 efbe fbab b5be c500 403d c049 583e
00000230: 79ad 003e 6ac0 05bf 479e 543e 81f9 143f
00000240: 86a8 033f deb4 17be 7d04 cbbe 5814 31bf
00000250: 95e3 03be 3e72 433e 5421 3a3d 0b71 9a3d
00000260: 5b39 233e 2de3 25be 8305 c83e 5456 76bc
00000270: e953 fdbe 7f75 27bf ef1a b13c ca5a 9bbe
00000280: 5f09 e93d f80c e73c d5b6 f43e 2301 113f
00000290: effd 853d c4d9 6c3e e0a9 023d 5008 883e
000002a0: d7ce 84be 166d a7be 852a d33d 04f6 fc3e
000002b0: 8e1d 80be c097 dc3e ac70 643e 9b60 493f
000002c0: 5cce 273e 205d 85be af62 9a3a 0758 d43e
000002d0: 1c13 6e3f 5311 1a3f 9962 f03c cd7e d63c
000002e0: e4ea 303a 46b9 713e 1f5c 463f 6255 3a3e
000002f0: 38ba 063f 5d52 87bc 3b55 0dbe 837b 6abf
00000300: c02b 453e c667 fdbd 99fd 27bb 82d8 4e3e
00000310: 89da 03bf 390d 00bf 7c24 86be 3c5f 7e3e
00000320: dc2f 9fbe 163c 5c3e 9c7e 173f a821 15bf
00000330: 2a09 63bd 68df 8bbe 6aaa 163f 0c20 e6be
00000340: 9d81 43be b7f7 633e 5d7f fcbd 5396 ddbe
00000350: d53d 163e 81b3 a73e 76af 863d 95b6 533f
00000360: 55a2 b93e cd76 80bf e3a6 393d ebbd 59bf
00000370: a6ac aa3d 7a24 393d 24c5 c83e 64da d3bd
00000380: 5690 20bf 11f0 76bf d269 1bbf 63a7 8a3e
00000390: 7748 183d 9c7e 5f3f 230c c9bd 7e91 583e
000003a0: 7387 c73d 6fd3 fcbd ae54 09bd a33a bf3e
000003b0: ae96 88be 1d33 ccbe cf89 a13d fa24 483e
000003c0: e42b 493d 6c6d ca3e dfd0 ad3e 0742 18bf
000003d0: 57c6 aabe ce61 03bd ac01 91bf df5c b6be
000003e0: 069b 433e b160 ef3e c22e 70bc 2435 2b3f
000003f0: 399d 0bbe b006 91be 55ba 193d 8611 4ebd
0.24605101 -0.17823014 -0.15463212 0.07760165 -0.013059796 -0.07554359 -0.29977962 0.06551357
0.027839543 -0.043041375 -0.024830878 -0.10081522 -0.39199615 -0.98163146 -0.045019366 0.26800898
0.047329728 -0.12132637 0.02990051 -0.17140669 0.021176122 -0.24630569 0.04801001 0.1681656
-0.037551437 0.007063899 0.012149764 -0.07621434 0.045038022 -0.023589907 -0.08795453 -0.1335716
0.10422702 -0.07791164 0.30664447 0.15242244 0.012834239 -0.35600477 -0.07294758 0.4277058
-0.24156438 -0.06858506 -0.27610642 -0.20281675 0.06326054 0.043819416 0.11139648 -0.19119698
-0.023171267 -0.19235006 -0.035242036 0.28216472 0.21669173 -0.54333174 -0.08075198 -0.061488915
0.06494292 -0.1502999 0.479671 0.7378663 -0.10770167 0.041337688 0.12489107 -0.39313975
0.042866852 0.33343634 0.21120007 0.06748511 -0.4244349 -0.07048132 -0.08371887 0.074786365
-0.11642222 0.07717582 0.35242337 -0.10629193 -0.009930834 -0.3173432 0.14023547 -0.26284784
0.0018486829 0.17675504 0.06502831 -0.07065635 0.23385887 0.3171681 0.3816932 0.4324256
-0.24827947 -0.41957462 -0.0775962 -0.4101898 0.04048401 -0.2543833 -0.11291977 0.18670444
-0.24702771 -0.09928757 0.11537148 0.52845734 0.2903246 -0.07883648 -0.082884446 0.013016672
-0.06737502 0.1634097 -0.04302428 0.21209697 0.29120362 0.2116294 -0.16212371 0.13607751
0.021703 0.4896809 0.46686512 -0.2866329 -0.61939216 0.1437976 -0.096338145 -0.27079487
-0.07875432 0.34772387 -0.045209985 0.03431756 0.11160827 -0.04288908 0.11038606 -0.0670886
0.09657631 -0.24764238 -0.5997858 0.2714299 -0.59977806 0.030694544 -0.28930327 -0.4111231
-0.46685302 -0.35482773 0.046875734 0.21121883 0.12566175 -0.52246726 0.20763503 0.5819321
0.5142902 -0.14815089 -0.39651862 -0.6917167 -0.12879784 0.19086549 0.04544194 0.075410925
0.15939848 -0.16199942 0.39066705 -0.015035231 -0.4947808 -0.6541366 0.021619288 -0.30342704
0.113787405 0.028204426 0.4779574 0.5664236 0.065425746 0.23129946 0.031900287 0.26568842
-0.25939056 -0.32700413 0.10310844 0.49406445 -0.25022548 0.43084526 0.22308606 0.78663033
0.16387314 -0.2604761 0.0011778678 0.4147341 0.9299791 0.60182685 0.02934389 0.02618351
0.00067488686 0.23605832 0.77484316 0.18196633 0.526279 -0.016518766 -0.13802044 -0.91594714
0.1925497 -0.12373309 -0.0025633334 0.20199779 -0.51505333 -0.50020176 -0.2619971 0.24841017
-0.310912 0.21507296 0.59177566 -0.5825448 -0.05542866 -0.27318883 0.5885378 -0.44946325
-0.19092412 0.22262464 -0.1232898 -0.4327875 0.14672025 0.32754138 0.06576435 0.82700473
0.36256662 -1.0036255 0.04532517 -0.85055417 0.08333711 0.045200802 0.39212906 -0.10344389
-0.6272024 -0.9646006 -0.60708344 0.2708083 0.037178483 0.87302566 -0.09816768 0.21149251
0.09742632 -0.12345015 -0.033528022 0.37349424 -0.2667746 -0.39882746 0.07887613 0.19545355
0.049114123 0.39536607 0.33948418 -0.5947575 -0.33354446 -0.032075696 -1.1328635 -0.3561773
0.19102105 0.46753457 -0.014659585 0.6687796 -0.13634194 -0.28325415 0.037531216 -0.05030968

bias f4 [4]
00000000: efcc 4f3c 1d26 cc3c 915c 0a3d d87d 28bd
0.012683137 0.024920518 0.033779684 -0.04113564
