problem1/models/underway/success_whole_model_1767028683.pth (torch, 146613 bytes, 9 tensors)

weight f4 [128, 8]
0.1860449 -0.101445116 -0.50085187 -0.7251955 0.35865468 -0.16256426 0.047610696 0.21740629
-0.2668658 0.18397272 -0.41908067 0.81036437 0.1368338 -0.24508506 0.009757725 0.032509893
0.16613562 0.20428328 -0.3261973 0.47949138 0.11450705 0.5343472 0.5048132 0.32789215
-0.26383552 -0.3213645 -0.1916003 -0.632733 0.33531523 -0.029768517 -0.07822647 -0.09633422
-0.078543454 -0.10546268 0.07302394 0.2545831 0.18151869 0.5035606 0.51940817 0.20691662
0.034332775 0.4529891 -0.49913138 0.054071143 0.5382642 -0.34245715 -0.20551836 -0.13341898
0.5255351 0.4732335 -0.37569636 0.022451298 0.26818278 0.1073844 -0.27452263 0.065211035
0.102176994 -0.073349394 -0.13284558 0.07625342 -0.110971995 -0.73606575 0.055484924 0.29436886
0.08691054 -0.13683811 -0.13164832 -0.04706395 -0.26465297 -0.6111455 -0.58581567 0.25052732
-0.1951867 -0.4571398 0.14080003 -0.5575612 -0.0774505 -0.34816056 -0.59922683 0.045263015
0.47701952 -0.05979863 -0.2620942 -0.23059271 0.18822967 -0.31587783 -0.21954617 -0.28115967
0.012384761 0.47928864 0.25901762 0.76434577 -0.15551028 -0.1387416 -0.03719342 -0.39734948
-0.46696135 0.38341424 0.36816612 -0.24659371 -0.28547353 0.5275471 0.0003584556 -0.29462203
-0.07450489 -0.06093298 0.2968712 -0.29171184 0.06487726 0.35770658 0.28030393 -0.017397154
0.010315239 -0.3221836 -0.07117307 -0.7061898 -0.05092929 -0.33276793 0.23072805 -0.15933959
-0.11014573 -0.066368245 -0.051086426 1.0982898 0.26598185 -0.36776638 -0.25678965 0.5346624
0.18574502 0.38748887 0.3710363 1.4168212 0.28457257 -0.15962581 -0.12355065 -0.34538978
0.13918777 0.41142666 -0.41736966 -0.10420071 0.40124413 -0.17407548 -0.19691765 0.28921327
-0.3307838 0.3070595 -0.17033483 0.07936817 0.5900364 0.37520668 -0.48522672 -0.34790957
-0.01584791 -0.21101081 0.30984268 1.2997129 0.10587431 0.36718684 0.4425242 0.3030464
-0.32757849 -0.05659466 1.014581 0.735764 0.4976942 0.056366768 -0.16506855 0.45316792
0.19802281 -0.05303119 -0.09368736 -0.17177162 0.08014345 -0.6800037 -0.45592976 0.12263367
0.20190582 -0.18936661 0.20267846 -0.15234628 -0.22837591 -0.32803625 0.16438736 -0.08285846
0.06568943 0.47889757 0.2978716 0.13445927 -0.23054689 -0.5492182 -0.028482674 0.37802148
-0.058223244 0.05742193 -0.29094747 0.45722282 0.29988897 0.4175226 -0.2309742 -0.2697068
0.41782153 -0.023950838 0.4319265 -0.4285273 -0.5106469 0.18745276 0.05938739 -0.33260557
0.11787301 -0.33728984 0.13569042 -0.07555693 0.22654901 0.21559432 -0.11116975 0.09689391
0.32940304 0.4758286 -0.28604087 1.0079513 -0.16370536 -0.19369784 -0.33080143 -0.23456568
-0.14498377 -0.21714136 -0.21944734 0.13379198 0.010636602 0.5638663 -0.38939005 -0.07003929
-0.28519478 -0.09757014 -0.25614947 0.025799094 0.63650787 0.69070625 0.030503456 0.15334105
-0.37325707 0.25250125 -0.18658172 -0.3333795 0.6929883 -0.22177416 0.129459 -0.037466615
-0.23112974 -0.1949747 -0.23148051 -0.1547363 0.0054352074 0.56946766 -0.14559011 -0.14700988
00000000: 8e82 3e3e 75c2 cfbd d437 00bf 6aa6 39bf
00000010: 96a1 b73e 3f77 26be 6f03 433d c19f 5e3e
00000020: a2a2 88be 5863 3c3e be91 d6be 0a74 4f3f
00000030: 291e 0c3e 94f7 7abe ddde 1f3c 1829 053d
00000040: 751f 2a3e a32f 513e 5503 a7be e57f f53e
00000050: ac82 ea3d faca 083f 703b 013f 7be1 a73e
00000060: 7315 87be e389 a4be de32 44be cafa 21bf
00000070: 70ae ab3e 1bdd f3bc 3335 a0bd e04a c5bd
00000080: 64db a0bd d1fc d7bd 938d 953d b758 823e
00000090: 09e0 393e 59e9 003f eff7 043f f3e1 533e
000000a0: 86a0 0c3d 30ee e73e 268e ffbe b479 5d3d
000000b0: afcb 093f 8b56 afbe 6873 52be fc9e 08be
000000c0: 7889 063f a94b f23e 465b c0be c9eb b73c
000000d0: 414f 893e 5aec db3d 3b8e 8cbe 5d8d 853d
000000e0: 2c42 d13d 3538 96bd ac08 08be c12a 9c3d
000000f0: 4945 e3bd ce6e 3cbf 2944 633d 84b7 963e
00000100: 27fe b13d 4a1f 0cbe d1ce 06be 21c6 40bd
00000110: 9880 87be 0874 1cbf 04f8 15bf 1e45 803e
00000120: 06df 47be 3a0e eabe e22d 103e 55bc 0ebf
00000130: 5e9e 9ebd 1a42 b2be ee66 19bf b665 393d
00000140: e73b f43e 69ef 74bd 3631 86be 7f20 6cbe
00000150: 47bf 403e bdba a1be b6d0 60be 29f4 8fbe
00000160: 74e9 4a3c 5265 f53e f59d 843e 2aac 433f
00000170: 163e 1fbe 4712 0ebe 2158 18bd 6471 cbbe
00000180: 8f15 efbe df4e c43e 4580 bc3e 1083 7cbe
00000190: 9629 92be 540d 073f 19ef bb39 b3d8 96be
000001a0: 0596 98bd dc94 79bd 80ff 973e 415b 95be
000001b0: 5ede 843d 5125 b73e ff83 8f3e 7a84 8ebc
000001c0: 4001 293c 40f5 a4be 30c3 91bd dbc8 34bf
000001d0: 3b9b 50bd 8f60 aabe f943 6c3e eb29 23be
000001e0: 1694 e1bd 13ec 87bd 0040 51bd c394 8c3f
000001f0: c62e 883e e04b bcbe ef79 83be a3df 083f
00000200: f133 3e3e f164 c63e 78f8 bd3e 665a b53f
00000210: 7fb3 913e f374 23be 2008 fdbd eed6 b0be
00000220: 3d87 0e3e 84a6 d23e 7ab1 d5be 2f67 d5bd
00000230: df6f cd3e d840 32be c8a4 49be c313 943e
00000240: 7f5c a9be e736 9d3e 416c 2ebe c78b a23d
00000250: a00c 173f 171b c03e a36f f8be 3421 b2be
00000260: 7ad3 81bc 3813 58be b3a3 9e3e fe5c a63f
00000270: a1d4 d83d eaff bb3e 8892 e23e e628 9b3e
00000280: 5eb8 a7be cdcf 67bd cadd 813f 085b 3c3f
00000290: c6d1 fe3e d7e0 663d bb07 29be a005 e83e
000002a0: 7ec6 4a3e 3c37 59bd 29df bfbd e6e4 2fbe
000002b0: 4022 a43d b914 2ebf a06f e9be 5d27 fb3d
000002c0: 66c0 4e3e 52e9 41be f18a 4f3e aa00 1cbe
000002d0: 60db 69be 5ef4 a7be 2955 283e b2b1 a9bd
000002e0: 2e88 863d 1032 f53e a082 983e b1af 093e
000002f0: 7c14 6cbe 9099 0cbf 7f54 e9bc 088c c13e
00000300: 7f7b 6ebd 4233 6b3d 11f7 94be 1c19 ea3e
00000310: 0c8b 993e 86c5 d53e 8084 6cbe 0217 8abe
00000320: b4ec d53e 8c34 c4bc 7825 dd3e ee67 dbbe
00000330: c1b9 02bf 9ef3 3f3e 3140 733d 474b aabe
00000340: 6867 f13d 41b1 acbe 6ef2 0a3e 97bd 9abd
00000350: 77fc 673e c2c4 5c3e f7ac e3bd 5070 c63d
00000360: 84a7 a83e ce9f f33e f373 92be 8c04 813f
00000370: 61a2 27be ba58 46be ce5e a9be fc31 70be
00000380: a076 14be 4e5a 5ebe ceb6 60be c400 093e
00000390: 2445 2e3c 8b59 103f 225e c7be c270 8fbd
000003a0: 0d05 92be dbd2 c7bd 0626 83be 9f58 d33c
000003b0: 2ef2 223f 20d2 303f 62e2 f93c 7005 1d3e
000003c0: 8d1b bfbe d847 813e 470f 3fbe b8b0 aabe
000003d0: ae67 313f c418 63be e690 043e 9876 19bd
000003e0: 46ad 6cbe 73a7 47be 3a09 6dbe 3173 1ebe
000003f0: d319 b23b a2c8 113f 9315 15be c289 16be

bias f4 [128]
0.1351081 -0.26052412 0.2747816 0.42671895 0.017116359 0.27233192 0.15547058 0.110622935
0.2801885 -0.13044941 0.18269958 0.15217216 0.2455406 0.20869596 0.10394962 -0.21024342
-0.38881007 0.40087545 -0.16652156 -0.2302843 0.032643143 0.20175159 0.39433485 -0.23553778
-0.3350946 -0.23270413 0.5094711 0.0031086705 0.2010337 -0.2761033 0.37595734 0.16500421
-0.050949097 0.15836096 0.44507176 0.4088042 0.13136148 0.16653234 -0.19551484 0.22482792
0.053154424 -0.055635024 0.21827264 0.20564613 0.16242972 0.23564422 -0.021151267 0.31539202
0.20240763 -0.26612172 -0.16123612 0.41200948 -0.18949518 0.34052268 0.0033741258 0.40629706
0.04929415 0.18709798 0.30862457 0.2866648 0.12262575 0.26628214 0.39152166 0.15991457
0.35108516 0.32567266 0.310574 0.4445029 0.036193542 -0.006519785 0.09692471 0.017522255
-0.010483702 0.26228848 0.5109384 0.24006854 0.09250805 0.38547516 -0.35525945 0.115934394
0.45510197 0.3818768 0.11132601 0.50932777 0.37331942 0.1913696 -0.2668933 0.5192575
-0.08416395 0.39987132 0.25057396 0.04240806 0.53128076 0.32322717 0.20210248 0.21933924
0.3807134 0.32538313 0.33907965 -0.1588517 -0.40734 0.152075 0.20083605 0.29107383
0.07818182 0.06671353 0.0114130415 0.29940385 0.3105831 0.12396492 -0.096698746 0.47209048
0.035821915 -0.41405976 0.39547098 -0.1403366 0.22785482 0.06812236 0.25198904 0.51155424
0.26342374 0.12566169 -0.043900028 0.13243346 0.38378975 0.15031892 0.35963434 0.030481394
00000000: c759 0a3e 6b63 85be 2db0 8c3e e87a da3e
00000010: 9b37 8c3c 176f 8b3e ae33 1f3e 478e e23d
00000020: de74 8f3e 8894 05be 9915 3b3e 05d3 1b3e
00000030: ff6e 7b3e 65b4 553e 8ae3 d43d 0d4a 57be
00000040: 1d12 c7be 8c3f cd3e a184 2abe a6cf 6bbe
00000050: d1b4 053d f897 4e3e 42e6 c93e d130 71be
00000060: 8591 abbe fe49 6ebe b36c 023f d6ba 4b3b
00000070: c7db 4d3e 695d 8dbe 7b7d c03e ddf6 283e
00000080: 00b0 50bd 6029 223e 72e0 e33e c94e d13e
00000090: a083 063e 7487 2a3e 0b35 48be 4a39 663e
000000a0: 74b8 593d 8de1 63bd dd82 5f3e e694 523e
000000b0: fa53 263e b84c 713e 6c45 adbc 107b a13e
000000c0: f243 4f3e 1b41 88be 151b 25be e8f2 d23e
000000d0: 060b 42be fd58 ae3e 7020 5d3b 2b06 d03e
000000e0: aae8 493d 9d96 3f3e 0a04 9e3e bbc5 923e
000000f0: 3623 fb3d 2256 883e 8775 c83e a5c0 233e
00000100: 6fc1 b33e 91be a63e 8e03 9f3e e295 e33e
00000110: ae3f 143d eca3 d5bb 7680 c63d d58a 8f3c
00000120: d5c3 2bbc ad4a 863e dccc 023f 87d4 753e
00000130: dc74 bd3d 005d c53e 91e4 b5be 036f ed3d
00000140: 2003 e93e 5b85 c33e e4fe e33d 4e63 023f
00000150: b923 bf3e 64f6 433e 3da6 88be 0fee 043f
00000160: 265e acbd efbb cc3e 3b4b 803e 13b4 2d3d
00000170: 0402 083f 087e a53e f4f3 4e3e 779a 603e
00000180: deec c23e 9e98 a63e d99b ad3e 05aa 22be
00000190: de8e d0be 8cb9 1b3e f7a7 4d3e a107 953e
000001a0: ca1d a03d 1aa1 883d c4fd 3a3c 764b 993e
000001b0: c004 9f3e 52e1 fd3d fe09 c6bd d8b5 f13e
000001c0: 00ba 123d a4ff d3be 2c7b ca3e 66b4 0fbe
000001d0: c652 693e bc83 8b3d b504 813e 38f5 023f
000001e0: 7adf 863e 75ad 003e 84d0 33bd a39c 073e
000001f0: 1780 c43e 34ed 193e fe21 b83e 1eb4 f93c

weight f4 [128, 128]
0.39512962 0.8181221 -0.15512703 0.20482689 -1.0724719 0.12196462 0.23046705 0.0704459
0.06745742 -0.012807233 -0.06788206 0.1708466 -0.0313591 -1.5863727 -0.16911753 0.22002524
0.45119137 0.18602884 -0.14516167 -0.7455684 0.03265067 -0.06907335 -0.15975673 0.13804689
-0.15622312 -0.039389376 -0.64174986 0.19651225 -0.6211331 -0.42169738 0.006504539 -0.77963305
-0.4509807 -0.42115337 0.01538675 0.051667742 -0.09672988 0.0653687 -0.7131565 0.23873618
1.107234 -0.006216825 0.4163474 0.1379365 0.15462735 0.24211864 -0.379129 0.15528604
-0.22960834 -0.38030198 -0.009854351 -0.5910309 -0.108746715 -0.13332587 -0.56742775 -0.2041584
-0.70014536 -0.6742699 -0.04691511 0.1019618 -0.2338818 -0.18554176 -0.057192333 0.16372989
0.14427923 0.10164041 -0.44626397 0.51564693 -1.3405833 0.6379398 0.15315597 0.34738168
0.5424264 -0.3304354 0.0111689195 -0.30722758 -0.15177597 -0.2234262 -0.0015697746 -0.61605865
-0.1132331 -0.15870084 0.043464016 -0.71602464 -0.394087 -0.07818578 -0.22926581 0.072251305
-0.072450384 -0.59985083 -0.0030331514 -0.1961468 0.053418107 -0.23179272 -0.7826523 0.052135378
0.08500687 -0.016949523 -0.1877515 -0.45277524 0.22240399 0.3383497 -0.18674017 -0.4191865
1.1297898 0.0053354218 -0.28306442 0.25853997 0.6629901 0.023048718 -0.5426576 0.0044856034
-0.49806583 0.5119381 0.033675633 0.17573242 0.5958762 0.20100538 -0.5216656 0.14846681
-0.15350986 0.13170213 0.24491665 0.2774411 0.00025234424 0.38725135 -0.016649626 -0.0032494294
-0.28568098 -0.3309666 0.16184334 -0.27436638 0.21020652 -0.080193736 -0.21506783 0.25944355
0.16051601 0.5648017 0.047402542 0.30829585 -0.119570255 0.22271892 0.06626604 0.43916816
-0.09337214 -0.20726924 0.26196352 0.25606427 0.06946814 0.20595072 0.10126412 0.22944117
0.398111 0.47859418 0.11108204 -0.06118881 -0.05383406 -0.032378294 -0.12873243 0.05758553
0.060009286 0.039229896 -0.07686192 0.088875435 -0.07987617 -0.02012256 0.26205215 0.22604576
-0.52519107 0.17972854 0.10541607 0.19765887 0.029555824 0.14228804 0.24052861 0.180092
-0.093299344 0.23398373 0.19496964 0.17976521 0.2544147 0.04148591 0.15847825 0.13488269
-0.06820468 0.26451054 -0.0052528325 0.32650784 0.1281008 0.07699031 -0.04051913 -0.3048283
-0.10402522 0.05316839 0.13521907 -0.54394734 0.18080647 -0.29437315 0.4264813 0.29878953
-0.613686 0.008809739 -0.11061219 0.11890157 0.1650953 -0.12476572 0.3901963 0.22255461
-0.1048523 -0.09716162 0.011743647 0.18674618 0.12508023 0.008299536 0.46582285 -0.086599685
0.24974169 0.11523085 0.22146921 -0.20271206 0.0013491411 0.05944911 0.22752921 0.19493428
-0.0003986921 0.094640054 0.042713314 0.19542286 0.52948517 -0.31238627 0.23364039 0.09373586
-0.38153058 0.41018045 -0.3211232 0.0034378471 -0.10733281 0.13562797 0.11502804 -0.17068942
0.08385187 -0.6165557 0.046019662 0.11857324 -0.27639395 0.7144884 0.09208459 -0.10935313
0.16749935 0.27787995 -0.28479514 -0.36348245 0.09587351 -0.20536532 0.036746796 0.141365
00000000: 6e4e ca3e 7370 513f 9fd9 1ebe 24be 513e
00000010: c246 89bf 96c8 f93d 8eff 6b3e f145 903d
00000020: 1e27 8a3d 6ed5 51bc c005 8bbd 69f2 2e3e
00000030: 6672 00bd 430e cbbf 252d 2dbe 4c4e 613e
00000040: 8e02 e73e 587e 3e3e 43a5 14be 92dd 3ebf
00000050: b5bc 053d 5476 8dbd 4597 23be 2a5c 0d3e
00000060: f4f8 1fbe c156 21bd b849 24bf 823a 493e
00000070: 9402 1fbf b8e8 d7be 0724 d53b 0896 47bf
00000080: f1e6 e6be 6aa1 d7be b518 7c3c 8ea1 533d
00000090: 511a c6bd 06e0 853d 6d91 36bf 4277 743e
000000a0: d8b9 8d3f 82b6 cbbb 7d2b d53e 3a3f 0d3e
000000b0: a256 1e3e f3ed 773e 321d c2be 4e03 1f3e
000000c0: 731e 6bbe f1b6 c2be 2574 21bc cd4d 17bf
000000d0: 99b6 debd 9486 08be f242 11bf e60e 51be
000000e0: ba3c 33bf f49c 2cbf 0f2a 40bd 59d1 d03d
000000f0: b67e 6fbe a9fe 3dbe 8242 6abd cfa8 273e
00000100: efbd 133e d928 d03d b67c e4be 7001 043f
00000110: 3c98 abbf 0650 233f ebd4 1c3e 03dc b13e
00000120: 75dc 0a3f d42e a9be d8fd 363c ef4c 9dbe
00000130: 296b 1bbe d6c9 64be e5c0 cdba 05b6 1dbf
00000140: c1e6 e7bd 7982 22be 5307 323d 644d 37bf
00000150: c5c5 c9be de1f a0bd a8c4 6abe 7ef8 933d
00000160: de60 94bd d38f 19bf d6c7 46bb b5da 48be
00000170: f2cc 5a3d 125b 6dbe e75b 48bf e88b 553d
00000180: 1518 ae3d bad9 8abc ee41 40be 28d2 e7be
00000190: dfbd 633e 2c3c ad3e d138 3fbe 9d9f d6be
000001a0: f49c 903f c3d4 ae3b d2ed 90be 5a5f 843e
000001b0: b8b9 293f aad0 bc3c 9ceb 0abf f8fb 923b
000001c0: 7c02 ffbe 600e 033f 76ef 093d 33f3 333e
000001d0: 588b 183f 5bd4 4d3e e08b 05bf af07 183e
000001e0: b031 1dbe ecdc 063e 6ecb 7a3e c30c 8e3e
000001f0: 124d 8439 cf45 c63e cc64 88bc 61f4 54bb
00000200: c744 92be 7474 a9be 43ba 253e c079 8cbe
00000210: 6140 573e 9d3c a4bd be3a 5cbe c9d5 843e
00000220: 4f5e 243e d896 103f 2b29 423d f4d8 9d3e
00000230: 40e1 f4bd 6e10 643e 7db6 873d a6da e03e
00000240: e439 bfbd 633e 54be 1520 863e db1a 833e
00000250: 5045 8e3d bfe4 523e 9063 cf3d a0f2 6a3e
00000260: 34d5 cb3e 4c0a f53e fb7e e33d 1ea1 7abd
00000270: 1a81 5cbd 1a9f 04bd 6fd2 03be cede 6b3d
00000280: 4ccc 753d 87af 203d c869 9dbd 5304 b63d
00000290: 1e96 a3bd 11d8 a4bc b32b 863e 8a78 673e
000002a0: ec72 06bf c20a 383e 61e4 d73d 1667 4a3e
000002b0: 0e1f f23c f5b3 113e 224d 763e 0a6a 383e
000002c0: ba13 bfbd 6e99 6f3e 1fa6 473e 5f14 383e
000002d0: a542 823e 21ed 293d 1f48 223e b01e 0a3e
000002e0: e5ae 8bbd ed6d 873e f41f acbb 092c a73e
000002f0: db2c 033e 18ad 9d3d 63f7 25bd 7412 9cbe
00000300: 2d0b d5bd 19c7 593d de76 0a3e 2240 0bbf
00000310: 5525 393e 14b8 96be c25b da3e f1fa 983e
00000320: 871a 1dbf b956 103c a588 e2bd ab82 f33d
00000330: be0e 293e 2b85 ffbd cfc7 c73e 5be5 633e
00000340: cdbc d6bd acfc c6bd 6d68 403c 643a 3f3e
00000350: 0815 003e c7fa 073c 5580 ee3e 2d5b b1bd
00000360: 49bc 7f3e 27fe eb3d d3c8 623e c093 4fbe
00000370: aad5 b03a e980 733d 6bfd 683e da9c 473e
00000380: 8c07 d1b9 a5d2 c13d 28f4 2e3d ee1c 483e
00000390: 578c 073f 18f1 9fbe 6d3f 6f3e 96f8 bf3d
000003a0: fa57 c3be 2c03 d23e 436a a4be 814d 613b
000003b0: 4ed1 dbbd 0fe2 0a3e d293 eb3d 35c9 2ebe
000003c0: 87ba ab3d 98d6 1dbf 1d7f 3c3d 87d6 f23d
000003d0: 8283 8dbe b6e8 363f d896 bc3d 89f4 dfbd
000003e0: f384 2b3e 4846 8e3e abd0 91be 5f1a babe
000003f0: 5559 c43d 494b 52be cf83 163d fdc1 103e

bias f4 [128]
0.109500326 -0.062344622 0.114164285 0.28091186 0.15409736 -0.14127153 -0.047777172 -0.12808435
-0.11034789 -0.042314813 -0.100984335 0.101985164 -0.029299496 0.15088785 0.29094207 -0.055098694
-0.055584792 0.05523548 -0.12297482 -0.0437047 -0.012445411 0.10665116 0.08424159 -0.0006364784
-0.08152401 -0.09878173 -0.0050732144 0.12353716 -0.11354605 -0.00547683 -0.11763097 -0.020217212
-0.06579362 0.24756926 -0.06467233 -0.02933627 0.034142207 -0.013057565 0.08885847 0.15292677
0.0069827847 -0.08210128 -0.15086043 -0.0064860694 -0.15351906 -0.10837831 0.06787096 0.15804285
0.2484192 -0.07327416 0.055760335 -0.04893402 0.2160658 0.0072417655 -0.13109872 -0.0367996
-0.09537182 -0.021341208 -0.022432314 -0.05015664 -0.08260372 0.05402752 0.057234332 0.00015700921
0.06557752 -0.04158488 -0.11144222 -0.0683192 0.11936421 0.09854582 0.05442586 -0.013694665
0.0062578353 -0.019193623 -0.023027727 -0.034959357 0.1491523 -0.11360989 0.043477263 -0.06089975
0.16914989 -0.01116892 -0.052977417 -0.106292024 0.07133413 0.18656008 -0.13229816 -0.1713344
-0.031280983 0.020778118 -0.02415122 -0.03492206 0.07697223 0.16039091 -0.023125723 -0.023331353
0.13354693 -0.06799993 0.030928701 0.07803928 -0.10571979 -0.084641986 0.10860392 0.016494952
0.04314118 0.034940388 -0.03692888 0.23122522 -0.06388353 -0.012377286 0.12005443 -0.0021643885
-0.018168366 0.1740989 0.19814864 -0.07312481 0.18185364 -0.12693805 -0.0836311 0.23322342
0.14076698 0.012747487 -0.0007238169 -0.057123814 0.17862616 -0.10056125 -0.14330693 -0.06418953
00000000: b541 e03d 135d 7fbd f7ce e93d aed3 8f3e
00000010: b3cb 1d3e 7ca9 10be ffb1 43bd 8b28 03be
00000020: 13fe e1bd 4c52 2dbd e0d0 cebd 99dd d03d
00000030: 7f05 f0bc 5882 1a3e 5cf6 943e 2baf 61bd
00000040: e1ac 63bd 993e 623d 39da fbbd b303 33bd
00000050: d6e7 4bbc ec6b da3d db86 ac3d 58d9 26ba
00000060: 0ff6 a6bd 134e cabd 353d a6bb 0d01 fd3d
00000070: d58a e8bd fb76 b3bb 82e8 f0bd 919e a5bc
00000080: cebe 86bd cc82 7d3e ed72 84bd 9e52 f0bc
00000090: b3d8 0b3d 66ef 55bc 6efb b53d d698 1c3e
000000a0: d8cf e43b b724 a8bd 287b 1abe 1889 d4bb
000000b0: 1a34 1dbe 73f5 ddbd eeff 8a3d fcd5 213e
000000c0: 9a61 7e3e c310 96bd f364 643d 0a6f 48bd
000000d0: 5a40 5d3e 554c ed3b be3e 06be 2dbb 16bd
000000e0: 4d52 c3bd c2d3 aebc f9c3 b7bc 0d71 4dbd
000000f0: 242c a9bd f64b 5d3d 8c6e 6a3d d7a2 2439
00000100: 824d 863d e854 2abd d23b e4bd f0ea 8bbd
00000110: 3975 f43d 64d2 c93d a7ed 5e3d 975f 60bc
00000120: 870e cd3b f23b 9dbc a5a4 bcbc 8b31 0fbd
00000130: 61bb 183e 4dac e8bd 3715 323d 0472 79bd
00000140: a135 2d3e d9fd 36bc d9fe 58bd a2af d9bd
00000150: a117 923d 9b09 3f3e 2b79 07be 4972 2fbe
00000160: 7d20 00bd df36 aa3c c8d8 c5bc 6f0a 0fbd
00000170: 9ea3 9d3d 843d 243e 2872 bdbc 6521 bfbc
00000180: 87c0 083e 8c43 8bbd 305e fd3c 0fd3 9f3d
00000190: 9e83 d8bd c758 adbd bb6b de3d 6c20 873c
000001a0: ceb4 303d a71d 0f3d bd42 17bd 4ec6 6c3e
000001b0: 5ed5 82bd 1aca 4abc 19df f53d 6ad8 0dbb
000001c0: d3d5 94bc fb46 323e 7ae7 4a3e 76c2 95bd
000001d0: d737 3a3e 0cfc 01be c846 abbd 1fd2 6e3e
000001e0: 3825 103e d6da 503c 88be 3dba a9fa 69bd
000001f0: c7e9 363e 0ef3 cdbd 0dbf 12be cd75 83bd

weight f4 [1, 128]
1.4057598 -0.48203838 0.5127336 0.87187177 0.82148796 -0.46972334 -0.55897814 -0.4873864
-0.55208224 -0.43085596 -0.64089864 1.6756579 -0.4753431 0.76661724 0.7476721 -0.51125836
-0.4346289 0.7535615 -0.51499295 -0.50708526 -0.52813756 1.6173402 0.8805517 0.06159271
-0.69331855 -0.57223344 -0.74135524 0.8387051 -0.81375057 -0.51981384 -0.71876407 -0.514594
-0.53573066 0.80202144 -0.49412498 -0.5078246 1.534593 0.731529 0.78595614 0.81501335
0.7548767 -0.031999003 -0.5020996 0.90618885 -0.4277625 -0.4946551 0.5696776 1.0044036
0.7570582 -0.54578775 1.0043786 0.07749159 0.91265166 -0.53718483 -0.5555257 -0.65079767
-0.5182361 -0.5231136 -0.45227724 -0.7066562 -0.571466 0.430177 0.7905241 -0.41871607
0.80171317 -0.5021928 -0.37833986 -0.4952646 0.39386642 1.4181163 0.43559033 -0.7041982
-0.4957953 -0.59547865 -0.49275684 -0.45286182 0.70231724 -0.45320293 1.7153571 -0.5012526
0.40587693 -0.43913904 -0.7949274 -0.5805436 0.07981519 1.421557 -0.5765448 -0.42738166
-0.4992932 0.072612874 -0.6319366 -0.83576787 0.9006839 1.4113955 -0.41586295 -0.6355511
0.65062845 -0.5136381 1.3061126 0.839153 -0.52772564 -0.08642193 0.91456175 -0.55700004
0.806516 0.92731977 -0.020743538 0.8773464 -0.5237485 -0.50176656 -0.45525396 -0.6427537
-0.4367032 0.77826226 0.8897541 -0.5306758 0.8455387 -0.65367156 -0.48858485 0.72163033
0.9570807 -0.5466623 -0.44489253 -0.51597905 1.3448659 -0.44504046 -0.48086852 -0.0021577082
00000000: f0ef b33f bccd f6be 8242 033f fd32 5f3f
00000010: 094d 523f 947f f0be 3119 0fbf b68a f9be
00000020: 4355 0dbf 2799 dcbe ef11 24bf f57b d63f
00000030: 2c60 f3be 0741 443f 7067 3f3f d4e1 02bf
00000040: ae87 debe 68e9 403f 94d6 03bf 57d0 01bf
00000050: 0634 07bf 0105 cf3f d66b 613f a348 7c3d
00000060: 537d 31bf e47d 12bf 75c9 3dbf 61b5 563f
00000070: f551 50bf 8512 05bf ec00 38bf 6fbc 03bf
00000080: a525 09bf 4751 4d3f f3fd fcbe cb00 02bf
00000090: 8b6d c43f 7c45 3b3f 6c34 493f b7a4 503f
000000a0: 993f 413f 6311 03bd 9989 00bf fefb 673f
000000b0: b003 dbbe 6f43 fdbe 64d6 113f 4c90 803f
000000c0: 91ce 413f bfb8 0bbf 7a8f 803f e9b3 9e3d
000000d0: 8aa3 693f f284 09bf ef36 0ebf ad9a 26bf
000000e0: 1fab 04bf c6ea 05bf e290 e7be 6ce7 34bf
000000f0: 994b 12bf 2940 dc3e ca5f 4a3f f461 d6be
00000100: 133d 4d3f b58f 00bf c3b5 c1be 5293 fdbe
00000110: dca8 c93e d684 b53f b205 df3e 5546 34bf
00000120: e2d8 fdbe 4a71 18bf a04a fcbe 81dd e7be
00000130: 10cb 333f 370a e8be d290 db3f 1752 00bf
00000140: 1acf cf3e d5d6 e0be 5d80 4bbf 819e 14bf
00000150: 2576 a33d 94f5 b53f 7198 13bf c5d1 dabe
00000160: 5ca3 ffbe 0fb6 943d 99c6 21bf e2f4 55bf
00000170: 3893 663f 9ca8 b43f fdeb d4be 7ab3 22bf
00000180: 968f 263f c97d 03bf b32e a73f bbd2 563f
00000190: 0719 07bf fbfd b0bd b820 6a3f 8e97 0ebf
000001a0: d577 4e3f d464 6d3f 5aee a9bc c699 603f
000001b0: 6214 06bf c673 00bf 0c17 e9be 828b 24bf
000001c0: 9097 dfbe 323c 473f edc6 633f 5fda 07bf
000001d0: 3975 583f 0557 27bf cb27 fabe c4bc 383f
000001e0: 3e03 753f 0ff2 0bbf f4c8 e3be 3417 04bf
000001f0: 9124 ac3f 58dc e3be 6634 f6be 5668 0dbb

weight f4 [128, 128]
-0.04362065 0.24897757 0.04350843 0.035373684 -0.10051983 -0.029872498 -0.10369354 0.014752881
-0.107536815 0.16177472 -0.094920054 -0.059120484 0.07140472 0.07808197 -0.0376985 0.15693122
0.42494395 -0.0005727634 0.038778063 0.15696162 0.008425507 0.00430863 0.00072863454 0.038485013
0.1103652 -0.20999107 0.110099085 0.38591748 -0.079186685 -0.08481002 -0.033587467 0.025480164
0.03227416 0.09807502 -0.051634207 0.055175245 0.08968135 0.17329796 -0.16484751 -0.0754603
-0.13535479 0.10127452 -0.031006983 0.007523566 0.061533425 0.10351351 -0.008284526 0.036183793
0.055392325 -0.18624105 -0.03353788 0.094371505 0.14568721 -0.027581347 0.10009279 0.018873114
-0.070072144 0.18541501 0.024035495 0.25136653 -0.088179186 0.029198611 -0.08173023 0.059607167
0.117435366 0.05217713 -0.11039922 -0.030552637 -0.06929171 -0.082560346 0.07558067 -0.008985028
-0.05501956 0.016342666 -0.012215478 0.10953885 -0.01659824 0.09436486 0.09917977 -0.09686436
0.076716706 0.06654697 -0.052269254 0.1134177 0.014231787 -0.0035116037 0.080300234 0.11214786
0.0904197 -0.0006272842 -0.07597338 0.22317977 -0.060918722 0.031183306 0.022007177 0.056178685
-0.029007312 0.11145892 -0.06163226 -0.08692861 0.15652736 0.06894122 0.0543938 0.09124648
-0.1562413 0.09067915 0.17951044 0.109429285 0.030986905 0.027897388 -0.0075938944 0.017129809
0.09638879 0.44344026 -0.014123272 0.08470568 0.039290078 -0.075887516 0.070298776 -0.046779405
-0.003956765 0.16764775 0.1638459 0.0045595183 0.055689353 0.14773531 0.009919601 -0.07375446
-0.24641351 0.1358811 -0.00030426795 -0.093170546 -0.082186215 -0.19732723 -0.07398549 -0.023371277
-0.10136573 0.23645768 0.1305693 -0.24986975 0.10054917 -0.016829146 -0.16103141 0.045903638
-0.19036603 -0.12495345 -0.47599602 0.031412967 -0.18573578 -0.12854321 0.18893561 -0.0570125
-0.41508073 -0.2808802 0.18331517 -0.17638195 -0.25463074 -0.6290863 -0.1816291 -0.1439208
-0.3314923 -0.23341188 0.10812563 0.0557335 -0.4066353 0.0381069 -0.39239138 -0.08709289
-0.6507931 0.038761694 0.05542103 -0.026573952 0.03616958 0.05994392 -0.03453747 -0.10940716
-0.15441792 -0.5107488 -0.15228964 -0.0007562397 -0.179684 -0.011188188 -0.048612673 -0.028428076
0.048848383 0.0885258 -0.043607894 0.1663216 0.29725385 0.006050224 -0.012221928 0.14768639
0.09769724 0.029594684 0.09849256 0.30679232 -0.5317837 0.1881976 -0.17889221 -0.12307709
-0.22026466 0.088581815 0.15661184 -0.08076255 -0.3129626 0.045642894 -0.34137714 -0.19592
0.17856336 0.05466069 -0.11005471 0.196749 -0.060603496 0.008889251 -0.19797955 -0.011530439
-0.24062328 -0.06278119 -0.15300806 -0.33507156 0.08190014 -0.09676483 0.09945786 0.14859407
-0.046616673 0.03640321 0.0066845906 -0.73121846 0.117000654 -0.050387777 -0.08083551 0.11857779
0.012117424 -0.21607736 -0.14488065 -0.03330732 0.26645386 -0.4800771 -0.27318862 0.24795821
-0.08284947 -0.28619355 -0.023225417 0.11340577 0.2576861 -0.20784649 -0.10935121 0.16037701
0.040534124 -0.1268068 -0.08080536 0.24740122 0.12591764 0.34211078 0.051613953 -0.40074354
00000000: 91ab 32bd faf3 7e3e e535 323d ffe3 103d
00000010: 57dd cdbd 2bb7 f4bc 475d d4bd 11b6 713c
00000020: 433c dcbd 46a8 253e 7265 c2bd 5228 72bd
00000030: a33c 923d 71e9 9f3d be69 1abd 94b2 203e
00000040: 4192 d93e 8025 16ba bfd5 1e3d 8cba 203e
00000050: 230b 0a3c 682f 8d3b d601 3f3a 76a2 1d3d
00000060: 2607 e23d e607 57be a17b e13d fa96 c53e
00000070: a12c a2bd e0b0 adbd 0393 09bd c7bb d03c
00000080: e931 043d 8edb c83d 647e 53bd 70ff 613d
00000090: dbaa b73d 0575 313e c9cd 28be ee8a 9abd
000000a0: 729a 0abe 0469 cf3d 5b02 febc 3f88 f63b
000000b0: 790a 7c3d e4fe d33d d2bb 07bc 7535 143d
000000c0: 10e3 623d f9b5 3ebe 045f 09bd d945 c13d
000000d0: 072f 153e 47f2 e1bc 73fd cc3d ca9b 9a3c
000000e0: fc81 8fbd 6fdd 3d3e 16e6 c43c 1db3 803e
000000f0: 4a97 b4bd ed31 ef3c 2e62 a7bd a526 743d
00000100: f481 f03d b0b7 553d fc18 e2bd 8649 fabc
00000110: d0e8 8dbd 6615 a9bd 0aca 9a3d f035 13bc
00000120: 315c 61bd 0ee1 853c 6e23 48bc e855 e03d
00000130: 08f9 87bc 5d42 c13d c31e cb3d d260 c6bd
00000140: a61d 9d3d c749 883d 4918 56bd 8a47 e83d
00000150: 712c 693c ef22 66bb 7374 a43d c7ad e53d
00000160: f72d b93d 5470 24ba ee97 9bbd 3d89 643e
00000170: e985 79bd 2274 ff3c 6548 b43c 9f1b 663d
00000180: bea0 edbc 9344 e43d 1c72 7cbd a107 b2bd
00000190: b548 203e 0e31 8d3d 09cc 5e3d 6fdf ba3d
000001a0: b8fd 1fbe fdb5 b93d 96d1 373e 761c e03d
000001b0: 40d8 fd3c 1089 e43c 34d6 f8bb d053 8c3c
000001c0: 7c67 c53d 9a0a e33e 4c65 67bc 2c7a ad3d
000001d0: a2ee 203d ea6a 9bbd cef8 8f3d c39b 3fbd
000001e0: c0a7 81bb daab 2b3e 38c7 273e 0368 953b
000001f0: 851a 643d ed47 173e d285 223c 940c 97bd
00000200: d353 7cbe 6a24 0b3e 2786 9fb9 33d0 bebd
00000210: 3f51 a8bd 2610 4abe b485 97bd 1f75 bfbc
00000220: d698 cfbd f621 723e f5b3 053e dbdd 7fbe
00000230: b9ec cd3d 47dd 89bc 6be5 24be 7405 3c3d
00000240: 50ef 42be 98e7 ffbd c0b5 f3be e2aa 003d
00000250: 8531 3ebe d5a0 03be 5678 413e f085 69bd
00000260: 7685 d4be 88cf 8fbe f9b6 3b3e 789d 34be
00000270: f65e 82be cd0b 21bf fbfc 39be f95f 13be
00000280: 5cb9 a9be 8603 6fbe f870 dd3d cf48 643d
00000290: 8132 d0be fb15 1c3d 86e7 c8be c25d b2bd
000002a0: 609a 26bf 95c4 1e3d 2901 633d 9eb1 d9bc
000002b0: 8e26 143d c187 753d 2a77 0dbd dc10 e0bd
000002c0: bb1f 1ebe 6fc0 02bf d1f1 1bbe 633e 46ba
000002d0: 15ff 37be a94e 37bc 151e 47bd ffe1 e8bc
000002e0: 3e15 483d 044d b53d 319e 32bd 3650 2a3e
000002f0: a831 983e f540 c63b 7b3e 48bc 1a3b 173e
00000300: 7e15 c83d 8d70 f23c 78b6 c93d e213 9d3e
00000310: fa22 08bf dfb6 403e 852f 37be d70f fcbd
00000320: 0f8d 61be 626a b53d db5e 203e d666 a5bd
00000330: a23c a0be 0bf4 3a3d fcc8 aebe 419f 48be
00000340: 50d9 363e e3e3 5f3d 5d64 e1bd 9278 493e
00000350: 5f3b 78bd 39a4 113c 27bb 4abe 2bea 3cbc
00000360: f365 76be 6d93 80bd 25ae 1cbe 808e abbe
00000370: 43bb a73d a42c c6bd 90b0 cb3d 0b29 183e
00000380: 20f1 3ebd 881b 153d 690a db3b 2231 3bbf
00000390: 0a9e ef3d 6a63 4ebd 168d a5bd ead8 f23d
000003a0: 2988 463c 6243 5dbe 985b 14be 426d 08bd
000003b0: a46c 883e aacc f5be 61df 8bbe c2e8 7d3e
000003c0: fcac a9bd f687 92be 3b43 bebc 4941 e83d
000003d0: 6fef 833e b6d5 54be 87f3 dfbd df39 243e
000003e0: 1c07 263d a4d9 01be 487d a5bd bf56 7d3e
000003f0: 8ef0 003e 2529 af3e 2769 533d 422e cdbe

bias f4 [128]
0.032337092 0.097115085 -0.035898317 -0.19530545 0.18348181 0.16582228 -0.04134928 0.03558444
0.03264666 -0.038479958 -0.11553143 -0.0023501364 0.044356346 0.04404304 -0.075527884 0.16397487
0.020514743 -0.08286755 -0.10142817 0.072864756 -0.044330027 -0.08775935 0.02483307 0.06001603
-0.07205325 0.21376333 -0.035231452 0.03218045 0.104699835 0.0010638192 -0.017223801 0.13528843
0.022212194 0.10690415 0.11455113 0.040667932 0.05068884 -0.09552912 0.071802676 -0.036822695
-0.05921126 0.03524181 -0.0014697337 -0.08824792 0.07680328 0.12765361 -0.08393217 0.089444555
0.03588984 -0.021034557 0.07566455 -0.024429422 0.09980719 -0.0066045285 0.10476709 0.029247371
0.036512107 -0.17412353 0.06746543 0.12193012 -0.07359017 -0.0046650823 0.015546775 0.11907413
-0.08514196 0.04073499 0.09731679 0.0136767635 0.019181708 0.034892254 -0.14244509 -0.041179456
0.12922241 -0.038447134 0.11091936 0.01607797 0.037692137 0.15628557 -0.04425916 0.114176616
-0.088419095 0.002657396 0.068205245 -0.015769714 -0.0852089 -0.06442339 -0.060804322 -0.05320134
0.118196025 -0.0020563693 0.01338909 0.09088481 0.047980975 0.02746461 0.0040696366 -0.020472704
0.08288088 -0.008253733 0.029191568 0.07156823 -0.04059053 -0.025334872 0.052317988 -0.033200115
-0.0401759 0.0027777369 -0.06237044 0.18474358 -0.07340107 0.05132486 -0.0011497198 0.0307913
0.0191062 -0.1433553 -0.08883987 0.11979424 0.008156102 -0.07047856 -0.110391594 -0.11401548
0.062282942 -0.07274926 0.08014813 0.12571694 0.08578091 0.08674149 0.09292955 -0.0066898786
00000000: e673 043d 46e4 c63d 1d0a 13bd 27fe 47be
00000010: a8e2 3b3e 51cd 293e dd5d 29bd fdc0 113d
00000020: 81b8 053d 299d 1dbd be9b ecbd bf04 1abb
00000030: 00af 353d 7a66 343d 5dae 9abd 07e9 273e
00000040: 890e a83c 76b6 a9bd 93b9 cfbd 1e3a 953d
00000050: 6793 35bd 2dbb b3bd b96e cb3c 5ed3 753d
00000060: a890 93bd c6e4 5a3e db4e 10bd a6cf 033d
00000070: de6c d63d d96f 8b3a ee18 8dbc 0d89 0a3e
00000080: 59f6 b53c 90f0 da3d c899 ea3d 6b93 263d
00000090: 1a9f 4f3d c5a4 c3bd 480d 933d 65d3 16bd
000000a0: 8287 72bd b759 103d 14a4 c0ba 53bb b4bd
000000b0: 0a4b 9d3d a1b7 023e a1e4 abbd b52e b73d
000000c0: 3a01 133d aa50 acbc 04f6 9a3d 3620 c8bc
000000d0: b667 cc3d cd6a d8bb 2190 d63d 2f98 ef3c
000000e0: b88d 153d 704d 32be 512b 8a3d 80b6 f93d
000000f0: 71b6 96bd 8cdd 98bb e7b7 7e3c 23dd f33d
00000100: e85e aebd bcd9 263d 064e c73d 8114 603c
00000110: f522 9d3c 2eeb 0e3d 20dd 11be caab 28bd
00000120: e152 043e be7a 1dbd b029 e33d f2b5 833c
00000130: 1263 1a3d 5309 203e 1849 35bd 6ed5 e93d
00000140: 1215 b5bd b527 2e3b 31af 8b3d 7d2f 81bc
00000150: 0182 aebd 69f0 83bd f40d 79bd a6e9 59bd
00000160: c210 f23d 27c4 06bb ea5d 5b3c d121 ba3d
00000170: b387 443d 76fd e03c 965a 853b 5fb6 a7bc
00000180: 73bd a93d aa3a 07bc 2823 ef3c 5d92 923d
00000190: 4142 26bd 148b cfbc 634b 563d d8fc 07bd
000001a0: 7c8f 24bd b10a 363b 2678 7fbd 6c2d 3d3e
000001b0: 4d53 96bd 043a 523d 32b2 96ba 093e fc3c
000001c0: 9b84 9c3c bbcb 12be aef1 b5bd af56 f53d
000001d0: 2ca1 053c 1057 90bd fd14 e2bd f380 e9bd
000001e0: 661c 7f3d 90fd 94bd b424 a43d f1bb 003e
000001f0: e7ad af3d 86a5 b13d d951 be3d c536 dbbb

weight f4 [4, 128]
-0.018592903 -0.15003647 -0.08271049 0.33555922 -0.074953064 0.020177267 -0.046988342 0.14243011
0.028727701 0.26854062 -0.23013802 -0.018663364 0.040824577 -0.11604795 -0.017066538 -0.036093302
-0.3979607 0.13299097 -0.07916841 0.040113993 0.092117384 -0.114683285 -0.24531132 -0.21715157
0.032497086 0.12080399 0.31910598 -0.13332406 -0.16160825 -0.43876582 0.14610735 -0.089764886
0.2721555 -0.10205215 -0.49929076 0.05755356 0.10987377 0.35796097 -0.08689735 0.0966171
-0.074006885 0.06346389 -0.018295022 0.0043527097 0.07756048 0.11583944 0.29793513 -0.11410542
0.08229317 -0.0904961 0.15695034 0.054119907 -0.35312676 -0.5482336 -0.059766375 0.057071205
-0.061540816 0.24266306 -0.044598714 -0.061799265 0.46124318 -0.15116943 -0.109525435 -0.09507901
-0.6355773 -0.44863847 -0.15696761 0.034038488 0.03600602 -0.038341325 0.26265574 -0.6233813
-0.06927399 0.027771013 0.42589298 0.056177747 -0.1508214 -0.15493399 0.06899423 0.122455284
-0.17271668 -0.225821 -0.25274596 0.019432338 -0.09378916 -0.018272534 -0.34699747 -0.32079798
0.057924278 0.33978865 0.09170249 0.10389497 -0.087993525 -0.07122978 -0.24735555 -0.036581848
0.24817897 0.028915467 -0.3125391 0.15696141 -0.21768278 -0.11929764 0.26473966 -0.00020872723
-0.023230279 0.17436981 0.20210634 0.026533753 -0.15447241 0.21908766 -0.12504035 -0.036581513
0.05665323 -0.04039058 0.2032665 -0.14052261 0.0556687 -0.027336126 0.008936652 -0.04327843
-0.011009266 -0.123105 0.09880281 0.14104283 -0.15828489 -0.13823088 -0.06666998 -0.004701617
-0.09107745 -0.21414065 -0.35149992 -0.07351142 0.18906255 0.18791668 -0.07044052 0.33881372
0.3765054 0.23695217 -0.5975618 -0.058208145 -0.020171693 -0.28037453 0.23561145 0.3269577
0.37065843 -0.12877432 0.5422849 -0.08548964 -0.14704974 -0.6232738 -0.27994087 -0.04331484
-0.08738464 0.03575683 -0.029545173 -0.12035428 -0.6583119 0.27491137 0.21048474 0.28861526
0.5460624 -0.008749281 0.18492602 -0.053559184 -0.049704023 0.0028599643 -0.32179844 0.3892792
0.07161247 0.7335658 -0.14382738 0.046083856 0.20409597 -0.33409843 0.05128037 0.17473795
-0.08535198 -0.33175167 -0.13415836 -0.46716097 -0.109112725 0.6740267 0.08166909 0.34895408
0.29156935 0.06485477 0.5162984 -0.83655035 0.03729965 0.24968816 -0.5343107 -0.3143057
0.6973573 -0.6780113 -0.76679045 -0.42121804 -0.13486806 -0.54635704 0.24683172 0.79890347
-0.31457293 0.051318996 -0.15062495 0.47816306 0.2963902 0.21921058 -0.019401573 0.23014306
-0.44696498 -0.773712 -0.47870833 -0.1571878 -0.44744578 0.046366733 -0.7430701 -0.7991538
0.44095388 0.3153119 0.6342534 0.21167651 0.019452628 0.7416938 -0.511311 -0.32248372
0.50301164 0.051802836 -0.3907884 0.24872456 0.75640064 -0.54199505 -0.42689013 0.3368601
-0.20931596 0.48544225 0.17397408 0.22961663 0.6679505 0.26148832 0.22417258 -0.015093228
0.08110749 0.024867887 0.16084044 -0.491731 0.03632357 0.5306822 0.23216945 0.38484585
-0.062362995 0.24941193 0.6301699 0.05607128 0.06430734 -0.12461265 -0.1347611 0.05671686
00000000: 2550 98bc 29a3 19be 1e64 a9bd 6bce ab3e
00000010: fe80 99bd cc4a a53c d976 40bd 33d9 113e
00000020: 5b56 eb3c 287e 893e 4da9 6bbe e9e3 98bc
00000030: ac37 273d 8caa edbd 20cf 8bbc 92d6 13bd
00000040: 81c1 cbbe c92e 083e 0c23 a2bd 924e 243d
00000050: 0aa8 bc3d 12df eabd e432 7bbe fb5c 5ebe
00000060: aa1b 053d 1568 f73d dc61 a33e 1a86 08be
00000070: a27c 25be eaa5 e0be 2a9d 153e a7d6 b7bd
00000080: f757 8b3e b800 d1bd 0aa3 ffbe 48bd 6b3d
00000090: 8005 e13d a946 b73e 3df7 b1bd 30df c53d
000000a0: ec90 97bd 5bf9 813d 71df 95bc 2da1 8e3b
000000b0: 07d8 9e3d 3a3d ed3d f48a 983e 1ab0 e9bd
000000c0: 5289 a83d 0556 b9bd 97b7 203e d6ac 5d3d
000000d0: 08cd b4be 0a59 0cbf 96cd 74bd 7fc3 693d
000000e0: 3912 7cbd aa7c 783e 24ad 36bd 3a21 7dbd
000000f0: 1128 ec3e 29cc 1abe df4e e0bd c9b8 c2bd
00000100: 32b5 22bf f1b3 e5be 1ebc 20be f16b 0b3d
00000110: 0c7b 133d cb0b 1dbd d07a 863e eb95 1fbf
00000120: 86df 8dbd 0980 e33c a50e da3e a31a 663d
00000130: ed70 1abe 04a7 1ebe d94c 8d3d d6c9 fa3d
00000140: a4dc 30be 9f3d 67be eb67 81be 9130 9f3c
00000150: 8814 c0bd 48b0 95bc a7a9 b1be a23f a4be
00000160: 0242 6d3d c7f8 ad3e 84ce bb3d e3c6 d43d
00000170: f335 b4bd ebe0 91bd c64a 7dbe d9d6 15bd
00000180: a122 7e3e 21e0 ec3c 2005 a0be 7eba 203e
00000190: 3ce8 5ebe 5252 f4bd f58b 873e cadd 5ab9
000001a0: 6d4d bebc 008e 323e f7f4 4e3e 505d d93c
000001b0: 042e 1ebe 8458 603e 940a 00be 7fd6 15bd
000001c0: 380d 683d 9870 25bd 1825 503e 29e5 0fbe
000001d0: dd04 643d 03f0 dfbc 096b 123c b944 31bd
000001e0: 3560 34bc 791e fcbd 2159 ca3d 886d 103e
000001f0: 6f15 22be 658c 0dbe 458a 88bd 0610 9abb
00000200: d086 babd b047 5bbe ccf7 b3be 288d 96bd
00000210: 9d99 413e 3b6d 403e 1f43 90bd fe78 ad3e
00000220: 51c5 c03e 97a3 723e cff9 18bf aa6b 6ebd
00000230: 1b3f a5bc 408d 8fbe 2144 713e 0067 a73e
00000240: f1c6 bd3e 6add 03be 2fd3 0a3f 3115 afbd
00000250: 3594 16be df8e 1fbf 6954 8fbe e76a 31bd
00000260: b8f6 b2bd c175 123d b808 f2bc 4e7c f6bd
00000270: 2187 28bf 2fc1 8c3e 5089 573e 61c5 933e
00000280: bfca 0b3f 2559 0fbc 3f5d 3d3e e060 5bbd
00000290: 7296 4bbd 3d6e 3b3b c4c2 a4be 9a4f c73e
000002a0: 8fa9 923d f8ca 3b3f 7c47 13be 6dc2 3c3d
000002b0: 89fe 503e f30e abbe 5e0b 523d 81ee 323e
000002c0: 05cd aebd 5bdb a9be cf60 09be b92f efbe
000002d0: 7e76 dfbd 048d 2c3f 2042 a73d 1caa b23e
000002e0: 9448 953e 94d2 843d 222c 043f 2a28 56bf
000002f0: 85c7 183d 41ae 7f3e 96c8 08bf adec a0be
00000300: 0286 323f 2692 2dbf 614c 44bf e4a9 d7be
00000310: da1a 0abe 0ede 0bbf 74c1 7c3e f084 4c3f
00000320: b40f a1be de33 523d 6d3d 1abe cad1 f43e
00000330: 75c0 973e bd78 603e 0cf0 9ebc 9faa 6b3e
00000340: 98d8 e4be fd11 46bf 4219 f5be d7f5 20be
00000350: 9d17 e5be 0beb 3d3d d839 3ebf 5895 4cbf
00000360: b5c4 e13e 9070 a13e 6e5e 223f bac1 583e
00000370: 1e5b 9f3c a5df 3d3f 47e5 02bf 961c a5be
00000380: 5fc5 003f 362f 543d 6b15 c8be a7b1 7e3e
00000390: 79a3 413f 30c0 0abf 5891 dabe ed78 ac3e
000003a0: ec56 56be e38b f83e 4326 323e 9f20 6b3e
000003b0: cefe 2a3f cce1 853e 7f8d 653e 9649 77bc
000003c0: af1b a63d bdb7 cb3c 5bb3 243e 2ac4 fbbe
000003d0: 06c8 143d cada 073f d4bd 6d3e 840a c53e
000003e0: 5770 7fbd d765 7f3e d152 213f 00ab 653d
000003f0: 91b3 833d eb34 ffbd d0fe 09be f04f 683d

bias f4 [4]
-0.05288073 -0.06834731 0.045292072 -0.016314715
00000000: 7799 58bd adf9 8bbd 2e84 393d 70a6 85bc
