problem1/models/underway/success_whole_model_1766856896.pth (torch, 146613 bytes, 9 tensors)

weight f4 [128, 8]
00000000: 2c74 cf3e 2629 01be 9657 813e d8ee 39be
00000010: c52c 64be b4ed 1fbf 101e a93e e68b 6c3e
00000020: d74e e1bc 51de b53c 4f3c 993c 473f 63be
00000030: 118a 1d3e ad1a 0d3f 77c2 89be 938b cdbe
00000040: e4d2 80be 294d 783e 6dd5 923e b09c 413e
00000050: e0c1 32be 568d 84be e2ac 91be cbe6 bc3e
00000060: e8eb a5be b942 a13e 0353 963d 6707 2e3e
00000070: 2184 043f a497 1d3f 10d2 4fbf 3b87 2d3e
00000080: 3dde 02be 1945 153f 5898 45be 67a6 303f
00000090: 06a6 8b3e 1812 313e e9bf 543e 4dab a6bd
000000a0: 79a2 7ebc a40f b73e bf2b e83e ee16 d63e
000000b0: 95f0 bfbe c44c ae3e a4d9 b8be 854c 5abd
000000c0: a0cf d5be e6a8 663e 5811 89be b6f2 80bd
000000d0: f58a ec3e 306e 63be 4375 bd3e 3b4b 09be
000000e0: 428f bcbe c98a e3bd c86d 303d a058 99be
000000f0: 1855 81bf 2b01 793e f9ad 44bd 0b4a eabe
00000100: 8bf3 c43e 706a 3abf c4f9 d43d dd96 2dbf
00000110: 9c4b b7bd 8457 ffbe c8f7 c3be edb5 233d
00000120: 5c37 263e 5548 03bc ebb9 da3d ed4a fd3c
00000130: 030a ea3e 1bdc 303f 0f90 e93d 8689 373d
00000140: d69e 5ebe 862b 01c0 ef60 00be 1930 b8be
00000150: d564 0cbf 3fee ab3d 6f07 ca3c 71ff 1abf
00000160: a740 f23d 2ac5 32be 5dc5 953d cc3f 4cbe
00000170: 9ed7 12bf f245 05bf 35ff 5c3e 3be1 8a3e
00000180: 3489 503e 828c 63be 572f 8cbe 513a 433d
00000190: 3f95 263e 8c2f 15bf 48f1 ef3e f4d7 963e
000001a0: 57e8 b73d 8c79 5a3e aa76 a23e 6ae9 8d3e
000001b0: 6ec6 b1be 3c80 00bf 03fb acbc d98a e33e
000001c0: 4fcb babd 6d4c 09be 5ad1 c73e 3199 0a3e
000001d0: 4093 debe 5020 13bf 8d6a 8e3e 7b66 bf3e
000001e0: 1807 0c3e 2fd1 88be cb55 053f 7f19 8dbe
000001f0: f872 ffbe 124f 53be 0e5a ee3e 60d7 b83e
00000200: 840a 043e c361 e9be 3af5 babd c59c 0bbf
00000210: 08a2 65be 4156 b4be f577 b13e b9bc e53d
00000220: e105 63bc 25cd 8ebc e6b2 343f 7a6f 07bf
00000230: 2993 3b3f 3066 0fbe a4eb 06bf c84d 89be
00000240: e564 eabe 5676 72bd 4143 29bf bf38 08bf
00000250: ac8f b23e c950 9dbc b9a5 23bd 4766 c43d
00000260: 8217 99bc 1d58 a1bd caef 37be af7a 52be
00000270: 4d7e 6b3f 4f39 403e a520 503c 2982 593e
00000280: 635a 023e 86ee a03e 5ef1 07be f154 8abe
00000290: 071d ccbe ec3a 013f 57e1 b2be 9389 e2be
000002a0: e701 4bbe 4bda 923e d488 aebe 62b8 8fbe
000002b0: 4a86 5c3f a32e ff3e 64b4 bfbe b85a 33be
000002c0: 3572 e9bc 0a04 df3e ae36 56be bd5d 3e3e
000002d0: 0ac3 a33e 537c a43e 3254 b93e 8258 febe
000002e0: e1f0 8f3e be13 36bd d2b3 f8bd 177b 21be
000002f0: b6fa cdbd 1720 a0be 10ef 53bf 71d4 05bd
00000300: 3a0c b6be 55d0 223b e029 1bbe ad52 ab3d
00000310: 1f0c 123f 114a 4e3e 8668 3c3e e061 4e3e
00000320: 4c05 c7be 80c1 87bd b7de f2be 250f 983e
00000330: 2cb8 613d 2334 d23d c760 b13e d1f6 953d
00000340: a3bb 4ebe a63d bc3e e244 9fbe 9cf8 2f3e
00000350: 0128 9bbe f023 a33e 158c cf3d 74e8 3f3e
00000360: dbb7 893e ea55 d93e e6cb 29bf 1042 62be
00000370: b5f6 803e 1d43 c0be 2f6c de3d d57b 02bf
00000380: 2dd9 633e e2ff a6bd 6fe9 c83d 244d 85be
00000390: e73e d6be 694f c63e 38ab 303e f4f1 e1bd
000003a0: 820d 173e 5791 94be 6c61 443e 6cb0 823b
000003b0: e56c 15bf 2185 b5be c54e 323d 4c62 683e
000003c0: 7648 f13e f089 5dbe 9df8 343e 838d a9be
000003d0: 2199 f1be 1876 e2be 6f75 22bf 9f0f c5be
000003e0: f6e7 dcbd af9f 153f ab77 39be 332d 493e
000003f0: 0bbd f23e a04b a73e a58d 04bf a712 9abe
0.4051832 -0.12613353 0.25262135 -0.18157518 -0.22282703 -0.6247208 0.33030748 0.23100242
-0.027503414 0.022200735 0.018705515 -0.22192107 0.153847 0.5511883 -0.26906177 -0.4014555
-0.25160897 0.24248184 0.28678456 0.18907428 -0.1745677 -0.2588908 -0.28452212 0.3689483
-0.32406545 0.31496218 0.07340052 0.16995011 0.5176411 0.6155951 -0.81179905 0.16946118
-0.1278009 0.5830856 -0.19296396 0.6900391 0.27275103 0.17292058 0.20776333 -0.08138142
-0.015541666 0.3575412 0.45345876 0.4181437 -0.37488237 0.34042943 -0.36103547 -0.05329563
-0.41759968 0.22525367 -0.26771045 -0.062962934 0.46199766 -0.22210002 0.37003526 -0.13407604
-0.36828047 -0.111104555 0.043073446 -0.29950428 -1.0104094 0.24316852 -0.048017476 -0.45759615
0.3846706 -0.7281866 0.103992015 -0.67808324 -0.08949968 -0.49871457 -0.3827498 0.03996842
0.16232055 -0.008012851 0.10679992 0.030919516 0.45710763 0.69085854 0.1140443 0.044808887
-0.21740279 -2.0182815 -0.12536977 -0.35974196 -0.5484136 0.08395051 0.024661748 -0.6054602
0.11828738 -0.17458025 0.07313035 -0.19946212 -0.57360256 -0.52059853 0.21581729 0.27124962
0.20364839 -0.22221568 -0.27379867 0.047663037 0.1626787 -0.58275676 0.4686377 0.29461634
0.08979862 0.21335429 0.31731158 0.27717143 -0.34721702 -0.5019567 -0.021115785 0.4444187
-0.09120809 -0.1340806 0.3902691 0.13535 -0.43471718 -0.5747118 0.27815667 0.37382874
0.13674581 -0.26722094 0.52084035 -0.27558514 -0.49892402 -0.20635632 0.4655308 0.36101818
0.12894636 -0.455824 -0.091288045 -0.54536086 -0.22425091 -0.35222057 0.34661832 0.112176366
-0.013856382 -0.017431805 0.7058548 -0.52904475 0.73271424 -0.14003825 -0.5270331 -0.26817155
-0.457801 -0.059194885 -0.66118246 -0.5321159 0.34875238 -0.01920356 -0.039952967 0.0958982
-0.018687967 -0.078781344 -0.17962566 -0.20554613 0.91989595 0.18771861 0.012703096 0.21241058
0.12729792 0.3143198 -0.13275668 -0.2701793 -0.39865896 0.5048053 -0.34937546 -0.44245586
-0.19824944 0.2868217 -0.34088767 -0.2807036 0.8614241 0.49840268 -0.37442315 -0.17515075
-0.028496841 0.4355777 -0.20919296 0.18590446 0.3198474 0.32126102 0.36197048 -0.496769
0.28113464 -0.04445242 -0.12143673 -0.15769611 -0.10057585 -0.31274483 -0.82786655 -0.032673303
-0.35556203 0.0024843414 -0.15152693 0.083653785 0.57049745 0.20145442 0.18399248 0.20154524
-0.3887123 -0.06628704 -0.47435543 0.29699054 0.05510728 0.102638505 0.34644148 0.07322467
-0.20188765 0.36765784 -0.3110724 0.1718468 -0.30303958 0.31863356 0.101341404 0.18741018
0.26898083 0.4244836 -0.6632675 -0.22095513 0.25188223 -0.37551203 0.10860478 -0.509702
0.22250815 -0.081542745 0.09810149 -0.26035416 -0.41844866 0.3873246 0.17252815 -0.11032477
0.14751247 -0.29017136 0.19177788 0.0039883163 -0.58369285 -0.35453132 0.04353215 0.22693747
0.47125596 -0.2163465 0.17672963 -0.33115777 -0.4718714 -0.44230723 -0.6346044 -0.3848848
-0.107864305 0.5844678 -0.18112056 0.19646148 0.47409853 0.32674885 -0.5177863 -0.30092356

bias f4 [128]
00000000: fea7 c4be 339d 4f3e 6512 193e 2c68 af3c
00000010: 8d48 633e 45df e6be 19d8 023f 6bd2 d83e
00000020: 35bf 57be 8a51 e93a 6294 e13d 8cf6 f43b
00000030: 3379 893e e91a 353e a141 45be cfc5 c33e
00000040: 0cd1 573e db53 33bc be30 41be 8c50 853e
00000050: af4d c13e 30aa f13e aa63 0a3e 1b6e 393e
00000060: 917b 5b3e a8db 85be 4d63 143f e0ce dabd
00000070: 167f 003f abf2 803e 6c8f 3bbe 34ee a93d
00000080: eae0 803d 2463 d2bc 5d91 003f c337 9dbd
00000090: 6040 c43d fa2f 8cbe 51cf 033f 3fa4 cbbd
000000a0: a023 a73c b439 403e fef3 0cbf 59cc 92bd
000000b0: 6e4c 353c 138f a0be 4218 b4bd b812 ee3e
000000c0: 06ae 953e f078 133e 8f03 0f3e d02b 1c3e
000000d0: 9535 be3e d94f 093f 420d f8be fc2c 353e
000000e0: d643 01bf e26d 453d 31cb 6a3e 124d c63e
000000f0: 7726 cc3d 9280 113d e987 b63e e6ea b33d
00000100: a6ca 3e3e 41ad 953d 9b26 fabe 21de b83e
00000110: 28be ee3c f232 4b3d 66d6 203e c14c 7cbe
00000120: 42f9 933e 0b50 a6be 87d8 933e 2b61 453e
00000130: 6d2e e63b 8175 223e 86f6 e93e a560 fabd
00000140: a8fd f5bd 8e19 033f 855a 653e a45b 523e
00000150: d7b2 4dbe 2a74 eabd 47b3 6ebd e28d 233d
00000160: 63e9 2e3e 1980 8d3e 57b1 273c 814b 843e
00000170: cff8 083e aca2 2fbe a4e7 80be c1db b83e
00000180: f902 b13e a6ab f2bd a043 b83e 0ff1 a3be
00000190: e329 cd3e 0035 0c3f e4fe 7a3b 6af3 6fbd
000001a0: aece 023f 4768 cdbd 09ad da3e f3cb 2abe
000001b0: dbb2 65be e0f6 c63e ffab 6fbb 34b5 a3be
000001c0: 835a 153e 0b78 9b3e 8357 cd3e 5cce dd3e
000001d0: 55c2 9f3d fb7c e83c 664c 2e3d cea8 a7be
000001e0: cdb5 55bd 0ca7 2cbc 4fbe 7cbe 0237 783e
000001f0: 3410 a8be b544 aebe 4d5c c1bd 3da0 d0bd
-0.38409418 0.2027481 0.14948423 0.021411978 0.22195645 -0.45092216 0.5111099 0.42348036
-0.21069033 0.001780079 0.1101463 0.0074756797 0.2685028 0.17686047 -0.19263317 0.38236853
0.21075839 -0.010945286 -0.1886625 0.26038015 0.3775458 0.47200155 0.13514581 0.18108408
0.21433856 -0.26144147 0.5796402 -0.106839895 0.5019392 0.2518514 -0.1831643 0.08297387
0.06292899 -0.02568204 0.50221807 -0.07676651 0.09582591 -0.27380353 0.51488215 -0.09943437
0.02040273 0.18772012 -0.550598 -0.071678825 0.011065586 -0.31359157 -0.08793689 0.46498656
0.29234332 0.14401603 0.13966201 0.15251088 0.37150255 0.5363746 -0.48447615 0.17692941
-0.50494134 0.048200496 0.22929074 0.38730675 0.09968274 0.035523005 0.35650566 0.08785038
0.18631992 0.07308436 -0.4885758 0.3610697 0.029143408 0.049609132 0.15706787 -0.24638654
0.28901106 -0.32482943 0.28876135 0.19275348 0.0070245774 0.15865137 0.45695895 -0.12225465
-0.12011272 0.5121087 0.22397812 0.2054277 -0.20087753 -0.11447938 -0.05827644 0.039930232
0.17081217 0.27636793 0.010235152 0.25838855 0.13376163 -0.17151898 -0.25176728 0.3610516
0.3457258 -0.118491456 0.35989094 -0.3201985 0.4007102 0.5476837 0.00382989 -0.058581747
0.5109662 -0.10029655 0.4271014 -0.16679363 -0.22431509 0.38860226 -0.0036571024 -0.31974185
0.14585309 0.30365023 0.4010583 0.43321502 0.07800738 0.028379908 0.042553328 -0.32745975
-0.05217533 -0.010537874 -0.24681972 0.24239734 -0.32824862 -0.34036794 -0.09441433 -0.10186813

weight f4 [128, 128]
00000000: a1b9 103e 9c01 af3e 4d7e d03e 49b8 da3d
00000010: 9d88 ba3e f788 013e be2e a63c 4b91 d23d
00000020: 58ee 063f 2814 183e 8c49 a4be 9364 0f3e
00000030: 84d6 aa3d 4f5b 483e 2b16 953d 3963 48bd
00000040: 81e3 9f3d 4980 e3be cb59 c23e d316 8fbd
00000050: fdfe 57bd 8326 913d aaa8 ab3e ee33 763e
00000060: a7d5 d83d efb5 d23e b982 d7bb 91b4 9ebd
00000070: 40f8 1cbe b8f8 793e cb93 4f3f 95d0 803e
00000080: 7286 8b3e 0185 9c3e 86a8 96bc d2ec ecbd
00000090: a0d7 723e 463f 173f ff3c f73d 3bcf 8d3e
000000a0: 14f2 173e 4cf3 173e 83b0 dbbe de96 4fbe
000000b0: 46f5 8b3e 0c3d 893e ee35 0a3f 0409 23be
000000c0: 2e1a c8bd 18c0 9d3e 928c 063f b8f1 8a3e
000000d0: d0c0 3f3e b010 4abd a69a fa3e 6279 353e
000000e0: f829 9d3e 4735 953e d388 3d3e 6bad 8a3d
000000f0: 9feb 4cbf 6909 67bc e87f 823c 59f3 123e
00000100: 459b 803e 7285 2f3e 2dec 95bd d9ea 74bd
00000110: 0a8e 143e df4d 183e 1963 3b3e 7ffe 9c3e
00000120: f842 a6bc e1e0 2c3f f2eb e03d a239 623e
00000130: 8b98 0f3f 50e3 a1be 0ad6 d3bd 53df 0abe
00000140: 9993 ec3d 47cf 923d 219d 2f3e f437 6abe
00000150: 4fa7 ef3d e2b4 983e 1b51 633e de62 303e
00000160: 6d3f c7be b464 563c 6e43 333e 700a 23be
00000170: 7a21 5fbd c9ff 6d3e f355 ae3d d13f e83c
00000180: f906 e63c 8d89 143e 6fcb 9a3a 6063 4c3f
00000190: 3b3a a83e e83b 0bbd 94e6 babd 1b2c 9cbd
000001a0: 2ca1 ddbd f62b 59bf b19a d4bd 56c6 e53e
000001b0: 2864 263e f8ac f43d 99b6 863e 4227 88be
000001c0: ff5b fa3d 9275 fd3d f5b6 923d 7a56 b3bd
000001d0: fbd4 fabd eeac 43be 2a2e 43bd 7907 f63e
000001e0: 200d cbbe 3771 903d fedb a93e fc56 4f3d
000001f0: c537 4c3e df56 133f 6cb3 3d3f fa03 953e
00000200: 0c38 be3d 8f2e 39be dd7e da3d a888 29be
00000210: d587 edbd ec96 f83e 123f 2f3e f515 673d
00000220: faba d5bd f9bb 27be 5045 143f e5f0 383e
00000230: 83d2 903e fa5d 0e3e 9a23 e83d 209d 853e
00000240: fc12 a33e 7bd8 bd3d 5f08 debd c487 85be
00000250: 487f 86bd 92fd c3be a87d d73c c06d 85bd
00000260: 8af4 53be db5b 81bd e930 d13d 9db6 223e
00000270: d68c 5c3e 383e aa3d f150 0fbf bb33 753d
00000280: ed88 19bc 3abb 23be 2f09 093e 6d4f 403e
00000290: 264b 453e 8fd5 b4be 5349 e6be 4e3d cdbd
000002a0: 23d9 57bd 9eb9 f53c 6d71 273f c9fe 2a3e
000002b0: 6832 9dbd 92ee 423d c247 debe a3ad 9bbc
000002c0: b7e1 9cbd 4aad b53d cea7 33bd 6e79 a13c
000002d0: 98c1 003e c4f7 263e fc0b b7be b05e 963d
000002e0: f351 783d 182d 2f3d ce6e 48bb 18b6 edbe
000002f0: b936 803f 0488 913e 9196 143e f9d7 3dbe
00000300: 7722 803e 9caf 8abe 5fc8 df3d 5419 853e
00000310: d097 3a3e dca0 b7be 7bcf 613e 3322 b43d
00000320: f65f a93e 9ffe 74be 0ac3 a8be cdd0 f9be
00000330: 108d abbe 8ffc 953e 2c53 ec3d 4009 023f
00000340: ca0d c5bd 14de 9dbe bbec 4e3e 2684 483e
00000350: f42b 80bd 6047 9f3d 6e4d 43be bafd 5a3e
00000360: 3808 c03e 97b1 e53d c4e5 153e f072 023e
00000370: e21b 903e 2897 a3bd cc49 573e 41d9 373d
00000380: 7ef7 e73d 4f06 953e b7a0 373e 7356 4fbf
00000390: 6d2a 45be 7cc4 103e c205 323e 52b8 463e
000003a0: 937f 0d3e 703e 1b3f 8b4b 6b3e e8ba 563d
000003b0: b439 d73d 2f63 8d3d ff76 6b3d 20d8 493f
000003c0: e046 7b3e 4356 f53d 2ae8 af3d 50b1 603e
000003d0: afd6 5a3e 409e 7e3e 2b09 3e3e 63a4 d8be
000003e0: 3e65 193f aea2 283f c68a b83e 83ad 3b3e
000003f0: fe04 1fbe 7a20 d6be 1aca debe c1e0 a4be
0.14133312 0.34180915 0.4072136 0.10679681 0.36432353 0.12649904 0.02028596 0.10281619
0.52707434 0.14851439 -0.32087362 0.1400321 0.08341697 0.19566081 0.07279619 -0.04892275
0.07807065 -0.4443381 0.37959132 -0.06986775 -0.05273341 0.07087424 0.33527118 0.24043247
0.10587626 0.4115443 -0.0065768627 -0.07749284 -0.15329075 0.24411285 0.8108489 0.25159135
0.2725101 0.30570224 -0.018390905 -0.115686074 0.23715067 0.5908092 0.12072181 0.27697167
0.14838439 0.14838904 -0.42908105 -0.20272395 0.27335566 0.26804388 0.5398854 -0.15921408
-0.097706184 0.30810618 0.52558243 0.27137542 0.18725896 -0.04933232 0.48946112 0.17722085
0.30696082 0.2914221 0.18509226 0.06771358 -0.8004703 -0.014101365 0.015930131 0.14350642
0.2511846 0.17140749 -0.073204376 -0.05979428 0.14507309 0.14873455 0.18299522 0.30662915
-0.020295605 0.6753064 0.10982503 0.22092298 0.5609214 -0.31618738 -0.10343559 -0.13561754
0.115515895 0.07168441 0.17149784 -0.22872907 0.117018335 0.29825503 0.22198908 0.17225215
-0.38915578 0.013085533 0.17506191 -0.1592195 -0.054475285 0.23242106 0.08512487 0.028350743
0.028079497 0.14505596 0.0011809896 0.79839134 0.32856926 -0.033992678 -0.091260105 -0.076256
-0.10821757 -0.84832704 -0.103810675 0.4487788 0.16249144 0.11947054 0.26311186 -0.2659245
0.12224578 0.123759404 0.071638025 -0.087567285 -0.12247654 -0.19108936 -0.047651447 0.48052576
-0.3965845 0.07052844 0.33175653 0.050620064 0.1994315 0.5755443 0.741019 0.29104596
0.09288034 -0.18084167 0.106687285 -0.16556036 -0.115981735 0.48552644 0.17113903 0.056417424
-0.104360536 -0.163803 0.5791826 0.18060644 0.28285608 0.13903037 0.113349155 0.2609644
0.3185042 0.09269806 -0.108414404 -0.26080143 -0.06567246 -0.38279396 0.026305035 -0.06515074
-0.20698753 -0.06316348 0.10214407 0.15889974 0.215381 0.083126485 -0.5598288 0.059863787
-0.009371025 -0.1598939 0.1338241 0.18780299 0.19266948 -0.35319182 -0.44977817 -0.100214586
-0.052697312 0.029995736 0.6540745 0.16698755 -0.0767563 0.0475908 -0.43414122 -0.019003695
-0.07660239 0.08870943 -0.043861203 0.019711222 0.1257385 0.16305453 -0.3575133 0.07342279
0.060625028 0.042767614 -0.0030583623 -0.4642799 1.00167 0.28424084 0.14510562 -0.18539418
0.25026295 -0.27087104 0.1092689 0.25995886 0.18221974 -0.35864913 0.22051804 0.087955855
0.33081025 -0.23925255 -0.32961303 -0.48792115 -0.3350606 0.2929425 0.11539301 0.50795364
-0.09621771 -0.30833495 0.20207493 0.1958166 -0.062583834 0.077772856 -0.19072506 0.21385852
0.3750627 0.11215513 0.1463843 0.12739158 0.28146273 -0.07987815 0.21024245 0.044884924
0.11326502 0.29106376 0.17932402 -0.80991286 -0.19254465 0.14137453 0.17385009 0.1940625
0.13818197 0.6064215 0.22978036 0.05242434 0.10509053 0.069036834 0.05748653 0.78845406
0.24538755 0.11979344 0.08589204 0.2194264 0.21370958 0.24865055 0.18558185 -0.42312917
0.5992011 0.6587323 0.36043376 0.18327908 -0.15529248 -0.41821653 -0.43513566 -0.32202724

bias f4 [128]
00000000: 232d 00be ae77 083e 4a40 2abe 78bc 503e
00000010: b774 8d3e e87f 3a3e ece6 11bd 18a7 69bd
00000020: 975c 1ebc 2671 5e3e a544 b0bd f980 d23d
00000030: aaa3 1a3e 7b0a a9bd 0798 3f3c 5c6e 2abe
00000040: d0a5 b9bc 61c0 56be b278 00be a5b8 a33d
00000050: 5809 923e a6ec 96bd b9e1 73bd 6bdd efbd
00000060: caac 3d3d 6f38 5ebd 2d5a 55be 4c66 b6bc
00000070: d759 163d 2929 09bc 7a57 cdbd 7463 333e
00000080: c9de 8cbe 9cd3 a1bd 7995 233e d485 f4bd
00000090: a856 56be 823e 02bd f2f8 b4bd bd0b 29be
000000a0: bbc7 143e 299b 17be d09d 88bd afd2 31bd
000000b0: da99 9b3d 8f7f 0dbe da24 0bbe 1374 153e
000000c0: a6bd 5cbd 4b6c 283e a33a 45be fa8c d63d
000000d0: 9d2b 2abe 4c06 743e 9dfa dbbd 8965 29be
000000e0: e04c 933d 91c4 0b3e a296 0c3e b835 96bb
000000f0: 0a19 65be 0268 483e 49bd 85bd f811 443d
00000100: 50e2 8d3b 5957 473e 3da9 9abd ff1c 113e
00000110: d626 b0bd 9386 7bbd 4956 62bd 3c8f 61be
00000120: e6f4 30be 35d3 143e 993d b4bd 715e 753d
00000130: 3a2d 6d3d b42c 1d3e 05fa 693d 1798 e83d
00000140: 6c9b e7bd 313a 433e 1fcd 063e a001 54bd
00000150: 1924 a5bc a8a1 ab3d 429e bbbc 4f56 a43d
00000160: 5f1d 08bd 90dd 37be 668f c03c d71d 47be
00000170: 1779 2fbe f119 34be d408 173e e7d7 24bd
00000180: 783f a5bd a379 febc 64bc 583e ea30 b53c
00000190: 0d7f a0bd 5f96 b13d a4f0 093e 3c91 2fbe
000001a0: ee87 b6bd f038 41be 722f 3dbe 9adc 24be
000001b0: 168b 0f3e 8258 863e c412 96bc 7921 b2bd
000001c0: b892 6d3d 24cf 31be 81e6 9f3e ea7e 033e
000001d0: af03 51bd 9956 fcbd 2a9f b53e 1e02 803d
000001e0: aa18 e8bd a326 00be 0ff5 a4bd 7fbb a7bd
000001f0: 5a31 44bd bbfe 15be 8085 92bd 1246 15bd
-0.12517218 0.13326904 -0.16626087 0.20384395 0.2762811 0.18212855 -0.035620615 -0.05704412
-0.00966563 0.2172285 -0.08606843 0.10278506 0.15101495 -0.08253952 0.011693961 -0.16643661
-0.022662073 -0.20971824 -0.12546042 0.079942025 0.28522754 -0.07369356 -0.059541438 -0.11712154
0.046307363 -0.054253038 -0.2083518 -0.022265576 0.03670677 -0.00837163 -0.100264505 0.17518407
-0.27513722 -0.079016894 0.15974988 -0.11939588 -0.20931494 -0.031797893 -0.08836545 -0.16508384
0.14529316 -0.14805283 -0.06670725 -0.043413814 0.07597704 -0.13818191 -0.13588277 0.1459506
-0.0538918 0.1644756 -0.1926065 0.10476108 -0.166182 0.23830527 -0.1074116 -0.16542639
0.07192397 0.13649203 0.13729337 -0.0045840405 -0.22372833 0.19570926 -0.06530244 0.0478687
0.004329957 0.19466914 -0.07551811 0.14171217 -0.08601157 -0.061407637 -0.05525807 -0.22027296
-0.17280921 0.14533694 -0.08800811 0.05990452 0.05790446 0.15349084 0.057123203 0.11357134
-0.11308941 0.19065167 0.13164185 -0.051759362 -0.020158814 0.08380443 -0.022902612 0.080242746
-0.033231135 -0.17955613 0.023505878 -0.19444977 -0.17136036 -0.17588021 0.14749461 -0.040244963
-0.08068746 -0.03106386 0.21165615 0.02211805 -0.07836733 0.08671259 0.13470703 -0.17145246
-0.08912645 -0.18869376 -0.1847513 -0.16099778 0.14017901 0.262394 -0.018319495 -0.08697791
0.05800125 -0.17364174 0.31230548 0.12841383 -0.051028904 -0.12321205 0.35472995 0.06250404
-0.11332829 -0.12514739 -0.08054554 -0.08190059 -0.047898628 -0.14647953 -0.07154369 -0.036443777

weight f4 [1, 128]
00000000: 518d 02bf 5f35 473f a8b6 d3be eebc 823f
00000010: ef0b 3e3f a0ac 493f 138e 76bb 683f 10bf
00000020: 31f1 0abf b1ff 0b3f 6daa 0bbf eff0 5e3f
00000030: 5342 5b3f ab8f 00bf 79f8 ddbe 1ffc 50bf
00000040: 5743 98ba 6603 f7be 6cef dbbe 0954 373f
00000050: ad4b 383f 7e8b febe d776 febe 1808 febe
00000060: cd63 6a3f 1845 00bf 4b85 28bf 4112 513f
00000070: 16b1 5f3d d773 a83a f840 e8be 5c85 783f
00000080: e570 32bf 8c1c cfbc 64e6 4e3f cc5b 09bf
00000090: d190 f7be 3168 d6be 43cd e73c e066 00bf
000000a0: df09 353f ad92 04bf 1874 01bf ca46 a8bd
000000b0: 5dbe 37bd 6131 e5be f3e5 dcbe fde4 0c3f
000000c0: e637 07bf aa89 e83e 68b4 40bf 6993 8c3f
000000d0: d0fc fcbe 36ce 3b3f 315b f8be 696f 1abf
000000e0: dcf8 d53f cce8 483f 9d4a 7e3f 2951 c8be
000000f0: 4932 53bf f75d 823f fe86 09bf 52f2 443f
00000100: 1a9d 883f a5a7 083f 4c5a 0abf 49ea 883f
00000110: f15e 06bf 9583 d6be a3f2 cdbe bfbf 42bf
00000120: 37af ffbe 2c66 5c3f 7a5d 0dbf ac39 943f
00000130: adca 543f 606b 543f c75a ac3d b28d 713f
00000140: ba03 ecbe 390a 6e3f 5580 683f d8aa 01bf
00000150: 8695 0abf 91d7 3e3f c87f a53d 9ea0 483f
00000160: 3b7d 2dbc da17 e6be 890b 5c3f 2a3f 28bf
00000170: addb 05bf 023b 18bf c7b4 663f 1496 04bf
00000180: 9d15 06bf 2589 e5be e9a8 453f 0e0c 873f
00000190: 20d0 02bf 33ee 993f d99e 5b3f f20d 28bf
000001a0: 4413 113d 4f6c 4cbf 3d12 06bf e013 28bf
000001b0: b109 553f f2f2 683f b046 f9be 4e30 03bf
000001c0: 8685 733f 8e48 03bf cef1 343f a307 8a3f
000001d0: 30c8 0b3d fadc ecbe a284 3a3f 9fe8 4e3f
000001e0: c95c debe 04a9 16bf 6fe4 1dbf aa39 dbbe
000001f0: 9e33 cdbe a759 f7be 5e18 c338 7bd1 febe
-0.5099688 0.7781581 -0.41350293 1.0213907 0.7423696 0.7877903 -0.0037621304 -0.5634675
-0.5427428 0.5468703 -0.54556924 0.87086385 0.8564808 -0.5021922 -0.43353632 -0.81634706
-0.0011616749 -0.4824478 -0.42956102 0.716126 0.7199047 -0.497158 -0.49700043 -0.4961555
0.91558534 -0.5010543 -0.6582839 0.8166848 0.05461224 0.0012851906 -0.45362067 0.9707849
-0.69703513 -0.025282167 0.808203 -0.53655696 -0.48352674 -0.41876367 0.028296119 -0.50156975
0.7071819 -0.5178631 -0.5056777 -0.08216627 -0.04485928 -0.44764236 -0.43144187 0.5503691
-0.5281967 0.4541753 -0.7527528 1.0982486 -0.4941163 0.7336153 -0.48507074 -0.6032625
1.6716571 0.7848022 0.993326 -0.3912442 -0.82498604 1.0184926 -0.53721607 0.7693225
1.0672944 0.53380805 -0.5404403 1.0696498 -0.5248862 -0.41897264 -0.4022418 -0.7607383
-0.49938366 0.860934 -0.5522076 1.15801 0.8312176 0.8297634 0.08415752 0.94356835
-0.46096593 0.9298435 0.9082082 -0.5065131 -0.54134405 0.7454768 0.08081013 0.7837008
-0.010588939 -0.44940072 0.859551 -0.6572138 -0.52288324 -0.5946504 0.90119594 -0.517915
-0.5237673 -0.44831195 0.7721086 1.0550554 -0.51098824 1.2025818 0.8578926 -0.6564628
0.035418764 -0.79852766 -0.5237158 -0.65655327 0.8321791 0.90995705 -0.48686743 -0.5124558
0.95125616 -0.51282585 0.70681465 1.078358 0.03412646 -0.46262342 0.7285863 0.808237
-0.43430164 -0.5885165 -0.61676687 -0.42817432 -0.40078443 -0.48310587 9.302863e-05 -0.49769196

weight f4 [128, 128]
00000000: f80d 6b3e d90f a73d 3442 ce3d 77bf 91bc
00000010: 6e5f f5bb 2961 50be 7e1c 9dbc f950 a03c
00000020: aa32 54bd a05d 4cbe 809b f13d edb9 373e
00000030: 426e 523e 49b3 433d 6ea5 7a3d 6812 4d3d
00000040: 59c0 0f3e d980 51be 1de8 c3bd 9a1d ba3c
00000050: 0b85 3ebd 9239 0c3c 129d 0f3c e342 123e
00000060: b3d9 8f3d 9802 1d3e 58a9 7dbd 1489 4cbe
00000070: cc84 5ebc 0be7 a1bc ae53 d63d 8993 3f3e
00000080: c608 cebd 3248 243e c05e 753d 46aa 0abe
00000090: 8f00 f5bd 7775 663e 13bd 4b3d f6e2 b03d
000000a0: 19c4 f43d 0826 15bc 2bd9 e1bd dd7d 15bf
000000b0: c14a 243e b541 153d 0667 41bd f8f5 59be
000000c0: fd98 a8bd 8d51 083d b12d 4f3d bd09 a73e
000000d0: f04d ad3b 01e1 f2bd b477 0fbe 2a8f 353e
000000e0: f18a adbd d9f4 fd3d 4387 ca3c 687a 89be
000000f0: e934 80bf f779 a63d 7ebb ed3c ef1a 3dbe
00000100: 5a98 cfbc c6b9 83bc 5ec3 873b f388 c7bc
00000110: 432f 143e 6e00 03bf aa05 213e 5d5e 6abd
00000120: 89f4 a6bd 141d fd3d a8fc e6bd ba36 24be
00000130: 0465 cd3d 38ee f1bb d174 f13c 8382 c33c
00000140: b3f4 53be 17ef 2e3d fc98 473e c768 b33d
00000150: c83a 25bd 7585 523d 4ecb 1fbe f687 173e
00000160: 52ca 953e fec6 cbbd df82 a03d 101c 97bd
00000170: 417a ec3d bf37 803c 9417 cd3b 5c82 773e
00000180: 32c3 d6bd 5471 c83e 5f73 713b b694 4dbd
00000190: 255b 7e3c 58cd ea3c 29b7 f23c b69e 47bc
000001a0: bdcf 08bd 9e4f 573d 889e cc3d cddb 5cbb
000001b0: 7163 5b3d a63f 9a3d 26f9 0e3e 012e 10be
000001c0: b6f9 fa3d df69 403e 5b2e be3d 0c5b 893d
000001d0: 225f af3d cf2e 613d 9adb a8bd b42f a0bd
000001e0: 2ea4 05be be23 613d 5e2b b63e 708d 58bd
000001f0: 7de8 583e e6d3 cbbc a809 a7bd 29e4 2c3d
00000200: 8123 5ebc 4a15 243d 1a4a 13bf 2ac2 a93d
00000210: d524 2cbe 3514 b43d cb0b 6dbd dbbf 3ebd
00000220: 8bda b9be ba54 383e 0e16 d93d 2311 88bc
00000230: eeb5 f33c cb01 85be 8f55 a1bd 06b9 983d
00000240: 98d4 183e e9ad bf3e 3450 ab3b 7bee ae3d
00000250: 91e6 3ebd 7f1e 253d eb84 b3bd 3597 65be
00000260: 68a8 fd3a fbb3 63be 6d83 2cbd f859 68b8
00000270: 688d 4d3d 3306 b4ba 6cd9 2bbf 6dee 9cbd
00000280: 6189 c8bc ae5f bfbe 1577 013c ec63 943d
00000290: d8f9 d2be 441e fdbe 3d1e 403e b3c1 cabd
000002a0: 8e73 1a3e de80 873c 614b 6bbe d14a bf3b
000002b0: 9fa8 c1be 1bd6 f5bc 6c0f 2bbd 7cfc e1bd
000002c0: c007 76b9 d6d2 f8be 29a1 6abf 21c1 36be
000002d0: 1087 ea3c edb1 78bd 2d02 2cbe 83df 24be
000002e0: dd9e 583c 6479 80be e04a d23d 61dd 053d
000002f0: b5c7 9dbe 247e 6ebe 575c 493e c467 073e
00000300: d328 473d 3da4 323e 3486 aebe 65cf 693d
00000310: aa1f 793c a819 0dbe c380 813d 5972 01be
00000320: 0d20 f93b 15d9 74be 388a 273e e34e 0c3e
00000330: 6a5c 3bbe 658c 1b3e 429e 823d d242 00be
00000340: d195 f13d 6332 83bc a0d7 383d 7e35 953d
00000350: fb40 db3c dedc 56bf b4ab ce3d db35 b0be
00000360: 657b 8c3e 6a22 3f3c 584b 6ebe afa6 e53d
00000370: fe12 523e 5b30 463e 7ecf 1cbe bc3c bb3d
00000380: 8dc8 9f3d ce72 203e 09cc 223d 7c2b 5a3d
00000390: b608 b83d ef9d 09be cc34 2fbe 6c7e cd3d
000003a0: 2319 123e 1462 d1be 195a a93d 5272 393d
000003b0: d16f 793c ed8d 8bbd 5941 44bf e903 cabd
000003c0: 448e 88bc 8d50 ba3c 447e a33d 0608 433e
000003d0: a385 623e 55b8 d1bd 872f e2bd a022 00bf
000003e0: 24ec a7be 110b d9bd 8217 ec3d 731f 773d
000003f0: fe48 be3d 0b29 ccbe 87af a5bd cb1c e23c
0.22954547 0.081573196 0.10071221 -0.017791493 -0.0074881827 -0.20349564 -0.019178625 0.01956986
-0.05180613 -0.1995759 0.117972374 0.17942019 0.20549873 0.0477784 0.061192922 0.05006638
0.14038219 -0.20459308 -0.095657565 0.022719193 -0.0465136 0.008558648 0.008765476 0.14283328
0.07023945 0.1533302 -0.061929077 -0.19974166 -0.013581466 -0.01976349 0.104651794 0.18708624
-0.10060267 0.16043165 0.059904814 -0.13541517 -0.11962997 0.22505747 0.049740862 0.08637039
0.11951465 -0.009103306 -0.1102775 -0.5839518 0.16044141 0.036439616 -0.04721739 -0.21285236
-0.08232305 0.033280898 0.050580684 0.32624617 0.005288832 -0.11859322 -0.14010507 0.17730394
-0.084737666 0.124002166 0.024722701 -0.268512 -1.0016147 0.08128732 0.029020067 -0.18467306
-0.025341202 -0.016079795 0.0041431626 -0.024357295 0.14471154 -0.5117253 0.15724817 -0.057218898
-0.0815211 0.12359062 -0.11278659 -0.16036502 0.10029033 -0.007383134 0.029474648 0.023865944
-0.20698814 0.042708483 0.19491953 0.08760219 -0.04033926 0.051396806 -0.15604898 0.14797959
0.2925592 -0.09950064 0.07837462 -0.07378399 0.115467556 0.015651582 0.0062589142 0.24170822
-0.10486449 0.39148962 0.0036842448 -0.05019065 0.01552466 0.028662369 0.029628353 -0.012183836
-0.03340124 0.052566163 0.09991175 -0.0033700347 0.05356163 0.07531671 0.1396223 -0.14080049
0.1225466 0.18790387 0.09286185 0.06706819 0.08563067 0.05497628 -0.08245011 -0.07821599
-0.13050911 0.054965727 0.35579962 -0.05286926 0.21182437 -0.024881314 -0.08156139 0.042209778
-0.0135582695 0.040059365 -0.57534945 0.08288987 -0.16810925 0.08792917 -0.057872575 -0.046569686
-0.36299548 0.1800107 0.1059991 -0.016609734 0.029749837 -0.2597793 -0.07877647 0.074571654
0.14924848 0.3743737 0.005228067 0.0854158 -0.046606604 0.040312286 -0.087655865 -0.22420962
0.0019352557 -0.22236626 -0.042117525 -5.53969e-05 0.050183684 -0.0013734758 -0.67128634 -0.076626636
-0.02447957 -0.37377685 0.0079019265 0.07245621 -0.4120624 -0.49437153 0.18761535 -0.099002264
0.15083143 0.01654094 -0.22977974 0.005837776 -0.3782396 -0.03000932 -0.041762754 -0.11034486
-0.00023463275 -0.48598355 -0.9165216 -0.1784711 0.028628856 -0.06071656 -0.16797705 -0.16100888
0.01322147 -0.25092614 0.102681875 0.032681827 -0.30816427 -0.23290306 0.19664131 0.13223177
0.048622917 0.17445464 -0.34086764 0.057082552 0.015205303 -0.13779318 0.063233875 -0.12641276
0.0076026977 -0.23910935 0.1636132 0.13701968 -0.18296972 0.15190275 0.063778415 -0.1252549
0.11796153 -0.016015237 0.04512751 0.072855935 0.026764384 -0.83930767 0.100913435 -0.34416088
0.27437893 0.01166592 -0.23270929 0.11213433 0.20515057 0.19354384 -0.15313527 0.091424435
0.07801924 0.15668795 0.039745364 0.053264126 0.089860365 -0.13439153 -0.17109984 0.10033879
0.14267401 -0.4089514 0.08269138 0.04527504 0.015224413 -0.068141796 -0.7666221 -0.09864027
-0.0166694 0.022743488 0.07983068 0.1904603 0.22121291 -0.10240237 -0.11044221 -0.50052834
-0.32797348 -0.10597814 0.11527921 0.060332727 0.09291266 -0.39875063 -0.0809012 0.02760162

bias f4 [128]
00000000: 0df2 273d 9afd 263e 4155 013e 2e21 f33d
00000010: 9b83 32bd 72c7 7b3c 2928 6f3c a719 133e
00000020: 4fb4 2cbd e9b7 18bd ef20 1a3e cd90 f13d
00000030: b3b8 ef3c 938d e73d 60af 6dbd f7d2 133d
00000040: 7bb2 7bbd 1ff7 f23d 0dca aa3d bb29 05bd
00000050: 4b52 c5bc 9b42 053e aebd 883d b466 c43d
00000060: bb79 a2bd 7344 a9bc 4c26 a73c c61a 8b3d
00000070: a511 8dbd 7640 14be 47ac 18bc 52af f13d
00000080: 7495 bbbc c5c1 65bc 2c0d 0dbe ab31 57bd
00000090: 73db b03d 5af8 98bd 5fa9 0c3e 949a e23d
000000a0: 8de9 f2bc 131a 053d 4777 a53b fb16 73bd
000000b0: 6fb2 ee3d cc09 4a3d 0aa9 86bd 0824 cb3c
000000c0: 8a4e 013d c133 2a3e 88b5 ba3d b40b 30bd
000000d0: 45f9 b93c e0cd 58bd d061 433e 8270 0b3d
000000e0: 8a5d 99bd b3b9 af3d b7e2 82bd 0fa8 413d
000000f0: b286 d73d 3f7c 33bd d6d1 e4bc 23e5 913d
00000100: 8a34 893c 6789 893d 9cce 4c3c 6e01 b33d
00000110: f172 04be e83f 023e 9800 153d 0009 1ebc
00000120: 95de c83b 0373 a2bd 56d6 6c3d b3a3 173e
00000130: 8afd eb3d fd97 2c3d f3ca 7a3d 8e2a 763e
00000140: 051a d8bd bab8 6c3d e7e9 06bd 215b 903c
00000150: 756a d03d 1b7c 373d 3a19 2b3e 6c13 253e
00000160: 4b3b 983c 6913 1e3e ad37 2abb b6c5 01bd
00000170: 924b 85bd 814e 43bc 1755 a4bc b7d7 8f3d
00000180: a824 7e3d ad67 8dbb 58f7 f1bb 99d6 0abe
00000190: eb1c 163e 88bc d33d bfe0 07bd ce1a 263e
000001a0: 424f 383e d529 9fbd d3d1 473c 2db5 2f3d
000001b0: f3b7 f23d f15f 2c3b df52 193e baf9 8ebb
000001c0: 617a e03d c248 ffbd 0836 953c 735d ae3d
000001d0: 035b b1bc a4c4 75bd a1fa 3ebd 7a85 efbd
000001e0: 39e5 0abc dce5 a13d 9917 82bd cc45 af3d
000001f0: 85d3 573d 125c 5abc 85e1 3abd ce45 7bbd
0.041002322 0.16307679 0.12630178 0.11871563 -0.04358254 0.015367376 0.014596977 0.14365254
-0.042164143 -0.037284765 0.15051626 0.11795197 0.029262876 0.113063 -0.05802858 0.036089864
-0.06144951 0.11863541 0.083393194 -0.0325105 -0.024087092 0.13013689 0.066768035 0.095899016
-0.079333745 -0.020662522 0.020404004 0.06792216 -0.06888131 -0.14477715 -0.009318418 0.11801018
-0.022898413 -0.014023249 -0.13774556 -0.0525376 0.086356066 -0.07469244 0.13736485 0.1106464
-0.029652381 0.03249557 0.0050496194 -0.059348088 0.11655127 0.04932575 -0.065752104 0.024797454
0.03156904 0.16621305 0.091166556 -0.04297991 0.022701869 -0.052930713 0.19080281 0.034042843
-0.07488544 0.08580341 -0.06390899 0.047279414 0.10523738 -0.043819662 -0.027932089 0.071237825
0.016748685 0.067156605 0.012500431 0.08740507 -0.12934472 0.12719691 0.03637752 -0.0096457
0.0061300495 -0.07932093 0.057821594 0.1480854 0.11522968 0.042137135 0.061228704 0.24039671
-0.10551838 0.057793356 -0.03293791 0.017621579 0.10176555 0.04479609 0.16708842 0.1612069
0.01858296 0.15437092 -0.0025973127 -0.031682692 -0.065085545 -0.011920572 -0.020060105 0.07023566
0.062046677 -0.0043153376 -0.007384222 -0.13558425 0.14659469 0.10338694 -0.03317332 0.16221163
0.17998984 -0.07771651 0.012196022 0.042897392 0.11851492 0.0026302303 0.14973019 -0.004363266
0.10960842 -0.12465049 0.01821424 0.08513918 -0.021649843 -0.060001984 -0.046625737 -0.116953805
-0.0084775025 0.0790517 -0.06352157 0.085582346 0.052691955 -0.013327615 -0.04562523 -0.061345868

weight f4 [4, 128]
00000000: 76a5 543c 88e4 57bd 142f ccbc ecf8 b5bd
00000010: aaac afbc 2387 85be 7089 86be 3fec 10be
00000020: 5193 cebc 2306 c7bb 2afe 71be efe8 61be
00000030: 80bc d33c 48fe 4cbe 651c 71bd a668 88bc
00000040: 3da9 9f3d cb0a 093e 1158 21be 9f10 97bd
00000050: e451 1a3e 10c7 8fbe ecce a3be 21a2 e73d
00000060: 0040 1fbf 2a68 f0bd 9fa6 e3bd 2877 67be
00000070: 6b1d 9e3d ad44 683c 15f2 973d 28dc 3fbe
00000080: c4fb ed3c 1616 133e cb97 a13c e9ae 1cbe
00000090: 826f 9bbd d0fa 16bf 48da 75be 7f64 b7bc
000000a0: 9b05 4b3e 5f45 bbbb a731 a1bc b9b4 c13e
000000b0: 289b 5dbd d6de 4ebe a80e 3cbe 6afd 313e
000000c0: a980 28bd 20e9 be3d 7d17 413c b483 8a3e
000000d0: c4ec e7bd 3cc2 98b9 a07d dc3d ae4d ed3d
000000e0: f8a0 403e afa8 dfbd e7ea a1be 86ae a63e
000000f0: f7c6 3bbe 3f5e 8fbd 8bbd 533e 20dd a23e
00000100: 98b9 23bd 9995 82be 2e6f 99bd 21c6 2b3e
00000110: 2d4d 2e3d d56c c6be 0c98 923d b7ed f9bd
00000120: 01f5 24be 143d 333e a0da 07be c030 213e
00000130: e22f 1fbe 6576 eabd dc5e 1a3e e9ad 653e
00000140: 8292 083e f1e2 18bd dba7 c23e e162 c43e
00000150: 7039 abbe b307 603e 14e2 32be c839 413e
00000160: d234 233d f972 b9be 03b1 dfbd 11db f9bc
00000170: df74 a23d c469 e7be b993 933d d376 1dbe
00000180: 73ed 31bd a8cf 313e d13b bdbe f011 8cbe
00000190: a4ba a83e 5b1c 57be 70da ad3d cbd1 ac3c
000001a0: 6791 d63b 327a 50bd 2c46 e93b 4752 8abe
000001b0: 839d ce3c eb67 1ebe 7de2 e4bd 32f6 2bbe
000001c0: 7936 a33e 6759 34bd 7243 bfbe 10e6 03be
000001d0: 10df 1f3e c44d 2abe 400e 333e d942 113f
000001e0: bb97 1bbe f462 f4bd abe0 a3be 54e2 6ebc
000001f0: fe80 393e 67a3 12bf 6306 2f3e 58cd 56bc
00000200: 5772 92be 1e66 ddbe 8e59 9d3e a5f0 d23d
00000210: 7efb c83e 1756 cabe a2f0 b83e 6079 4bbd
00000220: ea0a 103e 9073 bd3e d5cc 193c 0560 c23e
00000230: 60bd 563d 3297 74be e335 28bf 75ee a2be
00000240: 822c b93e 0c09 163f 7d4c fabd 100f b9be
00000250: 61c7 a73e 1aed 7b3e 5ca3 c1be 8690 553e
00000260: 3a76 b13d 2100 9dbe 506d 75be 299f 02be
00000270: 7ce1 51be d0fc debd 8f20 a6bd 198d 0ebe
00000280: abd3 9cbd 10c0 75be 6af5 b43d 4823 283d
00000290: 5627 59be 022c 15bf fd63 08bd 9191 1c3c
000002a0: 0bed 9abc 2916 61bd 9d43 70be 2d3e 6bbe
000002b0: ed37 aabd 4bea bbbe 65c8 53be 1bd0 0a3e
000002c0: 19f3 a9be 728d c1be f9c2 91bd b628 a73e
000002d0: 53e4 a4be d6f1 8c3d 3576 a43e 789e 75bd
000002e0: 1e7d 943d bdfc 1e3d d0fb abbe 875d c63d
000002f0: b46d 7ebe 2c05 6abe 2036 a43d edfc e23e
00000300: 52b8 d73e 36f2 55bc 8806 afbd 3f81 f1bd
00000310: 3cbc 2f3f 0db0 c63e 3cdb 473d c564 ea3d
00000320: 9d71 a43e e4d5 b73e 8e99 1ebe b5e5 ad3e
00000330: 47a7 dbbe 5093 8cbe afea 573e 8603 bbbe
00000340: c3c4 93bc 0313 54be f325 e03e 8e40 d03e
00000350: 845a 20bf cc5e 9f3e 8e91 75bd 0d69 3a3f
00000360: c9d4 e93e 227a ecbe 7c04 45bc 6bff 7dba
00000370: 9c44 9fbd 7208 25bf 70d0 193f 439e 20be
00000380: 57a3 34bd 55e3 9f3e 5b0f b1be 102d e6be
00000390: 4c05 973d 6401 adbd 6db7 2abd bf0f ad3e
000003a0: 2495 e93e 7466 8fbb ddcf 8dbd 9400 b23e
000003b0: 19c1 10be 223f 1ebe cb8f 0fbe 6703 8bbd
000003c0: eb43 893e a899 e6bd 9578 c63e e1ea 8dbd
000003d0: 41d7 8a3e 090e a6bd ad52 933e 2341 143f
000003e0: 458f ecbd 0c49 75bd faf1 773e 6a2a 963e
000003f0: 8799 613d d1c1 13bf 2955 85be eb1a ce3c
0.012978902 -0.05270818 -0.024924792 -0.08885369 -0.021444637 -0.26079664 -0.26276731 -0.1415262
-0.02521673 -0.0060737296 -0.23632112 -0.22061513 0.02584672 -0.20018876 -0.05886497 -0.016651463
0.077959515 0.13383023 -0.15756251 -0.07376217 0.15070301 -0.2808156 -0.31993806 0.113102205
-0.6220703 -0.11738618 -0.11115765 -0.22604048 0.07720455 0.01417653 0.0741922 -0.18736327
0.029050715 0.14363894 0.0197257 -0.15301098 -0.07589628 -0.5897646 -0.24009049 -0.022386787
0.19826357 -0.005715057 -0.019676996 0.37833193 -0.054103047 -0.20202193 -0.18364966 0.17381826
-0.041138325 0.09321809 0.011785385 0.27053607 -0.11324456 -0.00029136415 0.107661486 0.11587082
0.18811405 -0.10920846 -0.3162453 0.32555026 -0.18337618 -0.07000398 0.20677774 0.3180933
-0.039971918 -0.2550476 -0.07491909 0.16774799 0.04255407 -0.38754907 0.07157907 -0.12203544
-0.16109087 0.17503768 -0.13266993 0.15741253 -0.1554561 -0.11448363 0.15075248 0.22429623
0.13337138 -0.037325803 0.3801869 0.3835669 -0.3344226 0.21877937 -0.17469054 0.18869698
0.039845295 -0.3622053 -0.10922434 -0.030499967 0.07932448 -0.4519788 0.0720591 -0.15377359
-0.04343934 0.17364371 -0.369597 -0.27357435 0.32954895 -0.2100691 0.08488929 0.02109613
0.006548095 -0.050897785 0.007118961 -0.27015898 0.025221592 -0.15469329 -0.11176012 -0.16793135
0.31877497 -0.044030573 -0.37356144 -0.1288073 0.15612435 -0.16631228 0.17485905 0.56742626
-0.151946 -0.11932936 -0.32007346 -0.014580328 0.18115613 -0.5728058 0.1709228 -0.013110481
-0.2860286 -0.43241972 0.30732387 0.102998056 0.39254373 -0.39518806 0.36121088 -0.0496763
0.14066663 0.3700223 0.009387215 0.37963882 0.052426696 -0.23885801 -0.65707225 -0.31822553
0.3616677 0.58607554 -0.1222162 -0.36144304 0.32769302 0.24602166 -0.37819946 0.20855913
0.08665128 -0.3066416 -0.2396748 -0.12756027 -0.20496172 -0.10888064 -0.08111679 -0.13921012
-0.0765756 -0.23999047 0.088358715 0.04104927 -0.21206412 -0.58270276 -0.03329848 0.00955619
-0.018911859 -0.054952774 -0.23463292 -0.22972937 -0.08311448 -0.3670219 -0.20681913 0.13555948
-0.3319328 -0.37803227 -0.07117266 0.32648247 -0.32205448 0.06882064 0.32121435 -0.05996558
0.07250427 0.03881525 -0.33590555 0.09685808 -0.24846536 -0.22853535 0.08018136 0.44333592
0.42132813 -0.013058236 -0.085461676 -0.1179223 0.686466 0.3880619 0.048793063 0.114450015
0.3211793 0.35905373 -0.15488264 0.33964315 -0.4290106 -0.2745614 0.21085618 -0.36526126
-0.01803816 -0.20710377 0.43778953 0.4067425 -0.62638116 0.31127012 -0.059953265 0.72816545
0.45670155 -0.4618693 -0.012024995 -0.00096892443 -0.07776758 -0.6446601 0.60083675 -0.15685372
-0.044101086 0.31228128 -0.34582028 -0.44956255 0.07374057 -0.08447531 -0.041678835 0.33801076
0.45621598 -0.004376227 -0.069244124 0.34766066 -0.14136161 -0.15453771 -0.14019696 -0.06787758
0.2680963 -0.11259776 0.38763872 -0.06929565 0.2711735 -0.08108146 0.28774014 0.5791189
-0.11550764 -0.059884116 0.242134 0.29329234 0.055078056 -0.57717615 -0.26041535 0.02515932

bias f4 [4]
00000000: 2952 503d 35ce 893c b977 403c 6b91 2abd
0.050859604 0.01682196 0.011747294 -0.041642588
