problem1/models/underway/success_whole_model_1766857657.pth (torch, 146613 bytes, 9 tensors)

weight f4 [128, 8]
0.004947605 -0.2774697 0.19585234 0.10441899 0.29090285 0.60181105 -0.25497857 -0.2755752
-0.03650341 0.010607296 -0.3078296 -0.20580806 0.4860888 -0.4129709 -0.06610368 -0.16370267
0.0053370716 0.22446889 0.10881025 0.0530013 -0.30009994 -0.45459256 -0.5620142 0.2348156
0.076084964 -0.29609442 -0.036770318 0.116643146 0.12586111 0.36196962 -0.13648552 -0.36552864
-0.08743677 0.085004255 -0.5684856 0.13416381 -0.06356941 -0.51402414 0.42375246 0.10102006
-0.0746956 0.29506433 -0.1515724 -0.18410502 0.3707349 0.58312345 0.073281094 -0.34775662
-0.28294685 -0.19680387 -0.22206841 -0.40179837 -0.24835777 0.30050367 0.3102895 -0.0016295911
0.21732634 0.4788593 0.028451696 0.17679511 0.44649392 0.55399287 -0.018377157 -0.36890495
-0.48030192 -0.7727894 -0.08436999 -0.48503625 -0.09342269 -0.03348412 0.13947383 -0.18822488
0.18221082 0.451702 -0.2076768 -0.1830377 0.11483951 -0.08735053 0.24321635 0.048909772
-0.50429964 0.30085927 -0.35718873 -0.03844945 0.27264422 0.4376922 -0.015709119 0.25656348
-0.015826609 0.27425283 -0.25522372 -0.43062073 0.46489057 -0.6565551 -0.048108205 -0.0022959902
0.10769584 0.36981606 0.19514571 -0.1513701 0.11979851 0.1542273 -0.31022733 0.118301325
0.08077351 -0.34760237 -0.13177344 -0.022833355 0.14849022 0.19815996 -0.11574391 -0.05844116
0.8742283 -0.28828487 0.6212634 -0.038140964 -0.09254239 0.07586415 -0.11288938 0.13925087
0.039498724 0.17771327 0.012089817 -0.28753558 -0.17265536 -0.42411235 0.2785216 -0.20037074
-0.7904037 -0.09942322 -0.69346905 -0.104863934 -0.14620693 0.11865226 0.07197545 0.2178526
0.58665603 -0.23095138 0.5309681 -0.015805567 0.018886922 -0.18448223 0.077530816 0.24647956
0.16186027 0.065902255 -0.2867319 0.4401715 -0.6443774 -0.037641667 0.06386106 0.29834378
0.5817199 -0.124130264 0.34992605 -0.24311675 -0.26088938 -0.34535962 -0.24909502 0.26614863
-0.025540449 0.038344443 -0.37460777 0.5663961 -1.2993015 0.5235104 -0.17202397 0.18144624
-0.2090448 -0.16290212 -0.10556865 -0.23738563 0.023931863 -0.36442447 0.4566733 0.15159246
0.034109227 -0.43626675 -0.4002615 -0.02339933 0.36492404 0.027014654 -0.07796346 0.053145435
-0.15384795 0.058817264 -0.11669258 -0.053210765 -0.40394014 -0.626402 -0.6003094 0.24189863
-0.32675943 -0.63898605 -0.09129944 -0.33036354 0.58245414 -0.1988771 -0.38205245 0.5138625
0.13090259 0.22289439 -0.04606009 -0.029901128 -0.30416793 -0.42886257 -0.3342108 0.30061358
0.3834292 -0.057886448 0.18720646 0.28429535 0.34434834 0.48463696 0.12742516 -0.30790856
-0.1527011 -0.16751008 0.13069144 0.076474234 -0.20562533 -0.15617813 -0.55442464 -0.06643775
-0.48968676 -0.32827985 -0.05180254 -0.6469956 -0.4475953 0.05938855 -0.40595472 0.16436793
-0.056687612 -0.36606136 -0.11492077 -0.4236389 0.14987011 0.48510686 -0.2491752 -0.4974198
-0.20410971 -0.320305 0.061354946 -0.10537542 0.5167054 0.34990653 0.3425369 0.2269253
-0.16903402 0.06316874 0.05337186 -0.038605575 0.50811064 0.6674768 0.28973436 0.20871034
00000000: 851f a23b 8210 8ebe 848d 483e a0d9 d53d
00000010: 38f1 943e 4a10 1a3f 8d8c 82be 3118 8dbe
00000020: 9a84 15bd 39ca 2d3c d79b 9dbe 59bf 52be
00000030: a2e0 f83e ec70 d3be 5e61 87bd aca1 27be
00000040: 9ae2 ae3b 2cdb 653e e9d7 de3d e417 593d
00000050: b3a6 99be 5bc0 e8be 2ae0 0fbf 8073 703e
00000060: 6fd2 9b3d b099 97be 799c 16bd 9ae2 ee3d
00000070: bce1 003e 1554 b93e dcc2 0bbe 9226 bbbe
00000080: 0d12 b3bd b616 ae3d 4688 11bf 3d62 093e
00000090: ae30 82bd 1697 03bf 15f6 d83e 9be3 ce3d
000000a0: 02fa 98bd ac12 973e cc35 1bbe 0786 3cbe
000000b0: f7d0 bd3e 9447 153f 6614 963d 280d b2be
000000c0: 69de 90be f486 49be e765 63be 84b8 cdbe
000000d0: 8051 7ebe 9edb 993e 44de 9e3e 0198 d5ba
000000e0: cc8a 5e3e 0c2d f53e 8813 e93c c709 353e
000000f0: da9a e43e 7ad2 0d3f b18b 96bc 1ce1 bcbe
00000100: 22ea f5be 87d5 45bf 2cca acbd ac56 f8be
00000110: 6554 bfbd a526 09bd 3ad2 0e3e 06be 40be
00000120: 7995 3a3e 7c45 e73e 3aa9 54be 3c6e 3bbe
00000130: fa30 eb3d d6e4 b2bd b50d 793e 9d55 483d
00000140: c819 01bf 3a0a 9a3e 71e1 b6be 2c7d 1dbd
00000150: 0698 8b3e 3119 e03e 69b0 80bc 4a5c 833e
00000160: cea6 81bc de6a 8c3e afac 82be 527a dcbe
00000170: 2306 ee3e ff13 28bf 1c0d 45bd 5378 16bb
00000180: a38f dc3d 8858 bd3e 47d4 473e c300 1bbe
00000190: ec58 f53d c3ed 1d3e 1ed6 9ebe f747 f23d
000001a0: 956c a53d f0f8 b1be 9eef 06be 040d bbbc
000001b0: d20d 183e 72ea 4a3e 250b edbd ff5f 6fbd
000001c0: 6dcd 5f3f 139a 93be 1e0b 1f3f b339 1cbd
000001d0: dd86 bdbd aa5e 9b3d 8c32 e7bd c897 0e3e
000001e0: 6ac9 213d 78fa 353e 5e14 463c dd37 93be
000001f0: 91cc 30be 4125 d9be 629a 8e3e fd2d 4dbe
00000200: e657 4abf 679e cbbd 3087 31bf e7c2 d6bd
00000210: 45b7 15be f5ff f23d dd67 933d c114 5f3e
00000220: 172f 163f 857e 6cbe 87ed 073f ad7a 81bc
00000230: bfb8 9a3c e9e8 3cbe 7ac8 9e3d 2365 7c3e
00000240: b3be 253e c3f7 863d 86ce 92be 295e e13e
00000250: ebf5 24bf 262e 1abd 96c9 823d 84c0 983e
00000260: 98eb 143f 0238 febd 8229 b33e 99f3 78be
00000270: 4b93 85be fad2 b0be c412 7fbe a244 883e
00000280: 343a d1bc 100f 1d3d 97cc bfbe 56ff 103f
00000290: 834f a6bf c704 063f 0d27 30be 0bcd 393e
000002a0: d70f 56be d0cf 26be 6034 d8bd 3815 73be
000002b0: c10c c43c d895 babe 15d1 e93e 0e3b 1b3e
000002c0: 1eb6 0b3d 5b5e dfbe 13ef ccbe f4af bfbc
000002d0: 53d7 ba3e d64d dd3c 4eab 9fbd 07af 593d
000002e0: 518a 1dbe 5fea 703d 85fc eebd 88f3 59bd
000002f0: 3ed1 cebe e25b 20bf e0ad 19bf 46b4 773e
00000300: 034d a7be 9794 23bf 33fb babd 6925 a9be
00000310: b71b 153f 70a6 4bbe 619c c3be 7e8c 033f
00000320: 540b 063e 6d3e 643e 81a9 3cbd 36f3 f4bc
00000330: e6bb 9bbe e093 dbbe ae1d abbe 06ea 993e
00000340: d550 c43e 571a 6dbd 0db3 3f3e 298f 913e
00000350: 6d4e b03e 5622 f83e be7b 023e 31a6 9dbe
00000360: ad5d 1cbe c387 2bbe fad3 053e 869e 9c3d
00000370: 728f 52be 29ed 1fbe c6ee 0dbf 8410 88bd
00000380: 39b8 fabe 4c14 a8be e62e 54bd 81a1 25bf
00000390: 362b e5be 6941 733d 4cd9 cfbe 1150 283e
000003a0: 4531 68bd 656c bbbe 955b ebbd 33e7 d8be
000003b0: 8d77 193e ed5f f83e c927 7fbe cfad febe
000003c0: 2302 51be 04ff a3be 534f 7b3d 11cf d7bd
000003d0: ce46 043f f326 b33e ff60 af3e 1b5f 683e
000003e0: 4117 2dbe 9d5e 813d 749c 5a3d e120 1ebd
000003f0: 8a13 023f c2df 2a3f 1058 943e 2ab8 553e

bias f4 [128]
0.2767803 0.23454972 0.033961635 0.4401277 0.48865166 -0.1778835 0.24730821 -0.061222553
0.031177318 0.17935775 -0.22529745 0.16716959 -0.12993398 0.46936938 0.065967314 0.044527087
-0.20051992 0.017751306 0.36283937 -0.19831012 -0.019422958 0.30591917 0.39123878 0.010462873
0.15715781 -0.040104024 0.006636975 0.32897916 0.4461341 0.0029905122 -0.053647507 0.08138832
0.4815515 -0.0077839377 0.028587535 0.4118626 0.021302478 0.025574835 0.039453916 0.027527306
0.24140456 0.35883334 0.05285904 0.040349036 0.25625658 0.29700357 -0.012455194 0.31108442
0.49254763 -0.20634823 0.11883391 0.28508568 -0.17289929 0.46109894 0.08439163 0.46201026
-0.13255607 -0.0337206 0.5015548 0.25125355 -0.14095576 0.02559772 0.07032599 -0.25058618
0.2192805 -0.06677005 0.04525015 -0.13817464 0.25430956 0.024306506 0.54162 0.0063941567
0.057173055 -0.11238612 -0.12872028 -0.050857 0.16110522 0.29828885 0.06635442 0.03689326
0.07988674 0.040131457 0.48101893 -0.025603874 -0.3414559 -0.010208751 0.15601933 0.12580298
-0.051189125 0.2606504 -0.11783645 -0.16234037 0.20031306 0.62332374 -0.07469353 0.17047255
0.40291396 0.3129689 0.29319113 0.014966284 0.14000718 0.055830624 0.5118837 0.28049046
0.062876314 -0.13001226 -0.062324993 -0.18018122 0.2695141 0.131415 -0.16288534 0.42841008
0.35965586 0.44108087 0.0080349 -0.16812599 0.11878381 0.059213474 -0.14496876 0.20866495
0.48817873 -0.069126345 0.08741721 -0.20775262 0.027563501 0.14573538 0.12623441 0.20236856
00000000: 26b6 8d3e cd2d 703e 5b1b 0b3d 6b58 e13e
00000010: 8d30 fa3e 1827 36be 5d3e 7d3e 80c4 7abd
00000020: 9367 ff3c 8fa9 373e 60b4 66be 812e 2b3e
00000030: 6a0d 05be 2f51 f03e df19 873d 0962 363d
00000040: 1855 4dbe 306b 913c 15c6 b93e cf11 4bbe
00000050: e51c 9fbc 70a1 9c3e 7350 c83e 786c 2b3c
00000060: faed 203e 1e44 24bd fb7a d93b f56f a83e
00000070: b06b e43e 78fc 433b 7dbd 5bbd ebae a63d
00000080: eb8d f63e 6710 ffbb 6830 ea3c a8df d23e
00000090: 8982 ae3c 5182 d13c 6e9a 213d f280 e13c
000000a0: c232 773e 01b9 b73e b982 583d 0845 253d
000000b0: 1034 833e da10 983e df10 4cbc 7546 9f3e
000000c0: 342f fc3e f34c 53be 315f f33d c0f6 913e
000000d0: 830c 31be 2915 ec3e 85d5 ac3d 9c8c ec3e
000000e0: c7bc 07be 9d1e 0abd e565 003f 4ea4 803e
000000f0: b556 10be 4fb2 d13c 1307 903d d54c 80be
00000100: 118b 603e bcbe 88bd 3958 393d a77d 0dbe
00000110: dd34 823e 701e c73c 9ca7 0a3f 1386 d13b
00000120: 4b2e 6a3d b22a e6bd 40cf 03be 6e4f 50bd
00000130: c4f8 243e 51b9 983e d3e4 873d 631d 173d
00000140: a99b a33d e260 243d 1d48 f63e 37bf d1bc
00000150: 4fd3 aebe 9b42 27bc 88c3 1f3e 7fd2 003e
00000160: b0ab 51bd f873 853e 3d54 f1bd 8e3c 26be
00000170: de1e 4d3e 2592 1f3f ecf8 98bd 5b90 2e3e
00000180: bd4a ce3e 763d a03e 261d 963e 2535 753c
00000190: 0b5e 0f3e a7ae 643d cf0a 033f 729c 8f3e
000001a0: 4cc5 803d ef21 05be 7e48 7fbd 6d81 38be
000001b0: c1fd 893e a791 063e 6acb 26be 9158 db3e
000001c0: d024 b83e 5ad5 e13e d0a4 033c 3829 2cbe
000001d0: ed44 f33d d489 723d b172 14be 44ac 553e
000001e0: 90f2 f93e 1d92 8dbd cb07 b33d 1abd 54be
000001f0: dacc e13c a83b 153e 9843 013e b439 4f3e

weight f4 [128, 128]
-0.06549665 -0.1298028 0.3444698 0.09118152 -0.12130257 0.4821974 -0.026784545 0.32450804
0.14877217 -0.13451174 0.18568261 -0.28163427 -0.12295018 0.044972554 0.29886514 0.023867784
0.3472967 0.22289693 -0.05695007 0.31113052 -0.2004618 0.16068196 0.06685949 0.39374763
0.07608634 0.14138047 0.3049643 0.27879927 -0.0108613605 -0.016320791 0.15171292 0.12326795
-0.12910663 0.10949713 0.010601538 0.030360637 0.19266832 0.18900868 0.06726085 -0.48580724
0.20925027 0.048719853 0.019425847 0.19180302 0.08051674 -0.17298095 0.067540064 0.089940265
0.014522128 0.1568489 0.25604048 0.0053483495 0.31362945 -0.07710041 0.038143195 -0.10787791
0.036844384 0.12886037 -0.013377162 -0.042440094 0.14002866 0.14748621 -0.050188012 -0.09620809
-0.024563491 -0.012713522 0.08399213 0.071280666 -0.2539977 0.14590825 -0.049930688 0.19792593
0.1380508 0.38100648 0.08277977 0.30660272 0.001917667 0.020105323 -0.016550692 0.021596383
-0.38845894 0.13416636 -0.06984641 0.08922378 0.26962572 -0.4328281 0.19552515 -0.031654388
-0.1048917 0.06888176 0.14641596 0.23809248 -0.2517951 -0.21542934 0.2312464 0.047901213
-0.11106142 -0.021794297 -0.16558439 0.46157557 0.052981954 0.30094808 -0.20028135 0.18633293
-0.36049908 0.22874002 0.14966299 -0.26493075 -0.124372326 0.05291468 0.29681548 0.034788154
-0.13773966 0.038448825 0.1156856 0.13347146 0.09620103 0.23173735 -0.13154745 -0.023936149
-0.0306382 -0.49071118 -0.039995763 0.33281708 -0.42145878 -0.037674926 -0.07839061 -0.084549494
-0.21819663 -0.024139443 0.22114281 0.08413392 0.21214803 0.26545027 0.037359335 -0.069148675
0.1153144 -0.07572719 0.030580033 -0.14157218 -0.25175098 0.15222101 0.41636133 0.14971901
0.17787428 0.18156585 0.060228053 0.31204176 -0.23059769 0.1600637 -0.0060176626 0.30304226
0.056366336 0.26617768 0.1333966 0.16128984 0.027852828 0.10500168 0.12297761 0.08416113
-0.04257679 0.16015534 0.14101839 0.11089429 0.050655268 -0.12742983 0.12374681 -0.6000381
-0.12699315 0.016010359 0.2825797 0.061113987 -0.0047208606 -0.11206893 0.07755609 0.097845934
0.11516953 0.17880562 0.13393292 -0.006418539 0.14120787 -0.0771722 0.097844765 -0.042202488
-0.06638215 0.02033676 0.18680288 0.0828923 0.07787389 0.30027708 0.27753675 0.08545125
0.03939384 -0.15839717 -0.017495506 0.13551325 -0.1509434 0.16828758 0.0090229055 0.04631667
0.11932722 0.31211996 0.14218387 0.3373662 0.14310001 0.055544335 0.12015514 0.11444671
-0.31645542 0.2632948 -0.0013166146 0.04843186 0.07110204 -0.24805026 0.09465262 0.09910676
-0.14215481 0.16504392 0.1785135 0.16788682 -0.289893 -0.13818447 0.06692322 0.11126181
0.0016783281 0.040573623 -0.08989095 0.46113208 -0.028587144 0.30988824 -0.045521665 0.0890371
-0.5001788 0.27394444 0.040557083 -0.3543951 0.02709221 0.052536488 0.08014574 -0.10045101
0.13289502 0.07681692 0.04577598 0.16107629 0.4310787 0.2713431 -0.076598845 0.021819752
0.07037789 -0.3954189 -0.09979005 0.038454268 -0.41327935 -0.01742922 0.1062029 -0.17194885
00000000: 1c23 86bd 06eb 04be 585e b03e 60bd ba3d
00000010: 7b6d f8bd 94e2 f63e 436b dbbc eb25 a63e
00000020: bb57 183e 72bd 09be 9523 3e3e 5e32 90be
00000030: 4ecd fbbd 2435 383d da04 993e 5f86 c33c
00000040: e0d0 b13e 183f 643e 7a44 69bd 804c 9f3e
00000050: dc45 4dbe d089 243e a1ed 883d 4a99 c93e
00000060: 28d3 9b3d 0bc6 103e 4824 9c3e c7be 8e3e
00000070: d9f3 31bc 2eb3 85bc a25a 1b3e e873 fc3d
00000080: 8734 04be 0840 e03d 13b2 2d3c dfb6 f83c
00000090: d84a 453e 7e8b 413e 0ec0 893d babb f8be
000000a0: b445 563e 788e 473d f422 9f3c 0368 443e
000000b0: f6e5 a43d eb21 31be 7252 8a3d 9a32 b83d
000000c0: 38ee 6d3c ff9c 203e bd17 833e 3541 af3b
000000d0: 0a94 a03e d2e6 9dbd 0a3c 1c3d 18ef dcbd
000000e0: 23ea 163d f9f3 033e e22b 5bbc aad5 2dbd
000000f0: ac63 0f3e a006 173e f291 4dbd bf08 c5bd
00000100: 6039 c9bc 604c 50bc 1104 ac3d 99fb 913d
00000110: fd0b 82be f968 153e 1f84 4cbd 18ad 4a3e
00000120: 305d 0d3e 4813 c33e 7188 a93d 08fb 9c3e
00000130: 3a5a fb3a ebb3 a43c 5195 87bc e6ea b03c
00000140: 17e4 c6be e862 093e a20b 8fbd f5ba b63d
00000150: 620c 8a3e a59b ddbe bf37 483e 08a8 01bd
00000160: 76d1 d6bd e111 8d3d 11ee 153e 84ce 733e
00000170: 4aeb 80be 8299 5cbe dbcb 6c3e 1034 443d
00000180: 2b74 e3bd f489 b2bc f48e 29be a253 ec3e
00000190: 9b03 593d de15 9a3e 8e16 4dbe 0fce 3e3e
000001a0: 5693 b8be d33a 6a3e 4141 193e 01a5 87be
000001b0: ebb6 febd 10bd 583d 33f8 973e 067e 0e3d
000001c0: a00b 0dbe 847c 1d3d 92ec ec3d beac 083e
000001d0: 0c05 c53d 8e4c 6d3e 60b4 06be be15 c4bc
000001e0: f6fc fabc 7f3e fbbe 99d2 23bd 0067 aa3e
000001f0: 72c9 d7be 0651 1abd 428b a0bd 4928 adbd
00000200: f06e 5fbe 15c0 c5bc 4373 623e 684e ac3d
00000210: 553d 593e 19e9 873e 1a06 193d d29d 8dbd
00000220: f529 ec3d db16 9bbd fa82 fa3c 4cf8 10be
00000230: 81e5 80be d3df 1b3e 502d d53e f14f 193e
00000240: ad24 363e 66ec 393e b1b1 763d f0c3 9f3e
00000250: cd21 6cbe bde7 233e d02f c5bb 5b28 9b3e
00000260: 63e0 663d 7148 883e 1e99 083e 2a29 253e
00000270: 9d2b e43c 1f0b d73d afdb fb3d ac5c ac3d
00000280: 0065 2ebd c3ff 233e 2067 103e 8c1c e33d
00000290: e67b 4f3d f77c 02be f86e fd3d 199c 19bf
000002a0: 7e0a 02be 2828 833c 49ae 903e a952 7a3d
000002b0: 73b1 9abb 6584 e5bd bad5 9e3d 7363 c83d
000002c0: 01de eb3d d218 373e b625 093e 9c52 d2bb
000002d0: cc98 103e 750c 9ebd d662 c83d 84dc 2cbd
000002e0: 5df3 87bd 4799 a63c 4149 3f3e 70c3 a93d
000002f0: 597c 9f3d ebbd 993e 4c19 8e3e 1101 af3d
00000300: 6f5b 213d de32 22be bc52 8fbc fcc3 0a3e
00000310: e890 1abe 9453 2c3e cfd4 133c 8cb6 3d3d
00000320: d461 f43d 30ce 9f3e a698 113e 43bb ac3e
00000330: cf88 123e 7582 633d e613 f63d 0963 ea3d
00000340: 7206 a2be 93ce 863e 4192 acba 7c60 463d
00000350: f29d 913d e300 7ebe 3cd9 c13d 7cf8 ca3d
00000360: 0891 11be 4601 293e 3ecc 363e 86ea 2b3e
00000370: db6c 94be 3b80 0dbe 0b0f 893d 3bdd e33d
00000380: 59fb db3a 8730 263d bf18 b8bd 8119 ec3e
00000390: 962f eabc aca9 9e3e ed74 3abd 1559 b63d
000003a0: b80b 00bf 7242 8c3e 2f1f 263d 4673 b5be
000003b0: 7bf0 dd3c 8030 573d 7323 a43d 42b9 cdbd
000003c0: a215 083e 3052 9d3d 987f 3b3d 2ff1 243e
000003d0: 59b6 dc3e 7ced 8a3e dbdf 9cbd 56bf b23c
000003e0: 4822 903d 5974 cabe ba5e ccbd 3982 1d3d
000003f0: 5a99 d3be b9c7 8ebc e880 d93d 5c13 30be

bias f4 [128]
-0.0828636 -0.03329708 0.03915686 0.050366584 0.028102618 0.19444853 0.13445935 0.09035429
0.047379415 -0.07976353 -0.062078938 0.20178926 -0.026360936 -0.14983422 -0.08695857 -0.00086787285
-0.10850021 -0.09520839 -0.0473117 0.009803915 0.23142046 0.111258626 0.1300276 0.009133567
0.080765545 0.20573212 0.102588385 -0.08247569 0.18704884 -0.07504842 0.1368473 -0.14125021
-0.06145351 -0.07906178 -0.018233119 -0.017353168 0.08434598 0.2289457 -0.060322348 -0.14173561
0.010811674 0.1906082 -0.03327725 0.13750741 -0.004333257 0.03175757 0.03189584 0.042497214
0.02205756 -0.025596589 0.043995377 -0.08760744 -0.12546328 -0.058891736 0.03711203 0.05103627
0.1644793 -0.062268034 -0.11478173 0.07533737 -0.025903199 0.021663835 -0.058936823 0.084813155
0.041132644 -0.0029256656 -0.16837408 0.017937025 0.093966305 0.04667461 -0.103537016 0.034095433
0.0044176127 0.052417055 -0.033685293 0.034659177 -0.10290384 0.018395912 -0.016317198 -0.086747035
-0.054887008 -0.031235015 0.25453347 -0.04814687 0.07601861 0.019522794 0.06423816 -0.15616064
-0.003818418 -0.10515345 0.05424842 0.047406927 0.092533045 -0.08117619 0.00927204 0.1260302
0.010298115 0.13428509 -0.0764354 0.042748246 -0.13102823 -0.0379556 -0.13024557 -0.022765774
0.09619778 0.025379369 0.1375898 -0.02727598 -0.088334925 0.04976655 0.0044178437 0.071638435
-0.14527208 0.040985264 -0.041162513 0.119467005 -0.15997241 -0.048372507 0.07596657 0.075725816
-0.114268474 -0.12376868 0.05234932 -0.11432248 0.22949791 0.11107254 -0.17206258 0.038399316
00000000: 64b4 a9bd 8562 08bd f262 203d 314d 4e3d
00000010: 7637 e63c 841d 473e b6af 093e ac0b b93d
00000020: eb10 423d 105b a3bd 7c46 7ebd d8a1 4e3e
00000030: e4f2 d7bc 246e 19be 5617 b2bd f681 63ba
00000040: 5c35 debd 9efc c2bd eac9 41bd 9aa0 203c
00000050: 7cf9 6c3e 90db e33d f525 053e f5a4 153c
00000060: 6868 a53d 71ab 523e dc19 d23d 04e9 a8bd
00000070: bb89 3f3e fcb2 99bd b321 0c3e e5a3 10be
00000080: adb6 7bbd 24eb a1bd 9f5d 95bc 3b28 8ebc
00000090: 96bd ac3d be70 6a3e 9114 77bd 2423 11be
000000a0: 7323 313c cc2e 433e ba4d 08bd bece 0c3e
000000b0: fffd 8dbb 3a14 023d 36a5 023d 8f11 2e3d
000000c0: 0eb2 b43c f0af d1bc 7f34 343d 886b b3bd
000000d0: 7279 00be 7638 71bd c902 183d 680b 513d
000000e0: 436d 283e c40c 7fbd af12 ebbd 7b4a 9a3d
000000f0: f232 d4bc 5b78 b13c bd67 71bd 85b2 ad3d
00000100: b47a 283d 86bc 3fbb 416a 2cbe abf0 923c
00000110: 6871 c03d e02d 3f3d 370b d4bd a7a7 0b3d
00000120: 9fc1 903b 44b3 563d 97f9 09bd c8f6 0d3d
00000130: 40bf d2bd 06b3 963c a5ab 85bc 6ea8 b1bd
00000140: 33d1 60bd 93e0 ffbc 3652 823e a735 45bd
00000150: a5af 9b3d 44ee 9f3c 4c8f 833d 93e8 1fbe
00000160: 6c3e 7abb b15a d7bd 9733 5e3d c42d 423d
00000170: f781 bd3d b43f a6bd c1e9 173c 100e 013e
00000180: 6db9 283c 0882 093e 2a8a 9cbd c918 2f3d
00000190: 442c 06be 5577 1bbd 185f 05be 4a7f babc
000001a0: 5703 c53d 65e8 cf3c 57e4 0c3e e071 dfbc
000001b0: f1e8 b4bd 03d8 4b3d 8fc3 903b 2cb7 923d
000001c0: 34c2 14be 2ae0 273d 069a 28bd 1eab f43d
000001d0: cfcf 23be 4022 46bd 5c94 9b3d 2316 9b3d
000001e0: 9705 eabd 6f7a fdbd 3e6c 563d e821 eabd
000001f0: 8001 6b3e 007a e33d 2c31 30be 9a48 1d3d

weight f4 [1, 128]
-0.35108033 -0.40864968 0.5976676 0.6752245 0.6952506 0.73231626 0.6796959 0.68282706
-0.3795272 -0.39048463 -0.35364687 0.64949363 0.12422045 -0.47014302 -0.44475853 -0.4308546
-0.4384752 0.048602168 0.49191976 -0.40757015 0.32517484 0.6947558 0.67624736 0.73582226
0.6697305 0.67564625 0.6413858 -0.4046552 0.7873116 0.023973506 0.6317967 -0.5094391
-0.48059154 -0.40237975 -0.4131872 -0.32532752 -0.34218955 0.68856657 -0.47613618 -0.38224146
-0.47051254 0.9828565 -0.41288853 0.5609071 0.5424986 0.637708 0.696264 -0.33026844
-0.41562188 -0.3016485 -0.32061183 -0.37547743 -0.4486616 -0.350868 0.7057096 0.07352484
0.8247964 -0.4351655 -0.43559337 0.74078155 -0.47395623 0.3306825 0.05806769 0.612543
0.5994024 0.031296182 -0.4222728 -0.37878877 -0.49894592 0.66584045 -0.46314612 0.55271906
0.6597575 0.676601 0.64725626 0.7099662 -0.4462238 -0.44716054 -0.44303423 0.011847996
-0.34309685 -0.40311834 0.7147161 0.01840815 0.5687029 -0.3608999 0.5644263 -0.3598503
0.030855665 -0.46031588 0.7044863 0.5750361 1.4048492 -0.44199893 0.8689724 0.698777
-0.36104044 0.76027983 0.05258649 -0.4731337 -0.42123893 -0.54833513 -0.46354306 -0.47166318
0.69049734 -0.37282813 0.57001185 -0.44305864 -0.5124643 0.86414576 -0.39064187 0.64934665
-0.48461732 0.7707734 -0.35512888 0.6660604 -0.34736568 0.6627474 0.673094 0.60510105
-0.47471398 -0.44366336 0.6216136 -0.48653376 1.3605483 0.39949587 -0.40195397 -0.4111293
00000000: cdc0 b3be 883a d1be be00 193f 83db 2c3f
00000010: f1fb 313f 1479 3b3f 8d00 2e3f c1cd 2e3f
00000020: 6451 c2be 9aed c7be 3411 b5be 3745 263f
00000030: 4b67 fe3d 96b6 f0be 64b7 e3be f998 dcbe
00000040: d27f e0be 1113 473d e8dc fb3e 09ad d0be
00000050: 517d a63e 84db 313f 8c1e 2d3f d95e 3c3f
00000060: 7573 2b3f 27f7 2c3f dc31 243f f72e cfbe
00000070: 418d 493f 1664 c43c 6ebd 213f 9a6a 02bf
00000080: 1810 f6be b804 cebe 468d d3be 5491 a6be
00000090: 7833 afbe e645 303f 1fc8 f3be 27b5 c3be
000000a0: 05e7 f0be 7c9c 7b3f 2066 d3be 9c97 0f3f
000000b0: 30e1 0a3f d540 233f 5c3e 323f f218 a9be
000000c0: 64cc d4be ac71 9abe 3c27 a4be 943e c0be
000000d0: f9b6 e5be f8a4 b3be 62a9 343f 3194 963d
000000e0: db25 533f 03ce debe 1806 dfbe dca3 3d3f
000000f0: 64aa f2be 374f a93e 63d8 6d3d 9ecf 1c3f
00000100: 7072 193f 6d30 003d 2434 d8be 9af0 c1be
00000110: d775 ffbe 8574 2a3f 7d21 edbe ff7e 0d3f
00000120: dee5 283f b935 2d3f 96b2 253f 58c0 353f
00000130: 7277 e4be 3af2 e4be 62d5 e2be 191e 423c
00000140: 64aa afbe 8765 cebe a2f7 363f b0cc 963c
00000150: 8396 113f dfc7 b8be 3e7e 103f 4c3e b8be
00000160: 05c5 fc3c 86ae ebbe 3759 343f 9135 133f
00000170: 19d2 b33f af4d e2be fa74 5e3f 0de3 323f
00000180: 4bda b8be b3a1 423f ee64 573d 953e f2be
00000190: a1ac d7be b15f 0cbf 8455 edbe d67d f1be
000001a0: 6fc4 303f 54e3 bebe 4cec 113f 95d8 e2be
000001b0: dc30 03bf a838 5d3f 3602 c8be 953b 263f
000001c0: c31f f8be 6851 453f 74d3 b5be ef82 2a3f
000001d0: ead9 b1be d0a9 293f e34f 2c3f e7e7 1a3f
000001e0: b60d f3be d827 e3be 1222 1f3f f41a f9be
000001f0: 7226 ae3f b98a cc3e e9cc cdbe 8a7f d2be

weight f4 [128, 128]
-0.041180696 0.062168192 -0.03553127 -0.12396446 0.22175147 -0.0891874 -0.03954406 -0.31625006
-0.1516526 0.026981467 0.074177325 -0.0850367 -0.28938267 -0.012912033 0.013992442 -0.10343529
-0.116723776 0.07955593 0.1348705 -0.07480563 0.2941764 0.012871988 0.1534293 -0.08693155
-0.046162985 0.04055757 0.05236067 -0.12473488 -0.13957755 -0.10297148 -0.09625247 -0.107459255
0.05574637 -0.24306524 -0.21008754 0.003850691 0.02990648 0.2074814 0.0061539295 0.6484065
0.3351418 -0.08223369 0.013287282 0.22287212 0.1832974 -0.15707514 -0.17081875 0.12050732
0.15266855 0.068229094 0.14132865 0.14459294 0.21336845 -0.17546195 -0.07479286 0.054905225
-0.33700606 0.051496997 0.013520114 -0.046236243 0.16197218 0.06682901 -0.22430825 0.060864277
-0.18559249 -0.54903305 -0.4440509 0.11609616 -0.24480943 0.17024998 0.08764869 0.036703024
-0.21595594 0.007944251 -0.020989897 0.26147112 -0.16134338 -0.12932774 -0.21037619 -0.41956118
0.2811471 -0.039566953 0.060315084 0.057777032 -0.08297044 0.51841426 0.13890561 0.4621184
-0.26684487 0.2053035 -0.0077469316 0.02173446 -0.47259444 0.08937169 -0.093012534 -0.14117073
-0.12113063 -0.047790173 0.081034034 -0.1772675 -0.05317735 -0.09513943 0.020813122 0.056846593
0.14876124 -0.16198 0.06124886 0.15007938 -0.1846768 0.17996168 0.1095845 -0.024790235
-0.041798305 0.024238143 0.016128551 -0.011398172 0.5804552 0.090773016 -0.27284938 0.092055134
-0.14650118 -0.1373745 -0.19659463 -0.12641872 0.0005057096 -0.29179612 0.38593212 0.16816619
0.060373515 -0.1673361 0.09183838 0.07136174 -0.035344377 0.037048407 -0.020861357 0.027761584
0.045387607 -0.06938772 0.23930459 -0.35200748 0.008553843 -0.02139468 -0.05917907 -0.061894502
0.1484593 0.089289345 -0.10305687 -0.13589965 -0.072815455 -0.077575065 -0.039011776 -0.09147235
0.022472534 -0.041256808 -0.022997815 -0.13540801 0.041622635 0.02213417 0.117737845 0.061847635
-0.21608281 0.12571758 0.23246512 -0.20128149 0.07426813 -0.023050008 -0.09916432 -0.050188497
0.15693596 -0.16294721 -0.18913019 -0.11337258 0.0654905 0.06469466 0.14725871 -0.06492619
-0.029011615 0.07921073 -0.0095440475 0.06340957 0.051610734 -0.12870686 -0.03488357 -0.129419
0.19043382 0.1393055 0.030708577 0.02153231 0.08461909 -0.16034193 -0.040172216 0.036774624
-0.11714095 -0.14294776 -0.22562078 -0.06823475 0.022749312 0.037189398 -0.0719694 -0.030736217
-0.06614318 0.15544505 -0.24220861 -0.33245546 0.041715454 -0.14292553 0.037177537 0.027212584
-0.14720504 -0.14241038 -0.013764134 -0.14041595 -0.11845636 0.118046686 -0.16751046 0.059389424
-0.056458943 0.08764149 -0.035798 0.19761144 -0.06328444 -0.03420263 0.0032417532 -0.14429198
0.03015649 -0.029226411 -0.13973585 0.013917114 -0.116338246 -0.024857223 -0.11724347 0.10398196
-0.0401933 0.24444504 0.13883369 -0.25311497 -0.13677171 0.17185205 0.009774117 0.06458665
-0.100600496 0.13968822 0.19182572 0.09048463 0.15426381 0.005418952 0.09159144 0.14478336
-0.094665766 -0.08198211 -0.014170219 -0.0048772916 0.1180621 -0.048452783 0.13524741 0.08262461
00000000: 17ad 28bd 13a4 7e3d 3d89 11bd 14e1 fdbd
00000010: d112 633e e2a7 b6bd f4f8 21bd 87eb a1be
00000020: d24a 1bbe 3d08 dd3c 48ea 973d b927 aebd
00000030: f729 94be fe8c 53bc 8e40 653c e2d5 d3bd
00000040: e00c efbd 38ee a23d 7e1b 0a3e b233 99bd
00000050: 4a9e 963e 08e5 523c 921c 1d3e 2b09 b2bd
00000060: 6615 3dbd b21f 263d 2478 563d 0075 ffbd
00000070: 6bed 0ebe b6e2 d2bd 0420 c5bd 9913 dcbd
00000080: 4e56 643d 18e6 78be 3021 57be e05b 7c3b
00000090: 6ffe f43c 0176 543e e7a6 c93b f8fd 253f
000000a0: b597 ab3e 236a a8bd e6b2 593c 9738 643e
000000b0: 50b2 3b3e 4ed8 20be 1ceb 2ebe 8bcc f63d
000000c0: 2555 1c3e b2bb 8b3d 75b8 103e 2c10 143e
000000d0: 427d 5a3e 4cac 33be 002d 99bd 4de4 603d
000000e0: 0f8c acbe 84ee 523d 7883 5d3c 3762 3dbd
000000f0: 09dc 253e a6dd 883d 10b1 65be d24c 793d
00000100: f50b 3ebe 6e8d 0cbf a45a e3be d3c3 ed3d
00000110: 53af 7abe 0356 2e3e 2881 b33d e955 163d
00000120: 8e23 5dbe 9b28 023c 01f3 abbc 8bdf 853e
00000130: 3337 25be 7e6e 04be db6c 57be b9d0 d6be
00000140: 83f2 8f3e f510 22bd f30c 773d 9ca7 6c3d
00000150: 68ec a9bd ccb6 043f 463d 0e3e c89a ec3e
00000160: e49f 88be 153b 523e f9d9 fdbb 770c b23c
00000170: e6f7 f1be 8108 b73d 5b7d bebd 0f8f 10be
00000180: 5613 f8bd a1bf 43bd 2cf5 a53d 9d85 35be
00000190: 7ed0 59bd 76d8 c2bd 4880 aa3c f9d7 683d
000001a0: de54 183e 16de 25be 16e0 7a3d 69ae 193e
000001b0: ea1b 3dbe e047 383e d76d e03d e414 cbbc
000001c0: b334 2bbd 128f c63c 0620 843c 66bf 3abc
000001d0: b698 143f 34e7 b93d eab2 8bbe 6787 bc3d
000001e0: 6804 16be e7ab 0cbe 1a50 49be e973 01be
000001f0: 9991 043a 4d66 95be e598 c53e c233 2c3e
00000200: 384a 773d 285a 2bbe c315 bc3d 1b26 923d
00000210: 44c5 10bd 12c0 173d 70e5 aabc 436c e33c
00000220: 5be8 393d 261b 8ebd 430c 753e 533a b4be
00000230: 6b25 0c3c e543 afbc c165 72bd 1785 7dbd
00000240: b705 183e 55dd b63d 7b0f d3bd 4729 0bbe
00000250: 4520 95bd addf 9ebd d0ca 1fbd db55 bbbd
00000260: 5218 b83c e6fc 28bd ea65 bcbc 66a8 0abe
00000270: 7f7c 2a3d b852 b53c 8a20 f13d f253 7d3d
00000280: d044 5dbe 1cbc 003e 560b 6e3e bc1c 4ebe
00000290: e419 983d 5fd3 bcbc aa16 cbbd 7492 4dbd
000002a0: d2b3 203e a2db 26be 58ab 41be e22f e8bd
000002b0: e21f 863d a27e 843d fdca 163e 06f8 84bd
000002c0: c4a9 edbc 3c39 a23d a35e 1cbc e0dc 813d
000002d0: c765 533d bbcb 03be 13e2 0ebd 6a86 04be
000002e0: 1501 433e 1aa6 0e3e 8e90 fb3c 8764 b03c
000002f0: c64c ad3d ad30 24be 9f8b 24bd fda0 163d
00000300: 98e7 efbd e660 12be 2209 67be a9be 8bbd
00000310: c45c ba3c e953 183d b164 93bd 85ca fbbc
00000320: 1376 87bd fd2c 1f3e 8905 78be 9a37 aabe
00000330: d3dd 2a3d 125b 12be 7947 183d edec de3c
00000340: ebbc 16be 07d4 11be f682 61bc 33c9 0fbe
00000350: 4099 f2bd 76c2 f13d dd87 2bbe 5342 733d
00000360: 7e41 67bd 627d b33d eca0 12bd a75a 4a3e
00000370: 469b 81bd 0f18 0cbd 9873 543b 47c1 13be
00000380: be0a f73c 3a6c efbc ea16 0fbe 9b04 643c
00000390: bf42 eebd 60a1 cbbc 581d f0bd 7ef4 d43d
000003a0: bba1 24bd cd4f 7a3e 6b2a 0e3e 4998 81be
000003b0: e20d 0cbe fcf9 2f3e 9e23 203c 0146 843d
000003c0: a207 cebd 6e0a 0f3e f66d 443e 0150 b93d
000003d0: 55f7 1d3e 7791 b13b 4b94 bb3d 1742 143e
000003e0: 20e0 c1bd 3de6 a7bd 352a 68bc b0d1 9fbb
000003f0: 8bca f13d 6d76 46bd 4c7e 0a3e 1737 a93d

bias f4 [128]
0.09296265 -0.11906349 0.17401314 0.10401974 -0.04541942 0.121948026 0.069794714 0.018023998
0.035894465 0.010376017 0.114608094 0.062870376 -0.006491701 -0.047451496 0.07513651 0.006365735
0.055090386 0.07237029 0.076905966 0.09409362 0.12852108 -0.06864243 -0.016681116 -0.029757038
0.05291479 0.07313112 0.07101069 0.058732115 0.10537574 0.06605679 -0.03938174 0.018713748
-0.011689354 0.042770375 -0.048712455 0.00044433848 0.025643224 0.050579045 0.0532386 0.08564284
0.014315959 0.008077826 -0.0012344818 -0.051871642 0.10655636 -0.026737727 -0.032274015 -0.0015206854
0.12661864 -0.050070956 -0.022001 0.034372453 0.09042243 0.15721953 0.08413574 -0.09880509
0.05681674 0.10354791 -0.030744255 0.08811033 0.15169276 0.1326115 0.0100057805 -0.0146487225
0.035949435 -0.011115664 -0.0342429 0.004293885 -0.05758297 0.106348515 -0.05097843 0.044217374
0.08676336 -0.039836712 0.058657277 -0.033308625 0.052043688 -0.07203574 0.10219591 0.032546237
0.16260871 0.06460988 -0.045145623 0.09154352 0.013152724 0.1116189 -0.06636695 0.096643835
-0.010462323 0.13103017 -0.014737457 -0.098922364 0.008046881 0.050948784 0.08369647 0.13083822
0.09507984 -0.010064405 -0.0475958 0.10166924 0.07961268 -0.04289838 0.13922092 0.08506916
0.07520233 0.047753673 -0.028671967 0.19102515 0.06255803 0.030496608 0.12595113 0.113784984
0.06099115 0.10509464 0.047431745 0.12813868 -0.043527607 -0.016548857 -0.036976367 -0.040602352
-0.034320213 -0.043413416 0.0025723348 0.009660866 -0.1476091 0.021975525 0.03733731 0.005950588
00000000: 3463 be3d 8fd7 f3bd 8030 323e 4d08 d53d
00000010: b709 3abd e3bf f93d 88f0 8e3d 10a7 933c
00000020: 1306 133d 2b00 2a3c a6b7 ea3d 2fc2 803d
00000030: 56b8 d4bb 805c 42bd 2ce1 993d a897 d03b
00000040: 75a6 613d e036 943d e080 9d3d 28b4 c03d
00000050: 089b 033e 6794 8cbd d6a6 88bc 08c5 f3bc
00000060: 2ebd 583d c5c5 953d 0d6e 913d 1691 703d
00000070: 3ccf d73d c848 873d bf4e 21bd 934d 993c
00000080: b484 3fbc fd2f 2f3d b686 47bd 1af6 e839
00000090: bd11 d23c f92b 4f3d b810 5a3d 8365 af3d
000000a0: 7c8d 6a3c dc58 043c 56ce a1ba 5c77 54bd
000000b0: 393a da3d 1409 dbbc c231 04bd bc51 c7ba
000000c0: 51a8 013e 3417 4dbd 713b b4bc 21ca 0c3d
000000d0: 652f b93d 28fe 203e 5c4f ac3d 535a cabd
000000e0: acb8 683d ed10 d43d 60db fbbc 3073 b43d
000000f0: 5955 1b3e 4fcb 073e 49ef 233c 3201 70bc
00000100: b73f 133d 791e 36bc 4842 0cbd b8b3 8c3b
00000110: 1fdc 6bbd 40cd d93d c2ce 50bd 471d 353d
00000120: fdb0 b13d d22b 23bd 9d42 703d a06e 08bd
00000130: c32b 553d 7987 93bd 174c d13d 344f 053d
00000140: e682 263e 2f52 843d 9eea 38bd 2b7b bb3d
00000150: 867e 573c 7398 e43d 65eb 87bd 34ed c53d
00000160: 2a6a 2bbc c62c 063e 6075 71bc cf97 cabd
00000170: 11d7 033c acaf 503d 0e69 ab3d 74fa 053e
00000180: 38b9 c23d 2de5 24bc d0f3 42bd f637 d03d
00000190: f90b a33d 36b6 2fbd ee8f 0e3e bd38 ae3d
000001a0: ae03 9a3d 5b99 433d 79e1 eabc 199c 433e
000001b0: 6d1e 803d 06d4 f93c 55f9 003e 1a08 e93d
000001c0: dbd1 793d dc3b d73d ca47 423d c936 033e
000001d0: 014a 32bd 7891 87bc 8874 17bd a74e 26bd
000001e0: 5a93 0cbd 44d2 31bd 9e94 283b 9c48 1e3c
000001f0: d726 17be 0406 b43c 02ef 183d 26fd c23b

weight f4 [4, 128]
0.34845302 -0.19226451 -0.14314018 -0.09202105 -0.078187376 0.29697523 0.3113306 0.0044159824
-0.027101507 -0.16890053 -0.07775842 -0.005685939 -0.32056886 -0.05675616 0.15992433 0.26024336
0.007219189 -0.04472332 0.09111984 0.10344089 0.29238647 0.041866127 -0.13227949 0.18923168
-0.15713719 0.2037531 0.22948195 -0.16585258 -0.0075485273 0.08290569 -0.016176274 -0.21400249
0.036550574 0.117101856 0.022342373 0.0017850889 -0.09233063 0.027796293 -0.29940122 0.24717426
0.052472305 -0.039591923 0.03219656 0.25824022 0.09872917 -0.27535474 -0.05961442 -0.011215036
0.13734217 0.06829261 0.099037066 -0.052509416 -0.1053661 -0.048034627 -0.03087123 0.14966826
0.028687174 0.3506291 0.45929912 -0.1071546 0.023474025 0.07173012 0.14272511 -0.007880697
-0.09714307 -0.22833973 -0.2592235 -0.087302215 0.16707128 -0.013501548 0.1832197 0.13014333
0.037894662 -0.20330651 -0.19904412 0.40659574 -0.14650378 -0.034310248 -0.018077772 -0.22625038
-0.13320692 -0.06803577 -0.12334464 0.328431 0.054566044 0.20040028 0.27435443 0.07408393
-0.15526791 -0.16261873 0.161892 -0.41417453 -0.06812877 -0.035805166 -0.16230258 -0.2853769
-0.0590343 0.10323533 -0.0500019 -0.36782557 0.085288584 0.039755177 0.093479715 -0.0050664074
-0.012948541 -0.05239065 0.25019383 0.14737576 0.12702021 -0.11909223 0.056459937 0.26536632
0.025375169 0.044220828 -0.016216759 -0.35916352 0.085322216 -0.040940832 -0.15211622 -0.019451002
0.12815185 -0.039257135 0.11567348 0.14766216 -0.2343514 0.08627653 -0.08748448 -0.22224528
0.12891236 0.24862811 0.5195322 -0.06728664 -0.053308293 -0.012684229 0.33676875 0.29060853
0.07459164 -0.07863781 -0.1578928 0.18245459 0.078822605 0.10324475 -0.014108134 0.049914565
0.27680126 0.1303085 0.26463136 0.024422389 0.095564105 -0.061838847 -0.50948185 -0.50544846
0.16165742 -0.37981188 0.14329657 0.035403453 0.2759273 -0.0735221 0.14250238 0.072076075
-0.31512836 0.4307442 0.23990442 -0.074647576 0.050762877 -0.16434409 0.014256247 0.2802323
-0.16648647 -0.21435374 0.22997619 -0.114374645 0.23960274 0.45500317 0.0065970137 -0.20231202
0.13478135 0.071705736 0.064623006 0.38984197 -0.2050385 -0.1807499 0.14087652 -0.15185854
0.049772274 0.054182928 0.28631797 0.06397994 -0.429312 -0.17371038 -0.008454711 -0.49109834
-0.17507942 0.28970674 -0.08987592 0.17794079 -0.14739162 -0.19008693 0.030839896 -0.18202825
-0.12290361 3.6897e-05 -0.6006741 -0.47752324 0.020610722 0.28357342 0.14903405 0.20227134
-0.32718194 -0.43758842 -0.16210467 0.26966673 -0.24066728 -0.4329719 -0.05892195 0.29240268
0.00894209 -0.48808688 0.44842392 0.073670775 -0.20069216 -0.12363936 -0.5116857 0.19762425
0.048552588 0.18610248 0.2208945 0.14145619 0.37912437 0.20035812 -0.28794274 -0.019171752
-0.42132047 -0.72545385 0.2479506 -0.24419703 0.3855315 -0.19107293 0.43753815 0.07646223
-0.06393111 0.572735 0.088098735 0.43463358 0.032734573 0.019961204 -0.10605779 -0.15494615
0.44656345 0.042972155 0.056041237 0.16839169 0.0053401375 0.041925903 -0.041702993 -0.09507317
00000000: 6f68 b23e fde0 44be 5793 12be 8875 bcbd
00000010: b420 a0bd 230d 983e b966 9f3e f2b3 903b
00000020: fb03 debc 43f4 2cbe ce3f 9fbd 1d51 babb
00000030: 9a21 a4be 2679 68bd 34c3 233e 9e3e 853e
00000040: f28e ec3b cd2f 37bd 0a9d ba3d d1d8 d33d
00000050: aeb3 953e d17b 2b3d 4674 07be f3c5 413e
00000060: 92e8 20be a7a4 503e 51fd 6a3e 42d5 29be
00000070: a359 f7bb 75ca a93d 1b84 84bc 7823 5bbe
00000080: 0eb6 153d 19d3 ef3d 5a07 b73c a5f9 e93a
00000090: d717 bdbd 0db5 e33c 1e4b 99be 401b 7d3e
000000a0: 33ed 563d 242b 22bd 8ae0 033d 1038 843e
000000b0: 8532 ca3d 4cfb 8cbe 402e 74bd 45bf 37bc
000000c0: 6da3 0c3e ffdc 8b3d f2d3 ca3d 1d14 57bd
000000d0: 2fca d7bd f5bf 44bd a9e5 fcbc a342 193e
000000e0: 5d01 eb3c a885 b33e 4129 eb3e df73 dbbd
000000f0: 994c c03c 3ee7 923d 8826 123e 0a1e 01bc
00000100: f2f2 c6bd e4d1 69be f1b8 84be 81cb b2bd
00000110: bc14 2b3e 9935 5dbc f29d 3b3e 4b44 053e
00000120: 6f37 1b3d 952f 50be 39d2 4bbe 512d d03e
00000130: 1605 16be e788 0cbd d617 94bc 2eae 67be
00000140: 6567 08be 5656 8bbd 1d9c fcbd 1c28 a83e
00000150: a580 5f3d bb35 4d3e 2f78 8c3e 51b9 973d
00000160: 8dfe 1ebe 8685 26be 04c7 253e af0e d4be
00000170: 1987 8bbd 70a8 12bd a632 26be ec1c 92be
00000180: f3cd 71bd 0b6d d33d cbce 4cbd a253 bcbe
00000190: c8ab ae3d 53d6 223d 4b72 bf3d 1b04 a6bb
000001a0: 1e26 54bc 9497 56bd 6819 803e ace9 163e
000001b0: 9611 023e a1e6 f3bd 8942 673d 18de 873e
000001c0: 96df cf3c e620 353d 02d9 84bc 48e4 b7be
000001d0: 6abd ae3d 93b1 27bd 5bc4 1bbe b557 9fbc
000001e0: 3d3a 033e 17cc 20bd 38e6 ec3d c034 173e
000001f0: d0f9 6fbe c0b1 b03d 102b b3bd 4494 63be
00000200: 9a01 043e 5e98 7e3e 1000 053f 94cd 89bd
00000210: cc59 5abd 83d1 4fbc f46c ac3e a4ca 943e
00000220: 80c3 983d dc0c a1bd a6ae 21be 60d5 3a3e
00000230: bf6d a13d fc71 d33d ce25 67bc 3773 4c3d
00000240: e5b8 8d3e 976f 053e c37d 873e 7611 c83c
00000250: 1db7 c33d bb4a 7dbd 676d 02bf 1265 01bf
00000260: 8689 253e b476 c2be 56bc 123e 3603 113d
00000270: 5846 8d3e c192 96bd 25ec 113e 9f9c 933d
00000280: 8158 a1be 818a dc3e 81a9 753e d4e0 98bd
00000290: bcec 4f3d d149 28be 0993 693c 9c7a 8f3e
000002a0: 6e7b 2abe 8c7f 5bbe e17e 6b3e 413d eabd
000002b0: 6c5a 753e 2df6 e83e c32b d83b e22a 4fbe
000002c0: 1f04 0a3e 75da 923d 1159 843d 5e99 c73e
000002d0: 9df5 51be 8016 39be ef41 103e ce80 1bbe
000002e0: 03de 4b3d ebee 5d3d 4598 923e ea07 833d
000002f0: c8ce dbbe 22e1 31be a185 0abc 3e71 fbbe
00000300: 0548 33be 7154 943e de10 b8bd 1c36 363e
00000310: d4ed 16be 26a6 42be f3a3 fc3c 9d65 3abe
00000320: e3b4 fbbd dac1 1a38 c7c5 19bf ed7d f4be
00000330: d1d7 a83c 8930 913e 629c 183e 3820 4f3e
00000340: 6484 a7be 970b e0be c4fe 25be c211 8a3e
00000350: 7c71 76be 7eae ddbe 2558 71bd ceb5 953e
00000360: d881 123c 86e6 f9be d297 e53e b4e0 963d
00000370: 3f82 4dbe a236 fdbd d6fd 02bf 035e 4a3e
00000380: 14df 463d a691 3e3e 2b32 623e e4d9 103e
00000390: 971c c23e ae2a 4d3e 3b6d 93be 140e 9dbc
000003a0: 51b7 d7be 58b7 39bf c3e6 7d3e c90e 7abe
000003b0: 6364 c53e 9fa8 43be 0005 e03e 3b98 9c3d
000003c0: 50ee 82bd c39e 123f 1c6d b43d 4b88 de3e
000003d0: b014 063d ae85 a33c d434 d9bd 34aa 1ebe
000003e0: f7a3 e43e 9203 303d 7f8b 653d df6e 2c3e
000003f0: 52fc ae3b 7fba 2b3d c2d0 2abd b9b5 c2bd

bias f4 [4]
0.0021541833 -0.051617734 -0.0035499749 0.019227255
00000000: 332d 0d3b 1e6d 53bd b2a6 68bb 7a82 9d3c
