problem1/models/underway/success_whole_model_1766857977.pth (torch, 146613 bytes, 9 tensors)

weight f4 [128, 8]
000000 b6 98 03 3f d1 da a3 be ef 85 be 3d 60 41 a0 be
       0.51404893 -0.3200288 0.093028896 -0.31299877
000010 ff 8b 6c be d7 c8 a4 be 70 99 a6 3e 4c 32 24 3e
       -0.2310028 -0.3218448 0.3253894 0.16034812
000020 74 f1 80 3d a7 b9 2e 3e de d9 27 bd d4 7f be 3d
       0.062960535 0.17063008 -0.04097926 0.09301725
000030 5a 88 4f 3e 8b 4f 65 be 7c b4 da 3e 9b 46 bd 3e
       0.20266858 -0.22393624 0.42715824 0.3696793
000040 17 6d 8a 3e c4 7c bc be 0d 2d 39 be 21 fa 12 bf
       0.27036354 -0.3681394 -0.18083592 -0.57412916
000050 09 77 1d 3e fa 16 bf 3e 84 b3 08 bd a3 46 d2 3e
       0.1537744 0.37322217 -0.033374324 0.41069517
000060 5d 94 b2 3c 1f 0e 57 3d 60 be de be 4d b9 d1 3e
       0.02179926 0.0525037 -0.4350462 0.40961686
000070 b1 6d 0b 3f 41 eb da 3e fa 9e 98 3e 60 3e 37 3e
       0.5446425 0.4275761 0.2980879 0.17894888
000080 15 a7 44 bf cc 46 a2 3e 18 7b 70 be 67 b6 0b 3e
       -0.76817447 0.3169464 -0.23484457 0.136438
000090 81 8e 6a 3e b7 e7 c5 3d 0b 66 27 3e cc 59 e4 3d
       0.22905923 0.09663337 0.1634752 0.1114994
0000a0 1d 92 8c 3e 51 c7 06 3e ca 46 78 be ab cf 56 3f
       0.27455226 0.1316197 -0.24245754 0.83910626
0000b0 88 e0 5c be f5 75 06 bf d0 cf 3d 3e e8 09 72 be
       -0.21570027 -0.5252374 0.18536305 -0.23636591
0000c0 2c 44 f1 be 53 95 e7 3e 2e 75 8a be 04 e9 17 bf
       -0.47122324 0.45231113 -0.27042526 -0.5933993
0000d0 19 06 e9 3e 44 46 59 3e ce 4d e4 bd 0b 65 80 bd
       0.45512465 0.2121821 -0.111476526 -0.062692724
0000e0 0c 29 63 bd 05 c6 cb be df 23 1c be 06 d0 b3 be
       -0.055459067 -0.39799514 -0.15248059 -0.35119647
0000f0 2a c7 2a 3d 48 00 a7 be e8 d2 97 3d 05 36 9a 3e
       0.041693844 -0.32617402 0.07413274 0.3011934
000100 e5 53 9a be 6d 5b 42 3d 76 a9 19 bf 15 ea 24 3e
       -0.3014213 0.04745047 -0.600242 0.1610492
000110 32 a2 82 3d 7d cc ca bd 72 07 b9 3e 98 2e 3b be
       0.063785926 -0.09902284 0.36138493 -0.18279493
000120 55 aa 35 3f d5 ff 2d bf 70 b1 22 3f b5 05 0b bf
       0.7096303 -0.67968494 0.63552 -0.54305583
000130 7a 0f 9b be 17 c6 01 bc 45 01 80 3d 0e 6a bd bd
       -0.30285245 -0.007920763 0.06250242 -0.09248744
000140 36 ff 0c be fb d9 6e 3f af e7 ce be 65 75 7a bf
       -0.1376923 0.9330136 -0.40411136 -0.9783538
000150 2f 1f bb be cb 89 e2 bd e5 31 4c 3d 11 b3 70 be
       -0.3654723 -0.11061438 0.04985227 -0.23505808
000160 b9 ba 9c 3e 10 2a b0 3e 8a e4 c5 be 5a 48 60 bc
       0.30611208 0.3440709 -0.38650924 -0.013689125
000170 98 9d 41 be 30 43 38 be 05 75 86 3e f2 b3 c6 bc
       -0.18907773 -0.1799438 0.26261154 -0.024255726
000180 4a 31 e1 bd be 81 a7 be c1 ba f4 3d 5e 5a d8 be
       -0.10995729 -0.32716173 0.11949683 -0.42256445
000190 3e b3 6e be cd d7 01 bf b2 5a 22 bf 2d 9c 56 bd
       -0.23310563 -0.5071991 -0.6341964 -0.052395035
0001a0 87 e0 ac bd 95 d4 af 3e d9 c4 7f 3e bb 20 02 3d
       -0.08441263 0.34341875 0.24977435 0.031769495
0001b0 47 66 23 bf 7a b6 17 bd be ac d4 3e 67 52 5b 3e
       -0.6382794 -0.037039258 0.41538042 0.21418153
0001c0 c8 0b 27 be 4a 2f df 3e 70 91 c0 3e b4 2f f2 bd
       -0.16313088 0.43590766 0.3761096 -0.11825505
0001d0 66 b2 86 3e 29 8b a2 be 0b 8f a8 be b4 40 6f bc
       0.26307982 -0.31746796 -0.32921633 -0.014602829
0001e0 76 94 02 be bf 98 8e bd 46 f8 4d bf 5b 1f c2 be
       -0.12751946 -0.06962728 -0.8045696 -0.37914547
0001f0 84 b2 a3 3e 77 5e 56 bd 59 06 00 be 49 82 08 bd
       0.31972134 -0.052336182 -0.12502421 -0.033327375
000200 3a 3a 17 3e 0e a3 a7 be 05 39 99 be f6 3e 06 bf
       0.14768305 -0.32741588 -0.29926315 -0.5243982
000210 f5 ce 01 3d f0 3f db 3d bf 7f 93 be 18 8b 53 be
       0.03169151 0.107055545 -0.288084 -0.20658529
000220 98 7a 27 bc 44 5e d4 bf 62 9f 65 3f 42 c1 0c bf
       -0.0102221 -1.6591268 0.89696324 -0.5498239
000230 e5 eb a6 be 20 66 49 be d9 40 d0 3d 37 40 34 3e
       -0.32601848 -0.19667864 0.10168619 0.17602621
000240 87 03 9d bb 41 b7 4a 3f 16 fc 50 3f a2 70 dd 3e
       -0.0047916803 0.79185873 0.8163465 0.43249995
000250 5f 5f f7 be e7 1e 2e be 38 5f 3e 3c ff 92 3d 3d
       -0.4831495 -0.17003976 0.011619382 0.046282765
000260 d9 97 f1 be 87 74 bd bd 79 e9 cf be 41 f8 85 3d
       -0.47186163 -0.092507415 -0.40607813 0.06541491
000270 e6 f4 b5 3e ac 36 3c 3e df 6a 91 3e 6a a3 f4 3c
       0.35538405 0.1838023 0.2840185 0.029863078
000280 f1 a6 b0 bd a3 5c 16 3e 88 5f 03 3d 42 2c ff bb
       -0.086255915 0.14683776 0.032073528 -0.0077872584
000290 ba aa 15 be c8 18 cf 3e b2 1e 3d bf 35 eb be bd
       -0.14615908 0.40448594 -0.7387496 -0.09322206
0002a0 11 d4 9e bd 12 66 b5 bf a2 27 69 3e 05 7f 42 bf
       -0.07755292 -1.4171774 0.22769025 -0.75975066
0002b0 b3 e7 4d 3e 0f 98 8c 3e 4b a0 f8 bb a4 84 14 bf
       0.20107917 0.27459762 -0.007587468 -0.58014894
0002c0 32 ca 84 3e 31 79 84 be df 2d 81 3e 03 74 48 3d
       0.25935513 -0.25873712 0.2523031 0.048938762
0002d0 1e 0f 84 be b1 92 98 be 8b 1d 06 3e b6 1a 0c 3e
       -0.25792783 -0.29799417 0.13097207 0.13682064
0002e0 59 4b e2 bd 93 3b e8 3e 00 77 05 be fe 17 e7 3e
       -0.11049528 0.45357952 -0.13033676 0.45135492
0002f0 f6 ab c1 3d c3 68 ef be e1 83 e8 be 10 36 b0 be
       0.09456627 -0.46759614 -0.45413116 -0.34416246
000300 1f 9c 7d bd 5f 70 d6 bc 7d f1 51 3f 1c 0d 12 bf
       -0.061916467 -0.02617663 0.82009107 -0.57051253
000310 8e fd 31 3f c3 12 fb 3d 38 3e ac bc 0e 37 9f be
       0.6952752 0.12259438 -0.021025762 -0.3109669
000320 a7 3a fa 3c d3 7b 94 3e 34 e3 c7 be 95 b1 c8 be
       0.030545546 0.2900072 -0.3904053 -0.39197984
000330 0b b3 cc 3d e9 be b6 bd 44 09 00 3b 9d ce 47 be
       0.09995087 -0.08923132 0.0019536773 -0.1951241
000340 b1 96 80 3e 38 11 db 3e 57 c4 6f 3e 9d fa 3e 3d
       0.25114968 0.42786574 0.23414741 0.046625722
000350 ed 85 39 be b6 a0 12 bf 29 c5 1a bf b6 60 a3 bd
       -0.18117495 -0.57276475 -0.6045709 -0.079774305
000360 a8 db 54 be 03 55 1c 3e c6 00 bb 3c fe 68 32 bf
       -0.20786917 0.15266804 0.022827517 -0.69691455
000370 23 46 a5 3e 94 2f e4 3e 0b c6 80 3e c4 c4 c2 3e
       0.32280073 0.4456755 0.25151095 0.38040745
000380 53 80 00 3e 2f 4f ef 3c b4 fc 89 3d 37 3e b0 be
       0.12548952 0.029212562 0.067376524 -0.34422466
000390 84 b2 87 3f e0 88 b8 bd 45 be e9 bd bb 6c 39 be
       1.0601354 -0.09010482 -0.11413244 -0.18107884
0003a0 7c 47 33 be 39 3e ad bd 86 1b 95 3e 99 43 6d 3e
       -0.17507738 -0.08459134 0.2912256 0.23170318
0003b0 b4 7d c9 be 56 03 08 bf 2d 3b de 3d bb 3f c1 3e
       -0.39353716 -0.5313009 0.10851131 0.37743935
0003c0 22 0d 48 be 7f bd d9 3e 51 a2 24 be 49 d6 77 be
       -0.1953626 0.42527387 -0.16077544 -0.24202837
0003d0 22 85 97 bd eb bd 67 be 4f 89 0a be f1 a3 af 3e
       -0.0739844 -0.22631042 -0.13528942 0.34304765
0003e0 70 b8 e0 be 52 77 ad 3d 3b b5 8a be 60 93 b8 3e
       -0.43890715 0.08470024 -0.27091393 0.36049938
0003f0 07 ba b6 3e ba b4 f1 3e 8f 50 16 bf a3 0c 27 3e
       0.35688803 0.47208196 -0.5871667 0.16313414

bias f4 [128]
000000 c7 13 38 be a8 72 9d 3e 2a f9 d7 bd e1 20 9c 3e
       -0.17976294 0.30751538 -0.10545571 0.30493835
000010 9e b3 3a bd 34 95 41 3e 7a 00 b2 3d b2 36 2c 3f
       -0.045581453 0.18904573 0.08691497 0.6727096
000020 25 94 0e 3f b7 ea a9 bd 4a 1d f1 3d 72 7e 15 3f
       0.556948 -0.082967214 0.117731646 0.58396065
000030 98 91 8a bd aa 1a 27 bc 9b 83 cd 3e 8f be ad be
       -0.06766051 -0.010199228 0.4013947 -0.33934447
000040 a1 ee 9b 3e e6 fe 8e 3d 77 85 d2 3e e6 64 af 3c
       0.30455497 0.06982212 0.4111745 0.021410417
000050 69 d5 53 be 6f f8 a8 3d 18 9f db 3e 2b 05 d5 3c
       -0.20686878 0.0825051 0.42894816 0.02600344
000060 7e 43 6c 3d 79 cc 9b 3e 66 32 9f 3d 37 68 48 3e
       0.057681553 0.30429438 0.077732846 0.19571005
000070 96 eb 69 bd 42 59 31 bd 1b da ec 3e de c7 da be
       -0.057109438 -0.043298014 0.4626015 -0.42730612
000080 2b cc 2f 3e 3f c7 09 3f 93 f5 a3 be 1f 4f 16 be
       0.17167728 0.5381965 -0.32023296 -0.1467862
000090 9f d6 ab bd 67 40 b0 bc 3e 20 61 3e 82 86 51 3e
       -0.08390545 -0.021515084 0.21984956 0.20461467
0000a0 2f 94 58 be ff 09 a6 be 7d 30 d6 3e f9 93 39 3e
       -0.21150278 -0.324295 0.4183387 0.18122853
0000b0 14 21 0b 3e 0b 18 87 3e 98 26 08 3e 0c f7 0b bd
       0.13586837 0.2638553 0.13295972 -0.03417115
0000c0 0c 97 a9 be 88 c3 68 bd 70 39 c2 3e fa 29 35 3d
       -0.33123052 -0.056827098 0.37934446 0.044229485
0000d0 6f 2c 2a 3f 0b d2 29 3d 64 fb b9 3e 8f 3b 80 3d
       0.6647405 0.04146008 0.36324608 0.0626136
0000e0 55 3b 02 ba a3 69 f3 3e 4b fb bf be 83 f2 e3 3e
       -0.00049679476 0.47541532 -0.3749641 0.4452096
0000f0 13 c4 4a be aa c5 a3 3e 69 33 e4 bb c2 b6 07 3e
       -0.19801359 0.31986743 -0.0069641364 0.1325331
000100 08 7b 61 be 63 50 4e 3e 52 e6 9f 3d c1 01 fc 3e
       -0.22019589 0.20147853 0.07807602 0.49220088
000110 a6 d5 8f 3e 86 45 27 be c3 03 02 bd c8 47 ba 3d
       0.28092688 -0.16335115 -0.03174187 0.090957224
000120 02 4e 32 bc 1c 41 ce 3c 13 2c 28 3d 57 8c 68 3e
       -0.010882856 0.025177531 0.041057657 0.22709785
000130 af ac c9 bd 0c 43 b7 3e 25 34 7b 3c 07 08 0e 3e
       -0.0984739 0.3579334 0.015332256 0.1387025
000140 85 38 35 3e d8 a4 05 3e 8f 52 b7 bc 19 be db bc
       0.17697342 0.13051164 -0.022378234 -0.026824044
000150 26 d3 16 bd 33 be 50 3e 2f b1 ad 3e d4 7a 1d be
       -0.03682246 0.20385055 0.33924243 -0.15378886
000160 df 1d f5 3d f2 08 01 3f a6 cc c1 3d 59 86 0e 3f
       0.11968588 0.50404274 0.09462862 0.5567375
000170 4d 73 26 be 01 9f f1 be 75 28 73 3e 38 f5 4c 3e
       -0.16254921 -0.47191623 0.23745902 0.20015419
000180 31 dd 80 3e dd b4 9d 3e 65 83 bc 3d cd 9e 1c 3e
       0.25168756 0.3080205 0.09204749 0.15294953
000190 0a 0f ab 3e f6 bd a3 3d e3 8f 42 be f0 f4 5c 3e
       0.3340991 0.079952165 -0.19000201 0.21577811
0001a0 a3 f7 0c 3f 71 b7 10 be e0 31 d8 3d a5 b8 66 3e
       0.55065364 -0.14132477 0.10556388 0.22531374
0001b0 d6 d8 ce 3e b4 31 02 bd 02 16 ac 3d 94 77 bb 3e
       0.40399808 -0.03178568 0.08402635 0.36614668
0001c0 e6 8f c6 bd cc 4a 03 bd 25 31 52 3e 1e b8 b3 3e
       -0.09695415 -0.032053754 0.2052656 0.35101408
0001d0 49 d8 88 3c 85 03 a7 3e 35 a6 d6 bb 08 be 79 be
       0.016704695 0.32619873 -0.006550575 -0.24388897
0001e0 04 1b cf bc ce 58 55 3e 92 bc c4 3e c9 58 0c 3e
       -0.025281437 0.20834658 0.38425118 0.13705744
0001f0 73 af 1a 3e de 02 e1 3d ee 26 fb bc 47 21 42 bb
       0.15105991 0.10986875 -0.030658212 -0.0029621886

weight f4 [128, 128]
000000 4d cc 90 3e 62 53 36 be 57 73 16 3c 72 82 27 3e
       0.2828087 -0.17805246 0.009182773 0.16358355
000010 0d 57 38 3e 8d 56 3c bd ee 29 48 3e e4 72 ed 3d
       0.18001957 -0.04598098 0.19547245 0.11594179
000020 b0 0f 6b 3d 90 6c 31 3f 96 cd 17 3e 28 86 38 bb
       0.057388008 0.6930628 0.14824519 -0.0028156135
000030 4a ed 9f 3e 49 33 e5 3d 05 3e 4f be e8 d5 59 3e
       0.31235725 0.111914225 -0.20238502 0.21273005
000040 90 fa df 3d 9a 37 60 3c 1b d6 7b 3d 0c 33 1a 3e
       0.10936463 0.013685131 0.061483484 0.15058535
000050 20 ca 88 3e 99 0f cc bd e6 e5 29 3e 89 4c ed 3d
       0.2671671 -0.099639125 0.16591606 0.115868635
000060 bc 0e b8 be e3 25 79 bd 84 8e c2 3d 4e cb 48 3d
       -0.3594874 -0.060827147 0.09499839 0.04902201
000070 1e a2 27 bf 23 18 b5 3e 81 0d 2d bb 8f 9e db 3e
       -0.65481746 0.35369977 -0.0026405754 0.42894408
000080 5c bf af 3e 56 77 31 be 24 e5 e7 3e aa 87 25 3e
       0.34325683 -0.1733068 0.45292008 0.16165033
000090 d8 ab ac be 4b 16 b9 3e 60 aa c9 3d c1 4f e4 3d
       -0.33724856 0.3614982 0.098469496 0.11148024
0000a0 18 d1 a0 3e 45 f9 ca 3e cf 26 3c be 96 a0 c4 3c
       0.31409526 0.39643303 -0.1837418 0.024002355
0000b0 6b 22 87 3e de 94 49 3e 55 d6 53 3e 16 f9 09 3f
       0.26393446 0.19685695 0.2068723 0.538957
0000c0 fc 1e bd 3e d9 b0 cf 3d 43 df a1 3d b1 3e be 3e
       0.36937702 0.10141153 0.07903912 0.37157205
0000d0 87 a8 9b 3d 04 e0 68 3e 14 1d e8 3d dc ad b1 be
       0.076005034 0.22741705 0.11333671 -0.34702957
0000e0 fc 94 2c 3d 46 eb c4 bb 2f 8f 66 3e 9c 49 da bd
       0.04213427 -0.006009492 0.22515558 -0.10658571
0000f0 a0 48 a9 be 05 ed 77 3b fd d3 5a 3e b2 cd 5e be
       -0.3306322 0.0037830484 0.2136993 -0.21758154
000100 1b 64 7c 3e dd 6e 5a 3d 39 6c e9 be 8a b9 d8 3d
       0.24647562 0.053328384 -0.4559038 0.10582264
000110 9c 2c ba be 03 10 31 3e 8a b4 29 3e ff b6 93 3e
       -0.3636216 0.17291264 0.16572776 0.28850552
000120 63 63 7d 3e b6 19 1d 3e b5 80 1f bf 73 b6 30 3e
       0.24744944 0.15341839 -0.62305766 0.17257099
000130 5a 90 ad 3e cf 0c b4 3d 29 11 5e 3e 10 d8 c3 bd
       0.33899194 0.087915055 0.21686234 -0.09562695
000140 cf 32 b3 3d 7c af 9a 3e b8 de fe be ff 09 9a 3c
       0.08749925 0.3021201 -0.49779296 0.018803595
000150 25 e5 e3 3d f1 30 4b 3e 67 3c ae 3d a5 79 80 3e
       0.1112769 0.19842888 0.085076146 0.25092807
000160 66 9f 5e 3e d4 db c5 3c 68 60 81 bc d0 fb b8 bd
       0.21740493 0.024152674 -0.01579304 -0.090324044
000170 bf 7d ae 3e 57 b1 7f 3e 70 51 4f be e3 3e b9 3d
       0.34080312 0.24969994 -0.2024591 0.09045198
000180 23 76 65 3e 73 69 41 3e 46 ea 29 be 18 43 77 be
       0.22408347 0.18887882 -0.16593274 -0.24146688
000190 fd 73 31 3d 1e 3b 37 be 97 ee c9 3e a0 bf b3 3d
       0.043323506 -0.17893645 0.39439842 0.08776784
0001a0 da ac c2 3d 75 df 81 3d 0f 67 28 3e 09 ee 38 3e
       0.09505625 0.06341449 0.16445564 0.18059553
0001b0 87 8c 34 3e 97 26 c4 bd a8 a1 f2 3d a8 24 66 3e
       0.17631732 -0.09577673 0.1184724 0.22474921
0001c0 97 77 3a 3e 28 20 48 3e 74 31 71 3e f5 e6 eb bd
       0.18209682 0.19543517 0.23554021 -0.11518661
0001d0 9f c8 3b bf 98 a4 38 bc e7 d0 84 be 2d f0 15 3d
       -0.73353 -0.011269711 -0.2594063 0.036606003
0001e0 a4 5b cd 3d 67 c6 30 3d 4f 20 ac 3d 82 47 de be
       0.10027245 0.04315796 0.084046 -0.4341393
0001f0 55 04 87 be 6f ed 4c be da dc 98 3e 73 a4 1f 3d
       -0.26370493 -0.20012449 0.29855996 0.03897519
000200 62 44 55 3e b7 db cd bc 38 4f 9f bd c8 d0 72 3d
       0.20826867 -0.025129182 -0.07778782 0.05928114
000210 b3 d1 93 3e c7 d8 e9 3d fd 04 24 3e 82 70 13 3e
       0.28870925 0.114183 0.16017528 0.14398387
000220 af cc ba 3c bf 37 25 3f 4d 7a 47 3e 20 37 b1 bc
       0.022802679 0.64538187 0.19480248 -0.021632731
000230 65 75 db 3e 71 14 ae 3c bc e6 26 be 3b 76 e9 3d
       0.42863002 0.021249982 -0.16298956 0.11399504
000240 8a 66 99 3d ab 0d a9 bd f5 69 21 3e 99 5e ea 3d
       0.07490261 -0.0825456 0.15763076 0.11443824
000250 8e f9 92 3e 44 39 01 be 33 bb 5c 3e b6 7a 65 3e
       0.2870602 -0.12619501 0.21555786 0.22410092
000260 c6 20 d3 be 77 e5 c9 bb 5a 74 76 3e 99 ec d5 3d
       -0.41235942 -0.0061613875 0.24067822 0.10445518
000270 11 84 02 bf 0c 8a 83 3e b6 fe ab bd 57 91 c2 3e
       -0.5098277 0.2569126 -0.08398192 0.3800151
000280 d5 2e b9 3e c8 f0 0d be 43 11 f9 3e c5 84 41 3e
       0.36168543 -0.13861382 0.48645982 0.18898304
000290 a6 b7 78 be 53 a5 38 3e ff 02 2c 3d 0c df 0e 3e
       -0.24288806 0.18031816 0.041995045 0.13952273
0002a0 ab cc d8 3e 3d f0 eb 3e e5 ed 44 3c f4 72 47 bc
       0.4234365 0.46081725 0.012019609 -0.012173403
0002b0 87 bd 43 3e 22 eb 4d 3e a8 24 7b 3e 79 9e ef 3e
       0.19115268 0.20109227 0.24525702 0.46800593
0002c0 3b 90 9d 3e 22 2f 86 3e 08 f7 18 3d 30 2e e9 3e
       0.30774102 0.26207834 0.037344962 0.4554305
0002d0 0f 7b 35 ba 0b 57 24 3e d9 86 90 3d 99 23 86 be
       -0.0006922939 0.1604883 0.0705697 -0.26199034
0002e0 3d 27 3a 3e 0e a7 af bd cf 5e a2 3e 7f ae 22 3c
       0.1817903 -0.08576785 0.31712958 0.009929298
0002f0 54 f1 db be e0 e9 03 bd 4c aa d8 3d e9 01 80 be
       -0.42957556 -0.032205462 0.105793566 -0.25001457
000300 b8 e9 a7 3e 02 18 cb 3d f7 da a2 be 7c b2 65 3e
       0.327955 0.099166885 -0.31807682 0.22431368
000310 c7 09 62 be 1a c4 9a 3d 69 18 95 3e fd 74 76 3e
       -0.22074042 0.07556935 0.29120186 0.24068065
000320 18 aa 56 3e b9 1c 4c 3e fb e8 20 bf 23 a3 65 3e
       0.20963323 0.19932832 -0.628555 0.22425513
000330 97 e9 b1 3e 39 08 26 3c d0 28 9f 3e 10 47 86 be
       0.34748527 0.010133796 0.31085825 -0.2622609
000340 1e 4e f0 3d c8 7e bc 3e 0b 8b c1 be e9 21 89 3c
       0.1173365 0.36815476 -0.37801394 0.016739802
000350 c8 f9 0c 3e 3f 41 c5 3d 30 23 55 3d d2 44 89 3e
       0.13767159 0.09631585 0.05203551 0.26810318
000360 6e 02 5e 3e 92 6e bb 3d 3b c3 89 bd 9b 8b 7b b9
       0.21680614 0.09151949 -0.067266904 -0.00023989232
000370 70 52 84 3e dc 3e 93 3e b6 51 5f be 0f d8 87 3e
       0.25844145 0.28758895 -0.21808514 0.26532027
000380 9d 40 97 3e f2 4a 1b 3e 40 ec 72 be 51 5f 32 be
       0.29541484 0.15165308 -0.23722935 -0.17419173
000390 24 8f 26 3e c8 e9 93 be 24 c6 75 3e c4 b7 fb 3d
       0.16265541 -0.28889298 0.24001366 0.1229091
0003a0 f4 5c 02 3d c8 91 3a 3e d6 61 0e 3d 41 2f 2c 3d
       0.03182693 0.18219674 0.034761272 0.042037252
0003b0 8a 74 30 3e a5 3b 0f bc b6 f2 53 3e 6a 07 90 3e
       0.17231956 -0.008742248 0.20698056 0.28130656
0003c0 ec 71 ae 3e c8 b3 80 3d 89 82 6b 3e 27 12 e3 bd
       0.3407129 0.062842906 0.22999014 -0.11087447
0003d0 55 59 1b bf 13 5e f6 3d 12 2e 3d be d1 26 71 3d
       -0.60683185 0.12029662 -0.18474606 0.05887491
0003e0 41 ee a3 3e 21 f4 a7 bd 79 91 86 3e 2d 6b e6 be
       0.3201771 -0.08200861 0.26282862 -0.45003644
0003f0 04 5f 8b be 41 7e 1e be 99 ec 89 3e 43 29 b5 3d
       -0.2722093 -0.1547785 0.26938322 0.08845761

bias f4 [128]
000000 6d 7b 3c be e5 13 ab bc 70 62 45 bd cc cf f9 bd
       -0.18406458 -0.02088351 -0.04818958 -0.12197837
000010 44 0a 8a bd ce d6 4f bd db 1e 17 3d cf 13 2b be
       -0.06740239 -0.050741963 0.03689466 -0.16706775
000020 d5 2d 25 be fe 4d c6 bd a8 39 ad 3d 59 ec 1e be
       -0.16130765 -0.096828446 0.08458263 -0.15519847
000030 ac fd b7 3d c6 61 0e be cb 9e 04 be 09 01 cc bd
       0.08983931 -0.13904485 -0.129512 -0.09961135
000040 de 2c b6 3d d9 e0 e2 3d 74 5c 8b b9 e6 d3 8c 3c
       0.088952765 0.110780425 -0.0002658103 0.017190885
000050 8e b7 01 be 67 3d 23 3c 61 17 24 3e 76 71 7f 3e
       -0.12667677 0.00996337 0.16024543 0.24945626
000060 2a 5d 30 3e 49 42 98 3d b8 80 ed bc c0 c2 ad bc
       0.1722304 0.07434518 -0.028992042 -0.021211028
000070 3f 5f 26 3e 6e 5e 99 bd df 4b d4 3d ea 79 80 be
       0.16247271 -0.07488714 0.10366034 -0.25093013
000080 b8 85 9c bd a7 51 74 3e ca b6 3a be ae bd 47 bd
       -0.07642692 0.23859273 -0.18233791 -0.048764877
000090 62 ed 51 3c 28 5e 34 3d bc 44 fe bd d8 03 37 3e
       0.012812944 0.044035107 -0.12415454 0.1787256
0000a0 9b 56 e3 bd 4d c0 32 3e 36 ce 59 3d 9e fd 47 3d
       -0.11100503 0.1745617 0.053175174 0.048825853
0000b0 ba 52 69 be 07 32 44 bd 89 ee 2d 3e f5 04 2d 3e
       -0.22785464 -0.047899272 0.16985525 0.16896422
0000c0 a3 1f be bd 6d a3 e4 bc 8b f9 7a bd 25 30 35 bd
       -0.09283378 -0.027909959 -0.06127314 -0.044235367
0000d0 ae 44 a1 3d 2a 7a fe bd d0 65 e7 bc 59 6e 99 bd
       0.07874428 -0.12425645 -0.02824679 -0.0749175
0000e0 7c b3 19 bd 6f a5 6f bc 26 96 d5 3a 1f 5e bd bd
       -0.037524685 -0.014626845 0.0016295358 -0.09246468
0000f0 19 10 e5 bd e0 66 aa 3d ee c2 93 3d 5d 0a 3b 3e
       -0.11184711 0.08320403 0.07214914 0.18265672
000100 2d ff 64 bd e1 6d 32 be 76 ad b3 bd 83 3f a5 3b
       -0.055907417 -0.17424728 -0.087733194 0.0050429716
000110 b8 32 a8 bd d5 e5 32 3e 14 fb 3b 3d 4d 98 8a bd
       -0.08212799 0.17470486 0.045893744 -0.0676733
000120 69 f0 db 3b ac bf 38 be e3 76 00 be d6 2b 2b be
       0.0067120087 -0.18041867 -0.12545352 -0.16715941
000130 92 64 1a 3d fa fe 1d be 9f f5 86 bd 33 92 aa 3e
       0.037693568 -0.15429297 -0.06589817 0.33314666
000140 8f 49 b2 bd 93 b9 27 bd b2 94 72 3d c5 33 5d 3d
       -0.087054364 -0.04094846 0.05922384 0.05400445
000150 c2 ec 0b 3d 80 2e c0 bd 5f 40 08 3e 23 6e b1 bd
       0.034161337 -0.09383869 0.13305806 -0.08663585
000160 da cc 91 bd bf eb 2a 3e 5a 85 86 bd 78 f7 5d bd
       -0.071191505 0.16691492 -0.065684035 -0.054191083
000170 ef 37 a0 bd e0 c3 9c bd a9 39 8f bd e5 30 58 be
       -0.078231685 -0.07654548 -0.0699342 -0.21112402
000180 e3 eb 53 3e e2 19 04 be b3 a4 3d 3e a7 68 89 bd
       0.20695452 -0.12900499 0.18519859 -0.06709414
000190 27 06 1a 3d fe 8c ad 3d aa 5b 8f 3d 84 d6 24 bd
       0.037603524 0.08474158 0.069999054 -0.04024364
0001a0 12 99 49 3e 18 09 7d be 42 9f c6 bd 4c 21 06 be
       0.19687298 -0.247105 -0.09698345 -0.13098639
0001b0 44 16 f9 bd 4d 88 38 be 1e 02 db bd 0c af f0 3d
       -0.1216245 -0.18020745 -0.10693763 0.117521375
0001c0 d4 26 ba bd d6 95 2c 3e e6 94 d9 bd 75 bd 88 bd
       -0.09089437 0.16854033 -0.10624103 -0.06676761
0001d0 a8 0b 76 3e 16 a6 0d be 8b 3d d3 bd 7f 56 02 3e
       0.24027884 -0.13832888 -0.10314473 0.12728308
0001e0 6d f3 63 3e 88 e8 82 3d 1a 07 dc 3d c7 cb 1c 3e
       0.22260828 0.06392008 0.10743542 0.1531211
0001f0 f9 2a fa 3d 81 f7 fd bd 6b bc c3 3d 53 f8 71 3e
       0.12215228 -0.12400723 0.09557422 0.23629884

weight f4 [1, 128]
000000 bc ae 0f bf 5e 19 01 bf 57 03 19 bf 95 53 a6 3f
       -0.56126 -0.5042933 -0.5977072 1.2994257
000010 4d 21 13 bf 08 22 14 bf b3 bc 97 bd 7f 40 1a bf
       -0.5747269 -0.5786443 -0.074090384 -0.60254663
000020 d7 e6 08 bf f4 0d 03 bf 19 02 46 3f 10 13 19 bf
       -0.53477234 -0.51193166 0.7734695 -0.5979471
000030 da 25 d0 3f 11 6b 0e bf 53 4d 32 bf ef f6 47 bf
       1.6261551 -0.5563212 -0.6964924 -0.78111166
000040 8a 9d 43 3f 4b e7 31 3f e6 ca ac 3f ee c8 99 3d
       0.7641226 0.6949355 1.349942 0.075090274
000050 17 6a 0b bf 61 6a 0d bf e8 b3 f9 3e ee 30 2d 3f
       -0.54458755 -0.55240446 0.4877007 0.67652786
000060 65 b2 49 3f 0e 4d 5a 3f f7 18 0a bf 9d 2c 9e 3f
       0.78787833 0.85273826 -0.53944343 1.2357365
000070 6b e9 19 3f bb 49 ed be 1c 1f 03 3f 1c 47 48 bf
       0.6012179 -0.46345314 0.51219344 -0.78233504
000080 28 7b 22 bf 6c 20 17 3f 4a fd 09 bf 29 57 c6 3e
       -0.6346917 0.59033847 -0.53902113 0.38738373
000090 93 f8 13 bf 43 80 68 3f de 82 e3 be dc 2a 3e 3f
       -0.5780117 0.9082071 -0.4443578 0.7428415
0000a0 87 a7 3f bf ee 0d 07 3f e7 5e ea be 11 ff 9e 3f
       -0.74865 0.5275563 -0.4577553 1.242159
0000b0 fa 57 35 bf c4 a2 16 bf 2f 3a 20 3f 84 24 58 3f
       -0.70837367 -0.5884211 0.6258878 0.8443072
0000c0 56 7d 1b bf 9a 10 5e 3d 58 d3 87 3d 3c 16 10 bf
       -0.6073812 0.05421505 0.066321075 -0.56283927
0000d0 e5 21 54 3f 6d 4a 26 bf 31 37 0c bf ce 1e 14 bf
       0.8286422 -0.64957315 -0.54771715 -0.57859504
0000e0 d5 82 2a bf ef 1e 02 bf 6a 85 f5 be c8 26 11 bf
       -0.66605884 -0.5082845 -0.4795335 -0.566998
0000f0 9f 60 18 bf 96 8a 50 3f da d6 a7 3a e0 69 c7 3e
       -0.5952243 0.81461465 0.001280512 0.38947964
000100 12 3c 0f bf a5 aa 01 bf 81 ff f5 be 51 7f 0a bf
       -0.55951035 -0.5065101 -0.48046497 -0.5410052
000110 c7 08 14 bf 39 f3 2f 3f c3 c4 4e 3f ed e7 fd be
       -0.57825893 0.68730503 0.80768985 -0.49591008
000120 0b 54 63 3d ae 83 3c bf a7 eb 18 bf 6b 74 fe be
       0.05550007 -0.7363843 -0.59734577 -0.49698195
000130 67 e8 51 3f 41 f4 19 bf 0a f7 16 bf 90 3f 14 3f
       0.8199524 -0.60138327 -0.589707 0.5790949
000140 94 eb 0a bf 44 e1 21 bf cd c3 65 3f ad b1 37 3f
       -0.54265714 -0.63234353 0.89751893 0.71755487
000150 12 b0 8e 3f a9 88 e6 3a 07 f3 d1 3f 09 44 53 bc
       1.1147482 0.0017588335 1.6402291 -0.012894639
000160 23 33 16 bf 97 b9 74 3f 88 1e 1b bf da f0 a6 3f
       -0.5867178 0.9559569 -0.6059346 1.3042252
000170 3e da 10 bf 0a 2f 1b bf b5 cd 16 bf e7 1a f7 be
       -0.5658301 -0.6061865 -0.58907634 -0.48262712
000180 23 82 67 3f 19 78 1a bf ae 3b 8a 3f 21 13 13 bf
       0.9043295 -0.60339504 1.0799463 -0.57451063
000190 f9 9b 56 3f 7b 69 83 3f 11 44 99 bd 17 b2 fe be
       0.83831745 1.0266565 -0.07483686 -0.49745247
0001a0 4b d0 40 3f d5 74 22 bf 3b c8 e2 be a2 65 21 bf
       0.7531783 -0.6345952 -0.4429339 -0.63045704
0001b0 06 b5 24 bf 4d b8 19 bf 2d 45 f2 be 0e ab 22 3f
       -0.6433872 -0.60046846 -0.47318402 0.6354226
0001c0 3e 0b 55 bd 99 26 2c 3f 13 10 0e bf 8b 09 91 3d
       -0.052012675 0.67246395 -0.5549328 0.07081898
0001d0 59 9a 0a 3f d8 21 fc be 3c 1e 21 bf e9 fb 3b 3f
       0.54141766 -0.4924457 -0.6293676 0.7343126
0001e0 98 90 48 3f d0 b5 05 3f 1a fc f5 3e 26 a9 63 3f
       0.7834563 0.5223055 0.480439 0.88929975
0001f0 17 f9 46 3f 4b 1d 26 bf dc a3 c5 3e 7a 49 2c 3f
       0.7772383 -0.6488845 0.38601577 0.67299616

weight f4 [128, 128]
000000 c4 43 9a bd 75 c7 1a be 6c 2a 80 3e 3d 06 e4 bc
       -0.075324565 -0.1511515 0.25032365 -0.027835006
000010 19 96 a0 3d 72 06 0a bf f5 82 75 3d c7 60 87 bd
       0.07841129 -0.53916085 0.059939343 -0.06610256
000020 9a 4c e4 bd 8d d0 25 3d 6b b5 8a bd 00 8d 79 bc
       -0.11147423 0.040482093 -0.06772884 -0.015231371
000030 2f 02 3a 3e 6a ed a5 be d9 ce 00 be 30 7e 32 3e
       0.18164895 -0.32407695 -0.12578906 0.17430949
000040 9c 85 35 3d 11 44 bb bd 04 80 2e be e7 f3 38 3d
       0.044316873 -0.09143842 -0.17041022 0.04515448
000050 7b 13 70 bd c6 e9 3c bd c6 32 84 be e1 83 28 bf
       -0.058612328 -0.04612138 -0.25819987 -0.6582623
000060 58 ea 84 3e 8a 0e 8d 3d 07 c5 48 be e3 2d e8 3d
       0.2596004 0.06887539 -0.1960641 0.11336877
000070 53 78 3f 3e 86 aa d4 3d 4e 30 92 bd 6f 69 48 be
       0.18698244 0.10384087 -0.0713812 -0.1957147
000080 8e 67 f7 be a8 47 1b be 71 f9 bf bc f6 b3 ca 3d
       -0.48321193 -0.15164053 -0.023434373 0.09897606
000090 7e bc cc 3d 09 4f 5c 3c 6b cc e2 be 81 8c bc bc
       0.099968895 0.013446578 -0.44296584 -0.023016216
0000a0 5e c7 e1 be 43 87 11 bf 07 63 87 3c f2 29 81 bd
       -0.44097418 -0.5684702 0.016526712 -0.063068286
0000b0 96 45 aa 3d 26 13 88 be a8 93 56 3e 82 de 97 3e
       0.08314054 -0.2657711 0.20954764 0.29661947
0000c0 9a 8f 1a 3e e1 cf 3f bf 7a 38 7d 3d 20 a9 f0 bd
       0.15093842 -0.74926573 0.06182144 -0.11751008
0000d0 91 ec 19 3c 36 59 1a bd 2c 67 13 be 25 62 43 3e
       0.009394781 -0.037682734 -0.14394826 0.19080408
0000e0 23 9d f6 bd cd 0a 08 be fc bd 51 bf 40 ed b9 bd
       -0.1204169 -0.1328537 -0.8193052 -0.09078455
0000f0 6e 82 78 3d fd 41 d8 3b 81 de 7e 3e 52 dd 24 3d
       0.060671262 0.0065996633 0.24889566 0.04025013
000100 4c 3f 82 3e a5 ea a1 3d 0d 15 79 bc e3 9e 10 be
       0.25438917 0.07906083 -0.015202773 -0.1412311
000110 62 84 f7 bd 71 d3 50 3d 7c 89 12 bf 7c 98 6e 3d
       -0.12085797 0.050982896 -0.57241035 0.05825089
000120 f3 af 3f bd c2 b7 99 be a0 82 0d 3e 5d 8f 3e 3e
       -0.046798658 -0.3002301 0.1381936 0.18609376
000130 86 12 08 be c5 ab 55 3d 14 4d df be ec 89 d2 bd
       -0.13288316 0.052165765 -0.43613493 -0.10280213
000140 07 a0 fa 3d 58 76 38 bf d4 06 1c bd 9c b8 ab 3d
       0.12237554 -0.7205558 -0.03809245 0.08384821
000150 39 2e 0f 3e 77 54 0b bf 86 49 ef 3c c0 9d be 3d
       0.13982476 -0.5442576 0.029209863 0.09307432
000160 ae 47 41 bd 08 7b b0 3d eb 4d d8 bd dd 91 44 3d
       -0.0471875 0.08617216 -0.10561737 0.04799067
000170 e3 6c 36 3d 70 75 05 3e 84 3a 96 3c 7b d3 56 bf
       0.044537436 0.1303308 0.01833845 -0.83916444
000180 33 20 9e 3d 06 41 16 bd 46 ef 60 3e 1d 01 cd bc
       0.07720985 -0.036683105 0.21966276 -0.025024945
000190 4f d2 b4 bc b1 c2 07 3e 0b b1 91 bd 20 7f 9c 3d
       -0.02207294 0.13257863 -0.071138464 0.07641435
0001a0 54 88 af 3c 65 25 c9 be 22 82 15 bd ea f9 5c 3e
       0.021427311 -0.39286342 -0.036501057 0.2157971
0001b0 44 f2 f8 be d8 2d c8 bd 81 0e ad bd 7f 9d 23 bf
       -0.48622334 -0.09774369 -0.08450032 -0.63912195
0001c0 7c 30 2a bf e7 1a 02 3e e8 5d 55 3d 49 c8 63 3d
       -0.6648023 0.12705575 0.05209151 0.05561093
0001d0 81 f7 91 3e f0 a0 81 bd f5 27 9b 3e cc 74 98 3d
       0.28509143 -0.063295245 0.30303922 0.07444152
0001e0 c5 7a 69 bf 89 b8 92 3d 05 5d 16 be b8 ce 39 3d
       -0.91202956 0.071641035 -0.14683922 0.045363158
0001f0 65 61 fb bd 51 da 53 be 63 5d 94 3d e4 5d 45 3e
       -0.12274436 -0.2068875 0.072443746 0.19274098
000200 ff 3a f8 bd 9a b6 8e 3c 52 c7 cd bd 75 22 70 3d
       -0.121206276 0.017421056 -0.10047783 0.05862661
000210 20 0d 21 be d9 b4 c9 3d 88 aa 95 bb 91 b2 cc bd
       -0.15727663 0.09848947 -0.004567448 -0.09994996
000220 6d ae 32 be c8 7b a3 bc 1b b3 71 be 39 ae e3 bd
       -0.1744935 -0.019956484 -0.2360348 -0.11117215
000230 92 50 70 3d 67 35 92 be 89 b8 18 3e 06 ad 3b be
       0.058670588 -0.28556368 0.14914145 -0.18327722
000240 3a ee 0f bd 1e 3f 13 3d 28 52 d0 3d ce ae 0d be
       -0.0351393 0.035948865 0.1017192 -0.13836214
000250 ed aa f9 3d f9 63 07 3c b9 8a aa 3d 9d 04 ba be
       0.12190805 0.008263581 0.083272405 -0.36331645
000260 7a 10 8d 3e 4e eb 08 3c 9b da 65 3d 3d 8f 8d 3d
       0.27551633 0.008356882 0.05611668 0.06912086
000270 dc 3e c2 be 36 80 9b 3d 1f 83 b9 bb 29 45 a5 bd
       -0.37938583 0.07592814 -0.005661383 -0.08069832
000280 0e 45 a8 bd a1 da c1 bc da 50 80 3d 98 eb a8 bd
       -0.08216296 -0.02366382 0.06265421 -0.08248061
000290 2c 6e ee be 63 3a 84 3c 2b 44 fe 3d 2f 8c b2 3c
       -0.4656843 0.016141122 0.12415346 0.02179536
0002a0 38 4f 45 bd ee cc b0 be c3 2f ed bd 13 1c b5 3d
       -0.048171252 -0.3453135 -0.115813754 0.08843245
0002b0 ee 30 ca bd 28 f3 ac 3d c5 ba 35 bd e8 42 5a be
       -0.09872614 0.08444816 -0.04436757 -0.21314585
0002c0 40 1d d4 3d 8b 72 80 bd 45 38 19 3c 80 c8 81 be
       0.103571415 -0.06271847 0.009351795 -0.25348282
0002d0 f9 6d 06 bd ec 1a 08 be 34 1a ae bc 38 32 26 3e
       -0.03281972 -0.1329152 -0.021252729 0.16230094
0002e0 92 ec 2f be 27 17 18 3e 3e d9 03 be bb 77 17 3d
       -0.17180088 0.14852582 -0.1287584 0.03697942
0002f0 26 f1 0b be d5 c4 90 3d 8d 65 af 3c 57 17 a8 3e
       -0.1366621 0.07068793 0.021410728 0.32830307
000300 90 40 28 be 80 64 77 3c 3a 80 48 bf 32 63 99 3e
       -0.16430879 0.015099645 -0.7832066 0.29958493
000310 d6 60 88 bd 86 2a 7a 3c c5 ce d6 bd 50 5b 76 bc
       -0.06659095 0.015268927 -0.10488657 -0.015036419
000320 b1 95 34 be a4 33 f8 bd 0a 1d 4f 3e 96 b8 c9 bd
       -0.17635228 -0.12119225 0.20225921 -0.0984966
000330 fd c7 1c be 38 6e 91 3d 8f 9a 5b bb c1 2b 7c 3e
       -0.15310664 0.07101101 -0.0033508872 0.24626066
000340 7c 04 d4 bd 6e 38 ac 3d c6 79 be 3d 90 7f 0d be
       -0.10352418 0.084092006 0.0930057 -0.13818192
000350 3b eb b4 3d e1 4b a8 3e 2a d9 92 3c 7d 65 4c 3d
       0.08833929 0.3287039 0.017925818 0.049901474
000360 a0 46 74 3e ab ad 19 3e 03 6e 02 3d 27 9e af bd
       0.23855066 0.15007655 0.031843197 -0.08575087
000370 e1 5b 13 be aa 0b 4b 3d 22 20 74 bd 2d 52 f0 3d
       -0.14390518 0.04957167 -0.059600957 0.11734424
000380 2a e7 32 3d 2d 70 10 bd c4 75 02 bd 02 61 c8 3c
       0.043677486 -0.03526323 -0.03185059 0.02446032
000390 73 d8 4a 3e 6a 94 ef be e8 c6 15 be 37 56 36 be
       0.19809131 -0.46792918 -0.14626658 -0.17806326
0003a0 d1 27 25 bd 5e 39 0f bf 80 ac 18 bd 1e f1 33 3e
       -0.040321175 -0.5594691 -0.037273884 0.17572448
0003b0 a1 52 cf 3d c2 09 17 bf 3f 7d ca bd 6f 34 4a 3e
       0.10123182 -0.58999264 -0.0988717 0.19746564
0003c0 a0 38 87 bd 63 b8 f3 bd 53 e6 e3 3d 6c e7 1f 3d
       -0.06602597 -0.11900403 0.11127915 0.03903906
0003d0 bd a2 f4 3e ba c9 9b bc b5 a2 e3 3d 17 95 4d bd
       0.4778041 -0.01901709 0.11115018 -0.05019101
0003e0 ca fb c9 be 6c 83 2b 3d 29 1b e8 3d 01 fc 98 bd
       -0.39449912 0.04187338 0.113333054 -0.07469941
0003f0 d6 de 1b 3e 65 f7 3c 3e a0 02 e3 bd 9b b5 2d bf
       0.15221724 0.18453749 -0.11084485 -0.6785523

bias f4 [128]
000000 78 dc da bb 1a 83 32 3e 78 d6 ef 3d 02 a2 4a bd
       -0.006679114 0.17432824 0.117108285 -0.04947091
000010 90 d5 1b bd cd e9 e4 3d 06 ae cd bb 7b 0c bf 3b
       -0.038045466 0.111774065 -0.0062768487 0.005830345
000020 5a 4e 23 3c 2a 3c 33 3d 02 6d 5b 3d 8e 9b 9d bd
       0.009967411 0.04375855 0.053570755 -0.07695685
000030 bb 66 8b bc 60 40 60 bc 8f 4a 3d bd 84 71 db 3d
       -0.01701676 -0.013687223 -0.046213683 0.10715011
000040 37 a3 2c 3d 04 eb 29 bc 25 a4 30 bc 82 d9 4f 3c
       0.04214784 -0.0103709735 -0.010781323 0.012686135
000050 5a b9 72 3d f1 5d 9c bc 36 2d fc 3c a2 84 44 3d
       0.059258796 -0.019087764 0.030783277 0.04797805
000060 e5 eb 62 bd 73 e0 bd 3d 75 59 67 bd 29 55 e3 3d
       -0.055400748 0.09271326 -0.056481797 0.111002274
000070 a9 66 c4 bb 6e 12 b4 3d c8 05 08 be 5d 64 e0 3d
       -0.0059936834 0.08792578 -0.13283455 0.10956643
000080 4c 8a 0a bb ad 2b ad 3c 58 c8 51 bd 3c b7 4f bd
       -0.002113956 0.02113899 -0.051216453 -0.050711855
000090 69 fa 5a 3d 43 15 f0 3d 1f 70 8a 3d 4b 3a 0e 3e
       0.053461466 0.11722805 0.06759667 0.13889425
0000a0 71 4c 3a 3d 97 23 e0 bd c5 44 49 bc 61 4c f3 3b
       0.045483056 -0.10944288 -0.012284462 0.0074248766
0000b0 7f 0b 03 3e 15 17 06 3d 1f 2d 3d bb 87 dc c1 ba
       0.12797354 0.032736856 -0.0028866006 -0.0014790454
0000c0 39 d1 d4 bc fc 80 aa bc b0 c3 19 bd 8c 6c 37 be
       -0.025978671 -0.020813458 -0.037540138 -0.17912501
0000d0 5c 9e 4f 3d 09 25 fa 3d 2a d7 91 38 23 28 be 3d
       0.050688133 0.12214095 6.954216e-05 0.09284999
0000e0 80 42 29 bc 07 54 22 3e 6a 28 9c 3c cc 4d 89 3b
       -0.010330796 0.15852366 0.01906224 0.0041901823
0000f0 53 d8 1d 3e 05 d9 ed 3c 4a 1d 9e 3d 91 e7 f9 3d
       0.15414552 0.029034147 0.0772043 0.12202371
000100 ce b7 78 3c 48 23 6b bd 2e 9a 89 3c a2 2c 64 bd
       0.015180541 -0.057406694 0.016797151 -0.055706628
000110 d1 09 aa 3c 41 d3 9c 3d 59 ba 92 bc 5f 0d 25 3e
       0.020756634 0.07657481 -0.017911123 0.16118382
000120 32 db 2b be 38 fc 49 3d 38 b9 90 3c d4 f3 39 be
       -0.16782835 0.0493128 0.017666444 -0.1815942
000130 38 e6 4a 3d 96 d2 e3 3d f5 db cf ba cc f1 36 3d
       0.04953596 0.111241505 -0.0015858399 0.04466419
000140 85 95 d7 3c 8b 78 00 3d 25 b2 a9 3c a4 6e 0d bd
       0.026316414 0.03136496 0.020714829 -0.034529343
000150 08 32 32 3e c1 60 a4 bd d6 d3 c8 3d 4c c0 65 3d
       0.17401898 -0.08026267 0.098060295 0.05609159
000160 76 14 87 3d 50 75 e0 bd 8d bb 90 3d dc aa e5 3d
       0.065956995 -0.109598756 0.070670225 0.112142295
000170 9d e0 5f 3d 8d f3 5d 3d 89 0b b4 3d cf 52 cc 3d
       0.054657567 0.054187346 0.08791263 0.09976732
000180 33 8a 2a 3d 42 4b ea bd 90 c3 cf 3d 04 b7 41 bc
       0.041635703 -0.114401355 0.101447225 -0.0118234195
000190 c1 5e e3 3b 45 81 b8 3d 81 56 ab 3d 71 92 02 bc
       0.006938786 0.09009031 0.08366109 -0.007969485
0001a0 60 ad f1 3d a6 c5 b6 bd 3a ed bc 3d 50 52 b4 3d
       0.11800647 -0.08924417 0.09224935 0.08804762
0001b0 52 fe 3a 3c 65 85 cd 3d 70 a1 08 3d f0 e9 1b 3e
       0.011413174 0.100352086 0.033357084 0.15225959
0001c0 fe 1f 1c bd 65 ee 6a bc aa 41 8d bd 3b 5d f9 3d
       -0.038116448 -0.014339064 -0.0689729 0.121759854
0001d0 c0 e8 44 3d c9 c1 4a bd bf 4f 35 3d 10 e8 44 3d
       0.04807353 -0.049501214 0.044265505 0.048072875
0001e0 ea 20 7f bc 50 6b 22 3d f2 10 02 3e 0d 1a 93 3c
       -0.015571812 0.039653122 0.12701777 0.017956758
0001f0 6a 8d 7b 3d 2c 97 5a bd 1e f7 1e 3e fb ee 6b bd
       0.06141416 -0.053366825 0.15523955 -0.057600956

weight f4 [4, 128]
000000 d8 66 01 bf 8b 37 6b 3e 16 3c 05 bd ed e1 ce 3e
       -0.5054755 0.22970407 -0.032528006 0.40406743
000010 a4 e8 69 bd 49 d8 27 be 57 2f 5b bd 8b 9c 01 3e
       -0.05710663 -0.163911 -0.053511944 0.12657373
000020 79 f7 4b bd 73 25 3d 3e f2 9d 42 bd ca 44 ed bd
       -0.049796555 0.18471317 -0.04751391 -0.11585386
000030 fc 51 c7 be 5a ac bc 3c c7 2b 20 3e cf 28 df bd
       -0.38929737 0.023031402 0.156417 -0.108964555
000040 82 1b 57 be 11 ee 32 3e 3e 19 00 bf 0c 14 be be
       -0.21006587 0.17473628 -0.50038517 -0.3712467
000050 56 d7 44 3e a1 7d 46 be 56 e1 57 3e 22 56 78 bd
       0.19222769 -0.19383861 0.21082053 -0.060629018
000060 64 c0 41 3e 93 37 36 3e cc fe 87 be 77 03 f2 be
       0.18921047 0.17794637 -0.26561582 -0.47268268
000070 ad 2f d1 be 96 36 d3 be 76 f3 bc bb 56 10 55 3e
       -0.40856686 -0.41252583 -0.0057663275 0.20807013
000080 b1 84 53 3e fc 18 2e 3e bf 58 15 3d a7 6c 76 bd
       0.20656087 0.17001718 0.036461588 -0.060162213
000090 97 28 83 be 42 ee 39 bd fa 08 7d 3e 3c cc 33 3e
       -0.25616905 -0.045393236 0.24710456 0.17558378
0000a0 75 8e 9a 3d c6 7c 4e 3e 64 fc 11 3d d7 6a c1 be
       0.07546703 0.20164785 0.03564109 -0.37776825
0000b0 a1 3d c0 3c fe 98 55 3d c7 2f b6 3d cc 18 8d 3c
       0.023466887 0.052147858 0.088958316 0.017223738
0000c0 ab 2e cc 3d 5f 2b 52 be e2 87 d1 ba 3f 65 86 3d
       0.09969839 -0.20524357 -0.0015985931 0.0656228
0000d0 9b 4a db bd 0f 20 d4 3d e9 6f 96 be 56 f4 90 3e
       -0.10707589 0.10357677 -0.29382256 0.28311414
0000e0 4e be 5e bd 69 8f 61 bc 55 68 44 3e c8 4b de be
       -0.054380707 -0.013767102 0.19180425 -0.43417192
0000f0 0b d7 58 be c1 39 b2 3e 47 6c f4 bd 1c 33 df 3d
       -0.21175782 0.34809688 -0.11934715 0.1089842
000100 89 a6 2a 3d b6 4f 78 3d 04 a8 db bd c6 27 3d 3e
       0.041662727 0.060622893 -0.10725406 0.18472204
000110 b2 f7 05 3e a8 20 2c bd df 70 81 be fa dc 87 3b
       0.1308277 -0.04202333 -0.25281426 0.0041462155
000120 d0 0d 80 bd 7b 40 93 3e c8 ae 56 bd bb 96 20 3d
       -0.062526345 0.28760132 -0.05241278 0.039206248
000130 25 76 08 3e 47 cc cf 3d 2a b5 99 3e 65 96 94 bd
       0.13326319 0.10146385 0.3002103 -0.07255248
000140 8f 80 90 bd a1 f9 35 3e db 07 35 3e 43 c3 4f 3d
       -0.070557706 0.17771007 0.17678778 0.050723325
000150 41 5f 0b 3e a2 96 0b be 76 30 c1 bd 26 f5 07 bd
       0.13610555 -0.1363168 -0.09433071 -0.033192776
000160 45 28 51 bd c2 54 2f be fb 41 cc be 98 06 32 be
       -0.051063795 -0.17122176 -0.3989409 -0.17385328
000170 ce 88 48 bd 64 4f 57 bc ec d0 eb be 06 36 cd bd
       -0.048958592 -0.013141487 -0.46057832 -0.1002007
000180 c7 17 82 3e 80 22 9f 3d df 48 f6 bd 9a a8 f2 3d
       0.25408766 0.07770252 -0.12025618 0.118485644
000190 3b 22 3a 3d ae 8d 30 be 97 9d 1f bc b9 1e 8d 3d
       0.0454428 -0.17241547 -0.009742162 0.068906255
0001a0 51 1a e3 bd 14 ef c5 bc 0f e6 1b 3e 48 b6 8b bc
       -0.11089004 -0.024161853 0.15224479 -0.017054692
0001b0 c9 80 fc be 59 e7 ac 3a c6 4d 50 3e 1d cf 2f bc
       -0.49317005 0.0013191506 0.20342168 -0.010730532
0001c0 45 3b 52 be 9b 01 1a bd 31 3e 82 3c 4b e9 95 bd
       -0.20530422 -0.037599187 0.015898796 -0.07319888
0001d0 fa ce 53 bd 07 8e 3a be 2c 6b 11 3f 34 fc 8f bd
       -0.05171106 -0.18218242 0.56804156 -0.07030526
0001e0 51 f7 61 bd e2 be 03 3e b1 6a 93 3e 7e 3e 52 bd
       -0.0551675 0.12865785 0.28792337 -0.05132913
0001f0 2e 6d fb 3d 64 34 b5 3e 63 c2 2e bd 57 3a 19 3d
       0.12276684 0.35391533 -0.04266585 0.037409153
000200 60 20 43 bf cf aa c8 3e 78 0b b1 3e 53 fb 10 3f
       -0.76221275 0.39192817 0.34579062 0.5663349
000210 c8 ae fc bd e2 21 7e 3e a9 39 12 be 96 59 d5 be
       -0.123380244 0.24817613 -0.14279808 -0.4166991
000220 80 3b ca 3e a1 76 4c be 58 09 44 bd c1 6f 60 3e
       0.3949852 -0.19967128 -0.047860473 0.2191763
000230 79 35 b7 3e 69 2a 7e 3e 04 52 e6 3e 06 fd 10 be
       0.35782984 0.24820866 0.44984448 -0.14159021
000240 2a b1 a9 3e ed bb da be 82 f2 0f 3e ee 71 0f bf
       0.33142978 -0.427215 0.14057353 -0.5603322
000250 76 0d 4b 3e 5c b7 bc be f8 c1 e6 be c9 32 ee 3e
       0.19829354 -0.36858642 -0.4506986 0.4652312
000260 b4 3f 5b bd 3a ac 81 3e 96 80 f3 be 15 ba 29 3d
       -0.05352755 0.2532671 -0.4755904 0.041437227
000270 82 9c cb be ed 1d 0d bf 93 28 af be 00 db 1d 3f
       -0.39767843 -0.5512379 -0.34210643 0.6166229
000280 a7 a4 dc 3e 6c 09 a1 3e ea 8a ad 3e 2d 7f 29 be
       0.4309437 0.314525 0.33895046 -0.1655242
000290 64 6c 2c bf c8 07 cf be 6a 14 ee 3e 35 f7 31 be
       -0.6735289 -0.40435624 0.4649995 -0.17379458
0002a0 2e 79 f7 3d b5 6f ca bd ac 6b 11 be f6 d2 16 bf
       0.1208366 -0.09884588 -0.1420123 -0.5891565
0002b0 4f 40 f8 bc 9e 4b 2f bb a1 64 36 be 6c db 67 3e
       -0.030304102 -0.0026747952 -0.17811824 0.22642297
0002c0 fe 55 83 3e 62 d5 9a bb 90 f7 05 bf 4e a3 5f be
       0.25651544 -0.0047251442 -0.52330875 -0.2183964
0002d0 19 ab db 3e 7e d6 cb bd c6 ec 37 bf 42 85 c4 3e
       0.42903975 -0.099530205 -0.7184566 0.38382918
0002e0 ec f6 8c bd 3d 51 89 be 23 bc 82 3e 12 02 81 3e
       -0.06883034 -0.26819792 0.25534162 0.25196892
0002f0 b1 dd 39 bf 62 a0 37 3f e4 76 be 3c 92 55 ac 3e
       -0.726039 0.717291 0.02325005 0.33659035
000300 3b 07 86 bd 88 d4 ca bc 33 b0 ba 3e 1b 5e ce be
       -0.06544348 -0.024759546 0.36462554 -0.40306172
000310 13 a3 b1 3e 37 02 99 bd 60 ac c9 be ec 64 99 3e
       0.34694728 -0.074711256 -0.39389324 0.2995981
000320 01 b9 0a bf b7 82 a4 3e d2 54 aa be fc 5b 05 be
       -0.54188544 0.32130978 -0.33267838 -0.1302337
000330 32 a7 95 3d 70 ea 39 3c d2 04 3a 3c 05 96 eb bd
       0.073072806 0.011347398 0.011353688 -0.11503223
000340 7c 28 1d bd 50 3a f0 3d 27 c2 df be 7d e8 9d 3e
       -0.038368687 0.11729872 -0.43702814 0.30841437
000350 ce 6a ad 3e 02 87 b9 be 12 5f fb bd fb f1 70 3e
       0.33870548 -0.36235815 -0.122739926 0.23529808
000360 71 94 03 be 83 2d f9 be bd cd b8 be d6 7f 04 bf
       -0.12849595 -0.48667535 -0.36094466 -0.5175756
000370 ed 79 a7 3d 5c c8 0e bd d5 28 44 bd 57 62 ab bd
       0.08177552 -0.034859046 -0.047890503 -0.08368366
000380 fa 4b 9f be 52 85 12 3d c7 80 b4 3d 66 1d 8c 3e
       -0.31112653 0.035771675 0.08813625 0.2736618
000390 d0 da 0c be 14 5e 1d bf 61 d9 bb bd cb 35 e4 bd
       -0.13755345 -0.61471677 -0.09172321 -0.11143073
0003a0 57 6f fd 3d 85 bd 62 3d 20 a4 ab be 4a 5f 61 3e
       0.12374752 0.05535652 -0.33523655 0.22009006
0003b0 27 29 35 3f 5e 3a d5 bc 45 b5 94 3e a0 9b f2 3d
       0.7076592 -0.026028808 0.29044548 0.11846089
0003c0 e9 51 65 3e 28 fa 82 3e c1 47 59 bd aa 83 4b bd
       0.22394527 0.2558148 -0.053046945 -0.04968611
0003d0 72 e4 a1 3e 0f b1 b5 be bc 49 a0 3e 72 66 83 bd
       0.31619602 -0.35486647 0.31306255 -0.06416024
0003e0 5f da 0c bd 2b 95 94 bd 8d bf d1 bb a1 38 e5 3e
       -0.034387942 -0.07255014 -0.0064010085 0.44769767
0003f0 fd 1b ad 3e fe b5 14 bd 17 bf 85 bc 27 7c 4c be
       0.33810416 -0.036306374 -0.01632647 -0.19969235

bias f4 [4]
000000 fc 43 85 bc 9c 85 8e 3d b3 76 af 3d 26 88 ad bb
       -0.016267769 0.06959078 0.08567562 -0.005295771
