problem1/models/underway/success_whole_model_1766858101.pth (torch, 146613 bytes, 9 tensors)

weight f4 [128, 8]
0	0x3f2a6732	0.66563714
1	0xbe8633fd	-0.2621154
2	0x3d837b85	0.06420044
3	0xbe9d1c02	-0.3068543
4	0xbe129006	-0.14312753
5	0xbe9ccbff	-0.30624387
6	0x3e9bbd60	0.3041792
7	0x3e0ad678	0.13558376
8	0x3de77baf	0.11302888
9	0x3e277746	0.16354093
10	0xbd66d496	-0.05635508
11	0x3ddc29fb	0.10750195
12	0x3e5a4292	0.21314457
13	0xbe6bcdd6	-0.23027739
14	0x3ed7040f	0.41995284
15	0x3ebdee42	0.3709584
16	0x3eda4cea	0.42636806
17	0xbea87d4a	-0.32908088
18	0xbe6ad748	-0.22933686
19	0xbf0ac10f	-0.54200834
20	0x3e94bf1c	0.29052055
21	0x3ee18ba2	0.44051844
22	0xbcffca0e	-0.031224277
23	0x3eccaa59	0.39973715
24	0x3d895434	0.067055136
25	0x3d59c7c9	0.053169046
26	0xbedf7c8b	-0.43649706
27	0x3ee1b421	0.4408274
28	0x3ed85c5b	0.42257962
29	0x3ec73ba3	0.38912687
30	0x3e900dd7	0.2813556
31	0x3e3f4036	0.18676838
32	0xbf7f3885	-0.99695617
33	0x3e48e510	0.1961863
34	0xbebb6892	-0.36603218
35	0x3de1d9f9	0.11027903
36	0x3ead77e3	0.3388053
37	0xbd4a7cd7	-0.049435463
38	0x3e294ab8	0.16532409
39	0x3deb97fc	0.11503598
40	0x3e97af52	0.29625946
41	0x3de151d8	0.110019386
42	0xbeb2ff55	-0.34960428
43	0x3f5a3c82	0.8524858
44	0xbe84a5d7	-0.25907776
45	0xbf1ebb60	-0.6200466
46	0x3e0076fc	0.12545389
47	0xbe8e4379	-0.27785853
48	0xbf425a09	-0.7591863
49	0x3eec0e74	0.46104777
50	0xbe6de05d	-0.23230119
51	0xbf146598	-0.5796752
52	0x3eff6acd	0.4988617
53	0x3e213851	0.15744139
54	0xbcb361bb	-0.021897187
55	0xbcb6e1e9	-0.02232452
56	0xbcb2ec82	-0.021841291
57	0xbecae74d	-0.39629593
58	0xbe82d5c7	-0.25553724
59	0xbead9b49	-0.33907536
60	0xbb1aaa1c	-0.0023599928
61	0xbe9f035f	-0.3105726
62	0x3d68e69f	0.056860562
63	0x3e817432	0.25283962
64	0xbe814e9c	-0.25255287
65	0x3cab96ec	0.020945989
66	0xbf240ec4	-0.6408503
67	0x3e535546	0.20637998
68	0x3c95caeb	0.018285235
69	0xbda6d78a	-0.081465796
70	0x3eb36c85	0.3504373
71	0xbe449aa1	-0.19199611
72	0x3f7a1a56	0.97696435
73	0xbedcdae4	-0.4313575
74	0x3f0c953d	0.5491522
75	0xbf14ec7e	-0.5817336
76	0xbe6a7001	-0.22894289
77	0x3d06e7c9	0.03293589
78	0x3d13cff2	0.036086984
79	0x3c4bc433	0.012436914
80	0xbe6b1c23	-0.22959952
81	0x3f70e21b	0.9409501
82	0xbe992f23	-0.29918775
83	0xbf80b242	-1.00544
84	0xbed9d8b5	-0.42548147
85	0xbdc705c3	-0.09717896
86	0x3bffcad6	0.0078061623
87	0xbe6ab1e7	-0.22919427
88	0x3eb15e2e	0.34642166
89	0x3eac0f28	0.33605313
90	0xbec9ef95	-0.394406
91	0xb9c213ac	-0.0003701722
92	0xbe4439d3	-0.19162683
93	0xbe13d099	-0.14435042
94	0x3e814408	0.25247216
95	0xbca67569	-0.020319657
96	0xbdb4d38b	-0.08829411
97	0xbe9e2f55	-0.30895486
98	0x3e32b5b4	0.17452127
99	0xbf037265	-0.5134643
100	0xbe9cfd79	-0.30662134
101	0xbebbe01d	-0.36694422
102	0xbf2b9f30	-0.67039776
103	0xbd98d1f4	-0.074619204
104	0xbd19b948	-0.037530214
105	0x3ebc1185	0.36732116
106	0x3e97d4c0	0.29654503
107	0xbd55b755	-0.052176792
108	0xbf2d2f08	-0.6764989
109	0x3de8dddf	0.113704436
110	0x3ed1c5fd	0.40971366
111	0x3e5251e0	0.20539045
112	0xbe2a76b8	-0.1664685
113	0x3edbf9ef	0.42964122
114	0x3ec37260	0.381732
115	0xbdfa6162	-0.122256055
116	0x3e9983b9	0.2998331
117	0xbea7e73d	-0.32793608
118	0xbeaec081	-0.34131244
119	0xbca7ed9c	-0.020499043
120	0xbec30054	-0.38086188
121	0xbafb78f8	-0.0019185832
122	0xbf4c1852	-0.7972461
123	0xbf00ba98	-0.5028472
124	0x3e67fcf4	0.22655088
125	0xbd8754b8	-0.06607956
126	0xbd29eb99	-0.04148445
127	0x3d2afe93	0.041746687
128	0x3e89dc1c	0.26925743
129	0xbe88ed61	-0.26743606
130	0xbeb95ccf	-0.3620362
131	0xbf100e68	-0.5627198
132	0x3cd99ded	0.026564563
133	0x3d92bed8	0.07165307
134	0xbe6e1d7c	-0.23253435
135	0xbe30610c	-0.1722452
136	0x3e42dda0	0.19029856
137	0xc006fbdf	-2.109123
138	0x3f482870	0.781867
139	0xbee05da3	-0.4382144
140	0xbead9192	-0.33900124
141	0xbe6a34f6	-0.22871765
142	0x3dfa3162	0.1221645
143	0x3e3e353e	0.18574998
144	0xbdb21b5e	-0.08696626
145	0x3f537bdb	0.82610863
146	0x3f6cc6a3	0.92490596
147	0x3e8d1088	0.27551675
148	0xbf013818	-0.5047622
149	0xbd3c183f	-0.04592156
150	0x3c97ffcc	0.01855459
151	0x3ce82c3b	0.028341403
152	0xbf328ca5	-0.69745857
153	0xbdb749c5	-0.08949617
154	0xbee1dd3b	-0.44114098
155	0x3dd71f8b	0.10504063
156	0x3eb7e0b2	0.35913616
157	0xbd39ad44	-0.045331255
158	0x3e892823	0.26788434
159	0xbc0bfdcc	-0.008544397
160	0xbd2c7ae5	-0.04210939
161	0x3e2023f3	0.15638714
162	0x3d7e4d53	0.06208546
163	0x3cc30ca4	0.023809738
164	0xbeafd2e8	-0.34340596
165	0x3ebc89b3	0.36823806
166	0xbf3d1eb2	-0.7387496
167	0xbd2967c3	-0.04135872
168	0x3e160d8f	0.1465361
169	0xbf9d45f0	-1.2286968
170	0x3e07171b	0.13192408
171	0xbf7d06eb	-0.9883868
172	0x3e89be41	0.26902965
173	0x3e8579cb	0.26069483
174	0xbcb8046d	-0.022463048
175	0xbed3ca21	-0.4136515
176	0x3e826872	0.2547031
177	0xbe5bba35	-0.21457751
178	0x3e355d0b	0.17711274
179	0xbad6a9ba	-0.0016377487
180	0xbe86c946	-0.26325434
181	0xbe93d31a	-0.28871995
182	0x3e051349	0.12995638
183	0x3dfe7ec0	0.124265194
184	0xbe154dd1	-0.14580466
185	0x3ee7e84b	0.45294413
186	0xbdf51b33	-0.119680785
187	0x3eed6028	0.46362424
188	0x3e380c7b	0.17973511
189	0xbea95029	-0.3306897
190	0xbee883e1	-0.45413116
191	0xbebeacf1	-0.3724132
192	0xbe06d9cd	-0.13169022
193	0x3bc2f9e8	0.0059502013
194	0x3f4d2d4e	0.80147254
195	0xbf017e5f	-0.5058345
196	0x3f1bf40c	0.6091926
197	0x3e44ea6d	0.19230051
198	0xbdddcc5f	-0.10829996
199	0xbea6e49c	-0.3259629
200	0x3d013c80	0.031551838
201	0x3e907d62	0.2822066
202	0xbed10da4	-0.4083072
203	0xbec47c44	-0.38376057
204	0x3daf4751	0.085585244
205	0xbdacd963	-0.08439901
206	0xbb0e89a1	-0.0021749514
207	0xbe60fc0e	-0.21971151
208	0x3ea69919	0.3253868
209	0x3ee074a4	0.4383899
210	0x3e714a35	0.23563464
211	0x3d2d2128	0.04226795
212	0xbe946d30	-0.28989553
213	0xbf00d6a5	-0.5032752
214	0xbf1f99ca	-0.6234404
215	0xbe2d5072	-0.16925219
216	0xbe679cad	-0.22618361
217	0x3e23c60e	0.1599352
218	0x3d120340	0.03564763
219	0xbf3d8f65	-0.7404693
220	0x3e8aef24	0.27135575
221	0x3f004fd4	0.5012181
222	0x3e7ecb2c	0.24882191
223	0x3ebeeda4	0.3729068
224	0x3d031683	0.03200389
225	0x3cf4f3e5	0.029901454
226	0x3e294d98	0.16533506
227	0xbe72d534	-0.23714143
228	0x3f9b2ecb	1.2123655
229	0xbd8a4987	-0.067523055
230	0xbd249a4b	-0.040186208
231	0xbe67e33a	-0.22645274
232	0xbdf3f79f	-0.11912464
233	0xbdf6c7a3	-0.120497964
234	0x3ea5b520	0.3236475
235	0x3d667eb8	0.056273192
236	0xbed965f5	-0.424606
237	0xbf018ccc	-0.50605464
238	0x3e06b4d3	0.13154916
239	0x3ebd2b3f	0.36947057
240	0xbe5c7c67	-0.2153183
241	0x3ed825d3	0.42216358
242	0xbe257f12	-0.16161755
243	0xbe7f7a65	-0.24949034
244	0xbd4bc94a	-0.04975251
245	0xbe51b8af	-0.20480607
246	0xbe1a29f2	-0.15055063
247	0x3eb4d864	0.35321343
248	0xbea33dd9	-0.31883124
249	0x3dea975f	0.11454653
250	0xbeb07d3e	-0.34470552
251	0x3edf6774	0.43633616
252	0x3e5e4b8c	0.21708506
253	0x3ee64e53	0.44981632
254	0xbf16508f	-0.5871667
255	0x3de5ca47	0.11220222

bias f4 [128]
0	0xbe44ca11	-0.19217707
1	0x3e9d22af	0.30690524
2	0xbdc1c752	-0.094618455
3	0x3e9eb7bb	0.3099955
4	0xbca960cb	-0.020676037
5	0x3e6d3581	0.23164941
6	0x3d73b69e	0.05950033
7	0x3f2b168d	0.66831285
8	0x3f0e322b	0.555453
9	0xbd7486ce	-0.059698872
10	0x3e2813b7	0.1641377
11	0x3f159d0c	0.5844276
12	0xbd41f8dd	-0.047356475
13	0xbc7e24dd	-0.015511719
14	0x3ed06fe2	0.4071036
15	0xbe5d14d1	-0.21589972
16	0x3eaed75a	0.34148675
17	0x3d8ffccf	0.07030641
18	0x3ed24edd	0.41075793
19	0x3d213e50	0.039366066
20	0xbe6a20e9	-0.22864117
21	0x3e4b6419	0.19862403
22	0x3ee8d800	0.45477295
23	0x3df11183	0.11770918
24	0x3dacaa56	0.084309265
25	0x3e8e8407	0.27835104
26	0x3d57b9ef	0.052667554
27	0x3e381191	0.17975451
28	0xbd19ef81	-0.037581924
29	0xbc74fa87	-0.0149523085
30	0x3eec595e	0.46161932
31	0xbef74e11	-0.48301747
32	0x3e1b32b6	0.15156063
33	0x3f0b470c	0.54405284
34	0xbeb40df2	-0.3516689
35	0xbe180373	-0.14845066
36	0xbdae539d	-0.08512042
37	0xbc928290	-0.017884523
38	0x3e465e5f	0.19371937
39	0x3e667d4b	0.22508733
40	0xbe6b8687	-0.23000537
41	0xbec5e932	-0.38654476
42	0x3ee31cbf	0.4435787
43	0x3e4fb2fb	0.2028312
44	0x3e0a6033	0.1351326
45	0x3e902315	0.28151765
46	0x3e07c480	0.13258553
47	0xbbfcd071	-0.007715278
48	0xbeb189fb	-0.34675583
49	0xbd3c6257	-0.04599222
50	0x3ebb95d8	0.3663776
51	0x3d9e9780	0.0774374
52	0x3f29c657	0.6631827
53	0xbd00083b	-0.03125785
54	0x3ec4a986	0.38410586
55	0x3d9c713a	0.07638784
56	0xbce97ccf	-0.028501896
57	0x3ef7630d	0.48317757
58	0xbef0da3d	-0.47041503
59	0x3ee6899b	0.4502686
60	0xbe144cc9	-0.14482416
61	0x3ea84468	0.3286469
62	0xbb4b11ad	-0.0030985877
63	0x3dedceb0	0.11611688
64	0xbe822bab	-0.2542394
65	0x3e347c58	0.17625558
66	0x3d3c47e9	0.045967016
67	0x3f00f3fd	0.50372297
68	0x3e7c2a2d	0.24625464
69	0xbe337087	-0.17523395
70	0xbdd3847d	-0.103280045
71	0x3dbc3136	0.09189074
72	0xbd058420	-0.032596707
73	0x3d9b33fa	0.07578273
74	0x3d8fc142	0.07019283
75	0x3e645733	0.22298889
76	0xbd55e7d5	-0.052223045
77	0x3ec0cbb9	0.37655428
78	0x3ce58f03	0.028022295
79	0x3e00d715	0.12582047
80	0x3e2455e9	0.16048397
81	0x3e05c5fa	0.13063803
82	0xbd30a02b	-0.043121498
83	0x3cc6cc2b	0.024267277
84	0x3e006ed2	0.12542275
85	0x3e097a24	0.13425499
86	0x3ea56562	0.3230391
87	0xbde3082a	-0.110855415
88	0x3e08e9a1	0.13370372
89	0x3f020a71	0.5079718
90	0x3dd18f0c	0.10232362
91	0x3f10e9b9	0.5660663
92	0xbe507748	-0.20358002
93	0xbef19f01	-0.47191623
94	0x3e86d65a	0.26335412
95	0x3e4e116b	0.20123832
96	0x3e7a9de9	0.244743
97	0x3e99e24e	0.3005547
98	0x3dea1bce	0.114310846
99	0x3e10ba9f	0.1413369
100	0x3ea72c2c	0.32650888
101	0x3dec493a	0.11537404
102	0xbd7b9167	-0.061417963
103	0x3e70dcbc	0.23521703
104	0x3f0d4ab3	0.55192107
105	0xbdfc2771	-0.1231221
106	0x3dfddcbc	0.12395617
107	0x3e664437	0.2248696
108	0x3ee68ad1	0.45027784
109	0xbdfb7c51	-0.12279571
110	0x3db53c4c	0.08849391
111	0x3ec30178	0.38087058
112	0xbde29bcb	-0.110648714
113	0xbc9f36be	-0.019435283
114	0x3e42dfa5	0.19030626
115	0x3ebc2293	0.36745128
116	0x3c1ca2b3	0.009560275
117	0x3ea509c9	0.32234028
118	0xbc2315af	-0.0099539
119	0xbe7893ec	-0.24275178
120	0xbd083a73	-0.033258867
121	0x3e7fb209	0.24970259
122	0x3ed64edd	0.41857043
123	0x3e26e6d5	0.16298993
124	0x3e3f55be	0.18685052
125	0x3e12a166	0.14319381
126	0xbd66089c	-0.056160554
127	0xbd38fb8a	-0.04516176

weight f4 [128, 128]
0	0x3e9dc740	0.30816078
1	0xbe37d9d3	-0.17954187
2	0xbd4f5d71	-0.050626222
3	0x3e10098a	0.14066139
4	0x3e9d01f3	0.3066555
5	0xbdfd498b	-0.12367543
6	0x3e875367	0.26430818
7	0x3de62fae	0.11239563
8	0x3d87274e	0.06599294
9	0x3f367134	0.71266484
10	0x3e21bbeb	0.15794341
11	0xbc604630	-0.013688609
12	0x3e8b422d	0.27198926
13	0x3e013f66	0.12621841
14	0xbe4f2f3d	-0.20232864
15	0x3e82a75e	0.25518316
16	0x3d44c565	0.048039813
17	0xbd2e77ce	-0.042594723
18	0x3d835a54	0.06413713
19	0x3e8250d8	0.25452304
20	0x3ed0b366	0.4076187
21	0xbe329a00	-0.17441559
22	0x3e17d6ad	0.14827986
23	0x3df8879f	0.12135243
24	0xbeaef364	-0.34170067
25	0xbd8115fd	-0.06303022
26	0x3dbe74a5	0.09299592
27	0x3d5193c3	0.051166307
28	0xbf3a01f1	-0.7265921
29	0x3eb1d56d	0.34733143
30	0x3b61042c	0.0034334762
31	0x3eca41d4	0.39503348
32	0x3eae0ee1	0.33995727
33	0xbe3052a3	-0.17219023
34	0x3ed39ccb	0.4133056
35	0x3e159871	0.14608933
36	0xbec3a092	-0.38208443
37	0x3ec6ca37	0.38826153
38	0x3dbab864	0.09117201
39	0x3de4f379	0.11179251
40	0x3ef18d62	0.4717818
41	0x3edd0ed4	0.43175375
42	0xbe3afd4a	-0.18260685
43	0x3c432977	0.011911741
44	0x3e800895	0.25006548
45	0x3e4f070c	0.20217532
46	0x3e45942d	0.19294806
47	0x3e9cbfee	0.3061518
48	0x3ef09deb	0.46995482
49	0x3e0eb259	0.13935222
50	0x3d84f1f2	0.0649146
51	0x3eaab556	0.33341473
52	0x3d999707	0.07499509
53	0x3e66bcab	0.22532909
54	0x3de35a23	0.111011766
55	0xbea22ea8	-0.3167622
56	0x3d0ccf78	0.034377545
57	0x3b934458	0.004494231
58	0x3b6821a8	0.0035420451
59	0xbdc04402	-0.093879715
60	0xbedf07b8	-0.43560576
61	0xbc11069d	-0.008851674
62	0x3e55187a	0.20810118
63	0xbe8fe632	-0.28105313
64	0x3ed5090d	0.41608468
65	0x3cd330fd	0.025780195
66	0xbee8b2c4	-0.45448887
67	0x3df492f4	0.119420916
68	0xbeb3de9a	-0.3513077
69	0x3dd00783	0.10157683
70	0x3e1fb00c	0.155945
71	0x3e93498a	0.28767043
72	0x3e839b95	0.25704637
73	0x3e1ceb5d	0.15324159
74	0xbf19597b	-0.5990216
75	0x3e3eb319	0.18623008
76	0x3ee4d1dd	0.44691363
77	0x3daf1976	0.08549778
78	0x3e04a9c6	0.12955388
79	0xbe3e117c	-0.18561357
80	0x3da45998	0.08024901
81	0x3ea61d2a	0.32444125
82	0xbf0f5c8a	-0.5600058
83	0x3d73c18d	0.059510756
84	0x3dad12dd	0.084508635
85	0x3e6b11d3	0.22956018
86	0x3d964445	0.0733724
87	0x3e615b81	0.22007562
88	0x3e4555ca	0.19271007
89	0x3cca7df1	0.024718257
90	0xbdaead40	-0.085291386
91	0xbdc526b5	-0.096265234
92	0x3eb194d9	0.34683874
93	0x3e7fb157	0.24969994
94	0xbe9480f4	-0.29004633
95	0x3d913059	0.070893
96	0x3e60db40	0.21958637
97	0x3e404b95	0.18778832
98	0xbe8e88f3	-0.2783886
99	0xbe82b832	-0.25531155
100	0x3d858901	0.06520272
101	0xbe5ed931	-0.2176254
102	0x3f14de1b	0.58151406
103	0x3d986864	0.07441786
104	0x3db64c7b	0.08901306
105	0x3d816efe	0.06319998
106	0x3e32c98e	0.174597
107	0x3e4663d7	0.19374023
108	0x3e248976	0.16068062
109	0xbde4b194	-0.11166683
110	0x3dda9c14	0.10674301
111	0x3e43f18b	0.1913511
112	0x3e450084	0.19238478
113	0x3e480ec5	0.19536884
114	0x3e654256	0.22388586
115	0xbe052292	-0.13001469
116	0xbf465365	-0.77471
117	0x39fed97b	0.0004860869
118	0xbe87edc8	-0.265486
119	0x3d001aa8	0.03127542
120	0x3d5489d3	0.051889252
121	0x3abb686b	0.0014298087
122	0x3dcef5af	0.10105454
123	0xbedd609b	-0.43237767
124	0xbe943bcc	-0.2895187
125	0xbe58b346	-0.21162137
126	0x3e9e0f7a	0.30871183
127	0x3c88df41	0.016708018
128	0x3e6f5761	0.23373176
129	0xbcbd5159	-0.023110079
130	0xbe0d25aa	-0.13783899
131	0x3d235c2d	0.039882828
132	0x3ed6bff4	0.41943324
133	0x3d331db1	0.043729488
134	0x3e6e3531	0.23262478
135	0x3e15a91f	0.14615296
136	0x3d1718c2	0.036888845
137	0x3f299387	0.66240734
138	0x3e50f23a	0.20404902
139	0xbcefa752	-0.02925459
140	0x3ec3c904	0.382393
141	0x3d129294	0.03578432
142	0xbe1f5f0d	-0.15563603
143	0x3e206236	0.15662464
144	0x3c966287	0.018357528
145	0xbe08ab12	-0.13346508
146	0x3e27bd44	0.16380793
147	0x3e646bb3	0.22306709
148	0x3edadec1	0.42748073
149	0xbe43b1df	-0.19110821
150	0x3e4fcd42	0.20293143
151	0x3e7185bb	0.2358617
152	0xbec404d4	-0.38284934
153	0xbba0e00e	-0.004909522
154	0x3e72be8a	0.23705497
155	0x3dde507d	0.10855196
156	0xbf0f54af	-0.5598859
157	0x3e80241b	0.25027546
158	0xbd97a90e	-0.074052915
159	0x3eb12c4e	0.34604114
160	0x3eb87b4c	0.36031568
161	0xbe098922	-0.13431218
162	0x3ee4c55b	0.4468182
163	0x3e313049	0.17303576
164	0xbe908280	-0.28224564
165	0x3e58032b	0.21094958
166	0x3d1a6849	0.03769711
167	0x3e190a20	0.14945269
168	0x3f140bba	0.57830393
169	0x3efe07ca	0.49615318
170	0x3c96fada	0.018430162
171	0xbcbc2668	-0.022967532
172	0x3e35b6e1	0.17745544
173	0x3e574bda	0.21025029
174	0x3e6c9a55	0.23105748
175	0x3e6b7772	0.22994784
176	0x3ed3cf91	0.41369298
177	0x3e992df3	0.2991787
178	0x3cc56aa0	0.024098694
179	0x3ed5be93	0.4174696
180	0x3b8e03a8	0.004333932
181	0x3e235c38	0.15953147
182	0x3d938e77	0.072049074
183	0xbe5e1509	-0.21687712
184	0x3e330828	0.1748358
185	0xbd8f2017	-0.069885425
186	0x3dc39bb3	0.09551182
187	0x3ce873a3	0.028375452
188	0xbf08b7cc	-0.5340545
189	0xbd2c9b18	-0.042140096
190	0x3dd2b52b	0.10288461
191	0xbe9ee453	-0.31033573
192	0x3efeb54b	0.4974769
193	0x3d92d0b0	0.0716871
194	0xbea2d850	-0.31805658
195	0x3e7e1f6d	0.24816675
196	0xbe4f1ca1	-0.20225765
197	0x3b819889	0.003954951
198	0x3e900146	0.28125972
199	0x3e78e6ac	0.24306744
200	0x3e61aa99	0.22037734
201	0x3e4dbc27	0.20091306
202	0xbf1bc58b	-0.608483
203	0x3e7684ad	0.2407405
204	0x3ee9b956	0.45649213
205	0x3c600fa2	0.013675602
206	0x3e6b32b9	0.22968568
207	0xbeb3b297	-0.3509719
208	0x3de3d7b3	0.11125126
209	0x3ec8c4fe	0.39212793
210	0xbee14e4a	-0.44005042
211	0x3d80d40c	0.06290445
212	0x3dea8ccf	0.11452638
213	0x3e04db58	0.12974298
214	0x3d34d8b0	0.04415196
215	0x3e743cff	0.23851393
216	0x3e461aab	0.1934611
217	0x3dc6d145	0.09707884
218	0xbe0dbe08	-0.13842022
219	0xbaba85d4	-0.0014230558
220	0x3e87f5e2	0.2655478
221	0x3e933edc	0.28758895
222	0xbe9a64ff	-0.3015518
223	0x3e7fd6f7	0.24984346
224	0x3e95674d	0.29180375
225	0x3e1ca2d3	0.15296488
226	0xbeb3358b	-0.35001788
227	0xbe390f6d	-0.1807229
228	0x3e41dde7	0.18932305
229	0xbea73d3d	-0.3266391
230	0x3ecafaab	0.3964437
231	0x3de4aa49	0.11165292
232	0x3cfe1e74	0.03102038
233	0x3e39e75b	0.18154661
234	0x3d4974df	0.049183723
235	0x3d8117ca	0.063033655
236	0x3e297d9f	0.16551827
237	0xbcccbdce	-0.02499285
238	0x3e4e55fb	0.20149986
239	0x3e81a81d	0.25323573
240	0x3eb38ed6	0.35069913
241	0x3d7d361b	0.061819177
242	0x3e655692	0.22396305
243	0xbdf7d7b5	-0.1210169
244	0xbf2674b5	-0.6502183
245	0x3e0a760c	0.13521594
246	0xbe42d259	-0.19025554
247	0x3d5c38ad	0.053764988
248	0x3e8ce900	0.27521515
249	0xbdf7b23f	-0.120945446
250	0x3e90460c	0.28178442
251	0xbedfdd02	-0.43723303
252	0xbe93f933	-0.2890106
253	0xbe29c4a6	-0.16578922
254	0x3e8fd24f	0.2809014
255	0x3d7e3a01	0.062067036

bias f4 [128]
0	0xbe455ddd	-0.19274087
1	0xbcbfc79d	-0.023410613
2	0xbd39e6e3	-0.045386206
3	0xbe1fd2e4	-0.15607792
4	0xbd3375a8	-0.043813378
5	0xbd61f4c5	-0.05516507
6	0x3d171edb	0.03689466
7	0xbe1df98f	-0.1542723
8	0xbe371436	-0.17878804
9	0xbd9d8afe	-0.07692526
10	0x3dacd812	0.0843965
11	0xbe3927eb	-0.18081634
12	0x3d933faf	0.07189881
13	0xbe02eda7	-0.1278597
14	0xbe50b9ec	-0.20383424
15	0xbdf8ed98	-0.121546924
16	0x3d0f209e	0.034943216
17	0x3e0d3cb7	0.13792692
18	0x3ca7f534	0.020502664
19	0x3c8cd3e6	0.017190885
20	0xbe03a836	-0.12857136
21	0x3bf4b03d	0.0074672983
22	0x3e240aac	0.16019696
23	0x3e809bc0	0.25118828
24	0x3e3b4412	0.18287686
25	0x3dc71d21	0.09722353
26	0xbd00f294	-0.03148134
27	0xbd8f34de	-0.069925055
28	0x3e2755d8	0.1634134
29	0xbd9efca2	-0.0776303
30	0x3dd5cf93	0.10439982
31	0xbe8c6608	-0.27421594
32	0xbdaa37bd	-0.083114125
33	0x3e798889	0.2436849
34	0xbe57864a	-0.21047321
35	0xbcf9a5d0	-0.030474573
36	0x3ca531d6	0.020165365
37	0x3d863dd8	0.065547645
38	0xbe01cc95	-0.12675698
39	0x3e40fd1d	0.18846555
40	0xbde97cb4	-0.11400738
41	0x3e3d6680	0.18496132
42	0x3d79e808	0.061012298
43	0x3d22330b	0.03959946
44	0xbe78bc78	-0.24290645
45	0xbd2beaf8	-0.04197213
46	0x3e25dd8d	0.16197796
47	0x3e342b17	0.17594562
48	0xbdc9e327	-0.09857779
49	0xbce4a36d	-0.027909959
50	0xbd7af98b	-0.06127314
51	0xbd04743f	-0.032337423
52	0x3d724b01	0.05915356
53	0xbdcfdb06	-0.10149197
54	0xbcfbb339	-0.030725108
55	0xbd86ae00	-0.065761566
56	0xbbadef25	-0.0053080493
57	0xbca1744f	-0.01970878
58	0xba7086ff	-0.00091753894
59	0xbdbd17cc	-0.092330545
60	0xbe056964	-0.13028485
61	0x3ce7d822	0.028301302
62	0x3d93c2ee	0.07214914
63	0x3e3c6b6b	0.18400352
64	0xbd8ad7d9	-0.06779451
65	0xbe3021ea	-0.17200437
66	0xbdb18743	-0.08668377
67	0xbb0ae2f8	-0.0021192413
68	0xbda9540e	-0.08267985
69	0x3e640d00	0.22270584
70	0x3cc5bef8	0.024138913
71	0xbdba9600	-0.091106415
72	0x3bdbf069	0.0067120087
73	0xbe334f71	-0.17510773
74	0xbe0519e4	-0.12998158
75	0xbe3d96d8	-0.18514574
76	0x3d6beb46	0.05759742
77	0xbe11bf61	-0.14233162
78	0xbd9d510e	-0.076814756
79	0x3eab72ba	0.33485967
80	0xbdb75e7b	-0.089535676
81	0xbd3e320f	-0.04643446
82	0x3d40e2a0	0.047091126
83	0x3d904a3b	0.07045408
84	0xbcbf8f43	-0.023383742
85	0xbdc02e80	-0.09383869
86	0x3df5ccce	0.12001954
87	0xbdb16e23	-0.08663585
88	0xbd877047	-0.06613212
89	0x3e3fa013	0.18713407
90	0xbd6ee723	-0.058325898
91	0xbdd01886	-0.101609275
92	0xbda8e927	-0.08247595
93	0xbd861cb9	-0.06548447
94	0xbd672b70	-0.05643791
95	0xbe45b2ba	-0.1930646
96	0x3e73e5ed	0.23818178
97	0xbdfc6b1a	-0.123251155
98	0x3e14bb9b	0.14524691
99	0xbd9b79a6	-0.07591562
100	0x3d8cc2fe	0.06873129
101	0x3dfce994	0.12349239
102	0x3d8f5baa	0.069999054
103	0xbd4cd8aa	-0.050011314
104	0x3e5e61c2	0.21716979
105	0xbe6bb741	-0.23019125
106	0xbdbb230f	-0.09137546
107	0xbe0b6266	-0.13611755
108	0xbe0015e7	-0.12508355
109	0xbe686103	-0.22693257
110	0xbdabf5da	-0.08396502
111	0x3e01647c	0.12635988
112	0xbdba26d4	-0.09089437
113	0x3e607e3d	0.21923156
114	0xbdaabd83	-0.08336928
115	0xbd88bd75	-0.06676761
116	0x3e7c2aa1	0.24625637
117	0xbdf2adf1	-0.11849583
118	0xbdf24aa4	-0.11830643
119	0x3ddaab44	0.106771976
120	0x3e7fbd1b	0.24974482
121	0x3d85e65d	0.06538079
122	0x3ddf7c2f	0.10912358
123	0x3e3c6818	0.18399084
124	0x3e136330	0.14393306
125	0xbe08e4f9	-0.13368596
126	0x3dc52edc	0.09628078
127	0x3e7ce0e1	0.2469516

weight f4 [1, 128]
0	0xbf1a5517	-0.60286087
1	0xbf085bfd	-0.5326536
2	0xbf2b5e7e	-0.6694106
3	0x3fa94a1c	1.3225741
4	0xbf2255ae	-0.63411987
5	0xbf25a58b	-0.64705724
6	0xbd97bcb3	-0.074090384
7	0xbf29d08d	-0.6633385
8	0xbf14d8f5	-0.5814355
9	0xbf0ecc04	-0.55780053
10	0x3f4df2b5	0.80448467
11	0xbf260c8b	-0.6486289
12	0x3fce398c	1.6111312
13	0xbf1788da	-0.59193194
14	0xbf4dca87	-0.8038716
15	0xbf5f120e	-0.87136924
16	0x3f56cb6d	0.83904153
17	0x3f3d5387	0.7395558
18	0x3fafdba6	1.3738906
19	0x3d99c8ee	0.075090274
20	0xbf16e01b	-0.5893571
21	0xbf173201	-0.59060675
22	0x3f05ed3d	0.5231512
23	0x3f30476a	0.6885897
24	0x3f59ffa9	0.8515573
25	0x3f62a4af	0.8853254
26	0xbf143166	-0.57887876
27	0x3f9cc82a	1.2248585
28	0x3f1eb73d	0.6199835
29	0xbf00c955	-0.5030721
30	0x3f090741	0.53526694
31	0xbf6969cd	-0.91177064
32	0xbf3a47f5	-0.7276605
33	0x3f1b2601	0.60604864
34	0xbf14b77d	-0.5809248
35	0x3f098956	0.53725183
36	0xbf1c31a5	-0.6101325
37	0x3f6ec494	0.93268704
38	0xbef24753	-0.4732004
39	0x3f4719e8	0.77773905
40	0xbf4cb95b	-0.7997033
41	0x3f0b5a64	0.544348
42	0xbf060153	-0.5234577
43	0x3fa8562b	1.3151296
44	0xbf8274e6	-1.0191925
45	0xbf1e7419	-0.618959
46	0x3f23aff9	0.6394039
47	0x3f5d326f	0.8640508
48	0xbf26fb50	-0.6522722
49	0x3d5e109a	0.05421505
50	0x3d87d358	0.066321075
51	0xbf1a703e	-0.6032752
52	0x3f6a5bf0	0.91546535
53	0xbf364729	-0.7120233
54	0xbf137001	-0.5759278
55	0xbf2016eb	-0.6253497
56	0xbf4e35d7	-0.80550903
57	0xbf0befea	-0.54662955
58	0xbf045cea	-0.51704276
59	0xbf1b991a	-0.6078049
60	0xbf2492fd	-0.64286786
61	0x3f5e19ff	0.86758417
62	0x3aa7d6da	0.001280512
63	0x3edb936c	0.4288591
64	0xbf1a822b	-0.6035487
65	0xbf0d39d8	-0.5516639
66	0xbf02e419	-0.511293
67	0xbf0faa75	-0.5611947
68	0xbf1fc910	-0.6241617
69	0x3f3787ce	0.71691597
70	0x3f6ffef6	0.93748415
71	0xbf090fab	-0.5353953
72	0x3d63540b	0.05550007
73	0xbf5a838f	-0.8535699
74	0xbf1f59cc	-0.62246394
75	0xbf08de94	-0.5346463
76	0x3f5bc691	0.85849863
77	0xbf255d64	-0.6459563
78	0xbf23cd80	-0.63985443
79	0x3f16e848	0.58948183
80	0xbf127d83	-0.57222766
81	0xbf2e3405	-0.68048126
82	0x3f9251af	1.1431178
83	0x3f4230dd	0.7585581
84	0x3f8f7297	1.1206845
85	0x3ae688a9	0.0017588335
86	0x3fd8027d	1.6875759
87	0xbc534409	-0.012894639
88	0xbf21e2db	-0.6323678
89	0x3f861981	1.0476533
90	0xbf357ffd	-0.7089842
91	0x3fa962f4	1.3233323
92	0xbf19f225	-0.6013511
93	0xbf24167d	-0.64096814
94	0xbf24afe6	-0.643309
95	0xbf089646	-0.533543
96	0x3f7ca6fa	0.98692286
97	0xbf23e304	-0.64018273
98	0x3f94274b	1.1574491
99	0xbf1cdbc3	-0.6127283
100	0x3f5b5ccc	0.8568847
101	0x3f877c9e	1.0584905
102	0xbd994411	-0.07483686
103	0xbf090078	-0.5351634
104	0x3f4e4b82	0.80583966
105	0xbf638c46	-0.88885915
106	0xbef9db96	-0.48800343
107	0xbf2f8479	-0.6856151
108	0xbf30acda	-0.6901375
109	0xbf51de68	-0.8197999
110	0xbf0662e4	-0.52494645
111	0x3f2c642a	0.6734034
112	0xbd550b3e	-0.052012675
113	0x3f352c59	0.70770794
114	0xbf2ab83a	-0.6668736
115	0x3d91098b	0.07081898
116	0x3f0e5422	0.55597126
117	0xbf0a3695	-0.53989536
118	0xbf3267a7	-0.6968941
119	0x3f42e18a	0.76125395
120	0x3f56b14e	0.83864295
121	0x3f095ba8	0.5365548
122	0x3efc163c	0.49235713
123	0x3f74b968	0.9559541
124	0x3f50d59b	0.81575936
125	0xbf3c3094	-0.73511624
126	0x3ed3476a	0.41265422
127	0x3f362dd4	0.7116368

weight f4 [128, 128]
0	0xbd5c89c2	-0.053842314
1	0xbe2f2dce	-0.17107317
2	0x3edc668b	0.43046984
3	0x3c70e3e8	0.014702775
4	0x3dbb28ea	0.09138663
5	0xbebac052	-0.36474854
6	0x3dbe8efb	0.09304615
7	0xbdd9e243	-0.10638859
8	0xbe0ce5fe	-0.1375961
9	0x3ca06b0f	0.0195823
10	0xbd3bb5f0	-0.045827806
11	0xbca2c34d	-0.019868517
12	0x3d5d9e85	0.054106254
13	0xbe9eaebe	-0.30992693
14	0xbe08cf72	-0.13360384
15	0x3e4a48d8	0.1975435
16	0x3d605f4d	0.054778386
17	0x3d0b1631	0.03395671
18	0xbe307ec6	-0.1723586
19	0xbcdd2c3e	-0.026998635
20	0xbe645c52	-0.22300842
21	0x3ca42db5	0.020041326
22	0xbeb9d507	-0.3629534
23	0xbf1b14e4	-0.6057875
24	0x3e877c11	0.26461843
25	0x3dae4894	0.08509937
26	0xbe1f121f	-0.15534256
27	0x3e17d6af	0.14827989
28	0x3e6bcc81	0.23027231
29	0x3e4ea899	0.20181502
30	0xbd6bd920	-0.057580113
31	0xbe446e6d	-0.19182749
32	0xbeedbd40	-0.4643345
33	0xbe21e6cb	-0.15810697
34	0xbd99aeea	-0.07504065
35	0x3e89245e	0.26785558
36	0x3e2462cf	0.16053317
37	0x3d807b04	0.06273463
38	0xbf1b2444	-0.6060221
39	0xbd824477	-0.06360715
40	0xbf48ac21	-0.7838765
41	0xbf118743	-0.5684702
42	0x3bb0296a	0.0053760307
43	0xbdcea45f	-0.10089945
44	0x3df77d4e	0.12084447
45	0xbed7a6c6	-0.42119426
46	0x3e80b0a5	0.2513477
47	0x3e2460c6	0.16052541
48	0x3e8cc43d	0.27493468
49	0xbf376444	-0.7163737
50	0x3dc6cd05	0.09707073
51	0xbd81fbd1	-0.06346858
52	0xbbf17790	-0.0073689893
53	0xbd9737c1	-0.07383681
54	0xbe57fd89	-0.2109281
55	0x3e3ead07	0.18620692
56	0x3d1beb79	0.03806636
57	0xbe22635f	-0.1585822
58	0xbf8659fd	-1.0496212
59	0xbddaed81	-0.106898315
60	0xbbb076c0	-0.00538525
61	0x3d1e61e7	0.038667586
62	0x3e9d0f6e	0.30675834
63	0x3ea050cb	0.3131164
64	0x3eaf3470	0.34219694
65	0x3dfe8042	0.12426807
66	0xbc40a1c4	-0.011757318
67	0xbe2521b4	-0.16126138
68	0x3d0c3d55	0.03423818
69	0x3e3f686d	0.18692179
70	0xbf02a504	-0.51033044
71	0x3de9630c	0.11395845
72	0xbc58b33f	-0.013226329
73	0xbe85d50f	-0.26139113
74	0x3e76cb9f	0.24101113
75	0x3e696475	0.22792228
76	0xbe15dad7	-0.14634262
77	0x3c8c7dc9	0.017149823
78	0xbeca1a6b	-0.3947328
79	0x3d2b9d52	0.04189808
80	0x3e1be2f3	0.15223293
81	0xbf62f68c	-0.8865745
82	0x3e71debe	0.23620126
83	0x3d921bd4	0.07134214
84	0x3d4df070	0.050278127
85	0xbf0c7802	-0.5487062
86	0x3d6fe918	0.058571905
87	0x3e0c103a	0.13678065
88	0xbb81dc4b	-0.0039630285
89	0x3dd0f4bb	0.10202929
90	0xbc631d6a	-0.013861993
91	0x3c35bf24	0.011092935
92	0x3de55a54	0.11198869
93	0x3e057570	0.1303308
94	0x3e0a7935	0.135228
95	0xbf55a5a1	-0.83455855
96	0x3dc14cbc	0.09438464
97	0xbdc8cdca	-0.09804876
98	0x3e7236a8	0.23653662
99	0xbd7ce0fe	-0.061738007
100	0xbd309950	-0.04311496
101	0x3e477d4a	0.19481388
102	0x3d1e2d41	0.038617376
103	0x3db14c8b	0.086571775
104	0xbc0564b1	-0.0081416825
105	0xbe7be617	-0.24599491
106	0xbd75dc1f	-0.060024377
107	0x3e6a7db5	0.22899516
108	0xbf6225a1	-0.8833867
109	0xbd944f41	-0.07241679
110	0xbe5e2789	-0.21694769
111	0xbf876b03	-1.0579532
112	0xbf0fd350	-0.5618181
113	0x3da7783a	0.08177228
114	0x3d63872b	0.055548828
115	0x3d81a95f	0.06331133
116	0x3e99c6dd	0.30034533
117	0xbd9f2b7d	-0.077719666
118	0x3e8f210b	0.27954897
119	0x3e4fc855	0.20291264
120	0xbf5e0c26	-0.8673729
121	0x3dd453a2	0.10367514
122	0xbe32d606	-0.17464456
123	0xbd01accd	-0.031658936
124	0xbe30eb62	-0.17277291
125	0xbe7dc398	-0.24781644
126	0x3e0c80d5	0.1372102
127	0x3ea12571	0.31473878
128	0xbe4986b7	-0.19680296
129	0x3c9b16d5	0.018931786
130	0xbddd57b9	-0.108077474
131	0x3d657e6a	0.05602876
132	0xbdc82044	-0.09771779
133	0x3b23a249	0.0024968556
134	0x3d4e1d88	0.050321132
135	0xbd891528	-0.06693488
136	0xbe07b2b8	-0.1325177
137	0x3e620afe	0.22074506
138	0xbe430d6e	-0.19048092
139	0xbdce0f1d	-0.100614764
140	0xbc7387d6	-0.014863929
141	0xbea568db	-0.3230656
142	0x3e1a99f1	0.15097786
143	0xbe048d7b	-0.12944596
144	0x3c89d7f1	0.016826602
145	0x3bd563b1	0.0065121283
146	0x3d8777d7	0.066146545
147	0xbd2ce9b8	-0.04221508
148	0x3ed2dce3	0.41184148
149	0x3c9832f4	0.018578984
150	0x3dc3df7a	0.09564109
151	0xbef3b05c	-0.4759549
152	0x3e6ceec7	0.23137961
153	0x3d413169	0.04716626
154	0x3cde557c	0.027140372
155	0x3da6fc47	0.08153587
156	0xbee487cf	-0.44634864
157	0x3d5d61fa	0.054048516
158	0x3b722c67	0.0036952735
159	0xbdfb394e	-0.122667894
160	0xbdfe94b3	-0.12430706
161	0xbcad48ee	-0.02115294
162	0xbc4d86e1	-0.012544365
163	0xbdd824ba	-0.1055388
164	0xbf15207b	-0.58252686
165	0x3cf9e44d	0.03050437
166	0x3d20832e	0.039187603
167	0x3dc5dc6c	0.09661183
168	0xbeb908b2	-0.36139446
169	0xbea536bd	-0.32268324
170	0xbdbfa3b0	-0.09357393
171	0x3dd6f82a	0.10496552
172	0xbde2c2ac	-0.11072287
173	0x3de4355e	0.111429915
174	0xbd88d6b6	-0.06681578
175	0xbd2a67f1	-0.041603032
176	0x3e6ef5ca	0.23335949
177	0xbe04b62f	-0.12960123
178	0x3bcdedb9	0.0062844423
179	0xbe709ff2	-0.23498514
180	0xbb340fa1	-0.0027475136
181	0xbe47d10f	-0.19513343
182	0x3c168085	0.009185915
183	0x3e326248	0.17420304
184	0xbe3aa63f	-0.1822748
185	0x3e2bd393	0.16779928
186	0xbeb1495f	-0.3462629
187	0x3d9b4549	0.075815745
188	0xbe8b2113	-0.2717367
189	0x3d795401	0.060871128
190	0xbd3db62c	-0.04631631
191	0x3e97af68	0.29626012
192	0x3ae435b9	0.001741103
193	0xbcab81c9	-0.02093591
194	0xbf248742	-0.6426889
195	0x3ea45f1d	0.32103816
196	0xbd4e1254	-0.050310448
197	0xbcb138c2	-0.02163351
198	0xbde69385	-0.11258606
199	0xbdd160f0	-0.102235675
200	0xbe457732	-0.1928375
201	0xbe0c5203	-0.1370316
202	0x3e56773f	0.20943926
203	0xbdce4b45	-0.1007295
204	0xbe1b1bc3	-0.15147309
205	0x3dcb2ccc	0.09920654
206	0x3c09b496	0.008404871
207	0x3e42c9a6	0.19022235
208	0xbdcd7356	-0.10031764
209	0xbe1d5843	-0.153657
210	0x3d907e46	0.07055335
211	0xbe35eb12	-0.17765453
212	0x3e240f51	0.16021468
213	0x3ea096b9	0.31364992
214	0x3cc660b3	0.024216032
215	0x3d91f2d5	0.07126395
216	0x3e2c0fef	0.16802953
217	0x3e1a432c	0.15064687
218	0x3d158821	0.036506776
219	0xbd54a814	-0.051918104
220	0xbdac040f	-0.083992116
221	0x3d4b0baa	0.04957167
222	0x3c4a197b	0.012335177
223	0x3da0cd03	0.07851603
224	0x3d252e04	0.040327087
225	0xbce3cbab	-0.027807077
226	0x3d352636	0.044225894
227	0x3c5efee3	0.013610574
228	0x3e69ab64	0.22819287
229	0xbed933e5	-0.42422405
230	0xbe5cf336	-0.21577153
231	0xbe164398	-0.14674222
232	0x3a963b1e	0.001146171
233	0xbf337bde	-0.7011088
234	0x39825a3d	0.00024862765
235	0x3de08c40	0.109642506
236	0x3ded249e	0.1157925
237	0xbf8b4168	-1.0879335
238	0xbcebaf43	-0.028770095
239	0x3e4288da	0.18997517
240	0xbd117d4b	-0.03551988
241	0xbe23ac04	-0.15983588
242	0x3dc26136	0.09491198
243	0x3cd35f2e	0.025802221
244	0x3f1123a4	0.5669501
245	0xbcb1d3ec	-0.021707498
246	0x3e113a48	0.14182389
247	0xbdd92938	-0.10603565
248	0xbecc5d2e	-0.3991484
249	0x3d8b4c22	0.068016306
250	0x3deeda0e	0.116626844
251	0xbd6411ef	-0.055681165
252	0x3e207f29	0.15673508
253	0x3e3b5658	0.18294656
254	0xbdbce861	-0.0922401
255	0xbf3b456d	-0.7315281

bias f4 [128]
0	0xbc8be3f8	-0.017076477
1	0x3e424a0a	0.18973556
2	0x3d9a9b0b	0.07549103
3	0xbd000e0c	-0.031263396
4	0xbd85e4a0	-0.065377474
5	0x3debb5bb	0.11509272
6	0xbba9e548	-0.005184803
7	0xbb375b0c	-0.0027977852
8	0xbbbde0d1	-0.0057946225
9	0x3da7249d	0.0816128
10	0x3d5c81c0	0.053834677
11	0xbde7d102	-0.11319162
12	0xbcca8b47	-0.024724616
13	0xb9b8b214	-0.00035227893
14	0xbcd4f0a3	-0.02599365
15	0x3dd1cb84	0.10243896
16	0x3d05f0cc	0.032700345
17	0xb9be5d11	-0.00036308964
18	0xbc97647d	-0.018480534
19	0xbc67cafd	-0.014147517
20	0x3d2d2387	0.04227021
21	0xbc94516c	-0.018105231
22	0x3d80034d	0.062506296
23	0x3d6a1052	0.05714447
24	0xbd8ebbd5	-0.0696942
25	0x3da48097	0.08032339
26	0xbd71371f	-0.05889046
27	0x3d97d1a6	0.07413034
28	0xbbf85f5b	-0.0075797266
29	0x3da7220a	0.08160789
30	0xbdd38add	-0.103292204
31	0x3de637e4	0.11241129
32	0xbb893091	-0.004186698
33	0x3d015461	0.03157461
34	0xbd75d20b	-0.060014766
35	0xbd8455c2	-0.064616695
36	0x3cc979af	0.024594156
37	0x3e0ba150	0.13635755
38	0x3db6441c	0.088997096
39	0x3e1d0125	0.15332468
40	0x3d6f60ae	0.05844181
41	0xbdd46dd9	-0.10372514
42	0xbad4dc3f	-0.0016239955
43	0x3d1e5fb5	0.038665492
44	0x3e064173	0.13110904
45	0x3cfbe0a0	0.030746758
46	0xbc644c2e	-0.013934178
47	0xbb16556d	-0.0022939101
48	0x3c3abc3c	0.011397418
49	0xb9c71507	-0.00037971904
50	0xbce6a5ef	-0.028155295
51	0xbe376c8c	-0.17912501
52	0x3d74576e	0.059653692
53	0x3dfdfacd	0.12401352
54	0x3cfea7d6	0.03108589
55	0x3dcb1397	0.09915846
56	0xbc294280	-0.010330796
57	0x3e09c34f	0.1345341
58	0x3ce38544	0.027773507
59	0xbcd9ffd9	-0.026611255
60	0x3e104deb	0.14092223
61	0x3cd4d929	0.025982456
62	0x3dc07d32	0.09398879
63	0x3dea1b16	0.114309475
64	0x3b80bebd	0.003928988
65	0xbd6b2348	-0.057406694
66	0x3cb8d370	0.022561759
67	0xbd296e45	-0.041364927
68	0x3cc6f05b	0.024284532
69	0x3dbef99b	0.09324952
70	0xbcd998d9	-0.026562141
71	0x3e17d29c	0.14826435
72	0xbe10dac4	-0.14145952
73	0x3cda8b38	0.026677713
74	0x3bc283d4	0.0059361253
75	0xbe39f3d4	-0.1815942
76	0x3d389987	0.04506829
77	0x3deee92f	0.1166557
78	0x3c4f9783	0.012670401
79	0x3d5123a7	0.05105939
80	0x3cd79585	0.026316414
81	0x3d190605	0.037359256
82	0x3ce85fac	0.028365932
83	0xbc8c0e5d	-0.017096693
84	0x3e35c495	0.17750771
85	0xbd878ecc	-0.06619033
86	0x3ddbc670	0.10731208
87	0x3d46fa8f	0.048578795
88	0x3d6965e4	0.056981936
89	0xbde7470a	-0.112928465
90	0x3db56600	0.088573456
91	0x3df700a0	0.12060666
92	0x3d7890d1	0.060684983
93	0x3d5df38d	0.054187346
94	0x3df55720	0.119795084
95	0x3dc3a3c3	0.095527194
96	0x3d4fff79	0.050780747
97	0xbdea4b42	-0.114401355
98	0x3de2857f	0.110606186
99	0xbd27a2ac	-0.04092662
100	0xba15ad4b	-0.00057097216
101	0x3d40838e	0.04700046
102	0x3da6bfec	0.08142075
103	0xbc22d2a2	-0.009937914
104	0x3dfe5d4f	0.12420141
105	0xbdb6c5a6	-0.08924417
106	0x3dbd6ebd	0.09249637
107	0x3dd51be3	0.104057096
108	0x3cf2ca4d	0.02963748
109	0x3dd0f351	0.10202659
110	0x3d6d6521	0.057957772
111	0x3e290535	0.16505893
112	0xbd671e09	-0.056425128
113	0x3b6fe5df	0.003660552
114	0xbd8d41aa	-0.0689729
115	0x3dec3826	0.11534147
116	0x3d21397d	0.039361466
117	0xbd747ffb	-0.059692364
118	0x3d59d31b	0.05317984
119	0x3d425bfd	0.047451008
120	0xbc9567b4	-0.018237926
121	0x3d0ea98f	0.034829672
122	0x3e01d70b	0.12679689
123	0x3ae11786	0.0017173148
124	0x3cf481a6	0.029846977
125	0xbd088074	-0.033325627
126	0x3e311dbd	0.172965
127	0xbda349fe	-0.07973097

weight f4 [4, 128]
0	0xbf4d7bab	-0.8026683
1	0x3ea0b749	0.31389835
2	0x3d003e45	0.031309385
3	0x3ef59da5	0.47971836
4	0xbde83c38	-0.11339611
5	0xbe5184e4	-0.2046085
6	0xbd430c08	-0.047618896
7	0xbc25bb25	-0.0101154195
8	0xbd1fd43f	-0.039020773
9	0x3e0744af	0.13209794
10	0xbd17afe3	-0.037032973
11	0xbdc0d212	-0.09415068
12	0xbef333e6	-0.47500533
13	0x3dcc5ec5	0.09979013
14	0x3de80304	0.113287
15	0xbdd26058	-0.10272282
16	0xbe563df2	-0.20922068
17	0x3d401bd2	0.04690153
18	0xbf211717	-0.6292586
19	0xbee97e4c	-0.4560417
20	0x3e7b4d31	0.24541165
21	0xbe770e29	-0.24126495
22	0x3e48ad3d	0.19597335
23	0xbd810596	-0.062998936
24	0x3e326d27	0.17424451
25	0x3e195a1a	0.14975777
26	0xbe9933e3	-0.299224
27	0xbf42843a	-0.7598301
28	0xbeb9c945	-0.3628637
29	0xbf30a5a5	-0.69002753
30	0xbbdb410d	-0.0066911043
31	0xbc8b3952	-0.016995106
32	0x3e4da66f	0.2008302
33	0x3dba5026	0.09097318
34	0x3d6aadb2	0.057294555
35	0xbd8b298d	-0.067950346
36	0xbf23811b	-0.63868874
37	0xbdc339e4	-0.09532526
38	0x3e6915c9	0.22762217
39	0x3e39fae6	0.18162116
40	0x3d7111e9	0.05885497
41	0x3e660c87	0.22465716
42	0x3d326e16	0.043562017
43	0xbf236822	-0.6383077
44	0x3d0c072a	0.03418652
45	0x3d625ba6	0.055263184
46	0x3dae1522	0.085001245
47	0x3d10b482	0.035328396
48	0x3e1334e3	0.14375643
49	0xbe54a54f	-0.20766185
50	0x3b73ae59	0.0037182777
51	0x3d86653f	0.0656228
52	0xbe8564c1	-0.26053432
53	0x3dd0ac2e	0.10189091
54	0xbf1d3e18	-0.6142287
55	0x3e896541	0.26835063
56	0xbd5ebe4e	-0.054380707
57	0xbd67e9da	-0.056619503
58	0x3e1e7491	0.15474154
59	0xbf2ec0a7	-0.68262714
60	0xbd08f947	-0.033440854
61	0x3ec9a39e	0.39382643
62	0xbdf8fcc8	-0.12157589
63	0x3dca7831	0.09886206
64	0x3d22c65c	0.03973995
65	0x3d784fb6	0.060622893
66	0xbe0e0c47	-0.13871871
67	0x3e5325b2	0.20619848
68	0x3e210779	0.15725507
69	0xbd3ad4de	-0.045613162
70	0xbeb9718a	-0.36219436
71	0xbd53a84e	-0.05167418
72	0xbe87bb36	-0.26510018
73	0x3e9e1b67	0.3088028
74	0xbd1439a7	-0.036187794
75	0x3d2096bb	0.039206248
76	0x3bfa2e5a	0.00763492
77	0x3ddb486e	0.10707174
78	0x3e917fc3	0.28417787
79	0xbdd43be2	-0.10362984
80	0xbd90808f	-0.070557706
81	0xbdb923e0	-0.09040046
82	0x3e30453f	0.17213915
83	0xbd18aa9e	-0.03727209
84	0x3e084f7a	0.13311568
85	0xbe250743	-0.16116051
86	0xbda8b1bd	-0.08237026
87	0xbd76ee38	-0.060285777
88	0xbd48b5bb	-0.049001437
89	0xbdf2691f	-0.118364565
90	0xbed3656c	-0.41288316
91	0xbe817428	-0.25283933
92	0xbd217668	-0.03941956
93	0xbc574f64	-0.013141487
94	0xbefbd8e2	-0.49188906
95	0xbdbc351d	-0.09189818
96	0x3e996597	0.2996032
97	0x3d9f2280	0.07770252
98	0xbdeb770b	-0.11497315
99	0x3e0faecd	0.14031525
100	0x3d28d21d	0.041216005
101	0xbec5b9aa	-0.38618213
102	0xbc03ff0f	-0.008056416
103	0x3d8f1cb4	0.069878966
104	0xbdceb2cd	-0.10092697
105	0xbcc5ef14	-0.024161853
106	0x3e172388	0.14759648
107	0xbdd2740c	-0.102760404
108	0xbf03be17	-0.5146193
109	0x3bdd0c99	0.0067458865
110	0x3e514ef9	0.20440282
111	0xbd5aa738	-0.05338213
112	0xbe707438	-0.23481834
113	0xbd9b5118	-0.07583827
114	0x3c823e31	0.015898796
115	0xbdc8590e	-0.09782611
116	0xbd463c8a	-0.04839758
117	0xbe2f97d0	-0.17147756
118	0x3f0d2424	0.5513327
119	0x3d3ff32e	0.046862774
120	0xbd22702b	-0.039657753
121	0x3e0611c4	0.13092715
122	0x3e70f979	0.23532666
123	0xbd5f3ce3	-0.054501425
124	0x3e069d88	0.13146031
125	0x3e8471f4	0.2586819
126	0xbd0f6ce5	-0.03501596
127	0x3c5b4712	0.013383644
128	0xbf6e80e2	-0.9316541
129	0x3eb99df2	0.36253315
130	0x3ecbd529	0.39811066
131	0x3f083f0d	0.5322121
132	0xbd90539c	-0.07047197
133	0x3e87df92	0.26537758
134	0xbdffd997	-0.12492674
135	0xbf353a51	-0.7079211
136	0x3eba54a4	0.363927
137	0xbdc2f3be	-0.095191464
138	0xbcc24324	-0.023713656
139	0x3e776b9c	0.24162143
140	0x3eb18c20	0.3467722
141	0x3ebaf5c5	0.36515632
142	0x3f06b5c5	0.5262111
143	0xbde94de3	-0.11391809
144	0x3ec6f0f5	0.3885571
145	0xbf276a94	-0.65397
146	0x3da3e005	0.08001713
147	0xbf29142a	-0.6604639
148	0x3e84cf0f	0.25939223
149	0xbec3e565	-0.38260952
150	0xbf139e3f	-0.5766334
151	0x3efeef73	0.4979206
152	0xbd9f2100	-0.07769966
153	0x3eceae68	0.40367436
154	0xbf02e9c2	-0.51137936
155	0x3e4167ae	0.18887207
156	0xbf0666f6	-0.52500856
157	0xbf3bec77	-0.7340769
158	0xbeb7c1ca	-0.35890037
159	0x3f4057a6	0.7513374
160	0x3ef91a50	0.48652887
161	0x3ed2b688	0.41154885
162	0x3ea93eeb	0.33055815
163	0xbe282c03	-0.16423039
164	0xbf5bda34	-0.85879827
165	0xbf01df3e	-0.50731266
166	0x3efdccab	0.49570212
167	0xbe7da033	-0.24768142
168	0x3dff3226	0.12460737
169	0xbddac0f1	-0.10681332
170	0xbe3b8c8d	-0.18315335
171	0xbf4793b8	-0.77959776
172	0xbc293984	-0.010328654
173	0x3cc5d4d4	0.024149336
174	0xbe11bba9	-0.14231743
175	0x3e6111c0	0.21979427
176	0x3eb6ff50	0.35741663
177	0xbd079ec4	-0.033110395
178	0xbf31b8cf	-0.6942262
179	0xbe5fa34e	-0.2183964
180	0x3f38bf41	0.7216683
181	0xbdaae408	-0.08344275
182	0xbf81efae	-1.015127
183	0x3ec980f7	0.39356205
184	0xbd8cf6ec	-0.06883034
185	0xbe8c5b37	-0.2741334
186	0x3e92fec9	0.2871001
187	0x3e9ecbf1	0.3101497
188	0xbf563d4d	-0.8368729
189	0x3f37c826	0.7178978
190	0x3d053bae	0.032527618
191	0x3ebaf697	0.36516258
192	0xbcebe60c	-0.028796218
193	0xbccad488	-0.024759546
194	0x3ec4dceb	0.38449797
195	0xbee0e830	-0.43927145
196	0x3ee60682	0.4492684
197	0xbd604ca8	-0.054760605
198	0xbf171d02	-0.5902864
199	0x3ea759e1	0.3268576
200	0xbf239313	-0.6389629
201	0x3ea144bf	0.31497762
202	0xbeb01b28	-0.3439572
203	0xbe055bfc	-0.1302337
204	0x3e0ffa10	0.14060235
205	0x3cc6b5a6	0.024256539
206	0x3d6f5be7	0.058437254
207	0xbde7bd8b	-0.11315449
208	0xbd1d287c	-0.038368687
209	0x3df84f0a	0.121244505
210	0xbef0ca20	-0.4702921
211	0x3ea3f4fd	0.3202285
212	0x3eaaa48b	0.3332866
213	0xbec053a2	-0.37563807
214	0xbddd3543	-0.108011745
215	0x3e78d83c	0.24301237
216	0xbdc36b79	-0.09541983
217	0xbf4068ff	-0.7516021
218	0xbef040cd	-0.4692444
219	0xbf1c0b14	-0.60954404
220	0x3db2427b	0.087040864
221	0xbd0ec85c	-0.034859046
222	0xbded06a8	-0.11573535
223	0xbd712369	-0.05887166
224	0xbeada551	-0.3391519
225	0x3d128552	0.035771675
226	0x3dc85145	0.09781126
227	0x3e9319bc	0.2873057
228	0xbdd413af	-0.10355317
229	0xbf4628d6	-0.7740606
230	0xbda2a232	-0.079410926
231	0xbdaa9908	-0.0832997
232	0x3dfe6ef9	0.1242351
233	0x3d62bd85	0.05535652
234	0xbf06d507	-0.52668804
235	0x3e7eb0fb	0.248722
236	0x3f34da18	0.70645285
237	0xbc22399f	-0.009901433
238	0x3ec17e95	0.37791887
239	0x3de7f8b7	0.113267355
240	0x3e64e51c	0.22353023
241	0x3e89ca39	0.26912096
242	0xbd5947c1	-0.053046945
243	0xbd54f81e	-0.051994435
244	0x3ebf1bc7	0.3732588
245	0xbed7aa6e	-0.42122215
246	0x3ead015f	0.3379011
247	0xbe5ee86b	-0.21768348
248	0xbb469cb1	-0.0030305798
249	0xbd52ef36	-0.05149766
250	0x3d05b64a	0.032644548
251	0x3edb2056	0.42798108
252	0x3eadc31a	0.33937913
253	0xbc0f6fa1	-0.008754642
254	0x3a43623f	0.00074532995
255	0xbe6a6c2e	-0.2289283

bias f4 [4]
0	0xbca1de82	-0.01975942
1	0x3da17fef	0.078857295
2	0x3dbde646	0.09272437
3	0xbc97f60b	-0.01854994
