problem1/models/underway/success_whole_model_1766856974.pth (torch, 146613 bytes, 9 tensors)

weight f4 [128, 8]
0	0x3ec9f48f	0.39444396
1	0x3da33d40	0.07970667
2	0xbce6c2a5	-0.028168986
3	0xbe8c3375	-0.2738301
4	0xbe3d4a3d	-0.18485351
5	0xbf10db63	-0.5658476
6	0x3ea10be2	0.31454378
7	0x3e6b7d6e	0.22997066
8	0xbd23dfe9	-0.04000846
9	0x3ccb776b	0.024837216
10	0x3d5a581f	0.053306695
11	0xbe63c2e7	-0.22242318
12	0x3d6a0509	0.05713371
13	0x3eeb7232	0.45985562
14	0xbe875dae	-0.2643866
15	0xbf073dce	-0.5282868
16	0xbe72c9a9	-0.2370974
17	0x3e821e31	0.2541366
18	0x3e836d61	0.25669387
19	0x3e411987	0.18857394
20	0xbe32c423	-0.17457633
21	0xbddb88ee	-0.10719477
22	0xbe918cbf	-0.28427693
23	0x3eb7e521	0.35917
24	0xbeaf1498	-0.341954
25	0x3ea2f7f3	0.31829795
26	0x3e0403f6	0.12892136
27	0x3e37eec4	0.17962176
28	0x3eb42a9d	0.3518876
29	0x3f1c80e2	0.6113416
30	0xbf3b57de	-0.7318095
31	0x3eaa7ec4	0.3329984
32	0xbdad8ffb	-0.08474728
33	0x3f17fb23	0.5936758
34	0xbe60117c	-0.2188167
35	0x3f35b5e6	0.7098068
36	0x3e78a8eb	0.24283187
37	0x3dcb1b22	0.099172845
38	0x3e566df9	0.20940389
39	0xbda69989	-0.08134753
40	0xbcce3759	-0.025172876
41	0x3e737a25	0.23777063
42	0x3f0906d8	0.5352607
43	0x3ef7b8f6	0.48383301
44	0xbea26235	-0.3171555
45	0x3f0b817c	0.5449445
46	0xbeb8d9a4	-0.36103547
47	0xbd5a4c85	-0.05329563
48	0xbed06d94	-0.407086
49	0x3e57f66c	0.21090096
50	0xbe785ac4	-0.24253374
51	0xbd3e02d2	-0.04638941
52	0x3f05c191	0.52248484
53	0xbe6d7706	-0.23189935
54	0x3eb69823	0.35662946
55	0xbe003a1d	-0.12522168
56	0xbf165638	-0.5872531
57	0xbe173c44	-0.14769083
58	0x3cc54b8f	0.02408388
59	0xbec52fd8	-0.38513064
60	0xbfb3d934	-1.405066
61	0x3e7df7b3	0.24801521
62	0x3d0032ca	0.031298436
63	0xbec31d04	-0.38108075
64	0x3ee6207c	0.4494666
65	0xbf290a18	-0.66031027
66	0x3d231e40	0.03982377
67	0xbf14467f	-0.5792007
68	0x3d93ce8f	0.07217132
69	0xbec0cbc5	-0.37655464
70	0xbef17600	-0.4716034
71	0xbdcafee5	-0.099118985
72	0x3e53405f	0.20630024
73	0x3d1af07a	0.037826993
74	0x3dbeb4f4	0.09311858
75	0xb945bb7a	-0.00018857224
76	0x3ed7c381	0.42141345
77	0x3f3cd11a	0.73756564
78	0x3e015afe	0.12632367
79	0xbc252361	-0.010079236
80	0x3dfef84d	0.12449703
81	0xc001d988	-2.028902
82	0xbec69082	-0.38782126
83	0xbf0b9b11	-0.5453349
84	0xbee76b40	-0.45199013
85	0x3e43c75a	0.19119015
86	0x3c7cd578	0.015431754
87	0xbf12761c	-0.5721147
88	0x3de388d9	0.11110086
89	0xbe399cee	-0.1812627
90	0x3e3f86be	0.18703744
91	0xbe4d45ff	-0.20046233
92	0xbf10337f	-0.56328577
93	0xbeb6c3c4	-0.35696232
94	0x3e89c7e3	0.26910314
95	0x3e8e2d2b	0.27768835
96	0x3ea64af4	0.3247906
97	0xbe23a15b	-0.15979521
98	0xbe84380d	-0.25824013
99	0xbca79ed3	-0.020461475
100	0x3ea0cca1	0.3140612
101	0xbed747d3	-0.42046985
102	0x3edf3fcf	0.4360337
103	0x3e6ed805	0.23324592
104	0x3e3100bc	0.17285436
105	0x3e629e3d	0.22130676
106	0x3e74379f	0.23849343
107	0x3e9a9b8a	0.30196792
108	0xbebca1a4	-0.36842072
109	0xbefb628a	-0.49098617
110	0xbd5538aa	-0.052055992
111	0x3edd05d8	0.4316852
112	0xbe087cd3	-0.13328867
113	0xbd96bb22	-0.073599115
114	0x3ec9ec16	0.39437932
115	0x3d58554d	0.052815724
116	0xbefdbd60	-0.49558544
117	0xbf60a95a	-0.8775841
118	0x3e87f3df	0.26553246
119	0x3ea7fb42	0.32808882
120	0x3e2bd1c0	0.16779232
121	0xbe0519d8	-0.1299814
122	0x3ecb2498	0.39676356
123	0xbe94f955	-0.29096475
124	0xbefc6776	-0.49297684
125	0xbe081d6e	-0.13292477
126	0x3eea68fb	0.4578322
127	0x3ec06cd3	0.37583026
128	0x3ea15fd7	0.31518432
129	0xbeb81bdc	-0.35958755
130	0xbd1fcdc3	-0.03901459
131	0xbf3794a5	-0.7171119
132	0xbd04153e	-0.03224682
133	0xbe98bd43	-0.29831895
134	0x3ea6da57	0.32588455
135	0x3df79b5e	0.12090181
136	0xbe21050b	-0.1572458
137	0xbc8d9065	-0.017280767
138	0x3f3f2af8	0.7467494
139	0xbf0fe93d	-0.5621527
140	0x3f2cff31	0.6757689
141	0xbd83656f	-0.06415831
142	0xbf2115d0	-0.6292391
143	0xbe50aed7	-0.20379196
144	0xbf28934a	-0.65849745
145	0xbda02f36	-0.07821505
146	0xbf0b2b7b	-0.5436322
147	0xbf0ab3e2	-0.5418073
148	0x3ea0c7da	0.31402475
149	0x3c60e8ed	0.013727409
150	0x3d6533f5	0.055957753
151	0x3e2e8ff8	0.17047107
152	0x3d2988af	0.041390117
153	0xbdddc416	-0.10828416
154	0xbdeb9c54	-0.115044266
155	0xbe5dd378	-0.216627
156	0x3f93a33f	1.1534194
157	0x3dbcef59	0.092253394
158	0xbd2e0d71	-0.042493287
159	0x3e873bb4	0.26412737
160	0x3dd565e3	0.10419824
161	0x3ea71564	0.32633507
162	0xbe23526e	-0.15949413
163	0xbea17b12	-0.31539208
164	0xbf098f44	-0.5373423
165	0x3f02cad0	0.5109072
166	0xbecf0e4b	-0.40440592
167	0xbf036922	-0.51332295
168	0xbe7063db	-0.23475592
169	0x3e951134	0.29114687
170	0xbe6dfe0c	-0.23241442
171	0xbe902778	-0.28155112
172	0x3f77025e	0.9648799
173	0x3ea79bac	0.32735956
174	0xbed0eb9a	-0.4080475
175	0xbdd26869	-0.10273821
176	0xbd164c16	-0.036693655
177	0x3edd1405	0.43179336
178	0xbe34bfdc	-0.17651314
179	0x3e6269b1	0.2211063
180	0x3ec2d307	0.38051626
181	0x3eaa93b7	0.33315822
182	0x3eb1e9c4	0.34748662
183	0xbf0a85a1	-0.5411015
184	0x3e870cfd	0.26377097
185	0xbd9ab5a0	-0.075541735
186	0xbe1b7e0b	-0.151848
187	0xbe26ead9	-0.16300525
188	0xbde782ed	-0.11304269
189	0xbe8fab71	-0.28060487
190	0xbf53ef10	-0.82786655
191	0xbc2a10df	-0.010379999
192	0xbeb43722	-0.35198313
193	0x3c699c7b	0.014258499
194	0xbe11b933	-0.14230804
195	0x3d91ad75	0.071131624
196	0x3f1763e2	0.59136784
197	0x3e0f8cb3	0.14018516
198	0x3e42507e	0.18976018
199	0x3e440694	0.19143134
200	0xbec8a610	-0.39189196
201	0xbddc100e	-0.1074525
202	0xbf168b57	-0.58806366
203	0x3dcaa285	0.098942794
204	0x3de26f6c	0.11056408
205	0x3af1a4d1	0.001843596
206	0x3ec04851	0.37555173
207	0x3da41eb9	0.080136724
208	0xbe4d2f5f	-0.20037602
209	0x3eb6ae09	0.35679653
210	0xbe97d84e	-0.29657215
211	0x3e3ecd7c	0.18633074
212	0xbeadf780	-0.3397789
213	0x3ead829e	0.33888716
214	0x3dbe33fa	0.092872575
215	0x3e49415d	0.1965384
216	0x3e9b2aac	0.30305994
217	0x3ed9033b	0.42385277
218	0xbf3724c4	-0.71540475
219	0xbe063135	-0.13104708
220	0x3e4aa010	0.19787621
221	0xbef7ab91	-0.48373082
222	0x3dbe42da	0.09290095
223	0xbf027bd5	-0.509702
224	0x3e71b297	0.23603283
225	0xbdc97b60	-0.09837985
226	0x3dedcb07	0.1161099
227	0xbe8262b8	-0.2546594
228	0xbf0a3253	-0.5398304
229	0x3eda2cbd	0.42612258
230	0x3e2a21d8	0.16614473
231	0xbddabac3	-0.10680153
232	0x3e2c379b	0.16818087
233	0xbe8ece4a	-0.2789176
234	0x3e67ad18	0.22624624
235	0xbd6cb45f	-0.057789203
236	0xbf0fb70f	-0.561387
237	0xbeac5550	-0.33658838
238	0x3da28c71	0.07936943
239	0x3e5d69e2	0.21622422
240	0x3ec3700f	0.3817143
241	0xbe78cca1	-0.2429681
242	0x3e95c4f2	0.2925182
243	0xbe9c1c3e	-0.30490297
244	0xbed5a8a4	-0.41730225
245	0xbed34432	-0.41262966
246	0xbf22756f	-0.6346044
247	0xbeddf8b3	-0.43353805
248	0xbd5567b0	-0.052100837
249	0x3f14b8c8	0.58094454
250	0xbe41d951	-0.18930556
251	0x3e7c9510	0.24666238
252	0x3efa66e5	0.48906627
253	0x3eb03057	0.3441188
254	0xbf0574e4	-0.52131486
255	0xbe923577	-0.28556415

bias f4 [128]
0	0xbece17e9	-0.40252617
1	0x3e5f61b4	0.21814615
2	0x3e1b2ec5	0.1515456
3	0x3dcf8d1e	0.10134338
4	0x3e5ade2c	0.21373814
5	0xbf11ed25	-0.5700248
6	0x3f033706	0.51255834
7	0x3edcf1e0	0.43153286
8	0xbec3ce0b	-0.38243136
9	0xbd1af499	-0.037830923
10	0x3e321987	0.1739255
11	0xbc81d377	-0.015847905
12	0x3ea21bb4	0.3166176
13	0x3e046e4a	0.12932697
14	0xbe44f03d	-0.19232269
15	0x3ee0324b	0.4378837
16	0x3e6ac43f	0.22926424
17	0xbbfaa931	-0.0076495637
18	0xbe03675a	-0.12832394
19	0x3e8d1650	0.27556086
20	0x3ebf770d	0.37395516
21	0x3f0031a6	0.5007576
22	0x3dc77ca3	0.097405694
23	0x3e1cd7da	0.15316716
24	0x3e581891	0.21103121
25	0xbe7435f1	-0.23848702
26	0x3f14cb8c	0.5812309
27	0xbe19f343	-0.15034203
28	0x3effeea6	0.49986762
29	0x3e8507a7	0.259824
30	0xbe465a88	-0.19370472
31	0x3d9ce7fb	0.07661434
32	0x3d965168	0.07339746
33	0xbdafadd3	-0.08578076
34	0x3f00e4c0	0.50349045
35	0xbd3e6eb8	-0.04649231
36	0x3dd2a9e1	0.10286308
37	0xbe85233a	-0.26003438
38	0x3f089bc7	0.533627
39	0xbdb688b2	-0.08912791
40	0x3d83bdd8	0.06432694
41	0x3e39c50e	0.18141577
42	0xbef96df8	-0.48716712
43	0xbe7b0c91	-0.24516512
44	0x3d479bdf	0.048732635
45	0xbeac5d18	-0.33664775
46	0xbda71060	-0.0815742
47	0x3ee6809c	0.45019996
48	0x3e9203c7	0.28518507
49	0x3ddfb042	0.109222904
50	0x3e21e76d	0.15810938
51	0x3df5d01a	0.12002583
52	0x3ebae3d0	0.36501932
53	0x3f09cb84	0.53826165
54	0xbef6de5d	-0.48216525
55	0x3e60ef95	0.21966393
56	0xbedd8f6a	-0.4327348
57	0x3c84c65d	0.016207868
58	0x3e49f1b6	0.19721112
59	0x3ec35c1c	0.3815621
60	0x3e5c7742	0.21529868
61	0x3e218489	0.15773214
62	0x3edf64b4	0.43631518
63	0x3ddd0b68	0.10793191
64	0x3e4fa411	0.2027743
65	0x3d94de8a	0.072690085
66	0xbef580a9	-0.47949722
67	0x3ebb44a0	0.36575794
68	0x3d2db485	0.042408485
69	0x3d647ea5	0.05578484
70	0x3e223764	0.15841442
71	0xbe87d048	-0.26526093
72	0x3e950ae9	0.29109886
73	0xbee649fa	-0.44978315
74	0x3e8c34f3	0.27384147
75	0x3e6054b8	0.21907318
76	0xbca1425d	-0.019684965
77	0x3e2a33e5	0.16621359
78	0x3eec31e4	0.46131814
79	0xbe0c38cf	-0.13693546
80	0xbdcd136a	-0.100134686
81	0x3f0b0dbd	0.5431784
82	0x3e4f4cd3	0.2024415
83	0x3e8f3a55	0.2797419
84	0xbe740383	-0.23829465
85	0xbe308130	-0.17236781
86	0xbcbce25d	-0.023057157
87	0x3da068ae	0.07832466
88	0x3e18200f	0.1485598
89	0x3e729932	0.23691252
90	0x3cc484a0	0.023989022
91	0x3e9269ad	0.2859625
92	0x3e178372	0.14796236
93	0xbe35a9a2	-0.17740491
94	0xbe95ba55	-0.29243723
95	0x3ebf260c	0.37333715
96	0x3eb07fc5	0.3447248
97	0xbdbffee2	-0.09374787
98	0x3ecd47bd	0.40093794
99	0xbecb32cb	-0.3968719
100	0x3edb950f	0.4288716
101	0x3f0f71bb	0.56032914
102	0xbb788428	-0.0037920568
103	0xbd878b77	-0.06618398
104	0x3f032885	0.512337
105	0xbe255dae	-0.16149017
106	0x3ed885e4	0.4228965
107	0xbe51c21d	-0.20484205
108	0xbe557eef	-0.20849203
109	0x3ebcc483	0.36868677
110	0xbcfc2b01	-0.030782225
111	0xbebc4364	-0.36770165
112	0x3dab68b9	0.08369584
113	0x3e977849	0.29583958
114	0x3ea1d330	0.31606436
115	0x3ee820d1	0.45337537
116	0x3e312e14	0.17302734
117	0xbc1953c1	-0.009358347
118	0x3ce3525d	0.027749235
119	0xbecf858d	-0.4053158
120	0xbd299978	-0.041406125
121	0x39802a9e	0.00024445815
122	0xbe797a4a	-0.24363056
123	0x3e8e42de	0.2778539
124	0xbe5155e3	-0.2044292
125	0xbefaacde	-0.48960012
126	0xbd968afb	-0.07350727
127	0xbdb880c0	-0.09008932

weight f4 [128, 128]
0	0x3deb39ab	0.11485609
1	0x3eaa2eb1	0.33238748
2	0x3ecd0bca	0.40048057
3	0x3e10ab17	0.14127766
4	0x3ebb9d6d	0.36643544
5	0x3ec3f4b5	0.38272634
6	0x3d31d338	0.043414325
7	0x3e0d4ba1	0.13798381
8	0x3ee385cf	0.44438025
9	0x3e056409	0.13026442
10	0xbef256a7	-0.47331735
11	0x3df3a840	0.118973255
12	0x3dbe4a15	0.09291474
13	0x3e360ae5	0.17777593
14	0x3d7e7d24	0.062131062
15	0xbd19dd19	-0.03756437
16	0x3dcc2c31	0.09969366
17	0xbee1bdb2	-0.4409004
18	0x3ede8ebb	0.4346827
19	0xbd40d002	-0.04707337
20	0xbd8244e1	-0.06360794
21	0x3da371f5	0.0798072
22	0x3eac27b9	0.33624056
23	0x3e5d6af3	0.21622829
24	0x3de796e2	0.113080755
25	0x3ecf801b	0.40527424
26	0x3b2e2a45	0.0026575488
27	0xbdd8d938	-0.10588306
28	0xbe143d76	-0.1447657
29	0x3e790bf7	0.2432097
30	0x3f492d04	0.78584313
31	0x3e825a30	0.25459433
32	0x3e88b852	0.26703125
33	0x3e82b59b	0.2552918
34	0xbc520eea	-0.012820939
35	0xbe1b1672	-0.15145281
36	0x3e831da1	0.25608543
37	0x3f088fb8	0.533443
38	0x3df7773a	0.120832875
39	0x3e9210e9	0.28528526
40	0x3e0fbb86	0.14036378
41	0x3e260a1a	0.16214791
42	0xbf3a9067	-0.7287659
43	0xbe3d1cbc	-0.18467993
44	0x3e81864a	0.25297767
45	0x3e9b6dd2	0.30357224
46	0x3f2d6b6b	0.6774203
47	0xbe15dc64	-0.14634854
48	0xbdc0c6ba	-0.09412904
49	0x3ea7a79a	0.32745057
50	0x3f08395a	0.5321251
51	0x3e8b3bec	0.27194154
52	0x3e49629d	0.19666524
53	0xbd1455ec	-0.036214754
54	0x3f1a4d8e	0.6027459
55	0x3e2d86b9	0.16945924
56	0x3eb46ede	0.35240835
57	0x3e9744de	0.2954473
58	0x3e2c8799	0.16848601
59	0x3db240e4	0.08703783
60	0xbf458ac5	-0.7716487
61	0x3b9317a8	0.004488904
62	0x3cc4c105	0.02401782
63	0x3e045d8f	0.12926315
64	0x3e8338e9	0.25629357
65	0x3e29d3e2	0.16584733
66	0xbd7c154a	-0.06154374
67	0xbd6d5e5d	-0.05795132
68	0xbcf2f5c2	-0.029658202
69	0x3e1558e3	0.14584689
70	0x3e562609	0.20912947
71	0x3e2d7dc3	0.16942506
72	0xbca11e97	-0.019667907
73	0x3f1efff7	0.6210932
74	0x3df74c13	0.12075057
75	0x3e774a35	0.24149401
76	0x3f19efb9	0.6013141
77	0xbea34108	-0.31885552
78	0xbdb69f42	-0.08917095
79	0xbde34ccc	-0.11098632
80	0x3e5f9ca2	0.21837094
81	0x3dbd2d3e	0.09237145
82	0x3e2813df	0.1641383
83	0xbe83d525	-0.25748554
84	0x3dd106ce	0.10206376
85	0x3e97793a	0.29584676
86	0x3e622a99	0.22086562
87	0x3e1715f8	0.14754474
88	0xbebcc778	-0.36870933
89	0x3b6cf935	0.003615928
90	0x3e1fcd86	0.15605745
91	0xbe183434	-0.14863664
92	0xbd2dddb2	-0.042447753
93	0x3e887919	0.2665489
94	0x3db2326d	0.08701024
95	0x3cfd1fbd	0.030898923
96	0x3d40819a	0.046998598
97	0x3e0aa5e9	0.13539852
98	0x3ba028a9	0.0048876596
99	0x3f53b5d8	0.82699347
100	0x3ea9f588	0.33195138
101	0xbc83b59d	-0.01607781
102	0xbdd23d6d	-0.10265622
103	0xbda6bef1	-0.08141888
104	0xbdc49b99	-0.095999904
105	0xbf5ed956	-0.8705038
106	0xbdc7519c	-0.09732363
107	0x3ed861a5	0.42261997
108	0x3e5a9ba0	0.21348429
109	0x3e00df86	0.12585267
110	0x3e0e6a11	0.13907649
111	0xbe875f3a	-0.2643984
112	0x3e213a29	0.15744843
113	0x3e07f2c4	0.13276201
114	0x3d9add12	0.07561697
115	0xbd9fce91	-0.07803071
116	0xbe3dbc40	-0.18528843
117	0xbe43a3a5	-0.19105394
118	0xbd6b26eb	-0.057410162
119	0x3f2bdd72	0.67134774
120	0xbeeb7ee0	-0.45995235
121	0xbd75d8a7	-0.06002107
122	0x3e9f783a	0.31146413
123	0x3d8fe0bb	0.07025286
124	0x3e82d7f7	0.25555393
125	0x3f08f461	0.5349789
126	0x3f4505c3	0.76961917
127	0x3e8b8fdb	0.2725819
128	0x3df4a4c8	0.11945492
129	0xbe1aaa81	-0.15104105
130	0x3df363b4	0.11884251
131	0xbe334042	-0.17504981
132	0xbdafd4a6	-0.08585481
133	0x3e9a1ba4	0.30099213
134	0x3e1cba26	0.15305385
135	0x3d293722	0.041312344
136	0xbcad4e7d	-0.02115559
137	0xbdf36024	-0.11883572
138	0x3f3b781d	0.73230153
139	0x3e4de116	0.20105395
140	0x3e8ce512	0.27518517
141	0x3e232550	0.15932202
142	0x3dfcd61a	0.12345524
143	0x3e7f97bc	0.24960226
144	0x3e96cf42	0.29455
145	0x3d19cb36	0.037547313
146	0xbe291a43	-0.16513924
147	0xbe92965f	-0.2863035
148	0xbd0252a3	-0.03181709
149	0xbec0e063	-0.37671193
150	0x3d61aa26	0.055093907
151	0xbd296f09	-0.041365657
152	0xbe575a2a	-0.21030489
153	0xbd6b7ddc	-0.057493076
154	0x3ddfe8f5	0.10933105
155	0x3e629685	0.22127731
156	0x3e5daa04	0.21646887
157	0x3dace478	0.084420145
158	0xbf094511	-0.5362101
159	0x3db7740a	0.089576796
160	0x3c576559	0.013146722
161	0xbde6e5c1	-0.11274291
162	0x3e0d9b72	0.13828829
163	0x3e89b62d	0.26896802
164	0x3e45dd61	0.1932273
165	0xbe97ac29	-0.29623535
166	0xbedb2bf8	-0.42806983
167	0xbdde75d0	-0.10862315
168	0xbd3db04a	-0.0463107
169	0x3ca64d93	0.020300662
170	0x3f742e48	0.9538312
171	0x3e417ccc	0.18895262
172	0xbd896eae	-0.067105636
173	0x39d1586d	0.0003992947
174	0xbf2d1c7f	-0.67621607
175	0xbc49a076	-0.012306323
176	0xbd7c1985	-0.061547775
177	0x3daa915f	0.083285086
178	0xbc950a18	-0.01819329
179	0x3d547353	0.051867794
180	0x3df4908f	0.11941635
181	0x3e2760e6	0.16345558
182	0xbef113ac	-0.4708532
183	0x3da5f5b0	0.08103502
184	0x3c38635d	0.011254159
185	0x3cf004d5	0.02929918
186	0x3d45fe95	0.04833849
187	0xbef3ad92	-0.4759336
188	0x3f8572a8	1.0425615
189	0x3e8eb7e4	0.27874672
190	0x3e2077ff	0.15670775
191	0xbe17a4fb	-0.14809029
192	0x3e730ef8	0.23736179
193	0xbe7f73ef	-0.24946569
194	0x3da4cd0b	0.08046921
195	0x3e891699	0.26775053
196	0x3eded692	0.4352308
197	0xbeb1d9c5	-0.34736457
198	0x3e4b945c	0.19880813
199	0x3e65fda5	0.22460039
200	0x3eaa901d	0.33313075
201	0xbe3d266a	-0.18471685
202	0xbeaa3612	-0.33244377
203	0xbf043e44	-0.5165751
204	0xbec26117	-0.379647
205	0x3e90b468	0.2826264
206	0x3df50ef0	0.1196574
207	0x3ef43257	0.47694656
208	0xbe3caf5c	-0.1842627
209	0xbea3f462	-0.32022387
210	0x3e5e8d73	0.21733646
211	0x3e5cd5bf	0.21565913
212	0xbd153cb0	-0.03643483
213	0x3dd8edb2	0.10592212
214	0xbe4010f0	-0.18756461
215	0x3e73aedd	0.23797174
216	0x3ec9b5dc	0.3939656
217	0x3dfbf9ed	0.12303529
218	0x3e2ff482	0.17183116
219	0x3de93db4	0.11388722
220	0x3e8cbf13	0.27489528
221	0xbdeb8ae9	-0.115011044
222	0x3e54f9cf	0.2079842
223	0x3d528524	0.051396504
224	0x3dcf8476	0.10132687
225	0x3ea6a760	0.32549572
226	0x3e3ca925	0.18423899
227	0xbf569eaa	-0.8383585
228	0xbe38f40a	-0.18061844
229	0x3e18b480	0.14912605
230	0x3e2d17b0	0.16903567
231	0x3e7e276b	0.24819724
232	0x3e06fdd9	0.13182773
233	0x3f21dfcc	0.6323211
234	0x3e67692f	0.22598718
235	0x3dab908e	0.08377181
236	0x3d5ba877	0.053627457
237	0x3d90dfdc	0.07073948
238	0x3e3cdd32	0.18443754
239	0x3f577e7d	0.8417738
240	0x3e5b0542	0.21388724
241	0x3de151dd	0.11001942
242	0x3db0d8fe	0.08635138
243	0x3e5d9589	0.21639074
244	0x3e942783	0.28936395
245	0x3e68eab8	0.22745788
246	0x3e575b6f	0.21030973
247	0xbf23a24d	-0.63919526
248	0x3f364299	0.7119537
249	0x3f54c2df	0.8310985
250	0x3eb8ad5e	0.3606977
251	0x3e22f90f	0.15915321
252	0xbe7f032d	-0.24903555
253	0xbec1333e	-0.37734407
254	0xbed916d0	-0.42400217
255	0xbe94c71c	-0.29058158

bias f4 [128]
0	0xbde9ea5f	-0.11421656
1	0x3e055e2b	0.13024203
2	0xbe5d1ec2	-0.21593764
3	0x3e464cc3	0.1936522
4	0x3e8c12c9	0.27358082
5	0x3e3a97d7	0.18221985
6	0xbd11e6ec	-0.035620615
7	0xbd477bb0	-0.048701942
8	0x3a4ecb45	0.0007888566
9	0x3e509863	0.20370631
10	0xbe09722d	-0.13422461
11	0x3daabf69	0.0833729
12	0x3e20a786	0.15688905
13	0xbda68d09	-0.08132369
14	0x3cc3ec66	0.023916434
15	0xbe44c4e5	-0.19215734
16	0xbcb9a5d0	-0.022662073
17	0xbe465bd1	-0.19370963
18	0xbded1fc2	-0.11578323
19	0x3d9415c4	0.07230714
20	0x3e8e9ef1	0.27855638
21	0xbdac50be	-0.08413838
22	0xbda2d749	-0.07951219
23	0xbdfdc328	-0.12390739
24	0x3d2c0fc4	0.042007223
25	0xbdb926c6	-0.090405986
26	0xbe47a2bb	-0.1949567
27	0xbd2286b9	-0.039679263
28	0x3d1659d7	0.03670677
29	0xbc092929	-0.00837163
30	0xbdb6e37f	-0.0893011
31	0x3e439986	0.19101533
32	0xbe921403	-0.28530893
33	0xbda1d39c	-0.079016894
34	0x3dfb44da	0.12268992
35	0xbe090d35	-0.13383944
36	0xbe5656a8	-0.20931494
37	0xbda32cff	-0.07967567
38	0xbdb4f8f2	-0.08836545
39	0xbe5cd869	-0.21566929
40	0x3e0b588e	0.13608
41	0xbe0c7085	-0.13714798
42	0xbd68be13	-0.056821894
43	0xbd31d2af	-0.043413814
44	0x3d9b99da	0.07597704
45	0xbe3fea02	-0.1874161
46	0xbe3dc759	-0.18533076
47	0x3e0b16fa	0.13582984
48	0xbdc780fc	-0.09741399
49	0x3e20daaa	0.15708414
50	0xbe643c9d	-0.22288747
51	0x3e08a951	0.13345839
52	0xbe5cc386	-0.21558961
53	0x3e6fddb8	0.23424423
54	0xbdc5b3f6	-0.096534654
55	0xbe1d566a	-0.15364996
56	0x3dbb3066	0.09140091
57	0x3dc9b54f	0.09849035
58	0x3e02c671	0.12771012
59	0x3bf1dce9	0.007381071
60	0xbe781fd1	-0.24230887
61	0x3e3d0fbe	0.18463036
62	0xbd5f3846	-0.054497026
63	0x3d518dbe	0.051160567
64	0x3d0d32e5	0.034472365
65	0x3e3b9d61	0.18321754
66	0xbdff7986	-0.12474351
67	0x3ddb1879	0.10698027
68	0xbdbd778d	-0.09251318
69	0xbd4c6322	-0.049899228
70	0xbd34953f	-0.044087645
71	0xbe390355	-0.18067677
72	0xbe3109c0	-0.17288876
73	0x3dff003d	0.12451217
74	0xbdf318d6	-0.118699715
75	0x3d9a8e09	0.07546622
76	0x3d3ed235	0.046587188
77	0x3e19d0b0	0.15021014
78	0x3d69fa05	0.057123203
79	0x3df2e7ee	0.11860643
80	0xbdd12bbd	-0.102134205
81	0x3e4a9ce2	0.19786409
82	0x3e0dba66	0.13840637
83	0xbdc6a767	-0.09699898
84	0xbd79897e	-0.06092214
85	0x3dc2f3e0	0.09519172
86	0xbcbb9e42	-0.022902612
87	0x3c808969	0.015690522
88	0xbd125879	-0.035728905
89	0xbe6f86c6	-0.23391256
90	0xbb289808	-0.0025725383
91	0xbe4fad7f	-0.20281027
92	0xbe25aee5	-0.16179998
93	0xbe5d4a26	-0.21610317
94	0x3e1fd128	0.1560713
95	0xbd752fc0	-0.05985999
96	0xbdfd9939	-0.123827405
97	0xbcfc1361	-0.03077096
98	0x3e550e1e	0.20806167
99	0x3ddd1262	0.10794522
100	0xbddcbe28	-0.10778457
101	0x3da51a09	0.080616064
102	0x3e12d6f2	0.14339808
103	0xbe649a4f	-0.22324489
104	0xbdb687ee	-0.08912645
105	0xbe83aa64	-0.25715935
106	0xbe57e3d1	-0.21082999
107	0xbe1350d2	-0.14386299
108	0x3e0e6cd3	0.139087
109	0x3e8a7df4	0.2704922
110	0xbbfa01b6	-0.0076295985
111	0xbd9e2bff	-0.07723235
112	0x3c23a6a8	0.009988464
113	0xbe2c81e2	-0.16846421
114	0x3e9c5cfa	0.30539685
115	0x3dddf4d0	0.1083771
116	0xbd5103af	-0.051028904
117	0xbde4ac4b	-0.11165675
118	0x3eb26c4f	0.34848258
119	0x3d3d7715	0.046256144
120	0xbe2264d2	-0.15858772
121	0xbe100093	-0.14062719
122	0xbd81fee1	-0.063474424
123	0xbe0675e8	-0.13130915
124	0xbdbd7765	-0.09251288
125	0xbe46ba54	-0.19407016
126	0xbd928580	-0.07154369
127	0xbd8cceaa	-0.068753555

weight f4 [1, 128]
0	0xbf02e8d4	-0.5113652
1	0x3f4bd297	0.7961821
2	0xbedcc44b	-0.4311851
3	0x3f8559cc	1.0418029
4	0x3f3c8501	0.7364045
5	0x3f485932	0.782611
6	0xbb768e13	-0.0037621304
7	0xbf0fbcc4	-0.5614741
8	0xbf0c3058	-0.54761267
9	0x3f10d6b1	0.56577593
10	0xbf0cf441	-0.550602
11	0x3f62d5ac	0.8860729
12	0x3f63e8e2	0.89027226
13	0xbefec931	-0.49762872
14	0xbeddd222	-0.4332438
15	0xbf63d841	-0.8900185
16	0xba984357	-0.0011616749
17	0xbf04fe90	-0.5195093
18	0xbedc551f	-0.43033692
19	0x3f388e1d	0.7209185
20	0x3f36deed	0.7143391
21	0xbefbaf72	-0.49157292
22	0xbefb9391	-0.49136022
23	0xbefbc625	-0.4917461
24	0x3f7ffe9d	0.99997884
25	0xbeffa7e9	-0.49932793
26	0xbf3ba8d5	-0.7330449
27	0x3f4efd45	0.8085521
28	0x3d5fb116	0.05461224
29	0x3aa873d7	0.0012851906
30	0xbee907f2	-0.45513874
31	0x3f910456	1.1329448
32	0xbf3c221f	-0.73489565
33	0xbccf1c8c	-0.025282167
34	0x3f55e2f2	0.83549416
35	0xbf07acd2	-0.5299808
36	0xbef790d1	-0.48352674
37	0xbed83602	-0.42228705
38	0x3ce7cd43	0.028296119
39	0xbeff2dcc	-0.49839628
40	0x3f38f520	0.7224903
41	0xbf06b992	-0.5262691
42	0xbf01fe80	-0.5077896
43	0xbda846ca	-0.08216627
44	0xbd37be5d	-0.04485928
45	0xbee94f1f	-0.45568177
46	0xbee25860	-0.4420805
47	0x3f1109a2	0.56655324
48	0xbf081ec1	-0.53171927
49	0x3eef2954	0.46711218
50	0xbf50f8b0	-0.81629467
51	0x3fa28d6d	1.269941
52	0xbefd8f97	-0.49523613
53	0x3f3ac7ad	0.7296093
54	0xbefb9b29	-0.49141815
55	0xbf29539d	-0.6614321
56	0x3fdfd422	1.7486613
57	0x3f5f88fc	0.87318397
58	0x3f85d4eb	1.0455602
59	0xbecae2ab	-0.3962606
60	0xbf60683d	-0.87659055
61	0x3f85ece3	1.0462917
62	0xbf0ba577	-0.54549354
63	0x3f4ea96b	0.8072726
64	0x3f922f2d	1.1420647
65	0x3f083058	0.53198767
66	0xbf0c50b7	-0.5481066
67	0x3f911b17	1.1336392
68	0xbf0695ba	-0.52572215
69	0xbed94f50	-0.42443323
70	0xbecf6d9a	-0.40513307
71	0xbf455749	-0.7708631
72	0xbeff7fcd	-0.49902192
73	0x3f6019e3	0.875395
74	0xbf156e79	-0.5837169
75	0x3fa67fad	1.3007714
76	0x3f5f887c	0.87317634
77	0x3f551331	0.8323241
78	0x3dac5ac7	0.08415752
79	0x3f7633b8	0.96172667
80	0xbeed783c	-0.46380794
81	0x3f6c9677	0.9241709
82	0x3f6791e8	0.9045701
83	0xbf05240a	-0.52008116
84	0xbf0d1ec2	-0.5512506
85	0x3f5d092b	0.86342114
86	0x3da57fc8	0.08081013
87	0x3f5983d3	0.8496677
88	0xbbfdf178	-0.0077497326
89	0xbeed5198	-0.46351314
90	0x3f98dba4	1.1942029
91	0xbf2e6eca	-0.681378
92	0xbf069266	-0.52567136
93	0xbf5b2619	-0.8560501
94	0x3f66fc51	0.90228754
95	0xbf0e8dc9	-0.55685097
96	0xbf08e56f	-0.5347509
97	0xbee4e4e1	-0.4470587
98	0x3f46f5d4	0.77718854
99	0x3f8de2f7	1.1084889
100	0xbf014a52	-0.5050403
101	0x3fb3e1c6	1.4053276
102	0x3f5ab831	0.85437304
103	0xbf285809	-0.6575933
104	0x3d111344	0.035418764
105	0xbf58a002	-0.8461915
106	0xbf11c890	-0.5694666
107	0xbf3471be	-0.70486057
108	0x3f52b2d9	0.8230415
109	0x3f6a1969	0.9144502
110	0xbefbac02	-0.4915467
111	0xbf0336ef	-0.51255697
112	0x3f81f776	1.0153644
113	0xbf036982	-0.5133287
114	0x3f336b4d	0.70085603
115	0x3f91bae1	1.1385156
116	0x3d0bc830	0.03412646
117	0xbeefb6da	-0.46819192
118	0x3f392d70	0.7233496
119	0x3f563552	0.8367511
120	0xbee24476	-0.44192857
121	0xbf156122	-0.5835134
122	0xbf1fc972	-0.62416756
123	0xbede3890	-0.4340253
124	0xbecc30ea	-0.39881068
125	0xbef90431	-0.4863601
126	0x38c3185e	9.302863e-05
127	0xbf08d302	-0.5344697

weight f4 [128, 128]
0	0x3e97d07c	0.29651248
1	0x3e178dec	0.14800233
2	0x3e0f9b9c	0.14024204
3	0x3d308e0f	0.043104228
4	0xbcb5f600	-0.022212029
5	0xbe506129	-0.20349564
6	0xbc883e69	-0.016631322
7	0x3da34197	0.07971495
8	0x3d9ec903	0.07753184
9	0xbe44f3b9	-0.19233598
10	0x3e9b952e	0.30387253
11	0x3e5ab557	0.21358238
12	0x3e515482	0.20442393
13	0x3d65f40c	0.056140944
14	0x3d87ae90	0.06625092
15	0x3d77ac02	0.060466774
16	0x3e150fc2	0.14556792
17	0xbe9d85c5	-0.3076612
18	0x3d28d7d9	0.041221473
19	0x3c3cec0b	0.011530886
20	0x3b2d75e7	0.002646798
21	0xbb1bf649	-0.002379792
22	0x3cb50707	0.022098077
23	0x3dd1e9ad	0.10249648
24	0x3da8ef39	0.08248753
25	0x3e88ed3a	0.2674349
26	0xbd190397	-0.03735694
27	0xbfb7c655	-1.4357401
28	0x3c41de52	0.01183279
29	0xb969af5e	-0.00022285941
30	0x3d979ee3	0.07403352
31	0x3ea09bac	0.31368768
32	0xbdca6877	-0.09883206
33	0x3e207867	0.1567093
34	0x3da5a36d	0.080878116
35	0xbf279f2b	-0.65477246
36	0xbe107795	-0.14108117
37	0x3e434c55	0.19072087
38	0x3d05e082	0.03268481
39	0x3d0038bd	0.03130411
40	0x3db7e568	0.08979303
41	0x3ce2e999	0.027699279
42	0xbd8ce9ba	-0.06880517
43	0xc0165ac4	-2.34929
44	0x3e10dbe4	0.14146382
45	0x3e555acd	0.20835419
46	0xbb5a8f20	-0.003334947
47	0xbe26708f	-0.16253875
48	0xbd7c5f87	-0.06161454
49	0x3dc665e4	0.09687403
50	0x3d1c211e	0.03811752
51	0x3ec7bffc	0.3901366
52	0x3c74030a	0.014893303
53	0xbd936cfb	-0.07198521
54	0xbeac0d3c	-0.33603847
55	0x3e41acb8	0.18913543
56	0xbe0e8a74	-0.13920003
57	0x3de2bef4	0.11071578
58	0x3d9a0a8e	0.075215444
59	0xbe8e64d7	-0.2781131
60	0xbf6e3eea	-0.9306475
61	0x3d88a346	0.06671767
62	0x3d7c3653	0.061575245
63	0xbdf6bf84	-0.120482475
64	0xbe0ca067	-0.13733064
65	0xbd72fd03	-0.059323322
66	0x3d939ebd	0.07208011
67	0xbcb5df13	-0.022201097
68	0x3d095a90	0.033533633
69	0xbf534009	-0.82519585
70	0x3e3a33cc	0.18183821
71	0xbe422915	-0.18960984
72	0xbd81b212	-0.06332792
73	0x3e612482	0.21986583
74	0xbe040a9d	-0.12894674
75	0xbe091ea0	-0.13390589
76	0x3d959cf4	0.07305327
77	0xbd516914	-0.0511256
78	0x3d58b67c	0.052908406
79	0xbdb63f0e	-0.088987455
80	0xbe653503	-0.22383504
81	0x3cda32e9	0.026635604
82	0x3e4f354e	0.20235178
83	0x3dd0f619	0.102031894
84	0xbcbc713a	-0.02300321
85	0x3ddd5a87	0.10808282
86	0xbe325994	-0.17416984
87	0x3e482f7e	0.19549367
88	0x3eb03dc5	0.34422126
89	0xbe0bbdc9	-0.13646616
90	0x3dc64c92	0.096825734
91	0xbd1f5022	-0.03889478
92	0x3e07fa26	0.13279018
93	0x3cb752ba	0.022378314
94	0xbd06ec55	-0.032940228
95	0x3e8cc142	0.27491194
96	0xbdbb8f9e	-0.09158252
97	0x3ee7eb7a	0.45296842
98	0x3cf87580	0.030329466
99	0x3dbc07a8	0.09181148
100	0x3d08d27c	0.03340386
101	0x3d68e02d	0.056854416
102	0x3cb24609	0.021761911
103	0xbef25937	-0.4733369
104	0xbcfee2ae	-0.031113949
105	0xbcfc70f5	-0.03081558
106	0x3de10039	0.109863706
107	0x3deba8a1	0.11506773
108	0x3e32d633	0.17464523
109	0x3d8b319b	0.06796571
110	0x3e0551a0	0.13019419
111	0xbe0612de	-0.13093135
112	0x3dcb517d	0.09927652
113	0x3e46dbe8	0.19419825
114	0x3dbfcbe0	0.09365058
115	0x3dc3f972	0.09569062
116	0x3e3623e0	0.17787123
117	0x3d5d6631	0.054052535
118	0x3dea7dc7	0.114497714
119	0xbc008e7b	-0.00784647
120	0x3b6560b6	0.003500027
121	0xbe4dd8c6	-0.20102224
122	0x3ec60857	0.38678238
123	0xbd54259f	-0.05179369
124	0x3e7f488e	0.24930021
125	0x3dc49e25	0.09600476
126	0x3daa88a3	0.08326843
127	0xbc7779fd	-0.015104768
128	0x3cf6e818	0.030139968
129	0x3da588b7	0.08082717
130	0xbef04568	-0.46927953
131	0x3de17321	0.11008287
132	0xbe495a09	-0.19663252
133	0xbd607b3e	-0.054805033
134	0xbca11a1d	-0.019665772
135	0x392ff404	0.00016780203
136	0xbee334c7	-0.44376203
137	0x3d6c72bb	0.057726603
138	0x3d856909	0.065141745
139	0xbc9fd7d2	-0.01951209
140	0x3cfc69c4	0.030812152
141	0xbe6f5d66	-0.23375472
142	0xbd7a4e53	-0.061109852
143	0x3dc5dcae	0.09661232
144	0x3e320248	0.17383683
145	0x3ef70505	0.48246017
146	0x3da84651	0.08216537
147	0x3e0a654b	0.13515203
148	0x3b47a611	0.0030463974
149	0x3dadaf44	0.08480695
150	0xbde60bd6	-0.11232726
151	0xbe48cdcb	-0.19609754
152	0x3cd0af48	0.025474206
153	0xbe4e3b96	-0.20139918
154	0xbcd4e835	-0.025989631
155	0x3dda29b8	0.106524885
156	0x3d928082	0.07153417
157	0x3cc62ac9	0.024190323
158	0xbf220e59	-0.6330314
159	0xbd4dd8f9	-0.05025575
160	0xbd418547	-0.047246244
161	0xbedf1eab	-0.43578085
162	0x3d192df4	0.03739734
163	0x3d2e92c6	0.042620443
164	0xbecd0cff	-0.40048978
165	0xbf15bc68	-0.5849061
166	0x3e4df6de	0.20113704
167	0xbe0147a9	-0.12624992
168	0x3db4e18a	0.08832081
169	0x3daaef3a	0.0834641
170	0xbea4b54d	-0.32169572
171	0x3d7e7e38	0.06213209
172	0xbee7932d	-0.45229474
173	0x3dc81b79	0.09770865
174	0xbd8d8351	-0.06909812
175	0xbd840d2d	-0.064478256
176	0x3cf94aa6	0.030431103
177	0xbed37ff2	-0.41308552
178	0xbf7310d3	-0.94947547
179	0xbe177405	-0.14790352
180	0x3ddcd38a	0.107825354
181	0xbc4e3fe7	-0.012588478
182	0xbdfe563e	-0.12418793
183	0xbe1d6778	-0.15371501
184	0x3e1cd7be	0.15316674
185	0xbebbd0a8	-0.3668263
186	0x3d9d0dbe	0.07668637
187	0x3da6870a	0.081312254
188	0xbe0959b3	-0.13413124
189	0xbe70c4a8	-0.23512518
190	0x3e31da8f	0.1736853
191	0x3def7306	0.11691861
192	0x3de59b1f	0.112112276
193	0x3e02e059	0.12780894
194	0x3b9e292e	0.0048266863
195	0x3d281f50	0.041045487
196	0x3afb1e15	0.0019158745
197	0xbdc3318c	-0.09530935
198	0x3e0643f8	0.13111866
199	0xbe34f487	-0.17671405
200	0xbacf72f7	-0.0015827109
201	0xbe74d915	-0.23910935
202	0x3e3dd04d	0.18536492
203	0x3e62790e	0.22116491
204	0xbe80b20f	-0.25135848
205	0x3e16fe59	0.14745463
206	0x3dc8e5a4	0.098094255
207	0xbe960255	-0.29298654
208	0x3d1e1209	0.03859142
209	0x3d1495b8	0.036275595
210	0x3d619a86	0.055079006
211	0x3d8ce3ca	0.06879385
212	0x3c02a946	0.007974928
213	0xbf68162c	-0.9065883
214	0x3daa5761	0.083174475
215	0xbe87b94c	-0.26508558
216	0x3eadf404	0.33975232
217	0x3d6a1456	0.0571483
218	0xbe57e952	-0.21085098
219	0x3e3cd302	0.18439868
220	0x3e78958f	0.24275802
221	0x3e6f4242	0.23365119
222	0xbe5550cf	-0.20831607
223	0x3dd5991e	0.104295954
224	0x3e01277f	0.12612723
225	0x3e1c436a	0.15260091
226	0x3daf35d8	0.08555192
227	0x3d25f1e3	0.040513884
228	0x3d8d6a77	0.06905072
229	0xbdd622ca	-0.10455854
230	0xbd581349	-0.052752767
231	0x3d9a3798	0.07530135
232	0x3e2f3515	0.17110093
233	0xbecac0f8	-0.39600348
234	0x3dcec484	0.10096076
235	0x3e375558	0.1790365
236	0x3e0f72c7	0.14008628
237	0xbcc99c27	-0.024610592
238	0xbf2bd91d	-0.67128164
239	0xbe392498	-0.18080366
240	0x3cae313f	0.021263717
241	0x3d516ae9	0.051127348
242	0x3e19c548	0.15016663
243	0x3e5dee7d	0.21673007
244	0x3e22f3ec	0.15913361
245	0x3bc08606	0.005875352
246	0xbc863619	-0.016383218
247	0xbee66f33	-0.45006713
248	0xbeb7a9e9	-0.3587182
249	0xbeb496e4	-0.3527137
250	0x3dc3dd73	0.095637225
251	0x3dc6c9ad	0.09706435
252	0x3ca6a1f7	0.020340903
253	0xbecc290b	-0.39875063
254	0x3e6e2ed2	0.23260048
255	0x3cd0379b	0.02541714

bias f4 [128]
0	0x3d6dfc05	0.058101673
1	0x3e4d3a7e	0.20041844
2	0x3e1deff5	0.15423568
3	0x3df800f1	0.121095546
4	0xbd159080	-0.03651476
5	0x3cccf9db	0.025021484
6	0xbc3e9bff	-0.011633872
7	0x3e0ca258	0.13733804
8	0xbd76f422	-0.060291417
9	0xbd5343fc	-0.051578507
10	0x3e0f543b	0.13996975
11	0x3dfd120c	0.12356958
12	0x3cefb8b3	0.029262876
13	0x3dfe240b	0.124092184
14	0xbddec0ff	-0.10876655
15	0x3d41d4cb	0.047322076
16	0xbd51e4a4	-0.05124344
17	0x3df2f71f	0.11863541
18	0x3db35434	0.08756295
19	0xbc1524d9	-0.009103023
20	0xbd338d42	-0.043835886
21	0x3e052168	0.13001025
22	0x3d263702	0.040579803
23	0x3dbbd4a4	0.09171417
24	0xbdc2bee1	-0.095090635
25	0xbc90d400	-0.017679214
26	0x3cd26574	0.025683142
27	0x3d6f6daa	0.058454193
28	0xbd08f66e	-0.03343814
29	0xbe027833	-0.12741165
30	0xbc18ac47	-0.009318418
31	0x3e05024a	0.12989154
32	0xbcbb9574	-0.022898413
33	0xbd76f6b1	-0.060293857
34	0xbdc7f0e4	-0.09762743
35	0xbdb5be2c	-0.08874163
36	0x3dae5baf	0.08513581
37	0xbd82d48c	-0.06388196
38	0x3e1c2a57	0.15250526
39	0x3de3287c	0.11091706
40	0xbd139722	-0.036032803
41	0x3d3471c1	0.044053797
42	0x3ca2d038	0.019874677
43	0xbd2aa306	-0.041659378
44	0x3e00f18c	0.12592143
45	0x3d5a3c28	0.053280026
46	0xbd91a263	-0.07111051
47	0x3c9ca273	0.01912043
48	0x3d2e5898	0.04256496
49	0x3e392d99	0.180838
50	0x3dc56105	0.09637646
51	0xbcd17e5e	-0.025572952
52	0x3d3f3133	0.04667778
53	0xbd58cde0	-0.052930713
54	0x3e61e746	0.2206088
55	0x3d3bc7bc	0.04584478
56	0xbce87484	-0.028375871
57	0x3db4d003	0.088287376
58	0xbdca5de7	-0.09881192
59	0x3d4b6777	0.04965922
60	0x3df51669	0.11967165
61	0xbbd3cae5	-0.006463396
62	0xbcfd0654	-0.030886807
63	0x3d9e51ab	0.07730421
64	0x3d07fd6f	0.033200677
65	0x3d81884d	0.063248254
66	0xbc3f0797	-0.011659524
67	0x3ddc3cae	0.10753761
68	0xbe14f751	-0.14547469
69	0x3e0d446e	0.13795635
70	0x3d150098	0.03637752
71	0xbc48f1cd	-0.012264681
72	0xbcc8ce10	-0.02451232
73	0xbdb0a287	-0.0862475
74	0x3d80ce7f	0.06289386
75	0x3e32628a	0.17420402
76	0x3de091d6	0.10965316
77	0xb9efa6b7	-0.00045709845
78	0x3d809d2e	0.0627998
79	0x3e8aee9a	0.27135164
80	0xbd96428f	-0.07336914
81	0x3c867ac9	0.01641597
82	0xbcbd8025	-0.023132393
83	0x3cd11e6b	0.0255272
84	0x3decfac1	0.11571265
85	0x3cda33c5	0.026636014
86	0x3e260da9	0.16216148
87	0x3e42b133	0.19012909
88	0x3ba55802	0.0050458917
89	0x3e300a42	0.17191413
90	0x3789104a	1.6339258e-05
91	0xbd01c5b6	-0.031682692
92	0xbd854b92	-0.065085545
93	0x3c2f8426	0.010712659
94	0xbbbea91d	-0.0058184997
95	0x3d2a8ce4	0.04163827
96	0x3d75c6df	0.06000411
97	0x3c205153	0.009785014
98	0xbc4f9347	-0.012669391
99	0xbe2e9780	-0.1704998
100	0x3e169cdb	0.14708273
101	0x3de4416b	0.1114529
102	0xbd07e0bf	-0.03317332
103	0x3e28a4a5	0.16469057
104	0x3e5c5881	0.21518137
105	0xbd9f29d5	-0.07771651
106	0x3c64bfbc	0.013961729
107	0x3d3f0c49	0.046642575
108	0x3dda93a9	0.10672695
109	0xbcb3dace	-0.02195492
110	0x3e19259a	0.1495575
111	0xbd78c6e2	-0.060736544
112	0x3dc956d3	0.098310135
113	0xbe192918	-0.14957082
114	0x3c0e47a4	0.008684073
115	0x3d5a5cee	0.05331128
116	0x3b83b43b	0.004019288
117	0xbd879278	-0.066197336
118	0xbd22cdc6	-0.039747022
119	0xbdbcffe6	-0.09228496
120	0xbd2f5270	-0.042803228
121	0x3d39b8a9	0.04534212
122	0xbd857cbc	-0.06517932
123	0x3dc1a0f1	0.09454525
124	0x3cd3970c	0.02582886
125	0xbc6912fb	-0.014225717
126	0xbd063ed3	-0.032774758
127	0xbd7b45ce	-0.061345868

weight f4 [4, 128]
0	0x3b86627b	0.0041010953
1	0xbdaea69a	-0.085278705
2	0xbbc319d1	-0.0059540053
3	0xbd8a46e0	-0.067517996
4	0xbcaf3d8e	-0.021391656
5	0xbe979ec4	-0.29613316
6	0xbf024150	-0.5088091
7	0xbe034045	-0.12817486
8	0xbc1c7ec4	-0.009551708
9	0xbd4369af	-0.04770821
10	0xbe5db35f	-0.21650456
11	0xbebc8a08	-0.3682406
12	0x3cd3bc80	0.02584672
13	0xbe719c46	-0.2359477
14	0xbec329c8	-0.38117814
15	0xbcade7dc	-0.021228723
16	0x3d98fee1	0.07470489
17	0x3e090acb	0.13383023
18	0xbe3acdf0	-0.18242621
19	0xbdc984c5	-0.09839777
20	0x3e64d2e2	0.2234607
21	0xbf08a344	-0.53374124
22	0xbed70d82	-0.42002493
23	0x3db04c17	0.08608263
24	0xbf136c53	-0.57587165
25	0xbe138212	-0.14405087
26	0xbdba03c3	-0.09082749
27	0xbe6d7724	-0.2318998
28	0x3d8bd80c	0.06828317
29	0xbc9552ea	-0.018228013
30	0x3d97f215	0.0741922
31	0xbda2e63e	-0.079540715
32	0x3cedfbc4	0.029050715
33	0x3e1d8b2b	0.1538512
34	0xbe91a444	-0.28445637
35	0xbe249a51	-0.16074492
36	0xbda13d5b	-0.07873031
37	0xbf457ede	-0.7714671
38	0xbe613717	-0.21993671
39	0x3d0ff927	0.03514972
40	0x3e822b05	0.25423446
41	0xbd0d58c8	-0.034508497
42	0xbcc42a95	-0.023946086
43	0x3ef7fda7	0.4843571
44	0xbd06de59	-0.03292689
45	0xbe627518	-0.2211498
46	0xbe19abc7	-0.15006934
47	0x3e1c4e89	0.15264334
48	0xbc21bc26	-0.009871518
49	0x3d76de4a	0.060270585
50	0x3d288b21	0.04114831
51	0x3e813ec6	0.25243205
52	0xbdedd48d	-0.116128065
53	0xb998c23c	-0.00029136415
54	0x3deb1dcc	0.11480293
55	0x3e1e0e9d	0.15435262
56	0x3e8e0361	0.27736953
57	0xbd91bc61	-0.071160085
58	0xbe13db71	-0.14439179
59	0x3e91fb73	0.28512153
60	0xbe58032e	-0.21094963
61	0xbde54a6c	-0.111958355
62	0x3e37d2e4	0.17951542
63	0x3e947caf	0.29001376
64	0xbe20c595	-0.15700372
65	0xbe90030b	-0.28127322
66	0xbd5b514c	-0.053544328
67	0x3e24cd28	0.16093886
68	0xbe66cfd9	-0.22540225
69	0xbf382c26	-0.71942365
70	0x3d92980c	0.07157907
71	0xbe142bc4	-0.1446982
72	0xbdc1d39b	-0.09464189
73	0x3e3ff76a	0.18746725
74	0xbe093448	-0.1339885
75	0x3e37ccc9	0.17949213
76	0xbe9e69d6	-0.3094012
77	0xbdf67d5e	-0.12035631
78	0x3e0e154e	0.13875315
79	0x3e4c714e	0.19965097
80	0x3e329b17	0.17441975
81	0xbe1f4561	-0.1555381
82	0x3ed57e89	0.416981
83	0x3eeda00e	0.46411175
84	0xbe34f137	-0.17670141
85	0x3e72ae22	0.23699239
86	0xbe1c20de	-0.15246913
87	0x3e4800e7	0.19531594
88	0x3d4f4b1d	0.050608743
89	0xbeaa2b8a	-0.33236343
90	0xbd2fa558	-0.042882293
91	0xbcf9db11	-0.030499967
92	0x3da274df	0.07932448
93	0xbef17842	-0.47162062
94	0x3dc537cb	0.09629782
95	0xbe095981	-0.1341305
96	0x3be6fc35	0.0070491084
97	0x3e30646f	0.17225812
98	0xbf2e1ebd	-0.6801565
99	0xbe90788a	-0.28216964
100	0x3ea331e7	0.3187401
101	0xbe50b03f	-0.20379733
102	0x3dadda70	0.08488929
103	0x3d446da3	0.04795612
104	0x3d1eebfc	0.03879927
105	0xbd507a32	-0.050897785
106	0x3d0209d2	0.031747647
107	0xbe908ae9	-0.2823098
108	0xbbd1d975	-0.0064040967
109	0xbe42fb95	-0.19041283
110	0xbe048f71	-0.12945344
111	0xbe64ee54	-0.2235654
112	0x3ebfce64	0.3746215
113	0xbe1146bb	-0.14187138
114	0xbf0ac6a7	-0.5420937
115	0xbdb1514f	-0.086580865
116	0x3e3b0bd8	0.18266237
117	0xbe267c4a	-0.1625835
118	0x3e147b87	0.14500247
119	0x3f29c08a	0.66309416
120	0xbddb651e	-0.10712646
121	0xbdf09c7b	-0.11748596
122	0xbe855af7	-0.26045963
123	0xbcdf97c5	-0.027294049
124	0x3e3eb6bb	0.18624394
125	0xbf3e87cc	-0.7442596
126	0x3ea11a79	0.3146551
127	0xbc56cd58	-0.013110481
128	0xbeb6bb66	-0.3568985
129	0xbf01ecdd	-0.5075205
130	0x3e961028	0.293092
131	0x3dd44f28	0.1036666
132	0x3efd1c94	0.49435866
133	0xbeed3b4d	-0.46334305
134	0x3ef3345a	0.4750088
135	0xbd7db928	-0.061944157
136	0x3e254e45	0.16143139
137	0x3ec07cab	0.37595114
138	0x3b771116	0.0037699393
139	0x3eed0094	0.46289504
140	0x3d56bd60	0.052426696
141	0xbe5733a5	-0.21015795
142	0xbf55c79e	-0.83507717
143	0xbea89fae	-0.32934326
144	0x3f0574ba	0.52131236
145	0x3f16090c	0.58607554
146	0xbe37e597	-0.17958675
147	0xbecfaef1	-0.40563157
148	0x3eea5e5d	0.45775118
149	0x3eaad988	0.33369088
150	0xbee0f102	-0.43933874
151	0x3e4f3cb0	0.20237994
152	0xbda9421f	-0.08264565
153	0xbecd4219	-0.4008949
154	0xbe88438b	-0.2661403
155	0xbe65c477	-0.22438227
156	0xbe6c4ced	-0.2307622
157	0xbe0675d3	-0.13130884
158	0xbda6208f	-0.08111679
159	0xbe1d392a	-0.15353838
160	0xbd9cd3ab	-0.0765756
161	0xbeabb60b	-0.33537325
162	0x3edb473e	0.4282779
163	0x3d706634	0.05869122
164	0xbe54302b	-0.207215
165	0xbf47c26a	-0.7803103
166	0xbd118834	-0.035530284
167	0xbd735738	-0.05940935
168	0xbd74ae8e	-0.05973678
169	0x3d989709	0.07450683
170	0xbe9d7126	-0.30750388
171	0xbf022590	-0.50838566
172	0xbdea5d80	-0.11443615
173	0xbf174a43	-0.5909769
174	0xbe80aa20	-0.25129795
175	0x3e08399b	0.13303225
176	0xbea3b1a1	-0.31971458
177	0xbec1e327	-0.37868616
178	0xbd8e181c	-0.06938192
179	0x3eb0414b	0.34424815
180	0xbf05e25a	-0.5229851
181	0x3d8cf1d6	0.06882064
182	0x3e9f4ca5	0.31113163
183	0xbdb1b8a6	-0.08677797
184	0x3bd162af	0.006389938
185	0x3d56a884	0.052406803
186	0xbf0b6979	-0.54457814
187	0x3dfc1fcb	0.123107515
188	0xbec8232d	-0.39089337
189	0xbe976eda	-0.2957676
190	0x3db9585c	0.09050056
191	0x3f0010ce	0.5002564
192	0x3f6413dd	0.8909281
193	0xbe4b4a62	-0.19852594
194	0xbdb03780	-0.08604336
195	0xbdf5f1ab	-0.12008985
196	0x3f30013c	0.68751884
197	0x3f14c577	0.5811381
198	0x3d47db3c	0.048793063
199	0x3db82dbc	0.08993098
200	0x3f01096a	0.5040499
201	0x3eed2125	0.4631435
202	0xbe15976e	-0.14608547
203	0x3eb2785f	0.3485746
204	0xbf316ca8	-0.6930642
205	0xbec3c3df	-0.38235375
206	0x3e6dab5f	0.23209904
207	0xbeb6ed4b	-0.35727915
208	0xbdfb9078	-0.122834146
209	0xbef0ee09	-0.47056606
210	0x3f0ce153	0.5503132
211	0x3f0c9fe4	0.54931474
212	0xbf6f758b	-0.9353873
213	0x3eb500b3	0.35352096
214	0xbce5dd2d	-0.028059566
215	0x3f30e1c9	0.6909452
216	0x3f024e02	0.5090028
217	0xbf14a0c6	-0.5805782
218	0x3cca7c97	0.024717612
219	0xba7dff6b	-0.00096892443
220	0xbd9f449c	-0.07776758
221	0xbf26d4d4	-0.651685
222	0x3f40b875	0.7528146
223	0xbe738b71	-0.23783661
224	0xbc876d78	-0.016531691
225	0x3efc41a9	0.49268845
226	0xbf0095b5	-0.50228435
227	0xbf0e6a12	-0.556306
228	0x3dad1cbd	0.08452747
229	0xbdd7ac79	-0.105309434
230	0xbd2ab76d	-0.041678835
231	0x3e96e21e	0.2946939
232	0x3eeb7e02	0.45994574
233	0xbb8f6674	-0.004376227
234	0xbdaaa25c	-0.08331749
235	0x3ec1c37b	0.37844452
236	0xbe093fdc	-0.13403267
237	0xbeb5d961	-0.3551741
238	0xbe4c3a98	-0.19944227
239	0xbe582c33	-0.2111061
240	0x3ebf6bf5	0.37387052
241	0xbe86132e	-0.26186508
242	0x3f181179	0.5940166
243	0xbe0567eb	-0.13027923
244	0x3ec2fda4	0.38084137
245	0xbdee213d	-0.116274334
246	0x3ea9d81b	0.33172688
247	0x3f28fb4c	0.6600845
248	0xbe23ae50	-0.15984464
249	0xbe524f93	-0.20538168
250	0x3ea66d9b	0.32505497
251	0x3ea4dba7	0.3219883
252	0x3d796d66	0.060895346
253	0xbf2f7923	-0.68544215
254	0xbec5bbdb	-0.38619885
255	0x3cce1aeb	0.02515932

bias f4 [4]
0	0x3d4fc5e6	0.05072584
1	0x3cc1e170	0.023667067
2	0x3c5cd4f9	0.013478511
3	0xbd4c8d2a	-0.049939312
