problem1/models/underway/success_whole_model_1766859174.pth (torch, 146613 bytes, 9 tensors)

weight f4 [128, 8]
-0.010133433 0.6259943 -0.8534019 -0.057154395 -0.3167792 -0.15592557 -0.21389943 -0.043102004
-0.39194348 -0.31264663 0.16891573 -0.27902985 0.12382778 0.13640106 0.17399342 0.12898217
0.70388556 -0.048407137 0.39386964 -0.20517032 -0.59365636 0.05179305 -0.38533017 0.081477515
0.7471013 -0.45222098 0.3223973 -0.5598051 -0.12986755 0.011144355 0.006361418 -0.08367512
-0.50745434 0.0905096 -0.06017779 -0.35453558 -0.4388719 -4.8417718e-05 0.3607194 -0.7250655
0.106107414 0.3205278 0.0023653628 0.022998301 -0.23167062 -0.68139905 -0.240121 -0.027462903
-0.16071564 0.1680355 -0.43552375 0.386647 0.18061945 0.302278 -0.2544642 -0.057030503
0.3290435 0.08091333 0.0595736 -0.08814949 -0.3655396 0.100938976 -0.30500185 0.2864905
0.33459684 0.061815582 -0.012694553 1.5095344 -0.23461816 0.05408312 -0.20654126 -0.3371491
-0.33277267 -0.2160974 -0.75310534 -0.63639456 -0.39732024 0.19235489 0.037873514 0.15364075
-0.29524907 -0.31407684 -0.73013455 -0.25907853 0.7497098 0.11676263 -0.043793913 0.20626795
0.40091124 0.260465 0.2676016 0.36669222 0.12026976 -0.9087597 -0.59105694 -0.31874824
0.35445455 -0.94874525 -0.50947326 -0.4071721 0.14838868 -0.0023478519 0.21793549 0.25717443
0.46818826 -0.15400882 0.39679235 -0.1432097 -0.44905657 -0.17702545 -0.65323025 -0.038108815
0.2886798 -0.10468748 -0.13002427 -0.1425073 1.1637894 -0.069533296 -0.26002988 -0.10730039
0.5689363 0.42689088 0.11607758 -0.038179997 -0.13496172 -0.07941619 -0.58377236 0.33027354
0.5280556 0.9482967 -0.27354482 -0.14329456 -0.39088744 -0.17498153 0.0013625625 -0.7257416
-0.09456985 0.25895265 0.44968414 0.30135387 -0.48983893 -0.05039889 -0.25818112 -0.5281572
0.12218571 0.6188536 -0.04466539 -0.21391332 0.38279593 -0.12610541 0.08602493 0.210889
0.03937048 0.30142274 0.58555865 -0.6587037 -0.08027222 0.56929564 0.29595456 0.27768573
0.07264744 0.0022692233 0.017435495 -0.03336148 -1.826656 0.15204681 0.03394879 -0.10015594
-0.4545936 0.94813246 -0.30991033 -0.4767728 0.33372548 0.12634932 0.029218972 -0.19887431
-0.33046934 -0.29760596 0.37048393 -0.32191935 0.26664183 0.31777588 0.33912694 0.15023567
-0.030137857 0.04413764 0.0006521114 -0.28873715 -0.3490377 0.57576054 0.20543957 0.22585931
0.00028460802 0.021280179 0.6085333 -1.0437797 -0.0030538472 -0.073323674 -0.32236937 0.3348392
-0.4894203 0.41762298 -0.46980375 0.23378487 0.104400165 0.18733898 0.31123066 0.23469338
-0.41489533 0.45641208 0.585941 0.065549366 -0.005878382 0.09672281 -0.27691555 -0.09156096
-0.087746195 -0.29273444 0.0978654 -0.26846242 0.528837 0.3976506 0.36125362 0.33662984
0.33949813 0.4050509 -0.29842588 0.15828808 0.048297636 0.2101367 -0.13345708 -0.24603778
-0.06441538 -0.03812423 0.990634 -0.72618645 0.19177727 -0.14420524 -0.536518 0.18331182
-0.05914546 0.03199987 -0.44568786 -0.19931945 0.42989102 0.34623066 -0.12799895 0.09442879
-0.1795436 0.46243772 0.56192374 -0.10167481 0.03130029 -0.7988743 0.044330586 -0.15511894
00000000: b306 26bc 2a41 203f 8c78 5abf ba1a 6abd
00000010: e230 a2be f4aa 1fbe 7408 5bbe ba8b 30bd
00000020: d1ac c8be 3813 a0be 3ff8 2c3e 00dd 8ebe
00000030: 6b99 fd3d b8ac 0b3e 552b 323e e713 043e
00000040: d831 343f 9046 46bd 48a9 c93e 2b18 52be
00000050: ddf9 17bf f324 543d ff49 c5be afdd a63d
00000060: 0842 3f3f 8289 e7be 4211 a53e 634f 0fbf
00000070: 00fc 04be d096 363c 7173 d03b dc5d abbd
00000080: 87e8 01bf 195d b93d fc7c 76bd b085 b5be
00000090: d1b3 e0be 2114 4bb8 37b0 b83e e59d 39bf
000000a0: d84e d93d 381c a43e 3404 1b3b ef66 bc3c
000000b0: 103b 6dbe 2b70 2ebf 48e2 75be e2f9 e0bc
000000c0: a492 24be 8011 2c3e f8fc debe 98f6 c53e
000000d0: 4ef4 383e 2fc4 9a3e 2249 82be d198 69bd
000000e0: 6478 a83e e3b5 a53d 7203 743d b887 b4bd
000000f0: 0228 bbbe 18b9 ce3d 3429 9cbe e2ae 923e
00000100: 4750 ab3e 5632 7d3d d0fc 4fbc 6c38 c13f
00000110: be3f 70be 4386 5d3d 8d7f 53be cf9e acbe
00000120: 2e61 aabe a348 5dbe 83cb 40bf c1ea 22bf
00000130: 8f6d cbbe aef8 443e 4221 1b3d 0054 1d3e
00000140: e32a 97be aece a0be 19ea 3abf f1a5 84be
00000150: fbec 3f3f 3f21 ef3d 3f61 33bd e837 533e
00000160: 3d44 cd3e ab5b 853e 1403 893e 15bf bb3e
00000170: fe4f f63d 7aa4 68bf 824f 17bf f832 a3be
00000180: 117b b53e f8e0 72bf d76c 02bf dd78 d0be
00000190: 34f3 173e 6bde 19bb 7b2a 5f3e 5eac 833e
000001a0: 5fb6 ef3e 7db4 1dbe 5e28 cb3e 90a5 12be
000001b0: beea e5be 2946 35be 193a 27bf fd17 1cbd
000001c0: d7cd 933e 6466 d6bd 1525 05be 6fed 11be
000001d0: 0df7 943f 7967 8ebd a322 85be 4fc0 dbbd
000001e0: cfa5 113f 7191 da3e 15ba ed3d a162 1cbd
000001f0: 6833 0abe f5a4 a2bd 1b72 15bf 9d19 a93e
00000200: a72e 073f 93c3 723f 110e 8cbe cfbb 12be
00000210: 6622 c8be 5c2e 33be 0398 b23a 34ca 39bf
00000220: d6ad c1bd 7195 843e 003d e63e 0e4b 9a3e
00000230: 2bcc fabe 116f 4ebd 5130 84be 4f35 07bf
00000240: 803c fa3d 316d 1e3f 0ef3 36bd 180c 5bbe
00000250: d4fd c33e c721 01be d72d b03d 49f3 573e
00000260: f142 213d 1554 9a3e 2ce7 153f cea0 28bf
00000270: c365 a4bd 5cbd 113f 5b87 973e d32c 8e3e
00000280: 2ec8 943d 40b7 143b e2d4 8e3c 0ca6 08bd
00000290: ddcf e9bf 29b2 1b3e e30d 0b3d 8f1e cdbd
000002a0: 7ec0 e8be cfb8 723f 91ac 9ebe 901b f4be
000002b0: 11de aa3e b761 013e a05c ef3c b5a5 4bbe
000002c0: 4733 a9be cf5f 98be 12b0 bd3e 9dd2 a4be
000002d0: 4785 883e 85b3 a23e 0ca2 ad3e 61d7 193e
000002e0: abe3 f6bc acc9 343d 75f2 2a3a 5bd5 93be
000002f0: 12b5 b2be 0b65 133f c05e 523e aa47 673e
00000300: 7137 9539 c553 ae3c d7c8 1b3f 939a 85bf
00000310: 0e23 48bb b92a 96bd 990d a5be 0b70 ab3e
00000320: 4c95 fabe aed2 d53e 1e8a f0be 4d65 6f3e
00000330: c1cf d53d cad5 3f3e a059 9f3e 7653 703e
00000340: 296d d4be d8ae e93e 3b00 163f bf3e 863d
00000350: 719f c0bb 9c16 c63d e0c7 8dbe 5084 bbbd
00000360: 47b4 b3bd 4ae1 95be a86d c83d e873 89be
00000370: dd61 073f dc98 cb3e 3cf6 b83e bf5a ac3e
00000380: b3d2 ad3e d562 cf3e 47cb 98be 4516 223e
00000390: bed3 453d 132e 573e f9a8 08be 54f1 7bbe
000003a0: 36ec 83bd 2728 1cbd 319a 7d3f 5be7 39bf
000003b0: 4361 443e 8aaa 13be 3e59 09bf 18b6 3b3e
000003c0: 8342 72bd 4c12 033d 3331 e4be 661a 4cbe
000003d0: ad1a dc3e 2545 b13e 2812 03be e263 c13d
000003e0: 47da 37be a3c4 ec3e 3cda 0f3f e23a d0bd
000003f0: bc34 003d 0783 4cbf fd93 353d 80d7 1ebe

bias f4 [128]
-0.09638855 0.52326953 0.17700458 -0.05223977 -0.054401305 -0.053870432 0.3915684 0.46573806
-0.16196443 0.2731745 0.26788345 -0.019539118 0.08420393 0.42654532 0.062220767 -0.025286175
0.09431721 -0.22187954 -0.16362016 -0.1436419 -0.022009363 0.22989333 0.4342608 -0.5490684
-0.012716091 0.10681868 0.4057619 -0.039585892 0.53307456 0.015468902 -0.28939024 0.41727224
0.045174897 0.3185298 0.31540635 0.18924339 0.18275684 -0.41895577 0.0057734554 -0.15747
0.14739318 0.1210758 0.45051384 0.3564824 0.36425498 0.46173984 -0.4630766 0.1281894
0.30417895 0.15779787 0.16042748 -0.23129812 0.20526704 0.45405427 0.10611204 -0.13078399
-0.11563696 -0.2746766 -0.032570925 0.008892064 -0.150333 -0.094530515 0.27139077 0.3210958
-0.054736793 0.19255096 0.1801053 0.2223138 0.17533174 0.15042183 0.51608646 -0.16604538
0.3290321 -0.31832185 0.38273355 -0.0028243638 0.35899118 0.020840297 0.27159178 0.3825118
0.11406388 0.2451507 0.35105178 0.42388815 -0.18507355 0.2801136 0.058638114 0.22719328
0.37147087 0.4252805 0.2841006 0.16623901 0.03454806 0.10223701 0.31211013 0.17914404
0.14505406 0.12738326 -0.36584508 -0.16856429 -0.1873692 -0.3680027 -0.34078863 0.06539058
-0.29336149 -0.115837626 -0.030799259 -0.2883124 0.18549402 0.2998666 -0.1824244 -0.35735762
0.06280256 0.030517455 0.09865221 0.29360783 0.22961275 0.1815464 -0.13036211 -0.30907285
0.08407055 0.13069262 0.31287608 0.077008076 0.37662026 -0.0036414908 0.35614726 -0.053035554
00000000: 5c67 c5bd fef4 053f b040 353e 5ef9 55bd
00000010: e7d3 5ebd 3ea7 5cbd a77b c83e 3875 ee3e
00000020: 01da 25be 87dd 8b3e 0528 893e 8010 a0bc
00000030: 1c73 ac3d 2664 da3e 34db 7e3d f424 cfbc
00000040: 6229 c13d 6434 63be 0b8c 27be dd16 13be
00000050: fb4c b4bc 2869 6b3e 6e57 de3e bf8f 0cbf
00000060: 2757 50bc c1c3 da3d 06c0 cf3e d124 22bd
00000070: 9377 083f 4771 7d3c f52a 94be b5a4 d53e
00000080: 5009 393d 5716 a33e f17c a13e 05c9 413e
00000090: 9c24 3b3e 5f81 d6be 412f bd3b d13f 21be
000000a0: 3dee 163e 97f6 f73d c0a9 e63e dc84 b63e
000000b0: a17f ba3e 2a69 ec3e 6018 edbe 1544 033e
000000c0: 58bd 9b3e c495 213e 1a47 243e 6ad9 6cbe
000000d0: 8631 523e cd79 e83e 4551 d93d 3dec 05be
000000e0: 12d3 ecbd 69a2 8cbe 1769 05bd 05b0 113c
000000f0: e5f0 19be 3799 c1bd bbf3 8a3e ab66 a43e
00000100: b033 60bd 142c 453e 866d 383e 3ba6 633e
00000110: 2a8a 333e 2e08 1a3e 3e1e 043f cd07 2abe
00000120: e576 a83e 15fb a2be a7f5 c33e f618 39bb
00000130: b1cd b73e 45b9 aa3c 140e 8b3e 96d8 c33e
00000140: 539a e93d c908 7b3e 0fbd b33e de07 d93e
00000150: ec83 3dbe 0d6b 8f3e 852e 703d 5ba5 683e
00000160: 6e31 be3e 5ebe d93e a275 913e 8f3a 2a3e
00000170: 4482 0d3d a361 d13d e6cc 9f3e 8971 373e
00000180: 0d89 143e c270 023e 0c50 bbbe 1e9c 2cbe
00000190: b6dd 3fbe da6a bcbe d97b aebe 7feb 853d
000001a0: 7a33 96be 473c edbd ba4e fcbc af9d 93be
000001b0: 25f2 3d3e 1d88 993e 76cd 3abe 94f7 b6be
000001c0: a19e 803d beff f93c 2b0a ca3d c453 963e
000001d0: 9b1f 6b3e 4de7 393e a57d 05be cc3e 9ebe
000001e0: 2e2d ac3d 49d4 053e 4b31 a03e 69b6 9d3d
000001f0: 5fd4 c03e 14a6 6ebb ef58 b63e cf3b 59bd

weight f4 [128, 128]
0.35067552 -0.13328761 -0.1260514 -0.19801325 -0.36442697 -0.21198702 0.0253626 0.17312856
0.96106505 0.17101 -0.2680261 0.19468535 -0.28180036 -0.35425717 -0.11577826 0.0037767086
0.10975817 0.1456532 0.20564535 -0.035731982 1.208156 0.030259633 -0.24066135 -0.17912416
0.5122606 0.084044285 0.31147245 -0.9155897 -0.09953693 0.468454 -0.10381901 0.1364635
-0.21271297 0.61993045 0.010445571 0.17484628 -0.050500024 -0.65003985 -0.19099154 -0.117556244
-0.144561 0.09290085 0.025100779 -0.30472356 0.16175747 0.024286421 -0.10636991 0.27795476
0.09477521 -0.2849143 0.1486922 -0.17499734 -0.07613077 -0.0053353985 0.4271181 0.099980354
0.33149222 -0.4549707 0.53913933 0.24957138 0.28261703 0.114373595 -0.08772003 0.15609565
-0.5935828 0.042440508 -0.19997121 0.27902734 -0.012906962 -0.13822712 -0.0075214417 0.53513634
-0.08157111 -0.086575 0.18046445 -0.22433406 0.09746673 -0.17768463 -0.1876168 0.016757164
-0.08144093 0.11313199 0.044860348 -0.1685818 0.35568386 -0.30049914 0.0018683724 -0.042240806
0.053300727 -0.14077969 0.017357644 -0.030859591 -0.494826 0.37834683 0.38600186 0.22699872
0.020823412 0.17644413 0.7434501 -0.0055706576 0.42668098 0.29929033 0.010436982 0.06431621
0.6893495 -0.12633586 1.5074893 -0.464544 -0.0948046 -0.22738291 0.53126645 -0.056584347
0.38568363 0.25245896 0.21804588 0.025548477 -0.051804297 -0.07467605 0.11582188 -0.45376298
0.16388178 -0.018496186 0.21786888 0.617111 0.089610554 -0.08135649 0.100306034 -0.089256026
0.37648416 -0.16574737 -0.6161992 -0.039303247 -0.4658123 -0.33322752 0.032782473 0.10753891
0.66693896 0.19382168 -0.05905681 0.113708295 -0.072641686 -0.5580261 0.34404898 -0.0476894
0.2489476 0.0036704978 0.20530154 0.06348093 0.79785043 0.1741449 -0.26261845 -0.26618195
0.52549493 0.15224569 0.22891033 -0.7903821 -0.062062275 0.48222265 -0.15292639 0.16774243
-0.21540502 -0.27444986 0.005058848 0.18324164 0.05240446 -0.91894454 -0.17894252 -0.6769835
-0.062791415 -0.04370992 0.04296068 -0.5766245 0.09452611 0.2676183 -0.30483142 0.0039876765
0.14456117 -0.4394897 0.24180302 -0.5043863 -0.64580303 0.090606295 0.10477734 0.12200324
-0.07902395 -0.22406632 0.21167244 0.1479337 0.05296908 -1.1336241 0.114222355 0.041635882
-0.36932072 0.15038349 0.029635953 0.23938179 0.017188841 -0.12722266 0.0532143 -0.065253936
-0.033846922 -0.745278 0.14655708 -0.41278258 0.13535284 0.0361518 0.00080399605 -0.17534178
-0.5511286 0.09591063 0.15686533 -0.6846175 0.27869156 -0.27746183 -0.6078248 0.0773097
0.104818486 -0.3754449 0.5496564 -0.1042654 -0.6056219 0.67966735 -0.63558185 0.15927194
-0.08898173 -0.018072937 0.61181504 -0.15923752 -0.049013913 0.2145423 -0.11167777 0.027928852
0.33294782 -0.38456318 0.11254644 -0.82471216 -0.07122414 -0.2979143 0.11414209 -0.18864997
0.4427636 -0.72469693 0.2021422 0.23457761 0.0252606 -0.0063360743 -0.08572521 -0.5018992
0.15092391 -0.0038504584 -0.5120529 -0.03316097 0.17955281 -0.114039056 0.32944414 -0.81401956
00000000: be8b b33e 8c7c 08be 9e13 01be fcc3 4abe
00000010: 2c96 babe 2013 59be 3ac5 cf3c 9d48 313e
00000020: 5c08 763f 3f1d 2f3e b83a 89be 995b 473e
00000030: 2348 90be 3261 b5be 271d edbd a882 773b
00000040: e4c8 e03d 1d26 153e b294 523e b35b 12bd
00000050: dba4 9a3f 0de3 f73c ee6f 76be 536c 37be
00000060: 8323 033f 691f ac3d 5179 9f3e 1664 6abf
00000070: 05da cbbd 34d9 ef3e 109f d4bd 16bd 0b3e
00000080: 6ed1 59be c3b3 1e3f e623 2b3c e70a 333e
00000090: 1dd9 4ebd 0369 26bf 4993 43be 54c1 f0bd
000000a0: cc07 14be cd42 be3d 26a0 cd3c ba04 9cbe
000000b0: c0a3 253e 51f4 c63c 78d8 d9bd 1650 8e3e
000000c0: 8119 c23d 4ae0 91be c542 183e 8132 33be
000000d0: 73ea 9bbd 91d4 aebb 39af da3e 80c2 cc3d
000000e0: 59b9 a93e ebf1 e8be 0905 0a3f a48f 7f3e
000000f0: 2eb3 903e b43c ea3d 8fa6 b3bd 8ad7 1f3e
00000100: 0bf5 17bf 19d6 2d3d 41c5 4cbe acdc 8e3e
00000110: b977 53bc 698b 0dbe 6d76 f6bb b2fe 083f
00000120: c10e a7bd 3c4e b1bd accb 383e d4b7 65be
00000130: a39c c73d f6f2 35be 9e1e 40be 5246 893c
00000140: 81ca a6bd bfb1 e73d 7cbf 373d b5a0 2cbe
00000150: 321c b63e 06db 99be 2de4 f43a b204 2dbd
00000160: dd51 5a3d 8d28 10be 9e31 8e3c 41cd fcbc
00000170: d559 fdbe adb6 c13e 09a2 c53e 5a72 683e
00000180: dc95 aa3c c5ad 343e bf52 3e3f 108a b6bb
00000190: ee75 da3e 953c 993e e0ff 2a3c 38b8 833d
000001a0: 3579 303f 305e 01be 69f5 c03f b6d8 edbe
000001b0: ea28 c2bd 11d7 68be 1401 083f fdc4 67bd
000001c0: 5378 c53e 4d42 813e 6b47 5f3e 0a4b d13c
000001d0: be30 54bd c2ef 98bd 0634 ed3d 9f53 e8be
000001e0: a0d0 273e 5085 97bc 0519 5f3e fdfa 1d3f
000001f0: bd85 b73d 3b9e a6bd 406d cd3d ddcb b6bd
00000200: 88c2 c03e aeb9 29be 3bbf 1dbf 71fc 20bd
00000210: f37e eebe cc9c aabe ea46 063d 5c3d dc3d
00000220: 83bc 2a3f 3179 463e 8ee5 71bd e5df e83d
00000230: 2ac5 94bd ccda 0ebf 3027 b03e f655 43bd
00000240: 1fec 7e3e bc8c 703b 913a 523e 4a02 823d
00000250: ed3f 4c3f 0a53 323e ed75 86be 0049 88be
00000260: d686 063f 4be6 1b3e 7867 6a3e 7b56 4abf
00000270: 0335 7ebd e3e5 f63e bc98 1cbe acc4 2b3e
00000280: 2293 5cbe b184 8cbe b1c4 a53b b2a3 3b3e
00000290: 0fa6 563d f33f 6bbf b53c 37be ca4e 2dbf
000002a0: c998 80bd 2c09 33bd 8af7 2f3d aa9d 13bf
000002b0: e896 c13d 4405 893e dd12 9cbe 0eab 823b
000002c0: d807 143e cb04 e1be 369b 773e 761f 01bf
000002d0: 5953 25bf cb8f b93d 8195 d63d d6dc f93d
000002e0: 4fd7 a1bd a471 65be a9c0 583e ef7b 173e
000002f0: 1bf6 583d 981a 91bf 69ed e93d 638a 2a3d
00000300: 9b17 bdbe 21fe 193e 19c7 f23c 8020 753e
00000310: 9dcf 8c3c a846 02be 3df7 593d dba3 85bd
00000320: 12a3 0abd 8aca 3ebf 0f13 163e 3d58 d3be
00000330: ef99 0a3e e913 143d 43c3 523a cc8c 33be
00000340: c416 0dbf cb6c c43d 4ea1 203e 1843 2fbf
00000350: a9b0 8e3e 7a0f 8ebe 689a 1bbf 8c54 9e3d
00000360: 13ab d63d 503a c0be 48b6 0c3f 1989 d5bd
00000370: 090a 1bbf aefe 2d3f 7eb5 22bf 2f18 233e
00000380: 0e3c b6bd b20d 94bc e99f 1c3f 290f 23be
00000390: d0c2 48bd fab0 5b3e 51b7 e4bd 0ccb e43c
000003a0: 2378 aa3e 77e5 c4be bf7e e63d 5620 53bf
000003b0: f6dd 91bd 3988 98be 54c3 e93d 752d 41be
000003c0: e9b1 e23e bd85 39bf 5dfe 4e3e 1d35 703e
000003d0: 51ef ce3c d89e cfbb b390 afbd 777c 00bf
000003e0: cc8b 1a3e f957 7cbb e615 03bf ccd3 07bd
000003f0: b1dc 373e 4f8d e9bd e7ac a83e 9663 50bf

bias f4 [128]
0.10276652 0.024163794 -0.072082445 -0.053543292 -0.069727086 0.06414477 -0.06743149 -0.18758944
-0.07316096 -0.11388854 -0.17511716 0.010481685 -0.08052152 0.1354655 0.09975224 -0.051815882
-0.09578995 -0.055658717 -0.021852128 0.06759523 0.20225912 -0.078734554 0.12857233 0.10536637
-0.13798754 -0.15488838 -0.09714003 0.03867114 -0.26278254 0.13846913 0.16764528 0.012646235
-0.08372093 -0.0055327024 -0.0547091 -0.04214683 0.033397213 0.10173224 0.07618017 -0.124213375
-0.0070061 -0.15923734 0.02300117 -0.07619099 -0.033669915 -0.071300864 0.028427586 -0.067464456
-0.046851333 -0.0978369 0.015735922 -0.0049480796 -0.145636 0.14824949 -0.046265807 -0.029806588
-0.08560623 -0.023217564 -0.089057274 -0.09265405 -0.06555664 0.3330233 -0.010274867 -0.046647053
0.043764316 0.124957114 -0.11635001 -0.08458663 0.09286498 0.09900976 -0.15743096 -0.043929793
-0.13089749 -0.09124787 -0.059349064 0.033035245 -0.20191056 0.093552686 -0.044721905 -0.09024593
-0.17203203 0.038413294 0.0620267 -0.2316472 -0.038267948 0.13912147 0.016122527 0.034413822
0.023764249 0.030179512 0.10977022 -0.013908806 -0.039533786 -0.09691304 -0.08845105 -0.08674832
0.18028422 -0.22985655 0.17566295 0.10194794 -0.006335047 0.12153578 -0.10160134 0.033246264
0.032995965 -0.24498123 0.17802255 0.21565993 -0.013725292 -0.09167955 -0.106436536 -0.04711386
0.17541438 0.23338953 0.06734796 0.19524449 -0.05624132 0.026654813 -0.012165809 -0.07572611
0.0138678625 0.29960105 0.18495636 -0.039292704 0.14056274 -0.17375743 0.28586262 -0.009295574
00000000: 4177 d23d 26f3 c53c f69f 93bd 3650 5bbd
00000010: 13cd 8ebd 555e 833d 8519 8abd 7217 40be
00000020: 6ad5 95bd 653e e9bd ea51 33be 60bb 2b3c
00000030: 77e8 a4bd 78b7 0a3e e74a cc3d e43c 54bd
00000040: 852d c4bd 65fa 63bd 3c03 b3bc 5e6f 8a3d
00000050: 041d 4f3e 953f a1bd 77a8 033e 53ca d73d
00000060: 9b4c 0dbe 0f9b 1ebe 5af1 c6bd a165 1e3d
00000070: 6f8b 86be daca 0d3e 34ab 2b3e 2732 4f3c
00000080: e175 abbd ac4b b5bb a616 60bd 28a2 2cbd
00000090: 84cb 083d fe58 d03d 5904 9c3d 9563 febd
000000a0: 6d93 e5bb 1d0f 23be f36c bc3c 060a 9cbd
000000b0: 77e9 09bd 3006 92bd f8e0 e83c ce2a 8abd
000000c0: 2fe7 3fbd b65e c8bd 9fe8 803c 8023 a2bb
000000d0: 9b21 15be b7ce 173e 3781 3dbd f22c f4bc
000000e0: 5252 afbd c332 bebc a963 b6bd 68c1 bdbd
000000f0: 8f42 86bd 0882 aa3e ea57 28bc fb10 3fbd
00000100: 3642 333d 84e9 ff3d ea48 eebd c13b adbd
00000110: ff2f be3d a1c5 ca3d 9535 21be baef 33bd
00000120: fe09 06be 2ae0 babd 0118 73bd f74f 073d
00000130: a4c1 4ebe 8d98 bf3d 512e 37bd dcd2 b8bd
00000140: 2a29 30be 4257 1d3d b50f 7e3d ec34 6dbe
00000150: dabe 1cbd dc75 0e3e 6413 843c 82f5 0c3d
00000160: 3ead c23c 063b f73c 36cf e03d c3e1 63bc
00000170: 2eee 21bd 587a c6bd d325 b5bd 1aa9 b1bd
00000180: 6d9c 383e 845f 6bbe fde0 333e 15ca d03d
00000190: 3a96 cfbb c0e7 f83d 5d14 d0bd 3c2d 083d
000001a0: c726 073d 5cdc 7abe 8b4b 363e f5d5 5c3e
000001b0: 0ce0 60bc 7dc2 bbbd 66fb d9bd 76fa 40bd
000001c0: d49f 333e aafd 6e3e baed 893d 2cee 473e
000001d0: 4c5d 66bd 325b da3c 1a53 47bc 4a16 9bbd
000001e0: 0836 633c 4f65 993e 3365 3d3e 63f1 20bd
000001f0: aeef 0f3e 78ed 31be 965c 923e 774c 18bc

weight f4 [1, 128]
0.89160633 0.8381834 -0.03596791 -0.7939245 -0.7518354 0.0062314887 -0.6488354 -1.0340477
-0.5947983 -0.71436614 -0.98930645 -0.714907 -0.65684396 0.86846703 0.85618275 0.8847639
1.3139008 -0.5891604 -0.5926498 -0.04797267 0.95180404 0.80923986 0.89410174 0.7640069
-0.79296535 -1.2048866 -1.0898812 -0.7116981 -0.7806979 0.9026377 0.78203994 -0.5670731
-0.70108706 -0.6858011 -0.71431065 -0.6347796 -0.6684098 0.90443987 0.8899198 -0.5763513
-0.7273965 -0.57452345 1.5136936 -0.71103865 1.0231731 -1.1999431 0.885362 -0.8045462
0.05316048 -0.7657922 -0.6731926 -0.9590187 -0.73065704 0.81319726 -0.8513808 -0.646861
-0.60514474 -0.6153305 0.8802937 0.050158884 -0.78940725 0.8153292 -0.529438 1.4174883
-0.078732714 0.7259697 -0.5656068 0.009345296 0.9466792 0.8584059 -0.7053573 -0.69267523
-0.5867726 -0.6806299 -0.08353165 -0.7578256 -0.5481235 0.74328285 -0.62734336 -0.8975379
-1.4177803 -0.65961725 0.7497218 -1.3351128 0.7802195 0.75438887 0.8460071 0.9280387
0.9385357 -0.882015 0.8696362 0.050429825 -0.6991622 -1.129359 -0.86630166 -0.58270895
0.7958636 -1.2426969 0.97827095 0.7495514 -0.035847787 0.8352045 -0.6711334 0.84718835
-0.67084223 -0.8215233 0.8767908 0.750743 -0.6549543 -0.57642066 -0.6358552 0.871474
0.6959067 0.6514816 0.77441335 0.8327819 -0.6889803 0.9398252 -0.7273548 -0.033595797
-0.87744546 0.9080771 0.7580448 -0.7173156 0.788568 -0.9440806 0.9278536 0.0614066
00000000: 5040 643f 3093 563f 1653 13bd a33e 4bbf
00000010: 4978 40bf 8431 cc3b 141a 26bf ad5b 84bf
00000020: b444 18bf b3e0 36bf 3043 7dbf 2504 37bf
00000030: ed26 28bf db53 5e3f cb2e 5b3f e37f 623f
00000040: e72d a83f 37d3 16bf e6b7 17bf fe7e 44bd
00000050: 6ea9 733f 582a 4f3f dae3 643f f595 433f
00000060: c7ff 4abf b939 9abf 3a81 8bbf d931 36bf
00000070: d1db 47bf 4413 673f c533 483f b42b 11bf
00000080: 717a 33bf a990 2fbf 10dd 36bf ea80 22bf
00000090: e81c 2bbf 5f89 673f c9d1 633f c28b 13bf
000000a0: a836 3abf f813 13bf b6c0 c13f a106 36bf
000000b0: 56f7 823f bc97 99bf 16a7 623f bdf6 4dbf
000000c0: cebe 593d f50a 44bf 5a56 2cbf 4082 75bf
000000d0: 570c 3bbf b22d 503f 18f4 59bf af98 25bf
000000e0: c4ea 1abf 4d86 1dbf ee5a 613f 6773 4d3d
000000f0: 9816 4abf 6ab9 503f 4089 07bf 4270 b53f
00000100: 9e3e a1bd 26d9 393f 9bcb 10bf 031d 193c
00000110: 9159 723f 7dc0 5b3f 4c92 34bf 2a53 31bf
00000120: bb36 16bf c33d 2ebf a412 abbd dc00 42bf
00000130: d251 0cbf c947 3e3f 9399 20bf 0bc5 65bf
00000140: d379 b5bf addc 28bf c5ed 3f3f fae4 aabf
00000150: 77bc 473f a11f 413f ec93 583f f293 6d3f
00000160: e043 703f bccb 61bf 7aa0 5e3f 818f 4e3d
00000170: 4bfc 32bf d68e 90bf f2c5 5dbf 6a2c 15bf
00000180: b8bd 4b3f b110 9fbf f76f 7a3f 9ae2 3f3f
00000190: 21d5 12bd f6cf 553f 66cf 2bbf 56e1 583f
000001a0: 51bc 2bbf 5a4f 52bf 5d75 603f b130 403f
000001b0: 16ab 27bf 4e90 13bf 68c7 22bf ec18 5f3f
000001c0: f126 323f 80c7 263f f43f 463f 3231 553f
000001d0: 0361 30bf 6298 703f ed33 3abf bf9b 09bd
000001e0: 44a0 60bf be77 683f 390f 423f ffa1 37bf
000001f0: 98df 493f 44af 71bf d087 6d3f 7d85 7b3d

weight f4 [128, 128]
-0.43407094 0.14385365 0.039504755 -0.12439272 0.032562323 -0.12977815 0.2097767 0.07089541
-0.47186857 -0.062906906 -0.34613183 -0.1139226 -0.01959943 0.02287116 -0.40301758 -0.1961929
-0.27225292 -0.63214314 -0.3300603 0.069240175 0.2798276 -0.16924989 0.10958906 0.15338738
0.12199814 -0.04665056 0.3633938 -0.19254076 -0.004432506 -0.09712735 0.04876155 0.22422536
-0.07963514 0.11239726 0.18298244 -0.12716554 0.034391176 -0.82543415 -0.16479675 0.04821487
-0.22648324 0.36831388 0.005910711 0.07396427 0.2526047 -0.17631479 -0.009565461 0.07855194
0.118773304 -0.32602775 -0.33624953 0.07865285 0.12411853 0.13241571 -0.09271443 -0.5611285
0.18337922 0.060050458 0.24880494 0.17066847 0.07252933 0.25518775 -0.16541584 -0.04754042
-0.2567597 -0.14322433 -0.051085163 -0.13941826 0.2187829 -0.21282546 -0.08755153 0.02945023
0.09157712 -0.15591638 -0.084873304 -0.028359782 -0.024433319 0.10250944 0.00011451916 0.119162455
-0.18093741 0.06890412 -0.18542004 0.20913321 -0.13264884 -0.19083427 0.09548553 -0.22148407
-0.13979368 0.12712206 -0.5149514 -0.17298551 -0.024570173 0.06951291 -0.049252495 -0.14838849
-0.037936464 -0.30673274 0.17581846 -0.23514056 0.344879 -0.08552109 0.14142157 -0.026085433
0.17640668 -0.02650823 0.6575532 -0.06870185 -0.21614392 0.0061194 -0.26166847 -0.57268786
-0.3420856 -0.022540491 -0.039612174 -0.09387526 -0.021876078 0.04081751 0.31563342 -0.44571528
0.19687037 0.06339696 0.10754702 -0.08263238 -0.01829212 -0.17972839 0.07226705 -0.015481447
-0.032574806 0.008174092 0.0015423744 0.07248294 -0.023932219 -0.02952724 -0.045551054 0.0046833144
0.009091655 0.009493687 0.0004799068 -0.06128317 -0.027790545 -0.070649154 0.043850675 -0.08825365
-0.030357903 0.0126402 0.057394117 0.056516487 -0.0820315 -0.029509945 0.066303216 -0.036478493
-0.084604785 -0.030017314 -0.03812164 -0.071645305 -0.04455537 -0.06871577 0.009501183 -0.035045337
0.058265004 -0.08233863 -0.010453509 0.02164227 0.0685103 -0.07185048 -0.05956712 -0.01874155
0.03838004 -0.07939633 0.0597231 -0.046439853 -0.0805751 -0.027874975 0.006087249 0.047674704
0.066256344 0.017487945 -0.014246879 -0.08498675 -0.03810508 -0.07461193 -0.010278273 -0.091305986
-0.086168006 0.018810509 -0.06429036 -0.03840169 -0.024003986 -0.011633478 -0.08012989 0.05921286
0.06843219 0.02161883 -0.05249265 0.025257112 0.049616706 0.019659773 -0.007127967 0.08175104
-0.060981013 -0.070504025 0.007099269 -0.053959955 0.051162105 0.07371405 -0.046665978 -0.069882065
0.0329661 0.039216537 -0.065725744 -0.01906939 -0.058840442 0.011203733 -0.09225627 0.03445754
-0.09000544 0.03222843 -0.042839106 -0.07207989 -0.08268782 -0.03464668 0.04461707 -0.027778525
-0.07372752 -0.031611845 -0.07971409 -0.08235049 -0.05449103 -0.07128046 -0.08277173 -0.08405829
0.07761581 0.06672725 0.08619745 -0.086277135 -0.01978635 0.030975541 0.06358324 0.045828458
-0.09626981 0.045610912 -0.029462446 -0.023836391 -0.08798173 0.055733707 -0.021369863 0.054566815
0.06748582 -0.040870916 0.04318681 -0.0008245987 0.030734342 -0.06657577 -0.005027318 -0.0081395
00000000: 8c3e debe 5f4e 133e bdcf 213d 9cc1 febd
00000010: 1260 053d 90e4 04be b4cf 563e 9d31 913d
00000020: c298 f1be 56d5 80bd 3138 b1be 4150 e9bd
00000030: fc8e a0bc 4d5c bb3c 5258 cebe cbe6 48be
00000040: bc64 8bbe 22d4 21bf aafd a8be cbcd 8d3d
00000050: 9045 8f3e d84f 2dbe 3b70 e03d 9511 1d3e
00000060: 29da f93d a814 3fbd c10e ba3e 6829 45be
00000070: 8e3e 91bb b4ea c6bd 31ba 473d 559b 653e
00000080: c017 a3bd 8930 e63d c05f 3b3e af37 02be
00000090: c3dd 0c3d a74f 53bf 7bc0 28be f57c 453d
000000a0: 39eb 67be a393 bc3e a3ae c13b 947a 973d
000000b0: 6755 813e dd8b 34be 74b8 1cbc d7df a03d
000000c0: 6b3f f33d 1ced a6be e628 acbe bf14 a13d
000000d0: db31 fe3d fc97 073e 10e1 bdbd 1ea6 0fbf
000000e0: c3c7 3b3e 78f7 753d b9c6 7e3e b7c3 2e3e
000000f0: 428a 943d f8a7 823e c562 29be beb9 42bd
00000100: 0276 83be 66a9 12be ad3e 51bd a9c3 0ebe
00000110: a008 603e ebee 59be 374e b3bd 9c41 f13c
00000120: c98c bb3d 8ba8 1fbe 0ed2 adbd c652 e8bc
00000130: 6228 c8bc 78f0 d13d 022a f038 720b f43d
00000140: a847 39be 9a1d 8d3d c0de 3dbe 0427 563e
00000150: 19d5 07be 0f6a 43be eb8d c33d b8cc 62be
00000160: 1326 0fbe 492c 023e dbd3 03bf 1d23 31be
00000170: 6347 c9bc c95c 8e3d fcbc 49bd 27f3 17be
00000180: 4463 1bbd 130c 9dbe c109 343e b0c8 70be
00000190: fb93 b03e ae25 afbd d1d0 103e 1eb1 d5bc
000001a0: f4a3 343e ca27 d9bc 6855 283f 8eb3 8cbd
000001b0: d554 5dbe 3f85 c83b 69f9 85be ac9b 12bf
000001c0: d825 afbe d6a6 b8bc 6040 22bd ac41 c0bd
000001d0: 7635 b3bc 4330 273d b49a a13e cb34 e4be
000001e0: 6398 493e 44d6 813d 9d41 dc3d 2a3b a9bd
000001f0: 5bd9 95bc b80a 38be bf00 943d e5a5 7dbc
00000200: 296d 05bd a0ec 053c 7f29 ca3a f071 943d
00000210: 800d c4bc 1ce3 f1bc be93 3abd 7d76 993b
00000220: 2af5 143c 698b 1b3c 009c fb39 1004 7bbd
00000230: ffa8 e3bc 81b0 90bd c49c 333d 54be b4bd
00000240: 23b1 f8bc d718 4f3c 1816 6b3d d57d 673d
00000250: 2200 a8bd d7be f1bc fbc9 873d 796a 15bd
00000260: 4645 adbd dfe6 f5bc 7025 1cbd c6ba 92bd
00000270: b17f 36bd dbba 8cbd daaa 1b3c b38b 0fbd
00000280: 49a7 6e3d 28a1 a8bd 3245 2bbc 214b b13c
00000290: 214f 8c3d 5826 93bd a7fc 73bd e187 99bc
000002a0: 6434 1d3d 8b9a a2bd 36a0 743d b737 3ebd
000002b0: 8f04 a5bd 0f5a e4bc 8c77 c73b 8d46 433d
000002c0: 68b1 873d e142 8f3c be6b 69bc 880d aebd
000002d0: 1314 1cbd 24ce 98bd 3466 28bc a2fe babd
000002e0: da78 b0bd 7f18 9a3c aaaa 83bd 174b 1dbd
000002f0: 02a4 c4bc 589a 3ebc 241b a4bd 2f89 723d
00000300: 2d26 8c3d f919 b13c 8802 57bd 01e8 ce3c
00000310: e33a 4b3d 880d a13c b991 e9bb 176d a73d
00000320: 3ac7 79bd 6a64 90bd fca0 e83b 1d05 5dbd
00000330: 5b8f 513d 64f7 963d d324 3fbd 541e 8fbd
00000340: 7607 073d 85a1 203d 389b 86bd 6937 9cbc
00000350: ad02 71bd dd8f 373c dbf0 bcbd 5923 0d3d
00000360: c654 b8bd f501 043d 0f78 2fbd 9f9e 93bd
00000370: 3b58 a9bd ade9 0dbd 64c0 363d ca8f e3bc
00000380: 74fe 96bd 6c7b 01bd 2441 a3bd 60a7 a8bd
00000390: fc31 5fbd 7dfb 91bd 3a84 a9bd c126 acbd
000003a0: 0af5 9e3d 4ca8 883d 4a88 b03d 11b2 b0bd
000003b0: fc16 a2bc 6bc0 fd3c ee37 823d 9fb6 3b3d
000003c0: 1b29 c5bd 82d2 3a3d 3a5b f1bc 8944 c3bc
000003d0: c42f b4bd 0749 643d da0f afbc 7481 5f3d
000003e0: 0136 8a3d 4368 27bd a7e4 303d e229 58ba
000003f0: 96c6 fb3c e158 88bd 33bc a4bb 8a5b 05bc

bias f4 [128]
0.08546323 0.030665625 0.12037699 0.010208319 0.0002822034 0.10015789 0.072408505 0.016063247
0.12496339 -0.04627323 -0.027276335 0.03625952 0.041746043 -0.028397162 0.1996439 0.08978189
-0.034671783 -0.022747869 0.08363884 0.011728641 -0.0006229828 0.0026968238 -0.011801649 0.071958445
-0.10620016 -0.0051643425 0.086736 0.15821071 -0.0021231277 0.06127827 0.13811588 0.024376072
0.08864535 -0.036023073 0.009530084 0.026578546 0.11755247 0.034440335 0.06531848 0.14607076
0.056438416 0.051720865 0.0032575205 -0.00028609062 -0.078150205 -0.1472928 0.027901763 0.049183946
0.054226164 0.037271656 0.14693327 0.050390467 0.067331284 0.13122587 0.023653788 0.04599261
0.012219356 0.011843515 0.01287009 0.05497853 -0.098162256 0.037250742 0.03645407 0.040128626
-0.037520554 -0.02243046 -0.053079598 -0.0322721 0.16323863 0.0069837184 0.021231197 -0.04078816
0.025652453 -0.01549947 0.13297094 0.16814718 0.120327875 0.07944725 0.01842167 0.09171999
-0.020518687 -0.010897897 0.034489483 -0.07025575 0.23864934 0.07922951 0.028469017 0.09696315
-0.06298652 -0.058253445 -0.027572772 0.091692485 0.06894975 0.061260182 0.0022731577 -0.047618225
-0.06602795 0.16385962 0.047636256 0.08206366 -0.007576877 -0.038040463 0.04302931 -0.008042852
0.028339775 0.07386146 -0.1142562 0.008589571 0.09258441 -0.04948353 0.16322346 -0.047792148
-0.07878225 0.19995078 0.020474792 0.0034789992 -0.063408926 -0.031707842 -0.08142838 -0.05251821
-0.07951702 0.07150384 0.17126122 0.011559966 0.015100665 0.112817615 0.15774222 -0.009924157
00000000: 5907 af3d 7a36 fb3c 3688 f63d cb40 273c
00000010: b3f4 9339 941f cd3d e94a 943d 1297 833c
00000020: ceec ff3d 0089 3dbd 9f72 dfbc dd84 143d
00000030: e6fd 2a3d 2aa1 e8bc 736f 4c3e 91df b73d
00000040: 0004 0ebd bd59 babc d74a ab3d 7c29 403c
00000050: ab4f 23ba 32bd 303b b45b 41bc f35e 933d
00000060: 787f d9bd a539 a9bb a5a2 b13d fd01 223e
00000070: 2c24 0bbb ecfe 7a3d 406e 0d3e 54b0 c73c
00000080: b18b b53d ee8c 13bd 1224 1c3c 40bb d93c
00000090: 59bf f03d 4f11 0d3d b2c5 853d 9393 153e
000000a0: f82b 673d 42d9 533d 207c 553b 6ffe 95b9
000000b0: 370d a0bd ecd3 16be 3d92 e43c 1b75 493d
000000c0: 411c 5e3d 2aaa 183d ad75 163e 3c66 4e3d
000000d0: fce4 893d 1360 063e 97c5 c13c bf62 3c3d
000000e0: b233 483c 4d0b 423c 12dd 523c 2b31 613d
000000f0: 4b09 c9bd 3c94 183d dd50 153d ea5d 243d
00000100: 27af 19bd 16c0 b7bc fe69 59bd c02f 04bd
00000110: 0728 273e add7 e43b 0ced ad3c 7c11 27bd
00000120: 1825 d23c 7df1 7dbc 8929 083e c62e 2c3e
00000130: 766e f63d 3db5 a23d 0be9 963c b1d7 bb3d
00000140: ce16 a8bc 188d 32bc d844 0d3d 3fe2 8fbd
00000150: 7e60 743e 1543 a23d db37 e93c 9e94 c63d
00000160: 14ff 80bd 2a9b 6ebd 4be0 e1bc 45c9 bb3d
00000170: 8735 8d3d f5eb 7a3d 42f9 143b 540b 43bd
00000180: a939 87bd d1ca 273e 3c1e 433d fe10 a83d
00000190: 7347 f8bb 51d0 1bbd 803f 303d 2bc6 03bc
000001a0: d128 e83c ad44 973d 28ff e9bd 46bb 0c3c
000001b0: e59c bd3d 3eaf 4abd 0d24 273e b3c1 43bd
000001c0: 9758 a1bd e6bf 4c3e c0ba a73c ecff 633b
000001d0: 8adc 81bd 15e0 01bd ecc3 a6bd 561d 57bd
000001e0: d2d9 a2bd 9b70 923d 1a5f 2f3e 0366 3d3c
000001f0: c868 773c ec0c e73d 2d87 213e ee98 22bc

weight f4 [4, 128]
-0.004641955 0.08544396 0.25402048 -0.10776123 0.090459034 0.06542993 0.27737185 -0.28888777
0.055357352 -0.13714749 -0.2694975 0.15162262 0.00082172547 0.18881603 -0.6971195 0.21097669
0.07849995 0.1173379 0.076655224 -0.042787075 -0.32767367 0.06036795 -0.2511901 -0.48172256
0.19482782 0.5725124 0.06501515 0.00979015 0.2096561 -0.02039641 -0.045647483 -0.097431205
-0.008925843 -0.0782823 -0.931163 -0.17951222 0.11190909 0.038237132 -0.044066932 0.36242366
-0.12443849 -0.028975762 0.32196188 -0.14063197 0.07787359 -0.13231835 -0.14848773 0.048568964
-0.042221807 -0.3720035 -0.027724791 0.039927322 0.111462206 0.2835434 0.016954424 0.20288955
-0.30276588 0.15058675 -0.024996327 -0.031775553 -0.19140676 0.22731806 -0.015234736 0.0077070617
-0.16950628 -0.5437972 -0.09580949 0.125218 0.13874184 -0.021367006 0.14927846 -0.04236845
-0.0768877 -0.18952836 -0.0024075995 -0.041729588 0.37940815 -0.27854612 0.12003664 0.05232048
0.04675078 -0.04472033 0.18410197 -0.066909336 -0.16728257 -0.02624341 0.054862335 0.03613182
0.11287717 -0.17120387 0.028523967 0.07501653 -0.17136109 0.26162982 0.5458685 0.012680257
-0.22586417 -0.004387509 0.35992822 0.2761297 0.06900182 -0.57177806 -0.030999918 0.04401682
-0.19174127 0.39829716 -0.0773235 -0.098700695 0.0041494723 -0.09787622 0.09630583 -0.9415377
-0.07761334 0.08654428 -0.11197084 0.10754951 -0.061130628 -0.06963119 -0.26300037 -0.19802323
0.4888887 0.2438293 0.13823736 -0.045718793 0.04252153 -0.25230446 -0.37962526 0.1799739
0.7035489 0.06431948 0.21957868 -0.7943513 -0.16128157 -0.49192464 0.68573743 0.41087103
0.28089803 -0.070050515 -0.28792092 -0.05635685 -0.3235354 -0.29835385 -0.92568576 0.528918
0.30174053 -0.15082313 0.21500349 -0.7204032 0.42338032 -0.3300644 -0.026732095 -0.48452032
-0.5314841 0.2882462 0.62755275 0.48358142 0.47937632 -0.29808345 -0.34463516 -0.36597484
0.259184 -0.0026316224 -0.46091494 -0.0034151 0.3203243 -0.6103312 -0.32142404 0.6755907
-0.066312656 0.045099087 -0.31437892 -0.038768094 0.417841 -0.5288723 -0.37220958 0.13811101
-0.062077295 -1.150057 -0.77059376 -0.020086292 0.5127692 0.2594874 -0.5527846 0.22216223
-0.8692496 -0.12362115 -0.05132246 0.046705253 -0.07292608 0.053130187 0.26047456 -0.20934871
-0.12188291 0.38204825 0.08950439 -0.26827648 0.62781596 0.012512626 -0.643288 -0.07840363
0.50666773 -0.46591207 0.1764561 -0.16804695 0.1524793 -1.2682748 -0.31795365 -0.44068372
0.002872824 0.027708357 0.33400652 -0.089594506 -0.90530026 0.24691908 0.77035916 0.5081351
0.5315761 -0.16536145 -0.058645975 0.5306146 0.17795633 0.546406 0.29169163 -0.27445054
-0.15805186 0.31449577 0.6708135 -0.2455951 -0.05971117 -0.013279166 -0.057207372 -0.08892742
-0.03921043 -0.14521453 -0.1955652 -0.06217167 -0.44530767 -0.13820414 -0.15420981 -0.4354228
0.06218712 -0.26090097 0.2171506 0.023929173 0.07128836 0.007691366 0.22828332 -0.06357396
0.47233912 0.29157427 0.4474193 0.6759546 -0.8530497 0.43934473 0.004804985 -0.014163544
00000000: 8a1b 98bb 3efd ae3d f90e 823e ebb1 dcbd
00000010: 9642 b93d 2100 863d af03 8e3e 19e9 93be
00000020: 64be 623d 6470 0cbe 94fb 89be f642 1b3e
00000030: 1069 573a fd58 413e 6c76 32bf 460a 583e
00000040: 95c4 a03d da4e f03d 6afd 9c3d 8041 2fbd
00000050: d8c4 a7be 6244 773d fd9b 80be 57a4 f6be
00000060: f280 473e 2c90 123f aa26 853d de66 203c
00000070: 17b0 563e 5f16 a7bc dbf8 3abd 038a c7bd
00000080: b33d 12bc 7852 a0bd b360 6ebf 0dd2 37be
00000090: 9830 e53d 8a9e 1c3d 877f 34bd 988f b93e
000000a0: 9bd9 febd 945e edbc 30d8 a43e d401 10be
000000b0: 307c 9f3d 767e 07be 2b0d 18be 40f0 463d
000000c0: c6f0 2cbd 3e77 bebe 1a1f e3bc d58a 233d
000000d0: 4c46 e43d 9a2c 913e 01e4 8a3c 47c2 4f3e
000000e0: 2104 9bbe 6a33 1a3e 19c5 ccbc 1527 02bd
000000f0: 2200 44be 11c6 683e 1d9b 79bc 858b fc3b
00000100: 0e93 2dbe 4b36 0bbf c437 c4bd 2639 003e
00000110: 5712 0e3e dc09 afbc 74dc 183e 8a8a 2dbd
00000120: 4c77 9dbd b913 42be d1c8 1dbb a5ec 2abd
00000130: c941 c23e 999d 8ebe c5d5 f53d 004e 563d
00000140: bf7d 3f3d aa2c 37bd 3a85 3c3e c307 89bd
00000150: 1f4c 2bbe 6bfc d6bc 54b7 603d f6fe 133d
00000160: 252c e73d 1150 2fbe 18ab e93c 44a2 993d
00000170: 4879 2fbe 58f4 853e 0abe 0b3f dac0 4f3c
00000180: f048 67be 18c5 8fbb 8348 b83e df60 8d3e
00000190: d450 8d3d 0c60 12bf 8af3 fdbc fb4a 343d
000001a0: d357 44be 9bed cb3e c85b 9ebd 9723 cabd
000001b0: 4cf8 873b 5473 c8bd fe3b c53d 9d08 71bf
000001c0: bef3 9ebd 213e b13d f850 e5bd eb42 dc3d
000001d0: 1c64 7abd cc9a 8ebd fca7 86be 9ac6 4abe
000001e0: 9f4f fa3e 63ae 793e 188e 0d3e a143 3bbd
000001f0: 0e2b 2e3d 0d2e 81be 3e5e c2be 144b 383e
00000200: c81b 343f eeb9 833d 3cd9 603e 9b5a 4bbf
00000210: ff26 25be 8cdd fbbe 7d8c 2f3f b05d d23e
00000220: ded1 8f3e a576 8fbd 5f6a 93be 71d6 66bd
00000230: 6fa6 a5be d6c1 98be bef9 6cbf 2c67 073f
00000240: bc7d 9a3e 6171 1abe e029 5c3e 586c 38bf
00000250: 4ec5 d83e 33fe a8be 44fd dabc 0c13 f8be
00000260: 580f 08bf 0295 933e 4ca7 203f fc97 f73e
00000270: d070 f53e 659e 98be 0574 b0be 0e61 bbbe
00000280: c4b3 843e 4c77 2cbb 0bfd ebbe dfcf 5fbb
00000290: 8c01 a43e aa3e 1cbf b191 a4be 83f3 2c3f
000002a0: eece 87bd d2b9 383d 46f6 a0be 4bcb 1ebd
000002b0: 41ef d53e 2d64 07bf 4192 bebe f96c 0d3e
000002c0: c344 7ebd 1135 93bf a245 45bf 028c a4bc
000002d0: d844 033f 88db 843e 4b83 0dbf 7f7e 633e
000002e0: 2487 5ebf 162d fdbd 8037 52bd 024e 3f3d
000002f0: 455a 95bd 0a9f 593d ec5c 853e 825f 56be
00000300: bf9d f9bd d49b c33e 144e b73d 895b 89be
00000310: 8cb8 203f c201 4d3c 86ae 24bf 1592 a0bd
00000320: fab4 013f 078c eebe e8b0 343e 8014 2cbe
00000330: 8923 1c3e d456 a2bf d2ca a2be 4ca1 e1be
00000340: fd45 3c3b a3fc e23c e702 ab3e 537d b7bd
00000350: c2c1 67bf 5bd8 7c3e 4236 453f 2415 023f
00000360: 5f15 083f 8354 29be c336 70bd 5cd6 073f
00000370: 2f3a 363e 43e1 0b3f 9b58 953e c884 8cbe
00000380: 59d8 21be 9705 a13e 6fba 2b3f 487d 7bbe
00000390: b393 74bd dc90 59bc 4752 6abd 941f b6bd
000003a0: 1e9b 20bd 1eb3 14be 3e42 48be b9a7 7ebd
000003b0: 5eff e3be 6385 0dbe 2de9 1dbe bdef debe
000003c0: ecb7 7e3d d094 85be ba5c 5e3e 1d07 c43c
000003d0: a2ff 913d db07 fc3b 1ac3 693e 1033 82bd
000003e0: 6fd6 f13e 3949 953e 2414 e53e 5c0b 2d3f
000003f0: 7761 5abf cbf1 e03e 2373 9d3b 360e 68bc

bias f4 [4]
0.040730063 0.07443052 -0.10164803 -0.012711453
00000000: 91d4 263d 076f 983d d82c d0bd b343 50bc
