problem1/models/underway/success_whole_model_1766857709.pth (torch, 146613 bytes, 9 tensors)

weight f4 [128, 8]
00000000: d4f6 b93c c251 a2be 8777 403e d85a 063c
00000010: 459f 263f bf11 213f aab0 41be 6859 29be
00000020: 6f02 f23b fb17 f8bc 0e2a 97be 3e0b 26be
00000030: e71d 603f 8ef0 70be 2505 63bc 54b1 51be
00000040: 1785 493d 3c05 7e3e 918a ef3d 2959 c93d
00000050: b6ae 9dbe e4d3 c3be d42d 26bf 1576 963e
00000060: c48b b73d dbb1 89be 2f26 c5bc d592 983d
00000070: f22f 32be 9319 b03e 98a9 8ebd 8e0e bbbe
00000080: 5317 86bd 3d37 263d e68a 1dbf 9e61 083e
00000090: ac0b b83d ee73 f9be 53c1 dd3e 29f1 f43d
000000a0: ad77 5ebd c375 5c3e 0893 11be f883 71be
000000b0: 103e 323e c407 153f fd2c 183e 8b6a aabe
000000c0: 283c a3be a9d0 96be 940b c0be 20ba ffbe
000000d0: 2f78 83be 9964 7c3e 1230 a43e fd62 6c3d
000000e0: f748 673e 8084 d33e 04ef 863d 68a4 2f3e
000000f0: f569 423d 1f0c 133f 6727 ce3d 7b1d d0be
00000100: 5810 ecbe 6d38 54bf 5433 82bd 8529 06bf
00000110: ffd1 31bd bcc8 e4ba 8c1a 733e 6093 2cbe
00000120: ba76 553e adf3 de3e 277b 7ebe 550b 2cbe
00000130: db80 953e cd91 9fbd a24b 7e3e 056f 2e3d
00000140: 4f79 03bf 4a0e 7f3e b49c a7be 9809 e5bd
00000150: a429 9a3d 7a62 603e 8b00 8dbd 09be a53e
00000160: 5bd6 03bb 4080 783e eb6a 73be 20ea f6be
00000170: 0707 2c3f f898 03bf 41f4 3abd 081c 05bb
00000180: 1954 183e fa93 cd3e 51cc 7b3e 1f4a 40be
00000190: 926a 013f 56ec 813e f74c b3be 8296 0b3d
000001a0: 2a10 d33d 4da7 a0be aae6 b7bd 32fe 82bd
000001b0: 6cd9 913c 6a49 483e 5d10 d1bd 9d1b 8bbd
000001c0: a89a 603f 76c6 96be ec10 273f 1dc8 fb3d
000001d0: dc6a 1cbe 4bb1 243e afa4 31be b91b e13d
000001e0: ff0c 4bbd 761a 893e fede d23c 3c3a 96be
000001f0: c453 6bbe f205 d2be 25bc 8f3e 5f4d 4cbe
00000200: f1c4 4bbf 0dd8 a2bd b011 30bf 095c 25bd
00000210: f3fd 39be df84 1e3e cbdb b63d c789 7a3e
00000220: 1cd3 133f d93f 0bbe 8c14 183f 7dbf 923e
00000230: cfc8 62bd 98cc 4fbe 8ab8 e4bc 2b39 5a3e
00000240: 83df 113e 3419 83bd 378d b9be edda cd3e
00000250: 01cd 0ebf 62cf 003d e313 c03d ab2d 943e
00000260: 461f 063f ae71 8cbd 5159 e73e e329 96be
00000270: e67c c6be c87c a6be 994b 94be aca8 683e
00000280: c297 5d3c aa28 abba 5fa5 0fbf fa21 b13e
00000290: f46a debf 5ccc 8b3e 7bd0 c9bd 48d6 523e
000002a0: 43c7 48be 1cc4 18be a5e8 dabd dfe1 86be
000002b0: 2385 f2bd 4bb6 abbe abe4 e83e 452c 153e
000002c0: 5ad7 0d3d 5ceb 13bf 6601 08bf 1db4 e9bb
000002d0: afc3 0c3f ae20 1d3d 1746 11be 424d 153d
000002e0: 2e09 2bbd 8218 923d 949a 74bd 30e4 c5bd
000002f0: be7a 87be a94f 1dbf ab1a 32bf 1870 933e
00000300: 0f9a a4be 5485 a4bf 71ea 193d baf1 c2be
00000310: 399a 3a3f c9d4 27be a606 c1be d9b4 023f
00000320: 355d f63d 9582 5d3e 3065 30bd d869 8c3b
00000330: 0c99 a5be 3ce2 9bbe 6c0c 8ebe 6076 c33e
00000340: 6c0e a33e 5d6e 3fbc 3cfe 273e 9b55 b03d
00000350: 72bc 4fbd 0dd8 de3e 31c5 213e 3470 f7be
00000360: b89e c0bd 3fb5 0cbe 670a dc3d 0649 633d
00000370: 4233 cebe 34e3 13be d122 18bf 2766 033b
00000380: d46d 19bf a2fa e9be 5ac6 dabd 5312 2ebf
00000390: 74f5 d8be f95c 3e3d 1082 ccbe 8dfb 093e
000003a0: 6d5e 9bbc 61ff 13bf 18fc d3bc 811b c8be
000003b0: 1054 683e 46e9 013f acc4 99be 1602 d1be
000003c0: 7f8e 93be 243a 8fbe 55bf 543e 26e8 a73b
000003d0: bbbb af3e 13da b13e 9ce4 bb3e e8c3 653e
000003e0: 11cc 72be c21b 813d b666 f03c fee4 3cbd
000003f0: 2635 c33e 7fcc 1e3f db8d 983e 5d73 4c3e
0.022700705 -0.31703 0.18795596 0.00820037 0.65086776 0.62917703 -0.18915048 -0.16538012
0.007385544 -0.030284872 -0.29524273 -0.16215226 0.8754563 -0.23529264 -0.013856207 -0.20477802
0.04919919 0.24806684 0.11696351 0.09831459 -0.30797356 -0.38247597 -0.6491368 0.29386964
0.08962205 -0.26893505 -0.024066059 0.07449881 -0.17401102 0.34394512 -0.06965941 -0.36534542
-0.065474175 0.040580023 -0.6154007 0.13318488 0.08986601 -0.4872126 0.43311557 0.1196006
-0.05431335 0.21529298 -0.14216244 -0.23585498 0.17406487 0.58214974 0.14860912 -0.3328441
-0.31881833 -0.2945607 -0.37508833 -0.4994669 -0.2567763 0.2464775 0.32067925 0.05771159
0.22586428 0.41312027 0.06588557 0.1715256 0.04746433 0.5744037 0.10066109 -0.40647492
-0.4610622 -0.828986 -0.06357446 -0.52407104 -0.04341316 -0.0017454843 0.23740596 -0.16853094
0.20846072 0.43545285 -0.24851666 -0.16801198 0.2919987 -0.07791481 0.24833539 0.042586345
-0.5135698 0.24907795 -0.32736742 -0.111834705 0.075274736 0.21912566 -0.06884869 0.32371548
-0.002011678 0.24267673 -0.23771255 -0.48225498 0.6719822 -0.51405287 -0.045643095 -0.0020310897
0.1487583 0.4015196 0.2458966 -0.18778275 0.5055324 0.25375623 -0.35019657 0.034079082
0.103058174 -0.3137764 -0.089795426 -0.0639614 0.01780387 0.19559255 -0.10208199 -0.06792376
0.87735987 -0.2944829 0.65260196 0.12294028 -0.15275139 0.16083257 -0.17347978 0.10991616
-0.04957294 0.26778 0.025741097 -0.29341304 -0.22981173 -0.4102016 0.2807323 -0.1995139
-0.79597384 -0.07951365 -0.6877699 -0.040370975 -0.1816328 0.15480374 0.08928641 0.2446662
0.57744 -0.13598575 0.5940635 0.2866172 -0.055367287 -0.2029289 -0.027920026 0.2131087
0.14245419 -0.064012915 -0.3624055 0.4020609 -0.5578156 0.031447776 0.09378793 0.28941092
0.5239147 -0.0685762 0.4518533 -0.29328832 -0.38767165 -0.32517076 -0.28963926 0.22720593
0.013524951 -0.0013058383 -0.5611171 0.34596235 -1.737639 0.2730435 -0.098542176 0.20589554
-0.19607262 -0.1491856 -0.10688905 -0.263442 -0.118418 -0.33537516 0.4548696 0.14567669
0.034629203 -0.57781005 -0.53127134 -0.007132067 0.5498609 0.038361244 -0.14186893 0.036450632
-0.0417568 0.07133581 -0.05971773 -0.09662664 -0.26460832 -0.61449677 -0.6957194 0.28796458
-0.32148787 -1.2853189 0.037577096 -0.38075048 0.72891575 -0.16389765 -0.37700385 0.510572
0.120294966 0.21631844 -0.04306525 0.0042850785 -0.32343328 -0.3044604 -0.27743852 0.3817625
0.3184694 -0.0116840275 0.16405576 0.08610078 -0.050716825 0.4352421 0.15797879 -0.48327792
-0.09405273 -0.13741015 0.107441716 0.055489562 -0.40273482 -0.1444214 -0.59428126 0.0020049901
-0.5993321 -0.4569903 -0.10682364 -0.6799671 -0.42374766 0.046475384 -0.3994298 0.13474865
-0.018965924 -0.5781155 -0.025877044 -0.39083484 0.22688317 0.5074657 -0.3003286 -0.40821904
-0.28819653 -0.27974045 0.20776112 0.00512411 0.34322914 0.3473669 0.36697853 0.22438014
-0.23710658 0.063041225 0.029345851 -0.04611682 0.38126487 0.62030786 0.29795727 0.19965883

bias f4 [128]
00000000: 2be6 ca3e aad1 813e bb81 5b3d 7329 eb3e
00000010: 2d27 f93e 0d5d 6bbe 5398 413e a199 aebd
00000020: 159a 9c3d ae0d 353e bf3e 83be 1796 513e
00000030: 76b4 a4bd a2de 013f 42aa b7bc ee18 9f3d
00000040: e1f3 21be 7b6d cabb 6d3b c23e 752f 60be
00000050: e3d9 923b 5ca8 a43e 6353 a23e 295e a4bc
00000060: ca90 2a3e 2bd3 ed39 0e2c 313d c64d b03e
00000070: b485 bc3e ff5b 9d3c d290 40bd 4cea c13d
00000080: 26cf f73e 26a2 36bd b7f1 8f3d 9082 d03e
00000090: afc6 2abc 860f 80ba 8a4b 3c3d bdb2 713d
000000a0: 75ed 593e ddc4 c33e f1a6 8b3d 7147 d83d
000000b0: ab34 363e 2f03 8c3e 56fa 7ebd 42ab a93e
000000c0: 82af 023f d095 35be 3680 dc3d 9a5f 883e
000000d0: 6784 54be f923 e83e 0c9c b13d 147d eb3e
000000e0: 312e 02bd e848 99bd a952 003f 9c5a 9a3e
000000f0: 8e92 5bbd 8ad8 c43d 55ac 363e 5969 18be
00000100: a8b8 623e dce8 c0bc e361 423e 1794 15be
00000110: e83d 8d3e 4597 b53d 661d 093f ffac 2bbd
00000120: 307d 9e3d 5217 5bbe 314a 07be fcaa bbbc
00000130: 1592 553e d507 a03e 8792 103e 3745 063d
00000140: 9060 8d3d ba96 7a3d 7e06 fb3e baba c33d
00000150: 1a7f a9be 6af7 d0bb fe26 2f3e e2e9 e83d
00000160: 163a 59bc 0937 833e 48af ddbd daa2 aebd
00000170: 2833 493e 8280 1f3f 8c20 f6bc 414e 233e
00000180: a740 d13e 176f a63e 54d0 8b3e d097 afbd
00000190: f11e 103e 2b79 303e 543a 013f b105 993e
000001a0: 5eb9 7f3d 2894 11be bd63 0dbd b1ba 95be
000001b0: b242 803e 05d2 163e d444 25be 3119 cb3e
000001c0: 7eaa b43e 21f9 d33e 37b8 073d ac64 0cbe
000001d0: c736 3a3e b1d7 cd3d 9f4e 61ba c017 4b3e
000001e0: d761 f13e 1613 66bd 9007 b73d bb4a 7ebe
000001f0: a536 9ebd b9b7 153e 2395 0f3e 49bc 843e
0.3962873 0.25355273 0.053590517 0.4593006 0.486627 -0.22984715 0.18905763 -0.08525396
0.07646576 0.17681 -0.2563381 0.20467411 -0.08042233 0.50730336 -0.022420052 0.07768427
-0.15815689 -0.006177602 0.37935963 -0.21893103 0.0044815405 0.32159698 0.31704244 -0.02006443
0.16656795 0.00045361495 0.043254904 0.34434336 0.36820757 0.019208906 -0.04701311 0.09468517
0.4840023 -0.04458823 0.07028525 0.4072461 -0.010423346 -0.0009770251 0.045970477 0.05900835
0.21281989 0.38236132 0.06818951 0.10560501 0.17793529 0.2734618 -0.062250458 0.33138472
0.51049054 -0.1773293 0.10766642 0.26635438 -0.20753632 0.45339945 0.08672342 0.45993865
-0.031782333 -0.07484609 0.5012613 0.30147254 -0.053606562 0.09611614 0.17839177 -0.14883937
0.22140753 -0.023548536 0.18982653 -0.14607273 0.27586293 0.08866743 0.53560483 -0.04191303
0.07738721 -0.21395615 -0.13211896 -0.02290868 0.20856507 0.31255975 0.14118396 0.032780852
0.069031835 0.0611789 0.4902839 0.095571 -0.33104783 -0.0063771503 0.17104718 0.113727346
-0.013258478 0.25627926 -0.10824448 -0.08527155 0.19648421 0.6230546 -0.030044816 0.1594782
0.40869638 0.3250663 0.2730738 -0.08573878 0.14074303 0.17233722 0.50479627 0.29887155
0.06243264 -0.14216673 -0.034518946 -0.29243997 0.25050884 0.14728554 -0.16139537 0.39667657
0.35286325 0.41401008 0.033134665 -0.13710278 0.18184958 0.100509055 -0.00085947843 0.19833279
0.47144958 -0.056170546 0.08936989 -0.24833195 -0.07725266 0.14620866 0.14021735 0.259249

weight f4 [128, 128]
00000000: 567e e7bd d375 b1be 1274 da3e 591f a83d
00000010: 9c4f 33be 4b66 f73e f36e 7abd 5364 473e
00000020: 52f4 833e e58d 29be dceb 0b3e 5c6a c2be
00000030: 4368 5bbe 7393 813c 1123 be3e 8d7e d63d
00000040: 9967 a03e 124c 543e a169 aebd 2e1e a43e
00000050: a2b1 82be 2523 1c3e 48e0 39bd 209c e43e
00000060: 01fe b13c 99ca 113e 5760 8b3e c709 8a3e
00000070: e65b e5bb 0ecc 84bd 3281 e63d 826e a33d
00000080: 59e3 41be 107d 2b3e 599e acbd bc88 b23c
00000090: d4c9 1a3e 97f1 833e 1762 8e3d 8f1b f5be
000000a0: 7fce 063e 2d85 7abd e345 86bb 6bea 753e
000000b0: e9de 6b3d 2cb9 98be 0af4 613e 9ae9 ab3d
000000c0: 2e8b c63c 07df b93d 9275 323e 91eb 4cbd
000000d0: b6b0 803e 58a9 9fbb ad33 633b 0af7 e2bd
000000e0: 5185 debd 4ca9 a23d 670c 17bd b1fc 89bd
000000f0: e003 1a3e 1138 3b3e 650d 97b9 6b55 b4be
00000100: 9a28 533d e50e 46bd b99d 363e 6a04 453d
00000110: 367c 8dbe e09b 373d d74d 99bd 9852 033e
00000120: c4c3 213e f65c f33e bce3 593c d108 a93e
00000130: 9784 0cbd 88f3 923d 8f32 143e 6435 43ba
00000140: c260 f0be 33ab 7c3e 7774 cabd 8b4c ec3d
00000150: e8a2 6a3e 9491 ffbe 9fb0 043e 4a11 2cbe
00000160: d39c bbbd bede fb3c 3b0c 3b3e d266 623e
00000170: a56a 7bbe b35c 7ebe 5b0a 303e b24e c73d
00000180: dac5 81bd 24ea b03c 0d2e 42be a057 003f
00000190: 20b9 ee3d f4c9 b13e 995a 6bbe 2838 1c3e
000001a0: 7263 c7be 1aba 5a3e 6922 643d 7d31 92be
000001b0: 2bae f0bd 5b72 7d3d 3245 813e cd2d 603d
000001c0: 8463 00be 6eef 05bb 7a28 aa3d da83 1b3e
000001d0: c32a 073e 1b62 403e 9e43 69bc 5e7b 74bd
000001e0: a28c a9ba b6bd 96be 03e3 61bc 4a4a 9b3e
000001f0: 135b 01bf d7b0 ccbc 0f1f ebbc b677 27be
00000200: e272 a0be dcf9 97bd e7b9 983e 47e5 9a3d
00000210: e784 623e 2d02 673e adda 793c 12fd 27be
00000220: 4b9d 7b3d ab3b 4bbd 1469 ef3b 385b e2bd
00000230: 1a41 c4be 0e34 173e 2405 d53e 3717 563e
00000240: 139b 213e 779d 193e 5c1d 9e3d 4351 8d3e
00000250: 28c0 c2be 92fb 2e3e 7539 5cbd 6aba a43e
00000260: e5b9 27bc 1d52 993e 01d8 833c 5064 5a3e
00000270: 5b2f 113d ed8a 0f3d 50dd c03d 752a 4a3d
00000280: e28f 8dbc 2f1f 303e e422 523e 0ff8 0f3e
00000290: b6a3 733d 8794 59be 5314 e13d d3bf 21bf
000002a0: 6038 0ebe f89c 6e3d c7d3 c23e 12f8 bf3d
000002b0: 7c6d 20bd 88e0 19be 61df 6c3e ccab e83d
000002c0: 0085 1f3e fa03 573e 30e0 c23d 2649 0ebd
000002d0: 178d d53d b937 50bc 20c6 e73d e2e9 b3bc
000002e0: 9d30 59be bebf 763c 819b 513e 01f7 6b3d
000002f0: a7c4 c83d 1b82 bb3e 13cd bc3e db9b 803c
00000300: 04ff 783d d0f1 3cbe bb15 0d3d d767 0f3e
00000310: fb00 00be 4b27 633e baa6 fc3c 1c6d 223d
00000320: 22df eb3d 8289 963e 9e37 213e 7a53 bc3e
00000330: 4aa9 5b3e ac5b c93d 367d 533e 7ff3 d63d
00000340: 15ad f5be 1a71 c33e 2f76 8e3c af20 8e3d
00000350: dd55 693d b751 8ebe f309 f33d d982 7e3d
00000360: 5dcb 26be 4826 0c3e 761c 3c3e 2a34 4b3e
00000370: 395f bebe e2fc d9bd 9e78 7abc fb45 1a3e
00000380: b870 bc3b fddd 9e3d 2d88 b6bd 330e ec3e
00000390: 55de d1bd eea3 c13e 83a8 b8bc 2ae7 833d
000003a0: 28aa 0bbf 29cb 783e 8e43 47bc 3212 b4be
000003b0: 08d1 443d 86f6 3d3e 68c5 1b3d 5899 e8bd
000003c0: 4c6c 343e a3b7 ba3c 8eaf 053c 7116 5c3d
000003d0: 2cfb 013f 2214 ab3e 7690 65bd ff25 d33a
000003e0: 1cde dc3d 7d59 b2be 936d bbbd 3023 a5bb
000003f0: 67ab 1abf 6e5e 0b3c f9f8 973d 304a 51be
-0.113033935 -0.34660205 0.4266668 0.08209104 -0.17510837 0.4832023 -0.061140966 0.19471864
0.2577234 -0.16558035 0.13664192 -0.3797177 -0.21426491 0.01581738 0.3713613 0.104733564
0.3132904 0.20732144 -0.08516241 0.32054275 -0.25526148 0.15247782 -0.045379907 0.44650364
0.021727564 0.14237441 0.2722194 0.26960585 -0.0069994805 -0.06484233 0.11255111 0.07980062
-0.18934382 0.16746926 -0.0842864 0.021793716 0.15116054 0.25770256 0.06952303 -0.47872588
0.1316471 -0.061162163 -0.0040976866 0.24015205 0.05758563 -0.29828775 0.2206575 0.08394165
0.024236288 0.09075742 0.17427662 -0.05002934 0.2513482 -0.0048724823 0.0034668252 -0.11082275
-0.10865272 0.07942447 -0.036877062 -0.0673765 0.1504054 0.18283106 -0.00028810944 -0.3522142
0.051552393 -0.04835405 0.17833604 0.048099913 -0.27633828 0.04482639 -0.0748555 0.12824476
0.15797335 0.4753186 0.013298925 0.3301454 -0.034306135 0.07175356 0.14472412 -0.00074466155
-0.4694882 0.24674682 -0.09885495 0.11538037 0.22913706 -0.49915755 0.12958 -0.1680347
-0.09160771 0.03074586 0.18266384 0.22109535 -0.245524 -0.2484005 0.1719145 0.09731807
-0.06336565 0.021596022 -0.1896288 0.50133705 0.116564035 0.3472439 -0.22983779 0.15255797
-0.38943058 0.21360055 0.05569688 -0.28553382 -0.1175197 0.061876636 0.25248104 0.05473118
-0.12537962 -0.00204369 0.083085015 0.15187016 0.13199906 0.18787424 -0.014237313 -0.059687965
-0.0012935589 -0.29441613 -0.013787034 0.30330116 -0.50529593 -0.024986668 -0.028701333 -0.1635426
-0.3133765 -0.07420704 0.29829332 0.075632624 0.2212101 0.22559424 0.01524989 -0.16405132
0.061429303 -0.04961745 0.0073062275 -0.11052555 -0.3833092 0.14765951 0.41605484 0.20907293
0.15781812 0.15001474 0.077204436 0.2760106 -0.3803723 0.17088154 -0.053765733 0.32173473
-0.010237192 0.2994546 0.01609421 0.21327329 0.035445552 0.0350446 0.09417212 0.049356896
-0.017280523 0.17199396 0.20521122 0.1405947 0.0594823 -0.21248065 0.10990205 -0.63183326
-0.13888693 0.058255166 0.38052198 0.093734875 -0.039166912 -0.15027058 0.23132087 0.11360893
0.15578079 0.2099761 0.095154166 -0.03473773 0.104273014 -0.012708598 0.11317086 -0.02196211
-0.21209951 0.015060363 0.20469476 0.05760861 0.098031335 0.366227 0.3687521 0.015699318
0.060790077 -0.18451619 0.034444552 0.14004456 -0.12500374 0.22182958 0.03084122 0.039654836
0.115171686 0.29401785 0.15743873 0.36782438 0.21451297 0.09831938 0.20653233 0.10495662
-0.47983614 0.38172227 0.017390339 0.06939828 0.05696665 -0.27796718 0.11867132 0.062136505
-0.16288514 0.13686478 0.18370232 0.19844118 -0.37182024 -0.10643937 -0.015287546 0.15065758
0.005750742 0.07757185 -0.08912692 0.46104583 -0.102474846 0.3782038 -0.02254129 0.064405754
-0.5455651 0.2429625 -0.012162102 -0.35170132 0.04805091 0.18551072 0.03803006 -0.11357373
0.17619437 0.022792643 0.008159531 0.05373234 0.5077388 0.33413798 -0.05604597 0.0016109346
0.107845515 -0.348339 -0.09151759 -0.005039595 -0.6041779 0.0085064005 0.07420535 -0.20438457

bias f4 [128]
00000000: 4d05 c6bd 6605 6cbc 98b9 ac3d 9343 7f3d
00000010: fb60 17bc 3dae 353e af94 ce3d acb8 c93d
00000020: e156 af3d 2b7e a4bd b84b 72bd f78b 013e
00000030: e4f2 d7bc 6420 31be 30ba ffbd 3276 d43b
00000040: 4264 bebd 9efc c2bd 952c 36bd 6515 783a
00000050: 66b3 5c3e 16ea e63d c832 003e 4c14 84bd
00000060: f8d9 5f3d df14 303e 0722 a43d a83b 91bd
00000070: bf0f 383e fcb2 99bd d9de 093e 4a96 45be
00000080: 1337 aebd 40ab aebd 401d 13bd 0c7d 4bbc
00000090: 6373 e23d 414a 843e 8e9e 69bd 3b11 14be
000000a0: 436c 11bd 19fb 423e a110 53bc 20a9 253e
000000b0: cf48 35bc dbc5 b7bb a71b 253d 243c 723d
000000c0: 9815 fa3c 4837 bc3c 4633 a13d f095 04be
000000d0: 8827 06be 95c6 7bbd 6694 273d 680b 513d
000000e0: 0841 2b3e d47a 01bd 4d01 dbbd 9879 793d
000000f0: 74c3 29bc d4be bb3c bd67 71bd 7aeb 683d
00000100: 1273 223b 86bc 3fbb fdae 3cbe 1f7f ea3c
00000110: 5b88 ef3d a9bd 51bd 6d28 16be ec8d d73c
00000120: ef61 6cbb 9e9f 453d ab28 83bd 021a de3c
00000130: a29a d7bd 92a2 f7bc 5adc e23b 6ea8 b1bd
00000140: ea7f 6dbd 491b b8bc ea5a 843e a735 45bd
00000150: fcc0 9f3d fc11 f63c 9685 173d 28be 28be
00000160: 6c3e 7abb 5962 ccbd 0b7e 713d 14a7 033d
00000170: 32c8 a63d b434 c3bd 8c34 f23c 266e 093e
00000180: eb4c d0bc 7e95 0b3e 2a8a 9cbd 0f0a 783d
00000190: 3ad7 d1bd 12d1 cebc 3b3c f6bd 291f 5cbd
000001a0: bb1b 783d 704d 3d3d b23b 0c3e 869b d6bc
000001b0: 64de 82bd ae6d 193d c2d7 1d3d 65be 343d
000001c0: aad6 22be 1d38 223d 639a 78bd 5266 2f3e
000001d0: fdcc 40be 08b3 25bd 38ea 0e3d deed 9f3d
000001e0: 2f0e 00be 7ada 20be e0e9 2d3d 00df b7bd
000001f0: 2d17 653e 83c4 da3d 7f4e 08be 2b14 413d
-0.0966898 -0.014405584 0.08433837 0.062320303 -0.009239431 0.17742248 0.10086953 0.098496765
0.08561493 -0.08031877 -0.059154242 0.12651049 -0.026360936 -0.17297512 -0.12486684 0.0064838165
-0.092964664 -0.09520839 -0.04447611 0.0009463637 0.2155281 0.11275117 0.12519372 -0.06449184
0.05465123 0.17195462 0.08014303 -0.07091457 0.17974757 -0.07504842 0.13463916 -0.19295612
-0.08506598 -0.08528757 -0.035916567 -0.01241995 0.110571645 0.258379 -0.057035975 -0.14459698
-0.035503637 0.19041099 -0.012882383 0.16177797 -0.011064722 -0.005608303 0.040309574 0.059139386
0.030527875 0.022975579 0.07871108 -0.12947822 -0.13101017 -0.06146868 0.04091301 0.05103627
0.16724026 -0.03161128 -0.106936075 0.060906976 -0.010361541 0.022918142 -0.058936823 0.056865193
0.0024787826 -0.0029256656 -0.18426128 0.02862507 0.116959296 -0.051206265 -0.14663859 0.02631279
-0.0036069115 0.048247926 -0.06404241 0.02711201 -0.10527541 -0.030228887 0.0069232406 -0.086747035
-0.057983316 -0.022473948 0.25850612 -0.04814687 0.07800481 0.030037872 0.03699263 -0.16478789
-0.003818418 -0.09979696 0.058958095 0.03214176 0.08143653 -0.09531537 0.029566072 0.13420925
-0.025427302 0.13631245 -0.0764354 0.060556468 -0.10246129 -0.025246177 -0.12023207 -0.053740654
0.06057332 0.04621643 0.13694647 -0.026197206 -0.06390074 0.037458114 0.03853584 0.044126887
-0.159022 0.039604295 -0.06069411 0.17128876 -0.18828197 -0.04045394 0.034891337 0.078090414
-0.1250541 -0.15708342 0.04245937 -0.08978081 0.22372122 0.10682013 -0.13311194 0.047138374

weight f4 [1, 128]
00000000: 6631 ffbe db94 00bf 1e4b 283f e5b0 3a3f
00000010: 9db3 423f 463c 4b3f 87ce 363f 7888 403f
00000020: c7f2 f8be f4f3 dbbe 8553 d9be 97c8 3d3f
00000030: 4b67 fe3d 0bc6 27bf 1fb5 05bf bf99 e6be
00000040: d06b 07bf 1113 473d 80a8 103f efae ebbe
00000050: 3b05 b73e 9af2 423f ae4b 443f 5179 493f
00000060: baa3 403f cce5 4b3f 403e 383f 2ff6 e5be
00000070: bd7a 5d3f 1664 c43c 59b6 373f ef0c 2ebf
00000080: ee29 17bf edea f7be 6e4d 0abf 4b33 c1be
00000090: 52a6 e1be 39a9 3f3f 38b3 14bf 378c ebbe
000000a0: 136a 0cbf b1b7 833f a33f 04bf 78e6 273f
000000b0: e20a 1c3f cd50 4e3f b6a5 4a3f e1de ccbe
000000c0: a605 02bf 5b1d cebe bd78 e0be 93ea ddbe
000000d0: c093 05bf ac86 e4be ee3d 473f 3194 963d
000000e0: cbcc 5f3f 56c3 05bf 49a2 f7be 0af3 553f
000000f0: 5c95 04bf c52a d03e 63d8 6d3d 3f42 2e3f
00000100: b463 323f 6d30 003d 93d3 03bf 7351 dabe
00000110: 7927 10bf 565f 343f 870f 13bf e926 1f3f
00000120: 31cf 403f c937 4e3f 1a0d 493f 1c88 603f
00000130: 488b 0abf d541 febe e97e fbbe 191e 423c
00000140: 8343 ebbe c600 e9be f0fd 423f b0cc 963c
00000150: 8076 263f 4ce4 d8be 68d9 3d3f eeb0 e3be
00000160: 05c5 fc3c b5f4 04bf ef2f 473f 156f 273f
00000170: 98c6 bb3f 6240 06bf 9376 7f3f 8835 443f
00000180: 6af3 06bf 51d0 6c3f ee64 573d 5abc 0bbf
00000190: fa50 f2be 9f9c 0cbf 9683 0abf f055 05bf
000001a0: 2203 3e3f 9d9d d9be 8c94 233f ac1d 19bf
000001b0: f6c2 0ebf 7b40 6c3f 22e6 f2be 98c7 5b3f
000001c0: 128f 04bf 881f 633f 4724 e4be 881a 393f
000001d0: 3395 cbbe f9ba 483f 8b38 3a3f c068 2a3f
000001e0: 6892 0abf 6149 00bf fb21 343f 0200 08bf
000001f0: fcc3 b23f 40ef e43e a502 e5be f6f5 eebe
-0.49842376 -0.50227135 0.6573962 0.7292617 0.7605532 0.79388845 0.71408886 0.75208235
-0.48622724 -0.4295956 -0.42446533 0.741342 0.12422045 -0.65536565 -0.52229494 -0.45039174
-0.52898884 0.048602168 0.5650711 -0.460319 0.35746178 0.7615143 0.7667798 0.7870074
0.75249827 0.7964752 0.71969986 -0.44914386 0.8651541 0.023973506 0.71762615 -0.67988485
-0.59048355 -0.48421422 -0.540244 -0.37734446 -0.44072205 0.7486759 -0.58085966 -0.46005413
-0.54849356 1.0290433 -0.516596 0.6558604 0.60954106 0.8059204 0.79159105 -0.40013793
-0.5078987 -0.4025677 -0.43842116 -0.43343028 -0.52178574 -0.44633996 0.7782887 0.07352484
0.87421864 -0.52251184 -0.48366 0.83573973 -0.51790404 0.4065763 0.05806769 0.68069834
0.69683385 0.031296182 -0.5149471 -0.42640266 -0.5631023 0.7045797 -0.5744557 0.6216875
0.7531615 0.8055387 0.78535616 0.87707686 -0.54118776 -0.496596 -0.49120262 0.011847996
-0.45949945 -0.45508403 0.7616873 0.01840815 0.65024567 -0.42361677 0.7415986 -0.44470924
0.030855665 -0.51935893 0.77807516 0.6540387 1.4669981 -0.5244199 0.99790305 0.7664418
-0.5271517 0.92505366 0.05258649 -0.54584277 -0.47327405 -0.54926485 -0.54107034 -0.52084255
0.7422353 -0.42503062 0.6389854 -0.598109 -0.55766237 0.9228589 -0.47441202 0.8585143
-0.5178081 0.8871999 -0.44558927 0.7230611 -0.39762267 0.784103 0.7274253 0.66566086
-0.5412965 -0.5011197 0.7036435 -0.5312501 1.396606 0.44713783 -0.4472858 -0.46672028

weight f4 [128, 128]
00000000: 1783 13bd 2ceb ee3d d9f4 2fbd 531f afbd
00000010: b8ef 363e 83c4 90be e611 10be eead 88be
00000020: b227 96be d6a2 20ba 6451 80bc 4675 2ebd
00000030: 7a34 10be e7ff e8bc 394c 393d a232 0dbe
00000040: 7500 44be 2998 ca3d 8be5 a23d 617d bcbd
00000050: 6f95 d83d 2668 80bd e684 0b3e c967 9bbd
00000060: 82d0 b0bd 478c d0bc 8d42 073d 1646 bdbd
00000070: 7cc8 44be 46df c3bd a1cb 42be 659c 31be
00000080: d1f8 a63d 3ca6 a7be fa44 4ebe 1673 a4bc
00000090: 7085 3abd bf54 613e 0d26 ef3c 478e 0f3f
000000a0: 0143 dd3e bb19 af3a 355d aabc 83ab 573e
000000b0: fa0a 243e 8fb6 48bd cc45 87be 3ca2 4c3d
000000c0: 0251 503e 06ce f63d a9bb 7f3e eb03 ab3d
000000d0: aca9 b93e 62c0 60be b9ff a9bd 439d b63c
000000e0: 0b3d 4abe 7dd7 a6bc da28 ffbc 4ef0 e2bd
000000f0: 53e7 f13d 1b9f ed3d 33f0 49be fed4 b83d
00000100: 8ee5 89be 0691 ecbe 4f7d e1be 85d6 8d3d
00000110: 8185 68be cef2 ae3e 9bac d93d 2a9f bebc
00000120: 72c5 70be 4afb 083d 2be8 ddbd 71ae 9c3e
00000130: b088 f9bd 44db 3ebe a984 45be 09aa f7be
00000140: 5b6f b33e 1595 2fbd c54f 8e3d 2e79 0b3d
00000150: 07ab 54bd f178 5d3f 5467 f53d 59b6 e83e
00000160: 6036 93be 5a69 093e 7cb0 c93d 8fd3 e3bc
00000170: 410a ccbe d458 f33d a602 a8bd b079 61be
00000180: bbe1 0ebe d2df ebbd 5c1f c03d 4c89 debd
00000190: ec1c 93bc bdb9 66bd 5569 b6bc 2b21 abbc
000001a0: 4659 213e c972 32be 0b99 95bc f24f 103e
000001b0: 09d0 4ebe 3edf 203e 9009 3a3a 667b cbbc
000001c0: b2f0 bcbd 0c05 0bbd bc07 6cbd 9ff9 7bbd
000001d0: 791b 323f dd30 293c fe16 8fbe e7e7 193d
000001e0: 0636 17be 0d98 90be e0e3 99be 379a aabe
000001f0: 7fd0 2ebc f630 c5be 09a9 f93e d0e3 273e
00000200: c787 cf3d d138 19be 151f 273e 1b4b 033e
00000210: 2e44 fbba 41de 5f3d b11b 113d 7133 0bbe
00000220: a832 e73d 2951 4fbd be09 a63e d23b b9be
00000230: e85d 07be 8495 013d 6287 fabc 2e2b 75bc
00000240: 3ddc 4d3e bad3 dd3d 0594 ebbd 02ab 1ebe
00000250: faa1 29be d01d 05bd 60f1 8bbb 4b0c 653b
00000260: fe6d ed3d 4f51 443d 878c 16bd 58da 90bd
00000270: 01ff ee3d 96c8 1f3c 5801 293e a815 b33d
00000280: 3f41 27be 998c 3d3e 73a2 1f3e dc75 04be
00000290: eeb0 f03d 478b 713d 4a48 e9bd f017 a2bd
000002a0: b298 3c3e 1217 fabd c37d 49be 2e10 24be
000002b0: 05f0 333d 0c47 573d 7fc6 8a3e f4eb ffbc
000002c0: bbe2 d03c 517e 323e eeb2 dc3c 2d57 d13d
000002d0: 889e 103e da50 acbd c890 17bc 972a b2bd
000002e0: b67c 793d 27e5 433e d1a2 b93d 97eb 263d
000002f0: 7cda ca3d 0399 07be f980 9fbd 6b3a bfbc
00000300: f809 acbd 00ea 76be 5765 87be 73b2 8cbd
00000310: 394a 6b3d a456 263e 1b72 1abd 5ef0 28bd
00000320: dab3 14bd c250 e63d 103b 4abe 3b72 aabe
00000330: 0b2a 133d 6814 c9bd 82b1 973d df68 d73c
00000340: cc9d c7bd 8fea 84bd f551 0b3c c606 dfbd
00000350: 1435 97bd 1555 8d3e 5294 6fbe 8b91 863d
00000360: e173 f3bd f3a9 a73d 41f4 c9bc 494e 853e
00000370: fd98 6dbd ca12 a53b 0e61 00bd 3941 f3bd
00000380: c249 e33d 1c87 91bc bf88 ffbc 3cf7 c63b
00000390: 5f02 8dbd 6d52 58bd 7dde ccbd 3edc 033e
000003a0: b1d9 833d 0bfa 753e d5c6 423e 434d 01be
000003b0: c35f 22be 7e4c 643e fc4d 1e3a ae96 023e
000003c0: 76e4 63bd 665d 4c3e f0da 4d3e 11d1 0c3e
000003d0: a962 223e 6fcf 34bc 63d3 093e 7bb8 193e
000003e0: 6a52 813b 71c0 68bd 81a8 443c 8225 06bd
000003f0: da16 c23d 6762 133c 86ab 3a3e 14f5 123e
-0.03601369 0.11665949 -0.042958114 -0.085508965 0.17864883 -0.28274927 -0.14069328 -0.26695198
-0.2932716 -0.000612778 -0.01566381 -0.04259231 -0.14082518 -0.028442336 0.045238707 -0.13788846
-0.191408 0.098923035 0.07953938 -0.09203602 0.10575377 -0.06269865 0.13624915 -0.07588155
-0.0863352 -0.025457514 0.033022452 -0.092418835 -0.19217104 -0.095640704 -0.19022991 -0.17344816
0.08152927 -0.32744014 -0.201435 -0.020074409 -0.045537412 0.22004984 0.029192949 0.56076473
0.43215182 0.0013359109 -0.020796398 0.2106152 0.16019812 -0.049002226 -0.26420438 0.049959406
0.20343402 0.120510146 0.2497393 0.08350357 0.36262262 -0.21948388 -0.08300728 0.022291785
-0.19749849 -0.020366425 -0.03114741 -0.11080991 0.118117 0.116026126 -0.19720535 0.09025
-0.2693295 -0.46204394 -0.44040915 0.06925682 -0.22707178 0.3416962 0.10628625 -0.023269255
-0.2351282 0.033442773 -0.10835298 0.30601838 -0.12184274 -0.1863833 -0.19288887 -0.48371914
0.35045895 -0.042866785 0.069488086 0.034051113 -0.051920917 0.86512667 0.11982599 0.4545162
-0.28752422 0.13419095 0.09848115 -0.02781084 -0.39851573 0.11882177 -0.0820363 -0.22019076
-0.13953297 -0.115173 0.09380981 -0.10866031 -0.017958127 -0.056329478 -0.022267023 -0.02088984
0.15756711 -0.174266 -0.018261453 0.14092997 -0.20196547 0.1571016 0.0007096762 -0.024839114
-0.092255965 -0.03394036 -0.057624564 -0.061517354 0.6957317 0.010326591 -0.2794723 0.037574675
-0.14766702 -0.28241006 -0.30056667 -0.33320782 -0.0106698265 -0.38513917 0.48761776 0.16395497
0.10133319 -0.1496308 0.1632045 0.12821619 -0.0019170099 0.054655317 0.0354268 -0.13593842
0.11288959 -0.05061451 0.32429308 -0.36178452 -0.13219416 0.03163673 -0.030582134 -0.014963908
0.20103545 0.10831399 -0.11502842 -0.15494922 -0.16565695 -0.032499135 -0.0042707175 0.0034949954
0.11593245 0.047929104 -0.03675511 -0.07072896 0.11669732 0.009752413 0.16504419 0.08744365
-0.16333483 0.18510665 0.15589313 -0.12935585 0.11752497 0.058970716 -0.11390741 -0.07914722
0.18417624 -0.122114316 -0.1967688 -0.16021797 0.043930072 0.05255799 0.27104566 -0.03124044
0.025498739 0.17430998 0.02694079 0.102217056 0.14122975 -0.08413859 -0.009250827 -0.086995296
0.06090995 0.19130383 0.09064258 0.04075202 0.09904954 -0.13241963 -0.077882715 -0.023343286
-0.08400339 -0.24112701 -0.26444504 -0.06869974 0.05744383 0.16243988 -0.037706476 -0.041244857
-0.036304332 0.11245872 -0.19749093 -0.33290276 0.035928767 -0.09818345 0.07406904 0.026295124
-0.09746894 -0.06490051 0.008503427 -0.10889964 -0.07383171 0.27603975 -0.23396423 0.06570729
-0.118873365 0.08186712 -0.024652602 0.2603629 -0.05800723 0.00503764 -0.03134256 -0.118776746
0.110980526 -0.01776462 -0.031193135 0.006071953 -0.06885218 -0.052812982 -0.10003374 0.12876984
0.06438006 0.24021165 0.19021161 -0.1262713 -0.15856843 0.22294804 0.0006038842 0.12752792
-0.0556378 0.19957504 0.2010305 0.13751628 0.15857948 -0.011035784 0.13459544 0.1501178
0.003946592 -0.05682415 0.012003065 -0.032750614 0.09477015 0.008995629 0.18229493 0.14351302

bias f4 [128]
00000000: 8a40 873d c34b a7bd ebbb 213e 885c 973d
00000010: b709 3abd 7385 fd3d dec5 723d e67b 773d
00000020: efae 0f3d dd1d b2bc 4cf1 e43d 9981 8b3d
00000030: 3d19 c43b 00ac 38bd 7413 993d 9108 533b
00000040: b853 0b3d dc0a 5d3d ea34 8f3d 7898 c03d
00000050: a0ba e83d 6794 8cbd c7a7 b2bc 10ed 253d
00000060: 639b 693d bbd9 843d a9f8 a63d 07be 823d
00000070: 1eab b83d c848 873d 9f74 77bc 59c1 a23c
00000080: 3794 6cbc c682 043d 81a8 37bd 1af6 e839
00000090: 90a4 373c 56ee de3c 2202 373d 8c9a 8d3d
000000a0: d7fe f13b c717 673b 4119 5f3d 3a9b 23bc
000000b0: 990a f73d b15f 77bc c231 04bd 6911 1abc
000000c0: a379 043e 0038 1cbd 0a62 9bbc b1fa 253d
000000d0: aee6 8c3d 2f82 163e 28a7 e73d 535a cabd
000000e0: bcce 7e3d def4 bb3d e1c1 17bd 0e10 873d
000000f0: 0cc1 093e 778c ee3d d7ed 653c 9382 233d
00000100: 2f5a c83c 4e04 d03c 4842 0cbd 4a10 bc3c
00000110: 791a dfbd 58d6 d33d 25d4 54bd 7249 b43b
00000120: 0ac2 a83d 6f5d 3dbd ddb9 a23c a76c 243c
00000130: 9749 273d 7987 93bd 13a8 d43d 93e0 913d
00000140: c652 263e 94df 733d 0780 0fbd 1525 ea3d
00000150: 3c11 ff3b 84ca 133e 239c 50bd 072b a43d
00000160: 6190 d9bb e83a ab3d 1032 dd3c 92dc 73bd
00000170: c720 63bc f1b1 2f3d 13ed 513c f9e4 b93d
00000180: 8ffb cf3d 315e 15bd 22f6 30bd 2460 c43d
00000190: b943 393d 76b3 46bd 300a 183e a366 c33d
000001a0: 58de 223d 5b99 433d b45a 033d 56b0 303e
000001b0: 605f 5e3c 8832 db3c 638c 2e3e e177 f73d
000001c0: 3617 5d3d 9ca7 b23d 2032 9d3d c21b 003e
000001d0: 014a 32bd 7891 87bc 35ad 81bd 37b7 67bd
000001e0: ba24 8abd 44d2 31bd 8807 2b3c 44bd 5a3c
000001f0: 943a 12be 7883 833c 061f dd3c 04b5 2eb8
0.06604107 -0.08168747 0.15794341 0.07390696 -0.04541942 0.12378969 0.059270732 0.060420893
0.03507894 -0.021742756 0.11178836 0.06811828 0.005984454 -0.045085907 0.074744135 0.003220115
0.034015387 0.053965434 0.069925144 0.09404081 0.11363721 -0.06864243 -0.021808518 0.040509284
0.057032954 0.06486841 0.08152897 0.06383901 0.09017013 0.06605679 -0.015103488 0.019867586
-0.014439634 0.032351278 -0.044838432 0.00044433848 0.011208668 0.027213257 0.04467977 0.06914243
0.0073851156 0.0035261975 0.054467443 -0.009985739 0.12062568 -0.015098498 -0.032274015 -0.009403565
0.12937026 -0.038139343 -0.018967647 0.04052228 0.06879936 0.14698099 0.113111794 -0.09880509
0.062208876 0.09177564 -0.03705013 0.06594859 0.13452548 0.11647885 0.014033756 0.039919447
0.024457065 0.025392678 -0.0342429 0.022956986 -0.10893721 0.10343617 -0.05196013 0.0055019194
0.08240135 -0.046231683 0.019864017 0.01003567 0.040841665 -0.07203574 0.1038362 0.07122912
0.16242513 0.059539393 -0.035034206 0.11432854 0.007784037 0.14432722 -0.050930154 0.08016019
-0.0066395258 0.08360845 0.02700141 -0.059536524 -0.013862795 0.042894308 0.012812871 0.09076876
0.10155403 -0.03646678 -0.04320348 0.0958865 0.0452306 -0.04851099 0.14847636 0.09541061
0.039762825 0.047753673 0.032068923 0.17254767 0.013572544 0.026757494 0.17045741 0.12083412
0.053977214 0.08723375 0.07675576 0.12510589 -0.043527607 -0.016548857 -0.06331865 -0.05657121
-0.06745286 -0.043413416 0.010438807 0.0133507885 -0.14280158 0.0160539 0.026992332 -4.1653417e-05

weight f4 [4, 128]
00000000: 50a7 9a3e bf84 65be a794 edbd 069f 0ebe
00000010: b420 a0bd 9567 933e 7116 d03e 5613 a3bd
00000020: 9674 27bd 243c 39be 87c8 a2bd 8189 be3b
00000030: 29c3 b7be e73d e9bd a07b 1a3e e1ca 833e
00000040: 477b f4bc e5fe 84bd cd01 483d d51c cd3d
00000050: 66fc 913e d17b 2b3d d73e 17be 695e 533e
00000060: 32a8 a8be 17e3 4c3e 4bf9 673e b999 44be
00000070: a0d0 afbc 75ca a93d 14dc 7ebd f598 0fbf
00000080: 33db 113d 6dcd d53d 0787 9e3c a5f9 e93a
00000090: 23f8 e9bd c166 43ba 68bd b0be c782 a83e
000000a0: 2b11 1b3d b342 2fbd 8b90 7f3d 3463 973e
000000b0: f932 e83d a09b 91be 402e 74bd f9c8 dcbc
000000c0: 1b28 123e 182a da3c 086b c33d 7bd7 16bc
000000d0: 0526 09be 7575 48bd 2450 27bd a342 193e
000000e0: 3e2b 003d b1c7 b33e 0d2c 0d3f 218b 94bd
000000f0: eee9 44bd eae3 853d cdb7 0a3e 8a27 26be
00000100: 9906 e0bd 6db1 69be f1b8 84be 359c 06be
00000110: f20e 313e 0708 8bbc 7f19 4e3e 3636 0d3e
00000120: 4d3c af3c 458d 68be 73e1 8cbe f484 cf3e
00000130: df7b 22be e788 0cbd 6dcb 30bd ad9f 60be
00000140: 27a5 0dbe 140a a0be bb3f 12be d08e b53e
00000150: 546f 243d 5d6f 353e 24ee 8e3e 7b1c 7c3d
00000160: 6e54 35be df11 2abe d2c3 1e3e bbfc d7be
00000170: b710 aabd 57d5 3ebd 9c31 56be 7fb5 f5be
00000180: f840 7bbd ccbd d93d 7ebd 1ebd aab2 c8be
00000190: 8305 a23d cd4b 5c3d 6444 ff3d cd9b b8bc
000001a0: 0d40 0abe 9497 56bd 443a 843e 4f07 2f3e
000001b0: f914 c73d d372 06be 55ae ed3d 4f9c 793e
000001c0: ed64 c33c 5a3f b43c 2d06 11bd 9708 c3be
000001d0: 6abd ae3d 93b1 27bd 2b5e 33be f829 30bd
000001e0: b2c9 823e 17cc 20bd 1012 023e 1989 113e
000001f0: 86ae 7cbe 548f bd3d 7156 1fbe 50fa 64be
00000200: 4cd4 053e a1e8 8f3e 4737 0c3f dcc2 74bd
00000210: cc59 5abd 118e b5bc 8393 cf3e f78f 993e
00000220: 2cd8 ac3d 6787 a5bd e024 29be b77e 2f3e
00000230: 51b3 a93b 1514 be3d 1923 c3bb 2ed5 403d
00000240: e53c 9d3e cda9 f03d ec02 b63e 2ae9 b83c
00000250: d8bf fe3d bb4a 7dbd 9d3f 09bf 09e6 04bf
00000260: 0167 043e 8713 bbbe 3030 923e f13a 523d
00000270: 0133 963e c192 96bd f72e b03d 49a4 ae3d
00000280: 0679 9cbe 15a9 f13e 565c 693e d4e0 98bd
00000290: 86d8 7e3d f467 24be 1302 fdbc 0271 053f
000002a0: 0563 23be e767 53be fc85 923e 364f 8bbe
000002b0: 54e5 793e cf1f dc3e c32b d83b 8dda 4ebe
000002c0: 0c1c ff3d 5af5 ad3d 41ac 8c3d 5c5d c03e
000002d0: 2bbe 76be 73a6 36be 34da 993d ce80 1bbe
000002e0: 9501 303d 437d d83c e763 9e3e c07d 8a3d
000002f0: e17d 1bbf e039 71be 0d90 22bc 5296 21bf
00000300: 32e0 33be 5e08 903e de10 b8bd b5cc 2b3e
00000310: 9588 08be f0f7 46be 352f 0e3d ebad 5cbe
00000320: 7ae4 fabd 9ed3 753c cb10 2dbf 6c98 0abf
00000330: 8123 023d 8930 913e faee 253e 44ba 4d3e
00000340: 85b3 abbe e91d 26bf 773c 19be cd1c 863e
00000350: 1b07 6ebe d937 d6be edf0 80bd 45b6 9e3e
00000360: 1de2 e13c 46fb 01bf 3819 dd3e f578 b43c
00000370: e4e0 55be ec66 ecbd 71d6 11bf 68d3 1b3e
00000380: 6bf1 2b3d 5414 5d3e d48e 593e bbe2 0e3e
00000390: 7aa6 c53e 3026 453e 0635 dbbe a784 0dbd
000003a0: c812 27bf 58b7 39bf c4f6 853e 859b 84be
000003b0: e688 d73e 7ab7 44be 6659 203f dc26 023e
000003c0: 6531 4ebd f486 273f 4b18 fa3d f36e af3e
000003d0: b014 063d ae85 a33c e76e 01be 0b90 19be
000003e0: 5eba fc3e 9203 303d eac4 6e3d 9a2f 303e
000003f0: e4ef 0ebe b3fb 803d 6c6c 05be a68d d5bd
0.30205774 -0.2241392 -0.11600619 -0.1392785 -0.078187376 0.28789964 0.4064212 -0.079626724
-0.04088267 -0.18089348 -0.07948404 0.0058147316 -0.35891083 -0.1138876 0.15086222 0.25740722
-0.02984394 -0.0649393 0.048829842 0.10015265 0.28512877 0.041866127 -0.14770065 0.20641483
-0.32940823 0.20008503 0.22653691 -0.19199266 -0.021461785 0.08290569 -0.0622216 -0.5609277
0.035609435 0.104395725 0.019351495 0.0017850889 -0.114242814 -0.0007453971 -0.34519506 0.32912275
0.03785817 -0.04278822 0.062393706 0.29567873 0.11337847 -0.28439045 -0.05961442 -0.0269513
0.14273112 0.0266314 0.09541899 -0.009206648 -0.1339341 -0.04894014 -0.040847912 0.14966826
0.03129124 0.3511329 0.5514534 -0.07253099 -0.048074655 0.06537612 0.13546677 -0.1622602
-0.109387584 -0.22821589 -0.2592235 -0.13145526 0.17290857 -0.016971601 0.20126913 0.13790211
0.021391058 -0.2271014 -0.27515754 0.40531123 -0.15867566 -0.034310248 -0.043162752 -0.21935911
-0.13832532 -0.3125769 -0.14282124 0.3546052 0.040145233 0.17718263 0.27916062 0.0615506
-0.17707989 -0.1660838 0.15504387 -0.42185006 -0.08303969 -0.046590175 -0.20917362 -0.47990033
-0.061341256 0.10631904 -0.038754933 -0.3919881 0.079112075 0.053783227 0.12464216 -0.02253523
-0.13500996 -0.05239065 0.25825703 0.17092632 0.09720797 -0.1312974 0.11605517 0.24376033
0.023851836 0.022002865 -0.03540628 -0.3809249 0.085322216 -0.040940832 -0.17516391 -0.043008775
0.25544506 -0.039257135 0.12702203 0.14212455 -0.2467595 0.09255853 -0.15560319 -0.22361112
0.13069266 0.2810717 0.54771847 -0.059756145 -0.053308293 -0.02216247 0.4054223 0.2999265
0.08439669 -0.080824666 -0.16517973 0.17138182 0.005178847 0.09281174 -0.0059551117 0.047078304
0.3071052 0.11751137 0.35549104 0.022572119 0.12438935 -0.061838847 -0.5361269 -0.51913506
0.12929918 -0.36538336 0.2855239 0.051325742 0.29335788 -0.0735221 0.08602708 0.08527429
-0.30561084 0.47199312 0.2278913 -0.074647576 0.06221821 -0.1605528 -0.030884778 0.5212556
-0.15955742 -0.20645104 0.28617847 -0.2720887 0.24403888 0.42993018 0.0065970137 -0.20200558
0.124565214 0.08494063 0.06868792 0.37571228 -0.24095981 -0.17836933 0.07512322 -0.15185854
0.04297026 0.026426917 0.30935594 0.06762266 -0.6073895 -0.23557234 -0.00992204 -0.63119996
-0.17565992 0.28131384 -0.08987592 0.16777308 -0.13333352 -0.19430518 0.03471299 -0.2155072
-0.1225061 0.015004067 -0.6760375 -0.5413883 0.03177214 0.28357342 0.16204444 0.20090586
-0.335354 -0.6488939 -0.14964472 0.26193848 -0.23244898 -0.41839483 -0.06295953 0.30998436
0.02757364 -0.5077404 0.43183303 0.022030333 -0.2088657 -0.11543068 -0.56967837 0.15217364
0.04197828 0.21589786 0.21245891 0.13953678 0.38603574 0.19252849 -0.4281389 -0.034550335
-0.6526303 -0.72545385 0.2616483 -0.25899902 0.42096633 -0.19210616 0.6263641 0.12710136
-0.050340075 0.654403 0.12211665 0.34264335 0.032734573 0.019961204 -0.12639962 -0.14996354
0.49360937 0.042972155 0.05829326 0.17205659 -0.13958699 0.06298008 -0.13029641 -0.10427408

bias f4 [4]
00000000: 1ab4 08b9 075e 57bd 43c4 05bc d2f3 f83c
-0.00013037064 -0.052579906 -0.008164468 0.0303897
