problem1/models/underway/success_whole_model_1766854651.pth (torch, 146613 bytes, 9 tensors)

weight f4 [128, 8]
000000 b7 d1 2b 3f 59 83 b6 be ef 7d d2 3e 02 cc af be
       0.67116874 -0.35647085 0.41111705 -0.34335333
000010 18 61 26 be 1b d0 ad be cc 61 d3 be 36 cd b7 bc
       -0.16247976 -0.33947834 -0.4128555 -0.02243672
000020 2b 59 a3 bc 66 e8 ae 3e 2e d9 7d be da ed 95 3e
       -0.01993998 0.3416168 -0.24789879 0.2928303
000030 77 29 c7 3d 44 57 96 3e a2 89 59 bd 66 78 01 bf
       0.09724706 0.29363453 -0.053109773 -0.5057434
000040 3e 6a 55 bd 61 3b 3b 3e 78 0e 18 3e 21 46 83 bf
       -0.052103274 0.1828437 0.1484927 -1.0255777
000050 90 3f 34 be 96 8e b3 be e7 fd 28 3d ce e6 56 3e
       -0.17602372 -0.35069722 0.041257765 0.20986483
000060 5b c2 cf bb f6 8d 20 be 1d 1c 09 be 95 b3 2d be
       -0.0063403076 -0.15679154 -0.1338963 -0.16963036
000070 7c cb 09 bf c2 d7 d7 be c1 2f d2 be b8 04 7c be
       -0.5382612 -0.42156798 -0.41052058 -0.24611175
000080 0f fa d5 bd 7c cf 0d 3d bf 94 fc 3d 5d 4b cd 3d
       -0.104480855 0.0346217 0.123330586 0.1002414
000090 3c 97 88 bf 9b 8e 4f 3e 5f 52 2b 3f 85 62 6e 3e
       -1.0671153 0.20269243 0.66922563 0.2327977
0000a0 2c df 49 be 9b 07 dc 3d e2 d2 97 bc ec dc ab 3f
       -0.1971404 0.10743638 -0.018533174 1.3426795
0000b0 46 0c ea 3d 8a 67 a9 be 81 28 26 3c da f1 b7 3e
       0.11428122 -0.33086807 0.010141493 0.35926706
0000c0 a0 59 fb be 5d 40 07 3d a1 e3 8a be b7 b9 4b 3c
       -0.49091816 0.033020366 -0.27126792 0.012434415
0000d0 19 af 84 bd 93 81 0b bf 8d 89 d0 be 73 75 d5 3e
       -0.0647871 -0.5449459 -0.40729943 0.4169117
0000e0 c2 7f 2f bf b9 d4 e9 be c4 ce da be 08 01 1d 3e
       -0.6855432 -0.45670107 -0.42735875 0.15332425
0000f0 e9 81 ea be b5 1a 03 be 31 64 67 3e 9c 88 aa 3e
       -0.4580224 -0.12803157 0.22596814 0.3330735
000100 fc 82 6b bd 7f 6a 24 be e9 53 16 bd 59 c0 cf be
       -0.057497963 -0.1605625 -0.036701117 -0.40576437
000110 9a 5a cd be 06 33 97 be 8f 09 98 be f7 09 93 3e
       -0.40108186 -0.29531115 -0.29694793 0.2871854
000120 1c b4 78 be 47 2f 4f 3e 66 94 a3 3e 66 37 b0 3e
       -0.24287456 0.20232879 0.31949157 0.34417266
000130 da 83 48 bf 7f 0d b8 bd 59 6e 83 3e b9 a6 cd bd
       -0.7832619 -0.08986949 0.25670126 -0.100415654
000140 d4 44 2a be 1b 5c c7 be 4a 91 6c 3f 65 21 43 3d
       -0.16627818 -0.38937458 0.92409194 0.04763927
000150 34 06 d7 3e b1 bd 9e be 41 d8 80 be 1e ae 6b 3e
       0.4199692 -0.31004098 -0.2516499 0.23015639
000160 2d 8d 31 3e 94 a8 da 3e 74 2e 10 bf 82 e7 aa 3d
       0.1733901 0.4270674 -0.5632088 0.08344938
000170 ec 83 ce be 7f f8 e2 3e 93 95 01 bf 66 08 7b 3e
       -0.40335023 0.44330212 -0.5061886 0.24514922
000180 29 03 79 be 37 4b 30 3f 19 d6 61 3e 3f ad b8 be
       -0.24317612 0.6886477 0.22054328 -0.36069676
000190 b8 1f a4 3d 54 5c 90 3e 65 36 1b bf 6e ed e9 bd
       0.08013862 0.2819544 -0.60629874 -0.11422239
0001a0 d0 6a f0 3d bc 5b 72 bf f1 8f 6b 3e 39 c2 de 3d
       0.11739123 -0.94671226 0.23004128 0.10876889
0001b0 59 14 f8 3e 65 13 fc 3e 6e c7 75 3e 90 6d dd 3e
       0.48453024 0.49233547 0.24001858 0.43247652
0001c0 74 2b 27 3e b9 b0 3b 3d 87 c4 07 3f c6 29 fc be
       0.1632517 0.045822833 0.5303425 -0.4925062
0001d0 a9 bf 59 bd 4d 75 64 be 22 44 95 3e 3f b0 f0 3e
       -0.053161297 -0.22310372 0.29153544 0.47009465
0001e0 e7 e4 6a 3d 1e e8 d4 be 52 00 bd 3e f9 b7 10 bf
       0.057347205 -0.4158334 0.36914307 -0.5653072
0001f0 24 a7 cb 3e cd a8 16 be 6e cc 0d bf ac 1d c3 be
       0.39775956 -0.1471283 -0.5539006 -0.38108575
000200 a1 40 18 3e 8b e1 a9 3e 92 d8 8e 3e 2f 32 82 be
       0.14868404 0.33179888 0.27899605 -0.25428912
000210 c3 c0 11 bf 4b e2 39 3e 03 f4 c3 3e e1 9b 00 3e
       -0.56934756 0.1815273 0.38272104 0.12559463
000220 bf 6c 5f bd c7 7a 27 3e a9 4b 60 3e f2 f5 92 3e
       -0.054547068 0.1635543 0.21903862 0.28703266
000230 a7 aa 94 be 28 c3 f0 be ac 3f 1e bd da 8d f2 3e
       -0.29036447 -0.47023892 -0.03863494 0.4737385
000240 23 1c 73 be 75 7b ce 3e 73 11 dc 3e 59 23 ac be
       -0.23741202 0.40328565 0.42982063 -0.33620718
000250 76 e2 a8 3c 2f 61 2d 3f be 8b a1 3e c1 8d 85 3d
       0.020615797 0.67726415 0.31551927 0.06521178
000260 ef e5 20 be bd 77 05 bf 96 8e 2d 3c 14 74 63 3e
       -0.15712713 -0.5213583 0.010593077 0.22212249
000270 11 3f 8e bd f6 f2 dd 3e a2 e6 25 3e 49 68 6b be
       -0.06945623 0.43349427 0.1620126 -0.22989
000280 a6 60 ac be 05 91 6f 3e 38 fa bd 3e ed a4 37 be
       -0.33667487 0.23395164 0.37104964 -0.17934008
000290 d8 64 5c 3e 72 3e a1 3e a1 5d 87 3e ef 77 c7 3e
       0.21522844 0.31492954 0.2643862 0.3895869
0002a0 6a 5c af bd f7 ef 91 3d 00 9a 80 bf f9 2f 57 3f
       -0.085625485 0.07125848 -1.0046997 0.84057575
0002b0 04 00 82 bd f1 fd 0c bd b5 83 23 bd ba 57 6c bc
       -0.06347659 -0.034421865 -0.039920527 -0.0144252125
0002c0 85 81 80 be be 5a 3c be 40 50 9a be df ff a4 be
       -0.25098816 -0.1839399 -0.3013935 -0.32226464
0002d0 7b fc aa 3e 6c 2b f3 3d 5e 99 5a 3e 7c 06 c1 3e
       0.33395752 0.118735164 0.21347567 0.3770026
0002e0 1d 33 44 3c 40 9d d4 3e 6e 0e 28 3e 51 bd 4f 3f
       0.011975077 0.41526222 0.16411754 0.8114825
0002f0 e3 16 ef bd e5 5f 74 bd 5d 63 35 3d 22 82 db be
       -0.11674287 -0.059661765 0.044284213 -0.4287272
000300 63 4a e2 3d 12 3d 23 be ae e6 cf be e2 0a 6e 3d
       0.110493444 -0.15941265 -0.40605682 0.058115847
000310 5e 17 4f 3e 58 ca b8 3e 5c 52 0b 3e 39 60 dc 3d
       0.20223758 0.36091876 0.13605636 0.107605405
000320 03 8c 77 bd 24 2f a7 3e 8c 74 e3 3e 19 6b 50 be
       -0.06043626 0.32653153 0.44424856 -0.20353355
000330 db e3 4c bd 80 05 eb 3e 9a a0 db bd 14 45 85 be
       -0.050021987 0.45902634 -0.10723992 -0.26029265
000340 06 9e 47 be c1 95 22 3e ef 96 3e 3e a3 a8 27 bf
       -0.19493875 0.15877439 0.18612264 -0.65491694
000350 18 0a 01 bd 4d eb 0b be f2 e9 cf 3e d8 d5 9e 3e
       -0.031503767 -0.13663979 0.40608174 0.31022525
000360 ed c6 08 3e 30 db 59 be ff fc 8a 3e f6 01 91 be
       0.13357134 -0.2127502 0.27146146 -0.2832181
000370 ee 6c b0 be 8e 37 9c bd fd d7 3a 3e 78 b8 87 be
       -0.34458107 -0.07627784 0.18246455 -0.26507926
000380 9c 4b a8 bc 87 bd b0 3e 47 6a 81 be 34 0d d8 3e
       -0.020543866 0.34519598 -0.25276396 0.42197573
000390 33 6a a7 3e 52 f1 e9 3e 7d 37 d8 3e 14 25 c4 be
       0.3269821 0.45691925 0.42229834 -0.38309538
0003a0 9e cd 41 3d 21 df e8 3d d4 5e 13 be 80 9c 3e be
       0.047315232 0.113706835 -0.14391643 -0.18614388
0003b0 a2 68 05 3c 0c 8a 0a bf 70 75 b9 be 67 65 51 be
       0.008142622 -0.5411689 -0.3622241 -0.20448838
0003c0 56 98 02 be 48 ae b0 3d db e6 c3 3e 6a 6f 4c be
       -0.12753424 0.086269915 0.38262066 -0.19964376
0003d0 b5 73 be be 63 d2 32 3f 5c f6 4d bd 7a 52 bb be
       -0.37197652 0.69852275 -0.050283775 -0.36586362
0003e0 8d 4c 22 be 1a 3f b4 3e b3 9f 99 be cd c7 1e be
       -0.15849514 0.35204393 -0.30004653 -0.15505905
0003f0 04 f5 23 3e 3b f4 f5 3e bd fa a8 bb 99 72 86 bd
       0.16011435 0.48037896 -0.0051568435 -0.065648265

bias f4 [128]
000000 9a 42 6f be ec 4f e5 3d 04 3b 4a 3e 7a 19 c0 3c
       -0.2336525 0.111968845 0.19749075 0.023449648
000010 6a 65 99 3c 89 b4 63 bd f7 a1 ce bc 79 c9 34 3c
       0.018725116 -0.055592094 -0.025223715 0.011034363
000020 ba 1d 7a be 2a 97 6e bd 69 96 70 3c 98 6a dd bd
       -0.24425402 -0.05824963 0.014684298 -0.10811347
000030 72 26 d1 bd 6a 26 2b bd 55 1d 59 3d fc c2 5c 3d
       -0.10212411 -0.04178468 0.05300649 0.05389689
000040 ae ea b6 3e dc 10 f7 3d c7 88 4b 3e 72 5b 31 3d
       0.3572592 0.120637625 0.19876395 0.0433001
000050 b3 b3 ae 3d e0 e1 1c bd 8f a3 44 be 71 9f 2f 3e
       0.08530369 -0.03830135 -0.19203018 0.17150666
000060 ee 9e 5f 3e 2b 2a be 3e 29 51 c5 3e 69 37 3f 3e
       0.2183797 0.37141547 0.38538483 0.18673481
000070 65 ed fa 3c 56 97 32 3e 80 fc bb bc f2 c7 7b 3e
       0.030630777 0.17440543 -0.02294755 0.24587992
000080 d2 35 c6 3e ce 57 d7 bd 47 b9 4b be c5 d2 33 be
       0.38712937 -0.10514794 -0.19894896 -0.17560871
000090 fa 87 79 3e 1f 62 3b 3d ad 70 f3 bd 80 a3 91 be
       0.24368277 0.045747872 -0.118867256 -0.28445053
0000a0 1e 1c 9f 3e 7a 50 14 3f 98 81 85 be d5 e4 a8 be
       0.3107614 0.579353 -0.26075435 -0.32987085
0000b0 ce ce fa 3d c2 e8 60 3d d9 fb 80 be a9 96 31 bc
       0.12246476 0.054909475 -0.25192145 -0.010839143
0000c0 6b df 72 3e f8 d4 fd 3e c7 ec d0 bd 85 ea a0 be
       0.2371804 0.49576545 -0.10201412 -0.31428924
0000d0 51 e7 8a 3e f3 f7 8d be 85 01 99 be 10 2b d2 3e
       0.27129605 -0.27728233 -0.29883972 0.4104848
0000e0 24 7a 40 bd 10 ee 96 3e ce 64 08 3e 88 7d a9 3e
       -0.046991482 0.29478502 0.13319704 0.33103585
0000f0 29 ae 83 bd cd 20 78 3e c3 26 fe 3e f4 62 de 3e
       -0.06429703 0.24231263 0.49638948 0.4343487
000100 f8 a7 c6 3e 74 3b ab bd 84 2c 6e 3d 28 8f 01 3e
       0.38800025 -0.08360949 0.058147922 0.12652266
000110 ca f4 59 3d d1 32 08 3e 7b 6c 80 3e f3 8d 18 be
       0.053211965 0.13300635 0.25082764 -0.148979
000120 1e 0c e1 3e 39 e5 ee 3e 7c 13 b3 bd 9a b2 80 3d
       0.43954557 0.46659258 -0.08743951 0.062840655
000130 02 63 7b be 42 b5 cf 3e c2 19 dc 3e 59 f1 bd 3e
       -0.24549487 0.40567976 0.42988402 0.37098196
000140 f4 2e cf 3d 58 06 aa be 84 b2 a4 be 1d c0 50 3e
       0.101163775 -0.33207965 -0.32167447 0.20385785
000150 24 6a a4 be 8b dd 25 be ed 6e b8 3e 58 51 60 be
       -0.3211223 -0.16197793 0.3602213 -0.2190603
000160 87 fc 6b 3e 01 3d 50 bc cf 64 05 3d d5 97 9a 3c
       0.2304555 -0.012709857 0.03256684 0.018871227
000170 21 48 29 be 98 53 c5 3c 97 6f 91 bc 41 f2 9c 3e
       -0.16531421 0.024087712 -0.017753405 0.30653575
000180 ef 51 53 3e 52 39 40 3d 24 c6 ed 3e 3c 18 04 3f
       0.20636724 0.046929665 0.46440232 0.5159948
000190 93 cd 2f 3e 9f 89 c0 3d 2e 7b b2 3c 33 37 00 3f
       0.17168264 0.09401249 0.021787252 0.5008423
0001a0 c9 39 10 3d d5 cb c8 3e 27 c4 16 3e 04 37 d2 3e
       0.03521136 0.39218011 0.14723264 0.410576
0001b0 5b d5 0f 3f 62 74 29 be a0 8c 72 be 2e 5b 98 3e
       0.5618493 -0.16548303 -0.23686457 0.29757065
0001c0 20 ec 1d be 32 7d 11 3d 34 fd ff bd 17 86 d9 3e
       -0.15422106 0.035519786 -0.124994665 0.42485115
0001d0 fe 58 b4 3e 14 85 8a 3e 9f c7 23 3e 01 33 62 3d
       0.35224146 0.27054656 0.15994118 0.055224422
0001e0 9c 2c 05 3e e4 8b 23 be 39 19 a1 be f2 91 6d 3e
       0.13005298 -0.15971333 -0.31464556 0.23200205
0001f0 ff a1 19 bd 70 63 84 3e d0 4f d3 3e 64 c1 df 3c
       -0.037508007 0.25857115 0.4127183 0.027313896

weight f4 [128, 128]
000000 3b 6a 05 3e 77 2d 07 be 54 b0 0e bd d7 44 1f 3e
       0.13028805 -0.13200937 -0.03483613 0.15553604
000010 cb 06 15 be 40 18 a4 3e 86 fb a3 3e b9 22 df 3d
       -0.14553373 0.3204975 0.32027835 0.10895295
000020 10 b5 4c 3e 17 64 f7 be 28 a9 bf be fa 73 89 be
       0.19990945 -0.4831855 -0.37433743 -0.26846296
000030 fa 2c ae be 04 bc 6b bc 04 c6 09 3d 72 b3 04 be
       -0.3401869 -0.014388088 0.033636108 -0.12959078
000040 0c a0 0e be fb 58 51 3e 35 79 fd bd 7c 94 7a be
       -0.1392824 0.204441 -0.12376634 -0.24470705
000050 e2 9e 3a 3b 30 0c 82 bd d2 06 f0 3d e5 41 84 3e
       0.002847605 -0.06349981 0.11720051 0.25831524
000060 22 b7 4c 3e 1e 41 a5 be 8a 16 34 bd 84 3f 58 bd
       0.19991735 -0.32276243 -0.043966807 -0.05279495
000070 50 33 8b 3e 41 d6 84 3e af 09 6f be a3 23 08 3e
       0.27187586 0.25944713 -0.23343538 0.13294844
000080 7c b0 06 3e e7 d8 98 be 0d 07 71 3e bc 99 80 3e
       0.13153261 -0.29852983 0.23537846 0.2511729
000090 b8 31 86 3e d3 0d 5e 3e 4a e5 44 3e 8b 64 f3 3e
       0.26209807 0.21684961 0.19228092 0.47537646
0000a0 de cb d2 3d 2c 00 16 bc 41 ce 9a be 4d fc 49 bf
       0.10292791 -0.009155314 -0.30235484 -0.78900605
0000b0 03 1d 5d be 5e 3f 5f 3d c7 80 79 3e c3 f2 46 be
       -0.21593098 0.05450379 0.24365531 -0.19428544
0000c0 4a 85 09 bc a1 4a 58 3c c2 be ce 3d 0f 5d a8 3e
       -0.008393595 0.013201387 0.10094978 0.32883498
0000d0 26 78 25 3d e0 ee a0 3d 83 35 d4 3e b4 c0 2e 3e
       0.040397786 0.07858062 0.41447076 0.17065698
0000e0 b8 66 d1 3d ee f7 19 3e ab 0d a1 3c 45 b0 17 3e
       0.1022467 0.15035984 0.019659838 0.14813335
0000f0 3d 18 9f bd 77 28 c0 bc 6d e6 57 3c 1f 1f 60 3d
       -0.07768295 -0.023456795 0.013177496 0.05471718
000100 d1 7f 93 3c 04 45 75 3e a8 dd 1b 3e 73 07 b9 bd
       0.018005284 0.23952109 0.15221274 -0.09034624
000110 91 2a 9b bf 15 51 ca 3d 66 39 03 3e be 91 6a bd
       -1.2122365 0.098787464 0.12814865 -0.057267897
000120 7f 5e b7 bc e7 72 14 3e 88 aa d4 bd 97 0b 8c 3e
       -0.022383926 0.14496957 -0.10384089 0.27352592
000130 ab 56 02 3f 3b 3e 9d 3d b3 3d 8b bc 73 14 b3 3d
       0.50913495 0.07677885 -0.016997194 0.08744135
000140 20 45 9c 3e cb 6a 04 3f 60 46 b7 3e 13 f7 79 be
       0.30521488 0.51725453 0.3579588 -0.24410658
000150 bc 0a e5 3e 52 67 4f 3e 92 3d af 3d ed 23 41 3e
       0.44734752 0.20254257 0.085566655 0.18861361
000160 46 89 a3 3d bc d3 38 3e 99 92 a6 bd 29 f4 8e 3d
       0.07985167 0.1804952 -0.0813343 0.069801636
000170 a8 8b b5 3e 4c f1 a4 be 2c c8 99 3c 9b e7 dd 3d
       0.35458112 -0.32215345 0.018772207 0.10835191
000180 41 37 ca 3c 18 43 7a be e4 e1 05 be 13 44 9f bc
       0.02468455 -0.24439657 -0.13074452 -0.01944164
000190 c5 04 af 3d f1 96 f4 3d 77 6a de 3d 06 ca 62 bd
       0.085458316 0.11942852 0.1086015 -0.055368446
0001a0 a0 c4 cd 3e 7f 8a 84 3d a6 77 a3 be 7d 76 6b 3d
       0.40189075 0.064717285 -0.31927222 0.057486046
0001b0 af b1 21 bd 6f 79 11 3e 35 7d fe 3d a1 6a 02 3e
       -0.039476093 0.1420648 0.12426225 0.12735988
0001c0 fd ad 81 3e 0c 1d dc 3c 37 9a 00 bf dd 2d 11 3d
       0.25328055 0.02686932 -0.50235313 0.03544413
0001d0 fb ca 04 be a6 8b 00 be 25 74 eb be 2d a2 cc bd
       -0.12968056 -0.12553272 -0.4598705 -0.0999187
0001e0 63 3b b4 be d5 81 a6 3d 1f ed 35 be 7a 78 b0 3d
       -0.35201558 0.08130232 -0.17766236 0.08616729
0001f0 22 53 27 3e 74 ed ae bd 8b 6e 02 3e 68 ab 99 3e
       0.16340306 -0.08541384 0.12737481 0.30013585
000200 5e 37 93 be 68 c4 b2 be 1a 2d 6c bd f9 2d 4c bf
       -0.2875318 -0.3491547 -0.0576602 -0.7975765
000210 a6 94 17 3f 95 6a a3 3e 4c 7f b0 be 60 fb 38 be
       0.59211195 0.31917253 -0.3447212 -0.18064642
000220 24 50 94 be 21 f1 44 3f a0 37 13 3f 2c b9 93 3e
       -0.28967392 0.76930434 0.5750675 0.28852212
000230 7c f2 d2 3d 46 70 81 3e f5 3a 90 3d 44 d3 c7 3e
       0.103001565 0.2528097 0.07042495 0.3902837
000240 c7 2b 0c 3d e1 b7 52 be ca 7f cc 3d b7 8e e0 3e
       0.034221437 -0.20577957 0.09985311 0.43858883
000250 88 cb 5f 3e 55 06 62 3f 94 b1 f2 bd 6d 99 64 be
       0.21854985 0.8829091 -0.118502766 -0.22324152
000260 36 99 fd 3d c4 98 e8 3d 39 19 37 3e e4 7d b3 be
       0.12382738 0.11357263 0.17880715 -0.35056984
000270 f1 49 87 be fe 16 f8 be b4 9d df be 61 04 27 3d
       -0.264236 -0.48455042 -0.43675005 0.04077566
000280 4a 3c 55 3e b3 c4 8f 3e 52 4e 65 be 6d c3 01 bf
       0.2082378 0.28079757 -0.22393158 -0.5068882
000290 33 57 fc bd 8b 49 57 3d 03 15 19 3d e7 a1 95 bc
       -0.123213194 0.05256037 0.037373554 -0.018265678
0002a0 82 02 ac be db 05 ab 3c 7e 85 ac 3d 21 3b 0f 3f
       -0.33595663 0.020876816 0.08423899 0.559496
0002b0 32 cf 1b 3f 46 7b e3 bd 75 25 9a be 9e f5 22 3f
       0.6086303 -0.11107497 -0.30106702 0.6365603
0002c0 d4 62 13 3e 97 51 70 3e 88 2e 2f 3e c0 5d aa be
       0.14393169 0.23468624 0.17107594 -0.3327465
0002d0 0d 78 5e be 56 86 be be 50 1f 65 be 4a 7c 54 3e
       -0.21725483 -0.37211865 -0.22375226 0.20750538
0002e0 14 05 6e be 3c fb 01 3e 12 7a a9 be 4e be 29 3e
       -0.23244125 0.12693495 -0.33100945 0.16576502
0002f0 42 51 23 3e 69 04 ab 3e a3 e4 5e 3e 6c 33 68 bd
       0.15948966 0.33401802 0.21766905 -0.056689665
000300 bb 99 a6 3d 1b 9e a4 be b8 08 0e 3d 1c 14 12 bf
       0.081347905 -0.32151875 0.034676284 -0.57061934
000310 ba 45 57 3f 88 94 41 be a0 c8 0e 3d b8 de 67 3e
       0.8409077 -0.18904316 0.0348593 0.22643554
000320 18 4e 4b 3d 64 0f a4 be 76 0f 3b be 1e 8a b6 bd
       0.049635023 -0.32042992 -0.18267617 -0.089130625
000330 87 0f 0d bf ee 80 a2 be 88 82 5a 3d e9 6e 8c be
       -0.5510182 -0.3173899 0.05334714 -0.27428368
000340 72 45 39 be a6 ca 10 bf 80 2e 68 be c6 a3 17 3f
       -0.18092898 -0.56559217 -0.22673988 0.59234273
000350 46 32 ec 3d fe 89 ec be f1 46 a1 be 9e bb 6c bd
       0.115330264 -0.4619903 -0.31499436 -0.057796113
000360 a1 40 1d 3d 7d 44 b6 bd 85 2f b0 3e 40 b6 9e be
       0.038391713 -0.08899782 0.34411255 -0.3099842
000370 b1 fc f8 be cd 8a 54 be 23 b9 aa be 7a 04 86 be
       -0.48630288 -0.20756073 -0.33344373 -0.2617529
000380 da 37 23 be bc f4 8c 3e f3 71 d7 3d 3e ff 78 3e
       -0.15939274 0.27530468 0.10519781 0.24316117
000390 5f 36 37 be c9 1b 74 bd 69 c9 87 be b6 a9 41 3e
       -0.17891835 -0.05959681 -0.2652085 0.18912396
0003a0 07 fa 1e be 64 bd cb 3d 78 08 90 3e 6a f6 63 be
       -0.15525065 0.09948233 0.2813146 -0.22261968
0003b0 31 11 66 3e e1 3c 6a be 3b f8 c5 bd ec d1 53 3e
       0.22467496 -0.22874786 -0.09666487 0.20685548
0003c0 91 99 76 be 19 50 47 be c2 6e 46 3d 9d e1 82 3d
       -0.24082018 -0.19464149 0.04844547 0.063906886
0003d0 fc 89 19 3e ed c6 2f 3e 23 98 11 3f 4f be c6 3b
       0.14994043 0.17165728 0.5687277 0.006065167
0003e0 47 3f 98 3e 9b a0 24 bf 3f 45 b0 be 0c 20 27 bd
       0.29735777 -0.64307564 -0.3442783 -0.040802047
0003f0 d5 92 53 3e e3 ca d3 3d d0 7c 7c 3c dd b5 2a bd
       0.2066148 0.10341432 0.015410617 -0.041677345

bias f4 [128]
000000 eb 3b d0 bd 35 c2 08 3e 57 d6 f5 bd fd 76 00 be
       -0.101676784 0.13355334 -0.12003773 -0.1254539
000010 7e ba 09 3e 32 f8 d8 3c 5c d8 02 bd 13 a8 a0 bc
       0.13450047 0.026485536 -0.031944618 -0.019611394
000020 85 9e 9b bc 2d a3 7c bd 9a 8f a8 bb e9 1d 4b bd
       -0.018996486 -0.061679054 -0.0051440718 -0.04958907
000030 15 c0 33 bd 95 ba b1 bd 55 55 92 3d 66 7d 2a 3e
       -0.043884356 -0.08678166 0.07145182 0.16649398
000040 17 c0 24 3d 74 9e 60 3c 3d 5a 03 3d a7 82 36 3d
       0.040222254 0.013709653 0.03206848 0.044558194
000050 d6 33 33 bd b4 d3 a2 bd e1 3a 2a 3e 3c 85 c6 bc
       -0.043750606 -0.079505354 0.16624023 -0.024233453
000060 ef 79 6d 3e ae 8a 25 3e a7 5f 4c bd 40 54 01 be
       0.23191045 0.16166183 -0.04989591 -0.12629795
000070 4e 97 6e 3d ba 7e 7b bd ec ad 8e bd 9c e4 e6 bc
       0.058249764 -0.061400153 -0.06966767 -0.028185181
000080 ab c6 66 3d fb c3 c0 bd 6f c9 2e 3e 9c 9f fc bc
       0.05634181 -0.0941238 0.17069028 -0.030837826
000090 95 e0 39 3e 4e c0 9e 3d 30 a5 64 bb 84 ed e7 bc
       0.18152077 0.07751523 -0.0034888498 -0.028311498
0000a0 99 9f e1 39 46 e7 d0 bc e1 a0 4a 3e 6f d0 b2 bd
       0.00043034254 -0.025500905 0.19787933 -0.08731162
0000b0 4b 98 56 bd 49 41 90 bd 27 98 49 3e 14 a3 24 3e
       -0.05239133 -0.07043702 0.19686948 0.16077834
0000c0 d3 bd fa bd 1d f4 a7 3c b9 e2 18 3e 0f 75 c3 bd
       -0.12243237 0.020502144 0.14930238 -0.095438115
0000d0 d6 48 3b bc dd 2c 82 bd dc b3 13 3e 41 71 e3 bd
       -0.01143094 -0.06356213 0.1442408 -0.11105586
0000e0 36 c9 07 be 7f ec 61 3e 5c 2d 69 bd 8f 88 2c 3e
       -0.1326035 0.22062872 -0.056928024 0.16848968
0000f0 e6 6e 92 bc e5 75 78 bd dd 1e 05 be 9c 4c eb 3c
       -0.017875146 -0.060659308 -0.13000055 0.028723054
000100 ea 67 c9 3d 7b fd dc 3d e0 97 8a 3c 85 92 32 bd
       0.09834273 0.10790535 0.016918123 -0.043596763
000110 41 fa 9d 3d 7f b5 80 bd 2d 64 81 3d 72 f5 49 bd
       0.07713748 -0.06284618 0.06317935 -0.04930634
000120 e2 77 e4 3d 07 67 ca bb bb 1b 11 bd c1 c3 41 3c
       0.11155678 -0.0061768326 -0.035426836 0.0118264565
000130 9a c1 1b bd 6a 3f 91 bd f5 91 a1 bd 5e 96 bb bd
       -0.03802643 -0.070921734 -0.07889167 -0.0915954
000140 0b 06 e2 bd 77 82 b5 bc a0 b1 1a 3e 22 70 9e bd
       -0.11036309 -0.022156937 0.15106821 -0.077362314
000150 65 11 39 3c 84 16 14 bd 00 7d 59 bd 01 3c b5 bd
       0.011295651 -0.036154285 -0.053097725 -0.088493355
000160 2f 73 64 bd 08 2a 80 3e c2 6a 62 3e 3f 1b e6 bc
       -0.05577391 0.25032067 0.22111037 -0.028089164
000170 bc 09 87 3e 65 2f 71 3c ac 76 10 3e 24 f4 5f 3e
       0.26374614 0.014720772 0.1410777 0.21870476
000180 26 4e e5 3c e6 da a7 bd bb 0e c9 bc ab bb f4 bc
       0.027991366 -0.081960484 -0.024543157 -0.029874643
000190 f8 c3 25 3e de d9 66 3e 99 7d 28 3e 56 3f e5 3d
       0.16188037 0.22544047 0.16454162 0.11193721
0001a0 04 a1 74 3e ba 08 7f bb 7f bc 0c be 94 7b c0 3d
       0.23889548 -0.0038915114 -0.1374378 0.09398571
0001b0 b0 fd 7e bd 3f a6 06 be 4b 69 52 3e 5c 51 94 3e
       -0.062253654 -0.13149355 0.20547979 0.28968322
0001c0 00 9e b9 bd 09 e1 15 be 21 2a 3a 3d 35 36 c8 3d
       -0.09063339 -0.14636625 0.045450334 0.09775964
0001d0 f5 22 a6 bd 21 b5 90 bd 20 27 a6 3d 11 ff 75 3e
       -0.08112136 -0.070657976 0.08112931 0.24023081
0001e0 10 d3 e5 bc 2f fa f7 bc c2 be 81 bd 33 33 6d 3d
       -0.028054744 -0.030270664 -0.06335212 0.057910156
0001f0 30 6a 5e be 77 71 4e 3e 84 ec 00 3d 25 4f 96 3b
       -0.21720195 0.20160471 0.03147556 0.0045870715

weight f4 [1, 128]
000000 1d 1d f5 be 60 19 55 3f f5 b4 09 bf 28 6c ce be
       -0.47873774 0.83241844 -0.53791744 -0.40316892
000010 51 39 55 3f a3 66 94 3f 92 ea 52 3d b5 ae f7 be
       0.8329058 1.1593822 0.051493235 -0.48375478
000020 3c fa d7 be 11 da e1 be 02 31 d3 be 78 29 e6 be
       -0.421831 -0.44111684 -0.41248327 -0.44953513
000030 f5 f9 cf be 08 a5 08 bf 11 99 58 3f 13 57 af 3f
       -0.4062039 -0.5337682 0.8460856 1.3698448
000040 f7 f2 44 3f bd 73 08 3c 3b a6 94 3f 55 48 8d 3f
       0.76933235 0.008328375 1.161323 1.1037699
000050 9d 22 b9 be 96 98 64 3d bd e6 6d 3f 1a 17 de be
       -0.3615922 0.05580958 0.92930204 -0.43377
000060 8d 9b 54 3f 0c e8 4a 3f 39 92 15 3d 59 9d ef be
       0.8304985 0.79260325 0.036516402 -0.46799734
000070 f4 42 71 3f 64 6d 98 3f e9 da e0 be 58 ac 90 3d
       0.9424279 1.1908383 -0.43917015 0.07064122
000080 e4 46 6a 3f fe e6 bc be ad 41 59 3f b6 75 f2 be
       0.9151442 -0.36894983 0.8486584 -0.4735543
000090 0b 02 ba 3f 23 95 3e 3e 31 ab d5 be 26 4e 91 3f
       1.4531873 0.18611579 -0.4173217 1.1351974
0000a0 d2 c2 ab bc c8 f1 d7 be 5b bd 6c 3f 06 0e ce be
       -0.020966921 -0.42176652 0.92476434 -0.40245074
0000b0 e2 24 ea be 75 34 bd ba c4 4b 47 3f 6b ba 3c 3f
       -0.45731264 -0.0014435189 0.77849984 0.7372195
0000c0 e1 f9 b6 be 23 81 d5 be d8 d2 7a 3f 05 40 b8 3b
       -0.35737517 -0.41700086 0.9797797 0.005622866
0000d0 8a 23 3c bf fa 9d 06 bf 91 ce 47 3f 35 45 e5 be
       -0.7349173 -0.52584803 0.7804957 -0.44779363
0000e0 f0 2b c4 be ad a9 52 3f a3 a9 b8 be 92 81 3d 3f
       -0.38314772 0.82290155 -0.36066923 0.74025834
0000f0 b8 63 e1 be d0 d4 5e 3d a0 5e c5 be c1 fe 54 bf
       -0.44021392 0.054402173 -0.38548756 -0.83201224
000100 be 9b 55 3f 4e 9a 3a 3f be 12 da be db 1c 84 bd
       0.8344077 0.728917 -0.42592424 -0.06450816
000110 bf 22 41 3f 80 f8 80 3d ab 53 8f 3d 05 0a 00 bf
       0.75443643 0.062973976 0.0699838 -0.5001529
000120 34 92 59 3f d0 a4 3b 3d d9 a0 27 bf b2 59 d5 be
       0.84988713 0.045811474 -0.6547981 -0.41669995
000130 36 f8 ec be da 37 ec be 2b 00 bd be 0b 97 1e 3d
       -0.4628312 -0.4613636 -0.3691419 0.038718265
000140 ca 69 e9 be e2 8e 9b 3d 07 28 6a 3f 7d ce f0 be
       -0.45588523 0.07595612 0.91467327 -0.47032538
000150 b5 86 f8 be 90 11 d6 be ee c1 cf be fd cc 08 bf
       -0.48540273 -0.41810274 -0.40577644 -0.5343779
000160 77 78 db be 01 d3 46 3f 67 a9 3c 3f 8d 3f a2 3f
       -0.42865345 0.77665716 0.7369599 1.2675644
000170 d7 25 39 3f 06 40 bb be f0 ec ba 3f 6c 3b 3e 3f
       0.72323364 -0.36572284 1.4603558 0.7430942
000180 74 e7 06 3c e1 66 eb be 76 83 de be a9 95 cc be
       0.008233894 -0.45976928 -0.43459672 -0.39957932
000190 96 30 64 3f c1 80 41 3f 8b 1a 38 3f d4 a4 96 3f
       0.89136636 0.7558709 0.719155 1.1769052
0001a0 07 9a 46 3f a8 14 92 3d db 45 03 bf 99 de 58 3f
       0.7757878 0.07132846 -0.51278466 0.8471466
0001b0 9e de 03 3d a0 01 dd be 40 2a 58 3f 48 d1 3b 3f
       0.032194726 -0.43165302 0.8443947 0.7336621
0001c0 0e 2d db be d3 3d ef be e9 21 5f bf 93 50 1a 3f
       -0.42807811 -0.46726856 -0.8716112 0.60279197
0001d0 7a ea dd be e0 47 d4 be 5c ea a1 3f 7d 9e 4c 3f
       -0.43342954 -0.41461086 1.2649646 0.79929334
0001e0 c4 74 8e 3f 58 9b 00 bf d6 9c 7c 3f f5 71 77 3f
       1.1129384 -0.50237036 0.9867681 0.9665826
0001f0 d4 27 11 bf ab 89 58 3f 53 09 e5 be ae 62 7d 3f
       -0.567014 0.84585065 -0.44733676 0.989787

weight f4 [128, 128]
000000 58 f4 7b bd 19 c9 4e be 23 41 d6 bc a5 f4 dd bd
       -0.06151232 -0.201939 -0.026154106 -0.10837678
000010 2b a9 25 3d ec 0d a5 3e e1 18 1f be 61 85 06 be
       0.040444534 0.32237184 -0.15536834 -0.13136818
000020 90 ef 8b bd 94 7f 65 bd 2f 65 d5 bc 9f 67 1d be
       -0.06832802 -0.05602987 -0.026049225 -0.1537156
000030 b2 84 f8 3d b3 69 80 3e 4f f2 f1 3c 87 92 2f bc
       0.121346846 0.25080642 0.029534487 -0.010716087
000040 2b 83 e3 3d b4 06 47 bd e4 16 17 bc 13 69 95 3e
       0.11109003 -0.048590377 -0.009221766 0.29181728
000050 37 7e c8 bd 28 51 d0 3d c4 7d 4b be 11 65 07 3e
       -0.097896986 0.10171729 -0.19872195 0.13222148
000060 73 63 81 bd 27 bf 3c 3e 8d 65 f9 3d ae 8f 07 3e
       -0.063177966 0.18432294 0.121775724 0.13238403
000070 49 88 67 be 57 9f 92 bd ee d1 8b be af 09 c5 3d
       -0.22610582 -0.07159298 -0.273086 0.096209876
000080 d6 e5 ff bd 23 0e 7d 3d c4 b9 69 3d b8 55 35 bd
       -0.124950096 0.06178106 0.057061926 -0.0442712
000090 7f 08 6f 3d 24 c7 c9 bc b3 21 a8 bd cf 6e aa bb
       0.058357712 -0.02463109 -0.082095526 -0.0052011977
0000a0 86 57 22 b9 d6 89 57 3e 03 01 f9 3c 7a 14 28 be
       -0.00015482129 0.21048674 0.03039599 -0.16414061
0000b0 62 bf 1a 3e f2 99 4d 3d 24 44 ee be cf e9 44 be
       0.15112069 0.05019564 -0.46536362 -0.19229816
0000c0 00 e7 c4 3d cd ae 35 3e b5 8b 08 bd 3e f0 20 3e
       0.09614372 0.17742462 -0.03333636 0.15716645
0000d0 5d bc 4d 3d c8 94 e6 be af 5c a1 be ea 82 37 3e
       0.050228465 -0.45035386 -0.31516024 0.17921034
0000e0 52 15 fc 3d 0f 58 31 3d b7 b7 2d 3e 50 b2 21 be
       0.12308754 0.04329687 0.16964613 -0.15790677
0000f0 b3 b9 48 3d 61 5e 6a 3d 22 b5 83 bc 17 84 83 bb
       0.04900522 0.057218913 -0.016077582 -0.004013549
000100 12 75 71 3e 6a 2e 07 bd c8 9b 0f bd 14 12 c2 be
       0.23579815 -0.03300325 -0.035060674 -0.37904418
000110 2f f1 21 3f a2 e2 33 bd 87 10 50 bd df 5a ce bd
       0.6325864 -0.043917306 -0.05079701 -0.10075926
000120 6d 7c 5f 3d 95 0b 41 bb a6 90 4d be 4b d3 02 be
       0.05456202 -0.0029456366 -0.2007471 -0.12775914
000130 f0 94 57 be 81 8d 15 be c0 8b 40 3e c3 a4 75 bd
       -0.21052909 -0.1460476 0.1880331 -0.059971582
000140 27 60 60 3c 19 ed 59 be b6 68 d4 bd b2 2d 59 3d
       0.0136947995 -0.21281852 -0.103715345 0.053022094
000150 98 65 4d 3d e0 ba 02 3e 60 51 c1 bd 5c 96 10 3d
       0.050145715 0.127666 -0.09439349 0.035299644
000160 5e f2 3a bd 1a 0b 18 3c 36 0d 45 be 1a 2b 76 3d
       -0.045641296 0.009279991 -0.19243321 0.0600997
000170 ee 37 19 be 22 da a6 3d 5b c0 56 bd 9e 9f 4a 3c
       -0.14962742 0.08147074 -0.05242954 0.012367157
000180 f9 1f 59 be b4 04 36 bd ef 45 62 3e 50 8a 06 3e
       -0.21203603 -0.04443808 0.2209699 0.131387
000190 fe 1c 4f be fc af 84 bd ac 37 98 bd 34 23 84 3b
       -0.20225903 -0.06478879 -0.074324936 0.004032517
0001a0 2b 16 70 bd d5 c7 ce 3d 3b 63 ec bd 3d db 97 3d
       -0.05861489 0.10096709 -0.11542364 0.07414863
0001b0 af b4 10 3e b1 35 b3 bd 02 df 77 be 5c fd b9 3d
       0.14131425 -0.08750475 -0.24206164 0.090815276
0001c0 db 80 b5 bd 46 46 f5 bc b5 58 46 3e d3 87 58 bd
       -0.08862468 -0.029940736 0.19369777 -0.052863907
0001d0 4a be 1d 3b 40 c7 62 3d 4c 28 17 3e 40 d5 c7 be
       0.002406972 0.0553658 0.14761466 -0.39029884
0001e0 0b 41 30 3e 70 50 70 bd 8f 20 c6 be 36 a0 be 3d
       0.17212312 -0.05867046 -0.38696715 0.093079016
0001f0 25 69 5b 3d b9 1a 5a 3d fb e8 d9 3d ae e4 e6 bc
       0.05356707 0.05324814 0.106401406 -0.028185215
000200 ac 0c 56 bd be 0d eb 3d 21 ac 94 bb 6e d8 5a 3d
       -0.05225818 0.114772305 -0.004537121 0.05342906
000210 43 dc 48 be ee 98 81 be 60 ae 25 3e bb ce ae 3d
       -0.19615273 -0.2531199 0.161798 0.085355245
000220 d3 b4 39 3e ac e0 57 be 26 10 93 bd 11 74 e4 3d
       0.18135385 -0.210818 -0.071808144 0.111549504
000230 29 54 12 bd ba a6 ec bc 32 46 25 bd 3b b0 11 3e
       -0.035724793 -0.028888095 -0.040350147 0.14227383
000240 aa fa 8b bd 7e fd 20 bd 8b 88 fc bc 6e 43 5c be
       -0.0683492 -0.03930425 -0.030826828 -0.21510097
000250 ac 14 df 3c d0 0e 8f bd ef e5 1b 3d 75 6f a3 3c
       0.027231537 -0.06985247 0.03806108 0.019950608
000260 73 21 5f bd 59 aa bc bd 71 7b fa 3d a7 87 ca bd
       -0.05447526 -0.09212179 0.12230576 -0.09889155
000270 c2 95 89 bd 24 1d 15 3e d5 6b b4 be 96 96 db 3b
       -0.06718017 0.14561898 -0.3523852 0.006701301
000280 02 3a de bd 47 a4 65 be 04 81 e7 bc 5a c9 e5 3d
       -0.10850908 -0.22425948 -0.028259762 0.112200454
000290 87 16 06 3e a0 8d ea 3d 1f d1 84 bc 97 1f 03 be
       0.13094531 0.11452794 -0.016212998 -0.1280502
0002a0 18 cb 6d bb 93 90 0a 3d f7 47 7c 3e d4 2f e8 3c
       -0.0036284383 0.033829283 0.24636827 0.028343119
0002b0 88 49 6b 3d f1 c2 0b 3e f2 7d b9 bd a2 8e 8e 3e
       0.05744317 0.13648583 -0.09057225 0.27843195
0002c0 1f 2f 16 3d bb d4 b4 3d 61 4e f4 3c 7e b3 36 bd
       0.036666032 0.088296376 0.02982253 -0.04460477
0002d0 45 39 a8 3c ee 37 db be 08 4c 8a 3e 55 a4 fa 3d
       0.02053512 -0.42816108 0.27011132 0.12238375
0002e0 8f 7d 2b bd f2 c4 e1 3d 04 ff 80 bd d2 39 24 bc
       -0.04186779 0.110238925 -0.0629864 -0.010023551
0002f0 76 d1 cd 3d b4 28 a0 3d 56 c8 b5 3d f1 0e a4 bc
       0.10049717 0.078202635 0.08876102 -0.020026656
000300 65 c3 8e 3d 6f 25 19 be e0 82 81 3d 8c 7e 0c be
       0.06970862 -0.14955686 0.063237906 -0.13720149
000310 77 80 3d bf 78 37 51 bc e2 54 69 bc 3e 0c 6e bc
       -0.74024147 -0.012769572 -0.014241429 -0.014529286
000320 b5 39 8d bb dc dc c9 bc bc 62 89 3c c0 79 95 3e
       -0.0043098577 -0.024641447 0.016770713 0.2919445
000330 41 78 b0 3e e0 5a d4 3d 95 75 07 3e 3e 38 49 be
       0.34466746 0.103688955 0.13228448 -0.19650361
000340 5a c1 82 bd 23 18 b6 bd 8d 1e 87 bc cc 20 bf bd
       -0.06384535 -0.088913225 -0.01649406 -0.093324274
000350 39 b0 b9 bd 04 56 62 bb 10 e0 27 3d 8a b4 05 be
       -0.09066815 -0.0034536133 0.040985167 -0.13057151
000360 e3 15 9d 3d 63 cd e9 bd cd 6e 1c 3b e4 3b 92 3d
       0.0767019 -0.114161275 0.0023869753 0.071403295
000370 96 17 ac 3c 9b 8a 3d bd ab 51 ae bd c6 b1 2d 3d
       0.02100734 -0.046274763 -0.08511671 0.042405866
000380 21 34 de 3d 96 de ff 3d b4 e7 49 3d 5f 92 03 3d
       0.108497865 0.12493627 0.049293235 0.032122012
000390 02 de 42 bd 31 b5 0b 3c fc 8b ed 3d 84 83 32 3e
       -0.047575004 0.008527086 0.115989655 0.17432982
0003a0 ca f5 ed bd 8c 27 6b 3c e9 a3 df 3d 83 9c 5d 3d
       -0.11619146 0.01435269 0.10919935 0.05410434
0003b0 e5 79 b2 3d 78 52 24 be 6f ab 10 3e 90 6e f4 3d
       0.08714656 -0.16047084 0.14127897 0.119351506
0003c0 5e 38 10 be 13 af b9 bd f0 aa 2f 3d 1f c0 78 bd
       -0.14084002 -0.09066596 0.042887628 -0.060730096
0003d0 6c 60 1c bc 0b b3 f6 bd 67 55 f5 3c f7 c1 2c 3e
       -0.009544473 -0.120458685 0.02994795 0.16870867
0003e0 d7 64 7f 3c ff 2e 2e 3c 5c 0f 00 3d a7 2d 01 3e
       0.015588007 0.010631322 0.031264648 0.12615071
0003f0 5d e7 51 3d 73 9e b3 bd 32 f0 ab 3d 97 ac 92 3d
       0.051246036 -0.08770456 0.08395423 0.07161825

bias f4 [128]
000000 d1 99 72 3e a7 26 a3 bd 8d ae 2f 3d f8 c1 82 bd
       0.23691489 -0.07966357 0.042891074 -0.06384653
000010 84 e8 7b bd 88 c7 5e 3e 9c b9 e3 3d 4e 98 7e bd
       -0.06150104 0.21755803 0.111193866 -0.062156968
000020 ed 1c 9e bd 71 d5 1f bd 74 2f 28 3e e0 fa d3 3d
       -0.07720361 -0.039021913 0.16424352 0.10350585
000030 d4 e8 e4 bb c8 82 f7 bd 04 c0 00 be ef b2 48 3d
       -0.006985763 -0.120854914 -0.12573248 0.04899877
000040 82 8b 41 3d 3d 25 9e 3d 24 1f ea 3d c3 04 97 3d
       0.047252186 0.077219464 0.11431721 0.07373955
000050 43 84 84 3d 5b d7 bc bd 66 3b 61 bd f2 7a f5 bd
       0.064705394 -0.09220763 -0.054988287 -0.119863406
000060 30 98 de 3c f9 0b ac 3b 69 e0 2e 3e da 33 2b 3e
       0.027172178 0.0052504507 0.17077793 0.16718999
000070 a2 e4 32 3e 3a 12 9d 3d 59 a4 de 3d be 2d 2d 3e
       0.17470029 0.07669492 0.108711906 0.1691198
000080 69 66 23 bc d3 f2 fe 3d dd 2e af bd c4 62 a9 3d
       -0.009973147 0.12448659 -0.0855386 0.08270791
000090 4f 4c ec 3d b3 b3 7b bc 0b ec 89 bd 3d 29 8d 3d
       0.11537992 -0.015362668 -0.06734475 0.06892631
0000a0 fc 1a be 3d 8a 72 48 bd 9b 63 bb bd 70 52 22 3c
       0.092824906 -0.048937358 -0.091498576 0.00990735
0000b0 3f 57 37 3d d5 41 60 3d d3 ef f4 bd 6e b0 11 3e
       0.04476094 0.054750282 -0.11959805 0.14227459
0000c0 5e 00 94 3d a8 b8 a3 3d e7 a1 98 bc 5c 18 21 be
       0.072266325 0.07994205 -0.018631889 -0.15731949
0000d0 16 92 d5 3d 41 db e7 3d 56 cb dd 3d 55 14 d0 bc
       0.10428254 0.11321116 0.10829799 -0.02540032
0000e0 55 fe e8 3d 75 46 fe 3d c8 e8 ce 3d 23 80 50 3d
       0.11376635 0.12415782 0.10102993 0.05090345
0000f0 69 97 d1 bd 31 ae a7 3d 52 3a b5 3d 5c cc e1 3c
       -0.10233957 0.08187521 0.08849014 0.027563266
000100 fd 26 a9 bd cf 41 1b 3e b9 f7 f0 3d bc 1c ec 3d
       -0.082593895 0.15161823 0.11765999 0.11528918
000110 3e 4b ac 3d 82 e3 61 3c 0c 78 4c 3b 0c f9 bc 3d
       0.08412789 0.013787152 0.0031199483 0.092271894
000120 d6 2a 24 bd d6 e3 85 bd 6a 4e 65 3d 4d b4 16 3c
       -0.040079914 -0.06537597 0.055982985 0.0091982605
000130 c9 5e 87 3e 31 dc a5 bc 22 53 4b bc a1 fa 86 3d
       0.26439503 -0.020246597 -0.012409957 0.065907724
000140 eb 7a af 3d 35 22 9b bd 6c 6f 6c bc 66 9a 76 bc
       0.085683666 -0.07574884 -0.014430862 -0.01505146
000150 b0 fa d4 3d f3 50 81 3c a5 7c 80 3c 82 3a 0b 3c
       0.10399377 0.01578567 0.015684435 0.008497836
000160 0c e9 f1 3b 90 be f0 3d 7f 2f 7f bd e5 2e a0 3d
       0.0073825177 0.11755097 -0.062301155 0.078214444
000170 17 3c 30 3e 0a 0e e0 b8 cd 3a 25 3d bd 42 f4 bd
       0.17210422 -0.00010683767 0.04033928 -0.11926792
000180 fd 13 e4 bd 82 a4 3a 3d 1f f9 e7 3d 70 22 a6 3d
       -0.11136625 0.045567043 0.11326813 0.08112037
000190 11 71 bf bd d3 86 f5 3c d7 e6 3e bc 05 e8 d4 bd
       -0.093477376 0.029971516 -0.011651716 -0.10395817
0001a0 fa 61 86 bd 74 c4 4e 3e 46 d8 66 3d 94 0c 32 3d
       -0.06561656 0.20192128 0.0563586 0.043469027
0001b0 e3 6f fc bd de 94 19 3e 2e e1 00 be 46 bd 28 bd
       -0.12326028 0.14998195 -0.12585899 -0.04119613
0001c0 dd 73 cd bc ad c4 4b 3e ed 5c 3c be 3b 54 9c 3d
       -0.025079662 0.19899245 -0.18394823 0.07633253
0001d0 7c 6f af 3d f3 1d 00 be 86 d1 18 3e d8 38 17 bd
       0.08566186 -0.12511425 0.14923677 -0.036919445
0001e0 66 9a 3e bd f7 99 45 be 4d 19 15 3e ec a4 9a 3c
       -0.046533965 -0.19297014 0.14560433 0.018877469
0001f0 2f 2a 9d bc f8 38 7e bd bf 96 1f 3d 63 39 f8 3d
       -0.019185154 -0.06206605 0.038962122 0.12120321

weight f4 [4, 128]
000000 35 29 bf 3e d0 fc bb 3b 1f 96 96 bc 29 07 6e 3e
       0.37336126 0.0057369247 -0.01838213 0.23244919
000010 51 e1 8b 3d c5 51 7f bd e3 78 18 be f6 33 8e 3d
       0.06830085 -0.06233384 -0.14889865 0.069435045
000020 18 74 9c 3d be 75 95 3e cd ce 24 3e 18 5a 3a 3e
       0.076393306 0.29191393 0.16094513 0.1819843
000030 a6 d3 6d 3d 5a 49 bb 3d 58 fb 8a 3e 68 78 8f bd
       0.05806317 0.0914485 0.27144885 -0.070053875
000040 c2 c3 57 3e 7b 84 ab bc d0 f0 db 3d 69 eb 03 be
       0.2107077 -0.020937195 0.10739291 -0.1288277
000050 11 12 09 be 5e 72 38 3d f0 5d a1 bc 9a fd 66 be
       -0.13385798 0.045030944 -0.019698113 -0.22557679
000060 d4 21 66 be a3 3e fa bc 3e 9b c2 bd bd 19 da bd
       -0.22473842 -0.030547446 -0.09502266 -0.106494404
000070 fc 4e cc bc 78 f4 66 bd 2b 13 a3 3e 47 7d cd 3d
       -0.024940006 -0.056385487 0.31850561 0.100336604
000080 c5 c2 ad bd 7d ad b6 be cd 66 db 3d c0 5b dd 3d
       -0.08484415 -0.35679236 0.10712967 0.108085155
000090 d5 19 96 bd 7e 16 d5 3d ef 7b 44 3e 55 be 7c 3a
       -0.07329146 0.10404681 0.19187902 0.0009641399
0000a0 1a d6 3d bc ad b4 4d 3d fa 20 07 bd 59 6c 1d be
       -0.01158669 0.050221134 -0.032990433 -0.15373363
0000b0 b5 dd 44 3e ac 2d 74 bd cc 7c 89 3e f7 a4 ce bd
       0.192252 -0.05961387 0.26853025 -0.10090058
0000c0 39 b5 8d be d0 2b 09 3e bc 3f c5 bd a1 3a df 3e
       -0.27677324 0.1339562 -0.09631297 0.43599418
0000d0 f4 76 1c 3d e3 90 13 3e a6 20 83 be c0 fd 75 3e
       0.03819938 0.14410739 -0.25610846 0.24022579
0000e0 8b da 2f be 55 a4 f8 bc e0 0d 02 be 23 7f 26 be
       -0.17173211 -0.030351797 -0.12700605 -0.16259436
0000f0 64 90 0c bd 9b 43 4f 3d 0e 2a 1f 3e bf 77 8d bd
       -0.03431739 0.050601583 0.15543386 -0.069076054
000100 d6 ad 82 3e fd 4e 8f ba ae 17 9c be 41 4b 8c bb
       0.2552325 -0.0010933575 -0.30486816 -0.004281432
000110 1b e4 05 3e bc 19 3a bd 2d 87 fa bd 7c c5 0f be
       0.13075297 -0.0454347 -0.12232814 -0.14040178
000120 69 de 3e bd 17 c7 e5 3e 0d 6e 83 be 02 49 b6 bd
       -0.046598826 0.44878456 -0.256699 -0.08900644
000130 7f 9c 3e be 5b 7b a3 bd 0d 41 81 3d d9 6d 6c 3e
       -0.18614386 -0.079825126 0.063112356 0.23088779
000140 d1 61 65 bd 83 94 79 be 54 5c 8a be 00 3e 1a 3e
       -0.056001488 -0.24373059 -0.27023566 0.15062714
000150 fe ff 5c bc 89 65 6a be 68 38 39 3e 13 89 c9 bb
       -0.013488768 -0.22890295 0.18087924 -0.0061503737
000160 2c 9c 38 be 5f 9f 34 3e 53 19 64 3e 32 ed a0 bd
       -0.18028325 0.1763892 0.22275285 -0.078577414
000170 76 64 05 3d c3 b9 af 3d 48 f7 8e 3d b3 a5 7d bd
       0.03256651 0.08580353 0.06980759 -0.0619256
000180 f5 f4 cc be 9a fe 13 3e 99 94 13 3e c0 03 13 3d
       -0.40030637 0.14452592 0.14412154 0.03589225
000190 bf 49 1d 3e ff a7 ba 3d b8 ae 0b be a2 b3 f9 3d
       0.15360163 0.09114074 -0.13640869 0.12192465
0001a0 c6 dc 0c be 01 36 54 3e ea 89 80 be 5f 33 8f be
       -0.13756093 0.20723726 -0.2510522 -0.2796888
0001b0 34 e8 f5 3e a1 d6 6b 3e d7 13 6e be 09 89 87 3e
       0.4802872 0.23031093 -0.23249756 0.26471737
0001c0 51 a1 13 3e d4 27 c9 3c 07 d8 d2 3e 2d a9 28 3e
       0.14417006 0.024555124 0.4118044 0.16470785
0001d0 33 90 d5 bd 59 c3 4a 3e 71 de 30 be e6 f1 21 3d
       -0.104278944 0.19801082 -0.17272355 0.039537333
0001e0 a5 a6 f8 bd ab 8f f8 3e 7c 7e 41 3d d3 51 98 3e
       -0.1214116 0.4854711 0.047239766 0.29749927
0001f0 95 a0 a3 3d d6 92 6a bb 33 f8 51 ba 64 95 98 3d
       0.07989613 -0.0035793087 -0.0008009702 0.07450369
000200 70 6f 69 3e 85 9e 55 be fc d3 f3 3c 5f ff a4 3e
       0.22796416 -0.20861252 0.029764168 0.32226083
000210 be e6 9d bd 2a c0 d5 be 41 77 45 be 84 5c 26 bd
       -0.07710026 -0.41748172 -0.19283773 -0.040615574
000220 50 34 f0 3d 2a ef f8 3e cc 17 89 3e da f5 59 be
       0.11728728 0.48619968 0.26775968 -0.21285191
000230 2d 67 97 bc 1c 64 09 be a5 d7 85 be b0 15 38 3d
       -0.018481815 -0.13417095 -0.26141086 0.044942558
000240 81 35 0b 3e 34 d6 4a be 11 15 aa 3e 1a d6 2e bd
       0.13594629 -0.19808275 0.33219197 -0.042684652
000250 76 c8 b6 be 12 c4 b7 ba 79 9f e3 bc 56 81 ed bd
       -0.35699815 -0.0014020225 -0.027786003 -0.115969345
000260 b6 5d e4 3e ac d6 03 be 5c b3 30 3e c9 cd 54 3e
       0.44602746 -0.1287486 0.1725592 0.20781626
000270 88 15 83 3e 67 8d cb bd 95 47 69 be 93 4b 06 3c
       0.25602365 -0.0993908 -0.22781213 0.008196729
000280 55 55 5d bb 1f 76 12 3f 48 8a a3 3e 39 ea 03 be
       -0.0033772786 0.5721149 0.31941438 -0.12882318
000290 8c 47 10 bf 10 d9 0c 3e b4 71 b8 bd d5 5e a1 be
       -0.5635917 0.13754678 -0.09006062 -0.31517664
0002a0 52 3a a4 bd 80 b5 ac be b7 f7 b9 be 93 2b 56 be
       -0.08018936 -0.33732224 -0.36321804 -0.2091506
0002b0 b6 4e 75 3e 4b 44 0e be 98 81 10 be 26 36 99 be
       0.23955807 -0.13893239 -0.14111936 -0.29924124
0002c0 d0 f6 e3 3c e5 f4 8b be bd a7 02 be 17 b8 a5 be
       0.02782765 -0.27335277 -0.127593 -0.32367012
0002d0 ea e0 68 be b3 86 2a be 9c 41 6d be 8c 55 9e be
       -0.22742048 -0.16652946 -0.23169559 -0.30924642
0002e0 92 1f db be cd ad e7 be 29 18 55 be 40 b8 66 bd
       -0.42797524 -0.45249787 -0.20809998 -0.05632806
0002f0 1a f9 b0 be 13 9d 58 be 2b ea 49 3e 07 94 ef bd
       -0.3456505 -0.21153669 0.19718234 -0.11698156
000300 90 a9 e3 be cf c8 a0 3e 1f ee 1c 3e c8 92 70 3e
       -0.44465303 0.31403205 0.15325211 0.23493493
000310 f0 35 39 be 15 e1 97 bd cb fa c4 bd 49 98 62 bd
       -0.18086982 -0.07415978 -0.096181475 -0.05532101
000320 90 4d 86 3e be 7a 7e 3d 32 0c 3b 3e 86 de 11 be
       0.2623105 0.062128775 0.18266371 -0.14245042
000330 04 e2 17 3f e1 a6 af 3d da 94 4a 3e 8e bc 6e 3e
       0.5932925 0.085767515 0.19783345 0.23314115
000340 0b c3 a8 bd 47 33 1b 3e 9d ff ca be aa 22 ae 3e
       -0.082403265 0.1515628 -0.39648142 0.34010822
000350 cf 4d ce be e6 bd b1 bd 67 6b 43 3e 1b 57 a7 3d
       -0.40293738 -0.086787984 0.1908394 0.08170911
000360 9f cd c7 bd f4 6e 38 be 84 dd b6 3d 42 3c a7 bd
       -0.09756016 -0.18011075 0.089289695 -0.0816579
000370 25 b3 27 3d c5 d1 1b 3f 0d 94 ed bc 4c 73 fe 3e
       0.04094233 0.6086696 -0.02900126 0.4969734
000380 7e ba c9 3c 65 a9 a7 3e 14 7e 48 3e c8 2f 3a be
       0.02462506 0.32746425 0.19579345 -0.1818229
000390 c9 35 7c bc 55 e7 bc 3e 4e c6 82 bd 0a 96 d0 be
       -0.015393683 0.36895242 -0.0638548 -0.4073947
0003a0 2e e9 0e be a1 07 6d bd 2e 8f 74 3e 15 ed 18 3f
       -0.13956138 -0.057868604 0.23882744 0.5973676
0003b0 c0 8c e5 be 1a f2 bc 3d d6 cf 9a 3e 91 31 2d 3e
       -0.44833946 0.09225865 0.3023669 0.1691344
0003c0 46 3b 05 3f a2 56 b0 3e f4 64 88 be bd 11 bf b9
       0.5204357 0.34441096 -0.2663952 -0.00036443575
0003d0 88 1a 07 bf 3b a4 18 3e 8c 23 3e 3f bd 3d 48 be
       -0.5277486 0.14906399 0.7427299 -0.19554801
0003e0 90 b9 2f 3e 37 f5 f0 bd 8f 14 6b be 9e 86 d3 3e
       0.1716063 -0.11765521 -0.22957061 0.41313642
0003f0 97 bd 0a be 8b 72 83 3c d3 33 c9 be a2 24 c9 be
       -0.13548885 0.01604583 -0.3929735 -0.3928576

bias f4 [4]
000000 38 43 9d 3c a3 4e f5 ba 3d 3b 8a bd 1a ec 0b bd
       0.019197091 -0.0018715452 -0.0674958 -0.03416071
