problem1/models/underway/success_whole_model_1766859170.pth (torch, 146613 bytes, 9 tensors)

weight f4 [128, 8]
0	0xbbf43c3d	-0.00745347
1	0x3f21337d	0.6296919
2	0xbf58872f	-0.84581274
3	0xbd7eac20	-0.06217587
4	0xbea2357d	-0.31681433
5	0xbe144e96	-0.14483103
6	0xbe5560b0	-0.20837665
7	0xbd3b39e6	-0.045709513
8	0xbec668da	-0.3875187
9	0xbea16a08	-0.31526208
10	0x3e2887e9	0.16458096
11	0xbe93a823	-0.28839216
12	0x3e080162	0.13281778
13	0x3e1555a2	0.14583448
14	0x3e332cf2	0.17497614
15	0x3e04e19f	0.12976693
16	0x3f349eca	0.7055479
17	0xbd529035	-0.051407058
18	0x3eca30aa	0.39490253
19	0xbe4f3723	-0.20235877
20	0xbf16be83	-0.5888445
21	0x3d460b20	0.048350453
22	0xbec61b44	-0.38692677
23	0x3da6fd53	0.081537865
24	0x3f3d2006	0.7387699
25	0xbee56fe8	-0.4481194
26	0x3ea76172	0.32691532
27	0xbf0d3461	-0.5515805
28	0xbe0e0eb5	-0.13872798
29	0x3a824aa5	0.0009940459
30	0xbb1c2126	-0.002382347
31	0xbdbd81bb	-0.0925326
32	0xbf026ca3	-0.50947016
33	0x3db53152	0.08847298
34	0xbd6afd21	-0.05737031
35	0xbeb545bd	-0.3540477
36	0xbee1eed7	-0.44127533
37	0x3b88f412	0.004179486
38	0x3eb6cc61	0.35702804
39	0xbf399de5	-0.7250655
40	0x3de548b4	0.11195508
41	0x3ea42d8a	0.32065994
42	0x3ae1fcf5	0.0017241525
43	0x3cae196c	0.021252356
44	0xbe696ad0	-0.22794652
45	0xbf2f0e3e	-0.68381107
46	0xbe80ad19	-0.25132063
47	0xbd0447ba	-0.032294966
48	0xbe25a8ab	-0.16177623
49	0x3e2ab314	0.16669875
50	0xbedce3af	-0.4314246
51	0x3ec7a7f7	0.38995335
52	0x3e33c013	0.17553739
53	0x3e9f2cf7	0.31088993
54	0xbe82d528	-0.2555325
55	0xbd70b41e	-0.058765523
56	0x3ea8466f	0.32866237
57	0x3da7ad8c	0.08187398
58	0x3d6ec00a	0.05828861
59	0xbdb76833	-0.08955421
60	0xbeba3903	-0.3637162
61	0x3dd089b7	0.10182517
62	0xbe9b46c1	-0.30327418
63	0x3e938e99	0.2881973
64	0x3eac5bb7	0.33663723
65	0x3d8d83b0	0.06909883
66	0xbc4b613c	-0.012413319
67	0x3fc12ce0	1.509182
68	0xbe7f59f4	-0.24936658
69	0x3d461f33	0.048369598
70	0xbe537f8d	-0.20654126
71	0xbeac9ecf	-0.3371491
72	0xbeaac2c6	-0.33351725
73	0xbe61dd62	-0.22057107
74	0xbf413ca6	-0.7548317
75	0xbf22d967	-0.6361298
76	0xbecb3599	-0.3968933
77	0x3e479c35	0.19493182
78	0x3d20935b	0.03920303
79	0x3e1e257d	0.15443988
80	0xbe96077c	-0.29302585
81	0xbea3d650	-0.31999445
82	0xbf3be3e6	-0.7339462
83	0xbe832330	-0.25612783
84	0x3f41fa10	0.7577219
85	0x3dd40953	0.10353341
86	0xbd393734	-0.04521866
87	0x3e51fd39	0.20506753
88	0x3ecae113	0.39624843
89	0x3e888462	0.266635
90	0x3e88d535	0.26725164
91	0x3ebb90a6	0.36633795
92	0x3df52c43	0.11971333
93	0xbf65d3e0	-0.8977642
94	0xbf1518bb	-0.5824086
95	0xbea242a1	-0.3169146
96	0x3eb94cba	0.3619135
97	0xbf6f58c5	-0.93494827
98	0xbf048ad6	-0.51774347
99	0xbed5b15b	-0.41736874
100	0x3e1fa940	0.15591908
101	0xb9d6fbc4	-0.0004100484
102	0x3e60492d	0.21902914
103	0x3e8415df	0.25797936
104	0x3ef04b63	0.46932516
105	0xbe2065fe	-0.15663907
106	0x3ecafbff	0.39645383
107	0xbe146a3c	-0.1449365
108	0xbee3c536	-0.44486398
109	0xbe3b3af2	-0.18284205
110	0xbf27937f	-0.65459436
111	0xbd18cedf	-0.037306663
112	0x3e977689	0.29582623
113	0xbdd77c05	-0.10521702
114	0xbe0ddca2	-0.13853696
115	0xbe1873a5	-0.14887865
116	0x3f93e4bc	1.1554179
117	0xbd83a0e5	-0.064271726
118	0xbe735d04	-0.23765951
119	0xbdd6e551	-0.104929574
120	0x3f113a15	0.5672925
121	0x3edab759	0.42718008
122	0x3df1ed88	0.118128836
123	0xbd260658	-0.040533394
124	0xbe0cd5a1	-0.13753368
125	0xbdb4c135	-0.08825914
126	0xbf15721b	-0.58377236
127	0x3ea956ac	0.33073938
128	0x3f0557d9	0.5208717
129	0x3f72241b	0.9458634
130	0xbe897cfd	-0.2685317
131	0xbe0bd2ef	-0.13654684
132	0xbecce443	-0.400179
133	0xbe3798e6	-0.1792942
134	0xbbb5c41b	-0.0055470592
135	0xbf39ca34	-0.7257416
136	0xbdcf8b3a	-0.10133977
137	0x3e847629	0.258714
138	0x3ee76143	0.45191392
139	0x3e97c84d	0.29645005
140	0xbeffa108	-0.49927545
141	0xbca36b51	-0.019948633
142	0xbe843051	-0.25818112
143	0xbf07354f	-0.5281572
144	0x3df633b4	0.1202158
145	0x3f1e837b	0.61919373
146	0xbd38ac94	-0.04508646
147	0xbe59fb6a	-0.21287313
148	0x3ec590ab	0.38586935
149	0xbdfe4f67	-0.124174885
150	0x3db571f9	0.08859629
151	0x3e57d4ad	0.21077223
152	0x3d20e9ad	0.03928535
153	0x3e9a4ef6	0.30138367
154	0x3f14c90b	0.5811927
155	0xbf28cc17	-0.65936416
156	0xbd988c34	-0.074486166
157	0x3f104f00	0.56370544
158	0x3e974dcc	0.29551542
159	0x3e8ee205	0.27906814
160	0x3d73dc89	0.05953649
161	0x3b1766a1	0.0023101943
162	0x3c973221	0.01845652
163	0xbd0394e0	-0.0321244
164	0xbfe8c13c	-1.818397
165	0x3e2680d7	0.16260086
166	0x3d01bab1	0.031672183
167	0xbdd251a8	-0.10269481
168	0xbee8adbe	-0.45445055
169	0x3f71a99d	0.94399434
170	0xbe9c08e7	-0.30475542
171	0xbeef063c	-0.46684444
172	0x3ea96401	0.3308411
173	0x3e0207bc	0.12698263
174	0x3ce900a1	0.028442683
175	0xbe4e1585	-0.20125397
176	0xbea85da0	-0.3288393
177	0xbe9acda4	-0.30235016
178	0x3ebb65e5	0.36601177
179	0xbea5be14	-0.3237158
180	0x3e8a2c06	0.26986712
181	0x3ea480c4	0.3212949
182	0x3eac8d79	0.33701685
183	0x3e15ce00	0.14629364
184	0xbd0b3c9e	-0.033993356
185	0x3cf8e71e	0.030383643
186	0x3b3aea54	0.0028521018
187	0xbe926ebe	-0.28600115
188	0xbeb5d813	-0.35516414
189	0x3f13e0bc	0.5776479
190	0x3e52e4d6	0.20595106
191	0x3e6f466a	0.23366705
192	0xbb79f2b5	-0.003813905
193	0x3c954e96	0.01822595
194	0x3f1d86a5	0.61533576
195	0xbf850629	-1.0392505
196	0xbb443ebd	-0.0029944621
197	0xbd896e89	-0.06710536
198	0xbea402be	-0.32033342
199	0x3eac4bce	0.33651584
200	0xbefcb596	-0.4935729
201	0x3ed34616	0.4126441
202	0xbef175ee	-0.47160286
203	0x3e7a8631	0.24465252
204	0x3dd2ff6e	0.103026256
205	0x3e4b5960	0.19858313
206	0x3e9ee976	0.31037492
207	0x3e6e4b6e	0.23270962
208	0xbed88b22	-0.4229365
209	0x3ee9b6b6	0.4564721
210	0x3f16620f	0.58743376
211	0x3d9030c0	0.07040548
212	0xbc45f7ac	-0.012082975
213	0x3dbdded3	0.09271016
214	0xbe917344	-0.28408253
215	0xbdc0af6e	-0.094084606
216	0xbdc22301	-0.09479333
217	0xbe9b3400	-0.3031311
218	0x3dde612a	0.10858376
219	0xbe81b9ca	-0.25337058
220	0x3f05dfc9	0.52294594
221	0x3ece5241	0.4029713
222	0x3eb8a1b3	0.36060867
223	0x3eaadef4	0.33373225
224	0x3eb21a9d	0.3478593
225	0x3ece0ff7	0.40246555
226	0xbe993594	-0.2992369
227	0x3e23d048	0.15997422
228	0x3d22d091	0.039749686
229	0x3e474ae8	0.19462168
230	0xbe0710e2	-0.13190034
231	0xbe7a146d	-0.24421854
232	0xbd7e6723	-0.062110078
233	0xbd16e207	-0.03683665
234	0x3f7d7707	0.99009746
235	0xbf398ba9	-0.7247873
236	0x3e4dbe8f	0.20092224
237	0xbe14267a	-0.14467803
238	0xbf07608e	-0.52881706
239	0x3e3b1a84	0.18271834
240	0xbd43416c	-0.047669813
241	0x3d07236d	0.03299277
242	0xbee4bde2	-0.4467612
243	0xbe4a81ed	-0.19776125
244	0x3edcbb12	0.43111473
245	0x3eaeaeb2	0.34117657
246	0xbe128a97	-0.1431068
247	0x3db7f535	0.089823164
248	0xbe36ce38	-0.17852104
249	0x3eeccc88	0.46249795
250	0x3f0f7ca6	0.56049573
251	0xbdcd7118	-0.100313365
252	0x3cefba57	0.029263658
253	0xbf4b862a	-0.79501593
254	0x3d4b46fe	0.04962825
255	0xbe1bcafb	-0.1521415

bias f4 [128]
0	0xbdbdfd27	-0.092768006
1	0x3f059a9f	0.5218906
2	0x3e3438f4	0.17599851
3	0xbd7e43dc	-0.062076434
4	0xbd5f8af1	-0.054575864
5	0xbd5d367c	-0.05400704
6	0x3ec83607	0.3910372
7	0x3eee7b63	0.46578512
8	0xbe1bbec2	-0.15209487
9	0x3e8aaefe	0.27086633
10	0x3e860af3	0.2618023
11	0xbc913e13	-0.017729795
12	0x3da2e3e2	0.079536214
13	0x3eda418b	0.4262813
14	0x3d75d812	0.060020514
15	0xbcbf5443	-0.023355609
16	0x3dbcd5bc	0.09220454
17	0xbe5ea46f	-0.21742414
18	0xbe27bfaf	-0.16381715
19	0xbe1264f4	-0.14296323
20	0xbca65d96	-0.020308297
21	0x3e6a7062	0.22894433
22	0x3edcde6e	0.4313845
23	0xbf0b1e08	-0.543427
24	0xbc8369c0	-0.016041636
25	0x3dd21bd5	0.10259215
26	0x3ecc8ccd	0.39951172
27	0xbd23c82f	-0.03998583
28	0x3f083fc8	0.5322232
29	0x3c6e6daf	0.014552518
30	0xbe94b6b7	-0.2904565
31	0x3ed63cbd	0.41843215
32	0x3d4d5dc0	0.050138235
33	0x3ea10d5a	0.314555
34	0x3ea114e1	0.31461242
35	0x3e42f44b	0.19038503
36	0x3e3b17ca	0.18270794
37	0xbed6b0c8	-0.41931748
38	0x3bbb0290	0.0057070926
39	0xbe1ff17d	-0.15619464
40	0x3e16995a	0.14706936
41	0x3deec384	0.116583854
42	0x3ee6f153	0.4510599
43	0x3eb73ada	0.35787088
44	0x3ebc5765	0.36785427
45	0x3eecd984	0.462597
46	0xbeed1860	-0.4630766
47	0x3e08393a	0.1330308
48	0x3e9c9ddd	0.3058919
49	0x3e1cccc0	0.15312481
50	0x3e24c0fe	0.16089246
51	0xbe6c0c25	-0.23051508
52	0x3e4b3e39	0.19847955
53	0x3ee917f2	0.4552608
54	0x3ddc1c75	0.10747615
55	0xbe039372	-0.12849215
56	0xbde7622b	-0.11298021
57	0xbe8ca269	-0.2746766
58	0xbd0a4fdc	-0.033767566
59	0x3c3e96bf	0.01163262
60	0xbe197843	-0.14987282
61	0xbdbad3f9	-0.09122462
62	0x3e8a6e32	0.27037197
63	0x3ea52fad	0.32262936
64	0xbd59b24a	-0.053148545
65	0x3e420ecc	0.18950957
66	0x3e3beff6	0.18353257
67	0x3e656292	0.22400883
68	0x3e31e487	0.17372333
69	0x3e188232	0.14893416
70	0x3f041f95	0.5161069
71	0xbe326f1f	-0.17425202
72	0x3ea80f00	0.32823944
73	0xbea28490	-0.31741762
74	0x3ec34b97	0.38143608
75	0xbbc9b351	-0.0061554094
76	0x3eb5c2b1	0.355001
77	0x3cabbb67	0.020963384
78	0x3e8b4fa5	0.272092
79	0x3ec4833c	0.38381374
80	0x3de7e5fe	0.113231644
81	0x3e7b3886	0.2453328
82	0x3eb3a434	0.35086215
83	0x3ed9e0f7	0.42554447
84	0xbe3fc723	-0.18728308
85	0x3e8ff737	0.28118297
86	0x3d64523d	0.05574249
87	0x3e6adc79	0.22935666
88	0x3ebec4e3	0.37259588
89	0x3ed98a07	0.4248812
90	0x3e9141f5	0.28370634
91	0x3e2b9855	0.16757329
92	0x3d0baa55	0.03409799
93	0x3dd56ea8	0.10421497
94	0x3e9ebd82	0.31003958
95	0x3e3640fe	0.1779823
96	0x3e14d7d3	0.14535455
97	0x3e0319d6	0.12802824
98	0xbebb500c	-0.36584508
99	0xbe31fe4d	-0.17382164
100	0xbe3ffe41	-0.18749334
101	0xbebc6ada	-0.3680027
102	0xbeae00e1	-0.33985046
103	0x3d8459e9	0.064624615
104	0xbe9697a5	-0.2941257
105	0xbdeaf43c	-0.11472365
106	0xbd3113b7	-0.043231692
107	0xbe933f23	-0.28759107
108	0x3e3e2e35	0.18572314
109	0x3e993c79	0.2992895
110	0xbe3d09ab	-0.1846072
111	0xbeb2ef86	-0.34948367
112	0x3d829811	0.063766606
113	0x3cf2d087	0.02964045
114	0x3dcf5762	0.10124089
115	0x3e962dc5	0.29331794
116	0x3e696101	0.2279091
117	0x3e387fda	0.18017522
118	0xbdfc265b	-0.12312003
119	0xbe9c2204	-0.30494702
120	0x3db04bbc	0.08608195
121	0x3e098926	0.13431224
122	0x3e9fbe13	0.31199703
123	0x3d97eade	0.07417844
124	0x3ec0db43	0.37667283
125	0xbb0a60b2	-0.0021114764
126	0x3eb6f4bb	0.3573359
127	0xbd4b395f	-0.04961526

weight f4 [128, 128]
0	0x3eb32407	0.34988424
1	0xbe090bc2	-0.13383391
2	0xbe0099d4	-0.12558681
3	0xbe4818ff	-0.19540785
4	0xbebb1c32	-0.3654495
5	0xbe5dcba0	-0.21659708
6	0x3cd00ef6	0.025397759
7	0x3e315991	0.17319323
8	0x3f753789	0.95787865
9	0x3e2e053b	0.16994183
10	0xbe8a6556	-0.27030438
11	0x3e3c884c	0.18411368
12	0xbe904271	-0.2817569
13	0xbeb5fcfe	-0.3554458
14	0xbdfd79a7	-0.12376719
15	0x3b43cdbe	0.002987727
16	0x3ddff04c	0.10934505
17	0x3e15cf53	0.14629869
18	0x3e5273e2	0.20552018
19	0xbd21d9fa	-0.03951452
20	0x3f99c308	1.2012644
21	0x3cf52330	0.029924005
22	0xbe769625	-0.24080713
23	0xbe3b5df7	-0.18297563
24	0x3f02ef73	0.5114662
25	0x3dabd8c1	0.08390952
26	0x3e9fb760	0.31194592
27	0xbf6aa050	-0.9165087
28	0xbdce0fac	-0.10061583
29	0x3eef1af6	0.46700257
30	0xbdcdc7c9	-0.100478716
31	0x3e0af0a8	0.13568366
32	0xbe61cfe1	-0.22051956
33	0x3f1f2b03	0.62175006
34	0x3c1c8967	0.009554244
35	0x3e33087c	0.17483705
36	0xbd508682	-0.050909527
37	0xbf26eb65	-0.65202934
38	0xbe4bdc9a	-0.19908372
39	0xbe05a235	-0.13050158
40	0xbe1403dc	-0.14454597
41	0x3dc0f0b4	0.094209105
42	0x3cc078f6	0.023495179
43	0xbe9cdb1e	-0.30635923
44	0x3e266f90	0.16253495
45	0x3ca28abc	0.019841544
46	0xbdd9d878	-0.10636991
47	0x3e8ef596	0.27921742
48	0x3dc37e41	0.095455654
49	0xbe935002	-0.2877198
50	0x3e18e020	0.14929247
51	0xbe399cca	-0.18126217
52	0xbd9e1cfd	-0.07720373
53	0xbbc80f21	-0.006105319
54	0x3ed8cd8c	0.4234432
55	0x3dcc08b2	0.09962596
56	0x3eaef810	0.34173632
57	0xbee8f1eb	-0.4549707
58	0x3f09dd69	0.5385347
59	0x3e802fec	0.2503656
60	0x3e904771	0.28179505
61	0x3de3830a	0.11108978
62	0xbdb3b29c	-0.087743014
63	0x3e1f54c7	0.15559684
64	0xbf174fb7	-0.5910601
65	0x3d2eadfe	0.0426464
66	0xbe4d99d4	-0.20078212
67	0x3e8dfa29	0.2772992
68	0xbc7ec44a	-0.015549729
69	0xbe0dab7e	-0.1383495
70	0xbc10f994	-0.008848567
71	0x3f083920	0.53212166
72	0xbda911bf	-0.08255338
73	0xbdb19807	-0.08671575
74	0x3e378b31	0.17924191
75	0xbe69e52c	-0.22841328
76	0x3dc7d99b	0.09758302
77	0xbe341fdc	-0.17590278
78	0xbe3f8ce5	-0.18706091
79	0x3c905269	0.017617421
80	0xbdb7af5c	-0.08968994
81	0x3de603cc	0.11231193
82	0x3d345617	0.044027414
83	0xbe2d343b	-0.16914456
84	0x3eb55d14	0.35422575
85	0xbe9b2879	-0.30304316
86	0x3970dfd4	0.00022971566
87	0xbd336e12	-0.043806143
88	0x3d53cdfb	0.05171011
89	0xbe12339b	-0.14277498
90	0x3c7995bd	0.015233454
91	0xbcfa7781	-0.030574562
92	0xbefd9281	-0.49525836
93	0x3ec00003	0.3750001
94	0x3ec5a1c5	0.38599983
95	0x3e68a30d	0.22718449
96	0x3ca80ba3	0.020513361
97	0x3e35ea3a	0.17765132
98	0x3f3e52bf	0.7434501
99	0xbc197d6f	-0.009368285
100	0x3ed2f07c	0.411991
101	0x3e993c95	0.29929033
102	0x3c8be6e4	0.01707787
103	0x3d870a9f	0.06593823
104	0x3f2e793d	0.68153745
105	0xbe025297	-0.12726818
106	0x3fc082dc	1.5039935
107	0xbef3662c	-0.47538888
108	0xbdc2810d	-0.09497271
109	0xbe69ae8a	-0.22820488
110	0x3f080202	0.53128064
111	0xbd89e4ac	-0.06733069
112	0x3ec59767	0.38592073
113	0x3e7dd247	0.24787246
114	0x3e5dcc6e	0.21660015
115	0x3cc2cbc6	0.023778807
116	0xbd54801a	-0.05187998
117	0xbd9834f0	-0.07431972
118	0x3dd4d906	0.103929564
119	0xbee7a978	-0.45246482
120	0x3e27210e	0.16321203
121	0xbc95b37d	-0.018274063
122	0x3e5a9826	0.21347103
123	0x3f1d6d8f	0.614953
124	0x3db481f9	0.08813853
125	0xbdaafe02	-0.083492294
126	0x3dc9ed93	0.09859767
127	0xbdba7f52	-0.09106316
128	0x3ec0f65e	0.37687963
129	0xbe2ed01a	-0.17071572
130	0xbf1e010c	-0.6172035
131	0xbd467433	-0.04845066
132	0xbeeee2ef	-0.46657512
133	0xbea95c7a	-0.33078367
134	0x3cf638b5	0.030056337
135	0x3dd783f8	0.10523218
136	0x3f29e145	0.6635936
137	0x3e4179ac	0.1889407
138	0xbd929036	-0.07156412
139	0x3dedb368	0.11606485
140	0xbd9f248b	-0.07770642
141	0xbf0f67c2	-0.56017697
142	0x3ea7d105	0.32776657
143	0xbd44b3ed	-0.048023153
144	0x3e7e3d63	0.24828105
145	0x3b8d6b0b	0.004315739
146	0x3e51f504	0.20503622
147	0x3d7aa99a	0.0611969
148	0x3f4b4dbd	0.79415494
149	0x3e304266	0.17212829
150	0xbe89273d	-0.2678775
151	0xbe882f58	-0.2659862
152	0x3f058258	0.52152014
153	0x3e1ab4bb	0.15108006
154	0x3e696d72	0.22795656
155	0xbf4c6100	-0.7983551
156	0xbd84080f	-0.064468496
157	0x3ef5c26b	0.47999892
158	0xbe20e740	-0.15713215
159	0x3e2afd59	0.16698207
160	0xbe5cc0f6	-0.21557984
161	0xbe8dc4d7	-0.2768924
162	0x3b562ecb	0.00326817
163	0x3e3b24ae	0.18275711
164	0x3d4e0425	0.05029692
165	0xbf6bc2a8	-0.92093897
166	0xbe3a10c1	-0.18170454
167	0xbf2d49a8	-0.67690516
168	0xbd865ead	-0.06561027
169	0xbd3448b9	-0.044014666
170	0x3d24e97c	0.04026173
171	0xbf142931	-0.57875353
172	0x3dc2ad60	0.09505725
173	0x3e871ebc	0.26390636
174	0xbe9c12dd	-0.30483142
175	0x3bc4a42a	0.006001015
176	0x3e127df7	0.14305864
177	0xbee48722	-0.44634348
178	0x3e754686	0.23952684
179	0xbeff41ca	-0.4985488
180	0xbf25a35d	-0.647024
181	0x3db2ec31	0.08736456
182	0x3dcfd378	0.10147756
183	0x3df8b000	0.12142944
184	0xbd91dfa1	-0.07122732
185	0xbe6571a4	-0.22406632
186	0x3e5be58a	0.21474281
187	0x3e15a79c	0.14614719
188	0x3d62354a	0.0552266
189	0xbf8f1f53	-1.1181434
190	0x3de3f505	0.11130718
191	0x3d256a0c	0.040384337
192	0xbebe5ab2	-0.3717857
193	0x3e181629	0.14852203
194	0x3cac94ae	0.02106699
195	0x3e70e658	0.23525369
196	0x3ca28080	0.019836664
197	0xbe0880e9	-0.13330425
198	0x3d4a09cf	0.04932576
199	0xbd8b6d29	-0.0680793
200	0xbd092241	-0.033479933
201	0xbf3e537e	-0.7434615
202	0x3e148a63	0.14505915
203	0xbed2af5d	-0.41149417
204	0x3e092503	0.13393025
205	0x3d00a677	0.031408753
206	0x3ae6f015	0.0017619157
207	0xbe363c2e	-0.17796394
208	0xbf0ff5d0	-0.56234455
209	0x3dbf920b	0.09354027
210	0x3e1ed17b	0.15509598
211	0xbf2c9594	-0.6741574
212	0x3e8f1cf1	0.27951768
213	0xbe902e20	-0.2816019
214	0xbf198fb8	-0.5998492
215	0x3d9817a3	0.07426383
216	0x3dd0f269	0.10202486
217	0xbec1af27	-0.37828943
218	0x3f0aff25	0.5429557
219	0xbde07f4f	-0.10961782
220	0xbf1c48e3	-0.61048716
221	0x3f2c376d	0.67272073
222	0xbf210e86	-0.62912786
223	0x3e2177b1	0.15768315
224	0xbdb8907e	-0.09011935
225	0xbc911a7f	-0.01771283
226	0x3f1c9fe9	0.61181504
227	0xbe27df8a	-0.16393867
228	0xbd42bc8f	-0.047543105
229	0x3e5bb0fa	0.2145423
230	0xbdecfa62	-0.11571194
231	0x3cdb2d94	0.026755132
232	0x3ea7578c	0.3268398
233	0xbec41b12	-0.38301903
234	0x3de67ebf	0.11254644
235	0xbf51d9bc	-0.8197286
236	0xbd9af32d	-0.07565913
237	0xbe9a4e6b	-0.30137953
238	0x3dca7390	0.09885323
239	0xbe45c3c4	-0.1931296
240	0x3edff00a	0.43737823
241	0xbf3ac120	-0.72950935
242	0x3e4d869b	0.20070879
243	0x3e6df6a6	0.2323862
244	0x3cb5a562	0.022173587
245	0xbc253a99	-0.010084772
246	0xbdafaa81	-0.08577443
247	0xbf007c77	-0.5018992
248	0x3e1a2e56	0.15056738
249	0xba6bde42	-0.00089976576
250	0xbf036d6f	-0.5133886
251	0xbcfcfdc3	-0.030882722
252	0x3e357fdf	0.1772456
253	0xbde82e94	-0.11337009
254	0x3ea71ca7	0.32639048
255	0xbf51bae2	-0.81925786

bias f4 [128]
0	0x3dd06557	0.10175579
1	0x3cada1cb	0.021195313
2	0xbd939ff6	-0.072082445
3	0xbd58f354	-0.05296643
4	0xbd8f684d	-0.07002316
5	0x3d835e55	0.06414477
6	0xbd8a40c2	-0.06750633
7	0xbe3fef8e	-0.18743727
8	0xbd96237a	-0.07330985
9	0xbde6f7c2	-0.11277725
10	0xbe34a6be	-0.17641732
11	0x3c1b648c	0.009484421
12	0xbda53c44	-0.080681354
13	0x3e0adab1	0.13559987
14	0x3dc57fdc	0.09643528
15	0xbd537619	-0.0516263
16	0xbdc3e2d1	-0.09564746
17	0xbd6386ec	-0.055548593
18	0xbcb34e6b	-0.021887979
19	0x3d8a6f5e	0.06759523
20	0x3e4eb59b	0.20186464
21	0xbda13f95	-0.078734554
22	0x3e03ee3d	0.1288385
23	0x3dd4524c	0.103672594
24	0xbe0d1390	-0.13776994
25	0xbe1c91f8	-0.15290058
26	0xbdcaea7f	-0.09908008
27	0x3d1766b0	0.036963165
28	0xbe8736a2	-0.2640887
29	0x3e0f014b	0.13965337
30	0x3e2b4cb3	0.16728477
31	0x3c54a0cb	0.012977789
32	0xbdaad7ac	-0.083419174
33	0xbba7e2bb	-0.005123464
34	0xbd611b30	-0.05495757
35	0xbd2c2220	-0.04202473
36	0x3d098db4	0.033582404
37	0x3dcced7d	0.10006235
38	0x3d98d190	0.07461846
39	0xbdfe736c	-0.12424359
40	0xbbf1bf32	-0.0073775286
41	0xbe232f95	-0.1593612
42	0x3cc081af	0.023499338
43	0xbda0b953	-0.07847848
44	0xbd00b351	-0.03142101
45	0xbd8f17c3	-0.06986954
46	0x3cebff0e	0.028808143
47	0xbd8e3543	-0.069437526
48	0xbd3fe72f	-0.046851333
49	0xbdc7e0c9	-0.09759671
50	0x3c81cbf7	0.015844328
51	0xbb82631b	-0.0039790994
52	0xbe13f182	-0.14447597
53	0x3e1691e9	0.14704098
54	0xbd429752	-0.04750759
55	0xbcf38025	-0.02972419
56	0xbdaea4d9	-0.08527536
57	0xbccda75c	-0.025104217
58	0xbdb37c22	-0.08763911
59	0xbdbdc168	-0.09265405
60	0xbd85e7ef	-0.065383784
61	0x3eaa8f73	0.33312568
62	0xbc22e398	-0.009941958
63	0xbd3f123e	-0.046648256
64	0x3d334236	0.043764316
65	0x3dfe0c5e	0.124047026
66	0xbdee75fd	-0.11643598
67	0xbdad3bc1	-0.08458663
68	0x3dbf331b	0.093359195
69	0x3dc7f696	0.097638294
70	0xbe205630	-0.15657878
71	0xbd343cf4	-0.044003442
72	0xbe06158c	-0.13094157
73	0xbdba7735	-0.09104768
74	0xbd731801	-0.059349064
75	0x3d08a7ea	0.03336326
76	0xbe4ec1a4	-0.20191056
77	0x3dbf4177	0.09338658
78	0xbd35d3d8	-0.044391483
79	0xbdb6ce71	-0.08926094
80	0xbe31fe23	-0.17382102
81	0x3d1d8939	0.038460944
82	0x3d7d3904	0.061821952
83	0xbe6a4a30	-0.22879863
84	0xbd1ea6e8	-0.038733393
85	0x3e0de89e	0.13858268
86	0x3c894717	0.016757531
87	0x3d052e5f	0.032514926
88	0x3ccb7319	0.024835156
89	0x3cf1e4bf	0.02952802
90	0x3ddfabff	0.109214775
91	0xbc63e1c3	-0.013908806
92	0xbd209303	-0.0392027
93	0xbdd830c1	-0.10556174
94	0xbdb466da	-0.0880868
95	0xbdae1768	-0.08500558
96	0x3e397466	0.18110809
97	0xbe6b0c8d	-0.22954006
98	0x3e333b41	0.17503072
99	0x3dd0246d	0.10163198
100	0xbbcf963a	-0.006335047
101	0x3df8d5ac	0.1215013
102	0xbdd4cae7	-0.10390263
103	0x3d14972f	0.036276992
104	0x3d0ab1b8	0.033860892
105	0xbe7a8c85	-0.24467666
106	0x3e367caa	0.17820993
107	0x3e5cd3fb	0.21565239
108	0xbc5f9687	-0.013646728
109	0xbdbaf8ee	-0.09129511
110	0xbdd94e0e	-0.10610591
111	0xbd3bd030	-0.04585284
112	0x3e334d04	0.17509848
113	0x3e6eaaf7	0.23307405
114	0x3d8dc48d	0.06922255
115	0x3e478231	0.19483258
116	0xbd67332e	-0.056445293
117	0x3cd08df7	0.02545832
118	0xbc465602	-0.012105467
119	0xbd9b164a	-0.07572611
120	0x3c59f8d4	0.013303954
121	0x3e98bb45	0.29830375
122	0x3e3cd161	0.18439247
123	0xbd28e5c1	-0.041234735
124	0x3e0f888f	0.14016937
125	0xbe341b9f	-0.17588662
126	0x3e91f7c1	0.28509334
127	0xbc184c77	-0.009295574

weight f4 [1, 128]
0	0x3f63f51b	0.89045876
1	0x3f55e430	0.8355131
2	0xbd135316	-0.03596791
3	0xbf4a8f6e	-0.79125106
4	0xbf409243	-0.7522318
5	0x3bcc3184	0.0062314887
6	0xbf26083d	-0.6485632
7	0xbf829fba	-1.0204995
8	0xbf180cd5	-0.5939458
9	0xbf364abb	-0.7120778
10	0xbf7b6dfa	-0.98214686
11	0xbf368002	-0.71289074
12	0xbf27f1f0	-0.6560354
13	0x3f5e44ec	0.86823916
14	0x3f5a91eb	0.85378903
15	0x3f5f0527	0.87117237
16	0x3fa83266	1.314038
17	0xbf16ece8	-0.5895524
18	0xbf172cc2	-0.5905267
19	0xbd447efe	-0.04797267
20	0x3f7376d2	0.9510318
21	0x3f4f2a58	0.80923986
22	0x3f644965	0.8917449
23	0x3f432947	0.7623486
24	0xbf4a3f7a	-0.7900311
25	0xbf99eaf7	-1.202483
26	0xbf8b3387	-1.08751
27	0xbf35c3a8	-0.7100167
28	0xbf4683a6	-0.7754463
29	0x3f670413	0.9024059
30	0x3f47c41d	0.7803362
31	0xbf11033c	-0.5664556
32	0xbf337004	-0.700928
33	0xbf2f91f9	-0.6858211
34	0xbf36c84e	-0.7139939
35	0xbf22773f	-0.63463205
36	0xbf2af4b8	-0.6677966
37	0x3f66d6ce	0.90171516
38	0x3f6344fb	0.8877713
39	0xbf137c5b	-0.57611626
40	0xbf3a2ebd	-0.72727567
41	0xbf12e62e	-0.57382476
42	0x3fc19fa3	1.5126842
43	0xbf35dc2a	-0.7103907
44	0x3f8276e3	1.0192531
45	0xbf98f929	-1.1951038
46	0x3f6255dc	0.8841226
47	0xbf4d5568	-0.80208445
48	0x3d59bece	0.05316048
49	0xbf43ac39	-0.76434666
50	0xbf2c2cba	-0.6725575
51	0xbf759423	-0.95929164
52	0xbf3ad06b	-0.7297427
53	0x3f4fa9f8	0.81118727
54	0xbf5a2829	-0.8521753
55	0xbf25598f	-0.6458978
56	0xbf1ac0c6	-0.604504
57	0xbf1da02a	-0.61572516
58	0x3f60b2ce	0.87772834
59	0x3d4d7367	0.050158884
60	0xbf494e82	-0.7863542
61	0x3f505b62	0.8138944
62	0xbf076480	-0.52887726
63	0x3fb51cb3	1.4149383
64	0xbda13e9e	-0.078732714
65	0x3f39b47b	0.72541016
66	0xbf10beb2	-0.5654098
67	0x3c191d03	0.009345296
68	0x3f71c140	0.944355
69	0x3f5b4747	0.85655636
70	0xbf33c68a	-0.7022482
71	0xbf311d44	-0.6918528
72	0xbf1615b7	-0.58626884
73	0xbf2da541	-0.6783028
74	0xbdab12a4	-0.08353165
75	0xbf421f34	-0.7582886
76	0xbf0c51d2	-0.5481235
77	0x3f3e0b31	0.74235827
78	0xbf207326	-0.626757
79	0xbf65a857	-0.8970999
80	0xbfb4078b	-1.4064802
81	0xbf28f562	-0.65999424
82	0x3f3f8d59	0.74825054
83	0xbfa9e357	-1.3272504
84	0x3f47591d	0.7787035
85	0x3f40e861	0.7535458
86	0x3f567c70	0.83783627
87	0x3f6d92e0	0.9280224
88	0x3f6f55db	0.9349038
89	0xbf61b05a	-0.88159716
90	0x3f5e2917	0.8678145
91	0x3d4e8f81	0.050429825
92	0xbf32af42	-0.6979867
93	0xbf90e962	-1.1321223
94	0xbf5de48d	-0.86676866
95	0xbf14c031	-0.5810576
96	0x3f4b8366	0.79497373
97	0xbf9e8957	-1.2385663
98	0x3f794aa4	0.9737952
99	0x3f3fa8f8	0.748672
100	0xbd12d521	-0.035847787
101	0x3f555ac3	0.83341616
102	0xbf2b0f21	-0.6681996
103	0x3f58d81b	0.8470475
104	0xbf2b3f4e	-0.6689347
105	0xbf51d252	-0.8196155
106	0x3f602875	0.8756173
107	0x3f3fe8ea	0.74964774
108	0xbf27846c	-0.65436435
109	0xbf1399c4	-0.576565
110	0xbf229ade	-0.6351756
111	0x3f5ece3d	0.87033445
112	0x3f32010b	0.6953284
113	0x3f26adef	0.6510915
114	0x3f4612dc	0.7737253
115	0x3f54df25	0.8315299
116	0xbf2fd5ee	-0.68685806
117	0x3f704833	0.9386017
118	0xbf39fb6b	-0.7264926
119	0xbd099bbf	-0.033595797
120	0xbf5f2068	-0.87158823
121	0x3f680bcb	0.90642995
122	0x3f41e1a3	0.7573492
123	0xbf3768c5	-0.7164424
124	0x3f49af08	0.787827
125	0xbf71544a	-0.9426924
126	0x3f6d2afa	0.926437
127	0x3d7b857d	0.0614066

weight f4 [128, 128]
0	0xbee39881	-0.4445229
1	0x3e13f109	0.14447416
2	0x3d2e1030	0.042495906
3	0xbdda4c8c	-0.106591314
4	0x3d028655	0.03186639
5	0xbe0e4bdb	-0.13896124
6	0x3e583dad	0.21117277
7	0x3d93c42c	0.07215151
8	0xbef046d4	-0.46929038
9	0xbd7a8696	-0.061163507
10	0xbeb18201	-0.34669498
11	0xbdecbd45	-0.11559538
12	0xbc976f84	-0.018485792
13	0x3cc394dc	0.023874693
14	0xbed55df6	-0.4167325
15	0xbe49cc67	-0.1970688
16	0xbe881618	-0.26579356
17	0xbf21d422	-0.63214314
18	0xbeab6b93	-0.3348051
19	0x3d9b8115	0.0759298
20	0x3e8d5f07	0.27611563
21	0xbe29d481	-0.1658497
22	0x3de27f64	0.11059454
23	0x3e1c9304	0.15290457
24	0x3e010d4e	0.12602732
25	0xbd3f3918	-0.04668531
26	0x3ebb044f	0.36526725
27	0xbe44e719	-0.19228782
28	0xbac4b41b	-0.0015007289
29	0xbdbe1ac2	-0.092824474
30	0x3d47ba31	0.04876155
31	0x3e640613	0.22267942
32	0xbda97232	-0.08273734
33	0x3de5e33b	0.112249814
34	0x3e3d8cb4	0.18510705
35	0xbe02a47d	-0.1275806
36	0x3d10ee42	0.03538347
37	0xbf534fa7	-0.82543415
38	0xbe29791d	-0.16550107
39	0x3d4b2191	0.04959256
40	0xbe641138	-0.22272193
41	0x3ebe2133	0.37134704
42	0x3c18c19e	0.009323506
43	0x3d96641d	0.07343314
44	0x3e81148e	0.25210994
45	0xbe333a08	-0.17502606
46	0xbc1cb874	-0.009565461
47	0x3daa9ae3	0.083303235
48	0x3df87c35	0.121330656
49	0xbea61b23	-0.3244258
50	0xbeaa6ac5	-0.33284584
51	0x3d95c290	0.073125005
52	0x3dfc340f	0.12314617
53	0x3e0b4634	0.13600999
54	0xbdbfb6e2	-0.09361054
55	0xbf10404a	-0.563481
56	0x3e35be8d	0.1774847
57	0x3d75f778	0.060050458
58	0x3e74b88c	0.23898524
59	0x3e2fa82c	0.17153996
60	0x3d817936	0.06321947
61	0x3e7c8bce	0.24662706
62	0xbe2786f7	-0.16360079
63	0xbd3b06f4	-0.045660928
64	0xbe7ff579	-0.24995984
65	0xbe0c619e	-0.13709113
66	0xbd52a817	-0.051429834
67	0xbe109916	-0.14120898
68	0x3e5c465a	0.21511212
69	0xbe574e9a	-0.21026078
70	0xbdb357bf	-0.087569706
71	0x3caea2db	0.02131789
72	0x3db6c449	0.08924157
73	0xbe26e410	-0.16297936
74	0xbdb22c1b	-0.08699819
75	0xbd0ad496	-0.033894144
76	0xbcb59078	-0.022163615
77	0x3dd1ee1c	0.10250494
78	0xbb10fd68	-0.0022123698
79	0x3df65a7a	0.12028976
80	0xbe390416	-0.18067965
81	0x3d8fe502	0.07026102
82	0xbe3ad710	-0.18246102
83	0x3e54edff	0.20793913
84	0xbe184d1b	-0.14873163
85	0xbe40bc44	-0.18821818
86	0x3dbb98d7	0.09160011
87	0xbe609a77	-0.21933924
88	0xbe10918b	-0.1411802
89	0x3e036279	0.12830533
90	0xbf037d9d	-0.51363546
91	0xbe31b820	-0.17355394
92	0xbcb47065	-0.02202625
93	0x3d9c0348	0.07617813
94	0xbd4f5533	-0.05061836
95	0xbe13f5c1	-0.14449216
96	0xbd23b7bb	-0.03997014
97	0xbe9b6e41	-0.30357555
98	0x3e3409c1	0.17581846
99	0xbe848f67	-0.25890657
100	0x3ead299e	0.33820814
101	0xbdaf25ae	-0.08552109
102	0x3e0dbfb7	0.13842665
103	0xbcd14716	-0.025546592
104	0x3e383b46	0.17991361
105	0xbcd81ceb	-0.026380977
106	0x3f2736a0	0.65317726
107	0xbd825df5	-0.06365577
108	0xbe5d0b76	-0.21586403
109	0x3bb97c6b	0.0056605837
110	0xbe8fbcbe	-0.28073686
111	0xbf144630	-0.579196
112	0xbeab5ac0	-0.33467674
113	0xbc6e08b1	-0.014528439
114	0xbd23aca3	-0.03995956
115	0xbdc20c63	-0.09475019
116	0xbc94274b	-0.018085143
117	0x3d361559	0.044453952
118	0x3ea2a3f4	0.3176571
119	0xbee4c039	-0.44677904
120	0x3e48ce3e	0.19609925
121	0x3d7b2a4d	0.061319638
122	0x3dd6d9cd	0.10490761
123	0xbdb2ea85	-0.08736137
124	0xbc8e2eae	-0.017356243
125	0xbe3cc48a	-0.18434349
126	0x3d92794d	0.071520425
127	0xbc9bf708	-0.019038692
128	0xbd056d29	-0.032574806
129	0x3c05eca0	0.008174092
130	0x3aca297f	0.0015423744
131	0x3d9471f0	0.07248294
132	0xbcc40d80	-0.023932219
133	0xbcf1e31c	-0.02952724
134	0xbd3a93be	-0.045551054
135	0x3b99767d	0.0046833144
136	0x3c14f52a	0.009091655
137	0x3c1b8b69	0.009493687
138	0x39fb9c00	0.0004799068
139	0xbd7b0410	-0.06128317
140	0xbce3a8ff	-0.027790545
141	0xbd90b081	-0.070649154
142	0x3d339cc4	0.043850675
143	0xbdb4be54	-0.08825365
144	0xbcf8b123	-0.030357903
145	0x3c4f18d7	0.0126402
146	0x3d6b1618	0.057394117
147	0x3d677dd5	0.056516487
148	0xbda80022	-0.0820315
149	0xbcf1bed7	-0.029509945
150	0x3d87c9fb	0.066303216
151	0xbd156a79	-0.036478493
152	0xbdad4546	-0.084604785
153	0xbcf5e6df	-0.030017314
154	0xbd1c2570	-0.03812164
155	0xbd92bac6	-0.071645305
156	0xbd367fb1	-0.04455537
157	0xbd8cbadb	-0.06871577
158	0x3c1baada	0.009501183
159	0xbd0f8bb3	-0.035045337
160	0x3d6ea749	0.058265004
161	0xbda8a128	-0.08233863
162	0xbc2b4532	-0.010453509
163	0x3cb14b21	0.02164227
164	0x3d8c4f21	0.0685103
165	0xbd932658	-0.07185048
166	0xbd73fca7	-0.05956712
167	0xbc9987e1	-0.01874155
168	0x3d1d3464	0.03838004
169	0xbda29a8b	-0.07939633
170	0x3d74a036	0.0597231
171	0xbd3e37b7	-0.046439853
172	0xbda5048f	-0.0805751
173	0xbce45a0f	-0.027874975
174	0x3bc7778c	0.006087249
175	0x3d43468d	0.047674704
176	0x3d87b168	0.066256344
177	0x3c8f42e1	0.017487945
178	0xbc696bbe	-0.014246879
179	0xbdae0d88	-0.08498675
180	0xbd1c1413	-0.03810508
181	0xbd98ce24	-0.07461193
182	0xbc286634	-0.010278273
183	0xbdbafea2	-0.091305986
184	0xbdb078da	-0.086168006
185	0x3c9a187f	0.018810509
186	0xbd83aaaa	-0.06429036
187	0xbd1d4b17	-0.03840169
188	0xbcc4a402	-0.024003986
189	0xbc3e9a58	-0.011633478
190	0xbda41b24	-0.08012989
191	0x3d72892f	0.05921286
192	0x3d8c262d	0.06843219
193	0x3cb119f9	0.02161883
194	0xbd570288	-0.05249265
195	0x3ccee801	0.025257112
196	0x3d4b3ae3	0.049616706
197	0x3ca10d88	0.019659773
198	0xbbe991b9	-0.007127967
199	0x3da76d17	0.08175104
200	0xbd79c73a	-0.060981013
201	0xbd90646a	-0.070504025
202	0x3be8a0fc	0.007099269
203	0xbd5d051d	-0.053959955
204	0x3d518f5b	0.051162105
205	0x3d96f764	0.07371405
206	0xbd3f24d3	-0.046665978
207	0xbd8f1e54	-0.069882065
208	0x3d070776	0.0329661
209	0x3d20a185	0.039216537
210	0xbd869b38	-0.065725744
211	0xbc9c3769	-0.01906939
212	0xbd7102ad	-0.058840442
213	0x3c378fdd	0.011203733
214	0xbdbcf0db	-0.09225627
215	0x3d0d2359	0.03445754
216	0xbdb854c6	-0.09000544
217	0x3d0401f5	0.03222843
218	0xbd2f780f	-0.042839106
219	0xbd939e9f	-0.07207989
220	0xbda9583b	-0.08268782
221	0xbd0de9ad	-0.03464668
222	0x3d36c064	0.04461707
223	0xbce38fca	-0.027778525
224	0xbd96fe74	-0.07372752
225	0xbd017b6c	-0.031611845
226	0xbda34124	-0.07971409
227	0xbda8a760	-0.08235049
228	0xbd5f31fc	-0.05449103
229	0xbd91fb7d	-0.07128046
230	0xbda9843a	-0.08277173
231	0xbdac26c1	-0.08405829
232	0x3d9ef50a	0.07761581
233	0x3d88a84c	0.06672725
234	0x3db0884a	0.08619745
235	0xbdb0b211	-0.086277135
236	0xbca216fc	-0.01978635
237	0x3cfdc06b	0.030975541
238	0x3d8237ee	0.06358324
239	0x3d3bb69f	0.045828458
240	0xbdc5291b	-0.09626981
241	0x3d3ad282	0.045610912
242	0xbcf15b3a	-0.029462446
243	0xbcc34489	-0.023836391
244	0xbdb42fc4	-0.08798173
245	0x3d644907	0.055733707
246	0xbcaf0fda	-0.021369863
247	0x3d5f8174	0.054566815
248	0x3d8a3601	0.06748582
249	0xbd276843	-0.040870916
250	0x3d30e4a7	0.04318681
251	0xba5829e2	-0.0008245987
252	0x3cfbc696	0.030734342
253	0xbd8858e1	-0.06657577
254	0xbba4bc33	-0.005027318
255	0xbc055b8a	-0.0081395

bias f4 [128]
0	0x3db07a2e	0.08617054
1	0x3cfb367a	0.030665625
2	0x3df869b2	0.12129535
3	0x3c3c402f	0.011489912
4	0xba58a975	-0.0008264997
5	0x3dcc77d2	0.099837914
6	0x3d938b5b	0.07204314
7	0x3c6946de	0.014238087
8	0x3e021677	0.12703882
9	0xbd37469a	-0.044745065
10	0xbcd031d1	-0.02541438
11	0x3d1735ac	0.03691642
12	0x3d292c6f	0.04130214
13	0xbcded5cc	-0.027201556
14	0x3e510abb	0.2041425
15	0x3dbad394	0.091223866
16	0xbd0978eb	-0.033562582
17	0xbcb46031	-0.022018524
18	0x3da7de77	0.08196729
19	0x3c066aa4	0.008204136
20	0xbb8ed613	-0.0043590157
21	0x3acf66cc	0.0015823483
22	0xbc3c57d7	-0.011495552
23	0x3d9215f4	0.071330935
24	0xbde02e4c	-0.109463304
25	0xbb0a7c89	-0.0021131358
26	0x3db2a751	0.08723319
27	0x3e231835	0.15927203
28	0x3a4b673e	0.000775922
29	0x3d663abb	0.056208353
30	0x3e0fcd53	0.14043169
31	0x3cb8678d	0.022510314
32	0x3db3f3cc	0.08786735
33	0xbd138cee	-0.036023073
34	0x3c11c97b	0.008898134
35	0x3cd2c31b	0.0257278
36	0x3dec9e74	0.1155366
37	0x3cf21233	0.029549694
38	0x3d84f5ee	0.0649222
39	0x3e161171	0.14655091
40	0x3d685020	0.05671704
41	0x3d56cbdf	0.05244052
42	0x3c1580dc	0.009124961
43	0xb8c3c69f	-9.335321e-05
44	0xbda40903	-0.08009531
45	0xbe16c116	-0.14722094
46	0x3cd5d7c9	0.026103871
47	0x3d517a30	0.051141918
48	0x3d57437b	0.05255459
49	0x3d1f578e	0.038901858
50	0x3e19ec8e	0.15031645
51	0x3d4e663c	0.050390467
52	0x3d8c17c5	0.06840471
53	0x3e07dce8	0.13267863
54	0x3cd1e4c3	0.025621777
55	0x3d3ca4f8	0.046055764
56	0x3c4be192	0.012443917
57	0x3c446c68	0.011988737
58	0x3c52dd12	0.01287009
59	0x3d7ea96f	0.062173303
60	0xbdc36b22	-0.09541918
61	0x3d21e513	0.039525103
62	0x3d13893d	0.036019552
63	0x3d1dd1ab	0.038530033
64	0xbd0e8aef	-0.034800466
65	0xbcc66136	-0.024216276
66	0xbd58fc1c	-0.052974805
67	0xbcfdc121	-0.03097588
68	0x3e29870e	0.16555426
69	0x3be1ed8e	0.006894774
70	0x3cc699fa	0.024243344
71	0xbd27117c	-0.04078816
72	0x3ca92ac5	0.020650277
73	0xbc6ace37	-0.014331392
74	0x3e074976	0.13211617
75	0x3e2bf788	0.16793644
76	0x3df222e5	0.11823062
77	0x3d9a1178	0.07522863
78	0x3c9cfb19	0.019162701
79	0x3db9255e	0.0904033
80	0xbca816ce	-0.020518687
81	0xbc328d18	-0.010897897
82	0x3d17c838	0.037056178
83	0xbd8dbd6d	-0.06920896
84	0x3e78b4d7	0.24287735
85	0x3da050fc	0.078279465
86	0x3d000111	0.031251017
87	0x3dc545e4	0.09632471
88	0xbd730ec0	-0.05934024
89	0xbd707bd3	-0.058711838
90	0xbce1e04b	-0.027572772
91	0x3db3a5e1	0.08771873
92	0x3d90e089	0.07074077
93	0x3d7a2db8	0.061078757
94	0xba1c5ead	-0.00059650355
95	0xbd36b814	-0.044609144
96	0xbd806ccf	-0.062707536
97	0x3e26eba7	0.16300832
98	0x3d4154b4	0.04719992
99	0x3da2cd2c	0.0794929
100	0xbc00b7b2	-0.007856296
101	0xbd10a888	-0.035316974
102	0x3d3b8287	0.045778777
103	0xbc030521	-0.007996828
104	0x3cfdeb7e	0.03099608
105	0x3d96d7ae	0.073653564
106	0xbde9c931	-0.11415327
107	0x3bcdae5e	0.0062768897
108	0x3dbd2854	0.092362076
109	0xbd57f749	-0.052726064
110	0x3e29f7cc	0.16598433
111	0xbd4d6d99	-0.05015335
112	0xbda0ed23	-0.0785773
113	0x3e4a7800	0.19772339
114	0x3c8e277c	0.017352812
115	0x3bb11121	0.0054036533
116	0xbd81dc8a	-0.063408926
117	0xbd02371a	-0.03179083
118	0xbd96a502	-0.073556915
119	0xbd4ee483	-0.050510895
120	0xbd9e167e	-0.07719134
121	0x3d92711f	0.071504824
122	0x3e30dd1c	0.17271847
123	0x3c5e4d28	0.0135682
124	0x3ca39447	0.019968165
125	0x3de52a8f	0.11189758
126	0x3e2177c6	0.15768346
127	0xbc380673	-0.011232006

weight f4 [4, 128]
0	0x3b0f8f4a	0.0021905475
1	0x3daefd3e	0.08544396
2	0x3e82321c	0.25428855
3	0xbdd5cff7	-0.10440057
4	0x3db200ff	0.08691596
5	0x3d85ce85	0.06533531
6	0x3e91546a	0.28384715
7	0xbe85bb08	-0.26119256
8	0x3d604d7b	0.05476139
9	0xbe0a5621	-0.13509418
10	0xbe887e6f	-0.2665896
11	0x3e1f69be	0.15567681
12	0x3b9f18b1	0.0048552384
13	0x3e348002	0.17626956
14	0xbf2e8c67	-0.68182987
15	0x3e572c8e	0.2101309
16	0x3dac0a37	0.08400386
17	0x3e047da7	0.12938558
18	0x3d97a0ea	0.07403739
19	0xbd3c5cf7	-0.045987096
20	0xbea218da	-0.31659585
21	0x3d813c9b	0.06310388
22	0xbe74a191	-0.23889758
23	0xbef6f64f	-0.48234794
24	0x3e3d4e6b	0.18486945
25	0x3f11ad16	0.56904733
26	0x3d9d9a05	0.076953925
27	0x3c346666	0.011010742
28	0x3e583c4f	0.21116756
29	0xbc88f334	-0.01671753
30	0xbd402e6a	-0.046919264
31	0xbdc588ba	-0.09645219
32	0xbc190a48	-0.00934083
33	0xbda05278	-0.0782823
34	0xbf6c0315	-0.921922
35	0xbe380189	-0.17969336
36	0x3dec8883	0.11549475
37	0x3d0bf77f	0.034171578
38	0xbd285986	-0.041101
39	0x3ebbfc7e	0.36716074
40	0xbdfda7cf	-0.123855226
41	0xbcd20c2f	-0.025640575
42	0x3ea5dfc6	0.32397288
43	0xbe0e7cda	-0.13914815
44	0x3d9f867f	0.07789325
45	0xbe04fe68	-0.12987673
46	0xbe12dd6e	-0.14342281
47	0x3d490cfe	0.049084656
48	0xbd0bb59b	-0.03410874
49	0xbeb8d76d	-0.36101857
50	0xbcec8919	-0.028873967
51	0x3d238ad5	0.039927322
52	0x3ddf0df4	0.10891333
53	0x3e902c21	0.28158668
54	0x3ca91426	0.02063949
55	0x3e4dfbcc	0.20115584
56	0xbe939111	-0.28821614
57	0x3e19d161	0.15021278
58	0xbcccc519	-0.024996327
59	0xbcd55a8e	-0.026044156
60	0xbe2708f0	-0.16312003
61	0x3e61dac3	0.22056107
62	0xbc89afe7	-0.01680751
63	0x3bff422a	0.00778987
64	0xbe201bdd	-0.15635629
65	0xbf03c327	-0.51469654
66	0xbdc45635	-0.09586755
67	0x3e050042	0.1298838
68	0x3e0c09b1	0.13675572
69	0xbcd07619	-0.025446938
70	0x3e3729be	0.17887017
71	0xbd2d8a8a	-0.04236845
72	0xbd9799af	-0.0740236
73	0xbe40734a	-0.1879398
74	0xbba1bea3	-0.0049360557
75	0xbd39618c	-0.045259044
76	0x3ec70466	0.38870543
77	0xbe86a060	-0.2629423
78	0x3df63954	0.12022653
79	0x3d54c8a5	0.051949162
80	0x3d3f7dbf	0.04675078
81	0xbd372caa	-0.04472033
82	0x3e3e3f6d	0.18578883
83	0xbd81bbf9	-0.06334681
84	0xbe29d344	-0.16584498
85	0xbcd90ef5	-0.02649639
86	0x3d542612	0.05179412
87	0x3d0e224e	0.034700684
88	0x3df3af0a	0.118986204
89	0xbe2e6c5a	-0.1703352
90	0x3ce9ab18	0.028523967
91	0x3d913be8	0.07091504
92	0xbe2dadc8	-0.16960824
93	0x3e85bc73	0.26120338
94	0x3f0df7be	0.5545615
95	0x3c31f30a	0.010861168
96	0xbe5a740f	-0.21333335
97	0xbbc927b4	-0.006138766
98	0x3eb83026	0.35974234
99	0x3e8bebc4	0.27328312
100	0x3d8a1984	0.06743148
101	0xbf0bd2f6	-0.54618776
102	0xbcf3063f	-0.029666064
103	0x3d5706f7	0.052496877
104	0xbe3533c5	-0.1769553
105	0x3ecb5831	0.39715722
106	0xbd988750	-0.07447684
107	0xbdc85691	-0.09782136
108	0x3bf2066e	0.0073860204
109	0xbdcb49d6	-0.099261925
110	0x3dd15485	0.10221199
111	0xbf6cae7f	-0.9245376
112	0xbd9c3707	-0.07627683
113	0x3dade0b8	0.08490127
114	0xbde70aff	-0.11281394
115	0x3ddf741d	0.10910819
116	0xbd7a641c	-0.061130628
117	0xbd8865aa	-0.06660016
118	0xbe817c1f	-0.2529001
119	0xbe4595e0	-0.19295454
120	0x3ef8f1a6	0.48621863
121	0x3e792204	0.24329382
122	0x3e0d1abc	0.1377973
123	0xbcf023db	-0.029313972
124	0x3d509335	0.050921638
125	0xbe7e9f29	-0.24865402
126	0xbec2132f	-0.3790526
127	0x3e3905e2	0.1806865
128	0x3f31c453	0.6944019
129	0x3d83b9ee	0.06431948
130	0x3e5f9ac1	0.21836378
131	0xbf49e0fa	-0.7885891
132	0xbe23d5a4	-0.15999466
133	0xbefbc688	-0.49174905
134	0x3f2bd261	0.6711789
135	0x3ecf5c87	0.4050028
136	0x3e917454	0.28409064
137	0xbd976010	-0.07391369
138	0xbe92ead9	-0.286948
139	0xbd703df6	-0.05865284
140	0xbea8be83	-0.3295785
141	0xbe9a276f	-0.3010821
142	0xbf6d47d7	-0.92687744
143	0x3f074ec6	0.52854574
144	0x3e9c3bbf	0.30514333
145	0xbe1542d4	-0.14576274
146	0x3e5ed046	0.21759138
147	0xbf37cb2a	-0.7179438
148	0x3ed6d0a9	0.4195607
149	0xbea92e95	-0.33043352
150	0xbd2d3687	-0.04228833
151	0xbef74ade	-0.48299307
152	0xbf04fc35	-0.5194734
153	0x3e9474ac	0.28995264
154	0x3f1ea8c6	0.6197628
155	0x3ef7c0b0	0.48389196
156	0x3ef1ec87	0.4725077
157	0xbe9797ea	-0.2960809
158	0xbeb0fa59	-0.34566
159	0xbebbe4ed	-0.36698094
160	0x3e85474b	0.26030955
161	0xbb2c774c	-0.0026316224
162	0xbee74a1e	-0.45173734
163	0xbb9418fb	-0.0045195795
164	0x3e9eb2ef	0.3099589
165	0xbf1bc1c5	-0.60842544
166	0xbea4dd3c	-0.32200038
167	0x3f2b0b8c	0.66814494
168	0xbd8750d9	-0.06607217
169	0x3d2d84a7	0.042362835
170	0xbea28940	-0.31745338
171	0xbd24c4bd	-0.040226687
172	0x3ed5c2b9	0.41750124
173	0xbf06dd2b	-0.52681226
174	0xbebe7877	-0.37201282
175	0x3e0f1e3c	0.13976377
176	0xbd5da1dc	-0.05410944
177	0xbf9231cd	-1.1421448
178	0xbf426634	-0.759372
179	0xbca48c02	-0.020086292
180	0x3f036b94	0.51336026
181	0x3e851dd7	0.25999328
182	0xbf0d2d6c	-0.55147433
183	0x3e65792b	0.22409503
184	0xbf60d266	-0.8782104
185	0xbdf4bca0	-0.1195004
186	0xbd523780	-0.05132246
187	0x3d2fe366	0.042941473
188	0xbd8c3009	-0.068450995
189	0x3d419782	0.04726363
190	0x3e8702cb	0.26369318
191	0xbe54e666	-0.20791015
192	0xbdfde808	-0.12397772
193	0x3ebfea7f	0.37483594
194	0x3db224fc	0.086984605
195	0xbe88049c	-0.26566017
196	0x3f20a072	0.6274482
197	0x3c7db446	0.015484875
198	0xbf1dbd2e	-0.6161679
199	0xbda09215	-0.07840363
200	0x3f01ec59	0.5075126
201	0xbeeceffc	-0.46276844
202	0x3e363142	0.17792228
203	0xbe2b51a1	-0.16730358
204	0x3e24bf6d	0.16088648
205	0xbfa05742	-1.2526629
206	0xbea2f83e	-0.3183002
207	0xbee1d71f	-0.44109437
208	0x3b3c45fd	0.002872824
209	0x3ce2fca3	0.027708357
210	0x3ead1d3c	0.33811367
211	0xbdbc74a1	-0.09201933
212	0xbf680d3b	-0.9064519
213	0x3e7ea48c	0.24867457
214	0x3f450999	0.7696777
215	0x3f019e41	0.506321
216	0x3f07cde3	0.53048533
217	0xbe2c2691	-0.16811587
218	0xbd7036c3	-0.058645975
219	0x3f07f336	0.53105485
220	0x3e319b46	0.17344388
221	0x3f0b7808	0.5448003
222	0x3e960b64	0.29305565
223	0xbe8c542f	-0.27407977
224	0xbe25e0d8	-0.16199052
225	0x3ea1f75c	0.31634033
226	0x3f2abd4e	0.66695106
227	0xbe7bc409	-0.245865
228	0xbd738f92	-0.05946309
229	0xbbb58dd7	-0.0055405903
230	0xbd6b02b4	-0.057375625
231	0xbdac3b17	-0.08409708
232	0xbd2cadc1	-0.042157892
233	0xbe13378b	-0.14376657
234	0xbe4512f9	-0.19245519
235	0xbd8732a2	-0.06601454
236	0xbee3c3fe	-0.44485468
237	0xbe111164	-0.1416679
238	0xbe2241e6	-0.15845451
239	0xbedfd50d	-0.43717232
240	0x3d75ef77	0.060042825
241	0xbe8415ee	-0.2579798
242	0x3e5c3de0	0.21507978
243	0x3cc08ac8	0.023503676
244	0x3d91ffa2	0.07128836
245	0x3bf520e1	0.007480726
246	0x3e75ad6d	0.23991938
247	0xbd88095a	-0.06642409
248	0x3eefbd7d	0.46824256
249	0x3e946c64	0.28988945
250	0x3ee75e89	0.45189312
251	0x3f2c0da5	0.6720832
252	0xbf5f5080	-0.8723221
253	0x3ee42006	0.44555682
254	0x3b9a83bb	0.0047154105
255	0xbc760f01	-0.015018226

bias f4 [4]
0	0x3d1fdc8c	0.03902869
1	0x3d98f7b0	0.07469118
2	0xbdd0d949	-0.10197694
3	0xbc2b38dd	-0.010450569
